lightning_logs/version_61/checkpoints/epoch=9-step=810.ckpt (torch, 227860 bytes, 15 tensors)

lstm.weight_ih_l0 f4 [256, 5]
0	0xbecad14c	-0.39612806
1	0x3ca8d917	0.020611329
2	0xbf604c90	-0.87616825
3	0xbe482923	-0.19546942
4	0x3e63aa38	0.22232902
5	0xbde136aa	-0.109967545
6	0xbba63e43	-0.00507334
7	0x3f5c9ed8	0.86179876
8	0x3eba735d	0.3641614
9	0x3e3ac17e	0.18237874
10	0xbe866f34	-0.26256716
11	0x3d7cf229	0.06175438
12	0xbedeb416	-0.4349677
13	0x3d7cfa7a	0.06176231
14	0xbe6ec95f	-0.23319004
15	0x3dfa2eea	0.122159794
16	0x3e41f436	0.18940815
17	0x3f1685eb	0.5879809
18	0x3ec0dc2c	0.37667978
19	0xbe8461a7	-0.25855753
20	0x3e923196	0.28553456
21	0xbdb8add3	-0.09017529
22	0x3f304b8c	0.68865275
23	0x3e3fc330	0.18726802
24	0xbe1ea37c	-0.15492052
25	0x3e8f9edf	0.28050897
26	0xbdcf6200	-0.10126114
27	0x3f32ab6d	0.69792825
28	0x3e95730e	0.29189342
29	0xbe74f5b0	-0.23921847
30	0xbe139d03	-0.14415364
31	0x3e72503e	0.23663422
32	0xbf669277	-0.9006724
33	0xbd260e78	-0.040541142
34	0xbe5993d7	-0.21247803
35	0x3d905e19	0.07049198
36	0x3d45c1b1	0.04828042
37	0x3e532319	0.20618857
38	0x3e367895	0.17819436
39	0xbe71da07	-0.23618327
40	0xbe659e59	-0.22423686
41	0x3bcdf32e	0.006285093
42	0xbf730334	-0.9492676
43	0xbe561d77	-0.20909677
44	0xbd1d650e	-0.03842645
45	0xbe743e08	-0.23851788
46	0x3e3c7fe5	0.18408163
47	0xbe836c5b	-0.25668606
48	0xbe8d3e48	-0.2758658
49	0xbe55f5c0	-0.20894527
50	0xbe76e76c	-0.24111718
51	0x3dca7eac	0.09887442
52	0xbf507c10	-0.81439304
53	0xbea5fb71	-0.32418397
54	0x3e309985	0.17246063
55	0x3f0cbcfe	0.5497588
56	0xbeca65fd	-0.39530936
57	0x3f4b7bb1	0.79485613
58	0x3eb75e9b	0.35814366
59	0x3d62b441	0.055347685
60	0xbeb643df	-0.35598657
61	0x3dd0233b	0.1016297
62	0xbf702425	-0.9380515
63	0xbead9753	-0.33904514
64	0x3dce3a66	0.10069732
65	0xbda00fcc	-0.07815513
66	0xbe0c3511	-0.13692118
67	0xbf6249b5	-0.8839372
68	0xbe3a68d7	-0.18204056
69	0x3e6e3af3	0.23264675
70	0xbe988adf	-0.2979345
71	0x3dbf2d28	0.09334785
72	0xbf2ca14f	-0.6743364
73	0xbece6bce	-0.40316623
74	0x3e9858a0	0.29755116
75	0x3efe4f95	0.4967009
76	0xbe8fbf81	-0.28075793
77	0x3f430d6e	0.7619237
78	0x3e8941d7	0.26808044
79	0xbd68b3b7	-0.056812014
80	0xbce4387d	-0.027858967
81	0x3da8dde3	0.082454465
82	0x3ea7edd7	0.32798645
83	0x3e6cedce	0.2313759
84	0xbe60c8f2	-0.21951655
85	0x3ec8c5b9	0.3921335
86	0xbf079f8f	-0.5297784
87	0x3f6606d3	0.8985416
88	0x3ea2cdf0	0.31797743
89	0x3f111ca1	0.5668431
90	0xbe51f067	-0.20501862
91	0x3e043d67	0.12914048
92	0xbf4596f8	-0.77183485
93	0xbe0bc050	-0.1364758
94	0xbde9dadc	-0.11418697
95	0x3eaf4b89	0.34237316
96	0xbf088a08	-0.5333562
97	0x3f3bad83	0.7331163
98	0x3f0b2f84	0.5436938
99	0xbda289a7	-0.07936411
100	0xbe65131b	-0.2237057
101	0x3e8db867	0.2767975
102	0xbf407d63	-0.75191325
103	0x3c9f79cf	0.019467263
104	0xbe967189	-0.29383495
105	0x3ead55bb	0.3385447
106	0xbed41cdd	-0.4142827
107	0x3f298cde	0.6623057
108	0x3ed81842	0.42206007
109	0xbd631344	-0.055438295
110	0x3f142409	0.57867485
111	0xbeb398e1	-0.35077575
112	0x3f2444c9	0.6416746
113	0x3e9d66de	0.30742544
114	0xbe12f535	-0.14351352
115	0xbe833498	-0.25626063
116	0x3d340ba7	0.043956425
117	0xbf50a23c	-0.8149755
118	0xbbf9fd8e	-0.007629103
119	0xbe8ac90c	-0.27106512
120	0xbe93bfff	-0.2885742
121	0x3e6f8dc3	0.23393922
122	0xbeb2efe5	-0.3494865
123	0x3eeb676d	0.45977345
124	0xbe9bab01	-0.30403903
125	0xbe85951a	-0.26090318
126	0x3d342d86	0.043988727
127	0xbf3bb595	-0.7332395
128	0xbe6e0478	-0.23243892
129	0x3da9de90	0.082944036
130	0x3d0b53c9	0.03401545
131	0x3de3c476	0.11121456
132	0x3f3eb144	0.74489236
133	0x3e7bad85	0.24577911
134	0xbe16c36b	-0.14722984
135	0x3e111832	0.14169386
136	0x3d552624	0.052038327
137	0x3f2597cc	0.6468475
138	0x3e7da3ec	0.24769562
139	0xbe7ba8a9	-0.24576057
140	0x3ecc3ae0	0.39888668
141	0xbe70c668	-0.23513186
142	0x3f51d39f	0.81963533
143	0x3e9326b0	0.28740454
144	0x3d6980a6	0.057007454
145	0x3ee3765f	0.44426247
146	0xbef51c7e	-0.478733
147	0x3f869c6e	1.0516489
148	0x3e99bb0c	0.30025518
149	0x3e3d3a73	0.18479328
150	0xbe325635	-0.17415698
151	0x3e99c0e2	0.3002997
152	0xbdcbe4c1	-0.09955741
153	0x3eae37db	0.3402699
154	0xbeb0e3df	-0.34548852
155	0x3eab5069	0.33459786
156	0xbdc06f4e	-0.0939623
157	0x3f2c729d	0.67362386
158	0x3ea93a84	0.33052456
159	0xbd905d63	-0.07049062
160	0x3d5186cd	0.051153947
161	0xbbaabfef	-0.0052108685
162	0x3f615569	0.8802095
163	0x3e32b360	0.17451239
164	0x3efdfba1	0.4960604
165	0xbebb602b	-0.36596808
166	0x3e0c7701	0.13717271
167	0xbf664bd6	-0.89959466
168	0xbebbff92	-0.36718422
169	0x3ec6213b	0.38697228
170	0x3c381af4	0.011236895
171	0x3e0092da	0.1255602
172	0x3f1ea3f4	0.6196892
173	0x3ec80410	0.390656
174	0xbe832118	-0.25611186
175	0xbe086587	-0.1331998
176	0x3e332c26	0.1749731
177	0xbf4df2fb	-0.80448884
178	0xbe2eef4f	-0.17083476
179	0xbeae397b	-0.3402823
180	0xbe05c728	-0.13064253
181	0x3e2e6c59	0.17033519
182	0xbf44996e	-0.76796615
183	0xbeca57c0	-0.39520073
184	0x3e2d2277	0.16907679
185	0xbcc8d889	-0.024517315
186	0xbe1d94c0	-0.15388775
187	0x3f2d482f	0.6768827
188	0x3ea50435	0.32229772
189	0x3ec384e9	0.3818734
190	0x3cca468d	0.024691844
191	0xbcaea490	-0.021318704
192	0x3f2f788d	0.6854332
193	0x3e891881	0.26776507
194	0x3e876df5	0.26451078
195	0xbea04a50	-0.31306696
196	0x3e354256	0.17701086
197	0xbf41874d	-0.7559708
198	0xbd9e0d7c	-0.07717416
199	0x3e19b9cf	0.15012287
200	0xbdb9fac3	-0.09081032
201	0x3dce580a	0.10075386
202	0x3e2f8e6d	0.17144175
203	0x3ed425e8	0.4143517
204	0x3e8477d8	0.25872684
205	0x3edc1abf	0.42989156
206	0xbeb8166b	-0.35954604
207	0x3f6e4a66	0.93082273
208	0x3ed49f5d	0.41527835
209	0xbcc889f4	-0.024479844
210	0xbebac389	-0.36477306
211	0x3e7efaee	0.2490041
212	0xbf336a6a	-0.7008425
213	0xbea4d24c	-0.32191694
214	0xbd697623	-0.05699743
215	0x3dc343ac	0.09534392
216	0x3e0f1657	0.13973366
217	0x3f2035c3	0.62582034
218	0x3e92fd72	0.28708988
219	0xbe9a4798	-0.30132747
220	0x3efcc5ea	0.49369746
221	0xbe3c0423	-0.18360953
222	0x3f49331f	0.7859363
223	0x3e988fa8	0.297971
224	0xbe861aed	-0.26192418
225	0x3d9fc7a4	0.0780175
226	0x3dc6df66	0.097105786
227	0x3ee7675f	0.45196053
228	0x3e79bdd1	0.24388815
229	0xbe9eb1ae	-0.30994934
230	0xbe8a528d	-0.27016106
231	0x3a55c203	0.0008154215
232	0xbf31291e	-0.69203365
233	0xbe94dbe3	-0.2907401
234	0x3ec49f49	0.38402775
235	0x3e516959	0.20450343
236	0xbe3c1214	-0.18366271
237	0x3effff89	0.49999645
238	0x3ec517d1	0.38494733
239	0xbe41d7b6	-0.18929943
240	0xbeae12b5	-0.33998647
241	0xbd95b7a2	-0.07310416
242	0xbf3bd8aa	-0.7337748
243	0xbe9cb201	-0.30604556
244	0x3e7d1a29	0.2471701
245	0x3ee1e301	0.44118503
246	0xbea412b8	-0.3204553
247	0x3f504b15	0.81364566
248	0x3ec9dbda	0.39425546
249	0xbe596622	-0.21230367
250	0xbea28110	-0.31739092
251	0x3e7ecaf0	0.24882102
252	0xbf6c4ccb	-0.92304677
253	0xbe3b444e	-0.18287775
254	0xbb8a695d	-0.004223986
255	0x3ead62ad	0.33864346

lstm.weight_hh_l0 f4 [256, 64]
0	0xbd0951ec	-0.033525392
1	0x3d605f40	0.054778337
2	0xbdd92a72	-0.10603799
3	0xbd9f5c2e	-0.07781254
4	0x3df7ec60	0.12105632
5	0xbd5bbcc0	-0.053646803
6	0x3de5e1ec	0.11224732
7	0x3d0b1ff4	0.03396602
8	0x3d9e0a78	0.077168405
9	0xbcc5cf78	-0.02414678
10	0xbb1c2440	-0.0023825318
11	0xbddf76b4	-0.10911313
12	0xbccd9cf0	-0.025099248
13	0xbdef14b2	-0.11673869
14	0xbdb15cde	-0.08660291
15	0xbc773110	-0.015087381
16	0xbd58447c	-0.052799687
17	0xbcccaf38	-0.024985895
18	0xbd814142	-0.06311275
19	0x3defc62a	0.11707719
20	0x3b8ef940	0.004363209
21	0xbd0fc580	-0.03510046
22	0xbdd60fd6	-0.10452239
23	0x3d2230f4	0.039597467
24	0x3cd49960	0.025952041
25	0xba796b00	-0.00095145404
26	0x3cf5bd08	0.029997364
27	0x3c0344d0	0.008012012
28	0xbdb07d64	-0.08617666
29	0xbce9e140	-0.02854979
30	0x3da04cb6	0.078271315
31	0x3d0dec60	0.034649253
32	0x3ddfb2c0	0.10922766
33	0xbda1ee0a	-0.079067305
34	0x3dc2d662	0.095135465
35	0x3df618b4	0.120164305
36	0xbdb603a0	-0.0888741
37	0x3dbe796e	0.093005046
38	0xbb1f2a80	-0.0024286807
39	0xbd97576a	-0.0738972
40	0x3dba4bf6	0.0909652
41	0xbdff6f28	-0.12472373
42	0xbd14a76c	-0.03629248
43	0x3c417660	0.011808008
44	0xbdc8c88e	-0.09803878
45	0x3df7ffe0	0.12109351
46	0xbd8d935e	-0.06912874
47	0x3df02a5a	0.11726828
48	0x3d9e573c	0.077314824
49	0x3b477600	0.0030435324
50	0x3c178a00	0.00924921
51	0xbd376f2c	-0.044783756
52	0xbda520e6	-0.080629155
53	0xbd458f00	-0.04823208
54	0xbde1f0ae	-0.11032234
55	0x3d85e3ec	0.06537613
56	0x3dd58856	0.10426395
57	0x3cef8d70	0.029242247
58	0xbbb71500	-0.00558722
59	0x3df50e70	0.11965644
60	0x3da954f4	0.08268157
61	0x3ca03d60	0.019560516
62	0x3d393e80	0.04522562
63	0x3d203f14	0.039122656
64	0xbc573460	-0.013135046
65	0x3d02a758	0.031897873
66	0xbd8a46f4	-0.067518145
67	0x3ca02338	0.019548044
68	0xbdefbba6	-0.11705713
69	0x3d3e55c4	0.04646851
70	0x3d7cffe0	0.06176746
71	0xbd021598	-0.031758875
72	0xbcc26ac0	-0.023732543
73	0x3dff2b98	0.12459487
74	0x3dbe901c	0.093048304
75	0xbce54860	-0.027988613
76	0x3df44066	0.119263455
77	0xbd623124	-0.055222645
78	0xbdf9c81a	-0.121963695
79	0xbdf9bf68	-0.12194711
80	0x3d91b184	0.071139365
81	0x3de6579c	0.11247179
82	0x3cd3a5a8	0.025835827
83	0x3da52efc	0.08065602
84	0x3cb63cd8	0.02224581
85	0x3dcaffc8	0.09912068
86	0x3dfde160	0.123965025
87	0x3d025efc	0.031828865
88	0x3c091010	0.008365646
89	0xbc7a8c30	-0.015292212
90	0xbd8fa9b4	-0.0701479
91	0x3d0083fc	0.03137587
92	0x3d97cad4	0.07411733
93	0xbd9062de	-0.070501074
94	0xbdbe0e90	-0.09280121
95	0xbdfb9da8	-0.1228593
96	0x3cde0f68	0.027106956
97	0xbd7b1eb4	-0.061308578
98	0x3d627fd0	0.055297673
99	0x3dc0ca5c	0.09413597
100	0x3d8ce2ae	0.06879173
101	0xbd905eba	-0.07049318
102	0xbd108dd4	-0.035291508
103	0x3dfead48	0.124353945
104	0xbd66e014	-0.05636604
105	0xbd6352c4	-0.055498853
106	0xbdb1efd6	-0.08688323
107	0xbdaf6bce	-0.08565484
108	0xbd033600	-0.03203392
109	0xbcc54d00	-0.024084568
110	0xbb9c75c0	-0.004774779
111	0x3d49e0e8	0.049286753
112	0x3db61bfe	0.08892058
113	0xbdccffc8	-0.10009724
114	0x3cc55490	0.024088174
115	0x3cd2e210	0.02574256
116	0x3bc8fea0	0.0061338693
117	0x3da37528	0.0798133
118	0xbdb48c64	-0.0881584
119	0xbc5c7d00	-0.013457537
120	0x3dd427c0	0.10359144
121	0xbd5950d4	-0.0530556
122	0xbc54c520	-0.012986451
123	0x3cec5250	0.028847843
124	0x3d777fd0	0.060424626
125	0x3d7a403c	0.061096415
126	0xbcb54db0	-0.02213177
127	0x3deb6122	0.11493136
128	0x3dafecb6	0.08590071
129	0x3db31d3a	0.08745809
130	0x3d3d5f00	0.046233177
131	0x3d9922dc	0.07477352
132	0xbdec5f82	-0.11541654
133	0xbd0dc510	-0.03461176
134	0xbcbeeb70	-0.023305625
135	0xbd06ec98	-0.032940477
136	0xbd8ef376	-0.0698003
137	0xbd002480	-0.03128481
138	0xbc809d00	-0.015699863
139	0x3cdd7620	0.027033865
140	0x3d69110c	0.056901023
141	0x3c57af60	0.013164371
142	0x3dae6fea	0.0851744
143	0xbda232ba	-0.079198316
144	0x3dba05e2	0.09083153
145	0xbdcbd838	-0.0995335
146	0x3ce4c1f0	0.027924508
147	0x3b35f000	0.002776146
148	0x3db218e2	0.08696152
149	0xbbab92a0	-0.005235985
150	0x3dbd9114	0.09256187
151	0xbda51d60	-0.080622435
152	0xbda3ebc2	-0.080039516
153	0x3dd63482	0.10459234
154	0xbd3df388	-0.046374828
155	0xbdc16d70	-0.09444702
156	0xbbeda280	-0.0072520375
157	0x3c730cb0	0.014834568
158	0x3c45c530	0.012070939
159	0xbd463c6c	-0.048397467
160	0x3dea1408	0.11429602
161	0xbd155818	-0.036460966
162	0xbdd605ce	-0.10450326
163	0xbded3128	-0.115816414
164	0xbd74d880	-0.059776783
165	0xbd6931b8	-0.05693218
166	0xbd0a32e4	-0.03373994
167	0x3dfcf1be	0.12350796
168	0x3d24b950	0.04021579
169	0xbda0e43e	-0.07856034
170	0xbd9a5730	-0.07536161
171	0x3ccc4f58	0.024940178
172	0xbdca7014	-0.098846585
173	0xbd2ad3a0	-0.041705728
174	0x3da3ed3e	0.08004235
175	0x3d72d0a4	0.059281006
176	0x3c2f8410	0.0107126385
177	0xbd8edea4	-0.06976059
178	0xbd0bf208	-0.034166366
179	0xbd50d744	-0.050986543
180	0x3b284500	0.0025675893
181	0xbda94474	-0.082650095
182	0x3cd1e060	0.025619686
183	0x3b900400	0.004395008
184	0xbd6e19b0	-0.058129966
185	0x3dc0e934	0.0941948
186	0x3bbc92e0	0.0057548136
187	0xbdb88d40	-0.09011316
188	0xbc841df8	-0.016127571
189	0x3dfb97c6	0.12284808
190	0xbdf3d81c	-0.11906454
191	0x3ca73ca8	0.020414665
192	0xbd8c7ad0	-0.06859362
193	0xbcc04248	-0.023469105
194	0x3ce504d0	0.027956396
195	0x3bdb8f40	0.0067004263
196	0x3d0b51e4	0.034013644
197	0xbd55757c	-0.052113995
198	0x3db2cfae	0.08731018
199	0xbcc76f88	-0.024345174
200	0xbd8fe598	-0.070262134
201	0x3dbf8584	0.09351638
202	0xbb1885c0	-0.002327308
203	0x3c30f7f0	0.0108013
204	0xbdfbe188	-0.12298876
205	0x3dd4c11a	0.10388394
206	0xbd73ede4	-0.059553042
207	0x3ddeac90	0.108727574
208	0xbdf91eea	-0.121640995
209	0x3dd89958	0.10576123
210	0x3c981b68	0.018567756
211	0xbcb44b30	-0.022008508
212	0x3d8dfd86	0.069331214
213	0x3de8ad9e	0.1136124
214	0xbdfa1250	-0.12210524
215	0xbd0adb78	-0.033900708
216	0x3d9fca96	0.07802312
217	0xbdb44f22	-0.08804156
218	0xbdfc1e90	-0.12310517
219	0x3d8f216a	0.06988795
220	0x3df7c878	0.12098783
221	0x3db45198	0.08804625
222	0xbdd4928a	-0.103795126
223	0xbd835eea	-0.06414588
224	0xbda7d53e	-0.081949696
225	0x3d41a9e8	0.047281176
226	0xbdb677e0	-0.08909583
227	0xbd8ca554	-0.06867471
228	0x3de48a5a	0.11159201
229	0xbba29040	-0.0049610436
230	0x3dadad02	0.08480264
231	0xbd8d01a0	-0.068850756
232	0xbcd66a90	-0.02617386
233	0x3dcf6f24	0.1012862
234	0xbdc63d56	-0.09679668
235	0xbd89f4ae	-0.06736122
236	0x3c94db00	0.018170834
237	0x3d3fb344	0.04680182
238	0xbdd050dc	-0.10171673
239	0xbd0ef50c	-0.034901664
240	0x3d800c4c	0.062523454
241	0x3d89cc4c	0.0672842
242	0xbde746de	-0.11292814
243	0xbdf0c300	-0.11755943
244	0x3dc6da98	0.09709662
245	0x3d8d34fe	0.06894873
246	0xbd8ed7dc	-0.06974766
247	0x3de98bf6	0.114036486
248	0xbc38ab50	-0.011271313
249	0x3db71d48	0.08941132
250	0x3c1fadc0	0.009746015
251	0xbbe02480	-0.0068402886
252	0xbd5edf80	-0.054412365
253	0xbd853f00	-0.06506157
254	0x3d259d94	0.04043348
255	0x3d7914d8	0.060810894

lstm.bias_ih_l0 f4 [256]
0	0x3e86a330	0.26296377
1	0x3ecdb503	0.40177163
2	0x3eb201a4	0.34766877
3	0x3ec18662	0.37797838
4	0x3edb6533	0.42850646
5	0x3eb2ce4c	0.34923017
6	0x3e56e07c	0.20984071
7	0x3e92ea64	0.2869445
8	0x3efea488	0.49734902
9	0x3e8642aa	0.26222736
10	0x3ea61405	0.3243715
11	0x3f322886	0.69593084
12	0x3ec74a66	0.3892395
13	0x3dc6cdfe	0.09707259
14	0x3eb63164	0.35584557
15	0x3eb0912f	0.34485766
16	0x3ebd389e	0.36957258
17	0x3eefc957	0.46833298
18	0x3ee6a76b	0.45049605
19	0x3ed4edd4	0.41587698
20	0x3e66448c	0.22487086
21	0x3ed18286	0.40919894
22	0x3eef0347	0.46682188
23	0x3ed598c7	0.41718122
24	0x3e3e4d83	0.18584256
25	0x3e9ecad3	0.31014118
26	0x3ea71aa5	0.32637516
27	0x3e798865	0.24368437
28	0x3ee0992b	0.43866858
29	0x3ef03569	0.4691575
30	0x3ea45294	0.32094252
31	0x3f04ee98	0.51926565
32	0x3f1716b2	0.59019005
33	0x3e1eef3d	0.1552095
34	0x3ef8c431	0.48587182
35	0x3ecd4ae2	0.40096194
36	0x3ebfa2ea	0.3742898
37	0x3ee20280	0.44142532
38	0x3ec80abc	0.3907069
39	0x3ee4e7e6	0.44708174
40	0x3ec5158c	0.38493
41	0x3f145b4f	0.57951826
42	0x3e252819	0.16128577
43	0x3eebf713	0.4608694
44	0x3ec66431	0.38748315
45	0x3e395f10	0.1810267
46	0x3e1ca64e	0.15297815
47	0x3e1f5642	0.15560248
48	0x3eb163b5	0.34646383
49	0x3eb39243	0.35072526
50	0x3ea6a563	0.32548055
51	0x3f1bf71a	0.6092392
52	0x3f03354f	0.5125322
53	0x3ef97df5	0.4872891
54	0x3e828129	0.25489166
55	0x3ebe7840	0.37201118
56	0x3ecf6491	0.40506414
57	0x3e9742c0	0.29543114
58	0x3ec3df8a	0.38256484
59	0x3f09be3d	0.53805906
60	0x3ebef3d5	0.37295404
61	0x3e8a3ad4	0.26998007
62	0x3eb9008d	0.36133233
63	0x3eacd1ad	0.3375372
64	0xbc527970	-0.012846336
65	0xbd092df0	-0.033491075
66	0xbdce4354	-0.100714356
67	0xbce4c000	-0.027923584
68	0xbcd174d8	-0.02556841
69	0xbdf68638	-0.12037319
70	0xbdc68914	-0.09694114
71	0xbd867138	-0.065645635
72	0x3db85ba0	0.09001851
73	0x3dca83fe	0.09888457
74	0xbd3a25c4	-0.045446172
75	0x3d5d52fc	0.05403422
76	0x3cf4f908	0.029903904
77	0x3dce2cf0	0.10067165
78	0xbd728bbc	-0.059215292
79	0xbd4c0f18	-0.049819082
80	0xbde9840c	-0.11402139
81	0x3df7961c	0.12089178
82	0xbdb0a348	-0.086248934
83	0x3bd5b600	0.00652194
84	0xbcd723a8	-0.02626212
85	0xbde9f8e6	-0.11424427
86	0x3dbe6ab6	0.09297697
87	0x3d85b04c	0.065277666
88	0x3df18cd0	0.11794436
89	0x3deabf88	0.11462313
90	0x3d41f9fc	0.047357544
91	0xbd605cc0	-0.054775953
92	0x3ce64640	0.02810967
93	0xbde63464	-0.112404615
94	0x3def123a	0.11673398
95	0xbdecc948	-0.11561829
96	0xbcbff170	-0.023430556
97	0xbd67512c	-0.056473896
98	0x3dca4198	0.09875792
99	0x3dde3470	0.108498454
100	0xbda8acc0	-0.082360744
101	0x3dbda64c	0.09260234
102	0xbcd16558	-0.02556102
103	0x3d3014e8	0.042988688
104	0x3b2af5c0	0.002608642
105	0x3bcdb0c0	0.0062771738
106	0xbdbbc726	-0.09168844
107	0x3dac52dc	0.08414242
108	0xbdbb0e0c	-0.091335386
109	0xbdf097c4	-0.11747697
110	0xbccc1510	-0.024912387
111	0xbdeab89a	-0.11460991
112	0xbd6be7e8	-0.05759421
113	0x3da2b406	0.07944493
114	0x3d52dcf8	0.051480263
115	0x3a391e00	0.000706166
116	0xbdc4141a	-0.095741466
117	0xbc31f990	-0.010862723
118	0xbdf0a38e	-0.117499456
119	0xbddfed78	-0.109339654
120	0xbccbd578	-0.024882063
121	0xbd375778	-0.04476115
122	0x3b513a80	0.0031925738
123	0x3dc88108	0.09790236
124	0x3dfb3f48	0.12267929
125	0xbdb60dea	-0.08889373
126	0xbca94488	-0.020662561
127	0x3dc7d706	0.09757809
128	0x3df33e30	0.11877096
129	0x3d5aa42a	0.053379215
130	0x3c4beaa4	0.012446079
131	0xbe064e96	-0.13115916
132	0x3de37436	0.1110615
133	0xbdda26d6	-0.106519386
134	0x3dfd1f45	0.1235948
135	0xbe6bbdde	-0.23021647
136	0xbd8c7873	-0.06858911
137	0x3e6d1ddc	0.23155922
138	0x3d04569f	0.03230917
139	0x3dc642af	0.09680688
140	0x3bd87587	0.006605807
141	0x3b8e4d60	0.00434272
142	0x3d2f6964	0.042825118
143	0x3b49148f	0.003068242
144	0xbe2c3fd3	-0.16821222
145	0xbe1b3eb6	-0.15160641
146	0x3cf5fe7f	0.03002858
147	0xbdad90ea	-0.08474906
148	0xbe6814bc	-0.2266416
149	0xbb93014c	-0.0044862386
150	0x3dc22936	0.094805166
151	0xbe1c2255	-0.15247472
152	0xbd01eb52	-0.03171856
153	0x3dd7ec88	0.10543162
154	0x3df5c84c	0.12001094
155	0x3e221118	0.15826833
156	0x3d032caf	0.032025035
157	0x3c5f0933	0.013613033
158	0x3bcafb3a	0.0061944993
159	0x3d936fad	0.07199035
160	0x3d49bbfb	0.049251538
161	0xbe28fa73	-0.16501789
162	0x3e4d97a8	0.20077384
163	0xbdb04170	-0.08606231
164	0xbdb2e0cc	-0.08734283
165	0xbd8b24eb	-0.06794151
166	0xbd55ed10	-0.052228034
167	0xbe389a19	-0.18027534
168	0xbe425b51	-0.18980147
169	0xbdbf0d34	-0.0932869
170	0x3d66f326	0.05638423
171	0x3e00f799	0.12594451
172	0xbdd4b86c	-0.10386738
173	0xbe4335f4	-0.1906355
174	0x3d9e4268	0.0772751
175	0x3e69165a	0.22762433
176	0xbbf5ea11	-0.0075047095
177	0x3b28ef10	0.0025777258
178	0xbd375557	-0.04475912
179	0xbd12d9a7	-0.0358521
180	0xbb740737	-0.0037235746
181	0x3e60396a	0.21896902
182	0x3e31a621	0.1734853
183	0x3cbf7881	0.02337289
184	0x3dba99c9	0.091113634
185	0x3e4e130c	0.20124453
186	0x3e264d84	0.16240507
187	0xbdcaa8fc	-0.098955125
188	0x3d9c96b2	0.0764593
189	0xbcce1573	-0.025156712
190	0x3df6c02e	0.12048374
191	0x3d779725	0.060446877
192	0x3ec99518	0.39371562
193	0x3f0390b2	0.5139266
194	0x3e9fb0ee	0.31189674
195	0x3eec2c35	0.46127477
196	0x3ee1853c	0.44046962
197	0x3ee34ec7	0.4439604
198	0x3eb32b65	0.34994045
199	0x3e9493dd	0.2901906
200	0x3f0011b7	0.5002703
201	0x3e8fb403	0.28067026
202	0x3e890d75	0.2676808
203	0x3f178a61	0.59195524
204	0x3f057ecc	0.521466
205	0x3e03e9ae	0.1288211
206	0x3e3e389a	0.1857628
207	0x3f00494f	0.5011186
208	0x3e8d85ec	0.27641237
209	0x3eab0ff8	0.3341062
210	0x3ebaebe1	0.36508086
211	0x3f12170a	0.57066405
212	0x3eb6dcb5	0.3571526
213	0x3eb43583	0.35197076
214	0x3ec241c5	0.37940803
215	0x3f0826a0	0.5318394
216	0x3e8e4706	0.27788562
217	0x3e65dbd6	0.22447142
218	0x3ee2f058	0.44323993
219	0x3e20980e	0.15683004
220	0x3f1ffadc	0.62492156
221	0x3eee2a1c	0.46516502
222	0x3e9eee2e	0.31041092
223	0x3eeb1741	0.4591618
224	0x3f0638fd	0.5243071
225	0x3e9fdbc3	0.31222352
226	0x3ef5d555	0.48014322
227	0x3e89f372	0.26943547
228	0x3e915a65	0.28389278
229	0x3ee0a986	0.43879336
230	0x3ed6584e	0.41864246
231	0x3ed87ac7	0.42281172
232	0x3e85c8c6	0.2612974
233	0x3f1562c0	0.58353806
234	0x3e9615be	0.29313463
235	0x3ecbf005	0.39831558
236	0x3eab7aed	0.33492222
237	0x3e0fae11	0.14031245
238	0x3dcc8309	0.099859305
239	0x3e034789	0.12820257
240	0x3ef2514d	0.47327653
241	0x3eef562d	0.46745434
242	0x3ee735e5	0.45158306
243	0x3f2e4faa	0.6809031
244	0x3edb7df1	0.42869523
245	0x3ea2aa1f	0.31770417
246	0x3e8fdec6	0.2809965
247	0x3ee251b3	0.44202957
248	0x3f063b48	0.52434206
249	0x3e77b753	0.24191026
250	0x3f03cb04	0.5148165
251	0x3ec20266	0.37892455
252	0x3ebb42a7	0.3657429
253	0x3eb07b2d	0.34468976
254	0x3eadb7fc	0.3392943
255	0x3eea02fa	0.45705396

lstm.bias_hh_l0 f4 [256]
0	0x3e750500	0.23927689
1	0x3edeeb46	0.43538874
2	0x3eb7c36d	0.35891286
3	0x3ea43f98	0.32079768
4	0x3f0507de	0.5196513
5	0x3e84afe8	0.25915456
6	0x3e890643	0.2676259
7	0x3e273cfa	0.16331854
8	0x3ef47a3e	0.47749513
9	0x3df317de	0.11869787
10	0x3ec0d56b	0.37662825
11	0x3f08c38c	0.5342338
12	0x3ebf6def	0.3738856
13	0x3de76d61	0.11300159
14	0x3e9f2a46	0.3108694
15	0x3ef0ced5	0.470328
16	0x3e98187f	0.2970619
17	0x3f07cf3a	0.5305058
18	0x3ebd8df1	0.37022355
19	0x3eed33c3	0.46328554
20	0x3ea9a89e	0.33136457
21	0x3ebfc91b	0.3745812
22	0x3e9def55	0.30846658
23	0x3f1ec2ce	0.62016
24	0x3e8735da	0.26408273
25	0x3edc8444	0.4306966
26	0x3eacea49	0.33772495
27	0x3df8afc6	0.12142901
28	0x3f09c272	0.53812325
29	0x3f003a05	0.5008853
30	0x3ea5c508	0.32376885
31	0x3f00b368	0.5027375
32	0x3ec7d501	0.39029697
33	0x3ead503f	0.33850285
34	0x3e80d3e4	0.2516166
35	0x3ec3b60d	0.3822483
36	0x3e9cc2b4	0.30617297
37	0x3ecff693	0.4061781
38	0x3f13bf4c	0.5771377
39	0x3ef6c8c9	0.48200062
40	0x3ea0d496	0.3141219
41	0x3f16a2c1	0.5884209
42	0x3e99e10e	0.30054516
43	0x3edd062e	0.43168777
44	0x3edfde04	0.43724072
45	0x3e5d6417	0.21620212
46	0x3e5e4f92	0.21710041
47	0x3e98e5f4	0.2986294
48	0x3e946c76	0.28989
49	0x3ec280a4	0.3798877
50	0x3e9323d2	0.28738266
51	0x3f073517	0.52815384
52	0x3ef86cbd	0.4852046
53	0x3ec5daf4	0.3864361
54	0x3e9dc93b	0.3081759
55	0x3e86ea86	0.26350802
56	0x3f0e5fce	0.55614936
57	0x3ece88f0	0.4033885
58	0x3ee68ed6	0.4503085
59	0x3f02688f	0.50940794
60	0x3f089324	0.5334952
61	0x3ee05df2	0.43821675
62	0x3ecc9e62	0.39964586
63	0x3ecef1ae	0.40418762
64	0x3d28fff4	0.04125972
65	0xbd131dc8	-0.035917073
66	0x3dc1426e	0.094364986
67	0x3c65a020	0.014015228
68	0x3de5e6d4	0.112256676
69	0xbd8335fc	-0.06406781
70	0xbce349a0	-0.027745068
71	0x3dff9f6e	0.12481581
72	0xbdc91296	-0.09817998
73	0xbcb9f6b8	-0.022700652
74	0xbdfff4c8	-0.1249786
75	0xbdf9cdb4	-0.12197438
76	0xbdb1c4a8	-0.08680087
77	0xbd30718c	-0.043077037
78	0xbdf12038	-0.11773723
79	0xbd87e32a	-0.06635125
80	0x3cf71258	0.030160114
81	0x3dea4dd4	0.11440626
82	0xbd1ee03c	-0.038788065
83	0xba8a9700	-0.0010573566
84	0x3da8048e	0.08203994
85	0x3db96dd6	0.09054153
86	0x3c310f90	0.010806933
87	0x3d082120	0.033234715
88	0xbda281bc	-0.07934901
89	0x3d590f74	0.052993253
90	0x3daa193a	0.08305593
91	0xbd2d8a48	-0.042368203
92	0x3d4b6334	0.049655154
93	0xbdfb725c	-0.12277672
94	0xbc8337e8	-0.01601787
95	0x3c19e850	0.0093937665
96	0xbde64b8a	-0.11244877
97	0x3da068e6	0.07832508
98	0xbd327ce0	-0.04357612
99	0x3d27328c	0.04081969
100	0xbd239550	-0.039937317
101	0xbc174370	-0.009232387
102	0x3da0d27a	0.07852645
103	0x3d8bfa5a	0.0683486
104	0x3dc7dca2	0.09758879
105	0xbded213e	-0.11578606
106	0x3c175ea0	0.009238869
107	0x3d9690da	0.07351847
108	0x3cfe8820	0.031070769
109	0xbd5e6b6c	-0.054301664
110	0xbdca43ea	-0.09876235
111	0xbafa5180	-0.0019097775
112	0x3da9651e	0.0827124
113	0xbd3d8330	-0.04626769
114	0xbd9688b6	-0.07350294
115	0xbd09f468	-0.03368035
116	0xbd80c0d2	-0.062867776
117	0x3d72d294	0.059282854
118	0xbdc78bbc	-0.09743449
119	0x3da22b44	0.079184085
120	0x3d3f2268	0.04666367
121	0x3de585f6	0.11207192
122	0x3d6c8c14	0.057750776
123	0xbddfe682	-0.10932638
124	0xbdc56fdc	-0.09640476
125	0x3d7f7e28	0.06237617
126	0xbd5dccf8	-0.05415055
127	0xbc8b3798	-0.016994283
128	0xbca582de	-0.020204004
129	0x3e0389ff	0.1284561
130	0x3da4e82c	0.08052096
131	0xbe1e28a3	-0.15445189
132	0x3d096c79	0.033550713
133	0xbdb61c18	-0.08892077
134	0x3e24ee74	0.16106588
135	0xbe68c18d	-0.22730084
136	0x3d3eab3c	0.04655002
137	0x3e69e0d3	0.2283967
138	0x3d95fc5a	0.07323523
139	0xbcf0a3dd	-0.029375011
140	0xbcafbce7	-0.02145238
141	0xbe413274	-0.18866903
142	0xbda8c794	-0.082411915
143	0xbd13870a	-0.036017455
144	0xbd24751d	-0.04015075
145	0xbd86ffd7	-0.06591766
146	0x3d744448	0.05963543
147	0x3ca5d3b0	0.020242542
148	0xbca0b192	-0.019615922
149	0x3ddc9134	0.10769883
150	0xbd6dd7eb	-0.058067244
151	0x3c425a04	0.011862282
152	0xbe4f292b	-0.20230548
153	0xbd0d8ce7	-0.034558203
154	0x3e33c139	0.17554177
155	0x3e3002ed	0.17188616
156	0xbdd5066c	-0.104016155
157	0x3df4caf6	0.11952774
158	0xbe4b9cea	-0.19884077
159	0x3dc166f8	0.09443468
160	0x3b649783	0.0034880347
161	0xbd81eb6a	-0.0634373
162	0x3ddbeefe	0.107389435
163	0xbe0e0c32	-0.1387184
164	0x3cf8091f	0.030277787
165	0x3ca7b26e	0.020470824
166	0xbd9f4327	-0.0777648
167	0x3d79beb2	0.060972877
168	0xbb708c71	-0.0036704803
169	0x3b1a122d	0.0023509369
170	0x3e139c9f	0.14415215
171	0x3e1d967d	0.15389438
172	0xbd6b5b13	-0.057459902
173	0xbe72b914	-0.23703414
174	0x3d8482ad	0.06470237
175	0x3b9d5ce9	0.0048023355
176	0x3d984e04	0.07436755
177	0xbe14f818	-0.14547765
178	0xbd62e13a	-0.055390574
179	0xbda66be3	-0.081260465
180	0x3db2200b	0.08697518
181	0x3dd5313d	0.10409782
182	0x3dcaabf4	0.09896079
183	0x3e3560e9	0.1771275
184	0x3d119cdd	0.035549987
185	0x3e530e26	0.20610866
186	0x3dbc0edd	0.091825224
187	0x3cb06fab	0.021537622
188	0x3d73cadb	0.05951963
189	0x3d53ccbd	0.051708926
190	0x3db58eb9	0.08865113
191	0x3e022844	0.12710673
192	0x3ee84bd3	0.4537035
193	0x3ee88e62	0.4542113
194	0x3ebddf79	0.3708456
195	0x3eb22301	0.3479233
196	0x3ef27530	0.47355032
197	0x3eb7499b	0.35798344
198	0x3edcb03a	0.431032
199	0x3ea05a8f	0.3131909
200	0x3ee0242b	0.43777594
201	0x3dc334e5	0.09531573
202	0x3ea84294	0.32863295
203	0x3ee97d18	0.4560325
204	0x3ea733af	0.3265662
205	0x3e5fe605	0.21865089
206	0x3ea56ff3	0.32311973
207	0x3f06988b	0.5257651
208	0x3ebf5759	0.37371328
209	0x3ea440dd	0.32080737
210	0x3ee60204	0.44923413
211	0x3f10ec8d	0.5661095
212	0x3ef5c887	0.48004553
213	0x3ef54967	0.47907564
214	0x3ea3e126	0.32007712
215	0x3f00cab9	0.5030933
216	0x3e97b26c	0.29628313
217	0x3e95d2a4	0.2926227
218	0x3edec052	0.43506104
219	0x3ea5e003	0.3239747
220	0x3f02b542	0.5105783
221	0x3ee50be7	0.44735643
222	0x3e5341c4	0.20630556
223	0x3ef0f677	0.47063038
224	0x3f01a125	0.5063651
225	0x3ee39316	0.44448155
226	0x3e8abec6	0.27098674
227	0x3ec7ad4f	0.3899941
228	0x3e8752d1	0.2643037
229	0x3ed30920	0.412179
230	0x3ed41e8b	0.41429552
231	0x3efea45c	0.4973477
232	0x3ee08096	0.43848103
233	0x3f0833ac	0.53203845
234	0x3ecb382b	0.3969129
235	0x3efaa12e	0.48951095
236	0x3f04c93d	0.51869565
237	0x3e3e0f9f	0.18560646
238	0x3e80929b	0.2511185
239	0x3e7bbd56	0.24583945
240	0x3e9b0315	0.3027579
241	0x3eef6bcc	0.4676193
242	0x3ea6fec0	0.32616234
243	0x3f2492ee	0.64286697
244	0x3f0ed35e	0.5579127
245	0x3eefb651	0.46818784
246	0x3e95afbd	0.2923564
247	0x3f0422d3	0.5161564
248	0x3f0d27f6	0.551391
249	0x3e36c31d	0.17847867
250	0x3ecb9aac	0.39766443
251	0x3ed04de7	0.40684435
252	0x3ef2962b	0.47380194
253	0x3ef89ed2	0.4855867
254	0x3ed42693	0.4143568
255	0x3ec79dbd	0.38987532

fc.weight f4 [1, 64]
0	0x3f009c93	0.50238913
1	0xbf0ab277	-0.54178566
2	0xbedd583c	-0.4323138
3	0x3eb13ed1	0.34618238
4	0xbf1a62b0	-0.60306835
5	0x3f053480	0.52033234
6	0xbecdcd29	-0.40195587
7	0x3ea0a1d2	0.3137346
8	0xbf19c081	-0.6005936
9	0xbe9cb6a5	-0.30608097
10	0x3f0da355	0.5532735
11	0xbf21164e	-0.6292466
12	0x3f104e0c	0.5636909
13	0xbeb1f413	-0.34756526
14	0xbf222e0a	-0.633515
15	0x3f25d6c7	0.6478085
16	0x3eb0962a	0.34489566
17	0xbf2915bc	-0.6604879
18	0xbf19614e	-0.599141
19	0x3f1b461f	0.6065387
20	0x3eca584a	0.39520484
21	0xbf03f141	-0.5154
22	0xbf0e0d83	-0.5548937
23	0x3ef59e6e	0.47972435
24	0x3ea1de16	0.3161475
25	0xbf13a601	-0.57675177
26	0xbed343e7	-0.41262743
27	0xbeb39324	-0.35073197
28	0x3f2c3c6b	0.6727969
29	0x3f3fceec	0.7492511
30	0x3eb7fe2c	0.35936105
31	0xbf135c74	-0.5756295
32	0xbf2bcc46	-0.6710857
33	0xbf208df5	-0.6271661
34	0xbecb2206	-0.39674395
35	0x3efab24b	0.48964152
36	0xbf222990	-0.6334467
37	0x3f0a4a70	0.5401983
38	0x3f13acb4	0.576854
39	0x3f05e973	0.5230934
40	0x3ed82f3c	0.42223537
41	0x3f15bef4	0.58494496
42	0xbedca838	-0.4309709
43	0xbebb6400	-0.3659973
44	0x3ee467db	0.44610485
45	0x3ea57dee	0.3232264
46	0x3ec5dc99	0.38644865
47	0xbebaf334	-0.36513674
48	0x3f2b1666	0.6683105
49	0x3ed89917	0.42304298
50	0x3f14a226	0.5805992
51	0x3f194854	0.5987599
52	0x3f46603e	0.77490604
53	0xbeb5f771	-0.35540345
54	0xbef732aa	-0.4828084
55	0xbef3d720	-0.47625065
56	0xbf088d15	-0.53340274
57	0xbe99dd48	-0.30051637
58	0xbef462af	-0.4773154
59	0x3f135823	0.5755636
60	0x3f1d9af0	0.6156454
61	0x3f309f41	0.68993
62	0xbecb6a7d	-0.39729682
63	0xbede3804	-0.43402112

exp_avg f4 [256, 5]
0	0x3a001f3a	0.00048874656
1	0xb95e272c	-0.00021186162
2	0x3a89c7c0	0.0010511801
3	0xb93717da	-0.00017461125
4	0x397d8077	0.00024175817
5	0xb96b4574	-0.0002243722
6	0x3928aefa	0.00016086912
7	0xba150cc4	-0.0005685801
8	0x365a8440	3.256151e-06
9	0xb951f1d9	-0.00020021888
10	0x3985c242	0.0002551247
11	0xb8c103af	-9.203643e-05
12	0x3a3a1797	0.0007098852
13	0xb5f42b72	-1.8192061e-06
14	0x38f31604	0.00011591244
15	0xb91ec331	-0.00015140769
16	0x38db8b39	0.00010468666
17	0xb9a42d61	-0.00031314327
18	0x37d0fc2f	2.4912964e-05
19	0xb8c7df38	-9.530637e-05
20	0xb9941f61	-0.0002825214
21	0x3940aa38	0.00018373958
22	0xba22953d	-0.0006202048
23	0x3928252f	0.0001603558
24	0xb9601441	-0.0002136985
25	0xb99851a5	-0.0002905253
26	0x3949395a	0.00019190219
27	0xba1e3daf	-0.0006036413
28	0x38f9752d	0.00011895071
29	0xb9430c80	-0.00018601306
30	0x3958c60d	0.00020673145
31	0xb8b89210	-8.80101e-05
32	0x3a10482e	0.00055039197
33	0xb89a6cdc	-7.363569e-05
34	0x38ddc3d4	0.00010574577
35	0xb9451af6	-0.00018797428
36	0x38de2df6	0.00010594346
37	0xb98589ab	-0.00025470307
38	0x380b2879	3.3177876e-05
39	0xb8b42d02	-8.591452e-05
40	0x3a036735	0.00050126325
41	0xb958c4c9	-0.00020672673
42	0x3a896002	0.0010480883
43	0xb93dba36	-0.00018093814
44	0x39701254	0.00022895011
45	0xb8431f02	-4.65205e-05
46	0x37891011	1.6339154e-05
47	0x3897fdef	7.24754e-05
48	0x384c71f5	4.874352e-05
49	0xb526d630	-6.21515e-07
50	0x39f4ce80	0.0004669316
51	0xb954fc99	-0.00020311995
52	0x3a82d42f	0.0009981449
53	0xb91433d5	-0.00014133689
54	0x396f3a0f	0.00022814445
55	0xb9400708	-0.00018313166
56	0x392651c8	0.0001586146
57	0xba13645c	-0.00056225597
58	0x37d62f57	2.5532832e-05
59	0xb94ca31c	-0.00019515719
60	0x39fea4c5	0.00048569418
61	0xb94353b7	-0.00018627835
62	0x3a89f093	0.0010523967
63	0xb93a59cc	-0.00017771794
64	0x3967c918	0.0002210479
65	0x397e90da	0.00024277289
66	0xb8c66f94	-9.462159e-05
67	0x3a10a6b4	0.0005518005
68	0xb902dcdf	-0.00012480047
69	0x3900bbce	0.00012276994
70	0x39b4a96c	0.00034458505
71	0xb8fe3eae	-0.00012123339
72	0x3a629c9f	0.0008644554
73	0xb8e1d271	-0.00010768034
74	0x393077db	0.00016829318
75	0xb9943ee1	-0.00028275608
76	0x3961ec94	0.00021545804
77	0xba3d00b9	-0.00072098855
78	0x38daa439	0.00010425639
79	0xb96e5616	-0.00022729518
80	0xb8926818	-6.9812115e-05
81	0x386068c2	5.3503325e-05
82	0xb9268906	-0.00015882039
83	0xb76932fa	-1.3899751e-05
84	0xb81643dd	-3.582599e-05
85	0xb93121a3	-0.00016892566
86	0x391f88eb	0.00015214428
87	0xba22bf21	-0.000620829
88	0xb7dcd4fc	-2.6325222e-05
89	0xb94f6e2f	-0.00019782105
90	0x39e83b93	0.00044294875
91	0xb93d0edd	-0.00018029982
92	0x3a86582f	0.001024967
93	0xb91892e1	-0.00014550566
94	0x395d97f5	0.00021132811
95	0xb968718f	-0.00022167548
96	0x39405910	0.00018343725
97	0xba1a9aed	-0.00058977195
98	0xb68bc228	-4.1651256e-06
99	0xb93feddf	-0.00018303793
100	0x392ae503	0.00016297777
101	0xb89456b4	-7.07334e-05
102	0x39fba177	0.0004799475
103	0xb8144e26	-3.535873e-05
104	0x38b131a2	8.4492625e-05
105	0xb98c96ba	-0.0002681518
106	0x3956b2f8	0.00020475301
107	0xba1deca7	-0.00060243387
108	0x38af065e	8.345836e-05
109	0xb95dbabe	-0.0002114577
110	0xb9932bb6	-0.00028070592
111	0x395c4b5f	0.00021008913
112	0xba295f66	-0.0006461054
113	0x38fc3416	0.00012025998
114	0xb9688825	-0.00022175962
115	0x3996a98c	0.00028736552
116	0xb8c9c784	-9.6215896e-05
117	0x3a3aef16	0.00071309635
118	0xb8d236ed	-0.00010023811
119	0x38e4396c	0.00010882583
120	0x38f29d65	0.00011568776
121	0xb835ce1b	-4.3345713e-05
122	0x39798457	0.00023795791
123	0xb886d874	-6.4299355e-05
124	0x3876d99b	5.885363e-05
125	0x398d8304	0.0002699123
126	0xb8d3654c	-0.00010080132
127	0x3a3f3b16	0.0007294876
128	0xb87927ca	-5.9403283e-05
129	0x39141fb4	0.0001412619
130	0xb9874959	-0.00025803855
131	0x3933af53	0.00017136084
132	0xba05173f	-0.00050770113
133	0x38f82c05	0.00011833761
134	0xb93d5b0e	-0.00018058365
135	0xb9894ca3	-0.00026187775
136	0x39180825	0.00014498884
137	0xb9feb86c	-0.0004858406
138	0x38fe9bed	0.00012140707
139	0xb910cd46	-0.0001380938
140	0xb98207c3	-0.00024801315
141	0x39516560	0.00019969558
142	0xba4927c5	-0.00076734676
143	0x384312a3	4.650898e-05
144	0xb9814b6e	-0.00024660997
145	0xb9644137	-0.00021768069
146	0x3948cd65	0.00019150002
147	0xba52ef4e	-0.00080465234
148	0xb7571a7b	-1.2821164e-05
149	0xb979d0d0	-0.00023824279
150	0x38f919d9	0.0001187806
151	0xb87afe2e	-5.9841368e-05
152	0x39175759	0.00014433022
153	0xb8cc73b1	-9.749027e-05
154	0x389ba62e	7.421929e-05
155	0xb96f7e66	-0.00022839903
156	0x39327411	0.00017018641
157	0xba14c412	-0.00056749687
158	0x37cf5bb3	2.4719024e-05
159	0xb94982d0	-0.00019217585
160	0xb96a0336	-0.00022317175
161	0x39435772	0.00018629225
162	0xba39a5bf	-0.0007081888
163	0xb6d7ca45	-6.4310466e-06
164	0xb9797ab5	-0.00023792202
165	0x3a186e20	0.000581475
166	0xb9674789	-0.00022056526
167	0x3aa6b231	0.00127179
168	0xb9543552	-0.00020237759
169	0x39871389	0.0002576376
170	0xb96b9a2f	-0.00022468784
171	0x3920e93e	0.00015345679
172	0xb9d5a11f	-0.0004074657
173	0x3870b4f1	5.7388974e-05
174	0xb91a38ea	-0.00014707787
175	0x396dc5b8	0.00022675737
176	0xb8bd1892	-9.016799e-05
177	0x3a17f002	0.0005795957
178	0xb8a90530	-8.059514e-05
179	0x38dfa81a	0.0001066478
180	0x39e72d2e	0.00044093415
181	0xb931fecb	-0.00016974953
182	0x3a856ca7	0.0010179476
183	0xb8fa45ee	-0.000119339544
184	0x39556b6d	0.00020353282
185	0xb96878fb	-0.00022170313
186	0x39489522	0.00019129043
187	0xba1ef190	-0.00060632173
188	0x37b878fe	2.199085e-05
189	0xb976e7db	-0.00023546761
190	0xb968b2e4	-0.00022191886
191	0x393d0be1	0.0001802887
192	0xba1772b1	-0.0005777283
193	0x37b73b8c	2.1843029e-05
194	0xb962199b	-0.00021562578
195	0x39a92ecb	0.00032269055
196	0xb911f76a	-0.00013920447
197	0x3a3684ae	0.000696252
198	0xb94b86e6	-0.00019409842
199	0x392ea7d4	0.00016656454
200	0x3782ef97	1.5608775e-05
201	0x376672c7	1.3735792e-05
202	0xb88352ef	-6.262014e-05
203	0xb901de0e	-0.0001238512
204	0xb7de860e	-2.6526886e-05
205	0xb937a582	-0.00017513896
206	0x39153b6b	0.00014231882
207	0xba10594f	-0.0005506472
208	0x38579f25	5.140821e-05
209	0xb92bd60b	-0.00016387568
210	0x399adf86	0.00029539707
211	0xb91cd4e9	-0.00014956635
212	0x3a2c0ecc	0.0006563484
213	0xb901b31b	-0.0001236912
214	0x39366b37	0.00017396813
215	0xb92cd400	-0.00016482174
216	0x38ef9998	0.00011425017
217	0xb9b469a0	-0.00034410972
218	0x380b26d9	3.3176362e-05
219	0xb8e66340	-0.000109857414
220	0xb95b9e47	-0.0002094443
221	0x3919f3ab	0.0001468199
222	0xb9f5583c	-0.0004679578
223	0x38900292	6.866934e-05
224	0xb9080e41	-0.0001297528
225	0xb97ed75f	-0.0002430356
226	0x39169c11	0.00014363254
227	0xb9dad0cb	-0.00041735763
228	0x38610e58	5.365754e-05
229	0xb906fbc2	-0.00012873023
230	0x398e8c5e	0.00027188932
231	0xb8ee6b4a	-0.000113687085
232	0x3a1d6d70	0.0006005382
233	0xb8caa4b1	-9.662787e-05
234	0x38f7bed5	0.00011813423
235	0xb9534591	-0.00020148444
236	0x39075db8	0.00012909516
237	0xb9b8b246	-0.0003522804
238	0x37b073c5	2.1034744e-05
239	0xb8e3d1cd	-0.00010863282
240	0x3a0c1e95	0.0005345133
241	0xb95aa166	-0.00020850226
242	0x3a9e610d	0.0012083367
243	0xb957a61c	-0.00020565878
244	0x398b97f2	0.00026625354
245	0xb96062c6	-0.000213991
246	0x391c6864	0.00014916208
247	0xb9f1047b	-0.0004597044
248	0x38cdd487	9.814748e-05
249	0xb9183fec	-0.00014519662
250	0x39d476db	0.00040524345
251	0xb94949e1	-0.00019196376
252	0x3a5aec6d	0.000835127
253	0xb966c2d5	-0.0002200709
254	0x39620329	0.00021554217
255	0xb94a2756	-0.00019278875

exp_avg_sq f4 [256, 5]
0	0x345e5921	2.0707786e-07
1	0x34255d6a	1.5400806e-07
2	0x3528c2ae	6.2868173e-07
3	0x33c7fc98	9.312606e-08
4	0x34237be8	1.5225635e-07
5	0x3416764c	1.4012875e-07
6	0x3403f4ba	1.2289357e-07
7	0x34bb920e	3.4937733e-07
8	0x33e4d44e	1.0655695e-07
9	0x33736ee5	5.6678704e-08
10	0x346be0f2	2.1967915e-07
11	0x343ab0bf	1.73869e-07
12	0x34ebacc7	4.3897873e-07
13	0x33f7cd90	1.15392254e-07
14	0x34292c80	1.575554e-07
15	0x32bafbaf	2.1767702e-08
16	0x32a6239a	1.9341133e-08
17	0x33b170f7	8.262753e-08
18	0x33b8d215	8.6063814e-08
19	0x334f8c77	4.8323695e-08
20	0x3418f96f	1.4246847e-07
21	0x33de8d80	1.0363419e-07
22	0x352b6045	6.3842555e-07
23	0x34a64008	3.0966498e-07
24	0x33ece3ea	1.1031064e-07
25	0x33b77128	8.5421846e-08
26	0x338bc34f	6.508218e-08
27	0x34dddc54	4.1324768e-07
28	0x34a6fe55	3.110496e-07
29	0x3418574e	1.4187864e-07
30	0x3392d59a	6.837509e-08
31	0x337f7570	5.9478623e-08
32	0x34a19bd8	3.0101978e-07
33	0x3416ca80	1.4043508e-07
34	0x3388f200	6.377013e-08
35	0x33fb6a94	1.1707485e-07
36	0x33ccefc2	9.543102e-08
37	0x342bf20b	1.6013671e-07
38	0x33f26c80	1.1288739e-07
39	0x3472e002	2.26195e-07
40	0x349b5e04	2.8939405e-07
41	0x346e148a	2.217295e-07
42	0x354b92a4	7.5836783e-07
43	0x337ccf6f	5.8861982e-08
44	0x34617ed5	2.1000899e-07
45	0x34355ee8	1.6891465e-07
46	0x3434fb21	1.6855167e-07
47	0x33e0538f	1.0446012e-07
48	0x33d5ba72	9.9524996e-08
49	0x33893f40	6.391065e-08
50	0x34805bfa	2.390878e-07
51	0x343ec0cc	1.7765268e-07
52	0x3536a530	6.8040663e-07
53	0x33a1dda4	7.537463e-08
54	0x3437c553	1.7114989e-07
55	0x33ed29be	1.10437654e-07
56	0x33b18766	8.2668336e-08
57	0x35174d46	5.636433e-07
58	0x34c5e4e1	3.686064e-07
59	0x33c44fb1	9.141457e-08
60	0x34abc28d	3.1992786e-07
61	0x3489a8c4	2.5641032e-07
62	0x3568b7eb	8.669437e-07
63	0x33b20929	8.290437e-08
64	0x346af0c5	2.188054e-07
65	0x32f73a12	2.8780992e-08
66	0x32c3b0fe	2.2781474e-08
67	0x33c832b7	9.322451e-08
68	0x32e3ce11	2.6519986e-08
69	0x32bd7580	2.2055929e-08
70	0x344c7fbe	1.9045453e-07
71	0x34286a55	1.5684903e-07
72	0x3546fbfa	7.412742e-07
73	0x34576655	2.0060664e-07
74	0x3408fe86	1.2758582e-07
75	0x3485a5ba	2.4893762e-07
76	0x34582649	2.0130496e-07
77	0x358e9272	1.0622446e-06
78	0x3568cb77	8.6722815e-07
79	0x34908a5f	2.6922768e-07
80	0x324c4a33	1.1891234e-08
81	0x323fa20e	1.115451e-08
82	0x331865ac	3.5482728e-08
83	0x339cd9c4	7.3039274e-08
84	0x338bc7eb	6.509057e-08
85	0x33570c41	5.0069733e-08
86	0x33335627	4.175504e-08
87	0x34b31424	3.3356002e-07
88	0x34671fce	2.1525122e-07
89	0x33510716	4.866805e-08
90	0x349a0519	2.8688444e-07
91	0x3479f16c	2.3277761e-07
92	0x356d771b	8.84627e-07
93	0x33e3386c	1.0580774e-07
94	0x34500e05	1.937661e-07
95	0x3383719c	6.120828e-08
96	0x335e2cb3	5.1729057e-08
97	0x34a23c1e	3.0218592e-07
98	0x34936cba	2.7459993e-07
99	0x33886d88	6.352917e-08
100	0x3374e8df	5.7022472e-08
101	0x3356134a	4.98433e-08
102	0x33f46d72	1.13820434e-07
103	0x32f0358e	2.7964031e-08
104	0x32dec5bd	2.5934122e-08
105	0x33ef48b1	1.1142527e-07
106	0x33a41f23	7.642509e-08
107	0x350ae268	5.173847e-07
108	0x348659f2	2.502489e-07
109	0x33d5b905	9.95224e-08
110	0x343103a6	1.6485737e-07
111	0x33fed77c	1.1866993e-07
112	0x354ebb39	7.7013425e-07
113	0x34ed9818	4.4255353e-07
114	0x341ef0fe	1.4802569e-07
115	0x33bfe6a2	8.9360825e-08
116	0x33a42f6c	7.645471e-08
117	0x34aad1d8	3.181765e-07
118	0x337d1cce	5.893235e-08
119	0x33c19bc1	9.015594e-08
120	0x331da046	3.670018e-08
121	0x33033898	3.0552286e-08
122	0x33671ec9	5.3811878e-08
123	0x33555fc6	4.9680033e-08
124	0x33975b3b	7.04808e-08
125	0x340b1de3	1.2956257e-07
126	0x33ec60cb	1.1007213e-07
127	0x351a0b8f	5.738629e-07
128	0x34616ec0	2.0995049e-07
129	0x33a4bea6	7.671524e-08
130	0x341f683d	1.484595e-07
131	0x3408298a	1.2681099e-07
132	0x34cb41a0	3.7859445e-07
133	0x345cb9d3	2.0556699e-07
134	0x33ddb6f4	1.03243934e-07
135	0x341b3df2	1.4458035e-07
136	0x33edf2bb	1.1080325e-07
137	0x34f4cf94	4.5599575e-07
138	0x340216e1	1.2115517e-07
139	0x344fbcb2	1.9347024e-07
140	0x3435dd8f	1.6937541e-07
141	0x340c4166	1.3062308e-07
142	0x358471a4	9.86784e-07
143	0x353deb4c	7.075039e-07
144	0x34217bb2	1.5039294e-07
145	0x340c171e	1.3046926e-07
146	0x33e4772e	1.0638756e-07
147	0x354782e5	7.4323754e-07
148	0x3511ef02	5.436451e-07
149	0x33e3a04c	1.0599669e-07
150	0x3380ef3b	6.00398e-08
151	0x3355aa26	4.9747676e-08
152	0x3391a19c	6.781485e-08
153	0x339e2aab	7.3652096e-08
154	0x33a62578	7.736793e-08
155	0x33a3a0e3	7.619544e-08
156	0x3360b3df	5.2317656e-08
157	0x34d269cf	3.9192534e-07
158	0x3436498b	1.6976826e-07
159	0x33a04c63	7.464475e-08
160	0x33eda2c3	1.1065779e-07
161	0x33c7b689	9.2998626e-08
162	0x351a339a	5.744456e-07
163	0x34ce9cbe	3.8484535e-07
164	0x33c11619	8.9912824e-08
165	0x34d14a4b	3.898334e-07
166	0x34a639cf	3.096197e-07
167	0x359cd034	1.1683501e-06
168	0x343db6ff	1.766857e-07
169	0x34a74af8	3.116072e-07
170	0x33356505	4.2234223e-08
171	0x330d921e	3.2962014e-08
172	0x3402930c	1.2160689e-07
173	0x339ef4e1	7.4019916e-08
174	0x33a83059	7.831904e-08
175	0x33b7c9fb	8.5583416e-08
176	0x339ef75c	7.402443e-08
177	0x34a8ecd3	3.146475e-07
178	0x33e35e9d	1.0587721e-07
179	0x33b0981c	8.223307e-08
180	0x34d8e30f	4.0398342e-07
181	0x34b52570	3.3741117e-07
182	0x358f1fa5	1.066354e-06
183	0x34585e4e	2.0150875e-07
184	0x348e0727	2.6454765e-07
185	0x33b5cf90	8.466225e-08
186	0x33a027a2	7.45779e-08
187	0x34b46248	3.3599122e-07
188	0x34a7bc46	3.124316e-07
189	0x339b2f7f	7.2263894e-08
190	0x33b74bcc	8.535389e-08
191	0x339bb408	7.2504974e-08
192	0x34b02d0a	3.2815325e-07
193	0x3485e550	2.4940027e-07
194	0x3372c6dc	5.6525877e-08
195	0x340e2c59	1.3240914e-07
196	0x33f1ac65	1.12537954e-07
197	0x34cdd78b	3.8341054e-07
198	0x33d2fafc	9.824541e-08
199	0x33a87150	7.843721e-08
200	0x341c5fa2	1.4563423e-07
201	0x341ce8eb	1.4613367e-07
202	0x332543be	3.8478667e-08
203	0x33380258	4.284297e-08
204	0x33003a36	2.9855265e-08
205	0x33dc8e26	1.0270405e-07
206	0x33af34b4	8.158659e-08
207	0x3508fbd2	5.1030395e-07
208	0x34f38c87	4.5364524e-07
209	0x33c58729	9.198113e-08
210	0x342bc8a1	1.5998604e-07
211	0x340f41f3	1.3341905e-07
212	0x34d9ba11	4.055478e-07
213	0x33e97b01	1.0872282e-07
214	0x33a8be99	7.857779e-08
215	0x32e8e97b	2.711453e-08
216	0x32c3bff5	2.278828e-08
217	0x33e668bd	1.07292614e-07
218	0x33bae936	8.703721e-08
219	0x33475093	4.640658e-08
220	0x3397a24d	7.061008e-08
221	0x33634244	5.2912824e-08
222	0x34ab2526	3.187826e-07
223	0x345d9fff	2.0640435e-07
224	0x33ceca31	9.629401e-08
225	0x33ba602f	8.6787956e-08
226	0x3388502d	6.3475774e-08
227	0x3450edf0	1.945807e-07
228	0x334b04e0	4.7269054e-08
229	0x341313fa	1.3697709e-07
230	0x338f0c73	6.661221e-08
231	0x335e1388	5.1706166e-08
232	0x343834b9	1.7155516e-07
233	0x32cd10c0	2.3872758e-08
234	0x336c4d85	5.5018536e-08
235	0x3311edbc	3.397666e-08
236	0x32d93827	2.528766e-08
237	0x3392b672	6.8318414e-08
238	0x32b6efaa	2.1296575e-08
239	0x3384c8d6	6.183261e-08
240	0x34c73df6	3.711172e-07
241	0x349fb0d7	2.9744726e-07
242	0x359d4fd4	1.1720645e-06
243	0x341a4054	1.436577e-07
244	0x34940818	2.7573037e-07
245	0x33a261de	7.561515e-08
246	0x336442c2	5.3146103e-08
247	0x34a7ae94	3.1233196e-07
248	0x34281497	1.565371e-07
249	0x33a4dfe7	7.677573e-08
250	0x34506ba1	1.9410665e-07
251	0x3425621c	1.5402514e-07
252	0x350d01cb	5.25292e-07
253	0x3418337c	1.4174833e-07
254	0x33ef1150	1.1132454e-07
255	0x33e568c1	1.0682698e-07

exp_avg f4 [256, 64]
0	0x00000000	0.0
1	0x00000000	0.0
2	0x00000000	0.0
3	0x00000000	0.0
4	0x00000000	0.0
5	0x00000000	0.0
6	0x00000000	0.0
7	0x00000000	0.0
8	0x00000000	0.0
9	0x00000000	0.0
10	0x00000000	0.0
11	0x00000000	0.0
12	0x00000000	0.0
13	0x00000000	0.0
14	0x00000000	0.0
15	0x00000000	0.0
16	0x00000000	0.0
17	0x00000000	0.0
18	0x00000000	0.0
19	0x00000000	0.0
20	0x00000000	0.0
21	0x00000000	0.0
22	0x00000000	0.0
23	0x00000000	0.0
24	0x00000000	0.0
25	0x00000000	0.0
26	0x00000000	0.0
27	0x00000000	0.0
28	0x00000000	0.0
29	0x00000000	0.0
30	0x00000000	0.0
31	0x00000000	0.0
32	0x00000000	0.0
33	0x00000000	0.0
34	0x00000000	0.0
35	0x00000000	0.0
36	0x00000000	0.0
37	0x00000000	0.0
38	0x00000000	0.0
39	0x00000000	0.0
40	0x00000000	0.0
41	0x00000000	0.0
42	0x00000000	0.0
43	0x00000000	0.0
44	0x00000000	0.0
45	0x00000000	0.0
46	0x00000000	0.0
47	0x00000000	0.0
48	0x00000000	0.0
49	0x00000000	0.0
50	0x00000000	0.0
51	0x00000000	0.0
52	0x00000000	0.0
53	0x00000000	0.0
54	0x00000000	0.0
55	0x00000000	0.0
56	0x00000000	0.0
57	0x00000000	0.0
58	0x00000000	0.0
59	0x00000000	0.0
60	0x00000000	0.0
61	0x00000000	0.0
62	0x00000000	0.0
63	0x00000000	0.0
64	0x00000000	0.0
65	0x00000000	0.0
66	0x00000000	0.0
67	0x00000000	0.0
68	0x00000000	0.0
69	0x00000000	0.0
70	0x00000000	0.0
71	0x00000000	0.0
72	0x00000000	0.0
73	0x00000000	0.0
74	0x00000000	0.0
75	0x00000000	0.0
76	0x00000000	0.0
77	0x00000000	0.0
78	0x00000000	0.0
79	0x00000000	0.0
80	0x00000000	0.0
81	0x00000000	0.0
82	0x00000000	0.0
83	0x00000000	0.0
84	0x00000000	0.0
85	0x00000000	0.0
86	0x00000000	0.0
87	0x00000000	0.0
88	0x00000000	0.0
89	0x00000000	0.0
90	0x00000000	0.0
91	0x00000000	0.0
92	0x00000000	0.0
93	0x00000000	0.0
94	0x00000000	0.0
95	0x00000000	0.0
96	0x00000000	0.0
97	0x00000000	0.0
98	0x00000000	0.0
99	0x00000000	0.0
100	0x00000000	0.0
101	0x00000000	0.0
102	0x00000000	0.0
103	0x00000000	0.0
104	0x00000000	0.0
105	0x00000000	0.0
106	0x00000000	0.0
107	0x00000000	0.0
108	0x00000000	0.0
109	0x00000000	0.0
110	0x00000000	0.0
111	0x00000000	0.0
112	0x00000000	0.0
113	0x00000000	0.0
114	0x00000000	0.0
115	0x00000000	0.0
116	0x00000000	0.0
117	0x00000000	0.0
118	0x00000000	0.0
119	0x00000000	0.0
120	0x00000000	0.0
121	0x00000000	0.0
122	0x00000000	0.0
123	0x00000000	0.0
124	0x00000000	0.0
125	0x00000000	0.0
126	0x00000000	0.0
127	0x00000000	0.0
128	0x00000000	0.0
129	0x00000000	0.0
130	0x00000000	0.0
131	0x00000000	0.0
132	0x00000000	0.0
133	0x00000000	0.0
134	0x00000000	0.0
135	0x00000000	0.0
136	0x00000000	0.0
137	0x00000000	0.0
138	0x00000000	0.0
139	0x00000000	0.0
140	0x00000000	0.0
141	0x00000000	0.0
142	0x00000000	0.0
143	0x00000000	0.0
144	0x00000000	0.0
145	0x00000000	0.0
146	0x00000000	0.0
147	0x00000000	0.0
148	0x00000000	0.0
149	0x00000000	0.0
150	0x00000000	0.0
151	0x00000000	0.0
152	0x00000000	0.0
153	0x00000000	0.0
154	0x00000000	0.0
155	0x00000000	0.0
156	0x00000000	0.0
157	0x00000000	0.0
158	0x00000000	0.0
159	0x00000000	0.0
160	0x00000000	0.0
161	0x00000000	0.0
162	0x00000000	0.0
163	0x00000000	0.0
164	0x00000000	0.0
165	0x00000000	0.0
166	0x00000000	0.0
167	0x00000000	0.0
168	0x00000000	0.0
169	0x00000000	0.0
170	0x00000000	0.0
171	0x00000000	0.0
172	0x00000000	0.0
173	0x00000000	0.0
174	0x00000000	0.0
175	0x00000000	0.0
176	0x00000000	0.0
177	0x00000000	0.0
178	0x00000000	0.0
179	0x00000000	0.0
180	0x00000000	0.0
181	0x00000000	0.0
182	0x00000000	0.0
183	0x00000000	0.0
184	0x00000000	0.0
185	0x00000000	0.0
186	0x00000000	0.0
187	0x00000000	0.0
188	0x00000000	0.0
189	0x00000000	0.0
190	0x00000000	0.0
191	0x00000000	0.0
192	0x00000000	0.0
193	0x00000000	0.0
194	0x00000000	0.0
195	0x00000000	0.0
196	0x00000000	0.0
197	0x00000000	0.0
198	0x00000000	0.0
199	0x00000000	0.0
200	0x00000000	0.0
201	0x00000000	0.0
202	0x00000000	0.0
203	0x00000000	0.0
204	0x00000000	0.0
205	0x00000000	0.0
206	0x00000000	0.0
207	0x00000000	0.0
208	0x00000000	0.0
209	0x00000000	0.0
210	0x00000000	0.0
211	0x00000000	0.0
212	0x00000000	0.0
213	0x00000000	0.0
214	0x00000000	0.0
215	0x00000000	0.0
216	0x00000000	0.0
217	0x00000000	0.0
218	0x00000000	0.0
219	0x00000000	0.0
220	0x00000000	0.0
221	0x00000000	0.0
222	0x00000000	0.0
223	0x00000000	0.0
224	0x00000000	0.0
225	0x00000000	0.0
226	0x00000000	0.0
227	0x00000000	0.0
228	0x00000000	0.0
229	0x00000000	0.0
230	0x00000000	0.0
231	0x00000000	0.0
232	0x00000000	0.0
233	0x00000000	0.0
234	0x00000000	0.0
235	0x00000000	0.0
236	0x00000000	0.0
237	0x00000000	0.0
238	0x00000000	0.0
239	0x00000000	0.0
240	0x00000000	0.0
241	0x00000000	0.0
242	0x00000000	0.0
243	0x00000000	0.0
244	0x00000000	0.0
245	0x00000000	0.0
246	0x00000000	0.0
247	0x00000000	0.0
248	0x00000000	0.0
249	0x00000000	0.0
250	0x00000000	0.0
251	0x00000000	0.0
252	0x00000000	0.0
253	0x00000000	0.0
254	0x00000000	0.0
255	0x00000000	0.0
