lightning_logs/version_51/checkpoints/epoch=9-step=810.ckpt (torch, 227860 bytes, 15 tensors)

lstm.weight_ih_l0 f4 [256, 5]
000000 89 fa 03 be 2b 64 30 3e b6 87 2e 3f 0d 45 26 3e
       -0.1288854 0.17225711 0.6817583 0.16237278
000010 4b 93 00 3d 54 c3 15 3e c9 97 47 be a7 bf 66 3f
       0.03139047 0.14625293 -0.19491495 0.9013619
000020 c1 2a a8 3e 17 e3 a8 bd c6 53 3e 3e 38 5b b3 3d
       0.3284512 -0.08246439 0.18586645 0.08757633
000030 6e 9e 30 3f 2b a1 44 3e 45 f5 c0 bd 3a 41 f9 3e
       0.68991745 0.19202106 -0.094217815 0.48682576
000040 76 bb a8 be d0 66 57 3f 97 70 b2 3e c7 60 20 be
       -0.3295552 0.84141254 0.34851524 -0.15661918
000050 f5 46 2c bc 3d 3d da 3d e8 0d 85 3e 43 4b cd 3c
       -0.010514964 0.106562115 0.25987172 0.025060302
000060 09 6b 65 bd cf 0f f0 3e 59 6c bf be ec 9c 42 3f
       -0.05601028 0.4688706 -0.3738735 0.76020694
000070 12 2c 01 3f d1 95 2a be e0 69 dc be 13 a1 13 3e
       0.5045787 -0.16658713 -0.43049526 0.14416914
000080 6f 1c 65 bf 17 d8 8e be 15 da 18 3d 6c 47 db 3d
       -0.8949651 -0.27899238 0.037317354 0.10706982
000090 ad fb 4b 3d 68 06 26 3f 70 a0 76 3e e4 4b a2 bd
       0.049800564 0.64853525 0.2408464 -0.07924631
0000a0 87 b2 7b 3e e2 32 53 bd 37 b5 50 3f c0 6a 59 3e
       0.24579822 -0.051562198 0.8152651 0.21232128
0000b0 0e cc 82 be 5f 22 0f bd 0a 0b 0c 3e 2b 52 f5 3e
       -0.25546306 -0.03494489 0.13676086 0.47914252
0000c0 5f ca 84 3e d4 95 ee 3d d6 46 29 be 18 fc c2 3d
       0.25935647 0.11649671 -0.16530928 0.09520739
0000d0 07 bd 25 bf 5e 1c 75 be 35 33 e1 bc f9 be 9f be
       -0.6474156 -0.23936602 -0.027490238 -0.31200388
0000e0 13 ea 8d 3e 7f 46 48 bf f9 ea 35 be 4a ab bd 3d
       0.27717647 -0.7823257 -0.17765416 0.092611864
0000f0 71 28 27 be bb 85 00 3e e1 ec ec 3d d3 f0 74 3e
       -0.16324021 0.12551014 0.115686186 0.23919992
000100 93 e2 60 be 56 c2 ed bd fb f3 fc 3d b5 17 56 3e
       -0.21961431 -0.11609332 0.12351223 0.20907481
000110 27 5e 1b 3f df 75 46 be 3e fd dd 3e 64 aa 3e be
       0.6069054 -0.19380902 0.4335727 -0.18619686
000120 ba df 47 3f 77 a3 9b 3e d4 64 97 3b f0 0a f8 bd
       0.78075755 0.3039815 0.004620174 -0.12111461
000130 b1 bd 9c 3e 6c 99 2a be 33 8c 80 3e b4 4b cb be
       0.30613473 -0.16660088 0.25106964 -0.39706194
000140 9a fb eb 3d 77 a0 bc 3d e3 ca 5a 3f 70 d7 84 3e
       0.115225986 0.09210294 0.8546583 0.25945616
000150 6e 3f b0 bd 7f 39 b1 3e 67 10 72 be 33 72 51 3f
       -0.08605848 0.3461418 -0.2363907 0.8181488
000160 81 3e 52 3e 55 24 ef 3b 23 f1 00 be 73 04 9b 3c
       0.20531656 0.0072980323 -0.12591986 0.01892302
000170 96 4f 51 bf b8 36 8b be 2e f7 85 3e c6 a1 b8 be
       -0.81762064 -0.27190185 0.26165146 -0.36060923
000180 01 1c 2a 3e ea b9 40 bf 00 f6 d5 bd 6c 43 b4 be
       0.16612245 -0.7528368 -0.104473114 -0.3520769
000190 5e 50 d1 3e 6c 46 06 bc e2 42 3c 3f b3 49 53 3e
       0.40881628 -0.008195501 0.73539555 0.20633583
0001a0 82 a6 ca be 4b 49 92 3e 12 5a 85 be f7 ff 36 3f
       -0.3958016 0.28571543 -0.2604528 0.7148432
0001b0 cb 8e 6e 3e e5 c1 2c be 22 86 30 be 2b 63 44 3e
       0.23296659 -0.1687084 -0.17238668 0.19178455
0001c0 62 ab 88 3e 73 af bf 3e 13 a1 85 3d 3c 3a 73 be
       0.26693255 0.37438545 0.06524863 -0.23752683
0001d0 0c 27 d9 3d aa 08 2f bf 6a 7e bd be b4 89 3f bd
       0.10603151 -0.68372595 -0.3701051 -0.046762183
0001e0 9b 00 9e be 40 cd 8d 3e 82 0d ba be 56 5f 29 3d
       -0.30859837 0.27695656 -0.3633843 0.041350685
0001f0 6b fb 70 be ac 09 ac 3e 20 90 b8 bd 54 4e 71 3f
       -0.23533408 0.3360113 -0.09011865 0.94260144
000200 20 89 9d 3e e0 7c 22 3d e9 9c b7 3d 96 34 24 3e
       0.3076868 0.03966987 0.08965475 0.16035685
000210 82 93 19 3f fb c4 c8 3e b6 17 59 be f7 f2 c7 3e
       0.59990704 0.39212784 -0.21200451 0.39052555
000220 fe 0d af be 9a 43 81 3f 3e 2c e7 3e f0 c7 89 3d
       -0.34190363 1.0098755 0.45150942 0.06727588
000230 1a 96 0c bf 8a 40 07 3e c4 09 70 bf e1 fd cd be
       -0.54916537 0.13208213 -0.937649 -0.40232757
000240 70 10 9b 3d d3 2d 84 be ae d7 25 3e 83 44 53 bf
       0.075714946 -0.2581621 0.16195557 -0.82526416
000250 db d4 ac be 7d c8 a3 be 71 11 c3 be 25 03 0a be
       -0.33756146 -0.31988898 -0.38099244 -0.13477762
000260 02 5f 92 bf f5 6b e0 be b4 4b c1 bb fa 08 5b 3e
       -1.1435244 -0.43832365 -0.005898917 0.21390143
000270 d5 c2 30 be ce e3 33 3f 46 f6 53 3e 14 c2 32 be
       -0.17261823 0.7026948 0.20699415 -0.17456847
000280 35 05 8b be 53 e4 1d bd 6d f2 3c bf 9f e5 a3 be
       -0.2715241 -0.038547825 -0.7380741 -0.32011124
000290 df 74 03 be 7b 92 b6 be 3f 5b f4 3d cf ff 5c bf
       -0.12837552 -0.3565863 0.11931466 -0.8632783
0002a0 85 e5 ae be 89 67 84 3d ae bf a0 3e ed 67 2b be
       -0.34159485 0.0646506 0.3139624 -0.16738863
0002b0 d2 33 34 3f 2d c7 54 3e 8b ec 75 be 12 05 35 3e
       0.7039157 0.20779105 -0.24016015 0.17677715
0002c0 95 9a 19 bd d3 82 66 3f 70 68 b0 3e b0 13 0b be
       -0.037500937 0.9004337 0.3445468 -0.13581729
0002d0 8f 4d 1b be 5e 6a 93 3e 31 db 4a bf 2e 7b 3f be
       -0.15166305 0.2879209 -0.7924071 -0.18699333
0002e0 f3 b9 cc be 4a 03 26 be 68 7e 04 3e 99 81 27 bf
       -0.39985618 -0.16212192 0.12938845 -0.65432125
0002f0 6e bd da be 3d 07 80 3d 43 61 fc 3e ca bc dc be
       -0.42722648 0.062513806 0.49292955 -0.43112785
000300 8e 8f 60 3f 63 53 f7 3e ab 0d c1 3d b9 93 4a bd
       0.8771905 0.48305807 0.09426435 -0.049457286
000310 4e c9 63 3e 8c cf 33 bd e8 16 47 bd 19 e3 77 be
       0.2224476 -0.043899104 -0.04860583 -0.24207725
000320 ec 78 1e 3c 22 af 65 be 3c d6 58 bf 22 b1 95 be
       0.009672385 -0.22430089 -0.84701896 -0.29236704
000330 43 bf 5d 3d dd da 83 be 7b 6d 98 3e 15 0f fc be
       0.05413748 -0.25752917 0.29771027 -0.49230257
000340 3d 4d 4b bd a7 26 a8 be 2d 2d 82 bd ad d2 13 be
       -0.049634207 -0.3284199 -0.06356273 -0.14435835
000350 ee cb 7b bf d1 d1 f3 be 96 82 d3 3e b1 31 2d 3f
       -0.98358047 -0.47621015 0.41310567 0.6765395
000360 4e 5e 0e bf d5 14 47 3f c4 d7 05 3f 58 95 2c be
       -0.5561265 0.7776616 0.5228236 -0.16853845
000370 d2 46 8d 3e 78 f0 85 be b7 67 65 3f ec fd 7b 3e
       0.27593094 -0.26160026 0.8961138 0.24608582
000380 97 89 87 bd 9d ab 0c bc e9 52 81 3d 2d e9 3f 3f
       -0.0661804 -0.008585838 0.06314642 0.74965173
000390 a0 b9 59 3e d4 c6 a1 be 97 ff 2c be 7e b3 0c 3c
       0.21262217 -0.31597006 -0.16894375 0.008587716
0003a0 43 5d 19 bf 11 01 24 bd 37 38 40 be 01 ce 4a be
       -0.5990793 -0.04004008 -0.18771444 -0.19805147
0003b0 18 94 13 3d 50 2b 4b bf 53 4e a2 be da 0f c4 bd
       0.036029905 -0.79362965 -0.31700382 -0.09573336
0003c0 f8 19 77 be a2 db ad 3d c4 89 7f be 16 00 03 3f
       -0.24131 0.08489157 -0.24954897 0.51172006
0003d0 90 a6 a0 be 1b d0 00 3f 69 13 a5 be d5 a4 49 3f
       -0.31377077 0.50317544 -0.3224137 0.7876714
0003e0 2b bd 5a 3e ab 4d 78 3d 38 48 cf be a5 60 0e bd
       0.21361224 0.060620945 -0.40484786 -0.034760136
0003f0 54 0f 8a bf e2 83 c4 be af 44 d4 3e ff a1 3f be
       -1.0785928 -0.3838187 0.4145865 -0.1871414

lstm.weight_hh_l0 f4 [256, 64]
000000 48 18 6e 3d 88 ab b0 bc 72 df 81 bd a0 df 95 3b
       0.058128625 -0.021566167 -0.06341447 0.0045737773
000010 4e 17 e7 bd d8 1d c8 bc 90 9d 5e bd d8 ed a3 3d
       -0.11283742 -0.024428293 -0.054349482 0.080043495
000020 98 2e 4a bd 9c 74 9f bd 70 51 ea 3d 0e 0b c9 bd
       -0.04936084 -0.07785913 0.11441314 -0.09816562
000030 52 9f ea bd d8 9d 5e 3d fa 23 f7 bd 94 ed e2 3d
       -0.11456169 0.05434975 -0.12067409 0.11080471
000040 ec 52 83 bd a4 1b fc bd 44 95 11 bd 18 18 7d bd
       -0.064123005 -0.123099595 -0.03554274 -0.061790556
000050 60 35 b9 bd d0 a9 ee bd e6 78 8f bd 16 c4 aa 3d
       -0.090433836 -0.11653483 -0.070054814 0.08338182
000060 72 03 c3 bd 5c 34 3f bd e0 4e 8c bc a8 db 46 bd
       -0.095221415 -0.046680793 -0.017127454 -0.048549324
000070 f8 d8 d4 3d 00 0d e4 3d 22 5b a1 3d ee 2d f3 3d
       0.10392946 0.11135292 0.0787871 0.11873995
000080 60 23 87 3c ac 26 81 bd 90 db 11 bc 6c eb ef 3d
       0.01649636 -0.06306204 -0.008902445 0.11714825
000090 d8 62 e3 3c 3a 84 94 bd 58 f3 ff 3d 12 a6 ae bd
       0.027757093 -0.07251783 0.12497586 -0.08527769
0000a0 48 61 91 3c ba 71 e9 3d 7c 3d 41 bd 20 e1 b6 bc
       0.017746583 0.11398645 -0.047177777 -0.022324145
0000b0 74 9d 5c bd 6c 0c ed bd b6 21 8a 3d d0 06 5b 3d
       -0.053861097 -0.11574635 0.06744711 0.053473294
0000c0 30 ca 0c 3c 80 f2 1f bc a2 29 f8 bd b0 e0 cd 3c
       0.008593127 -0.009762406 -0.12117316 0.025131553
0000d0 d0 3b 71 3c 18 17 e2 3d a4 d3 c5 3d 8c 3f 10 bd
       0.014723733 0.11039561 0.09659508 -0.035216853
0000e0 b4 4e b9 3d 7c 82 1d 3d 50 f5 10 bc 4c 48 12 3d
       0.090482146 0.038454518 -0.00884755 0.03571348
0000f0 88 36 e8 3c 28 cd 1e 3d e0 76 ff 3b c0 68 b5 bc
       0.028346315 0.03876987 0.0077961534 -0.022144675
000100 34 4c 0d 3d 90 b2 38 bc d8 1b 6e bd 4c a6 8a bd
       0.0344965 -0.011273041 -0.058132023 -0.0677
000110 44 45 64 bd d2 7c e1 bd 60 32 f3 bd f0 ca 87 bd
       -0.05573012 -0.11010136 -0.11874843 -0.06630504
000120 7c 1a ca 3d 78 13 4c bd f0 63 33 3d 58 7f 9e bc
       0.09868333 -0.049823254 0.04379648 -0.019347832
000130 60 62 3c 3c 90 b2 fe 3c 94 9b c4 3d 52 db bc 3d
       0.011498064 0.031091005 0.09599987 0.092215195
000140 a0 65 c3 bc 78 1d ff 3d 76 83 a3 3d ec 7b df bd
       -0.02385217 0.124567926 0.079840586 -0.10912308
000150 10 28 3e 3c 5e e4 a2 bd f8 3f 8f bd 00 b6 e9 bc
       0.011606231 -0.07953714 -0.06994623 -0.028529167
000160 f0 e1 33 bd 6c dd dc bd 3c de 1f bd 20 be 1c bd
       -0.043916643 -0.1078442 -0.0390303 -0.038267255
000170 3a 42 eb 3d 7c 6f 38 3d 0c 2f 50 bd 1c 7a fb 3d
       0.11487241 0.045028195 -0.050826117 0.1227915
000180 6c f4 6a bd 70 10 15 3c a4 91 c4 3d 14 56 48 3d
       -0.057362005 0.009098157 0.09598091 0.048910215
000190 70 3e 97 3c 14 81 b0 3d 6c 8e ce 3d 5c a4 bd bd
       0.01846239 0.0861837 0.100857586 -0.09259865
0001a0 4c 55 30 bd b4 f1 ab 3d e0 66 98 bc 82 9c e3 3d
       -0.043050095 0.083957106 -0.018603742 0.11113836
0001b0 66 45 c7 3d 3c d0 69 bd 8c fe 4e bd 52 91 aa 3d
       0.097300336 -0.057083353 -0.050535724 0.08328499
0001c0 e6 b6 a4 bd f0 28 6c bc d8 53 f6 3c e0 b9 41 bc
       -0.080426976 -0.014414057 0.030069277 -0.011824101
0001d0 42 31 8c 3d d0 84 c1 bc 36 15 eb 3d 46 6b 9e 3d
       0.06845333 -0.0236229 0.11478655 0.077353045
0001e0 74 fc 04 bd 36 45 bc 3d 38 9d 56 3d b4 58 bb bd
       -0.03246732 0.091928884 0.05239603 -0.09147778
0001f0 be f7 89 bd 1c c0 1d 3d b8 54 ad 3d 90 fa f1 3c
       -0.06736706 0.038513288 0.084634244 0.029538423
000200 40 4b 0f 3c 98 51 ce bc e4 ad cd 3d 80 55 2c bd
       0.008745968 -0.025185391 0.10042933 -0.042073727
000210 f2 b9 b1 bd 94 ef c1 3d 40 28 ae 3c b0 4a 4f 3d
       -0.086780444 0.09469524 0.021259427 0.050608337
000220 86 e4 9b bd 84 11 d4 3d 2c 8b 3b 3d 80 bb 6e bb
       -0.07611947 0.10354903 0.04578702 -0.0036427677
000230 94 7f ce bd a8 1c 14 bd 46 dd ea bd f8 eb 0b 3d
       -0.10082927 -0.03616014 -0.11467986 0.034160584
000240 26 5e 9b 3d 38 73 cc 3d 20 b1 bd bb ec 80 c1 3d
       0.07586317 0.09982914 -0.005788937 0.09448418
000250 a4 d3 a5 3d 30 08 8b 3c 9c d9 82 bd 98 aa 80 bc
       0.08097008 0.016971678 -0.06389162 -0.015706345
000260 02 3f b9 bd ee ff d8 bd f0 1c f4 3d 38 64 a4 bd
       -0.09045221 -0.1059569 0.11919582 -0.08026928
000270 54 fc c6 3d 46 f9 ec 3d 60 f1 56 3d f8 10 1f bd
       0.097160965 0.11570983 0.052476287 -0.038834542
000280 2e f7 f7 bd 90 ac c5 bd b8 fe 56 bd 00 b1 da bc
       -0.12107693 -0.09652054 -0.052489012 -0.026695728
000290 88 d0 c8 3c b4 0e df 3d 00 7e 9b 3c 84 95 d9 3d
       0.024513498 0.10891476 0.01898098 0.10624221
0002a0 e4 55 00 3d 40 2e ee bc 44 97 49 bd d0 b5 c2 bd
       0.03133191 -0.029074788 -0.049216524 -0.09507334
0002b0 98 64 ee bd 82 f2 98 3d c0 69 66 3b c0 cb 90 bb
       -0.116402805 0.0746813 0.0035158247 -0.00441882
0002c0 1a 93 c5 bd 94 e2 e3 3d b0 9a 62 bd 7e 7f cb 3d
       -0.09647198 0.11127201 -0.055323303 0.099364266
0002d0 00 e8 69 3d 20 39 e0 3d 1c 5c bc 3d f2 1c a2 3d
       0.057106018 0.10948396 0.09197256 0.07915677
0002e0 08 91 78 3d c8 eb b3 3c d0 08 99 bd b4 3b a8 3d
       0.060685188 0.021963015 -0.07472384 0.082145125
0002f0 1c b5 e3 3d 10 70 04 3d a0 d9 35 3c 00 69 0e bb
       0.11118528 0.032333434 0.011099249 -0.0021730065
000300 70 6a d4 3c 40 c5 5c bc 1c 0d dc bd be df c2 3d
       0.02592966 -0.013474762 -0.10744688 0.09515332
000310 e0 26 44 bc bc ec 7e 3d d8 bc d0 3d 04 eb 5d bd
       -0.011972159 0.062237486 0.10192269 -0.054179206
000320 ca 43 d2 bd f0 8c 3e 3c 8e 96 9e 3d 9a 4d 8c 3d
       -0.10266836 0.011630282 0.0774356 0.06850739
000330 62 68 fc 3d c0 bd 66 3b b0 ed 4d bc 68 e1 9c 3d
       0.12324597 0.0035208315 -0.012568876 0.0766018
000340 d4 e4 58 bd f0 1a 0c bd b4 e8 e6 3d e0 75 76 bc
       -0.052952603 -0.034205377 0.11274853 -0.015042752
000350 94 98 ad 3d 78 0a 96 bd b4 71 89 3d d8 12 18 3d
       0.084763676 -0.073262155 0.0671114 0.037127346
000360 10 bb 8d bc c8 71 c1 bd ee 9b e9 3d 50 c6 22 3d
       -0.017301112 -0.0944553 0.11406694 0.039739907
000370 e8 4a ac bc 20 6b 08 bc 30 3f c0 3c 3c 40 14 3d
       -0.021031812 -0.008326322 0.02346763 0.03619407
000380 70 01 36 3d b4 e8 e4 3d 02 a7 91 3d 30 46 7d bc
       0.044434965 0.11177197 0.07111932 -0.015458629
000390 d0 15 06 3d 70 a6 2b bc c8 60 42 3d 4a 07 84 3d
       0.032735646 -0.0104766935 0.04745558 0.06446703
0003a0 00 03 ad 3a d0 76 30 3c a8 7e e1 3c 0e b4 e7 bd
       0.0013199747 0.010770515 0.027526215 -0.113136396
0003b0 60 aa 75 bd 50 81 3e bd bc 55 be 3d 38 f4 a3 3c
       -0.059976935 -0.04651004 0.09293696 0.020013914
0003c0 70 64 06 3c 10 15 a7 bc a0 93 88 3b 4a 4f af bd
       0.008202657 -0.020395786 0.004167989 -0.08560045
0003d0 8c 6d 87 bd 5e ca e3 bd 40 e8 19 3c cc 7e be 3d
       -0.06612691 -0.11122583 0.009393752 0.09301528
0003e0 04 91 2a 3d d4 d3 39 bd 60 28 48 bc 64 d4 cc bd
       0.041642204 -0.04536803 -0.012216657 -0.10001448
0003f0 5a 01 fd bd f6 a2 eb 3d 70 20 f5 3c 20 93 e9 3c
       -0.123537734 0.11505692 0.029922694 0.028512537

lstm.bias_ih_l0 f4 [256]
000000 ae 75 78 3e 5d 3e 0a 3f 9a 91 e2 3e d9 6c f7 3e
       0.24263641 0.5400141 0.4425171 0.48325232
000010 f7 17 19 be 00 60 f1 3e aa 47 9c 3e 40 3a c4 3e
       -0.14950548 0.47143555 0.30523425 0.3832569
000020 ee 8a 05 3f 37 27 d6 3e f8 55 96 3e bf a9 c6 3e
       0.52165115 0.41826794 0.29362464 0.3880138
000030 c4 61 b5 3e 20 7c cb 3e da 72 e8 3e d1 c4 6b 3e
       0.35426152 0.39743137 0.45400125 0.23024298
000040 ae b3 d8 3e 69 2f fd 3e 44 ba 13 3f 04 82 bb 3e
       0.42324585 0.49450234 0.57706094 0.36622632
000050 d1 d6 8e 3e 5c 5c a7 3e 21 4c 5a 3e 54 d6 99 3e
       0.27898267 0.32687652 0.21318103 0.30046332
000060 c8 75 27 3e 2e da 28 3f d4 9e df 3e c0 28 d8 3e
       0.16353524 0.65957916 0.43675864 0.4221859
000070 d5 4f 9c 3e 30 cd 8e 3e 35 eb da 3e b7 8c 56 3e
       0.30529657 0.2789092 0.42757574 0.20952116
000080 d4 41 06 3f 3a 95 37 3e 96 cd 84 3e 70 0c 2a 3f
       0.52444196 0.17928019 0.259381 0.6642523
000090 43 0a d7 3d f6 a3 b5 3e 38 ba bb 3e 71 a2 78 3e
       0.10500004 0.35476655 0.3666551 0.24280716
0000a0 ce 4c 12 3f 48 04 8a 3e 5a 94 d4 3e 8d 5a 23 3f
       0.57148445 0.2695639 0.41519433 0.63810045
0000b0 88 c1 10 3f 49 8c cb 3e 17 db e7 3e f4 43 d3 3e
       0.56545305 0.39755467 0.4528434 0.41262782
0000c0 ba b9 cf 3e ea eb ea 3e 13 f4 b8 3e 90 5d d9 3e
       0.40571386 0.45883113 0.36123714 0.42454195
0000d0 9d 9d e1 3e 48 56 df 3e a4 8e ae 3e 51 4f c0 3e
       0.44065562 0.43620515 0.340932 0.37560514
0000e0 06 c8 d3 3e f2 95 cb 3e e3 29 f2 3e 89 7e 05 3f
       0.41363543 0.39762837 0.47297582 0.521462
0000f0 7a 96 00 3f 88 03 8f 3e cd 18 16 3f c9 68 11 3f
       0.5022961 0.27932382 0.58631593 0.56800514
000100 a6 8b 84 3d e0 39 af bd 74 f6 94 bd ac ae e9 bd
       0.06471948 -0.08555961 -0.0727357 -0.11410269
000110 b0 02 44 3d 8a ce a3 3d a0 5d 61 3c 58 5c 57 bd
       0.047854125 0.079983786 0.013755232 -0.0525783
000120 6e 37 b7 3d 10 26 16 3c 80 2b ff 3c 6a 48 cd 3d
       0.08946119 0.009164348 0.031148672 0.100235775
000130 08 50 e0 bc 28 fa 7b bd 42 67 90 bd c8 50 e4 3c
       -0.027381912 -0.061517864 -0.07050945 0.02787055
000140 0e 6e 8b 3d 9c cf 3b bd e0 19 bb bc 0e 81 a1 3d
       0.06808101 -0.04585229 -0.022839487 0.07885943
000150 64 c9 53 bd 86 43 8e bd a4 fa 43 3d 66 5c e8 bd
       -0.051705733 -0.06946473 0.04784645 -0.113457486
000160 c0 2d 05 bb 06 8b e4 bd 44 bd 5f bd 2c 81 ea bd
       -0.0020321459 -0.11159329 -0.054623857 -0.11450419
000170 40 53 36 bb 10 b0 ac 3c 1a b4 fd bd 06 0f dd bd
       -0.0027820617 0.021080047 -0.12387867 -0.10793881
000180 38 4b a7 3d 38 58 e7 bc 20 ea 98 3c d4 1c 06 3d
       0.08168644 -0.028240308 0.018666327 0.032742336
000190 88 1a b0 3d e4 d9 36 bd f8 fd 7c bd 1e ad a4 3d
       0.085988104 -0.04464139 -0.06176564 0.08040832
0001a0 80 bc cf ba c0 43 a8 bc 1c 1c d5 bd 10 33 b0 3c
       -0.0015849024 -0.020540118 -0.10405752 0.021508723
0001b0 e8 bf 7c bd 88 d7 08 bd a4 5f ab bd 8c e6 71 3d
       -0.061706454 -0.03340867 -0.083678514 0.059057757
0001c0 48 e9 97 bd 6e e2 ce 3d 80 c1 a3 bd 00 a9 2c ba
       -0.07417542 0.10101782 -0.079958916 -0.0006586462
0001d0 2c 67 6e 3d b8 5b 9a bd b6 f3 9d 3d e0 53 05 3c
       0.05820386 -0.07537025 0.077125 0.008137673
0001e0 90 a8 50 3d 78 64 8e bc 20 1b 6c bd b4 d5 8f 3d
       0.050942004 -0.017381892 -0.057643056 0.070231825
0001f0 a8 d2 24 3d 56 aa a0 bd a0 08 a7 bd f2 89 9f 3d
       0.04023996 -0.07844989 -0.08155942 0.07789983
000200 af c6 32 3e ca f4 15 3e 84 8a d4 3d 5f 7d d0 bb
       0.17458604 0.14644161 0.10377982 -0.0063626016
000210 01 c8 c7 3c 5f 77 6e bd 1e 4b 0f 3d 45 2d 08 be
       0.024387361 -0.05821931 0.034983747 -0.13298519
000220 72 c6 b9 3d b0 65 a8 3d 30 6c 9f bd 79 18 ff bd
       0.090710536 0.0822252 -0.07784307 -0.1245584
000230 c6 b6 10 3e 4b 74 28 3e 21 ef a8 3d 92 7e 53 be
       0.14132223 0.16450612 0.08248735 -0.20653751
000240 dd 7f d3 bd d0 76 77 bd 81 d9 8c bd 77 07 26 be
       -0.10327122 -0.060416043 -0.06877423 -0.16213785
000250 53 02 df 3d 50 8f 04 be e3 d4 f3 3d de d1 d7 3b
       0.10889115 -0.12945294 0.11905839 0.0065862974
000260 b1 c8 53 3e cf 46 34 3e c1 cb 2b 3e e2 76 0b 3c
       0.20682026 0.17605136 0.16776945 0.008512231
000270 4f db ee 3d 19 08 f1 bd 52 f6 0a be 86 01 0d 3e
       0.116629235 -0.11769123 -0.13570526 0.13770112
000280 4d 8d 7e 3b cf ac 0b 3e b2 0d 05 3e cf 51 7c 3d
       0.0038841546 0.1364014 0.12993506 0.061601456
000290 4b 99 26 3e a2 23 ef 3d b2 81 82 3c 81 75 59 be
       0.16269414 0.11676718 0.015930984 -0.2123623
0002a0 ac 38 27 bd 21 b4 53 3e 4c 6c 22 be 13 4f a1 3b
       -0.04082553 0.20674182 -0.15861624 0.0049227565
0002b0 b7 5e 9f bd 2d 75 f7 bd 02 74 30 be 9b 72 8f bc
       -0.07781737 -0.120828964 -0.17231753 -0.017510703
0002c0 45 69 15 be 49 e6 fa bd 3a 63 1d 3e 85 be 21 be
       -0.14590938 -0.12250955 0.15369883 -0.15795334
0002d0 9f cc dc 3c 70 0f 25 be f7 08 20 be a5 21 fa bd
       0.02695304 -0.1611917 -0.1562842 -0.122134484
0002e0 eb a0 c2 bd 32 fb 1d 3e b4 ed 2f 3a d1 36 78 3d
       -0.09503349 0.15427855 0.0006711141 0.060599152
0002f0 d7 b3 cf 3d 0b 52 26 be de bb b7 3d 6a 52 15 3c
       0.101417236 -0.16242234 0.0897138 0.009113887
000300 d9 b6 4e 3e 31 74 1f 3f d8 3f d7 3e 37 b4 08 3f
       0.20186938 0.6228667 0.42040896 0.53399986
000310 e0 05 d9 bd 50 1a 1c 3f 35 4e 0a 3f cd de f3 3e
       -0.10596824 0.6097765 0.54025584 0.4763092
000320 22 35 a1 3e 06 08 fe 3e 3d de d4 3e 0e 9f 9f 3e
       0.3148585 0.49615496 0.41575804 0.31176037
000330 c2 d9 8b 3e e3 7e 08 3f dd 9b 09 3f 75 6e e9 3d
       0.27314574 0.53318614 0.53753453 0.11398021
000340 d6 19 ee 3e d9 d4 01 3f a0 71 00 3f 1e 8a e4 3e
       0.46504086 0.50715405 0.5017338 0.44636625
000350 88 59 9c 3e 59 4c fa 3e 76 ef 8f 3e c3 54 5c 3e
       0.30537057 0.48886374 0.28112382 0.21516709
000360 d1 bb 70 3e 50 af 30 3f da 58 c2 3e c4 ab 16 3f
       0.23509146 0.69017506 0.37958413 0.58855844
000370 4d 08 b8 3e 32 c6 98 3e c2 d1 e8 3e 7d f0 c1 3e
       0.35943833 0.2983871 0.45472533 0.3787879
000380 09 2d ee 3e dc 9f d7 3e 81 3f d7 3e da 10 ed 3e
       0.46518734 0.4211415 0.42040637 0.4630192
000390 0d 1e 86 3e 32 09 bf 3e d4 5f 27 3f 78 c2 22 3e
       0.26194802 0.37311703 0.653806 0.15894496
0003a0 b4 d6 c1 3e 28 0a d1 3d b6 ea b5 3e a2 b6 e8 3e
       0.37859118 0.10207015 0.35530633 0.45451838
0003b0 f7 82 1b 3f 72 29 e0 3e b6 72 9a 3e c6 cd f7 3e
       0.6074671 0.4378162 0.30165642 0.4839918
0003c0 ad 48 d1 3e fb df 01 3f 38 29 21 3f 7a 55 ca 3e
       0.4087576 0.5073239 0.6295352 0.39518338
0003d0 02 17 c5 3e 3c eb f4 3e e7 1b 87 3e b9 2a e5 3e
       0.38494116 0.4783572 0.26388475 0.44759157
0003e0 86 d1 ac 3e ae 31 8d 3e 9b e4 0f 3f df b6 11 3f
       0.33753604 0.27576965 0.562082 0.56919664
0003f0 09 9f c2 3e 04 71 9e 3e f8 27 b9 3e d7 91 08 3f
       0.3801196 0.309456 0.36163306 0.53347534

lstm.bias_hh_l0 f4 [256]
000000 1a 4f ad 3e 53 ef ed 3e 27 71 9a 3e cc 91 e8 3e
       0.33849412 0.46471652 0.30164453 0.45423734
000010 09 5e ea bd 1e 87 14 3f d2 cd c2 3e 56 4b e4 3e
       -0.11443717 0.5801867 0.38047653 0.44588727
000020 1a c3 bd 3e 18 05 03 3f de 6c eb 3e 16 77 c4 3e
       0.37062913 0.5117965 0.45981497 0.38372105
000030 e4 37 55 3e 39 a0 db 3e 55 f8 17 3f 74 f8 70 3e
       0.20822102 0.42895678 0.593633 0.23532277
000040 0f 29 f1 3e 55 97 f6 3e cd 92 cf 3e a4 60 c1 3e
       0.47101638 0.48162332 0.40541688 0.37769043
000050 10 22 3c 3e 6c 72 03 3f 5e 2c a7 3e 31 c9 b5 3e
       0.18372369 0.5134647 0.32651037 0.3550506
000060 1b 06 b8 3e 85 c2 30 3f 39 a8 c7 3e 77 6b cb 3e
       0.35942158 0.69046813 0.3899553 0.39730427
000070 72 45 2a 3e 71 9f e1 3e 36 bb de 3e d7 b9 91 3e
       0.16628054 0.44066957 0.43502206 0.28462097
000080 e7 a4 e6 3e e7 c4 f7 3d b6 ef ca 3e 86 7a 0d 3f
       0.45047686 0.12098103 0.3963601 0.5526508
000090 d9 ae 91 3e c5 1c 45 3e 97 c0 0d 3f 1a a6 ae 3e
       0.2845371 0.19249256 0.55371994 0.341111
0000a0 5a 05 21 3f 0f 35 d5 3d 8a 03 d0 3e e4 d3 ef 3e
       0.6289879 0.10410511 0.406277 0.46841347
0000b0 17 36 ea 3e 09 ef c6 3e 4c f4 b6 3e ce 04 cf 3e
       0.45744392 0.38854244 0.3573326 0.40433353
0000c0 6d c6 7b 3e 5e 51 1e 3f 1f f4 c8 3e f0 4b 8f 3e
       0.24587412 0.61842906 0.3924875 0.27987623
0000d0 3a 0c a3 3e fb 6a e4 3e ac f5 d7 3e 0e e0 d2 3e
       0.31845266 0.4461287 0.4217962 0.41186565
0000e0 bc 38 c8 3e 31 d6 50 3e 3f 1f 04 3f f9 d5 01 3f
       0.39105785 0.20394208 0.5161018 0.5071712
0000f0 57 fb e0 3e d4 cc 76 3e 6d 3a dd 3e 17 5b 04 3f
       0.43941757 0.24101573 0.43208638 0.5170149
000100 78 db a3 3c 94 04 c0 3d 80 4c b3 bb e6 b6 a7 3d
       0.020002112 0.09375873 -0.005471766 0.08189182
000110 f8 f7 cd bd 58 58 61 3d 00 ca da bd 04 31 1b 3d
       -0.10057062 0.05501589 -0.1068306 0.03788854
000120 70 46 6d 3d a8 9f f8 3d 54 e4 cb 3d 30 d9 f8 bc
       0.057928503 0.12139827 0.099556595 -0.030377
000130 cc 1a 96 3d 6a d7 a8 3d 48 27 06 3d 60 74 a4 bc
       0.0732933 0.08244212 0.032752305 -0.020075023
000140 60 ab bf 3c a8 bb 84 bc e8 22 be 3c d0 65 8f 3c
       0.023397148 -0.016202763 0.023210004 0.017504603
000150 60 4e 06 bc 02 95 ca bd 46 e9 91 bd d2 9d b8 3d
       -0.008197397 -0.09891702 -0.071245715 0.09014477
000160 0c a5 ee bd f0 1c e1 bd 10 49 1b 3d a2 d2 da 3d
       -0.11652574 -0.109918475 0.037911475 0.10684706
000170 ee 84 ef 3d 94 1d 99 bd 70 a7 5c 3d c0 7e d2 bb
       0.11695276 -0.07476345 0.05387062 -0.006423801
000180 00 90 dc b9 ae 72 a0 3d 16 7a fa 3d ae 9b 9c 3d
       -0.00042068958 0.078343734 0.12230317 0.07646881
000190 64 5d 9d 3d f0 55 0d 3d 2c 8f df bd b0 ec 12 3d
       0.076838285 0.034505785 -0.1091598 0.035870254
0001a0 14 f9 aa 3d 7c c1 39 3d 6e 8b b1 3d 60 75 57 3d
       0.08348289 0.045350537 0.08669172 0.052602172
0001b0 ae a9 80 bd 40 fb 9d 3b 50 29 20 bd 28 8d 92 3c
       -0.06282364 0.004821211 -0.0391019 0.017889574
0001c0 ae 1f 81 bd e0 99 dd 3b 52 19 a2 3d 00 4c 5c 3c
       -0.063048705 0.006762728 0.07914986 0.013445854
0001d0 20 91 fd bd 7a e2 c6 3d 68 67 79 bd b4 a2 cb 3d
       -0.12381196 0.09711166 -0.06088963 0.099431425
0001e0 56 85 c8 3d 68 1a 0a 3d 44 04 46 3d 84 1a 16 3d
       0.09791057 0.03371659 0.04834391 0.03664638
0001f0 84 ad 85 bd 34 4a 83 bd 60 c6 8a 3d 7c 88 8b 3d
       -0.06527236 -0.064106375 0.06776118 0.06813142
000200 8e db 48 3e 69 7c d7 3c 4c d5 1d 3e 72 0e e6 3d
       0.19615003 0.02630444 0.15413398 0.11233224
000210 ef 5b 29 3b 33 95 4c bc 2e 03 09 3c 01 f5 e1 bd
       0.002584215 -0.012486744 0.0083625745 -0.11033059
000220 62 f6 26 3e 6b 5f 90 3d fd 9a b7 bd 51 c3 c5 bc
       0.16304925 0.070494495 -0.089651085 -0.024140986
000230 e3 1c 1c 3e 73 53 c7 3d a3 ca 31 b8 f0 58 ac bd
       0.15245394 0.097327136 -4.238881e-05 -0.08415401
000240 fd 86 15 be f8 6a cf bd a3 fe 10 bd 60 ca df bd
       -0.14602275 -0.101278245 -0.03539909 -0.10927272
000250 e5 ce 59 3e 96 c1 95 bd 17 d6 4c 3d 67 02 d8 3d
       0.2127033 -0.07312314 0.05000886 0.10547333
000260 d2 6e 6e 3e a1 00 4d bd 0f 96 23 3e 8b 49 6d bc
       0.23284462 -0.050049428 0.15975212 -0.014482866
000270 e9 ee 9c bd bc 8d 05 be 21 31 7c bd 43 b2 16 3e
       -0.07662756 -0.13042349 -0.06157029 0.14716439
000280 d5 60 2f 3d 45 bf 2a bd fd 77 88 3d 38 a6 11 3e
       0.042816956 -0.041686315 0.06663511 0.14223564
000290 61 4c 19 3e 84 77 38 3a eb c6 49 3d 09 96 71 be
       0.14970542 0.0007036852 0.04926197 -0.2359239
0002a0 da 31 c9 bd 29 00 56 3e e0 1e 22 be 31 30 4d 3c
       -0.098239616 0.20898499 -0.1583209 0.012523697
0002b0 55 a6 d9 bd 79 01 6a be eb 43 12 be af d3 2b 3c
       -0.106274284 -0.22852124 -0.14283721 0.010487481
0002c0 3f 65 a3 bb 79 57 2d 3d 50 90 a7 3d fc d4 7d be
       -0.0049864347 0.04231975 0.08181822 -0.24788278
0002d0 0b 5d 3a 3e 93 af 2d be 53 67 fe bd c7 b1 10 be
       0.18199556 -0.16961507 -0.12422051 -0.14130317
0002e0 7f 02 33 3d 7d fc 6c 3e 80 81 27 be ce 07 14 bd
       0.043703552 0.23143192 -0.16357994 -0.036140256
0002f0 60 b3 cd 3d d9 b7 95 bd 42 76 0a bd 21 3b 83 3c
       0.10043979 -0.07310457 -0.033804186 0.016019406
000300 9d 08 93 3e 49 e1 08 3f ea 52 01 3f 29 91 e8 3e
       0.2871751 0.5346876 0.5051714 0.45423248
000310 33 b9 e2 bd 62 b6 d0 3e 1c 14 d4 3e ca bb 86 3e
       -0.1107048 0.40764147 0.41421592 0.26315147
000320 db c2 d5 3e db 99 b4 3e 49 6b 2e 3e 01 90 df 3e
       0.41750225 0.35273632 0.17033114 0.43664554
000330 37 b6 ab 3e 45 33 bf 3e c4 1b e7 3e 59 c9 91 3e
       0.33537456 0.37343803 0.4513837 0.2847393
000340 53 aa a9 3e 4d 8b fc 3e 0c f5 e0 3e 89 9f ee 3e
       0.3313776 0.49325028 0.43936956 0.4660609
000350 8e 65 c0 3e ad 57 d0 3e 41 e6 d3 3e dd 07 94 3e
       0.3757748 0.4069189 0.41386607 0.2891225
000360 e6 53 24 3e b7 90 fc 3e e3 16 0e 3f e8 62 01 3f
       0.1604763 0.4932916 0.5550367 0.50541544
000370 26 fb 9e 3e b9 b7 bf 3e 2d 28 f4 3e 3e 6c 85 3e
       0.31050986 0.37444857 0.47686902 0.26059145
000380 30 94 cd 3e cd 5f a4 3e 9a 51 8c 3e 82 0e 1d 3f
       0.4015212 0.3210434 0.27406007 0.6135026
000390 08 5f 7b 3e ec ad 1e 3e e0 04 19 3f ec 64 7c 3e
       0.2454797 0.15496033 0.59773064 0.24647874
0003a0 e0 d0 d7 3e 3c 92 86 3e 1e 95 ab 3e 94 b3 13 3f
       0.42151546 0.26283443 0.33512205 0.5769589
0003b0 ba e8 10 3f 35 2c 89 3e ab 12 9b 3e da 12 bd 3e
       0.5660511 0.2679154 0.3028768 0.36928445
0003c0 96 16 96 3e 08 81 e9 3e 46 e4 f4 3e b6 c0 90 3e
       0.29314107 0.45606256 0.4783041 0.28272027
0003d0 5b b5 c2 3e ce 82 f9 3e 0c cd b4 3e 0a 83 0a 3f
       0.38028988 0.4873261 0.35312688 0.541062
0003e0 12 fd ca 3e 27 1d 71 3e 6f 62 cc 3e 71 29 0d 3f
       0.39646202 0.23546277 0.3991885 0.5514136
0003f0 f1 f1 04 3f 39 d8 dd 3e f7 60 f9 3e 76 90 17 3f
       0.51931673 0.43329027 0.4870679 0.59204805

fc.weight f4 [1, 64]
000000 f9 e6 95 be c4 1d 03 bf 30 c9 dd be 39 b1 17 bf
       -0.2927778 -0.51217294 -0.43317556 -0.59254795
000010 f0 46 e1 3c a9 dc 29 3f 40 42 16 bf 69 95 f1 3e
       0.027499646 0.66352326 -0.5869484 0.47184303
000020 f0 31 d9 be f4 a1 e3 be 9b 2b 04 3f 5b 5f d7 3e
       -0.42420912 -0.44459498 0.51629037 0.42064938
000030 e2 24 7b be 01 29 9f be 28 d3 2f bf 67 1f a0 3e
       -0.24525788 -0.3108597 -0.68681574 0.31273958
000040 75 55 f2 3e fc d7 03 3f 81 29 2e bf ca bd c3 3e
       0.47330824 0.5150144 -0.6803208 0.38230735
000050 e8 8d b5 be 06 10 02 3f a3 6b aa be fc c1 0e bf
       -0.35459828 0.508057 -0.33285245 -0.55764747
000060 fa 49 8b be 25 65 1a bf aa a9 af be d7 f5 25 bf
       -0.27204877 -0.60310584 -0.3430913 -0.64828247
000070 55 a6 1e bf d2 b2 d1 3e 47 10 48 bf c7 a6 dd be
       -0.6197255 0.40956742 -0.7814984 -0.43291304
000080 f5 5d 1d bf 0b 4d 0e bf 63 87 fd be 01 9f ee be
       -0.6147149 -0.5558631 -0.49517354 -0.46605685
000090 3a 6d de be a6 1f 08 bf 8c 0f 3b 3f 67 41 ae 3e
       -0.43442708 -0.5317329 0.730706 0.34034273
0000a0 76 25 43 bf 1f 22 a0 be 4b 69 36 bf da 47 2a bf
       -0.76229036 -0.31276032 -0.71254414 -0.66515887
0000b0 9f a0 ef 3e ae 7b b6 3e 7b cd ba 3e a8 27 34 bf
       0.46802232 0.35641235 0.36484894 -0.7037301
0000c0 61 02 97 3e 3d 55 1c 3f 18 6d 3a 3f 1f 0d 95 3e
       0.29494002 0.61067563 0.72822714 0.29111573
0000d0 86 1a 0a bf 70 db bd 3e 2a 05 c2 3e 6f eb ca 3e
       -0.5394672 0.3708148 0.37894565 0.39632747
0000e0 f4 23 08 3f 93 a5 92 be 10 1f 02 3f b5 42 03 bf
       0.5317986 -0.28641948 0.5082865 -0.5127366
0000f0 32 0a cd be 17 db de be 7d 56 27 bf 17 e7 35 3f
       -0.4004684 -0.43526527 -0.65366346 0.7105574

exp_avg f4 [256, 5]
000000 50 68 4e b8 85 61 70 37 0b 80 3b b9 71 2b 49 37
       -4.9211376e-05 1.432782e-05 -0.0001788141 1.1990648e-05
000010 be ca c1 b7 77 7f e9 b8 b4 bd c1 38 26 2c c4 b9
       -2.3101802e-05 -0.00011134048 9.238292e-05 -0.00037416926
000020 62 16 d8 37 10 b1 fe b8 41 a8 bd b8 70 0f 5e 38
       2.575963e-05 -0.00012144644 -9.043562e-05 5.2943302e-05
000030 5f 71 92 b9 55 e7 13 38 7a 29 6d b8 aa 07 c6 b8
       -0.00027931758 3.5262976e-05 -5.654383e-05 -9.442803e-05
000040 d0 6d 9c 38 f6 37 c6 b9 59 a7 b6 b7 55 b6 9b b8
       7.459114e-05 -0.00037807197 -2.1774018e-05 -7.424938e-05
000050 1f 6e b9 34 c0 20 af 33 09 eb 93 b6 7d ed a0 b5
       3.453906e-07 8.15503e-08 -4.408303e-06 -1.1990047e-06
000060 d3 31 5b b5 32 03 04 b9 14 3e e6 38 26 c8 ee b9
       -8.165636e-07 -0.00012589691 0.000109788176 -0.0004554402
000070 44 af 64 b7 5d 5f 04 b9 ec 5b 8b 38 c5 69 d6 38
       -1.3630666e-05 -0.00012624027 6.645158e-05 0.00010224016
000080 62 20 e0 39 38 5d 04 b9 47 4d 93 b8 6f 52 ea b8
       0.00042748736 -0.00012623228 -7.0239e-05 -0.00011173344
000090 c4 e0 9f 38 3c eb ac b9 2b 00 27 38 54 2f b7 b8
       7.623577e-05 -0.0003298166 3.981606e-05 -8.7349355e-05
0000a0 4c 65 bb b8 be d3 3a 38 57 7c 84 b9 16 04 a1 38
       -8.935723e-05 4.4543056e-05 -0.00025269642 7.677839e-05
0000b0 bf ad 49 b8 22 f3 ab b8 3d 06 ab 38 5e cd 94 b9
       -4.8083948e-05 -8.1992024e-05 8.1550774e-05 -0.0002838177
0000c0 ab 8d e6 b7 02 cb cf b8 60 83 87 37 72 5d 80 38
       -2.7484106e-05 -9.908342e-05 1.615443e-05 6.120921e-05
0000d0 0c e4 91 39 b5 47 e0 b7 98 21 00 b8 45 63 59 38
       0.00027826463 -2.6736272e-05 -3.0548865e-05 5.1829284e-05
0000e0 bd 1d 45 38 13 df 99 39 37 41 a4 b8 1a 8a cd b7
       4.6996156e-05 0.00029348637 -7.8322766e-05 -2.4502213e-05
0000f0 b1 0c c9 35 51 f9 4d 37 60 8c 31 b8 0f 33 35 b8
       1.4979361e-06 1.2277001e-05 -4.2330823e-05 -4.3201315e-05
000100 d2 f0 ca b6 0d 73 0e b8 4f 35 56 38 a2 15 b7 b8
       -6.0481043e-06 -3.3962588e-05 5.1071223e-05 -8.7301494e-05
000110 21 60 85 b8 3c 45 36 b8 53 06 f5 b8 0c 71 bc 38
       -6.3598396e-05 -4.345666e-05 -0.00011683688 8.985595e-05
000120 30 6d db b9 d6 91 46 38 91 ce 0a b9 34 31 a9 37
       -0.00041852286 4.73427e-05 -0.00013237658 2.0169282e-05
000130 85 ac 96 36 e9 9c 6b 38 82 57 12 b8 78 25 0f 37
       4.4904323e-06 5.61745e-05 -3.489061e-05 8.532188e-06
000140 07 7d ca b8 f0 f5 6f 38 90 05 99 b9 53 51 1d 38
       -9.655399e-05 5.7211088e-05 -0.00029186578 3.7507456e-05
000150 80 ae a3 b8 72 b1 e5 b8 3a 18 c4 38 4f c0 b2 b9
       -7.804949e-05 -0.00010952623 9.350521e-05 -0.00034094087
000160 bf 54 d5 37 15 da fe b8 ef ec 73 38 61 cd 13 39
       2.5431042e-05 -0.00012152285 5.8156376e-05 0.00014095522
000170 c0 99 00 3a 84 cd e2 b8 21 88 c8 b8 44 c8 87 37
       0.0004905723 -0.000108148 -9.562099e-05 1.618651e-05
000180 79 ac 89 38 a4 13 86 39 56 92 25 b8 bf ce 5a b8
       6.5647946e-05 0.00025573105 -3.947535e-05 -5.2167798e-05
000190 ad a6 8e b8 90 32 1f 37 16 95 58 b9 f5 3f 11 38
       -6.8021334e-05 9.488911e-06 -0.00020654904 3.463026e-05
0001a0 c4 a9 01 37 38 41 db b8 29 44 92 38 96 bd a3 b9
       7.728526e-06 -0.00010454882 6.974518e-05 -0.00031231035
0001b0 3b e3 bc 37 d0 f7 83 b8 a9 e7 0c b8 98 63 47 38
       2.2517159e-05 -6.2927254e-05 -3.359435e-05 4.753805e-05
0001c0 07 74 18 b9 8b 8f 2c b8 53 42 6d b8 5f 11 df 37
       -0.00014539073 -4.114168e-05 -5.6566972e-05 2.659176e-05
0001d0 cd 68 64 38 18 ee 9a 39 9f 15 0b b8 f2 84 b5 b7
       5.445704e-05 0.00029550563 -3.316032e-05 -2.1638789e-05
0001e0 b9 e2 0f b7 32 21 43 37 58 bf 01 39 62 40 f8 37
       -8.576252e-06 1.1630635e-05 0.0001237368 2.9593884e-05
0001f0 bf 0b ba 36 7e 70 b0 b8 7e 22 9c 38 9e 53 b6 b9
       5.5445994e-06 -8.413287e-05 7.445084e-05 -0.00034776045
000200 17 22 13 36 66 13 df b8 d6 36 bc b8 59 30 8c 38
       2.192455e-06 -0.00010637082 -8.9747526e-05 6.684726e-05
000210 5e ff 65 b9 be 10 64 33 c9 47 85 b8 b0 65 0d b9
       -0.00021934274 5.3100614e-08 -6.355305e-05 -0.0001348469
000220 08 81 01 39 41 a7 04 ba 9d d3 31 37 aa df 3b b9
       0.00012350467 -0.0005060323 1.0599292e-05 -0.00017917031
000230 d3 2a 60 38 7d a4 b6 38 33 de c7 39 dd 84 d3 b8
       5.3445645e-05 8.7090746e-05 0.0003812179 -0.00010086012
000240 1f bf 6b b8 df a3 e0 37 89 2d 45 38 aa 9f 81 39
       -5.620636e-05 2.677919e-05 4.7010868e-05 0.00024723756
000250 ec ce 52 b7 57 71 03 b8 3b 68 c4 38 5c 93 4e 39
       -1.2565153e-05 -3.133839e-05 9.365423e-05 0.00019700587
000260 d1 cb 19 3a 60 5e 4f b9 ad e1 26 b9 43 0e ca b8
       0.0005866858 -0.00019776216 -0.00015915064 -9.634767e-05
000270 2b a7 4b 38 65 9f 9c b9 81 dd 0a 38 0a 84 27 b8
       4.855466e-05 -0.00029873397 3.3108056e-05 -3.9938874e-05
000280 07 f3 20 38 4a 75 fe 38 95 95 c5 39 63 88 e1 b8
       3.837331e-05 0.000121335106 0.00037686215 -0.0001075424
000290 02 77 c2 b8 20 35 30 38 43 21 9d 38 ad e6 b2 39
       -9.272808e-05 4.2011146e-05 7.492539e-05 0.00034122673
0002a0 ce b3 dc b8 d2 e1 2b b8 96 cb d1 b8 03 1f 35 38
       -0.00010523909 -4.097989e-05 -0.000100038174 4.3182645e-05
0002b0 c7 6b a3 b9 f7 54 47 38 3d 01 47 b8 e0 c1 b6 b8
       -0.00031170083 4.7524427e-05 -4.744645e-05 -8.714548e-05
0002c0 e0 eb 96 38 c5 27 9d b9 1e 9b 04 37 11 c1 c0 b8
       7.1964925e-05 -0.00029975004 7.903929e-06 -9.191235e-05
0002d0 95 21 0f 38 48 be e8 36 c1 eb 8f 39 3e 9a 9f 37
       3.4125133e-05 6.9362904e-06 0.00027450736 1.9026102e-05
0002e0 6c 43 13 37 2b 01 1b 38 1b 5a 9e 38 37 3b be 39
       8.777581e-06 3.6955968e-05 7.5508106e-05 0.00036283743
0002f0 30 7c 13 b8 5e 28 0f b8 c3 b1 0a b9 7b 28 06 39
       -3.516319e-05 -3.413145e-05 -0.00013226927 0.00012794316
000300 69 71 21 ba b8 d3 2c b8 cc 6c 34 b9 27 59 12 b8
       -0.0006158562 -4.1205174e-05 -0.00017206668 -3.4892142e-05
000310 76 d1 e0 b5 d7 0a 95 37 72 3e 2f 38 cc 59 9e 37
       -1.6750262e-06 1.7767232e-05 4.1781408e-05 1.8876883e-05
000320 d9 0a 10 38 f9 a2 18 39 d9 be d0 39 ad d3 d2 b8
       3.4342378e-05 0.00014556562 0.00039815044 -0.00010053008
000330 37 e9 ea b8 7e 98 4a 36 8b 39 02 37 9c ff 42 39
       -0.00011201429 3.0189108e-06 7.762002e-06 0.00018596504
000340 ff e2 44 38 12 14 49 37 31 b5 3b 38 cb 02 2c 39
       4.6941448e-05 1.1985207e-05 4.4753022e-05 0.00016404239
000350 41 80 e7 39 fd 25 18 b9 ae aa e0 b8 33 71 e4 b8
       0.0004415531 -0.00014510001 -0.00010712944 -0.00010892972
000360 9d da d2 38 39 4a d2 b9 08 8a 09 b7 d4 a6 e2 b8
       0.000100543 -0.00040109621 -8.197974e-06 -0.00010807594
000370 3f 9d b0 b8 75 88 93 38 83 26 a0 b9 be 68 6a b6
       -8.421623e-05 7.034923e-05 -0.00030546272 -3.4929685e-06
000380 46 eb b2 b8 b6 88 94 b8 38 cc 08 38 20 97 5e b9
       -8.5315245e-05 -7.082654e-05 3.261512e-05 -0.00021227868
000390 8d 29 b7 37 cf 13 d2 b7 a7 9b 87 37 85 df cd 37
       2.1834649e-05 -2.5043175e-05 1.6165735e-05 2.4541989e-05
0003a0 91 69 3c 39 98 ae 0e b8 21 ec 16 b7 2b e6 4e 38
       0.00017968404 -3.401804e-05 -8.995675e-06 4.9328588e-05
0003b0 75 41 11 39 49 a9 f5 39 87 62 e5 b8 17 b0 cf b8
       0.00013852662 0.0004685617 -0.00010937923 -9.9033285e-05
0003c0 1a 97 d2 37 11 2b b3 37 25 0b 13 38 7b 8c a9 b8
       2.5104313e-05 2.1358517e-05 3.505791e-05 -8.0847145e-05
0003d0 2a 88 55 b7 05 b7 d1 b8 98 22 c0 38 f9 dd d2 b9
       -1.27274925e-05 -9.999987e-05 9.161717e-05 -0.00040219704
0003e0 46 95 f4 b6 e4 fa 06 b9 78 62 c0 38 27 af 49 39
       -7.2891444e-06 -0.000128727 9.173615e-05 0.00019234103
0003f0 60 dc 1f 3a b3 0a 52 b9 98 27 0e b9 6a 61 b5 b6
       0.0006098207 -0.00020031146 -0.00013556925 -5.405561e-06

exp_avg_sq f4 [256, 5]
000000 08 23 2c 33 89 ca 34 33 9d 19 ba 33 ee 4e c1 32
       4.007873e-08 4.209372e-08 8.665959e-08 2.250405e-08
000010 74 59 8d 32 76 92 93 33 d8 bd 6d 33 eb af cf 34
       1.6455239e-08 6.871862e-08 5.5353524e-08 3.8684752e-07
000020 65 f6 51 34 97 03 94 33 db 88 40 33 25 19 31 33
       1.955428e-07 6.89244e-08 4.4827953e-08 4.1233893e-08
000030 99 d7 4e 34 da 1b 3f 34 74 47 a6 33 6d fb 4e 33
       1.9263679e-07 1.7798394e-07 7.7429746e-08 4.8191783e-08
000040 65 d6 36 33 85 10 bf 34 d0 17 9e 34 bd 13 db 33
       4.2570168e-08 3.5588542e-07 2.944712e-07 1.02015726e-07
000050 5d 97 88 2f ae e9 7b 2f 89 09 17 30 c6 2a a1 30
       2.4845806e-10 2.2911337e-10 5.494703e-10 1.1726449e-09
000060 1c 3b d0 30 bd 17 ac 33 19 67 8d 33 81 37 18 35
       1.5150792e-09 8.013692e-08 6.5845775e-08 5.670518e-07
000070 21 6f a0 34 90 b3 d4 33 61 8d e1 33 3a 22 e8 33
       2.988318e-07 9.9046815e-08 1.05030956e-07 1.08095676e-07
000080 53 11 e8 34 11 8c 6b 33 00 f4 8b 33 8d fe a8 33
       4.3225972e-07 5.484259e-08 6.517075e-08 7.869412e-08
000090 00 80 9a 33 1f 2a ad 34 cb e1 85 34 9c 65 a8 33
       7.194467e-08 3.2254408e-07 2.4937466e-07 7.841592e-08
0000a0 94 d0 26 33 55 bc 0c 33 06 c1 6b 34 78 91 af 33
       3.8839588e-08 3.2767577e-08 2.1956302e-07 8.175533e-08
0000b0 a6 18 70 33 96 e2 a0 33 6c e7 9d 33 f0 0f 4d 34
       5.5901772e-08 7.491796e-08 7.3529776e-08 1.9097911e-07
0000c0 9a 1f 7e 34 80 cc 36 33 f4 9f ce 33 07 f2 d2 33
       2.366709e-07 4.256117e-08 9.621718e-08 9.8229116e-08
0000d0 81 81 9c 34 d6 66 c8 33 e7 d9 ec 32 6b 5e 65 33
       2.915149e-07 9.3319315e-08 2.7573106e-08 5.340409e-08
0000e0 01 f0 62 33 f4 53 76 34 12 e0 38 33 c2 91 e2 32
       5.2838008e-08 2.2941077e-07 4.304463e-08 2.6376146e-08
0000f0 6a 7f 58 33 8e f6 56 33 a7 9f 22 33 3b 6d 95 33
       5.04073e-08 5.0049998e-08 3.7863767e-08 6.958222e-08
000100 01 b2 be 32 5b d0 bd 31 f2 ca da 31 eb ad 36 32
       2.2199858e-08 5.5243112e-09 6.3677073e-09 1.0633339e-08
000110 18 78 ad 32 cb 13 5f 32 3b a3 c3 33 08 b0 9c 33
       2.0194463e-08 1.2984809e-08 9.1100866e-08 7.296336e-08
000120 e6 f7 24 35 4c 7b 99 34 4e 34 ee 33 7d 50 de 33
       6.14555e-07 2.858818e-07 1.1092253e-07 1.0352321e-07
000130 d8 bb dd 33 76 d7 6a 33 cb 59 c1 33 12 85 99 33
       1.0325283e-07 5.467833e-08 9.003596e-08 7.148823e-08
000140 42 4d 6c 33 a4 72 4c 33 16 b2 86 34 50 0c 86 33
       5.5018297e-08 4.7601716e-08 2.508902e-07 6.242101e-08
000150 4f 9d 64 33 00 33 23 33 69 aa fc 32 64 c6 5b 34
       5.3228458e-08 3.799778e-08 2.9414155e-08 2.0468138e-07
000160 8e 81 b9 33 07 c2 19 33 39 5d 63 34 04 c0 83 34
       8.6383e-08 3.5799555e-08 2.1174937e-07 2.454036e-07
000170 21 18 9c 35 17 6f 13 34 a9 75 34 34 a8 39 d3 32
       1.1629928e-06 1.3730856e-07 1.6806611e-07 2.4589852e-08
000180 11 2a f0 32 38 f9 12 34 b0 9d 1d 33 2b 43 0b 33
       2.7958807e-08 1.3687975e-07 3.6697827e-08 3.242455e-08
000190 04 dc d8 32 aa e2 d6 32 5c b2 0a 34 4e 0a 1c 33
       2.5245761e-08 2.5015954e-08 1.2917138e-07 3.6330952e-08
0001a0 8a 5d 9d 33 19 19 56 33 79 c3 34 33 0a ad a0 34
       7.327897e-08 4.9848584e-08 4.2087297e-08 2.9928225e-07
0001b0 f2 7d 4c 34 ca 9f 14 34 6c 86 7e 33 a9 9f 7b 33
       1.9044799e-07 1.3841705e-07 5.926124e-08 5.85857e-08
0001c0 65 14 b0 33 85 aa 06 34 91 56 c9 32 86 61 a9 33
       8.1993484e-08 1.2541757e-07 2.3438846e-08 7.887415e-08
0001d0 76 6d a8 33 8b 10 be 34 b7 86 0f 34 0b 89 f8 32
       7.8430205e-08 3.5402294e-07 1.3366922e-07 2.893332e-08
0001e0 a5 73 e8 32 58 90 f5 32 f9 ec 52 33 6f 9a 1d 33
       2.7060944e-08 2.8587394e-08 4.910996e-08 3.6694868e-08
0001f0 84 93 f2 32 aa ce 52 33 b2 12 2f 33 8e 81 9c 34
       2.823959e-08 4.9082395e-08 4.0762366e-08 2.9151528e-07
000200 33 8c 47 34 60 da 6b 33 32 5e 9d 32 04 e4 92 32
       1.8584323e-07 5.4913812e-08 1.832004e-08 1.7100326e-08
000210 79 7a 86 33 87 e3 33 33 74 27 ea 32 f7 95 98 33
       6.262139e-08 4.188362e-08 2.7259127e-08 7.10533e-08
000220 f4 3a 6b 33 a1 41 05 35 38 42 3a 34 50 16 96 33
       5.476882e-08 4.9641864e-07 1.734669e-07 6.988978e-08
000230 68 a8 57 33 db 8d 55 33 f0 98 b2 34 90 eb bd 33
       5.0211753e-08 4.9721944e-08 3.326636e-07 8.843847e-08
000240 bb a5 1d 33 03 dd 1c 33 48 8b 1b 33 de dd 39 34
       3.6705142e-08 3.652259e-08 3.6215425e-08 1.7310182e-07
000250 ee 12 57 33 42 c0 d9 32 99 c3 1b 34 b3 59 38 34
       5.0075805e-08 2.5349554e-08 1.4506658e-07 1.7168968e-07
000260 f5 0d 60 35 da a4 ab 33 cd cd 2d 34 24 1d 60 33
       8.346681e-07 7.992794e-08 1.618675e-07 5.2180567e-08
000270 b6 95 4d 33 00 d1 c7 34 39 b9 93 34 07 35 71 34
       4.7866443e-08 3.7218706e-07 2.751565e-07 2.2464165e-07
000280 28 5e cb 33 e2 1a e8 33 93 01 19 35 17 d8 be 33
       9.470051e-08 1.0808232e-07 5.699923e-07 8.886871e-08
000290 6f 79 a2 33 38 7d b6 33 99 c2 b8 33 52 28 c2 34
       7.5658015e-08 8.4978126e-08 8.603565e-08 3.6164653e-07
0002a0 c8 82 17 34 06 ce 45 33 09 db 52 33 f3 4a 39 33
       1.4110549e-07 4.6055014e-08 4.9093646e-08 4.3141835e-08
0002b0 e1 16 ac 34 13 78 b0 33 59 4e be 33 05 73 19 33
       3.2054143e-07 8.21748e-08 8.861816e-08 3.5727698e-08
0002c0 39 7f 00 33 ac 33 4b 34 8f 89 d4 33 b2 69 19 33
       2.991803e-08 1.8924646e-07 9.897041e-08 3.5719218e-08
0002d0 60 0c dc 33 b6 50 da 33 28 ab 8d 34 a8 81 f0 33
       1.0246799e-07 1.0166097e-07 2.638783e-07 1.1199455e-07
0002e0 fa 4e 2f 33 0f 42 7e 34 fd be 7d 34 8b 15 3a 35
       4.081719e-08 2.3679625e-07 2.3631942e-07 6.932175e-07
0002f0 d7 97 30 34 97 49 6f 33 6b d8 0c 34 de ec fa 33
       1.6446516e-07 5.5713453e-08 1.3117248e-07 1.1684618e-07
000300 2d fc 82 35 ef 9d 30 35 f1 b9 06 34 bc f5 4f 33
       9.759148e-07 6.5794933e-07 1.2547368e-07 4.8419437e-08
000310 cc 87 5d 33 74 56 98 33 dc 18 aa 33 6a 9f 90 33
       5.157908e-08 7.093777e-08 7.920764e-08 6.73452e-08
000320 21 2a d5 33 e8 2d 10 34 bb ef 38 35 82 f2 9f 33
       9.9262486e-08 1.3427746e-07 6.8894195e-07 7.4481264e-08
000330 f1 cf 04 34 af fe 44 33 a5 8e 4c 33 0a 45 c8 33
       1.2369107e-07 4.586644e-08 4.7627186e-08 9.325784e-08
000340 ef 77 83 33 5c 52 9b 33 46 86 d0 33 90 a0 0a 34
       6.121979e-08 7.232731e-08 9.710179e-08 1.2910664e-07
000350 91 52 1f 35 b3 10 92 33 09 06 fe 33 66 e9 98 33
       5.9352266e-07 6.8016924e-08 1.18288945e-07 7.1205065e-08
000360 7b 62 84 33 c9 db 04 35 36 a2 b7 34 2e f5 a0 33
       6.1646425e-08 4.949366e-07 3.420443e-07 7.4951785e-08
000370 e6 8b 13 33 e9 ce f3 32 05 bf 75 34 bf 2d 04 34
       3.435334e-08 2.8383015e-08 2.2886896e-07 1.23101e-07
000380 37 8b 7f 33 a4 27 d6 32 24 2f cb 32 4b 6c f8 33
       5.949843e-08 2.4930905e-08 2.3653747e-08 1.1568098e-07
000390 09 7b b8 33 88 5a 69 33 1c c5 da 32 12 89 e4 32
       8.590548e-08 5.4331878e-08 2.5468175e-08 2.6605026e-08
0003a0 b2 6b 06 34 42 97 a2 33 eb 50 38 33 05 f0 a2 33
       1.2518902e-07 7.5712265e-08 4.2914433e-08 7.587372e-08
0003b0 54 c3 bc 33 70 06 27 35 fc 12 e2 33 a9 80 9f 33
       8.789962e-08 6.2221716e-07 1.0527398e-07 7.4274176e-08
0003c0 b5 49 95 32 65 5d 89 32 1c 92 15 33 aa 3d 94 33
       1.7379401e-08 1.599137e-08 3.482465e-08 6.903004e-08
0003d0 8e f7 6d 33 a5 03 9c 33 1a ba 81 33 ca ab 02 35
       5.5406012e-08 7.264979e-08 6.040882e-08 4.867876e-07
0003e0 64 30 9f 34 c0 5e ad 33 62 36 4f 34 5d 16 7a 34
       2.9651267e-07 8.073175e-08 1.9298162e-07 2.32912e-07
0003f0 f0 9e 9d 35 0c e4 fe 33 31 11 6c 34 46 ea 6d 33
       1.1743668e-06 1.1869278e-07 2.1985467e-07 5.5393933e-08

exp_avg f4 [256, 64]
000000 00 00 00 00 00 00 00 00 00 00 00 00 00 00 00 00
       0.0 0.0 0.0 0.0
000010 00 00 00 00 00 00 00 00 00 00 00 00 00 00 00 00
       0.0 0.0 0.0 0.0
000020 00 00 00 00 00 00 00 00 00 00 00 00 00 00 00 00
       0.0 0.0 0.0 0.0
000030 00 00 00 00 00 00 00 00 00 00 00 00 00 00 00 00
       0.0 0.0 0.0 0.0
000040 00 00 00 00 00 00 00 00 00 00 00 00 00 00 00 00
       0.0 0.0 0.0 0.0
000050 00 00 00 00 00 00 00 00 00 00 00 00 00 00 00 00
       0.0 0.0 0.0 0.0
000060 00 00 00 00 00 00 00 00 00 00 00 00 00 00 00 00
       0.0 0.0 0.0 0.0
000070 00 00 00 00 00 00 00 00 00 00 00 00 00 00 00 00
       0.0 0.0 0.0 0.0
000080 00 00 00 00 00 00 00 00 00 00 00 00 00 00 00 00
       0.0 0.0 0.0 0.0
000090 00 00 00 00 00 00 00 00 00 00 00 00 00 00 00 00
       0.0 0.0 0.0 0.0
0000a0 00 00 00 00 00 00 00 00 00 00 00 00 00 00 00 00
       0.0 0.0 0.0 0.0
0000b0 00 00 00 00 00 00 00 00 00 00 00 00 00 00 00 00
       0.0 0.0 0.0 0.0
0000c0 00 00 00 00 00 00 00 00 00 00 00 00 00 00 00 00
       0.0 0.0 0.0 0.0
0000d0 00 00 00 00 00 00 00 00 00 00 00 00 00 00 00 00
       0.0 0.0 0.0 0.0
0000e0 00 00 00 00 00 00 00 00 00 00 00 00 00 00 00 00
       0.0 0.0 0.0 0.0
0000f0 00 00 00 00 00 00 00 00 00 00 00 00 00 00 00 00
       0.0 0.0 0.0 0.0
000100 00 00 00 00 00 00 00 00 00 00 00 00 00 00 00 00
       0.0 0.0 0.0 0.0
000110 00 00 00 00 00 00 00 00 00 00 00 00 00 00 00 00
       0.0 0.0 0.0 0.0
000120 00 00 00 00 00 00 00 00 00 00 00 00 00 00 00 00
       0.0 0.0 0.0 0.0
000130 00 00 00 00 00 00 00 00 00 00 00 00 00 00 00 00
       0.0 0.0 0.0 0.0
000140 00 00 00 00 00 00 00 00 00 00 00 00 00 00 00 00
       0.0 0.0 0.0 0.0
000150 00 00 00 00 00 00 00 00 00 00 00 00 00 00 00 00
       0.0 0.0 0.0 0.0
000160 00 00 00 00 00 00 00 00 00 00 00 00 00 00 00 00
       0.0 0.0 0.0 0.0
000170 00 00 00 00 00 00 00 00 00 00 00 00 00 00 00 00
       0.0 0.0 0.0 0.0
000180 00 00 00 00 00 00 00 00 00 00 00 00 00 00 00 00
       0.0 0.0 0.0 0.0
000190 00 00 00 00 00 00 00 00 00 00 00 00 00 00 00 00
       0.0 0.0 0.0 0.0
0001a0 00 00 00 00 00 00 00 00 00 00 00 00 00 00 00 00
       0.0 0.0 0.0 0.0
0001b0 00 00 00 00 00 00 00 00 00 00 00 00 00 00 00 00
       0.0 0.0 0.0 0.0
0001c0 00 00 00 00 00 00 00 00 00 00 00 00 00 00 00 00
       0.0 0.0 0.0 0.0
0001d0 00 00 00 00 00 00 00 00 00 00 00 00 00 00 00 00
       0.0 0.0 0.0 0.0
0001e0 00 00 00 00 00 00 00 00 00 00 00 00 00 00 00 00
       0.0 0.0 0.0 0.0
0001f0 00 00 00 00 00 00 00 00 00 00 00 00 00 00 00 00
       0.0 0.0 0.0 0.0
000200 00 00 00 00 00 00 00 00 00 00 00 00 00 00 00 00
       0.0 0.0 0.0 0.0
000210 00 00 00 00 00 00 00 00 00 00 00 00 00 00 00 00
       0.0 0.0 0.0 0.0
000220 00 00 00 00 00 00 00 00 00 00 00 00 00 00 00 00
       0.0 0.0 0.0 0.0
000230 00 00 00 00 00 00 00 00 00 00 00 00 00 00 00 00
       0.0 0.0 0.0 0.0
000240 00 00 00 00 00 00 00 00 00 00 00 00 00 00 00 00
       0.0 0.0 0.0 0.0
000250 00 00 00 00 00 00 00 00 00 00 00 00 00 00 00 00
       0.0 0.0 0.0 0.0
000260 00 00 00 00 00 00 00 00 00 00 00 00 00 00 00 00
       0.0 0.0 0.0 0.0
000270 00 00 00 00 00 00 00 00 00 00 00 00 00 00 00 00
       0.0 0.0 0.0 0.0
000280 00 00 00 00 00 00 00 00 00 00 00 00 00 00 00 00
       0.0 0.0 0.0 0.0
000290 00 00 00 00 00 00 00 00 00 00 00 00 00 00 00 00
       0.0 0.0 0.0 0.0
0002a0 00 00 00 00 00 00 00 00 00 00 00 00 00 00 00 00
       0.0 0.0 0.0 0.0
0002b0 00 00 00 00 00 00 00 00 00 00 00 00 00 00 00 00
       0.0 0.0 0.0 0.0
0002c0 00 00 00 00 00 00 00 00 00 00 00 00 00 00 00 00
       0.0 0.0 0.0 0.0
0002d0 00 00 00 00 00 00 00 00 00 00 00 00 00 00 00 00
       0.0 0.0 0.0 0.0
0002e0 00 00 00 00 00 00 00 00 00 00 00 00 00 00 00 00
       0.0 0.0 0.0 0.0
0002f0 00 00 00 00 00 00 00 00 00 00 00 00 00 00 00 00
       0.0 0.0 0.0 0.0
000300 00 00 00 00 00 00 00 00 00 00 00 00 00 00 00 00
       0.0 0.0 0.0 0.0
000310 00 00 00 00 00 00 00 00 00 00 00 00 00 00 00 00
       0.0 0.0 0.0 0.0
000320 00 00 00 00 00 00 00 00 00 00 00 00 00 00 00 00
       0.0 0.0 0.0 0.0
000330 00 00 00 00 00 00 00 00 00 00 00 00 00 00 00 00
       0.0 0.0 0.0 0.0
000340 00 00 00 00 00 00 00 00 00 00 00 00 00 00 00 00
       0.0 0.0 0.0 0.0
000350 00 00 00 00 00 00 00 00 00 00 00 00 00 00 00 00
       0.0 0.0 0.0 0.0
000360 00 00 00 00 00 00 00 00 00 00 00 00 00 00 00 00
       0.0 0.0 0.0 0.0
000370 00 00 00 00 00 00 00 00 00 00 00 00 00 00 00 00
       0.0 0.0 0.0 0.0
000380 00 00 00 00 00 00 00 00 00 00 00 00 00 00 00 00
       0.0 0.0 0.0 0.0
000390 00 00 00 00 00 00 00 00 00 00 00 00 00 00 00 00
       0.0 0.0 0.0 0.0
0003a0 00 00 00 00 00 00 00 00 00 00 00 00 00 00 00 00
       0.0 0.0 0.0 0.0
0003b0 00 00 00 00 00 00 00 00 00 00 00 00 00 00 00 00
       0.0 0.0 0.0 0.0
0003c0 00 00 00 00 00 00 00 00 00 00 00 00 00 00 00 00
       0.0 0.0 0.0 0.0
0003d0 00 00 00 00 00 00 00 00 00 00 00 00 00 00 00 00
       0.0 0.0 0.0 0.0
0003e0 00 00 00 00 00 00 00 00 00 00 00 00 00 00 00 00
       0.0 0.0 0.0 0.0
0003f0 00 00 00 00 00 00 00 00 00 00 00 00 00 00 00 00
       0.0 0.0 0.0 0.0
