lightning_logs/version_45/checkpoints/epoch=9-step=810.ckpt (torch, 227860 bytes, 15 tensors)

lstm.weight_ih_l0 f4 [256, 5]
00000000: 56b9 a8be dc4b 803e a3ea e03d 5826 b23e
00000010: 5760 d0be 4da4 a5be 252e 1a3e 9a28 343e
00000020: 9602 9f3e 00ad a8bd 14fb 89bd f862 09bb
00000030: 0ad9 033e 698a 363d 8a8d ae3e c426 a4be
00000040: 126e 3d3e 4726 11bf eebd 62be 54ab 423e
00000050: fa9a 9dbe 25b8 663e 2f91 be3e f629 7b3e
00000060: 0a98 d5be f8c3 f53d 6cff d03c cbc4 3f3e
00000070: c77b 523e eb10 dabe 1ffa 9ebe af73 983e
00000080: e035 003f b3d5 8e3e fd3d 073e df40 a0be
00000090: 536d b63e 2ae3 02be afa0 afbd cc45 37be
000000a0: 620a 87be 0388 903e e69a 02be f9e8 a83d
000000b0: bd69 c7be bd40 5dbe 6da5 c43d b999 933e
000000c0: 4046 7a3e cd90 0fbe 3f7c ad3d 1ac7 30be
000000d0: 720c e33e a4d8 e83e cbfe a1be 5747 61be
000000e0: fd49 383e d53d d33e 12d2 ba3e bc72 c9bd
000000f0: 635f 183e bef5 28be 0f12 a63e caff bb3e
00000100: c68c c1be e3a4 a3bd d3d2 c83d b17a 99be
00000110: 9fe9 85be 1f02 b33d dc17 f8bd d7f9 ac3d
00000120: 1ee7 cdbd a8f8 c53d 3825 0dbe 0ed4 40be
00000130: 4e0c 443e b5ba 053e 9033 823e 3fb3 cfbe
00000140: 241e a7be 9bbc 113e 59d0 10bf 721d a6be
00000150: f9ba 533e 53ee 1a3e 4d78 0ebe 3e8a a73e
00000160: 1ef9 653e 648f bcbe ed25 89be 665b 5f3e
00000170: 91f9 f4be 879f 88be eb1e 25bc d48d 8dbe
00000180: b695 1b3e b1c2 09bf 3396 7c3b 151b 9ebe
00000190: 472e 4fbe c37c 953e dbac 903e 3ca4 fa3d
000001a0: 957b a8be 5573 d1bd adb9 ac3d a712 803e
000001b0: 223d f83c 42f1 0f3e 1636 043e 7560 33be
000001c0: c279 6e3e 10a3 533e 06be e6be d907 9dbe
000001d0: 2629 533e 9abc 98bc 3647 9b3e 1d90 bfbe
000001e0: 0218 d0bc cb58 4c3e 23ee 1b3f baee 883e
000001f0: 85df 86be 31df 9fbe e723 d53e c36d 2e3e
00000200: 2c1a 663e 8083 a53e 8e6f 71bd 899c 18be
00000210: 7b8d 13bf 3684 53be 4248 253e a3b5 853e
00000220: 4e34 23be b5a5 343f 7058 9c3e d59e 39be
00000230: 5e66 f2bc ef14 11be 6581 313e 5388 df3e
00000240: e3d9 f8be 9d6c a6be 3bb2 c03e bd4a 8d3e
00000250: e921 7f3e 03b1 b4bb 626e b3be 4050 993e
00000260: 7bd7 8b3d c407 5f3e 0e3d adbe abb3 a23e
00000270: 9e2c a3be 26f1 c63e 934d 9a3e 591a 4ebe
00000280: b50b 22bd b16e 5c3d 3672 f53e 2a97 923e
00000290: 309f d4be 4921 adbe 00ff 843e 7876 803e
000002a0: e8c4 af3d 1cf5 0f3e 2a97 44be 6474 9d3e
000002b0: 5f67 193d 328d 58bc eb24 223e ff03 3ebe
000002c0: 8603 a33e b724 51be d91d 0ebe 841b 88be
000002d0: 34e3 c3bd 41d3 243e 5691 eabd 0962 963e
000002e0: 8ece 6ebe 0d5e 7d3e eb62 66be ba0d ea3e
000002f0: 5ed2 233e a464 20be 437c c9be fe11 c13e
00000300: 57a9 24bf 5a3d 26be a583 ba3c 39a5 80be
00000310: a344 f63e 8864 31bd dcdf 98bd 428e c2be
00000320: 2888 a7be 78c3 0e3e a040 15bf 768a 1cbe
00000330: f92c a0be 2cbd c0be b111 ee3e 59ba a0bd
00000340: 9656 09be 93fe fabc c1a3 94be 0fb1 293e
00000350: 3640 9cbe 687d e63c 0571 d6be e4c5 8cbd
00000360: fac1 8f3e c87b b73e f78b a13e e0f8 d7be
00000370: 1062 fc3d f262 76be 91bf 023f 29d5 2e3e
00000380: 40f1 91be 3971 39be 4cd6 723e 15c8 d73e
00000390: 4b5e 8f3e 4924 c0be d083 26be aaef 083e
000003a0: f915 d7ba e686 563e 6f3e 85bd 4086 cfbe
000003b0: 2cfb e83e c3c5 ba3c 2968 993d 1458 dabe
000003c0: f16c a93d d72d e23c 9f5f da3e db8d 563e
000003d0: 0ee0 44be 8490 c1bd a76d 8b3e 2d28 1e3f
000003e0: 656f 843e 754f 043e b591 abbe 82d7 ca3e
000003f0: 9d3a 7a3d af29 0abd bdf5 28be 1a3f 80be
-0.329539 0.25057876 0.109822534 0.3479488 -0.406985 -0.32351914 0.15056665 0.17593613
0.3105666 -0.08236122 -0.067373425 -0.002096353 0.12875763 0.044565592 0.3409236 -0.32060826
0.1849902 -0.5669903 -0.22142765 0.19010669 -0.307823 0.22531183 0.3722014 0.24527726
-0.4171756 0.12000269 0.02551242 0.18727414 0.2055503 -0.42591032 -0.31050202 0.2977576
0.50082207 0.27897415 0.1320724 -0.31299493 0.35630283 -0.12781969 -0.0857557 -0.17897719
-0.2637511 0.2822877 -0.12754402 0.08247561 -0.3894786 -0.21606727 0.09601865 0.2882822
0.24440861 -0.14020081 0.08470964 -0.17263451 0.44345433 0.45477784 -0.31639704 -0.2199987
0.17996974 0.41258112 0.36488396 -0.09836337 0.14880137 -0.16499993 0.32435653 0.3671859
-0.37802714 -0.07990434 0.098058365 -0.2997642 -0.261548 0.08740639 -0.12113926 0.08446091
-0.10053848 0.09666568 -0.13783729 -0.18830892 0.19145319 0.13059504 0.25429964 -0.4056644
-0.32640183 0.14232104 -0.56567913 -0.3244434 0.20676793 0.15129976 -0.13913079 0.32722658
0.22458312 -0.36828148 -0.26786748 0.2181221 -0.47846654 -0.2668421 -0.010078172 -0.2764727
0.15193829 -0.538127 0.0038541674 -0.30880037 -0.20232497 0.29196748 0.28256878 0.122383565
-0.32906786 -0.10227076 0.08433852 0.2501423 0.030302588 0.14056876 0.12911257 -0.17517264
0.23288634 0.20667672 -0.4506685 -0.3067005 0.20621166 -0.01864462 0.30327767 -0.37414637
-0.025402073 0.19955747 0.6091024 0.26744634 -0.26342407 -0.3122497 0.41628954 0.17034058
0.22470921 0.3232689 -0.058944277 -0.14903463 -0.5763776 -0.20655903 0.16140845 0.2611514
-0.15937921 0.7056535 0.30536222 -0.18126996 -0.029589828 -0.14168142 0.17334516 0.43658695
-0.48603734 -0.3250474 0.3763598 0.27596083 0.2491528 -0.0055142655 -0.35045153 0.29944038
0.06828209 0.21780306 -0.33835644 0.317777 -0.31869978 0.38855857 0.3013731 -0.20127238
-0.039561946 0.0538165 0.479387 0.28630954 -0.415277 -0.33814457 0.259758 0.25090384
0.08582479 0.14058346 -0.1919829 0.30752861 0.037452098 -0.013217257 0.15834396 -0.18556212
0.31838626 -0.20424162 -0.13878573 -0.26583493 -0.0956482 0.16096212 -0.11453502 0.2937167
-0.23320982 0.24742909 -0.22498672 0.45713598 0.15998217 -0.15663391 -0.39352617 0.3770904
-0.6432089 -0.16234341 0.022767851 -0.25126055 0.4809924 -0.043308765 -0.07464573 -0.3799916
-0.32721066 0.13941753 -0.58301735 -0.15287194 -0.3128431 -0.37644327 0.46497872 -0.07848043
-0.13411936 -0.030638969 -0.29031184 0.16571449 -0.3051774 0.02813597 -0.41883102 -0.06873682
0.2807768 0.35836625 0.31552097 -0.42182064 0.123233914 -0.24061182 0.5107356 0.17073502
-0.28504372 -0.18109597 0.2371456 0.42144838 0.28001627 -0.37527683 -0.1626122 0.13372675
-0.0016409747 0.20949897 -0.06506049 -0.40532112 0.4550413 0.022799378 0.0749057 -0.42645323
0.08272732 0.027609749 0.42651078 0.20952551 -0.19226095 -0.09451392 0.27232096 0.61780053
0.25866237 0.12920935 -0.33509603 0.39617544 0.061091054 -0.03373116 -0.16499992 -0.25048143

lstm.weight_hh_l0 f4 [256, 64]
00000000: ce63 e73d 7606 873d a49a a9bd c041 33bb
00000010: a87f 5cbd 4887 e53d 502d 17bd f293 fbbd
00000020: c09d ce3c 5c23 543d 5840 d5bd 6027 a43c
00000030: 065e d5bd 10a4 d13c bac4 fdbd c298 e9bd
00000040: 4ce9 b6bd 2881 1ebd 742c 043d a85e ddbd
00000050: 32f3 f3bd 846f b9bd 10f3 eebc 0c1b d9bd
00000060: e896 803c 9427 b3bd 1ae6 f6bd 1856 9a3d
00000070: f02e fabc e88c c53c 1888 ba3d 0659 973d
00000080: 26e3 a33d 38cb 9c3d 5829 b53c 906c b23c
00000090: 90d3 a8bc e4dc cd3d 8481 563d 180a 993d
000000a0: 4ee8 b5bd 1af2 b93d e036 93bd 8262 b1bd
000000b0: 94e3 913d 5e77 eb3d 5eaa e53d 6632 8fbd
000000c0: fa25 a0bd 86f7 e1bd c405 783d 60a9 243c
000000d0: 9093 a0bd a080 053c 5830 12bd 6c78 213d
000000e0: dce3 7dbd d0c5 c03d 0097 71ba 08b7 fabd
000000f0: 7877 cd3c d81d ac3d 9814 b7bc 1c4c 613d
00000100: 74fe ae3d 9674 fc3d 505e d1bd 382b 89bc
00000110: d004 763c 70cf fc3d 9c5c 263d a003 f93c
00000120: f893 c83c 0065 e23b f43e e13d b284 97bd
00000130: e41e 20bd 2864 b7bd 90ba 34bc 240b 96bd
00000140: 60c0 093d 283c c53d b0db 71bd c054 6e3b
00000150: 00b4 b73b 2a54 ebbd 20f8 8ebd 96aa 9cbd
00000160: 8012 37bb 78bb 1fbd 9085 68bd 243b 63bd
00000170: 2cbb 31bd 4814 6a3d 725c d9bd f86b d23c
00000180: b40f fb3d d686 92bd 5018 39bc f42b 083d
00000190: dca6 8ebd 788e c8bc ac1d 463d c837 67bd
000001a0: 6078 d63d 94d3 74bd fc36 9f3d f068 033c
000001b0: f2c7 873d 8895 933d 2e4a a1bd e896 ed3d
000001c0: 4c45 9cbd 563d c43d 30b6 2ebc 8011 823b
000001d0: 3278 983d 1023 5b3d d0d7 fcbd 800d 9ebd
000001e0: 0ab6 e6bd c879 adbd 8a80 bb3d 9887 4cbd
000001f0: 9c42 473d a84e b73d 9ce9 e4bd 8c94 de3d
00000200: 12dd 923d 0cbc 8c3d d489 19bd 4464 d5bd
00000210: 183d 2c3d 3ae8 9dbd 52bb dbbd b4f3 21bd
00000220: 2c3b 29bd 48b1 193d 7c46 75bd 9c1a b7bd
00000230: 4020 143b f03d d13c e8ae 773d b88a babd
00000240: 60ca 4a3c 9c03 323d a826 1c3d a038 7fbd
00000250: c63a c63d f063 4bbd e402 543d 740a 7fbd
00000260: 18fb 82bc d2e1 d13d c095 35bd 9088 0dbc
00000270: 3077 aabd 9002 063c 60cf c3bb 20e7 83bb
00000280: 4ebf f73d 782d eabc 38a8 f5bc a238 dbbd
00000290: 12ed 953d 7449 60bd 8882 963c c8a0 febc
000002a0: a8a3 9d3d 708c 293d 8cf4 3a3d e8f5 953c
000002b0: 1069 093d c0a2 e2bd 04ab 873d 0629 b53d
000002c0: b846 cdbc 7ae1 c4bd a0d5 cb3b bc69 65bd
000002d0: 12c8 cebd a66d 9abd 8cbb 28bd ec67 19bd
000002e0: 72c9 f6bd 805f 6fbd 0c53 33bd 5ead 89bd
000002f0: 886b 9abd 0cbb 42bd 6c2e 25bd c6bd f6bd
00000300: c647 85bd 6045 87bc 60d9 9f3b ecfc 9b3d
00000310: eac7 dcbd e852 5fbd b0ed a63c 1070 debc
00000320: 2644 c73d 0aa4 a5bd 347d 7abd 30ec 443d
00000330: 94a0 dc3d cee7 fdbd 7e26 e4bd 3cf2 c6bd
00000340: 3c94 edbd ca82 9f3d 88e5 113d c02e fc3b
00000350: c819 cdbd c6b8 97bd 1694 cfbd 5062 863c
00000360: e086 aabc e620 803d a833 203d 804b f6bd
00000370: 9092 23bd 40cd 53bb f0b4 093d 00c5 833b
00000380: e6d6 c63d aefe 8e3d e44d ba3d b86c 6f3d
00000390: cca5 4dbd fccc 3d3d 4cf7 4e3d 50f7 5b3c
000003a0: 08ab 7a3d 309f 7abc 644d a13d b868 b5bd
000003b0: 48cc 14bd 2421 5b3d 909f 9a3d 2017 ecbc
000003c0: 48b9 ff3d 7607 9dbd 2e5b d3bd 00a7 a0ba
000003d0: 80e6 103b 4007 0cbd 28c4 ecbc 3ce9 d13d
000003e0: 0044 ef3d a008 29bc fccf 5abd c4e3 aa3d
000003f0: e848 1e3d 1c99 8cbd 606b ef3d 2a07 ec3d
0.11298333 0.06593029 -0.082814485 -0.0027352422 -0.05383268 0.112074435 -0.036908448 -0.12284078
0.025221705 0.051791534 -0.10412663 0.020038307 -0.10418324 0.025590926 -0.12391038 -0.11406089
-0.089312166 -0.03869739 0.032268956 -0.1080907 -0.1191162 -0.09054473 -0.029168636 -0.10600862
0.015696958 -0.08747783 -0.12055607 0.07535952 -0.03053996 0.02411504 0.09107989 0.07390027
0.080023095 0.076559484 0.02211444 0.021780282 -0.020608693 0.10051897 0.05236961 0.07472628
-0.08882199 0.0907938 -0.07188201 -0.08661367 0.07123485 0.11497377 0.112141356 -0.069920346
-0.078197435 -0.110335395 0.060552374 0.010050148 -0.07840645 0.008148342 -0.035690635 0.039421484
-0.06198488 0.0941273 -0.0009215921 -0.12241942 0.025081381 0.0840413 -0.022348687 0.055004224
0.08544627 0.123269245 -0.10223067 -0.016744241 0.015015796 0.12344253 0.040615663 0.030397236
0.02448462 0.006909013 0.109983355 -0.073983565 -0.03909196 -0.0895465 -0.011030808 -0.07326344
0.03363073 0.096306145 -0.0590474 0.0036366433 0.0056061745 -0.114906624 -0.0698092 -0.07649724
-0.002793461 -0.038997144 -0.056768 -0.055476323 -0.04339139 0.057148248 -0.10613336 0.02568625
0.122588545 -0.07154624 -0.0112973 0.033245042 -0.0696542 -0.024481997 0.04836814 -0.05644968
0.104721785 -0.05977209 0.07774159 0.0080206245 0.066299334 0.07206255 -0.07875477 0.11601049
-0.07630405 0.095820114 -0.010663554 0.0039693713 0.074448004 0.053500235 -0.123458505 -0.07717419
-0.1126519 -0.084704936 0.09155376 -0.049934 0.048647508 0.08950549 -0.1117737 0.10868177
0.07171072 0.068718046 -0.03748496 -0.10419515 0.04205045 -0.07710309 -0.10729088 -0.039539054
-0.041316196 0.037522584 -0.059881672 -0.08940622 0.002260223 0.02554223 0.060469538 -0.0910849
0.0123773515 0.043460473 0.038122803 -0.06230986 0.09679179 -0.049655855 0.05176057 -0.06226583
-0.015988871 0.1024815 -0.044332266 -0.008638516 -0.083235145 0.008179322 -0.0059756488 -0.004025355
0.12097035 -0.028586134 -0.02998744 -0.10704161 0.07320608 -0.05475755 0.018372789 -0.031082526
0.076972306 0.041393697 0.045643374 0.018305734 0.03354746 -0.11066198 0.066244155 0.08845715
-0.025058135 -0.09613319 0.0062205344 -0.05600904 -0.10096754 -0.07540445 -0.041194484 -0.037452623
-0.120501414 -0.058440685 -0.04378037 -0.0672252 -0.07540041 -0.047541663 -0.040327474 -0.12047915
-0.0650783 -0.016512573 0.004878208 0.076166004 -0.10780318 -0.054522425 0.02037701 -0.027153045
0.09729795 -0.080879286 -0.06115456 0.04807681 0.10772815 -0.12397729 -0.11140154 -0.09714171
-0.11600539 0.07788618 0.03561929 0.0076960027 -0.10014683 -0.074082896 -0.10135667 0.0164043
-0.020816267 0.06256275 0.039111763 -0.12026119 -0.039934695 -0.0032318383 0.03361982 0.004021287
0.097089574 0.0698217 0.09096888 0.05845329 -0.050206944 0.046338066 0.05052881 0.013425663
0.061198264 -0.015296742 0.07876089 -0.08857864 -0.03632763 0.053498402 0.075499654 -0.02881962
0.124865115 -0.07667439 -0.103201255 -0.0012256801 0.0022110045 -0.0341866 -0.028902128 0.10249564
0.11682892 -0.010316998 -0.053421006 0.08344224 0.038643748 -0.06865141 0.11690402 0.11524804

lstm.bias_ih_l0 f4 [256]
00000000: a7ba 003e b64c 9c3e 0162 b03d b626 383e
00000010: 43c6 653e 7819 6e3d 6fc2 893e 3c89 163e
00000020: 009a 823e 4f09 973e ce83 833d 03e8 8f3e
00000030: ae61 1c3e ed2d 09be f952 5e3d b073 8d3e
00000040: 6f03 6c3e 2aa0 b03e e676 fa3d e31a 753e
00000050: 3c33 8b3e 8f08 1a3e f93e 8a3e 55a4 a23e
00000060: 1794 8e3e 7b29 363e b729 2f3e 44db fe3d
00000070: ab3c 063e 02fd b13e 588f aa3e 41ad 0c3e
00000080: ed63 773e 4999 943e 8698 05bd 45af 393e
00000090: 5693 113e 636d 933e c0dc 7b3e f64c 813e
000000a0: 063c 653e 555e f23d fe4a b53e 7556 a43e
000000b0: e231 ef3d 8c84 6e3e 635d 1ebc 0a08 7b3e
000000c0: 60c2 543e 0ec8 8b3e 0f05 493d 0d28 883e
000000d0: 8c96 873e 3211 c93d c1e0 8c3e 82a4 073f
000000e0: f8b6 3f3e 451f 843e 8e0f 073e 2ef8 823e
000000f0: eff4 923e 67af e43e 1f55 a93e 3243 463e
00000100: 16c1 ce3d 403e 533b c6e8 92bd a804 b5bd
00000110: 0674 d5bd 1cd8 dfbd 08d6 223d dcca 7f3d
00000120: 8660 af3d 4041 43bd 3675 95bd 30a2 04bd
00000130: f88c abbc 6c77 943d ae5e b0bd 9c0b 34bd
00000140: 5091 94bc 0c8e 623d 32fa 8fbd d0e8 60bd
00000150: 1a95 e0bd 8c67 823d 56a1 8fbd b8b4 7fbd
00000160: 14ae 493d 5812 9dbc fa0a 803d 40a8 cabb
00000170: 84c2 363d 1c39 7abd 9034 25bc 1457 0b3d
00000180: 9469 5abd 9cce e4bd e077 583d 98a0 cfbc
00000190: 36ee ec3d 404c 14bb 4e42 d5bd d064 4c3c
000001a0: e82b fbbd 88e1 cfbc 2663 bbbd 18a8 183d
000001b0: 52be babd 2ef7 a23d f8dd be3c 2eef b5bd
000001c0: 0096 ceba 687e b2bc 5ab8 9f3d 1c83 d8bd
000001d0: bc30 da3d 202e ce3b 94fa 47bd 6646 c53d
000001e0: 5093 953c 30d7 db3d 70ab df3c 446d 683d
000001f0: 00d0 e8b9 54b4 7a3d 7c90 6ebd 00b8 143a
00000200: 0f1f 5e3e 25d8 6ebe 6f53 3f3d bdb8 1fbd
00000210: 3f73 783e 4272 2abd f01a 6e3e 3537 08be
00000220: b66f 4cbe 8f7f 4d3e 736c 063e 9c7c 663e
00000230: 797c 863d 8d88 a83b 02b7 53be a6cf 7d3c
00000240: 281b ac3c 831f 713e c6c0 babd ddbb 733c
00000250: fbab 853e 80b1 f93c 447d 9b3c 3d53 c5bd
00000260: 2e86 55be 179a 3e3e 30fe 2a3d 3108 ecbd
00000270: 521b c03d 73dc a6bd e868 8f3d 3ebe b93c
00000280: 48b0 393e f442 5c3e f120 0a3d 432a 553e
00000290: aab4 11be 655c 1b3d ecd2 3abe 7b7c 663e
000002a0: 4ff2 4ebe 8572 10be 3fc1 adbd 9b6d 48be
000002b0: 59e4 103c 1c35 733e 38e0 56bc de0c 8a3e
000002c0: c13b f23d d1da 61bd 1b52 2ebe 3357 fdbc
000002d0: 2ce4 a63c 7c76 de3d eb6b 0cbd fca7 88be
000002e0: 31ba 79bc 70b2 31bd 32a1 413c 6bee 48be
000002f0: f06f 3bbe 283c 80bd 9448 e3bd bfb3 efbb
00000300: 1568 633e 42e5 933e c68c 1f3e 8570 2b3e
00000310: 86f3 aa3e b834 c23d 7125 963e 3c1f 643e
00000320: 81cf c03e fcff a73e 1575 6b3e ac1f ff3d
00000330: 4c48 bc3d f75b 033d 8bf2 213e 414d a83e
00000340: d54b 103e 351f ab3e 0bd4 483e 02e5 b23e
00000350: f40c d93e 4460 d53d d65b 7f3e 6c79 7a3e
00000360: 838b d43e eba1 c03e 8050 173d f4eb 233e
00000370: 64dc 923e d187 993e 5702 673e 3bbf 583e
00000380: 1e80 723e 148a 733e 1f4a bf3d 1f52 773e
00000390: 4391 7c3e 2394 613e fa1c b83e d774 a03e
000003a0: 8bf3 8d3e 5fce 0b3e c139 983e 174e a13e
000003b0: 01c9 c33d 4ee9 5f3e d785 423d de87 803e
000003c0: 1d9b 573e b740 813e 0647 f73d 0b3e 2a3e
000003d0: 4295 c83d 8206 0c3e 99fd 493e 6994 043f
000003e0: 38f0 883e fd2f 9f3e 35bc a13d 2fb8 6b3e
000003f0: c20c 893e c335 ab3e 4f27 203e 0733 253d
0.12571202 0.30527276 0.08612443 0.17983517 0.22438912 0.058129758 0.26906154 0.14700788
0.25508118 0.2949929 0.06421624 0.28106698 0.15271637 -0.13396426 0.054278348 0.27627325
0.23048185 0.34497195 0.12229709 0.23936038 0.27187526 0.15042327 0.2700117 0.31766
0.2784736 0.17789261 0.17105757 0.12444165 0.1310908 0.34763342 0.33312488 0.13737966
0.24159212 0.29023197 -0.03261616 0.18133266 0.1421636 0.28794393 0.24595928 0.2525403
0.22386178 0.11834399 0.35408777 0.3209721 0.11679436 0.2329275 -0.00966582 0.24514785
0.20777273 0.27301067 0.04907709 0.26593056 0.26482046 0.09817733 0.27515224 0.52985394
0.18722141 0.25805107 0.13189527 0.2557997 0.28702495 0.4466507 0.33072755 0.1936157
0.10095422 0.0032233149 -0.07173304 -0.08838779 -0.1042252 -0.109298915 0.039754897 0.06244932
0.08563332 -0.04766965 -0.07297747 -0.032381237 -0.020941243 0.072493404 -0.08611809 -0.043956384
-0.018135697 0.055311248 -0.07030143 -0.054909527 -0.10965939 0.06367406 -0.07013194 -0.062428206
0.04923828 -0.019173786 0.062520936 -0.0061846077 0.0446191 -0.06108962 -0.010083333 0.03401859
-0.053323343 -0.1117222 0.052848697 -0.025345132 0.11568873 -0.0022628456 -0.10413037 0.012475207
-0.12264234 -0.025376096 -0.091497704 0.03726968 -0.09118332 0.07957302 0.023299202 -0.088835105
-0.0015761256 -0.02178879 0.07798834 -0.10571882 0.106538266 0.0062921196 -0.048822954 0.09632568
0.01825872 0.10734403 0.027303427 0.05674483 -0.0004440546 0.06120713 -0.05824326 0.000567317
0.21691535 -0.2332464 0.046710428 -0.03899454 0.24262713 -0.04161287 0.23252463 -0.1330231
-0.1996449 0.20068191 0.13127308 0.22508472 0.0656671 0.0051432312 -0.2067528 0.015491402
0.021009043 0.23547177 -0.091188 0.014876333 0.26107773 0.030480146 0.01898063 -0.09635017
-0.20851967 0.18613468 0.04174632 -0.11525 0.09380211 -0.08147516 0.07002431 0.022673722
0.18133652 0.21509916 0.03372282 0.20816903 -0.14229074 0.03792991 -0.18244523 0.22508423
-0.20209621 -0.14106186 -0.084841244 -0.19573061 0.008843505 0.23750728 -0.013114981 0.26962942
0.118278034 -0.05514032 -0.17023508 -0.030925369 0.020372473 0.10862443 -0.034282606 -0.26690662
-0.015242145 -0.043383062 0.011818217 -0.19622199 -0.1830442 -0.06261474 -0.110978276 -0.0073151286
0.22207673 0.28885847 0.15581045 0.16742142 0.3338892 0.094827116 0.2932544 0.2227754
0.37658313 0.32812488 0.22993882 0.12457213 0.09193477 0.032070126 0.15815179 0.3287144
0.14091428 0.33422247 0.19612138 0.34940344 0.42392695 0.10418752 0.24937376 0.24460381
0.4151269 0.37623534 0.036942005 0.16007978 0.2868377 0.29986432 0.22559486 0.21166699
0.23681685 0.23783141 0.09340309 0.2415242 0.24664788 0.22029166 0.35959607 0.31339142
0.2772487 0.13652943 0.29731563 0.3150489 0.09559823 0.21866342 0.04749092 0.25103658
0.21055265 0.25244686 0.120740935 0.1662523 0.09794094 0.13674358 0.19725646 0.51788956
0.26745772 0.310913 0.07897226 0.23019479 0.26767546 0.33439454 0.15639995 0.040331867

lstm.bias_hh_l0 f4 [256]
00000000: bb7c c03d 2717 bd3e 1a42 b13d fcdc 993e
00000010: 2500 c23e 436b 883d dfe9 7d3e 98de 153e
00000020: ef69 de3e 8046 bc3e 5964 1d3e df1b a13e
00000030: e299 313e 1530 89bd cd5c 863c 47a5 9e3e
00000040: f7a4 d83c e94f 643e 1935 4f3e 52b2 bb3e
00000050: 038e 643e 977d 4f3d 916a 893e e101 a23e
00000060: 8119 9d3e 86b0 8b3e 12d9 8f3d 5aa2 073e
00000070: 6c05 3d3d a9bd 473e 8983 9b3e 8c4a 453e
00000080: 0dc1 483e b0d0 2b3e 60fe 623d b1a1 353e
00000090: 00fe 223e e3f7 073e a83e 853e e77c 443e
000000a0: e328 9f3e 8c82 473e 90ca 973e e974 143e
000000b0: 4845 d93d fab5 b83e 619f 46bd d1ba f93d
000000c0: 59c5 8b3e 73ba 0e3e 5bf8 0d3d f878 7e3e
000000d0: 483e 783e 66d1 6e3e 6ede c13e 5940 a13e
000000e0: 5801 903e 3340 943e 8a62 163e 785e 283e
000000f0: 3853 2e3e c29a b13e 5162 ad3e 7db8 0d3e
00000100: 2c17 fabd 908c 16bc 00ab 063a ec52 00bd
00000110: a8bd b1bc 043b 953d 1e6d ca3d a049 de3c
00000120: 8efc 843d b41a 44bd 84e6 b4bd c4e8 4abd
00000130: f87a bd3c 5012 41bc 40a2 0d3d 88be ff3d
00000140: 5c8f 09bd ae17 973d a04f e8bd 888a 7c3d
00000150: 082b aebc b8c1 66bd 26af cdbd d800 943c
00000160: d0aa cbbd 70e2 40bd 72b0 9dbd f871 8c3d
00000170: 3023 993c 689f a93d 002c f8bc 8ce5 1e3d
00000180: 60ea 813d f09f 983c ee1f bb3d 4695 e93d
00000190: 4479 adbd b8a1 3e3d f032 48bd 848c 963d
000001a0: 1a09 a5bd d820 843d 00ab 46bb d299 953d
000001b0: 8875 d0bd 10be e2bd 3a49 b13d 985f d9bc
000001c0: 800d 863c 00bb f03d f2e3 df3d d89a d53d
000001d0: f807 3ebd 78b6 1f3d ac22 5ebd dcdb edbd
000001e0: aa07 9fbd 10fc 883c 0053 91bb 80cd e7bd
000001f0: d072 bc3d f84d 983d 343a f3bd 102c 893d
00000200: aed6 0d3e d164 17bd 46b9 4fbb fe13 bcbd
00000210: d4ce ef3d 50e6 03be 65d0 a33c aef7 64be
00000220: 8b1a 2fbe 33ce a33d 7a2b 2d3e 5b01 213e
00000230: b585 2f3e 618e e7bc 6d99 16be f682 813e
00000240: 5361 00be 7fc9 443b 8bf1 4abe b6b7 553e
00000250: ee33 ca3d f8af f63c c75e 5a3e 3355 71be
00000260: 3920 aabd 396b 6c3d 7b93 08bd bde6 1abd
00000270: 567c 433e 284c 14be c608 843e 9bf4 ca3d
00000280: 4548 283e 5f99 913c dd5d e93d 6e04 573e
00000290: 9735 e3bb 44ac 383d dfd8 68bd b27f 3c3e
000002a0: 991a d2bd 90e4 43be 4db3 3fbe 5bf2 35be
000002b0: 1e19 4c3e 8c47 3c3e e087 713d 3c49 703e
000002c0: 1e48 ba3d a5de 66be 12a2 6cbe 8729 a7bd
000002d0: 08d6 3abe dad4 663e df48 6abe bfb3 e8bd
000002e0: 6e30 1dbe f9d0 2fbe 6c15 e93c e30b ddbd
000002f0: 4c00 4cbd fcbf 5fbe 4da6 8abd 2d64 803d
00000300: c340 863e eaa4 bf3e c027 ce3d e501 1e3e
00000310: 4058 833e 3bd1 e33d 62f8 f13d 1ccb 993e
00000320: 5e35 693e f205 763e 184e 2a3e 75ba 523e
00000330: 16e9 973e 9ff1 a4bd 7b34 ee3d fa6f b03e
00000340: 4fa2 753d 9a21 9d3e c30b 973e 5f41 8a3e
00000350: 3dac 973e 498c bc3c fe04 703e f620 b13e
00000360: 3fba af3e f677 313e 8419 123e 0901 8f3e
00000370: 0c71 903e d25f b73e 474e a13e 36db ca3d
00000380: b47e 883e a72c aa3e 051e 273e a4b4 6a3e
00000390: 2d48 013e bf8d 243e 09cb 933e f843 883e
000003a0: f773 873e 9b2a 503d 7c75 513e 8c5e bc3e
000003b0: ee0a 64bb e457 ae3e 884f ba3c f0d9 aa3e
000003c0: 2193 863e e3e2 b13e 9446 7f3d 0123 fb3d
000003d0: 65bf 8d3e 665c ae3e dd0d 8d3e 12e2 bc3e
000003e0: 8790 053e b2ea a73e 934f 0d3e fb82 453e
000003f0: de1c 8a3e d3e6 dc3e 9b51 933e 2442 743d
0.093987904 0.36931726 0.08655186 0.3005141 0.37890735 0.066610835 0.24796246 0.14635694
0.43440196 0.36772537 0.15370311 0.31466576 0.17343858 -0.06698624 0.016401673 0.30985472
0.026445849 0.22296108 0.20235099 0.36659485 0.22319798 0.05065688 0.26839116 0.31642058
0.3068352 0.27283114 0.07023825 0.13245526 0.04614775 0.19505943 0.3037379 0.19266719
0.19604893 0.16778827 0.055418372 0.17737462 0.15917206 0.13278155 0.26024365 0.19188271
0.31085882 0.19483393 0.2964673 0.14497723 0.106089175 0.36076337 -0.04849184 0.121938355
0.27299002 0.13938312 0.03466068 0.24850833 0.24242508 0.23322067 0.37865013 0.31494406
0.28126025 0.2895523 0.14686027 0.16442287 0.17023933 0.34688383 0.33864072 0.13839908
-0.12211451 -0.009188786 0.00051371753 -0.03132908 -0.02169688 0.07286647 0.09884094 0.027134717
0.064934835 -0.04787703 -0.0883303 -0.04953839 0.023129925 -0.011784151 0.03457856 0.12487513
-0.033583984 0.073775634 -0.11343312 0.06165555 -0.021260753 -0.05633709 -0.100431725 0.018066809
-0.09944689 -0.047090948 -0.0769967 0.06857675 0.018693537 0.082823575 -0.030294418 0.03879313
0.063435316 0.018630952 0.091369495 0.11405425 -0.08470395 0.046540946 -0.048876703 0.0735102
-0.080583766 0.06451577 -0.0030314326 0.073047295 -0.10178667 -0.11071408 0.08656545 -0.02653484
0.01636386 0.117544174 0.10932149 0.10429925 -0.04639432 0.038992375 -0.054232284 -0.116142005
-0.07765134 0.016721755 -0.004434943 -0.11318493 0.09201586 0.07436746 -0.11876336 0.066978574
0.13851425 -0.03696138 -0.0031696125 -0.09183501 0.11709371 -0.12880826 0.019996831 -0.22360107
-0.17099969 0.07998314 0.16911116 0.15723173 0.17140849 -0.028266134 -0.14706965 0.25295228
-0.12537126 0.0030027328 -0.19818704 0.20870861 0.09873186 0.030113205 0.21325217 -0.23567657
-0.08306927 0.057719443 -0.033343773 -0.037817705 0.19090399 -0.14482176 0.25787944 0.09909936
0.16433819 0.017773328 0.11394856 0.20997784 -0.0069338786 0.04508616 -0.05684745 0.18408087
-0.10258979 -0.19130158 -0.18720742 -0.17768233 0.19931456 0.18386668 0.05896747 0.23465437
0.090957865 -0.2254587 -0.231087 -0.081622176 -0.18245709 0.22542134 -0.2287936 -0.11362409
-0.15350506 -0.1716956 0.028452598 -0.10793283 -0.04980497 -0.2185058 -0.067700006 0.06269107
0.26221284 0.37430507 0.100661755 0.1543041 0.25653267 0.11123892 0.118149534 0.30037773
0.22774264 0.24025705 0.16631353 0.2057894 0.29670018 -0.08053898 0.116311036 0.3446043
0.059969243 0.30689698 0.2950116 0.27003 0.29623595 0.023016112 0.23439404 0.3459546
0.34321782 0.17330918 0.14267546 0.27930477 0.28211248 0.35815293 0.31505033 0.099050924
0.26659167 0.33237192 0.16320045 0.22920471 0.12625189 0.16069697 0.2886584 0.26614356
0.26455662 0.05082188 0.20454973 0.36790884 -0.0034796554 0.3405143 0.022743002 0.33369398
0.26284125 0.34743413 0.062323168 0.12262536 0.27685085 0.3405487 0.2754964 0.36891228
0.13043414 0.32796246 0.13799886 0.19288246 0.2697515 0.43144855 0.28773198 0.05963339

fc.weight f4 [1, 64]
00000000: 7f1a 9bbe 72c9 f33e c85c 64be 5183 eb3e
00000010: 464d a6be 0a6d 573e d8f4 b7be bd87 a13e
00000020: 091e be3e a3e1 bbbe 2f09 a8be 4c2b 78be
00000030: 54a3 a7be c3fe 84bd 175f 4f3e aa53 d4be
00000040: 6045 863e ac36 c4be ab71 9f3e c099 e4be
00000050: 73b8 a3be 2fb2 efbd 956f 80be ca04 f13e
00000060: f5f8 cb3e 3a76 d7be 5d24 7a3e 0e55 c63e
00000070: e1bd 82be eedb c63e d5d0 bebe d74f 95be
00000080: c937 bebe b03f c0be 3ee4 6fbe fff9 8dbe
00000090: 79fc 8b3e 2432 b0be ab79 c83e 857d 88be
000000a0: c370 b43e 7b32 743e 30f4 cd3e ae18 913e
000000b0: 92cc 95be 9ad3 9ebe 56fa 4abe f38e 3bbe
000000c0: cc7b c4be e26b ad3e f275 803e 2e37 833e
000000d0: 7df5 ad3e b6e4 a4be 2e98 c03e e4e2 b63e
000000e0: 6881 c03e c6e3 ca3e 785b 0ebe ddcd 1c3e
000000f0: d42c b13e 9939 c73e 2d2a a43e fe09 25be
-0.30293652 0.47614628 -0.22301018 0.45998624 -0.3248083 0.21037689 -0.35928988 0.31548873
0.3713229 -0.36695585 -0.32819507 -0.24235266 -0.32741797 -0.064939044 0.20251118 -0.4147008
0.26224804 -0.3832296 0.3114141 -0.44648552 -0.3197666 -0.11703908 -0.2508513 0.47073966
0.39838377 -0.42082387 0.24427934 0.38736767 -0.2553549 0.38839668 -0.372687 -0.29162475
-0.37151936 -0.3754859 -0.23426911 -0.27729794 0.2734106 -0.34413254 0.39155325 -0.26658264
0.3524228 0.23847382 0.40225363 0.28339142 -0.29257637 -0.31020814 -0.19822058 -0.1831625
-0.383757 0.3387137 0.25089985 0.25628036 0.33976355 -0.32205743 0.37616104 0.3571998
0.3759873 0.39626902 -0.1390208 0.15312906 0.34604514 0.3891113 0.32063428 -0.16117093

exp_avg f4 [256, 5]
00000000: 95d1 1338 fea0 00b8 7868 97b9 1742 0cb8
00000010: f59d cf37 667a 02b9 7deb 3739 c0f6 e1b9
00000020: 3974 eeb8 f977 2fb9 9397 2bb8 0acd 7938
00000030: 0762 81b8 33e0 0bb8 df0d adb8 3ee7 ab38
00000040: fb23 a8b8 c123 3f3a ad6b 5535 44d0 b337
00000050: 4f95 01b9 50aa 3539 08d9 3bba 9308 d5b8
00000060: 47d0 3bb9 3c3a 35b6 be9d 0437 89c2 13b8
00000070: ab1f d6b7 a611 3b37 e0f9 21b9 e2c1 5639
00000080: 6955 2fba 488a dcb8 6bc0 48b9 b7cb b638
00000090: 54c3 c8b8 7a26 d237 cd45 2835 ae82 8f38
000000a0: b26b 9a38 2086 a2b8 e9c4 1f39 9546 d4b7
000000b0: e346 9538 9abe 32b9 fb6d 7839 fa0c fbb9
000000c0: 2b35 12b9 5300 75b9 0ce8 f5b8 57f1 2239
000000d0: b84d 5dba 7260 afb8 3e13 27b9 ff26 bfb8
000000e0: a603 ff38 2b25 12ba 44fb 89b8 5f53 00b9
000000f0: 255a cab8 a438 0239 0330 0cba 2cd8 7eb8
00000100: e6db ceb8 a027 4437 60f4 6eb7 fb0a 6338
00000110: ff5d cf36 9952 4d37 3c09 cc37 09e2 b8b7
00000120: 2ba0 4ab9 2d52 8ab7 ef79 8a37 1d74 ffb7
00000130: 53e0 8538 c93e 9ab9 5c07 b9b8 5e26 abb8
00000140: 131b 9138 a7d0 98b8 ff35 b939 7049 3f37
00000150: cda2 1c38 7353 52b8 5779 9338 a6ca a6b9
00000160: 1512 69b8 78bc 57b8 4ffa 0239 639c 11b9
00000170: 788a c039 4f37 a037 e984 b138 cf20 1439
00000180: 363f 27b9 8e28 633a 68c2 ef36 4699 1b39
00000190: 28e0 10b9 81ac 5039 f834 11ba cd95 05b9
000001a0: 3771 53b9 27ce afb7 36d0 0d38 1d98 57b8
000001b0: 872e e3b7 9eb3 51b8 dfb1 f336 cb2e 00b7
000001c0: 4129 29b9 5c8c 56b7 98bf e037 a0f8 36b7
000001d0: 1cb4 1238 a61a 8db5 cf76 a5b8 8a4a 16b8
000001e0: bd6d 1fb9 8b41 5539 0e06 42ba 99cb ebb8
000001f0: 7d18 63b9 506b 8fb8 c3d6 d438 6238 a5b9
00000200: ece0 8eb8 05b7 01b9 8c1d d437 ab8c dfb7
00000210: 8243 cd39 aed3 0d37 309e b637 84c8 79b9
00000220: 3ae7 9e39 421b 6bba bd9e 03b9 d227 95b9
00000230: ae33 c8b5 b0f0 1137 c7f6 a2b9 780c f2b7
00000240: 360f b6b5 54ff b7b8 1012 0439 b075 8ab9
00000250: 07d5 b0b8 1c7d 03b9 ec52 4c38 86d3 51b8
00000260: ee8b 8d38 aaee f9b7 fc98 8338 ceaa d0b8
00000270: 2ef0 0639 2a10 91b9 05d7 89b8 db67 d6b8
00000280: 6513 bdb8 5900 0739 c0ed 69ba 799d b9b8
00000290: b929 20b9 a478 79b8 6c40 bf38 8a95 56b9
000002a0: ebfd 90b8 8f5e f2b8 8e4c ac37 35a5 53b7
000002b0: 0147 0bb8 2ec5 afb7 336f 0cb8 984c fd38
000002c0: 7039 13b9 470d 6db8 f231 8137 827c 0339
000002d0: 1f05 0f38 6611 f4b7 6bc0 cd39 46f8 1eb8
000002e0: e319 a137 5d78 66b9 2ba8 9439 7d70 18ba
000002f0: 93cd 03b9 8a0e 81b9 79f9 2139 8bfd 38b9
00000300: decb 033a fdc3 0f38 fd19 ea38 d682 a838
00000310: 5fd3 beb8 bd58 24b9 c1ea 80b6 5f30 b838
00000320: 6eb3 b638 7d00 bbb8 31cd d739 9407 a9b6
00000330: cec6 8d38 a968 7e38 194f 91b8 3f5d 51b8
00000340: 3a5f 2c37 d0f3 2c38 54f7 0339 9dbd 19b9
00000350: 35af 1e39 3718 0437 7719 1a39 4e6e acb8
00000360: 26af f638 7f36 2eba 2628 a6b8 e938 06b9
00000370: 8347 0ab9 4e4b 3039 11cf 53ba cb91 a5b8
00000380: 8bce 1db9 8cd1 08b9 96bd 3839 2870 54ba
00000390: cc63 c9b8 ffea 3eb9 95e5 1e34 a58d 1d37
000003a0: d62b 4239 f379 0cb8 6d2e 55b7 c9da 6338
000003b0: fa1d 84b8 cfca 39b9 8b9f 32b5 cccf 8f38
000003c0: 62b7 01b9 1dfc 3639 12c0 f3b9 5de5 ecb8
000003d0: f613 38b9 cce8 4cb9 720e 8539 b029 77ba
000003e0: cb35 00b9 a422 83b9 da4d 2138 53ea 1eb8
000003f0: d6a4 88b9 9b8c 8fb7 d3bd ee37 b5f8 aab8
3.524272e-05 -3.0667514e-05 -0.000288788 -3.3440152e-05 2.4749877e-05 -0.00012443363 0.00017539966 -0.00043099187
-0.000113703725 -0.00016733994 -4.091074e-05 5.9557184e-05 -6.169458e-05 -3.3348984e-05 -8.2518665e-05 8.1969876e-05
-8.017566e-05 0.00072913995 7.950537e-07 2.1435444e-05 -0.0001235802 0.00017324951 -0.0007165824 -0.000101582285
-0.00017911299 -2.7004999e-06 7.90454e-06 -3.5228706e-05 -2.5525535e-05 1.1150178e-05 -0.00015447242 0.00020480857
-0.00066884473 -0.000105161744 -0.00019145168 8.716381e-05 -9.573126e-05 2.5051868e-05 6.268645e-07 6.843112e-05
7.363352e-05 -7.749745e-05 0.00015236776 -2.5305237e-05 7.118077e-05 -0.00017046407 0.00023692094 -0.0004788412
-0.00013943452 -0.00023365142 -0.000117257325 0.0001553943 -0.0008442062 -8.3626146e-05 -0.0001593353 -9.114853e-05
0.00012160027 -0.00055749965 -6.579471e-05 -0.0001223809 -9.648901e-05 0.00012418866 -0.00053477305 -6.0759645e-05
-9.863805e-05 1.1691736e-05 -1.4242803e-05 5.4131244e-05 6.1800233e-06 1.2238183e-05 2.4322995e-05 -2.2039765e-05
-0.00019323888 -1.6489148e-05 1.6507662e-05 -3.0452438e-05 6.383718e-05 -0.00029419948 -8.822858e-05 -8.161062e-05
6.919182e-05 -7.286789e-05 0.0003532618 1.1401586e-05 3.734492e-05 -5.014562e-05 7.0321075e-05 -0.00031812972
-5.556837e-05 -5.143552e-05 0.00012491013 -0.00013886536 0.0003672426 1.9099241e-05 8.464774e-05 0.00014126602
-0.00015949909 0.0008665406 7.145387e-06 0.0001483905 -0.00013816415 0.00019900688 -0.0005539204 -0.00012739674
-0.00020164704 -2.0957623e-05 3.381093e-05 -5.140166e-05 -2.7082175e-05 -4.9996765e-05 7.2626713e-06 -7.640289e-06
-0.00016132464 -1.2788074e-05 2.6792099e-05 -1.0905933e-05 3.4976852e-05 -1.0513074e-06 -7.889943e-05 -3.5832207e-05
-0.00015204302 0.0002033768 -0.0007401415 -0.00011243596 -0.0002165753 -6.83876e-05 0.0001014895 -0.0003151326
-6.8129826e-05 -0.00012370579 2.5286128e-05 -2.6649175e-05 0.00039150944 8.45354e-06 2.1769752e-05 -0.00023821188
0.00030308386 -0.00089686003 -0.00012552268 -0.00028449163 -1.4916202e-06 8.698713e-06 -0.0003108291 -2.8854454e-05
-1.3564484e-06 -8.7736786e-05 0.0001259523 -0.00026409095 -8.4320134e-05 -0.0001253974 4.8714617e-05 -5.002648e-05
6.749468e-05 -2.979425e-05 6.275062e-05 -9.950028e-05 0.0001286871 -0.00027668598 -6.5727196e-05 -0.0001022366
-9.015835e-05 0.00012874733 -0.0008923672 -8.850819e-05 -0.00015274332 -5.947858e-05 9.119589e-05 -0.00020464338
-6.913751e-05 -0.00011557072 2.0539646e-05 -1.2615045e-05 -3.320631e-05 -2.0953445e-05 -3.3482163e-05 0.00012078247
-0.0001404041 -5.651757e-05 1.5401256e-05 0.00012539516 3.4098626e-05 -2.9095168e-05 0.0003924401 -3.7901358e-05
1.920475e-05 -0.00021979348 0.00028354055 -0.0005815102 -0.00012569716 -0.0002461563 0.00015447092 -0.0001764206
0.0005027632 3.4276385e-05 0.0001116283 8.035234e-05 -9.099277e-05 -0.00015673316 -3.842026e-06 8.7828135e-05
8.711858e-05 -8.916946e-05 0.00041160875 -5.0374747e-06 6.760434e-05 6.065579e-05 -6.928872e-05 -4.9916325e-05
1.0274171e-05 4.1235064e-05 0.0001258527 -0.00014661853 0.00015133324 7.873451e-06 0.00014696071 -8.222145e-05
0.00011762818 -0.0006645694 -7.922975e-05 -0.00012800437 -0.00013187346 0.00016812721 -0.00080798665 -7.894969e-05
-0.0001504963 -0.00013048033 0.00017618234 -0.0008103871 -9.6030155e-05 -0.00018207355 1.4798418e-07 9.390908e-06
0.00018517612 -3.3492175e-05 -1.2706599e-05 5.4324777e-05 -6.299834e-05 -0.00017718527 -6.6542333e-07 6.8574765e-05
-0.00012370714 0.00017450792 -0.00046491675 -0.00011296079 -0.00017555043 -0.0001954168 0.000253785 -0.0009428514
-0.0001222707 -0.00025012076 3.8457896e-05 -3.7888367e-05 -0.00026062754 -1.7112403e-05 2.8460205e-05 -8.152557e-05

exp_avg_sq f4 [256, 5]
00000000: 0f1a 8d34 b7bb d734 6e15 0d35 aced ab34
00000010: 110d dc34 b619 5634 64bb 5234 753a 8d34
00000020: 7f9e 7e34 0ca9 0c34 340c 8532 82db 8132
00000030: deae d332 1fdf 2c33 7f3f dd32 844a 4335
00000040: 4a16 6535 37cb b535 b615 3d35 e3b0 4835
00000050: 9e6f 9334 87e1 dd34 7227 1335 a010 5235
00000060: 9673 e234 38b7 0b34 407a 0634 9db5 6a34
00000070: 44aa 8735 5d0a 8134 36c9 b934 2227 e934
00000080: af33 1b35 e9b4 1335 422d b234 7524 9734
00000090: 37b6 9234 26d1 7135 6089 b535 3fd7 6b34
000000a0: bda8 ac34 22fd a134 ec00 c534 b722 8334
000000b0: 5042 1d34 1a39 b335 2d90 9f35 68a7 e035
000000c0: 7f47 c536 6756 ab35 2f1c 3835 82a5 7635
000000d0: 6e8f c035 8d6f 2135 5719 8435 a0f4 7a34
000000e0: 3b28 ad34 7ab6 0535 2020 0934 d9bb 9c34
000000f0: e4d9 e434 278a 0035 944e 3a35 0b50 8434
00000100: d202 0135 3e3e 2131 0dec 2c31 f56b 0e32
00000110: dbac 8b32 8d9b 9831 2fac 9d34 6759 9f34
00000120: 2676 3335 0f59 6c35 1f9a 9d34 2c6a 3435
00000130: ee4e 3035 a399 4f35 15fa 3e36 42f6 3b35
00000140: ff44 3c34 c5bc 4e34 0599 1535 6596 4e35
00000150: f856 4734 d8ff 6034 9004 8434 97c2 f034
00000160: 8df1 c735 7941 2335 d70e d634 d806 dd34
00000170: ab01 a235 b79e 0736 0b44 a734 3cd2 8335
00000180: a3d0 9435 4ddd c035 c96c 5435 bae0 9c35
00000190: 11eb 4635 616b 4135 5625 7435 c0d3 4e36
000001a0: ab89 3b35 a866 0134 c8f4 ef33 7d67 6c34
000001b0: 9e2d f134 7c2f a733 a32f 0b34 e6f1 2e34
000001c0: 63c0 3a34 008a ee34 2ec8 9c34 d27f 6f35
000001d0: 696b 5835 097c 4835 219d 1b36 494b 3935
000001e0: c257 0a35 307c 2035 94be 7335 ea2f 0836
000001f0: 56f9 2f35 29d3 8734 853b 9234 b219 4d34
00000200: 5c69 0034 eef7 ce33 8b7f 3834 e124 5334
00000210: 6453 ae34 cc93 1834 afd9 4d34 0047 b334
00000220: 32b3 d134 2441 3835 1272 6c34 fe62 bb34
00000230: bfef 6c34 ba42 9a34 0bdf bc34 d40d 8334
00000240: cf3b c534 6dd5 b734 3bc0 ab34 c4af a234
00000250: 2d08 4a35 7e9a 2d34 4110 6934 3dbf 6834
00000260: 78f0 9134 a3e2 9f35 9b2a d534 9b8a bf34
00000270: 639e b734 c1d9 3535 cdc8 2a36 a222 1635
00000280: e720 3e35 5eb5 8835 7d29 d335 c6bc 4d35
00000290: 0acb 9335 ee3b 0835 0e87 f934 4c9f a634
000002a0: 4fa5 4c35 04ca 5134 2054 8234 e110 7534
000002b0: d94d 2334 0ad4 af34 7e9c ca33 25ce 2435
000002c0: 382f 2135 baff f035 6f0b 0136 4d6a 1435
000002d0: df5e 8835 0a13 8335 9ae8 9435 ea4a 4936
000002e0: 6af9 8735 cf2b 1835 1383 0f35 5505 9f35
000002f0: 7cd1 6736 eee4 5035 5875 cc34 3503 d734
00000300: 81a7 6935 aba2 b535 cfd1 9e34 dd04 8334
00000310: 990b b834 f513 1535 f6ec 2934 2a9a 9f34
00000320: ae17 ba34 5a3d cf34 5c52 b335 9e2c 0036
00000330: 04f4 bd34 8cc9 3634 684b 4f34 2f18 f034
00000340: b3f1 5835 09be 5734 f425 e433 4574 f133
00000350: 4385 7d34 1ff3 8134 1f14 7534 1726 9e34
00000360: 0316 0535 3de5 3a35 307d 2835 b8c0 1435
00000370: 8d25 1935 342a 5535 2a57 aa35 6bc1 9635
00000380: ac66 6135 9b74 dc34 f332 2e35 b89b 8035
00000390: 565c 7635 4158 3b35 9577 0835 8d39 0135
000003a0: e097 3c35 bef4 ff35 7bcc 0b35 f83c 6634
000003b0: 98ce 9534 1e82 df34 d463 0e34 5a49 9234
000003c0: cadc d934 62ac cc34 f843 4235 066f 1b36
000003d0: 29ba 1635 dc40 f634 667a 2935 744b 8535
000003e0: ea73 b834 5fba 1735 3512 9934 6d4e c334
000003f0: a61d 3835 16ad 0335 01bf bb34 2118 2b34
2.6282257e-07 4.018345e-07 5.255778e-07 3.202416e-07 4.09877e-07 1.9939657e-07 1.9625946e-07 2.630583e-07
2.3713254e-07 1.3100015e-07 1.5488787e-08 1.5117397e-08 2.4643153e-08 4.0249798e-08 2.575666e-08 7.2751595e-07
8.534158e-07 1.3544694e-06 7.043958e-07 7.476321e-07 2.7462096e-07 4.132855e-07 5.481917e-07 7.825529e-07
4.217988e-07 1.3012038e-07 1.2524197e-07 2.1859019e-07 1.0107838e-06 2.4035663e-07 3.4605335e-07 4.3428105e-07
5.781721e-07 5.5025026e-07 3.3188013e-07 2.8152468e-07 2.7327198e-07 9.008385e-07 1.3525532e-06 2.1964387e-07
3.216027e-07 3.0172765e-07 3.669478e-07 2.442591e-07 1.4645889e-07 1.3353158e-06 1.1888384e-06 1.6738022e-06
5.8793808e-06 1.2765639e-06 6.8586354e-07 9.1882987e-07 1.4346858e-06 6.01395e-07 9.842141e-07 2.3372058e-07
3.2253033e-07 4.98119e-07 1.2770806e-07 2.9193941e-07 4.2626846e-07 4.7884754e-07 6.9404746e-07 2.4645155e-07
4.806035e-07 2.3463964e-09 2.5163474e-09 8.290034e-09 1.6260335e-08 4.4414663e-09 2.936881e-07 2.9681107e-07
6.6854625e-07 8.804645e-07 2.9355667e-07 6.7209726e-07 6.5679967e-07 7.733708e-07 2.8457773e-06 7.002128e-07
1.7533965e-07 1.9253919e-07 5.57295e-07 7.6959833e-07 1.8564958e-07 2.0954701e-07 2.4590236e-07 4.4845066e-07
1.4896956e-06 6.0817507e-07 3.9871404e-07 4.1169437e-07 1.2070426e-06 2.0208952e-06 3.1155682e-07 9.821447e-07
1.108758e-06 1.4369522e-06 7.913446e-07 1.168831e-06 7.4102815e-07 7.205436e-07 9.0951414e-07 3.0819647e-06
6.986326e-07 1.2051407e-07 1.117383e-07 2.2016862e-07 4.492294e-07 7.785181e-08 1.2962714e-07 1.6293015e-07
1.739259e-07 4.4431363e-07 2.9202914e-07 8.922044e-07 8.062257e-07 7.46863e-07 2.318826e-06 6.9027425e-07
5.153671e-07 5.978536e-07 9.080188e-07 2.029347e-06 6.555541e-07 2.529935e-07 2.7237925e-07 1.910146e-07
1.1959258e-07 9.637721e-08 1.7182735e-07 1.9664323e-07 3.24707e-07 1.4209871e-07 1.9171306e-07 3.3393007e-07
3.9059665e-07 6.8640134e-07 2.2020711e-07 3.490349e-07 2.2066432e-07 2.8733285e-07 3.5180014e-07 2.4410713e-07
3.6737626e-07 3.4241694e-07 3.1991098e-07 3.0302738e-07 7.526276e-07 1.6168084e-07 2.1705729e-07 2.1676256e-07
2.718332e-07 1.1912383e-06 3.970534e-07 3.567737e-07 3.4201648e-07 6.774463e-07 2.5448855e-06 5.592975e-07
7.0828395e-07 1.0185574e-06 1.57328e-06 7.664315e-07 1.1011446e-06 5.075116e-07 4.647813e-07 3.1035813e-07
7.623648e-07 1.9538135e-07 2.4275596e-07 2.2823544e-07 1.5208879e-07 3.275057e-07 9.434824e-08 6.139474e-07
6.0045886e-07 1.795582e-06 1.9229153e-06 5.5288984e-07 1.0160401e-06 9.765802e-07 1.1094555e-06 2.999494e-06
1.0130873e-06 5.668816e-07 5.346239e-07 1.1847975e-06 3.4543618e-06 7.7819175e-07 3.808334e-07 4.0049204e-07
8.7043014e-07 1.3532893e-06 2.958245e-07 2.440419e-07 3.428111e-07 5.5535867e-07 1.5825557e-07 2.9728227e-07
3.466243e-07 3.8601394e-07 1.3360509e-06 1.9099457e-06 3.5381538e-07 1.7023393e-07 1.930581e-07 4.472108e-07
8.081799e-07 2.009257e-07 1.0623981e-07 1.1243586e-07 2.3610941e-07 2.4205016e-07 2.2824723e-07 2.9457507e-07
4.957839e-07 6.9623985e-07 6.276705e-07 5.541474e-07 5.7051585e-07 7.9410097e-07 1.2691355e-06 1.1232163e-06
8.396844e-07 4.1063035e-07 6.489419e-07 9.582063e-07 9.177651e-07 6.9791355e-07 5.083796e-07 4.813999e-07
7.0256465e-07 1.907021e-06 5.2079093e-07 2.14426e-07 2.790373e-07 4.163166e-07 1.3261098e-07 2.724799e-07
4.0580045e-07 3.8123386e-07 7.236954e-07 2.3161424e-06 5.6150253e-07 4.5868262e-07 6.313552e-07 9.931232e-07
3.435701e-07 5.652309e-07 2.8511718e-07 3.6378643e-07 6.8588486e-07 4.9053176e-07 3.4970438e-07 1.5934394e-07

exp_avg f4 [256, 64]
00000000: 0000 0000 0000 0000 0000 0000 0000 0000
00000010: 0000 0000 0000 0000 0000 0000 0000 0000
00000020: 0000 0000 0000 0000 0000 0000 0000 0000
00000030: 0000 0000 0000 0000 0000 0000 0000 0000
00000040: 0000 0000 0000 0000 0000 0000 0000 0000
00000050: 0000 0000 0000 0000 0000 0000 0000 0000
00000060: 0000 0000 0000 0000 0000 0000 0000 0000
00000070: 0000 0000 0000 0000 0000 0000 0000 0000
00000080: 0000 0000 0000 0000 0000 0000 0000 0000
00000090: 0000 0000 0000 0000 0000 0000 0000 0000
000000a0: 0000 0000 0000 0000 0000 0000 0000 0000
000000b0: 0000 0000 0000 0000 0000 0000 0000 0000
000000c0: 0000 0000 0000 0000 0000 0000 0000 0000
000000d0: 0000 0000 0000 0000 0000 0000 0000 0000
000000e0: 0000 0000 0000 0000 0000 0000 0000 0000
000000f0: 0000 0000 0000 0000 0000 0000 0000 0000
00000100: 0000 0000 0000 0000 0000 0000 0000 0000
00000110: 0000 0000 0000 0000 0000 0000 0000 0000
00000120: 0000 0000 0000 0000 0000 0000 0000 0000
00000130: 0000 0000 0000 0000 0000 0000 0000 0000
00000140: 0000 0000 0000 0000 0000 0000 0000 0000
00000150: 0000 0000 0000 0000 0000 0000 0000 0000
00000160: 0000 0000 0000 0000 0000 0000 0000 0000
00000170: 0000 0000 0000 0000 0000 0000 0000 0000
00000180: 0000 0000 0000 0000 0000 0000 0000 0000
00000190: 0000 0000 0000 0000 0000 0000 0000 0000
000001a0: 0000 0000 0000 0000 0000 0000 0000 0000
000001b0: 0000 0000 0000 0000 0000 0000 0000 0000
000001c0: 0000 0000 0000 0000 0000 0000 0000 0000
000001d0: 0000 0000 0000 0000 0000 0000 0000 0000
000001e0: 0000 0000 0000 0000 0000 0000 0000 0000
000001f0: 0000 0000 0000 0000 0000 0000 0000 0000
00000200: 0000 0000 0000 0000 0000 0000 0000 0000
00000210: 0000 0000 0000 0000 0000 0000 0000 0000
00000220: 0000 0000 0000 0000 0000 0000 0000 0000
00000230: 0000 0000 0000 0000 0000 0000 0000 0000
00000240: 0000 0000 0000 0000 0000 0000 0000 0000
00000250: 0000 0000 0000 0000 0000 0000 0000 0000
00000260: 0000 0000 0000 0000 0000 0000 0000 0000
00000270: 0000 0000 0000 0000 0000 0000 0000 0000
00000280: 0000 0000 0000 0000 0000 0000 0000 0000
00000290: 0000 0000 0000 0000 0000 0000 0000 0000
000002a0: 0000 0000 0000 0000 0000 0000 0000 0000
000002b0: 0000 0000 0000 0000 0000 0000 0000 0000
000002c0: 0000 0000 0000 0000 0000 0000 0000 0000
000002d0: 0000 0000 0000 0000 0000 0000 0000 0000
000002e0: 0000 0000 0000 0000 0000 0000 0000 0000
000002f0: 0000 0000 0000 0000 0000 0000 0000 0000
00000300: 0000 0000 0000 0000 0000 0000 0000 0000
00000310: 0000 0000 0000 0000 0000 0000 0000 0000
00000320: 0000 0000 0000 0000 0000 0000 0000 0000
00000330: 0000 0000 0000 0000 0000 0000 0000 0000
00000340: 0000 0000 0000 0000 0000 0000 0000 0000
00000350: 0000 0000 0000 0000 0000 0000 0000 0000
00000360: 0000 0000 0000 0000 0000 0000 0000 0000
00000370: 0000 0000 0000 0000 0000 0000 0000 0000
00000380: 0000 0000 0000 0000 0000 0000 0000 0000
00000390: 0000 0000 0000 0000 0000 0000 0000 0000
000003a0: 0000 0000 0000 0000 0000 0000 0000 0000
000003b0: 0000 0000 0000 0000 0000 0000 0000 0000
000003c0: 0000 0000 0000 0000 0000 0000 0000 0000
000003d0: 0000 0000 0000 0000 0000 0000 0000 0000
000003e0: 0000 0000 0000 0000 0000 0000 0000 0000
000003f0: 0000 0000 0000 0000 0000 0000 0000 0000
0.0 0.0 0.0 0.0 0.0 0.0 0.0 0.0
0.0 0.0 0.0 0.0 0.0 0.0 0.0 0.0
0.0 0.0 0.0 0.0 0.0 0.0 0.0 0.0
0.0 0.0 0.0 0.0 0.0 0.0 0.0 0.0
0.0 0.0 0.0 0.0 0.0 0.0 0.0 0.0
0.0 0.0 0.0 0.0 0.0 0.0 0.0 0.0
0.0 0.0 0.0 0.0 0.0 0.0 0.0 0.0
0.0 0.0 0.0 0.0 0.0 0.0 0.0 0.0
0.0 0.0 0.0 0.0 0.0 0.0 0.0 0.0
0.0 0.0 0.0 0.0 0.0 0.0 0.0 0.0
0.0 0.0 0.0 0.0 0.0 0.0 0.0 0.0
0.0 0.0 0.0 0.0 0.0 0.0 0.0 0.0
0.0 0.0 0.0 0.0 0.0 0.0 0.0 0.0
0.0 0.0 0.0 0.0 0.0 0.0 0.0 0.0
0.0 0.0 0.0 0.0 0.0 0.0 0.0 0.0
0.0 0.0 0.0 0.0 0.0 0.0 0.0 0.0
0.0 0.0 0.0 0.0 0.0 0.0 0.0 0.0
0.0 0.0 0.0 0.0 0.0 0.0 0.0 0.0
0.0 0.0 0.0 0.0 0.0 0.0 0.0 0.0
0.0 0.0 0.0 0.0 0.0 0.0 0.0 0.0
0.0 0.0 0.0 0.0 0.0 0.0 0.0 0.0
0.0 0.0 0.0 0.0 0.0 0.0 0.0 0.0
0.0 0.0 0.0 0.0 0.0 0.0 0.0 0.0
0.0 0.0 0.0 0.0 0.0 0.0 0.0 0.0
0.0 0.0 0.0 0.0 0.0 0.0 0.0 0.0
0.0 0.0 0.0 0.0 0.0 0.0 0.0 0.0
0.0 0.0 0.0 0.0 0.0 0.0 0.0 0.0
0.0 0.0 0.0 0.0 0.0 0.0 0.0 0.0
0.0 0.0 0.0 0.0 0.0 0.0 0.0 0.0
0.0 0.0 0.0 0.0 0.0 0.0 0.0 0.0
0.0 0.0 0.0 0.0 0.0 0.0 0.0 0.0
0.0 0.0 0.0 0.0 0.0 0.0 0.0 0.0

exp_avg_sq f4 [256, 64]
00000000: 0000 0000 0000 0000 0000 0000 0000 0000
00000010: 0000 0000 0000 0000 0000 0000 0000 0000
00000020: 0000 0000 0000 0000 0000 0000 0000 0000
00000030: 0000 0000 0000 0000 0000 0000 0000 0000
00000040: 0000 0000 0000 0000 0000 0000 0000 0000
00000050: 0000 0000 0000 0000 0000 0000 0000 0000
00000060: 0000 0000 0000 0000 0000 0000 0000 0000
00000070: 0000 0000 0000 0000 0000 0000 0000 0000
00000080: 0000 0000 0000 0000 0000 0000 0000 0000
00000090: 0000 0000 0000 0000 0000 0000 0000 0000
000000a0: 0000 0000 0000 0000 0000 0000 0000 0000
000000b0: 0000 0000 0000 0000 0000 0000 0000 0000
000000c0: 0000 0000 0000 0000 0000 0000 0000 0000
000000d0: 0000 0000 0000 0000 0000 0000 0000 0000
000000e0: 0000 0000 0000 0000 0000 0000 0000 0000
000000f0: 0000 0000 0000 0000 0000 0000 0000 0000
00000100: 0000 0000 0000 0000 0000 0000 0000 0000
00000110: 0000 0000 0000 0000 0000 0000 0000 0000
00000120: 0000 0000 0000 0000 0000 0000 0000 0000
00000130: 0000 0000 0000 0000 0000 0000 0000 0000
00000140: 0000 0000 0000 0000 0000 0000 0000 0000
00000150: 0000 0000 0000 0000 0000 0000 0000 0000
00000160: 0000 0000 0000 0000 0000 0000 0000 0000
00000170: 0000 0000 0000 0000 0000 0000 0000 0000
00000180: 0000 0000 0000 0000 0000 0000 0000 0000
00000190: 0000 0000 0000 0000 0000 0000 0000 0000
000001a0: 0000 0000 0000 0000 0000 0000 0000 0000
000001b0: 0000 0000 0000 0000 0000 0000 0000 0000
000001c0: 0000 0000 0000 0000 0000 0000 0000 0000
000001d0: 0000 0000 0000 0000 0000 0000 0000 0000
000001e0: 0000 0000 0000 0000 0000 0000 0000 0000
000001f0: 0000 0000 0000 0000 0000 0000 0000 0000
00000200: 0000 0000 0000 0000 0000 0000 0000 0000
00000210: 0000 0000 0000 0000 0000 0000 0000 0000
00000220: 0000 0000 0000 0000 0000 0000 0000 0000
00000230: 0000 0000 0000 0000 0000 0000 0000 0000
00000240: 0000 0000 0000 0000 0000 0000 0000 0000
00000250: 0000 0000 0000 0000 0000 0000 0000 0000
00000260: 0000 0000 0000 0000 0000 0000 0000 0000
00000270: 0000 0000 0000 0000 0000 0000 0000 0000
00000280: 0000 0000 0000 0000 0000 0000 0000 0000
00000290: 0000 0000 0000 0000 0000 0000 0000 0000
000002a0: 0000 0000 0000 0000 0000 0000 0000 0000
000002b0: 0000 0000 0000 0000 0000 0000 0000 0000
000002c0: 0000 0000 0000 0000 0000 0000 0000 0000
000002d0: 0000 0000 0000 0000 0000 0000 0000 0000
000002e0: 0000 0000 0000 0000 0000 0000 0000 0000
000002f0: 0000 0000 0000 0000 0000 0000 0000 0000
00000300: 0000 0000 0000 0000 0000 0000 0000 0000
00000310: 0000 0000 0000 0000 0000 0000 0000 0000
00000320: 0000 0000 0000 0000 0000 0000 0000 0000
00000330: 0000 0000 0000 0000 0000 0000 0000 0000
00000340: 0000 0000 0000 0000 0000 0000 0000 0000
00000350: 0000 0000 0000 0000 0000 0000 0000 0000
00000360: 0000 0000 0000 0000 0000 0000 0000 0000
00000370: 0000 0000 0000 0000 0000 0000 0000 0000
00000380: 0000 0000 0000 0000 0000 0000 0000 0000
00000390: 0000 0000 0000 0000 0000 0000 0000 0000
000003a0: 0000 0000 0000 0000 0000 0000 0000 0000
000003b0: 0000 0000 0000 0000 0000 0000 0000 0000
000003c0: 0000 0000 0000 0000 0000 0000 0000 0000
000003d0: 0000 0000 0000 0000 0000 0000 0000 0000
000003e0: 0000 0000 0000 0000 0000 0000 0000 0000
000003f0: 0000 0000 0000 0000 0000 0000 0000 0000
0.0 0.0 0.0 0.0 0.0 0.0 0.0 0.0
0.0 0.0 0.0 0.0 0.0 0.0 0.0 0.0
0.0 0.0 0.0 0.0 0.0 0.0 0.0 0.0
0.0 0.0 0.0 0.0 0.0 0.0 0.0 0.0
0.0 0.0 0.0 0.0 0.0 0.0 0.0 0.0
0.0 0.0 0.0 0.0 0.0 0.0 0.0 0.0
0.0 0.0 0.0 0.0 0.0 0.0 0.0 0.0
0.0 0.0 0.0 0.0 0.0 0.0 0.0 0.0
0.0 0.0 0.0 0.0 0.0 0.0 0.0 0.0
0.0 0.0 0.0 0.0 0.0 0.0 0.0 0.0
0.0 0.0 0.0 0.0 0.0 0.0 0.0 0.0
0.0 0.0 0.0 0.0 0.0 0.0 0.0 0.0
0.0 0.0 0.0 0.0 0.0 0.0 0.0 0.0
0.0 0.0 0.0 0.0 0.0 0.0 0.0 0.0
0.0 0.0 0.0 0.0 0.0 0.0 0.0 0.0
0.0 0.0 0.0 0.0 0.0 0.0 0.0 0.0
0.0 0.0 0.0 0.0 0.0 0.0 0.0 0.0
0.0 0.0 0.0 0.0 0.0 0.0 0.0 0.0
0.0 0.0 0.0 0.0 0.0 0.0 0.0 0.0
0.0 0.0 0.0 0.0 0.0 0.0 0.0 0.0
0.0 0.0 0.0 0.0 0.0 0.0 0.0 0.0
0.0 0.0 0.0 0.0 0.0 0.0 0.0 0.0
0.0 0.0 0.0 0.0 0.0 0.0 0.0 0.0
0.0 0.0 0.0 0.0 0.0 0.0 0.0 0.0
0.0 0.0 0.0 0.0 0.0 0.0 0.0 0.0
0.0 0.0 0.0 0.0 0.0 0.0 0.0 0.0
0.0 0.0 0.0 0.0 0.0 0.0 0.0 0.0
0.0 0.0 0.0 0.0 0.0 0.0 0.0 0.0
0.0 0.0 0.0 0.0 0.0 0.0 0.0 0.0
0.0 0.0 0.0 0.0 0.0 0.0 0.0 0.0
0.0 0.0 0.0 0.0 0.0 0.0 0.0 0.0
0.0 0.0 0.0 0.0 0.0 0.0 0.0 0.0
