lightning_logs/version_43/checkpoints/epoch=4-step=130.ckpt (torch, 227860 bytes, 15 tensors)

lstm.weight_ih_l0 f4 [256, 5]
000000 3e 86 26 3e 90 21 5e be 1d 73 d8 3c a2 5a b9 3d
       0.16262147 -0.2169249 0.026422078 0.0905049
000010 b2 bb fc bd 99 c8 5e bd 6d c7 ce ba 28 eb 8c 3d
       -0.123404875 -0.054390524 -0.0015775986 0.0688079
000020 bb 4f 81 3d 1a b3 29 be 40 5d 27 be ff 61 36 3e
       0.063140355 -0.16572228 -0.16344166 0.1781082
000030 0c be c9 bd 93 85 0b 3e a9 91 9e 3d f3 02 f5 3d
       -0.09850702 0.13625173 0.07742626 0.11963453
000040 26 cb ae bd 13 8a 60 3c 93 95 2e 3d f4 fb 34 be
       -0.08534841 0.013704794 0.042623114 -0.17674237
000050 2f 8b 87 3e 32 68 88 be a8 89 b0 bd 34 63 3d 3e
       0.26473376 -0.26641995 -0.08620006 0.18494874
000060 91 af 9b bc fa ac 0d be 91 5c b7 3d be 19 9f bd
       -0.019004615 -0.13835517 0.089532025 -0.07768582
000070 6d f6 aa 3d c8 a2 03 3e bd 78 4b bd d9 65 4d 3d
       0.08347783 0.12855065 -0.049675692 0.050145958
000080 fd ab 12 be 78 20 da 3d 6c a8 50 3d 15 8e 29 3e
       -0.14323421 0.10650724 0.05094187 0.16558106
000090 eb 66 8e be 6d bd 4a 3e c4 df 3d 3e 5e ef 08 be
       -0.27812895 0.19798823 0.18542391 -0.13372561
0000a0 6a c8 22 3c 50 b0 8f bd ac b1 ac 3c 04 d5 af bb
       0.009935478 -0.07016051 0.021080814 -0.0053659696
0000b0 ac 73 a5 bd fb f8 f8 bd 13 09 50 3e 94 0b 4b be
       -0.08078703 -0.12156864 0.20315962 -0.19828635
0000c0 da f3 b9 bc e1 52 0e 3e 55 28 65 be 6f a1 5c 3e
       -0.022699285 0.13898803 -0.22378667 0.21545957
0000d0 44 bb 5d be db a1 0f 3e b2 15 03 be 0b 88 22 3e
       -0.21653467 0.14026587 -0.12801245 0.15872209
0000e0 48 04 b2 bb c4 57 64 3e f9 45 d5 3d 4d e7 01 be
       -0.0054326393 0.22299105 0.10413737 -0.1268589
0000f0 3e af c7 3d 00 46 54 be c5 49 1b 3e 21 20 85 3e
       0.09750222 -0.20729828 0.1516486 0.26001075
000100 34 23 e1 bd 9b 79 f8 bc f4 d2 52 bd 55 42 a3 bd
       -0.109930426 -0.030331424 -0.05147071 -0.07971636
000110 c7 14 08 3b 33 ea 1e be ea 34 52 3d 88 78 b4 bc
       0.0020764337 -0.15519027 0.051319994 -0.02203013
000120 e5 b7 1b bd 2e 4e 04 3e 5e 66 65 bd f2 29 3a bd
       -0.038017172 0.12920448 -0.056005828 -0.04545016
000130 40 72 07 3e 0b 5d d1 bd 2e 79 47 bd f8 1e ca 3d
       0.13227177 -0.10222825 -0.04869955 0.09869188
000140 03 52 17 3e d7 fd 57 be 7a 62 88 3d eb d5 fc 3d
       0.14777379 -0.21092926 0.06659408 0.12345489
000150 7a 6b 4b bd 55 3b 5e 3e 6f 8b fb bd 61 cf 94 bd
       -0.049663045 0.21702321 -0.12282454 -0.07266117
000160 60 ac 15 3e 5b 87 91 bd 2f ca 0a 3e 31 4c 4e bc
       0.14616537 -0.07105895 0.1355369 -0.012591408
000170 56 6e 09 be 56 da 1d bd 4e c7 07 3e 8b d0 3d 3d
       -0.13420996 -0.0385383 0.13259622 0.04634146
000180 55 10 a8 3d 9d d6 00 be e0 07 59 3c 56 a6 31 3e
       0.0820624 -0.12581868 0.013246506 0.17348608
000190 7f 28 72 3e f8 98 7f be 0e 99 9d 3d 65 2c d8 3d
       0.2364826 -0.24960697 0.076952085 0.105553426
0001a0 95 8f 0a be 8d 5a c6 bd 2b 40 e0 3c 03 91 02 3e
       -0.13531335 -0.0968524 0.027374348 0.1275063
0001b0 06 9c 3e bd 0d 06 00 3d 58 cc 99 3c f1 fa 2b 3d
       -0.046535514 0.03125577 0.018774197 0.041987363
0001c0 9e 93 dc bd fc 61 55 3d 30 f1 e7 bd e1 4c cd 3d
       -0.10770343 0.0520954 -0.113253 0.10024429
0001d0 0a 5a 7c bd ba f9 3e bc 22 16 b2 bd 96 9f d8 3d
       -0.061609305 -0.011656219 -0.08695628 0.105773136
0001e0 e1 b2 65 be d7 bc 2b 3e a8 bc 43 be 33 1a 22 3d
       -0.22431518 0.16771255 -0.19114935 0.039575767
0001f0 3a a1 dd bd 90 24 eb 3d 8c 0e 6a bd fb d7 9b 3c
       -0.10821767 0.11481583 -0.05714278 0.019023886
000200 cc a9 c0 3d 28 a2 87 3b fc 01 9c 3e e0 0c 8b be
       0.09407386 0.0041392036 0.30470264 -0.2715826
000210 74 ed 1c 3d 4a 4e e9 3d da 84 c1 bd aa 0d 4d be
       0.03831239 0.113918856 -0.094491675 -0.20024744
000220 e5 40 6f 3e 14 ff ec bd fc 72 5f 3c 9e 27 16 3d
       0.23364599 -0.1157209 0.013638254 0.036658876
000230 e1 ff 9e bd e3 33 5a 3e 4d 24 ca bc f3 65 0a 3e
       -0.07763649 0.21308856 -0.024675513 0.13515453
000240 23 40 f1 bd ac 1f b9 bd 91 46 4b bb b6 8a e3 bc
       -0.11779811 -0.09039244 -0.0031017403 -0.027776103
000250 fc 39 0a 3e cb 6d db 3b 4b bc 6c be 35 03 9e 3d
       0.13498682 0.006696438 -0.23118703 0.077154554
000260 73 f7 76 be 1c d2 0b bc b8 4a 51 3e 1a 20 dc 3d
       -0.24117832 -0.008533981 0.20438659 0.107483104
000270 6c 43 c3 3d f5 d4 e6 3c bb 72 0c be 49 bd ae 3d
       0.09534344 0.028177718 -0.13715641 0.08532197
000280 c2 c5 eb 3d 88 ef ae 3d ec 70 07 be 69 7f 51 3e
       0.11512329 0.08541781 -0.1322667 0.2045876
000290 7b fb 27 be e2 06 f1 bc 28 b8 31 3d f9 35 a2 bd
       -0.16404526 -0.029422227 0.043388516 -0.07920451
0002a0 42 a1 b2 3d d7 a3 fd 3d 7e 0b df 3d 81 0a 10 be
       0.08722164 0.123847656 0.10890864 -0.14066507
0002b0 dd 7a 38 bd c8 d6 5a be 9e ce 49 3e ab a4 18 be
       -0.045039047 -0.21370995 0.19707724 -0.14906566
0002c0 8e 1e 65 3d af 6b 02 be 87 45 a4 3d b6 5b 17 3e
       0.055937342 -0.1273639 0.08021074 0.14781079
0002d0 26 9f 82 bd 5a 91 0e 3e 52 41 bf bc 02 6b 14 be
       -0.063780114 0.13922635 -0.023346577 -0.14493945
0002e0 cc 4c 25 3c 2c dd 74 be dc f3 8c 3e 44 03 6c bd
       0.010089111 -0.23912495 0.275298 -0.0576203
0002f0 a9 55 8b 3e 3b f8 1b be 7a 72 bb bd 51 d0 6f 3d
       0.2721379 -0.15231411 -0.09152694 0.058548275
000300 6a 48 ce 3c aa 7d 49 3d 54 78 8a bd 22 a7 2e 3e
       0.025181014 0.04919211 -0.06761232 0.17055944
000310 a3 69 e5 bd 95 ee 3a 3e 1c 41 e4 3d 8c 19 46 be
       -0.11201789 0.18255074 0.11145231 -0.19345683
000320 81 a9 ea bd 54 e8 0b 3d b0 0b ed bc d3 ff 40 3d
       -0.114581116 0.034157112 -0.028936237 0.047118973
000330 b3 43 91 bd aa e2 18 be 6b 6c dc 3d e7 a3 6a be
       -0.07092991 -0.14930215 0.107628666 -0.22914086
000340 8f 92 52 3e 1b 26 61 be 02 2d 87 3c 80 8d 78 bd
       0.2056372 -0.21987192 0.016500954 -0.06068182
000350 78 b5 0c 3e 84 2d 65 bd cf 82 dd bd 90 30 18 bc
       0.137411 -0.05595161 -0.108159654 -0.009288922
000360 e1 23 b8 bc 42 83 ec 3d 72 fa 4f 3e 8c d5 a5 bc
       -0.022478046 0.11548473 0.20310381 -0.020243429
000370 b1 d1 8b bd 97 5f d2 3d ff 65 18 be fb 3d d9 bb
       -0.06827105 0.102721386 -0.14882658 -0.006629703
000380 9b ed 33 bc f6 ce 0d 3e d9 bd 66 bd 38 31 ff bd
       -0.0109819425 0.1384848 -0.056333397 -0.124605596
000390 c9 62 2a bd 89 05 40 be f2 2e 15 be d3 e6 1d 3e
       -0.041598115 -0.18752111 -0.1456869 0.15420084
0003a0 de 48 66 bd 6f 47 56 3e 13 bd 1c 3d a4 e9 8f bc
       -0.056221835 0.20925687 0.038266253 -0.017567463
0003b0 77 c7 08 3e e6 0a 40 bd 12 5a d3 3d b9 a1 1c 3d
       0.1335734 -0.046885394 0.10319914 0.03824017
0003c0 70 c7 a3 3c 50 2b a2 bd e8 f3 f9 bc 91 af 14 3e
       0.01999256 -0.079184175 -0.030511811 0.14520098
0003d0 b7 26 0d be 65 fc 18 3e ef 01 3d bd ed 4b 48 3d
       -0.137843 0.14940031 -0.046144422 0.048900533
0003e0 90 e8 6c 3e b3 b4 05 bd ba 66 0f be a1 81 d9 ba
       0.2313559 -0.03264303 -0.14004031 -0.0016594419
0003f0 78 c4 76 be 3a d4 3f bd 7f e1 dd bd 99 8d 5f bd
       -0.24098384 -0.046833254 -0.108340256 -0.054578397

lstm.weight_hh_l0 f4 [256, 64]
000000 0e c5 db 3d 2e 73 ae bd 24 db d4 bd 24 38 86 bd
       0.107309446 -0.085180625 -0.1039336 -0.06553677
000010 3c 5d 69 bd 9a 67 e8 3d 8e d4 d4 bd 1a 28 cc bd
       -0.05697368 0.113478854 -0.10392104 -0.09968586
000020 22 86 88 bd 2e f0 c1 3d 08 e9 85 bd 2c cd 59 3d
       -0.06666209 0.09469639 -0.06538588 0.053174183
000030 d0 3e 25 bd 00 80 df 36 5c 04 71 3d 58 26 46 3d
       -0.040343106 6.660819e-06 0.058842048 0.04837641
000040 14 5e d5 3d 88 69 8a bc c4 d2 6d 3d 24 98 da bd
       0.104183346 -0.016896024 0.05806233 -0.1067355
000050 18 74 f6 bd a4 b5 7d bd 0e 67 c5 3d 08 21 dc 3d
       -0.12033862 -0.061940804 0.09638797 0.10748488
000060 60 55 40 bd a0 40 b6 3d f8 a7 88 3d b8 ce dd 3d
       -0.04695642 0.08899045 0.066726625 0.10830444
000070 68 ab f0 3c 12 e3 85 bd 76 cb 85 3d 90 06 7e 3c
       0.029378608 -0.06537451 0.06532948 0.015504494
000080 90 27 41 3c 10 ba fe bd 4c 5a 7e 3d 40 1a dc 3b
       0.011789218 -0.12437832 0.062097833 0.0067169964
000090 6e f8 9c bd b8 57 ef 3c c6 52 cb 3d 38 99 33 bd
       -0.07664572 0.029216632 0.09927897 -0.043847293
0000a0 44 77 1d 3d d4 1a a1 3d 38 ac b3 bd be 86 ea 3d
       0.03844382 0.07866445 -0.087730825 0.11451481
0000b0 1c 03 5b bd bc 8e 8a bd 28 c8 75 bd 08 3c ac bc
       -0.053469762 -0.06765506 -0.060005337 -0.021024719
0000c0 24 4c 96 bd b6 d0 8a bd 70 d8 6d bc 6c 98 dc 3d
       -0.073387414 -0.0677809 -0.014516935 0.1077126
0000d0 32 0c c5 3d 54 27 34 bd 64 d9 15 3d ec 5a c7 bd
       0.09621467 -0.04398282 0.036584273 -0.09734139
0000e0 9e 54 89 bd 60 c3 86 bd 50 dd fd bc d0 21 3d 3c
       -0.067055926 -0.065802336 -0.03098932 0.011543706
0000f0 7c 48 c3 3d e4 64 e5 bd a0 38 1e 3c f6 ec 9f 3d
       0.0953531 -0.11200884 0.009657055 0.078088686
000100 40 fe 74 3d c0 b7 d2 bb c0 c1 e7 bd 90 2a 2b 3d
       0.059812784 -0.006430596 -0.11316252 0.041788638
000110 46 34 ee bd f4 f6 65 3d c0 cd 01 3b b0 60 ac bd
       -0.11631064 0.056143716 0.0019806474 -0.08416879
000120 b0 df 43 bd 00 ef ae 3b 5a 0f 8f 3d e0 ea de bb
       -0.047820747 0.0053385496 0.0698535 -0.0068029016
000130 a4 89 de 3d 00 42 4d bc d6 dc 97 3d f4 74 62 3d
       0.108660966 -0.012527943 0.07415168 0.055287316
000140 80 3b 16 3c 8c 00 4e 3d 72 66 9a bd d4 01 22 bd
       0.009169459 0.05029349 -0.07539071 -0.039552525
000150 98 cf a6 3c 10 f6 a9 bd 50 d0 ed bc ac 90 03 bd
       0.02036266 -0.08298886 -0.029029995 -0.03212039
000160 90 50 1b 3c 14 10 22 bd 40 06 cb bd f6 aa b2 bd
       0.009479657 -0.039566115 -0.099133015 -0.087240145
000170 60 9f 67 3d f4 1c 30 3d 92 4f 83 3d 0c bf 90 bd
       0.056548476 0.04299636 0.06411661 -0.07067689
000180 38 6f 33 3d 34 bc ac bd 64 88 35 bd 60 a5 e7 bb
       0.04380724 -0.084343344 -0.044319525 -0.007069275
000190 2e c4 e2 3d 88 68 5d 3d 92 ca e0 bd 38 a2 41 bd
       0.110725746 0.054054767 -0.10976137 -0.047273844
0001a0 00 0a 13 3d ee 4a 8d 3d 40 6f 93 3c 60 06 83 bb
       0.03589821 0.06899057 0.017997384 -0.0039985627
0001b0 e4 db db bd 50 c8 40 3c 38 4a a8 bd 78 da a7 3d
       -0.107353 0.011766508 -0.08217281 0.081959665
0001c0 e4 01 75 3d 30 a2 6d 3d 40 45 32 bd 1c c2 e2 3d
       0.059816256 0.058016002 -0.043523073 0.1107218
0001d0 d8 58 d7 3d ac 8c 39 3d 40 1a aa bd 6e 45 cf bd
       0.105149925 0.04530017 -0.08305788 -0.101206645
0001e0 38 66 99 bd ba 21 af bd 34 fd c1 bd 28 78 db 3d
       -0.074902 -0.08551355 -0.09472123 0.10716277
0001f0 10 7d 5d 3d f8 84 e4 bd 88 e7 df bc 8c f2 37 bd
       0.054074347 -0.11158174 -0.027332082 -0.044909045
000200 20 b8 15 3d 04 13 8d bd 80 3a a5 3a 28 bc ef bc
       0.03655255 -0.068883926 0.0012605935 -0.029264525
000210 20 d2 b5 3b 4e 1c 9d bd 90 4e c7 3d 96 5b bd bd
       0.0055487305 -0.07671414 0.097317815 -0.09245984
000220 66 08 e0 bd a0 40 ef bb 22 ee bb 3d 9c 4e bf bd
       -0.10939102 -0.007301405 0.091762796 -0.093411654
000230 40 c3 5f bc 00 c6 0d 3d d0 5c f2 3d 88 c5 77 bd
       -0.013657391 0.034612656 0.11834109 -0.060491115
000240 48 1b e2 3c 98 35 ab 3c 34 2b f5 3d a0 e1 a1 bd
       0.0276009 0.020899579 0.11971131 -0.07904363
000250 90 38 b2 bd 78 26 1e bd 08 9c ae bc 64 53 1c bd
       -0.08702195 -0.038610905 -0.021314636 -0.038165465
000260 90 e6 76 bc d8 a5 af bd 40 92 17 3d ac 1c 85 bd
       -0.015069619 -0.08576554 0.03700471 -0.06499609
000270 80 c4 d0 3d 06 91 8b 3d 6c ab 93 bd 50 df 64 bc
       0.101937294 0.068147704 -0.072104305 -0.0139692575
000280 10 b3 51 3d 20 53 63 3c 3e 4c fb bd 98 7c 94 3d
       0.051196158 0.013874799 -0.122704014 0.07250327
000290 28 e8 e6 bd c8 ff b6 bc 80 17 5e 3c a0 aa 67 bc
       -0.11274749 -0.022338763 0.0135554075 -0.014139801
0002a0 b0 cd 02 bd 90 fa c0 bc d0 49 4a 3d d8 bb 8b bd
       -0.03193444 -0.023556978 0.0493868 -0.06822938
0002b0 e8 a7 31 3d 62 6a a4 bd b0 0a d7 3c 9a 04 d0 bd
       0.04337302 -0.080281034 0.026250213 -0.10157128
0002c0 c4 6a 3b bd 16 49 ba bd 60 f4 91 bd 00 ba 33 3c
       -0.045756117 -0.09095971 -0.07126689 0.010969639
0002d0 b8 0e 65 bd ce 78 cf bd fc fd 15 bd 2c 69 c1 3d
       -0.05592224 -0.101304635 -0.03661917 0.09443888
0002e0 ca 2e 95 bd fe 11 9a bd ac e4 e4 3d 7a 89 88 bd
       -0.07284315 -0.07522963 0.11176428 -0.066668466
0002f0 a8 73 89 3d 2c a7 07 bd 8c 0d d1 3d 88 a7 45 bd
       0.06711513 -0.033118412 0.10207662 -0.048255473
000300 e0 c9 e5 3b 10 00 80 3c e0 bb d4 3b 8a bb ea 3d
       0.0070125908 0.01562503 0.006492123 0.114615515
000310 2a 01 9c bd 20 de 5e bd a0 46 fb 3d 78 be 08 3d
       -0.076174095 -0.054411054 0.1226933 0.03338477
000320 e2 0c bd bd 08 62 13 3d 94 64 f8 bd 54 3b e8 bd
       -0.09230973 0.03598216 -0.12128559 -0.11339441
000330 e8 43 c3 3d 08 1a bf bd 28 53 ed 3c 0e 6f 97 3d
       0.095344365 -0.09331137 0.028970316 0.07394229
000340 14 b5 6c 3d 8c 38 94 bd 5c 0f 61 bd 6a 60 a2 3d
       0.057789877 -0.07237348 -0.05494629 0.07928546
000350 a0 fa 95 bd 5c 27 02 3d 00 15 af 3a a8 48 4d bd
       -0.073231936 0.031775817 0.0013357699 -0.05011812
000360 78 43 d3 3c 70 81 2b bd 74 cd 19 bd 00 92 f6 bb
       0.025789008 -0.041871488 -0.03754945 -0.007524729
000370 e0 fb 3e 3c de 91 a3 3d 94 a4 d9 bd 00 17 59 3b
       0.011656731 0.07986806 -0.10627094 0.0033125281
000380 42 05 82 bd de 6d ee bd 7e 32 db 3d de e9 8b 3d
       -0.06348659 -0.11642049 0.1070299 0.06831716
000390 58 26 c5 3d a0 cf c6 bd 84 f0 34 3d c0 ac 73 3d
       0.09626454 -0.0970757 0.044174686 0.05949092
0003a0 92 1d b2 3d 10 a2 80 bd 36 24 fb bd b0 17 63 bd
       0.08697046 -0.06280911 -0.12262766 -0.055442512
0003b0 18 ac b4 3c 40 19 15 bc e4 c7 ef 3d 7c 1a 55 3d
       0.022054717 -0.009100258 0.11708048 0.05202721
0003c0 2e 1b e3 bd 72 b6 ed 3d e8 50 79 3d 96 7a e5 3d
       -0.110891685 0.11607064 0.060868174 0.11205022
0003d0 d2 c8 dc 3d 1a 5e 95 bd 5c 0b 6a 3d b8 72 e4 bd
       0.10780491 -0.07293339 0.05713974 -0.11154693
0003e0 58 11 42 3d 50 48 60 3c 60 6e 57 bd ce c9 ab bd
       0.04737982 0.013689116 -0.052595496 -0.083881006
0003f0 02 fa e7 bd 68 23 a0 3c 00 1d f3 bb ec 35 cb bd
       -0.11326982 0.019548133 -0.0074192286 -0.09922394

lstm.bias_ih_l0 f4 [256]
000000 f8 1f 8d 3d 6e 24 1f 3d 10 b0 7c 3e bc c9 92 3e
       0.06890863 0.0388531 0.24676538 0.28669536
000010 d0 5f 2a 3d 28 79 a9 bd 74 ff 43 3e 40 e6 84 3d
       0.04159528 -0.08275062 0.19140416 0.06489229
000020 76 a2 d2 3c 06 c3 e5 3d bf 31 44 3e bb f3 70 3e
       0.025712233 0.112188384 0.19159602 0.23530476
000030 dd 5c 4a bd 32 ba 81 3e 16 31 85 3d bc 80 76 3e
       -0.049404968 0.25337368 0.06503503 0.24072546
000040 fb 58 1e 3d 52 b0 bd bc dc 15 bf 39 b9 f7 96 bc
       0.038659077 -0.023155365 0.00036446645 -0.01842867
000050 90 5e 54 3d 9a bf 6b 3e 34 d6 f6 3d ae 3a 8b bc
       0.051847994 0.23022309 0.12052575 -0.016995754
000060 65 03 88 3e d0 b1 44 3e 9e 90 47 3e e3 02 4b 3e
       0.2656509 0.19208455 0.19488761 0.1982532
000070 fd a0 4e 3e 20 12 1f 3d a1 fa bd 3d 00 85 52 3e
       0.201786 0.038835645 0.09276319 0.20558548
000080 84 cf e1 3d e9 17 13 3d c3 82 77 3e 8c 7c 8f 3d
       0.110259086 0.035911474 0.24170975 0.07006177
000090 8f b3 98 3d 8f bd 0f 3e f1 90 17 3e 09 a4 59 3e
       0.07456123 0.14037155 0.14801385 0.2125398
0000a0 28 ab 56 3e 8d f2 6e 3e ce cd c1 3d ff 87 48 3e
       0.20963728 0.23334713 0.09463082 0.19583128
0000b0 e9 34 93 3e 61 92 41 3c b3 bd f9 3d f7 7c db 3d
       0.28751305 0.011814685 0.121943854 0.107171945
0000c0 fd 2a 57 3e 17 2c 0d 3c ea 9d c2 3d e3 84 64 3d
       0.21012492 0.008616469 0.09502776 0.055790793
0000d0 3e a8 10 3e 2d b1 0d bd 87 85 20 3e 64 88 3f 3e
       0.1412668 -0.034592796 0.15675937 0.18704373
0000e0 b3 65 12 3e 31 10 a4 3d 28 c2 01 3b e3 dd 04 be
       0.14296608 0.08010901 0.0019799564 -0.12975268
0000f0 f7 1d 8d 3e 1a ff e2 3d eb 6e c7 bd 7b f5 8a 3e
       0.27561924 0.11083813 -0.09737953 0.27140412
000100 80 24 95 bd 40 bf 3c bc 1c a2 79 bd 94 86 43 3d
       -0.072823524 -0.011520207 -0.060945615 0.047735766
000110 bc ab 0c 3d f2 6e b4 bd 24 20 d2 bd 42 ae ee bd
       0.034343466 -0.08810224 -0.102600366 -0.11654331
000120 d0 88 9c 3c 60 5a b5 bb 48 40 44 bd 3c 0b d8 bd
       0.019108206 -0.005534455 -0.047912866 -0.10549018
000130 60 85 e4 bc 20 cb be bc c0 53 74 bb b8 0d 2d 3d
       -0.02789563 -0.023290217 -0.0037281364 0.04224941
000140 42 88 a0 bd 34 d4 05 bd 86 1e 9c bd 08 5a c9 bd
       -0.07838489 -0.032673076 -0.076230094 -0.09831625
000150 d0 a6 1b bd 8a 16 ea 3d 48 ca 2b bd c0 ce 38 3b
       -0.03800088 0.1143008 -0.041940957 0.0028199404
000160 7a 35 bf bd 48 c8 ac bd 2c 60 3c 3d a8 94 19 bd
       -0.09336372 -0.08436638 0.045990154 -0.037495285
000170 18 d9 d5 bc f0 2a f3 bd 7e 4e e8 3d e4 a7 67 bd
       -0.026104495 -0.11873424 0.11343096 -0.056556597
000180 e0 9f d2 3c 70 d9 25 3c 2c 1b 7d 3d 28 5c df 3d
       0.025711 0.010122642 0.06179349 0.10906249
000190 7c d8 fb bd 50 68 4a bc a0 66 ac 3b d0 8b f4 bc
       -0.122971505 -0.012353972 0.0052612573 -0.029851824
0001a0 38 43 72 bd c4 fd 7d 3d 78 3a ff bd e8 31 f9 3d
       -0.059146136 0.062009588 -0.12462324 0.12167722
0001b0 90 5a d0 bc b0 95 7a 3c 18 45 92 3d cc 24 22 bd
       -0.025433809 0.015294477 0.07142085 -0.039585873
0001c0 f0 da 29 3d 50 ca 2d bd 94 4f 6a 3d 7e 97 c0 3d
       0.04146856 -0.04242927 0.057204798 0.09403895
0001d0 7a dd 87 3d 98 61 83 bc dc 50 9a bd 7e 89 8e bd
       0.0663404 -0.016037747 -0.07534954 -0.06959818
0001e0 b2 bb f8 3d 9c f0 60 bd 58 c3 a0 bd 00 cb 69 3d
       0.12145175 -0.054916963 -0.07849759 0.05707836
0001f0 14 f6 a8 3d d4 8b da 3d a0 54 03 bc 32 a5 a2 bd
       0.08250061 0.10671201 -0.008015782 -0.07941665
000200 e0 ee 0f be 06 fa 59 3e d8 e4 fd bd 94 d0 67 be
       -0.14055967 0.21286783 -0.12397164 -0.2263816
000210 83 4a fd 3d e7 71 25 3d 21 7d 0a be ae 87 47 3e
       0.123677276 0.04039183 -0.13524295 0.19485351
000220 43 62 1d 3e af 19 5c bc 30 0c 1c 3e 64 07 48 be
       0.15369515 -0.013433858 0.15239024 -0.1953407
000230 de c6 e1 3d 08 6f ca 39 3e f6 b7 3b 0d b3 a2 3d
       0.11024259 0.00038611167 0.005614071 0.079443075
000240 9b 65 44 3e 6e a3 f5 3d 50 7c 06 bd f4 dc bf 3d
       0.19179384 0.11994062 -0.032833397 0.09368315
000250 9b 7b ec 3c 93 c2 02 be eb ec f3 3d 29 fe 23 3d
       0.028867533 -0.12769537 0.11910423 0.040037308
000260 49 f7 1e be 7c 1e 39 bd c6 f2 2a 3d c0 a2 06 bd
       -0.1552402 -0.045195088 0.041735433 -0.032870054
000270 80 2d 76 3d f6 e7 3d 3d 65 d7 89 bd 51 c2 bc 3d
       0.060101986 0.046363793 -0.06730536 0.092167504
000280 da 34 8f 3d 5e 81 e4 bc da 38 8a 3d fa a3 5e 3d
       0.069925025 -0.027893718 0.06749125 0.0543556
000290 5b a6 9d bd 7c 2a c2 bd fa 3d 26 be f5 75 2d 3e
       -0.076977454 -0.094807595 -0.1623458 0.16939528
0002a0 c8 ab 35 3e d9 65 07 be cc 31 91 bd a2 d0 fb bd
       0.1774131 -0.13222446 -0.07089576 -0.12295653
0002b0 08 32 c8 3c e2 c6 e2 bb b1 f9 29 be ee a6 f6 3d
       0.02443792 -0.0069206813 -0.16599156 0.12043558
0002c0 0e ed 92 bc 8e 16 38 be fc 6c d0 3d f5 38 1b be
       -0.017935302 -0.17977354 0.10177037 -0.15158446
0002d0 f8 8f 4c 3e a4 11 08 3d 64 dc f4 3d 42 d3 db bd
       0.19976795 0.03321995 0.11956099 -0.107336536
0002e0 c4 61 10 3e 97 c0 31 bc 17 b5 e0 bd 29 6b 83 bd
       0.14099795 -0.01084914 -0.1097204 -0.064169236
0002f0 c4 13 5b be dd bf a2 bd 17 f6 53 bb 74 43 1d 3e
       -0.21394259 -0.07946751 -0.0032342726 0.15357763
000300 15 ed 10 3e 0a 51 a4 3c 0e b9 82 3d 4f 0c 80 3e
       0.1415294 0.020058174 0.06382953 0.2500939
000310 b8 88 93 3d 5a a7 1c be ea f4 3f 3e c0 cf 0b 3e
       0.072038114 -0.15298215 0.18745771 0.13653469
000320 24 5b 7a 3e aa 4d 0f 3e 05 d3 cd 3d 14 cf 0f 3e
       0.2444883 0.1399447 0.100500144 0.14043838
000330 b1 49 5a bd 75 ab c8 3d c9 8d 05 3c 31 48 13 3e
       -0.053292934 0.09798328 0.00815148 0.14383008
000340 f2 77 77 3e cd cd 60 3e c3 1b c0 3d 57 cb b3 bc
       0.2416685 0.21953507 0.09380295 -0.021947546
000350 4c 12 58 3e d0 94 84 3e c3 d8 31 3d b4 81 0a 3e
       0.2110073 0.25894785 0.04341961 0.1352604
000360 33 f0 55 3e 7b 8f f4 3c 1b 7e 7a 3e 6a ce 06 3e
       0.2089241 0.029853573 0.24462168 0.13164678
000370 83 24 98 3e 4f 73 f8 3d da bd 12 3e 48 b3 2e 3e
       0.29715356 0.12131368 0.14330235 0.17060578
000380 f6 f8 11 3d 58 5f f0 3d e3 72 98 3e 8b fe ea 3d
       0.03563782 0.117369354 0.29775152 0.114743315
000390 e6 b2 d1 bd 29 28 c9 3c f4 cf 09 3d 8a 0a d3 3d
       -0.102392 0.024555283 0.033645585 0.103047445
0003a0 6e b0 6e 3e a7 ba d8 3d 6b 62 81 3d a1 6c 36 3e
       0.2330949 0.10582476 0.063176 0.17814876
0003b0 65 c8 68 3e 24 4b d9 3d 37 ba 67 3e 20 2e 3b 3e
       0.22732694 0.10610035 0.22629629 0.18279314
0003c0 16 bf e3 bc d9 3d b6 3d 58 52 c0 3d 6a 11 27 3e
       -0.027801078 0.08898515 0.09390706 0.16315237
0003d0 44 5d fb 3d 63 9c 80 bd b6 2f 53 3d e6 f1 27 3e
       0.122736484 -0.062798284 0.051559173 0.1640087
0003e0 06 82 80 3e 21 7a 42 3e 87 64 3c 3e 1f 61 a2 bd
       0.250992 0.18991901 0.18397723 -0.07928681
0003f0 02 c4 fb 3d 5d 29 b6 3d 4c 2f 17 be f0 ee c9 3d
       0.12293245 0.08894608 -0.14764136 0.09860027

lstm.bias_hh_l0 f4 [256]
000000 d8 f0 47 3e f0 71 11 3e 76 d2 68 3e 02 c3 4d 3e
       0.19525468 0.1420362 0.22736534 0.20093921
000010 c8 e6 ad 3d 18 61 5b bd f3 00 09 3e e8 fe 88 3e
       0.08491284 -0.053559393 0.13379268 0.26756978
000020 2b 37 15 3d a8 d1 77 bc 49 ef 9b 3d 17 28 99 3d
       0.036429565 -0.01512567 0.076139994 0.0747835
000030 58 d6 58 b7 66 01 8c 3e 6c aa 0a 3e 56 b7 1b 3d
       -1.2924509e-05 0.27344817 0.13541573 0.03801664
000040 61 72 be 3d f1 86 62 3e 26 be a6 3c c4 7e 6d bd
       0.0929916 0.22121789 0.020354342 -0.05798222
000050 c8 11 fd 3d 11 48 4f 3e 25 3b 6c 3d 12 30 13 3e
       0.12356907 0.20242335 0.057673592 0.14373806
000060 f0 af 39 3e a4 88 e4 3d 37 a6 95 3d 77 b6 b7 3c
       0.18133521 0.11158875 0.073070936 0.022425873
000070 2f 24 5f 3e 6f 58 65 3e d1 4d 29 3e 81 f5 68 3d
       0.21791147 0.22397016 0.16533591 0.056874756
000080 bb 3e 14 3e 7a 5e a2 3c 28 5a ff 3d f2 cf 74 3e
       0.14477055 0.01982044 0.12468368 0.2390745
000090 67 14 21 be 02 ce 56 3e fd 5f 8f ba e9 bc 42 3e
       -0.15730439 0.20977023 -0.0010938641 0.19017376
0000a0 ec bd 92 3e f6 46 14 3e 5a 8e a4 3d 2b f8 97 3d
       0.28660524 0.14480194 0.08034964 0.07420381
0000b0 61 b0 68 3e 91 9f be 3d 75 3e 93 3d 03 60 4d 3e
       0.22723533 0.093077786 0.07189647 0.20056157
0000c0 3f e4 d9 bc 3f 98 b7 3d cf 20 79 3e ee e9 8c 3d
       -0.026598094 0.089645855 0.24328922 0.06880556
0000d0 58 5d bc 3b 43 1b 35 bc 30 ef d4 3d 09 6a e6 3d
       0.005748432 -0.011053863 0.10397184 0.11250693
0000e0 db 14 11 3e 1d 67 51 3b dd 3a ca 3c 15 a6 d6 bd
       0.14168112 0.003195233 0.024686271 -0.104808964
0000f0 f0 d8 51 3e 2c 76 f9 3d 67 95 17 3c 0b 01 7f 3e
       0.20492911 0.121807426 0.009251929 0.24902742
000100 18 1f aa 3d 58 64 45 bd 3e 85 bc bd 8c ff c1 3d
       0.08306712 -0.0481914 -0.092051014 0.0947257
000110 c8 6e f7 3d 50 fe 7c bd 78 31 bd bd 00 55 db bd
       0.12081677 -0.06176597 -0.09237951 -0.10709572
000120 5c 61 9d bd c8 32 a1 3c e2 69 e8 3d 80 d1 80 3b
       -0.076845855 0.019677535 0.113483205 0.0039312243
000130 80 04 9c ba 28 18 68 bd 0c 7b cb 3d 00 82 bc bb
       -0.0011903197 -0.056663662 0.09935579 -0.005752802
000140 ee 54 c6 3d aa 52 cd bd 88 f0 b0 3c 48 66 3d 3d
       0.09684168 -0.100255325 0.02159907 0.04624012
000150 74 1f 84 bd f8 19 4e bd cc 96 dd 3d a6 9a fc 3d
       -0.06451312 -0.050317734 0.10819778 0.12334184
000160 a4 20 5a bd a8 95 b8 bc 38 a7 cc 3c 52 3c 87 bd
       -0.053253785 -0.0225323 0.02498208 -0.06603302
000170 90 4e c8 3d 08 d8 d9 bd c6 83 b4 bd cc 4a 21 bd
       0.097806096 -0.10636908 -0.08814196 -0.039377972
000180 88 14 33 3d 9c 29 ed bd 4e 77 93 3d e4 8d 24 3d
       0.043720752 -0.11580202 0.0720049 0.04017438
000190 34 7a 5e bd b8 6b b9 bc 7e 4c e3 3d 18 73 0e bd
       -0.05431576 -0.022634372 0.11098574 -0.03477773
0001a0 a0 1f 36 3c e0 b2 8b 3c 16 66 87 bd 48 d4 ac 3d
       0.011115938 0.017053068 -0.06611268 0.08438927
0001b0 b8 19 bb 3d 28 33 2d bd fc 8e f8 3d 40 6d 1f bc
       0.09135765 -0.042285115 0.12136647 -0.009730637
0001c0 02 ea fd bd 20 4e f6 3d 4c 12 21 bd 80 94 20 3b
       -0.12398149 0.1202662 -0.03932409 0.0024502575
0001d0 c0 29 68 bd b4 05 05 bd b6 95 ee 3d 68 9c a4 bd
       -0.05668044 -0.032476142 0.11649649 -0.080376446
0001e0 40 1e 7f bc 08 da 4a 3d c8 5d 14 bd c6 6a c3 bd
       -0.015571177 0.049524337 -0.03622225 -0.0954185
0001f0 2c e9 18 bd 9e 95 df bd 2c 0b 83 bd c8 c9 b5 3c
       -0.037331745 -0.10917209 -0.06398615 0.022190943
000200 46 c5 88 bd 0e c7 46 3e b0 0b e2 bd 7b 60 b1 bc
       -0.06678252 0.19411871 -0.110373855 -0.02165245
000210 cb 05 bc 3c 27 51 90 bd 94 2a 25 bd 51 5b c5 3d
       0.022951981 -0.070467286 -0.04032381 0.09636558
000220 73 7c c5 3a 18 de ea bd 57 85 d8 bc 26 2d f9 bd
       0.0015066996 -0.11468142 -0.026430769 -0.121668145
000230 1e 74 9b bb 31 60 21 be 06 be 0a be d9 06 23 3e
       -0.004744067 -0.1575935 -0.1354905 0.15920581
000240 a0 e6 74 3d 48 60 a7 bc 19 04 a6 3d 20 17 aa 3d
       0.059790254 -0.020431653 0.0810625 0.08305192
000250 a8 57 40 3e fa e6 1e be bb 58 62 3c 1f d6 a8 b9
       0.18783438 -0.15517798 0.0138151 -0.0003220299
000260 03 86 39 bd 90 3f a6 bd d5 50 b2 3d 9f 78 34 be
       -0.04529382 -0.08117592 0.08706824 -0.17624138
000270 5a 30 28 3e 01 69 4f 3d 02 8d c8 bd 5b f3 d5 bc
       0.16424695 0.05063725 -0.0979252 -0.026117017
000280 eb 00 49 3d a1 cb 71 bd dd ff cd 3d c9 c9 3f 3e
       0.04907314 -0.059032086 0.10058568 0.18729319
000290 83 35 58 ba c6 71 4e be cb 26 fa bd bd c7 e8 3d
       -0.000824772 -0.20160589 -0.122144304 0.11366222
0002a0 a7 2e 86 3d 22 92 4e be 0b 22 80 bc 11 1c 20 be
       0.06551867 -0.20172933 -0.015641233 -0.15635706
0002b0 10 24 5f be 11 3c 36 3c b9 4f b9 bd 26 f4 ac 3d
       -0.217911 0.011122719 -0.09048409 0.08445005
0002c0 f1 f7 c6 3d 80 3a 2a be 7e 53 80 3c a3 98 13 be
       0.0971526 -0.16623878 0.015664812 -0.14413695
0002d0 ed 52 0e 3e c0 b6 c8 3b 55 4c 4d 3d 3c 45 b3 bd
       0.13898821 0.006125301 0.050121624 -0.0875344
0002e0 f5 86 9c 3d 67 e4 ca 3d 8d 92 ba bc f6 82 39 3b
       0.076429285 0.099068455 -0.022774959 0.0028306819
0002f0 f8 d0 49 be 81 4d 1b bd 2c 99 49 bd c2 97 ee 3d
       -0.19708622 -0.03791571 -0.04921834 0.11650039
000300 33 1e 68 3e 15 24 6e 3d e9 d7 07 3e 09 cb 5b 3e
       0.2266777 0.05813988 0.13265957 0.2146417
000310 f0 8d 93 3d 14 dd 94 3c fc 71 8e 3d 01 36 ca 3d
       0.07204807 0.018171825 0.069553345 0.09873582
000320 2e f5 7a 3e 36 58 0b 3e 8d 3e 44 3e 85 a3 29 3e
       0.24507591 0.13607869 0.19164486 0.16566284
000330 1b aa c6 3c 29 34 12 3e 78 3e c5 3d 58 62 62 3e
       0.024251034 0.1427771 0.096310556 0.22107828
000340 87 3d 3f 3e ae 5c 67 3c 83 12 ad 3d 7a 9d 96 bd
       0.18675815 0.014121218 0.084507965 -0.07354255
000350 42 7e 1f 3d 28 01 47 3d 04 74 82 3e 4f 75 41 3e
       0.03893877 0.048585087 0.25479138 0.18892406
000360 75 dc 9f 3d f4 4b 7a 3e b2 8f 78 3e 10 86 31 3e
       0.07805721 0.24443036 0.24273565 0.17336297
000370 b5 fd 36 3e 3b 7e ca 3d 7c 9c 9d 3d 75 35 b0 3b
       0.17870219 0.09887358 0.07695863 0.0053774663
000380 12 e8 06 3e 77 83 d2 3d 05 95 5f 3e 6f 05 6a 3e
       0.13174465 0.10278981 0.2183419 0.22853635
000390 d9 33 90 3c ec 11 82 3e ed 96 50 3c 40 a9 b2 3c
       0.017602848 0.25404298 0.012731296 0.02180922
0003a0 ff 76 84 3d 53 45 2a 3e cf fc 12 3d 74 5d 82 3e
       0.06468009 0.16628008 0.03588563 0.25461924
0003b0 88 19 7a 3e d8 08 b0 3d ac 97 3d 3e 07 ff 4f 3e
       0.24423802 0.08595437 0.1851489 0.20312129
0003c0 ce 29 5c 3d a9 4b b5 3c 59 71 f1 3d fa c6 87 3b
       0.053750806 0.022130804 0.117891975 0.004143593
0003d0 a5 80 1f 3e 92 7d 28 3e 50 86 e2 3d 3b 64 93 3e
       0.15576418 0.16454151 0.11060774 0.28787407
0003e0 7b 75 0b 3e 34 6e 85 3d cf e2 6f bb e9 c1 16 be
       0.13619034 0.0651516 -0.0036603694 -0.14722408
0003f0 c6 6c 32 3e 37 6b cd 3d a5 6c a5 3d f9 6a 01 3e
       0.17424306 0.10030215 0.08077363 0.12638463

fc.weight f4 [1, 64]
000000 a4 ce 85 3e 7f 08 bb bd b8 d0 6e 3e a7 3e 1e 3e
       0.26134217 -0.0913248 0.23321807 0.15453587
000010 9b 97 0e be de ab 8d 3c d1 4a 3c 3e dc 97 1f be
       -0.1392502 0.017293867 0.18387915 -0.15585274
000020 79 db 55 be 50 04 10 3e 38 8c 81 be 0a f9 44 3e
       -0.20884503 0.14064145 -0.2530229 0.19235626
000030 bc a0 0e be 74 30 16 3e 9a dc 4c 3e 51 51 7f be
       -0.13928503 0.14666921 0.20006028 -0.24933363
000040 06 32 85 be 6a 4e f3 bd 51 06 c0 bd 11 e4 35 bc
       -0.26014727 -0.11880191 -0.09376205 -0.011101739
000050 ff f3 34 be 45 71 75 3e 79 4b 7c be ff da 34 be
       -0.17671202 0.2396899 -0.24638166 -0.17661665
000060 92 7b 2f 3e 73 3d c5 3d 15 9d 15 be 76 95 75 3e
       0.17136982 0.09630861 -0.14610703 0.23982796
000070 9f 97 55 be ec 6d 4a be a4 0d 32 3e dd ac 53 be
       -0.2085862 -0.19768494 0.17388016 -0.20671411
000080 4b 0c 40 be 34 77 a6 3d 8a ed 38 be 00 85 67 be
       -0.1875469 0.08128205 -0.18059364 -0.22609329
000090 14 b1 6d bc c7 cd 08 3e 8b 54 41 3e 5e aa 02 be
       -0.014507551 0.13359748 0.18879907 -0.12760302
0000a0 9d 11 30 be 5a c4 2a 3e 0f 46 68 3d d2 16 6a 3e
       -0.17194219 0.16676465 0.056707438 0.22860268
0000b0 9c 7b 40 3e 86 3a 59 3d 4d 87 1e 3e 5c 73 52 be
       0.18797153 0.053034328 0.154813 -0.20551819
0000c0 9f 5c 01 be aa 08 4d 3e c6 c6 cb bd df 75 2b 3e
       -0.12632988 0.20022836 -0.099500224 0.16744183
0000d0 b4 56 ea bd 78 50 ec bd c7 85 5d be c1 aa 47 3e
       -0.114423186 -0.11538786 -0.21633063 0.19498731
0000e0 bb ed 4a be a7 5d 01 be ac 80 32 3e a2 9b 87 3d
       -0.1981725 -0.12633382 0.17431897 0.066214815
0000f0 78 b2 0a 3e 88 4b cb 3d 82 74 3c bd 97 e5 56 be
       0.13544643 0.09926516 -0.046009548 -0.20986019

exp_avg f4 [256, 5]
000000 85 c4 90 ba 85 c4 90 3a e8 dd a4 ba 37 fc 15 ba
       -0.0011044896 0.0011044896 -0.001257834 -0.0005721482
000010 66 08 73 3a f2 04 84 39 f2 04 84 b9 4b 92 e2 b9
       0.0009270966 0.00025180686 -0.00025180686 -0.00043215076
000020 01 7b cf b8 03 cf 49 36 c6 41 64 3a c6 41 64 ba
       -9.8934404e-05 3.007183e-06 0.0008707311 -0.0008707311
000030 e6 79 71 39 c3 e1 58 b9 28 53 f3 b8 30 61 a5 39
       0.00023028962 -0.00020683468 -0.00011602632 0.00031543663
000040 30 61 a5 b9 1b 46 5a 39 ae ab 50 ba 0b a5 25 3a
       -0.00031543663 0.00020816216 -0.00079601526 0.0006318844
000050 8c 9c d5 b9 8c 9c d5 39 b3 72 15 b9 18 0c a4 b9
       -0.00040743162 0.00040743162 -0.00014252476 -0.00031289528
000060 e4 33 e5 39 30 68 3d 38 30 68 3d b8 73 3a f7 37
       0.00043716945 4.5158144e-05 -4.5158144e-05 2.9471912e-05
000070 f4 46 a6 b7 74 99 26 36 d2 12 a4 3a d2 12 a4 ba
       -1.9821782e-05 2.482525e-06 0.0012517816 -0.0012517816
000080 ab c4 18 3a fe cb 9f b9 73 9d 27 b9 22 4e ea b9
       0.00058276457 -0.0003047883 -0.00015985015 -0.00044690171
000090 22 4e ea 39 bb 09 27 ba 97 f5 91 b9 47 a6 db 39
       0.00044690171 -0.00063719944 -0.00027839534 0.0004189482
0000a0 b3 57 b5 39 b3 57 b5 b9 56 53 0e 3a 8d 2d 3d ba
       0.0003458835 -0.0003458835 0.0005429288 -0.00072165654
0000b0 78 97 10 3a b3 2f 85 3a b3 2f 85 ba 7f 8a 29 3a
       0.00055157347 0.001016131 -0.001016131 0.0006467476
0000c0 08 0d 31 b9 0f 0d 55 b9 86 f3 da 3a 86 f3 da ba
       -0.0001688489 -0.00020318128 0.0016704656 -0.0016704656
0000d0 a9 9b da 3a 65 6a c9 ba e2 e9 5c 3a 7a da 0c ba
       0.001667847 -0.0015366791 0.0008427185 -0.0005373132
0000e0 7a da 0c 3a 0f b3 98 ba 9f fe a8 b9 41 02 01 3a
       0.0005373132 -0.0011650043 -0.00032233165 0.00049212953
0000f0 fa 7b 1b ba fa 7b 1b 3a 22 9d 23 ba 6e 2d 30 ba
       -0.0005931255 0.0005931255 -0.0006241371 -0.0006720637
000100 b4 e3 5b 3a 66 f9 98 38 66 f9 98 b8 aa 5a 36 39
       0.00083881174 7.294379e-05 -7.294379e-05 0.00017390648
000110 5a e9 07 ba b3 74 f0 39 cd 88 7c ba cd 88 7c 3a
       -0.00051846134 0.00045863315 -0.0009633422 0.0009633422
000120 1f 81 58 ba d5 f0 11 b9 05 a0 f7 39 ca dc a7 3a
       -0.00082589866 -0.00013917995 0.00047230735 0.0012806889
000130 ca dc a7 ba 29 2c 95 39 6f 5f 65 b6 5d dc ec b9
       -0.0012806889 0.00028452397 -3.4179209e-06 -0.0004517761
000140 db b9 eb ba db b9 eb 3a 47 48 1b bb 16 97 01 37
       -0.0017984466 0.0017984466 -0.0023694204 7.724177e-06
000150 d2 97 25 3a ec c0 95 b9 ec c0 95 39 82 7e 24 b9
       0.00063168735 -0.00028563233 0.00028563233 -0.00015687387
000160 f4 d1 c2 b9 dd 46 eb 39 ee 35 d5 38 ee 35 d5 b8
       -0.0003715899 0.0004487549 0.00010166677 -0.00010166677
000170 75 85 90 39 59 24 80 38 f6 80 c3 b8 78 10 88 b7
       0.00027565254 6.110286e-05 -9.3223454e-05 -1.6220132e-05
000180 78 10 88 37 e3 aa 37 b8 df 14 d0 b6 f5 e8 41 37
       1.6220132e-05 -4.378975e-05 -6.2013128e-06 1.1557936e-05
000190 6b 13 3d ba 6b 13 3d 3a 71 f8 67 ba 7b 2c 18 ba
       -0.00072126713 0.00072126713 -0.00088489713 -0.0005804968
0001a0 b5 63 51 3a 57 cc 0a 3a 57 cc 0a ba 5c 31 18 ba
       0.0007987575 0.0005294731 -0.0005294731 -0.0005805695
0001b0 2d 68 eb 38 8f 9e 99 b9 2b d2 21 39 2b d2 21 b9
       0.000112250775 -0.0002930057 0.0001543245 -0.0001543245
0001c0 ff 9a e3 39 b3 5e 91 b9 d5 3b 56 39 0a 00 7a b8
       0.00043412295 -0.00027727112 0.0002043092 -5.960468e-05
0001d0 0a 00 7a 38 75 53 ee 39 40 1a 2e b9 ce ea 38 39
       5.960468e-05 0.00045457078 -0.00016603712 0.00017635079
0001e0 8a b9 5a 3a 8a b9 5a ba 06 ee 4c 3a 5d bd 91 ba
       0.00083436875 -0.00083436875 0.00078174507 -0.0011119057
0001f0 a8 b5 42 3a be 7d e0 b7 be 7d e0 37 3d 4d d0 38
       0.00074275816 -2.6761434e-05 2.6761434e-05 9.9326e-05
000200 cd 4d 2a b9 f2 21 29 39 4f a0 b3 ba 4f a0 b3 3a
       -0.00016241446 0.00016129742 -0.0013704392 0.0013704392
000210 c4 4e 89 ba 50 1b c3 b8 45 6b 16 3a 09 f2 57 3a
       -0.0010475744 -9.303412e-05 0.00057380303 0.0008237665
000220 09 f2 57 ba cc 35 ac b7 4a 5c 9f 39 02 2f 17 ba
       -0.0008237665 -2.0529049e-05 0.00030395604 -0.00057671976
000230 c1 17 90 3a c1 17 90 ba f3 5c 30 3a 27 10 7e ba
       0.0010993407 -0.0010993407 0.00067277177 -0.0009691738
000240 8a 10 07 3a 0d 80 9c 3a 0d 80 9c ba bd cb a4 3a
       0.0005152306 0.0011940018 -0.0011940018 0.0012572926
000250 10 90 8d ba 09 69 19 3a 3f a9 43 3a 3f a9 43 ba
       -0.001080038 0.0005852138 0.00074638793 -0.00074638793
000260 16 40 d4 39 47 97 96 39 2c e1 0b ba 2a f6 ee 39
       0.0004048354 0.0002872294 -0.00053359824 0.00045578304
000270 2a f6 ee b9 d1 44 17 3a 28 39 ae 39 03 b8 f7 b9
       -0.00045578304 0.00057704473 0.0003323045 -0.0004724861
000280 f0 ba 78 39 f0 ba 78 b9 54 0d 09 3a 2a d2 96 ba
       0.00023720763 -0.00023720763 0.00052281213 -0.0011506726
000290 eb e8 81 3a c2 9d d5 39 c2 9d d5 b9 df 70 f3 39
       0.0009911334 0.00040744065 -0.00040744065 0.00046432667
0002a0 1a 49 55 b8 ba e2 cb b8 e2 3a ce b9 e2 3a ce 39
       -5.085124e-05 -9.7220254e-05 -0.00039335253 0.00039335253
0002b0 f2 a9 1d ba b1 81 a7 39 02 92 26 b9 d7 5e b2 3a
       -0.00060143985 0.0003194935 -0.00015885386 0.0013608587
0002c0 d7 5e b2 ba 19 34 55 3a 97 41 40 ba d6 c8 53 39
       -0.0013608587 0.00081330683 -0.00073339924 0.00020197345
0002d0 08 55 d2 37 08 55 d2 b7 96 5c 68 38 18 d4 c0 36
       2.5073547e-05 -2.5073547e-05 5.5399338e-05 5.746737e-06
0002e0 de 8c 6f b7 5e 70 28 3a 5e 70 28 ba 6d 36 14 39
       -1.4278308e-05 0.00064254354 -0.00064254354 0.00014134655
0002f0 d0 f0 33 ba a5 a9 d8 39 6f d7 57 3a 6f d7 57 ba
       -0.0006864192 0.00041325125 0.0008233701 -0.0008233701
000300 46 c2 25 b9 e0 7b d1 b9 88 b1 a9 38 6b 5c f8 b8
       -0.00015807999 -0.0003995588 8.091616e-05 -0.00011842776
000310 6b 5c f8 38 b4 c9 d7 b9 52 73 ad b9 88 29 b8 39
       0.00011842776 -0.00041158276 -0.00033083052 0.00035126158
000320 98 bc 24 3a 98 bc 24 ba b5 22 02 3a 1d a4 86 ba
       0.0006284206 -0.0006284206 0.0004964278 -0.0010272298
000330 d3 24 41 3a d1 10 91 3a d1 10 91 ba 4d c0 d1 39
       0.0007367853 0.0011067634 -0.0011067634 0.00040006862
000340 06 99 74 ba e8 0d fb 39 fa f7 39 b9 fa f7 39 39
       -0.00093306636 0.00047884812 -0.00017735353 0.00017735353
000350 f3 7c f9 b8 35 6e 17 b9 4d 97 4f 39 da 14 f7 39
       -0.00011896519 -0.00014441537 0.00019797422 0.00047127047
000360 da 14 f7 b9 f5 52 08 b9 0d 58 72 ba 55 9a 36 3a
       -0.00047127047 -0.00013000875 -0.0009244688 0.0006965746
000370 55 b5 13 3a 55 b5 13 ba 93 c1 8c 39 a4 79 54 b7
       0.00056346256 -0.00056346256 0.00026847105 -1.2664506e-05
000380 34 7c 45 b9 1f e0 16 b9 1f e0 16 39 c9 01 a8 38
       -0.00018833653 -0.00014388606 0.00014388606 8.011197e-05
000390 d0 55 4c b9 69 91 74 39 be 38 40 3a be 38 40 ba
       -0.00019486924 0.00023323823 0.0007332674 -0.0007332674
0003a0 39 af 05 39 be 66 00 ba a3 db 4e 39 1a 32 1d 3a
       0.00012749144 -0.0004898122 0.00019727512 0.00059965404
0003b0 1a 32 1d ba f0 2b 8c 39 76 34 48 ba a4 43 03 3a
       -0.00059965404 0.00026735617 -0.0007637212 0.00050073327
0003c0 5f f1 8d b9 5f f1 8d 39 9f fd df b7 94 84 bf b9
       -0.0002707345 0.0002707345 -2.6701773e-05 -0.00036529137
0003d0 70 6a e5 39 98 28 a3 b8 98 28 a3 38 ba 77 6d ba
       0.00043757586 -7.780007e-05 7.780007e-05 -0.0009058673
0003e0 a5 ca 9f ba 30 f6 98 3a 4b fd 01 3a 4b fd 01 ba
       -0.001219113 0.0011670049 0.0004958703 -0.0004958703
0003f0 16 fe 11 3a 3b c6 b8 b9 61 a8 20 39 88 8a d3 39
       0.0005569173 -0.00035242908 0.00015321515 0.0004034827

exp_avg_sq f4 [256, 5]
000000 1f 93 46 34 1f 93 46 34 24 9c a3 34 2c dd 37 34
       1.849371e-07 1.849371e-07 3.0474723e-07 1.7123665e-07
000010 ea 0b 8e 34 39 1b bf 31 39 1b bf 31 98 6c d1 32
       2.645823e-07 5.5619265e-09 5.5619265e-09 2.4380185e-08
000020 12 da f7 31 c3 48 60 31 9e 44 de 33 9e 44 de 33
       7.213438e-09 3.263765e-09 1.0350162e-07 1.0350162e-07
000030 d5 55 8a 33 f4 79 32 33 49 fd 4e 32 0d c8 a4 32
       6.4417385e-08 4.155477e-08 1.20483685e-08 1.9183085e-08
000040 0d c8 a4 32 dd 2f 93 33 af 63 0f 34 f2 26 cb 33
       1.9183085e-08 6.853927e-08 1.3354177e-07 9.460008e-08
000050 7b d8 a9 32 7b d8 a9 32 df 34 ab 33 da 7c 5f 33
       1.9772633e-08 1.9772633e-08 7.972425e-08 5.2034785e-08
000060 3b 88 3d 33 9c 56 f4 2f 9c 56 f4 2f 33 ed c0 30
       4.4128893e-08 4.444488e-10 4.444488e-10 1.4037255e-09
000070 42 ff 13 30 a9 46 c2 2f 2a 0b 76 34 2a 0b 76 34
       5.384103e-10 3.5338601e-10 2.2914597e-07 2.2914597e-07
000080 a4 57 a0 33 88 28 64 32 68 aa 09 33 17 ea 1c 32
       7.466522e-08 1.3280562e-08 3.205278e-08 9.133621e-09
000090 17 ea 1c 32 b5 93 51 33 b0 11 23 33 77 67 28 33
       9.133621e-09 4.8795943e-08 3.796748e-08 3.920965e-08
0000a0 f8 56 f6 33 f8 56 f6 33 d8 6e 0a 35 0f 43 c6 34
       1.1471087e-07 1.1471087e-07 5.1570305e-07 3.6929166e-07
0000b0 ee 72 62 34 ad 7e 03 34 ad 7e 03 34 8a 34 7f 33
       2.1089701e-07 1.224641e-07 1.224641e-07 5.9419598e-08
0000c0 ac e5 3c 32 a4 7c 09 33 69 25 b3 34 69 25 b3 34
       1.0995262e-08 3.2011158e-08 3.3368568e-07 3.3368568e-07
0000d0 9a 0a 95 34 49 5d 8c 34 37 d3 ac 33 40 93 04 33
       2.7761126e-07 2.6144906e-07 8.047794e-08 3.0867568e-08
0000e0 40 93 04 33 db e4 1d 34 c4 7a 8f 33 c7 d9 bc 33
       3.0867568e-08 1.4705022e-07 6.681287e-08 8.794046e-08
0000f0 d8 25 23 33 d8 25 23 33 31 cd 10 33 b3 25 41 33
       3.7985814e-08 3.7985814e-08 3.3714233e-08 4.49706e-08
000100 90 c1 92 33 4c 9a 60 32 4c 9a 60 32 2b 97 8f 33
       6.8338636e-08 1.3073599e-08 1.3073599e-08 6.686454e-08
000110 62 bf 7b 33 71 a3 24 33 a1 c6 07 34 a1 c6 07 34
       5.8614553e-08 3.8332875e-08 1.2645116e-07 1.2645116e-07
000120 f4 a2 12 34 e8 63 f8 32 90 1d 70 33 d6 bd 93 34
       1.3656592e-07 2.8916432e-08 5.590624e-08 2.7519008e-07
000130 d6 bd 93 34 e9 1b 81 33 aa b9 0d 33 9e 12 8b 33
       2.7519008e-07 6.0121074e-08 3.299798e-08 6.476078e-08
000140 58 37 d6 34 58 37 d6 34 05 28 2c 35 71 9c 7b 33
       3.9900874e-07 3.9900874e-07 6.413323e-07 5.8582774e-08
000150 f7 1c 3e 34 d4 16 c2 31 d4 16 c2 31 fb ea 98 32
       1.7705666e-07 5.6487384e-09 5.6487384e-09 1.7801986e-08
000160 a9 31 84 32 e8 86 7f 32 2b 47 19 32 2b 47 19 32
       1.5389405e-08 1.4873628e-08 8.921954e-09 8.921954e-09
000170 33 b6 36 33 84 12 89 32 44 67 00 32 ab 94 a1 2f
       4.2540886e-08 1.5957319e-08 7.4740605e-09 2.9391364e-10
000180 ab 94 a1 2f ce 63 8a 31 a9 8d 6e 31 85 4b 59 31
       2.9391364e-10 4.027675e-09 3.4714083e-09 3.1620584e-09
000190 b2 82 ba 32 b2 82 ba 32 9d 6e 69 33 28 82 7c 33
       2.1712683e-08 2.1712683e-08 5.4350142e-08 5.87917e-08
0001a0 51 f7 9c 33 43 b2 27 33 43 b2 27 33 15 d2 91 33
       7.309303e-08 3.9044846e-08 3.9044846e-08 6.7903024e-08
0001b0 1b aa 86 32 60 c3 07 32 2a f9 ef 33 2a f9 ef 33
       1.5677008e-08 7.902457e-09 1.11746274e-07 1.11746274e-07
0001c0 48 cf 18 35 a4 53 8e 34 85 7a 11 34 51 38 a9 33
       5.6926046e-07 2.6510418e-07 1.354875e-07 7.87992e-08
0001d0 51 38 a9 33 dd 2e d1 34 bc 3b 3c 34 42 48 d4 33
       7.87992e-08 3.896338e-07 1.7530596e-07 9.885163e-08
0001e0 d1 01 b7 33 d1 01 b7 33 fc 8a e3 33 b0 39 25 34
       8.521932e-08 8.521932e-08 1.0595792e-07 1.5387809e-07
0001f0 0c 35 95 33 ff 48 af 31 ff 48 af 31 b8 21 f0 32
       6.948002e-08 5.101469e-09 5.101469e-09 2.795501e-08
000200 ce e3 7a 32 67 ed 0c 32 46 66 dc 33 46 66 dc 33
       1.4603712e-08 8.203052e-09 1.0263152e-07 1.0263152e-07
000210 c4 4a 25 34 94 2e 58 33 9f 30 9d 33 c0 5c b1 33
       1.5394022e-07 5.033378e-08 7.319726e-08 8.259076e-08
000220 c0 5c b1 33 aa aa a5 32 66 d8 06 33 17 4b 65 33
       8.259076e-08 1.9286137e-08 3.139612e-08 5.338651e-08
000230 2c bf 04 34 2c bf 04 34 7c e8 e4 33 cf 03 32 34
       1.2363006e-07 1.2363006e-07 1.0659366e-07 1.6578927e-07
000240 89 f4 8f 33 7f 30 63 34 7f 30 63 34 67 9a ca 34
       6.703437e-08 2.1158665e-07 2.1158665e-07 3.7737775e-07
000250 d1 09 96 34 38 52 f1 33 e0 c8 39 33 e0 c8 39 33
       2.794682e-07 1.12373925e-07 4.3256364e-08 4.3256364e-08
000260 e7 10 0b 33 3d c0 49 32 e2 5b 7b 32 53 64 a3 33
       3.2378832e-08 1.174345e-08 1.4631015e-08 7.608528e-08
000270 53 64 a3 33 0c 31 9e 34 aa 8e f1 33 e3 74 79 33
       7.608528e-08 2.946548e-07 1.12483875e-07 5.8081138e-08
000280 9b e7 be 32 9b e7 be 32 54 fa d1 33 3f 0e 4a 34
       2.2224233e-08 2.2224233e-08 9.777855e-08 1.8817899e-07
000290 49 e4 0f 34 1f 25 6d 32 1f 25 6d 32 d8 c3 12 33
       1.3400962e-07 1.3803656e-08 1.3803656e-08 3.4171393e-08
0002a0 62 58 62 32 b1 46 c2 31 03 ce 96 32 03 ce 96 32
       1.3175027e-08 5.65418e-09 1.7555982e-08 1.7555982e-08
0002b0 57 00 e7 33 e4 f2 01 33 3e 7e 78 32 64 76 b7 34
       1.07568376e-07 3.025606e-08 1.4464204e-08 3.4172547e-07
0002c0 64 76 b7 34 5c 6d 31 34 02 98 f7 33 fa 8e 03 33
       3.4172547e-07 1.6524194e-07 1.1529484e-07 3.063085e-08
0002d0 dc de d7 2f dc de d7 2f 04 72 79 31 b0 3d 74 31
       3.9266623e-10 3.9266623e-10 3.629908e-09 3.5541738e-09
0002e0 bc 43 53 31 2f 9c d8 32 2f 9c d8 32 50 7d 21 31
       3.0743044e-09 2.5216734e-08 2.5216734e-08 2.3499815e-09
0002f0 71 74 15 33 83 45 72 32 7e 63 95 33 7e 63 95 33
       3.479767e-08 1.4102059e-08 6.956451e-08 6.956451e-08
000300 51 05 3b 32 58 b4 b0 32 af ef 7f 31 d0 a0 0e 30
       1.0886041e-08 2.0571107e-08 3.7243628e-09 5.188783e-10
000310 d0 a0 0e 30 6f 5f 26 32 f7 72 65 32 43 f8 56 32
       5.188783e-10 9.684171e-09 1.3355694e-08 1.2512888e-08
000320 3a be 54 33 3a be 54 33 16 53 d2 33 92 12 55 34
       4.9533107e-08 4.9533107e-08 9.794e-08 1.9843927e-07
000330 e4 b6 fc 33 ea 3f 2d 34 ea 3f 2d 34 ff 6c ab 32
       1.1767932e-07 1.6135132e-07 1.6135132e-07 1.9956586e-08
000340 8d 31 be 33 15 6d b4 32 c5 ea d8 30 c5 ea d8 30
       8.856578e-08 2.1004363e-08 1.5782794e-09 1.5782794e-09
000350 e4 bc 2e 31 1e 80 0c 31 b6 1a 33 31 5d df 5a 33
       2.5427704e-09 2.0445508e-09 2.6063112e-09 5.0960228e-08
000360 5d df 5a 33 38 7a 35 34 f6 49 a4 34 71 4f 57 34
       5.0960228e-08 1.6901402e-07 3.0601194e-07 2.0052336e-07
000370 e7 ee 54 33 e7 ee 54 33 dd d4 da 33 cb 2f 3a 33
       4.9577377e-08 4.9577377e-08 1.0190136e-07 4.3349967e-08
000380 f5 27 9f 32 46 d4 57 31 46 d4 57 31 fa 2c 71 32
       1.8528207e-08 3.1407281e-09 3.1407281e-09 1.4038273e-08
000390 49 b9 1f 32 74 37 f4 31 00 17 32 33 00 17 32 33
       9.297147e-09 7.107639e-09 4.1464773e-08 4.1464773e-08
0003a0 50 11 03 32 93 34 b7 32 b3 d9 a4 31 49 0e 81 33
       7.62914e-09 2.1327912e-08 4.7977777e-09 6.009629e-08
0003b0 49 0e 81 33 84 6e 24 34 19 3a 29 34 68 6e b1 33
       6.009629e-08 1.5313896e-07 1.5760487e-07 8.2622876e-08
0003c0 50 12 4d 32 50 12 4d 32 f5 dc 3a 33 22 34 05 33
       1.1936734e-08 1.1936734e-08 4.350746e-08 3.101389e-08
0003d0 29 bb e0 32 93 fe 94 32 93 fe 94 32 9e bb 17 34
       2.6162143e-08 1.7345235e-08 1.7345235e-08 1.4131226e-07
0003e0 b2 23 c2 34 f2 9f bd 34 75 b3 cf 32 75 b3 cf 32
       3.6161288e-07 3.532037e-07 2.417958e-08 2.417958e-08
0003f0 f8 a1 63 33 02 ec 01 33 57 a8 4f 32 ad 4f 89 32
       5.2999866e-08 3.02498e-08 1.2087262e-08 1.5985131e-08

exp_avg f4 [256, 64]
000000 00 00 00 00 00 00 00 00 00 00 00 00 00 00 00 00
       0.0 0.0 0.0 0.0
000010 00 00 00 00 00 00 00 00 00 00 00 00 00 00 00 00
       0.0 0.0 0.0 0.0
000020 00 00 00 00 00 00 00 00 00 00 00 00 00 00 00 00
       0.0 0.0 0.0 0.0
000030 00 00 00 00 00 00 00 00 00 00 00 00 00 00 00 00
       0.0 0.0 0.0 0.0
000040 00 00 00 00 00 00 00 00 00 00 00 00 00 00 00 00
       0.0 0.0 0.0 0.0
000050 00 00 00 00 00 00 00 00 00 00 00 00 00 00 00 00
       0.0 0.0 0.0 0.0
000060 00 00 00 00 00 00 00 00 00 00 00 00 00 00 00 00
       0.0 0.0 0.0 0.0
000070 00 00 00 00 00 00 00 00 00 00 00 00 00 00 00 00
       0.0 0.0 0.0 0.0
000080 00 00 00 00 00 00 00 00 00 00 00 00 00 00 00 00
       0.0 0.0 0.0 0.0
000090 00 00 00 00 00 00 00 00 00 00 00 00 00 00 00 00
       0.0 0.0 0.0 0.0
0000a0 00 00 00 00 00 00 00 00 00 00 00 00 00 00 00 00
       0.0 0.0 0.0 0.0
0000b0 00 00 00 00 00 00 00 00 00 00 00 00 00 00 00 00
       0.0 0.0 0.0 0.0
0000c0 00 00 00 00 00 00 00 00 00 00 00 00 00 00 00 00
       0.0 0.0 0.0 0.0
0000d0 00 00 00 00 00 00 00 00 00 00 00 00 00 00 00 00
       0.0 0.0 0.0 0.0
0000e0 00 00 00 00 00 00 00 00 00 00 00 00 00 00 00 00
       0.0 0.0 0.0 0.0
0000f0 00 00 00 00 00 00 00 00 00 00 00 00 00 00 00 00
       0.0 0.0 0.0 0.0
000100 00 00 00 00 00 00 00 00 00 00 00 00 00 00 00 00
       0.0 0.0 0.0 0.0
000110 00 00 00 00 00 00 00 00 00 00 00 00 00 00 00 00
       0.0 0.0 0.0 0.0
000120 00 00 00 00 00 00 00 00 00 00 00 00 00 00 00 00
       0.0 0.0 0.0 0.0
000130 00 00 00 00 00 00 00 00 00 00 00 00 00 00 00 00
       0.0 0.0 0.0 0.0
000140 00 00 00 00 00 00 00 00 00 00 00 00 00 00 00 00
       0.0 0.0 0.0 0.0
000150 00 00 00 00 00 00 00 00 00 00 00 00 00 00 00 00
       0.0 0.0 0.0 0.0
000160 00 00 00 00 00 00 00 00 00 00 00 00 00 00 00 00
       0.0 0.0 0.0 0.0
000170 00 00 00 00 00 00 00 00 00 00 00 00 00 00 00 00
       0.0 0.0 0.0 0.0
000180 00 00 00 00 00 00 00 00 00 00 00 00 00 00 00 00
       0.0 0.0 0.0 0.0
000190 00 00 00 00 00 00 00 00 00 00 00 00 00 00 00 00
       0.0 0.0 0.0 0.0
0001a0 00 00 00 00 00 00 00 00 00 00 00 00 00 00 00 00
       0.0 0.0 0.0 0.0
0001b0 00 00 00 00 00 00 00 00 00 00 00 00 00 00 00 00
       0.0 0.0 0.0 0.0
0001c0 00 00 00 00 00 00 00 00 00 00 00 00 00 00 00 00
       0.0 0.0 0.0 0.0
0001d0 00 00 00 00 00 00 00 00 00 00 00 00 00 00 00 00
       0.0 0.0 0.0 0.0
0001e0 00 00 00 00 00 00 00 00 00 00 00 00 00 00 00 00
       0.0 0.0 0.0 0.0
0001f0 00 00 00 00 00 00 00 00 00 00 00 00 00 00 00 00
       0.0 0.0 0.0 0.0
000200 00 00 00 00 00 00 00 00 00 00 00 00 00 00 00 00
       0.0 0.0 0.0 0.0
000210 00 00 00 00 00 00 00 00 00 00 00 00 00 00 00 00
       0.0 0.0 0.0 0.0
000220 00 00 00 00 00 00 00 00 00 00 00 00 00 00 00 00
       0.0 0.0 0.0 0.0
000230 00 00 00 00 00 00 00 00 00 00 00 00 00 00 00 00
       0.0 0.0 0.0 0.0
000240 00 00 00 00 00 00 00 00 00 00 00 00 00 00 00 00
       0.0 0.0 0.0 0.0
000250 00 00 00 00 00 00 00 00 00 00 00 00 00 00 00 00
       0.0 0.0 0.0 0.0
000260 00 00 00 00 00 00 00 00 00 00 00 00 00 00 00 00
       0.0 0.0 0.0 0.0
000270 00 00 00 00 00 00 00 00 00 00 00 00 00 00 00 00
       0.0 0.0 0.0 0.0
000280 00 00 00 00 00 00 00 00 00 00 00 00 00 00 00 00
       0.0 0.0 0.0 0.0
000290 00 00 00 00 00 00 00 00 00 00 00 00 00 00 00 00
       0.0 0.0 0.0 0.0
0002a0 00 00 00 00 00 00 00 00 00 00 00 00 00 00 00 00
       0.0 0.0 0.0 0.0
0002b0 00 00 00 00 00 00 00 00 00 00 00 00 00 00 00 00
       0.0 0.0 0.0 0.0
0002c0 00 00 00 00 00 00 00 00 00 00 00 00 00 00 00 00
       0.0 0.0 0.0 0.0
0002d0 00 00 00 00 00 00 00 00 00 00 00 00 00 00 00 00
       0.0 0.0 0.0 0.0
0002e0 00 00 00 00 00 00 00 00 00 00 00 00 00 00 00 00
       0.0 0.0 0.0 0.0
0002f0 00 00 00 00 00 00 00 00 00 00 00 00 00 00 00 00
       0.0 0.0 0.0 0.0
000300 00 00 00 00 00 00 00 00 00 00 00 00 00 00 00 00
       0.0 0.0 0.0 0.0
000310 00 00 00 00 00 00 00 00 00 00 00 00 00 00 00 00
       0.0 0.0 0.0 0.0
000320 00 00 00 00 00 00 00 00 00 00 00 00 00 00 00 00
       0.0 0.0 0.0 0.0
000330 00 00 00 00 00 00 00 00 00 00 00 00 00 00 00 00
       0.0 0.0 0.0 0.0
000340 00 00 00 00 00 00 00 00 00 00 00 00 00 00 00 00
       0.0 0.0 0.0 0.0
000350 00 00 00 00 00 00 00 00 00 00 00 00 00 00 00 00
       0.0 0.0 0.0 0.0
000360 00 00 00 00 00 00 00 00 00 00 00 00 00 00 00 00
       0.0 0.0 0.0 0.0
000370 00 00 00 00 00 00 00 00 00 00 00 00 00 00 00 00
       0.0 0.0 0.0 0.0
000380 00 00 00 00 00 00 00 00 00 00 00 00 00 00 00 00
       0.0 0.0 0.0 0.0
000390 00 00 00 00 00 00 00 00 00 00 00 00 00 00 00 00
       0.0 0.0 0.0 0.0
0003a0 00 00 00 00 00 00 00 00 00 00 00 00 00 00 00 00
       0.0 0.0 0.0 0.0
0003b0 00 00 00 00 00 00 00 00 00 00 00 00 00 00 00 00
       0.0 0.0 0.0 0.0
0003c0 00 00 00 00 00 00 00 00 00 00 00 00 00 00 00 00
       0.0 0.0 0.0 0.0
0003d0 00 00 00 00 00 00 00 00 00 00 00 00 00 00 00 00
       0.0 0.0 0.0 0.0
0003e0 00 00 00 00 00 00 00 00 00 00 00 00 00 00 00 00
       0.0 0.0 0.0 0.0
0003f0 00 00 00 00 00 00 00 00 00 00 00 00 00 00 00 00
       0.0 0.0 0.0 0.0
