lightning_logs/version_66/checkpoints/epoch=9-step=810.ckpt (torch, 227860 bytes, 15 tensors)

lstm.weight_ih_l0 f4 [256, 5]
000000 88 c6 b4 bc c7 bb ec 3d a7 7f 25 3f 65 c9 42 3e
       -0.022067323 0.11559253 0.64647907 0.19022138
000010 58 ae a4 be 4e 52 79 be fa a6 a6 3e bf 87 fd 3d
       -0.32164264 -0.24347803 0.32549268 0.12379407
000020 9c df 65 3e 38 9d b8 be ef fb 0b be 60 d3 a5 bd
       0.22448581 -0.36057448 -0.13670324 -0.08096957
000030 e2 69 88 bf 1e e7 c2 be 3f 21 6a be 51 17 68 be
       -1.0657313 -0.38066953 -0.22864245 -0.22665145
000040 de 4d 4d 3e a7 df 41 bf 27 04 81 be aa 3a 1d be
       0.20049235 -0.7573189 -0.2519848 -0.1535441
000050 57 7b 83 be 12 69 32 3e 99 db 49 bf 73 a6 cc be
       -0.25680038 0.17422894 -0.78850704 -0.3997074
000060 1d 33 81 3d 0d 86 81 3d 05 d1 9b 3d e9 95 12 3f
       0.06308577 0.06324396 0.07608227 0.57259995
000070 47 db 68 3e 02 93 5c be 79 5c 4f be a8 16 6c 3d
       0.22739898 -0.21540454 -0.2025012 0.057638794
000080 28 55 30 bf 48 41 fe 3e 66 1b 75 be 59 df 60 be
       -0.6887994 0.4965918 -0.23936233 -0.219602
000090 1e 7e 74 3e f7 34 5a bf 5c 0e 7e be a0 4d a0 3d
       0.23876235 -0.8523707 -0.24810165 0.07827306
0000a0 62 ab 10 3f 8d f3 ca be b0 05 5b 3f ab f8 90 3e
       0.5651151 -0.3963894 0.85555553 0.2831472
0000b0 3d a4 0f 3c b4 5b 1f bd 79 9e 82 3e 3b e0 0d 3f
       0.008767185 -0.038905814 0.2551153 0.55420274
0000c0 aa 24 8d 3e 37 e6 9b be be 4a 38 be 8e fa 0d 3e
       0.27567035 -0.30449077 -0.17997262 0.1386511
0000d0 96 43 6e bf 97 cd e7 bd 72 a4 4b be f9 e3 07 3f
       -0.9307188 -0.1131851 -0.1988695 0.53082234
0000e0 9d c6 c9 be b9 92 4a 3f ca 40 a9 3e 34 c2 f4 bc
       -0.39409342 0.7913013 0.33057243 -0.02987776
0000f0 52 39 9c 3e f4 70 45 be 50 d1 58 3f 14 1b 9e 3e
       0.30512482 -0.1928137 0.84694386 0.30880034
000100 ec 60 97 be 88 d5 68 bd b6 bf ed bc 0e ea 4d 3f
       -0.29566133 -0.056844264 -0.029022079 0.80435264
000110 8d 64 5e 3e b8 a5 40 3e 9f e8 c3 be 82 f9 bd 3d
       0.21718045 0.18813217 -0.38263413 0.092761055
000120 68 01 7e bf af 12 d4 be 37 33 5c 3e ba 79 de 3c
       -0.99220896 -0.41420504 0.21503912 0.027157653
000130 a7 b6 2c 3e 53 2d 12 3f d7 ef df 3e 20 a3 51 3e
       0.16866551 0.5710041 0.4373767 0.20472383
000140 83 e9 af be 3d 95 74 3e 45 95 42 bf 20 51 2d be
       -0.34357843 0.23885055 -0.7600902 -0.16925478
000150 31 dd a3 bd 42 f0 f0 3e c5 00 11 bf 2c 3a 52 3f
       -0.08001173 0.47058302 -0.566418 0.82120013
000160 5c cb e5 3e e5 f1 78 bd c1 1b b9 bd e2 88 68 be
       0.44881713 -0.060777564 -0.09038497 -0.22708467
000170 15 b1 6a bf 1a 6a 5a bd 6b e3 9a bd 54 a2 41 be
       -0.91676456 -0.053323843 -0.07562908 -0.1890958
000180 58 6e 98 3e d3 0f 4b bf cc 2c 91 be f9 48 3c be
       0.29771686 -0.7932102 -0.2835449 -0.18387212
000190 54 b7 a6 3e db 30 86 be 70 4a 51 3f a9 13 c9 3e
       0.32561743 -0.2620915 0.8175421 0.39272812
0001a0 f8 a8 e4 bd bf 2a 11 3f bb 98 24 bf f9 ae 57 3f
       -0.11165041 0.5670585 -0.6429555 0.8425136
0001b0 c5 7b 96 3e 2e 2c af 3d a9 71 d9 3e d5 48 65 be
       0.29391304 0.085533485 0.42469528 -0.22391064
0001c0 1a ca 2d 3f 6b 78 90 3e d8 fb 36 3d 68 cc 64 3d
       0.6788651 0.28216872 0.04467377 0.055859
0001d0 19 55 09 3e a7 f6 3e 3f b6 65 83 3e 89 ec 91 3e
       0.13411368 0.7459511 0.25663537 0.28500775
0001e0 7a c7 a1 be 67 f9 b0 3e 71 73 34 bf 34 4f 16 be
       -0.315975 0.3456528 -0.7048865 -0.14678651
0001f0 38 9e 9f be 33 5e 6e be e2 01 73 3e 5f 5a f6 3e
       -0.311754 -0.23278122 0.23731187 0.48115823
000200 9a 24 c3 3e e0 4a 87 be 68 dc 7a bd ef 68 6b 3e
       0.38113862 -0.26424313 -0.061245352 0.22989248
000210 b8 f9 b3 3e 67 49 a0 3e 4d 53 7a be 1b 7f 36 be
       0.35151458 0.31306002 -0.24445839 -0.17821924
000220 d3 ce d7 3d f8 a6 47 bf cd 91 b2 be 5c ad 56 3d
       0.105374955 -0.7798915 -0.34876862 0.052411422
000230 ca 53 f0 3e 7a 2c e8 be 37 2c 43 3f 84 ab b8 3e
       0.46938926 -0.45346433 0.7623934 0.36068356
000240 55 3d 57 be d7 23 98 bd 6d 02 4e 3e 82 c5 08 bf
       -0.2101949 -0.07428711 0.20118113 -0.53426373
000250 ff 9b 44 3c fa 1b 62 be 14 ce 13 3e b4 81 f0 3d
       0.012000083 -0.22080985 0.14434081 0.11743489
000260 77 ff 40 3f 3c c2 9e 3e 11 82 2d be db fc df 3e
       0.7538981 0.31007564 -0.16944148 0.437476
000270 76 5a f1 be de 85 68 3f c8 06 52 3e 6a 95 b6 3e
       -0.4713933 0.90829265 0.205104 0.3566087
000280 64 fc a5 3e bf 75 73 be 63 cf 20 3f 73 fc b3 3e
       0.3241912 -0.23775385 0.62816447 0.3515354
000290 33 d5 16 be 10 32 e7 be 79 6e 16 3e 8e 86 83 bf
       -0.14729767 -0.45155382 0.1469058 -1.0275438
0002a0 f0 1a 07 bf 9e ba 6b bb db f2 f7 3e 64 78 b6 be
       -0.5277548 -0.0035969387 0.48427472 -0.35638726
0002b0 6c 9b 4b 3f 7d 2a a2 3e 1f ca 40 bc 76 ca 85 be
       0.7953403 0.3167304 -0.011766939 -0.26131028
0002c0 8b 6e 4c 3d 6d 1e 4e bf 4a 10 a8 be 93 28 a0 3e
       0.04991011 -0.80515176 -0.32824928 0.31280956
0002d0 76 23 10 3d 2e 7d 33 bd 7d ed 24 3f df 8d 8e 3e
       0.03519007 -0.043820553 0.6442488 0.27842614
0002e0 0d 47 b8 bd 84 e8 28 3d 56 f2 4e 3e 45 03 17 3f
       -0.08997927 0.04123737 0.20209631 0.58989364
0002f0 93 d7 8f 3e 38 32 86 be 9a d1 46 3e 20 9b fa bb
       0.28094158 -0.2621019 0.19415894 -0.007647887
000300 57 3b 35 3f ee 6c 94 3e 4a af 8b be ad 7e 86 be
       0.7079367 0.28989357 -0.27282172 -0.2626852
000310 13 96 c9 bd 5e d6 85 bf cd a2 c8 be 27 68 c4 3e
       -0.098430775 -1.0456045 -0.39186707 0.38360712
000320 4d 3c c0 be b9 f8 28 3e f5 bd 28 bf 7e 99 b5 be
       -0.37546006 0.1650113 -0.6591485 -0.35468668
000330 32 7d 2a 3e 97 f4 25 be 87 d6 50 3e 3c f6 1c bf
       0.1664932 -0.16206585 0.20394336 -0.61313224
000340 e6 ed 9f bc 70 1b 55 be 69 7b 77 be 2b 9c 9e 3e
       -0.019522619 -0.20811248 -0.24168171 0.30978522
000350 71 a6 3b bf 2e 3d 4f be 05 4a 77 be 50 17 5c 3d
       -0.73300844 -0.20238182 -0.2414933 0.05373317
000360 13 d7 ee 3d 42 fb c1 3e 9d 4f 6b 3e 82 22 48 be
       0.11662116 0.37887007 0.22979589 -0.19544414
000370 bb a0 de bc e4 12 f4 3d ee 50 00 3f 8e 88 9b 3e
       -0.027176252 0.119176656 0.5012349 0.3037762
000380 53 c8 8c be 6d c2 77 3e 26 01 bd bd 4f fe 33 3f
       -0.27496585 0.24195261 -0.09228735 0.7030992
000390 46 05 b1 3e b6 00 bb bd 30 60 ad be ce 31 99 bd
       0.34574336 -0.09130995 -0.33862448 -0.074802026
0003a0 6a 4d 66 bf 90 a9 e2 be cb 5e 88 3e 35 3a 8e 3d
       -0.89961874 -0.4426999 0.2663482 0.06944696
0003b0 3b ea e8 bd af db 6c 3f 12 d0 be 3e 05 55 fd 3d
       -0.11372801 0.9252271 0.3726812 0.12369732
0003c0 b3 b6 b2 be 42 f7 75 bc c5 af 7c bf 2c 73 8c be
       -0.34905013 -0.015012564 -0.98705703 -0.2743162
0003d0 25 70 d3 3b 09 25 54 3e e9 e4 27 be 1e aa 51 3f
       0.0064525777 0.20717253 -0.16395916 0.81900203
0003e0 78 e0 8e 3e 28 55 9a be a7 77 12 bc 78 b7 7e 3e
       0.2790563 -0.30143094 -0.00893966 0.24874675
0003f0 85 83 42 3f c7 57 36 3e dd 14 43 3e 2d e7 b7 be
       0.7598193 0.17806922 0.19050927 -0.3591856

lstm.weight_hh_l0 f4 [256, 64]
000000 f6 79 9d 3d e8 8e 67 bd c2 c5 92 3d 60 40 d2 3d
       0.07689278 -0.05653277 0.071666256 0.10266185
000010 a0 03 e4 bd dc 08 b1 bd 18 d9 3b bd 00 ce 69 3b
       -0.11133504 -0.08644268 -0.045861334 0.0035675764
000020 94 6b bf bd 70 e6 13 3c a8 32 8c 3c 40 74 73 3b
       -0.09346691 0.009027109 0.017113999 0.0037148148
000030 6c a8 74 bd 08 00 09 bd aa c9 ca bd 12 d3 a3 3d
       -0.059730932 -0.033447295 -0.099017456 0.07999243
000040 3c 82 fd bd be 68 c2 bd e0 3c 69 3c 18 31 d4 bc
       -0.12378356 -0.09492634 0.014235705 -0.025902316
000050 a6 65 db bd aa f2 b2 bd 70 5c 29 3d ec 16 27 bd
       -0.10712747 -0.08737691 0.04134792 -0.040793344
000060 58 f9 ba bc a8 d6 18 3d 00 b0 c0 b9 38 2d 81 bc
       -0.022823974 0.037314087 -0.00036752224 -0.015768632
000070 80 c7 66 bc 72 e8 fb bd 10 02 a7 bd 20 f1 f1 bd
       -0.01408565 -0.12300195 -0.0815469 -0.11813569
000080 5a a7 88 3d c0 49 04 3b 14 d1 6e 3d e0 d3 e0 bd
       0.06672545 0.002018556 0.05830486 -0.10977912
000090 00 00 20 b6 e6 64 ec 3d 94 af d4 bd 04 b1 93 bd
       -2.3841858e-06 0.11542682 -0.10385051 -0.072114974
0000a0 40 2d 65 3d 44 57 47 bd 78 03 02 bd c4 e8 e6 3d
       0.055951357 -0.048667207 -0.03174159 0.11274865
0000b0 d4 53 e8 3d 8a 41 fa bd fc 15 c4 bd 62 27 f7 bd
       0.11344114 -0.12219532 -0.09574506 -0.120680586
0000c0 20 72 c3 3d 50 a1 81 3c 38 0c 2e 3d 80 ea bb bd
       0.09543252 0.01582399 0.04249212 -0.09175587
0000d0 c4 e4 b5 3d b8 c1 d6 3d c4 d0 13 bd 08 06 d1 3c
       0.08881524 0.10486168 -0.036087766 0.025515571
0000e0 02 a2 96 bd e4 2f 61 3d 86 e7 c7 3d 00 cf 13 3b
       -0.07355119 0.054977313 0.097609565 0.0022553802
0000f0 18 84 a4 3d 44 8b d0 3d e4 a8 98 3d 44 b9 77 3d
       0.080330074 0.10182813 0.07454088 0.060479417
000100 40 bf a5 bc 20 43 6b bd f0 4d 9f 3c b0 32 eb bd
       -0.020232797 -0.057437062 0.019446343 -0.11484277
000110 d0 07 78 3c ec 36 4e 3d 4e cc 97 3d 82 c4 88 3d
       0.015138581 0.050345346 0.07412015 0.06678106
000120 b6 c7 93 3d a8 f8 27 3d 00 aa 18 bd b4 c7 bc bd
       0.07215826 0.04100862 -0.0372715 -0.09217778
000130 c8 88 e2 bd 60 7a c2 bc 20 9b 4f bc e6 b3 d3 bd
       -0.11061245 -0.023739994 -0.012671262 -0.10337047
000140 2c 7c 2d 3d 28 85 39 3d 00 a0 2a 3b 3a a7 e1 3d
       0.042354748 0.045293003 0.002603531 0.11018224
000150 62 80 9d bd 42 d4 a4 bd d0 8a e6 bc f8 22 99 bc
       -0.07690503 -0.080482975 -0.028142363 -0.018693432
000160 98 9e cd bd 8c 27 c7 3d 90 1a 11 3c 80 60 bd 3d
       -0.10040015 0.0972434 0.008856431 0.092469215
000170 f4 3d 96 3d 80 e2 fd 3c 80 ac b9 3d 78 15 f5 3d
       0.07336035 0.030991793 0.09066105 0.119669855
000180 a4 3f 4b 3d 06 7b f6 3d c0 37 70 bc 6e 5c 87 bd
       0.04962124 0.120351836 -0.014661729 -0.066094264
000190 20 0b fb 3d 30 3a 50 3d 00 86 2e 3d 80 ad 8a ba
       0.12257981 0.050836742 0.04260826 -0.0010580271
0001a0 50 f9 6d 3d d8 bd f2 bd 38 fe cc 3c 70 06 f7 bc
       0.05809909 -0.11852616 0.025023565 -0.030154437
0001b0 3e 61 d4 3d 7c 9d 58 bd e0 3a df 3c 64 68 ae 3d
       0.1037011 -0.052884564 0.027249753 0.08516005
0001c0 1c 4e 28 3d 80 3e c0 3c f0 c3 e0 bd d0 50 a1 3c
       0.041090116 0.023467302 -0.10974872 0.019691855
0001d0 a4 4a 9a 3d 18 73 09 bd 52 bf da bd 78 c9 80 bc
       0.07533768 -0.033557028 -0.10681023 -0.015721068
0001e0 08 37 b3 3d f0 f4 df bc 68 d9 0b bd 06 fe f3 bd
       0.08750731 -0.027338475 -0.03414288 -0.119136855
0001f0 e0 d5 ed 3b 34 01 74 3d 8a 69 ea 3d b6 e1 8e 3d
       0.007258162 0.05957146 0.11445911 0.06976645
000200 80 a8 9e 3b 00 28 b3 3d d2 b9 d5 bd 84 8b 74 bd
       0.004841864 0.08747864 -0.10435833 -0.059703365
000210 b8 bd e9 3d f8 a6 47 bd 20 f9 21 bd ec df 55 bd
       0.11413139 -0.04874322 -0.039544225 -0.0522155
000220 00 dd af 3d a0 6f ad 3b 7e a2 c9 bd 5a 84 e2 3d
       0.08587074 0.0052928478 -0.09845446 0.110604
000230 0c 8a 12 bd 20 87 26 3d ac 66 b1 3d d0 30 49 bd
       -0.035776183 0.04065621 0.08662161 -0.049118817
000240 aa 9a ac bd e8 8c 0f bd 18 75 14 bd c4 8f ba bd
       -0.08427937 -0.035046488 -0.03624448 -0.09109452
000250 24 7e 3d bd 60 7f f3 3c 64 4a c8 3d 78 e1 4f 3d
       -0.046262875 0.029723823 0.09779814 0.050752133
000260 14 57 06 bd 74 86 df 3d 80 35 b2 ba 60 dd cf 3c
       -0.032797888 0.10914317 -0.0013596267 0.025374115
000270 70 48 c0 3d 28 2e 70 3d ec 66 d0 3d 3e 31 9e 3d
       0.09388816 0.058637768 0.10175881 0.07724236
000280 74 2d f3 3d ce 1c ca 3d 08 b9 29 3d ac 49 6d 3d
       0.11873904 0.09868775 0.041436225 0.057931587
000290 70 c1 23 bc f8 3a ac 3d ea cb ec 3d cc 45 c3 3d
       -0.00999485 0.08409685 0.11562331 0.09534797
0002a0 a8 86 0c bd ec 44 87 3d ce ad 9e 3d 12 a7 be bd
       -0.034308106 0.06604943 0.07747994 -0.0930921
0002b0 98 37 e3 3d 00 cc 27 3c 94 b9 4d 3d 18 51 01 bd
       0.11094588 0.0102415085 0.05022581 -0.031571478
0002c0 d4 e0 49 bd 50 b5 56 bd 14 05 91 3d a0 85 09 3c
       -0.04928668 -0.052419007 0.07081047 0.008393675
0002d0 c0 0a 01 bc b6 17 af 3d b4 73 5e bd 60 8f 5c bd
       -0.007876098 0.085494444 -0.05430956 -0.05384767
0002e0 8a 1b 9d 3d 12 36 ac 3d e0 9d 06 3d 7e dd d9 bd
       0.07671268 0.084087506 0.032865405 -0.106379494
0002f0 5e 8f b9 3d 52 14 c1 3d e0 0d 93 bc 04 1e 03 bd
       0.09060548 0.09427704 -0.017950952 -0.032011047
000300 fc f0 19 3d ac 69 46 bd 8e 6a b2 bd 54 8e c5 bd
       0.037583336 -0.04844062 -0.0871173 -0.096462876
000310 c2 9f cf bd 8a 88 c2 3d 48 ba 4a 3d 70 51 9a bc
       -0.10137893 0.09498699 0.049494058 -0.01883766
000320 b8 4c c0 bd 2a 2c f4 bd e4 60 fa bd a8 94 5b 3d
       -0.09389633 -0.11922486 -0.12225512 0.053608567
000330 20 62 62 bc 88 a2 74 bd 40 1e 23 3d 70 38 fe bc
       -0.01381734 -0.059725314 0.03982377 -0.03103277
000340 00 f3 04 3a 28 25 3f bd ca ca de 3d 9c ed 54 bd
       0.000507161 -0.046666294 0.10878523 -0.051984414
000350 86 a4 93 3d a0 c4 27 bd 9c 73 0e 3d 90 01 0d 3d
       0.07209115 -0.040959 0.034778222 0.03442532
000360 fc 2f 52 3d 86 44 c3 bd b8 18 81 3d 2c dd 76 3d
       0.051315293 -0.09534554 0.06303543 0.06026952
000370 de 30 85 bd 50 3e 2e 3d 6c ed 49 3d 34 64 56 bd
       -0.06503461 0.042539895 0.04929869 -0.052341655
000380 a0 6c a9 bc 80 1f cb 3b 58 8d c5 bd a6 f1 a8 3d
       -0.02068168 0.0061988235 -0.096461 0.08249216
000390 70 fb 6a bd b4 ea a5 bd d0 47 b8 bd c0 31 a6 bd
       -0.057368696 -0.08101407 -0.08998072 -0.08114958
0003a0 78 5c ee 3c a0 b8 b1 bd 40 0c 8f bd 00 2a d2 b9
       0.029096827 -0.086777925 -0.069847584 -0.00040085614
0003b0 36 56 a6 3d 14 d6 6a bd 50 91 9b bd 3c dc a5 3d
       0.08121912 -0.057333067 -0.075960755 0.08098647
0003c0 14 c6 cf 3d 90 36 0b 3c aa 89 db 3d 4c a9 d3 bd
       0.10145202 0.008496895 0.10719617 -0.10335025
0003d0 ba cd fe 3d a4 a7 7c bd 8e ff c4 3d a8 b3 c6 3d
       0.12441583 -0.061683312 0.09619056 0.097022355
0003e0 fa 8f 95 3d 30 37 d2 bc 40 26 6e 3d 60 69 b5 3d
       0.07302852 -0.025661081 0.058141947 0.08857989
0003f0 f8 ba 8d bc 80 af 2a 3d 28 da bb 3c 5a dd b2 3d
       -0.017301068 0.041671276 0.022931173 0.08733626

lstm.bias_ih_l0 f4 [256]
000000 20 99 a5 3e dc 3d 51 3e 1e b1 98 3e fb e7 98 3e
       0.32343388 0.20433754 0.2982263 0.29864487
000010 73 b9 53 3c 42 e5 97 3e 29 3d b2 3e d7 eb 8c 3e
       0.0129226325 0.29667097 0.34812286 0.27523682
000020 8e 69 18 3f 90 df 49 3e 3d 59 05 3f ef ba f1 3e
       0.59536064 0.19714189 0.5208929 0.47212932
000030 68 00 e1 3e 47 75 08 3f 0f f8 e4 3e 76 0d a6 3e
       0.43945622 0.5330395 0.44720504 0.32432145
000040 10 2d de 3e 3f d1 0c 3f 07 24 ab 3e 86 c6 24 3e
       0.43393755 0.55006784 0.33425924 0.16091356
000050 62 31 06 3f 33 18 13 3f 18 57 f0 3e 74 c7 08 3f
       0.524191 0.574588 0.46941447 0.5342934
000060 0a 59 96 3e e6 67 a5 3e 8e ab 85 3e ef 68 cb 3e
       0.29364806 0.3230583 0.26107448 0.39728495
000070 2d bb 10 3f 91 5c 64 3e 07 ba 99 3e 42 5a a6 3e
       0.5653561 0.22300936 0.3002474 0.32490736
000080 28 b4 a7 3e 83 03 ba 3e 37 2c ec 3e 4b a4 f3 3e
       0.32754636 0.36330804 0.46127483 0.47586283
000090 ab 5f f1 3e 81 3a ad 3e 06 f3 de 3e 26 f6 b4 3e
       0.471433 0.33833697 0.43544787 0.35344046
0000a0 95 0c ee 3d a4 0d e3 3e 00 a1 85 3e a3 4d 85 3e
       0.116234936 0.44346344 0.26099396 0.26035795
0000b0 20 10 b0 3e 35 16 c6 3e e0 77 80 3e f3 96 1f 3f
       0.34387302 0.38688818 0.25091457 0.62339705
0000c0 79 83 e0 3e de da fa 3e ed fa 98 3e 04 c5 ae 3e
       0.43850306 0.48995107 0.2987894 0.34134686
0000d0 84 38 db 3e 59 63 23 3f 83 83 d1 3e a6 69 a4 3e
       0.42816556 0.6382347 0.40920648 0.32111853
0000e0 af 29 14 3f c0 9e ad 3e dd 25 00 3f 9e ff 0f 3e
       0.57876104 0.3391018 0.50057775 0.14062354
0000f0 0d 98 ea 3e 07 26 a9 3e 92 7b ca 3e 63 e1 8c 3e
       0.4581913 0.33036825 0.39547402 0.27515706
000100 a0 ed ee bc 6e 8d ec bd ac 96 5b bd ea 35 86 bd
       -0.029166043 -0.11550413 -0.05361049 -0.06553252
000110 38 34 ee bd 08 6a a7 3d ae fe 89 bd e0 1e e1 bc
       -0.11631054 0.08174521 -0.067380294 -0.027480543
000120 58 dd c3 bd da 51 f7 3d 80 7e 29 3c 98 de c1 bc
       -0.09563702 0.12076159 0.010345101 -0.023665711
000130 54 39 1b 3d 04 0f 3c 3d 70 df 6d 3c 0e ac 8c 3d
       0.03789647 0.045912758 0.014518604 0.06868754
000140 fc f1 af 3d b4 03 fd bd 4e 72 e9 3d 50 10 00 bc
       0.08591077 -0.12354222 0.11398755 -0.007816389
000150 be b6 a0 bd 40 15 c7 bc 2c 38 e2 3d ac 56 90 bd
       -0.07847355 -0.024302125 0.1104587 -0.07047781
000160 40 82 b0 bd ba 85 e8 3d d4 d4 e2 bd 24 42 d9 3d
       -0.08618593 0.11353631 -0.1107575 0.106083184
000170 00 b6 16 3a 10 5b ab 3c e0 71 11 3d d8 32 6d 3d
       0.0005749166 0.020917445 0.03550899 0.057909817
000180 cc 44 b8 bd d8 86 55 bd 68 ee 70 bd 32 b8 da 3d
       -0.08997497 -0.05213055 -0.058821112 0.10679664
000190 f4 e5 3b bd 38 04 93 bd 18 1e 7f 3d 20 be df bd
       -0.045873597 -0.07178539 0.06228456 -0.10924935
0001a0 18 54 26 bd 58 5c 8a 3d 9c db 88 3d 6a 65 96 3d
       -0.04060754 0.067558944 0.06682512 0.07343562
0001b0 68 f4 e2 3d 4c 56 f3 bd 30 27 af bd b6 91 bf 3d
       0.11081773 -0.11881694 -0.08552396 0.09353964
0001c0 7a ec e1 bd 00 15 8d ba 22 6c 94 bd fe 3b 8d 3d
       -0.110314324 -0.0010763705 -0.07247187 0.06896208
0001d0 c0 bd 94 bb 74 8f 2d bd be c8 ee bd 5e 3f df bd
       -0.0045392215 -0.042373136 -0.11659382 -0.10900758
0001e0 16 d6 b2 3d 98 e0 46 3d a4 e6 db 3d e8 e7 e3 3d
       0.0873224 0.048554033 0.107373506 0.11128217
0001f0 36 82 b7 3d 80 86 ac 3d 5a e6 86 3d 00 a4 b5 39
       0.08960383 0.08424091 0.06586905 0.000346452
000200 fd 2e 1a 3e 27 a4 1a 3e 3e d6 69 bc e4 2c 26 3d
       0.15056987 0.15101682 -0.014272271 0.040570155
000210 3a cf d5 bb a8 85 1b be 2d 14 5b 3d 08 3f 0d bc
       -0.0065249475 -0.15187705 0.053486038 -0.008620985
000220 c1 03 bb bd 6e ca 7e 3e 49 b1 19 be b0 4a af bc
       -0.091315754 0.24881908 -0.15009035 -0.021397918
000230 02 68 02 be cf a1 19 3e 87 89 cd bb 60 6c d9 3d
       -0.12734988 0.15003131 -0.006272498 0.10616374
000240 4e 9e 9e 3d cf 86 3b bd 76 11 40 bc 31 cd ea bd
       0.07745038 -0.04578286 -0.011722913 -0.114649184
000250 7a fa ea bc 39 7a 46 bd 3a bc 52 bc 7f 70 1b 3e
       -0.02868389 -0.048456404 -0.0128622595 0.15179633
000260 62 ee 14 3e cf 69 17 3e 06 a7 88 3d 16 38 13 3c
       0.14544061 0.14786457 0.06672482 0.00898554
000270 b3 1b 6f bc d1 5a 06 3e c1 a7 1c 3e 6f d7 81 bd
       -0.014594006 0.13120581 0.15298368 -0.06339919
000280 f0 43 b1 bd 94 62 6a bd cb e0 78 3d bc b0 cb bc
       -0.08655536 -0.057222918 0.060761254 -0.024864547
000290 b5 aa 37 be 9a 43 10 3e 1f 74 46 bd 3e 02 2d be
       -0.17936213 0.14088288 -0.048450585 -0.16895387
0002a0 f6 98 a6 bc 54 19 44 3e ca 63 fb bd 98 3b 2c 3e
       -0.02033661 0.19150287 -0.12274893 0.16819608
0002b0 74 cd 24 be 3f 33 5f bd f2 83 7e 3d fa a9 22 be
       -0.16093999 -0.05449223 0.06213755 -0.15885153
0002c0 17 6e fb bb 8b bf 1a be 0b 48 45 3e 98 0d fd 3c
       -0.007673036 -0.1511213 0.19265763 0.030890271
0002d0 28 e2 af bc 3e 25 86 3b cb c7 a8 3c 74 8a 50 3d
       -0.021470144 0.004093795 0.020603081 0.05091329
0002e0 de 2d db bd a9 99 4b 3d 22 02 0a 3e 47 85 c8 3d
       -0.10702108 0.04970709 0.13477376 0.09791046
0002f0 f3 31 ed 3d ce fd fe 3d 06 4c 0f bd 47 82 10 3d
       0.11581793 0.12450753 -0.03498461 0.035280492
000300 f0 84 cd 3e 2b 87 a8 3e 64 a9 b8 3e ac a9 5b 3e
       0.40140486 0.32915625 0.36066735 0.21451443
000310 54 4e c9 3d 3f 05 66 3e 61 6c e1 3e 84 46 d2 3e
       0.09829393 0.22462939 0.44028 0.41069424
000320 2e 04 07 3f ec 0b d4 3e 05 d6 01 3f 62 4f db 3e
       0.5274075 0.41415346 0.5071719 0.42834002
000330 a8 e9 da 3e 3c 1b cb 3e d0 1e b8 3e 9a e8 d7 3e
       0.4275639 0.39669216 0.35961008 0.42169648
000340 f9 ab e5 3e c7 00 28 3f 11 ea ea 3e 7f c6 92 3e
       0.44857767 0.65626186 0.45881703 0.28667066
000350 57 c0 c8 3e ee a3 1e 3f 4c 06 d1 3e 8e 46 d7 3e
       0.39209244 0.61968887 0.40825117 0.42046016
000360 0d c6 8b 3e af 5f f8 3e e3 fc 9a 3e bc f6 b1 3e
       0.27299538 0.485105 0.30271062 0.34758556
000370 30 2f d8 3e 1e 42 d4 3e ba 68 ba 3e c1 6e fe 3e
       0.422235 0.41456693 0.36408025 0.49693874
000380 ff 59 cd 3e b3 92 05 3f f6 50 d5 3e 4c f2 f2 3e
       0.40107724 0.5217697 0.4166333 0.47450483
000390 34 a6 b3 3e 6a b2 73 3e 09 b2 b3 3e 95 a0 ee 3e
       0.3508774 0.23798528 0.35096768 0.4660689
0003a0 fb 66 ed 3d 60 0c d1 3e 0f 4b b8 3e 47 9f c8 3e
       0.115919076 0.40829754 0.35994765 0.3918402
0003b0 05 b6 7b 3e 33 a0 fc 3e 61 d2 77 3e f9 c8 20 3f
       0.24581154 0.49340972 0.24201347 0.6280666
0003c0 e6 dc fc 3e b2 79 05 3f 36 6f c9 3e 53 9a d3 3e
       0.49387282 0.5213882 0.3934266 0.41328678
0003d0 0c 8c fd 3e 3d 39 1b 3f b7 3f 06 3f e8 ac 91 3e
       0.4952091 0.60634214 0.5244097 0.2845223
0003e0 db 85 31 3f 70 f8 b5 3e c2 0e aa 3e 65 ff 20 3e
       0.6934487 0.35541105 0.33214384 0.15722425
0003f0 6b 33 90 3e 08 c5 d9 3e 30 a4 e1 3e d8 13 02 3f
       0.2816423 0.42533135 0.44070578 0.5081153

lstm.bias_hh_l0 f4 [256]
000000 9d 9b d4 3e 8a 46 3a 3e da 16 92 3e c9 30 2b 3e
       0.41524974 0.18190971 0.2853306 0.16717829
000010 66 b1 7b 3e 9e 35 ad 3e 2d c5 e3 3e 2e d9 9d 3e
       0.24579391 0.3382997 0.4448637 0.30829757
000020 1d c7 d7 3e d7 fb 55 3e 1d 9f c0 3e a5 d7 ea 3e
       0.421441 0.2089685 0.37621394 0.4586765
000030 55 45 ad 3e dc 54 cc 3e 3f 48 c1 3e 1e 3c c6 3e
       0.3384196 0.39908493 0.37750432 0.3871774
000040 25 59 df 3e 09 ab e2 3e bf a7 e2 3e 6e 12 21 3e
       0.436227 0.44271114 0.44268605 0.15729687
000050 5b d3 a2 3e f3 41 2c 3f 1d 31 8f 3e 72 3a f4 3e
       0.31801876 0.6728813 0.27967158 0.4770084
000060 f0 15 81 3e 59 22 bd 3e af 91 c9 3e 3f d7 82 3e
       0.2521205 0.36940268 0.3936896 0.25554845
000070 72 42 bd 3e da b0 7f 3e c8 2a ec 3e f2 34 c2 3e
       0.36964756 0.24969807 0.4612639 0.3793102
000080 b7 3d f4 3e e6 d0 cc 3e 74 7a 0b 3f 65 75 07 3f
       0.47703335 0.40003127 0.54483724 0.52913505
000090 20 bc b1 3e 07 89 8c 3e 11 33 fd 3e 0a 8f 9d 3e
       0.3471384 0.27448294 0.49453023 0.30773193
0000a0 6c 53 8c 3e 37 a3 b9 3e 43 e8 8b 3e c6 59 e4 3e
       0.27407396 0.36257336 0.2732564 0.44599742
0000b0 e0 d1 71 3e ca ac e2 3e c0 e1 5e 3e ae 2a 19 3f
       0.23615217 0.44272453 0.21765804 0.5983075
0000c0 cb b1 11 3f 7b b3 8e 3e 32 98 be 3e d3 0b fd 3e
       0.56911916 0.27871308 0.3722549 0.49423084
0000d0 c9 7f b1 3e e1 e3 02 3f 19 50 e2 3e d9 eb 62 3e
       0.34667805 0.51128966 0.44201735 0.22160281
0000e0 2f 8d 1b 3f b5 f9 a7 3e 55 d7 c4 3e 85 6d 21 3e
       0.60762304 0.328077 0.38445535 0.15764435
0000f0 38 12 8b 3e 30 97 da 3e fa 2f ff 3e 34 38 9d 3e
       0.27162337 0.42693472 0.4984129 0.30706942
000100 e8 bc c0 bc c4 a9 ec 3d 88 2e 4e 3d 04 43 77 3d
       -0.023527578 0.11555818 0.050337344 0.060366645
000110 cc ea df bd 78 e7 c9 3d 38 a3 e9 3c c8 fd 3a bd
       -0.10933456 0.09858602 0.028520212 -0.04565218
000120 b0 2d 3d 3d 06 9d dc 3d f6 d1 ad 3d 70 a2 9b 3d
       0.04618615 0.10772137 0.084873125 0.07599342
000130 ce 04 9b 3d 68 77 43 bd a0 c4 9d 3b 5c bf b5 bd
       0.07569276 -0.047721297 0.0048146993 -0.088743895
000140 c0 41 47 bc f0 ca 2a 3d 5a da bc bd ac d7 02 3d
       -0.012161672 0.041697443 -0.09221335 0.031943962
000150 dc 81 ab 3d f0 85 3b bd 00 48 f7 b9 80 5d 7c 3d
       0.08374378 -0.04578203 -0.00047165155 0.061612606
000160 a0 15 e2 bb 50 cb 93 bc 6e 37 e7 3d 82 97 ff 3d
       -0.0068995506 -0.018041283 0.11289869 0.1248007
000170 c0 f2 da bd 00 ea 0d 3c b0 41 66 3c 64 5a 15 bd
       -0.10690832 0.008661747 0.014053747 -0.036463156
000180 ee a4 be bd 3c 88 4c bd 4c 19 45 3d 54 59 12 bd
       -0.093088016 -0.04993461 0.048119828 -0.03572972
000190 c6 99 be bd 6c 81 10 3d 3c 7d 3e 3d 70 43 4b 3d
       -0.09306674 0.035279676 0.04650615 0.04962486
0001a0 40 c1 0b 3d 18 c8 8c 3c 92 4f 92 bd ca fc a5 3d
       0.034119844 0.017185256 -0.07144083 0.08104856
0001b0 90 ac f1 bd a0 38 e7 bd c0 0a fb bb ec 4f 8b 3d
       -0.11800492 -0.11290097 -0.0076611936 0.06802353
0001c0 ca 27 a1 3d 8a f6 ca bd a6 77 c5 bd 24 1b 17 3d
       0.07868917 -0.09910305 -0.09641962 0.036891118
0001d0 c8 26 cc bc d8 38 9f 3c 50 e9 27 bd 40 1c f3 bb
       -0.024920836 0.019436285 -0.04099399 -0.007419139
0001e0 c6 dc ca bd e0 1c e8 3d 6c d7 8d 3d 62 e4 e6 3d
       -0.099053904 0.113336325 0.06925854 0.11274029
0001f0 20 80 47 3c 58 5d 26 3d 70 68 5c 3c 70 97 7f 3d
       0.0121765435 0.040616363 0.013452634 0.06240028
000200 f6 73 3f 3e ad ea 6a 3e 53 8f f3 3d 87 01 34 3e
       0.1869658 0.22941084 0.11892571 0.17578708
000210 6a 5b 2e bc 78 b2 5a be 6c af cf 3d 1d ba 24 3e
       -0.010641912 -0.21357143 0.10140881 0.16086622
000220 ea 9c c5 3d 5d e7 23 3e 22 18 92 3d b5 a7 8b bd
       0.096490696 0.16006227 0.07133509 -0.06819097
000230 0e 06 57 bd 95 2c f2 bc 84 06 14 3d c5 ed 18 3e
       -0.05249601 -0.029562274 0.036139026 0.14934452
000240 d6 bf 0c 3e 5b 26 d3 3d fa f7 83 3d c7 74 1f bd
       0.13745055 0.1031005 0.06443782 -0.038929727
000250 18 58 dc bd b8 ae 29 bd fc d8 dd 3c a4 88 e6 bb
       -0.1075899 -0.04142639 0.027081005 -0.007035332
000260 e3 20 80 3e f4 a4 1a 3e e4 47 4b 3e 4c 73 f5 bd
       0.2502509 0.15101987 0.19851643 -0.11984882
000270 d6 7a 93 bd c0 df 64 3e 90 d8 2e 3e b4 84 f1 bd
       -0.072011635 0.22350979 0.170748 -0.11792889
000280 57 b0 ad bd 7c 5c 84 3c 12 90 b5 bd 45 ad d8 bd
       -0.084809 0.016157381 -0.0886537 -0.105799235
000290 f4 72 ca bd 6e 08 64 3e 84 75 45 be 3c cc 4d be
       -0.09885207 0.2226884 -0.1928311 -0.2009744
0002a0 6f 85 a2 3d dd 65 02 3e c6 11 bb bd ea 51 8b 3d
       0.07935607 0.1273417 -0.091342494 0.06802733
0002b0 d1 90 5f be 5c c4 00 be a7 2d cc 3d ac fe 1d 3d
       -0.21832587 -0.12574905 0.09969645 0.038572952
0002c0 b3 b6 7c bc 50 16 a7 bc 77 70 0f bc 11 c6 63 3d
       -0.015424418 -0.020396382 -0.008754841 0.055608813
0002d0 07 90 55 bb fa c1 30 bd 03 a1 c3 3d 65 e2 3f 3e
       -0.0032587068 -0.04315374 0.09552195 0.18738706
0002e0 d6 30 1a 3d b9 de 31 3e 9e df a1 bd ed 3e aa 3d
       0.03764423 0.17370118 -0.0790398 0.083127834
0002f0 e1 84 2a 3d 31 02 cf 3d e1 d0 bf 3d df f5 f9 3d
       0.04163063 0.1010784 0.09366012 0.12205099
000300 91 78 e7 3e 25 83 66 3e ba 41 00 3f 2f bc 95 3e
       0.45209172 0.22510965 0.5010029 0.29245135
000310 0d 9b 2e 3e 5e 3c b6 3e c7 e1 bf 3e 7f db a3 3e
       0.17051335 0.35592932 0.37476942 0.320034
000320 3c 28 22 3f 7b e8 4f 3e 4e c9 fc 3e cb 59 bf 3e
       0.6334264 0.20303528 0.49372333 0.37373194
000330 df 05 a7 3e b0 16 d2 3e 14 bb 13 3f 35 08 d1 3e
       0.32621667 0.41032934 0.57707334 0.40826574
000340 32 65 99 3e ef c2 08 3f ea 5c a6 3e d7 d7 97 3e
       0.29960018 0.53422445 0.32492763 0.2965686
000350 b0 16 f4 3e c3 50 ee 3e 93 49 90 3e d8 51 f1 3e
       0.4767356 0.4654599 0.28181133 0.47132754
000360 55 84 62 3e 87 f9 dd 3e 6e de 7f 3e a6 9a 87 3e
       0.22120793 0.43354437 0.24987194 0.26485175
000370 97 4c 14 3f 30 13 72 3e 4d b9 c6 3e 3c 93 fa 3e
       0.57929367 0.23640132 0.38813248 0.48940456
000380 6c 1f 00 3f 59 84 0b 3f e7 d9 04 3f a3 6b 8f 3e
       0.50047946 0.5449882 0.5189499 0.28011808
000390 fa bb ce 3e a2 a5 7a 3e 79 26 07 3f 1c 73 df 3e
       0.4037779 0.24477246 0.5279308 0.4364251
0003a0 3c 50 84 3e bf 97 89 3e c8 ec c6 3e 84 b6 88 3e
       0.25842464 0.26873586 0.38852525 0.26701748
0003b0 66 04 8e 3e d9 6f 8c 3e 8c be 51 3e df 7c 00 3f
       0.2773773 0.27429083 0.20482844 0.5019054
0003c0 b9 ab 17 3f 1c f1 bc 3e 12 8c f8 3e 27 56 ff 3e
       0.592464 0.36902702 0.48544365 0.49870417
0003d0 7a e8 01 3f e5 d1 16 3f 48 f7 05 3f d9 28 a9 3e
       0.50745356 0.58914024 0.52330446 0.33038977
0003e0 3d b2 ff 3e 33 6b e7 3e b2 e9 d3 3e 16 0b 4d 3e
       0.49940673 0.45198974 0.41389233 0.2002376
0003f0 e0 87 fb 3e f4 ec 5d 3e 3a 2c ca 3e 0b 51 b8 3e
       0.49127102 0.21672422 0.39486867 0.3599933

fc.weight f4 [1, 64]
000000 9f dd c0 be 47 7e b2 be 25 d5 2b 3f bc e0 02 bf
       -0.37669083 -0.34861967 0.6712211 -0.5112417
000010 08 a7 9f be fe 75 ac 3e 7c 63 eb be d4 a9 fa be
       -0.31182122 0.3368377 -0.45974338 -0.48957694
000020 b0 df 1e 3f 58 e7 b2 be c2 a1 26 3f 2d 37 04 3f
       0.6206007 -0.34942126 0.6509057 0.5164669
000030 ab ec fb 3e b3 b8 15 bf 98 63 11 3f f5 53 ce be
       0.49204 -0.58484954 0.56792593 -0.4029843
000040 e4 0d e6 be 7e b6 3f 3f fc e4 1c 3f 20 18 de 3e
       -0.44932473 0.74887836 0.612869 0.4337778
000050 92 0b f5 3e 11 68 3a bf cc 50 0e 3f d3 70 ea be
       0.4786039 -0.7281504 0.55592036 -0.45789203
000060 92 d7 99 be 45 54 a2 be 3a e1 b4 be ec e6 11 3f
       -0.3004728 -0.31704918 -0.35328084 0.56992984
000070 70 3e 09 3f ac 97 c9 be a1 c3 b7 be 7d 8c 3b bf
       0.536109 -0.3937353 -0.3589144 -0.73261243
000080 4a da ee 3e 90 8b 24 bf 22 e3 3a 3f 28 62 1f bf
       0.46650916 -0.64275455 0.7300283 -0.6225915
000090 c5 9e c9 3e 0f 97 d3 be 1f a1 d0 3e 45 1e 25 bf
       0.39378944 -0.41326186 0.40747926 -0.6449931
0000a0 1d 0e d3 be 1d 1a c1 be 8c b5 01 3f d2 40 b4 be
       -0.41221705 -0.37715235 0.50667644 -0.35205704
0000b0 07 b0 b4 3e 23 ea 00 3f 69 e6 04 3f 69 d0 0c 3f
       0.35290548 0.50357264 0.5191408 0.5500551
0000c0 29 91 10 3f 13 a7 12 3f 1b a4 ec be d1 d9 29 3f
       0.56471497 0.57286185 -0.46218953 0.66347986
0000d0 f4 da 1c bf be ad 36 bf 4f 75 f4 be 44 31 89 be
       -0.61271596 -0.7135886 -0.4774575 -0.267954
0000e0 12 dc 21 3f fb 6f ed be 4c 84 04 bf d9 63 04 bf
       0.63226426 -0.46374497 -0.5176437 -0.51714855
0000f0 1f 2d dc be cf 40 d1 be 52 a2 36 3f 8e b4 ff be
       -0.43003175 -0.40869758 0.7134143 -0.4994244

exp_avg f4 [256, 5]
000000 5b 9e cd b8 89 f0 6c 38 51 3e 93 b9 d2 14 14 38
       -9.804658e-05 5.64908e-05 -0.00028084454 3.530534e-05
000010 53 76 81 b8 89 94 8a b7 e2 89 b9 35 0e 80 76 b8
       -6.173239e-05 -1.6520049e-05 1.3823703e-06 -5.877023e-05
000020 be c6 62 b7 d1 30 d2 36 99 d2 dd 38 94 d5 65 38
       -1.3516923e-05 6.2641707e-06 0.00010577328 5.4796765e-05
000030 9a a9 1a 3a 3c 6e 67 37 57 6f c2 b7 5f c4 90 38
       0.00058999064 1.3794339e-05 -2.3178449e-05 6.903032e-05
000040 2f 10 e9 b6 e8 42 ce 39 a4 d2 d1 37 6f 76 b2 37
       -6.945825e-06 0.0003934123 2.5012829e-05 2.1274403e-05
000050 f6 a5 b9 37 a9 67 3b 37 9a 60 55 39 91 16 84 37
       2.2131e-05 1.1170204e-05 0.0002034925 1.5746135e-05
000060 8f 5d 2b 36 55 3a a1 b8 c3 35 16 38 f0 52 89 b9
       2.5535444e-06 -7.6879434e-05 3.5812856e-05 -0.0002619247
000070 31 a4 08 38 ba fb 53 b8 8a 58 33 38 9c 68 db 37
       3.2577842e-05 -5.054076e-05 4.2759384e-05 2.6155547e-05
000080 d0 70 a7 39 26 bc d8 37 ce e0 e5 b7 5f bd d2 38
       0.00031936774 2.583682e-05 -2.740361e-05 0.000100488534
000090 a1 7f 67 b7 37 be d0 39 a8 79 dd b7 99 95 c2 37
       -1.3798389e-05 0.00039814573 -2.6401904e-05 2.3196264e-05
0000a0 09 8b 95 b8 23 4e 8f 38 ae 18 13 ba 5f 90 ae b8
       -7.130771e-05 6.8333255e-05 -0.00056112825 -8.323858e-05
0000b0 d7 4b fb b8 93 2b aa b8 50 22 47 38 ab b8 72 b9
       -0.00011982739 -8.114348e-05 4.7477253e-05 -0.00023147713
0000c0 f3 51 d8 b5 fb 3e 54 b8 85 3d d7 38 34 03 ed 37
       -1.6117104e-06 -5.0603394e-05 0.00010263458 2.8254093e-05
0000d0 54 44 10 3a 95 fb 88 37 db 62 a2 b7 d7 cd 86 b8
       0.0005503346 1.6329615e-05 -1.9357938e-05 -6.4279586e-05
0000e0 50 01 53 38 35 16 ce b9 ed b9 0d b8 72 ac a3 b8
       5.0307543e-05 -0.00039307927 -3.3790177e-05 -7.804566e-05
0000f0 24 f9 c9 b8 ec a2 83 38 7e 70 d5 b9 73 67 a5 36
       -9.630833e-05 6.276913e-05 -0.0004071034 4.9294263e-06
000100 85 96 8d b8 35 fc de b8 82 8b 99 38 93 88 eb b9
       -6.7514404e-05 -0.00010632762 7.321594e-05 -0.0004492445
000110 b1 1b cc 37 2a 28 ee b8 f7 e3 08 39 4c a9 87 37
       2.433159e-05 -0.000113562055 0.00013054894 1.6172089e-05
000120 27 38 08 3a 6e 58 06 b8 9a 06 5d b6 39 15 9a b8
       0.00051963556 -3.2030446e-05 -3.2935409e-06 -7.347245e-05
000130 57 f6 60 38 71 b2 ab b9 6a ff 15 b8 51 90 a3 b8
       5.3635184e-05 -0.0003274861 -3.576224e-05 -7.799327e-05
000140 22 fd 6d 38 9c 83 1a 37 e4 dc a3 39 ab b8 de b7
       5.674095e-05 9.209758e-06 0.0003125436 -2.6550455e-05
000150 74 94 cf 35 51 bd e7 b8 33 17 d7 38 f9 73 1e ba
       1.5465907e-06 -0.00011050201 0.0001025632 -0.0006044503
000160 b5 ab b3 b8 2e 6c 0c b9 ff 70 8e 38 52 e0 3e 38
       -8.567368e-05 -0.0001339174 6.792135e-05 4.5508445e-05
000170 2f 14 00 3a e8 46 0c 38 73 17 ac b7 07 53 62 38
       0.000488582 3.3444638e-05 -2.0514917e-05 5.3959924e-05
000180 a1 d5 03 36 7b 63 b4 39 bf 96 90 b6 de c2 9b 37
       1.964487e-06 0.00034406394 -4.3090836e-06 1.8568182e-05
000190 94 4d a2 b8 fd 8d 5a 38 83 23 d6 b9 92 89 ec b6
       -7.739212e-05 5.2107487e-05 -0.0004084372 -7.0493634e-06
0001a0 96 32 96 b8 bf 78 8a b8 ba 7b 8d 38 3b 74 ff b9
       -7.16198e-05 -6.6028435e-05 6.74645e-05 -0.0004872399
0001b0 f9 10 ba b8 0a ed e5 b8 00 7d 04 b9 66 92 cb 38
       -8.8723325e-05 -0.00010963723 -0.00012635067 9.707063e-05
0001c0 a4 fd e1 b9 24 a8 cb 37 fb cd 04 b9 f6 59 af b8
       -0.0004310432 2.4277782e-05 -0.00012665235 -8.361407e-05
0001d0 0c 29 8b 38 f0 26 c6 b9 53 5f 56 b7 63 ae cb b8
       6.635682e-05 -0.00037794514 -1.2777588e-05 -9.7122764e-05
0001e0 5e 67 8d 37 cc 82 81 b6 11 4e 4e 39 42 93 4a 38
       1.6856644e-05 -3.8597263e-06 0.00019674773 4.8297698e-05
0001f0 b5 ca 16 37 40 96 50 b8 99 d4 22 38 22 e2 23 b9
       8.987893e-06 -4.9730996e-05 3.8821807e-05 -0.00015629132
000200 7d 3b 2d b7 50 1d 1c b8 8b 7c f8 b7 ba f7 d1 37
       -1.0325454e-05 -3.7220598e-05 -2.9621899e-05 2.5030098e-05
000210 a7 3b 28 b9 41 96 04 b8 d4 1c eb b7 c0 1e a2 38
       -0.00016043951 -3.1611187e-05 -2.8027607e-05 7.7304896e-05
000220 67 d8 9f 37 9a 8a ef 39 9d 7c 53 38 a4 08 14 36
       1.9055047e-05 0.00045688899 5.0422375e-05 2.2058748e-06
000230 06 52 ac b8 15 43 86 38 ea b9 c0 b9 a1 d6 02 b8
       -8.216877e-05 6.402113e-05 -0.0003675961 -3.1194304e-05
000240 5b 25 8b b8 74 fd 45 37 8a 9b 02 36 a9 30 52 39
       -6.6349945e-05 1.1801127e-05 1.9462045e-06 0.00020045288
000250 83 92 c0 37 4d 1e 33 35 c8 b3 a4 b8 95 43 35 38
       2.2956408e-05 6.672679e-07 -7.853616e-05 4.3216703e-05
000260 dd 9d 86 b9 9f e9 cb 36 c1 ee 68 b8 c0 11 cf b8
       -0.0002567609 6.0770685e-06 -5.5535467e-05 -9.8738354e-05
000270 38 0e c8 38 f5 cf 31 ba 70 17 c9 b8 e2 ce 37 b9
       9.5393916e-05 -0.0006783002 -9.5887925e-05 -0.0001752931
000280 74 d2 9f b8 d1 74 6a 38 5a 81 ba b9 41 a4 33 b8
       -7.620911e-05 5.589874e-05 -0.0003557306 -4.28299e-05
000290 39 58 80 b8 3c 2f 03 39 94 e2 1e 38 0c 6e 18 3a
       -6.1199484e-05 0.0001251073 3.7881153e-05 0.0005814738
0002a0 1c c8 00 35 89 aa ae b7 fe f3 d3 b8 9c 54 bd 38
       4.7974913e-07 -2.0821828e-05 -0.00010106711 9.027982e-05
0002b0 14 a8 1d ba 3e 8d 98 b8 4f 9b 0b b9 4f 6f b4 38
       -0.00060141203 -7.274233e-05 -0.0001331393 8.603802e-05
0002c0 17 e8 1e 38 71 0e fc 39 8c 81 a3 b5 ea 45 fe b6
       3.7886286e-05 0.00048075945 -1.218215e-06 -7.577929e-06
0002d0 2a 77 ad b8 65 35 6f 38 d2 5f 99 b9 76 90 bd 36
       -8.271479e-05 5.7031768e-05 -0.00029253826 5.6494564e-06
0002e0 15 e4 9e b8 82 22 9b b8 17 dc 44 38 24 5e 7f b9
       -7.576511e-05 -7.3974035e-05 4.6935016e-05 -0.00024353765
0002f0 b2 9d 26 b8 91 51 50 b8 4a b0 9e b8 2d 4e 4d 38
       -3.972435e-05 -4.966703e-05 -7.5668635e-05 4.8948616e-05
000300 65 24 ab b9 c9 4d e0 b6 81 dc 84 b8 52 16 2b 39
       -0.00032642778 -6.6847756e-06 -6.3353225e-05 0.00016316146
000310 03 26 16 38 73 1d 3a 3a cd 38 1e b8 bf 28 e0 36
       3.5798188e-05 0.0007099725 -3.7723035e-05 6.6804637e-06
000320 0d 3b 6b 38 33 df 31 36 81 13 a4 39 f8 54 2b b4
       5.608336e-05 2.6504974e-06 0.0003129505 -1.5956527e-07
000330 aa cf 98 36 06 27 fd 37 89 bd 34 36 00 03 81 39
       4.5541283e-06 3.0178122e-05 2.6932414e-06 0.00024607033
000340 e4 e0 79 37 c7 ae 41 36 7c a0 6c 38 b2 4b 46 b6
       1.4893918e-05 2.8860975e-06 5.6416247e-05 -2.954836e-06
000350 13 17 c3 39 b4 76 57 37 22 c2 83 37 e4 ef 34 b8
       0.0003721049 1.2842636e-05 1.5706817e-05 -4.313876e-05
000360 f3 9e 1f 38 35 74 5a b9 5a 0a 1d b8 b0 64 38 b8
       3.8056587e-05 -0.0002083339 -3.7441358e-05 -4.396279e-05
000370 5d 19 a3 b8 c8 d5 3a 38 e9 04 77 b9 89 4c fb b5
       -7.77717e-05 4.4544955e-05 -0.00023557585 -1.8723232e-06
000380 85 bf 56 b8 91 26 b4 b8 23 89 68 38 be 9b de b9
       -5.1199942e-05 -8.5902524e-05 5.544083e-05 -0.00042459177
000390 66 98 03 b7 ff 55 a1 b8 bb db 53 38 47 1c 40 38
       -7.8436915e-06 -7.693096e-05 5.051096e-05 4.5802703e-05
0003a0 2b 15 c4 39 37 ce b3 b5 e6 94 41 b7 44 95 9d b8
       0.00037399805 -1.3396556e-06 -1.1538365e-05 -7.514146e-05
0003b0 5c 7a 80 38 08 12 cd b9 67 4b 98 b7 d9 f1 d9 b8
       6.126307e-05 -0.0003911408 -1.8154924e-05 -0.00010392414
0003c0 36 38 02 39 73 ca a6 37 87 be 0e 3a 1d 49 7d 37
       0.00012418706 1.9883015e-05 0.0005445261 1.5096998e-05
0003d0 b0 b6 82 b7 3e 9a e3 b8 e6 2b 88 38 6f ec f4 b9
       -1.5582278e-05 -0.00010852933 6.493162e-05 -0.00046715463
0003e0 16 14 55 b6 eb 1a bd b8 7d 2e c6 b8 21 71 69 38
       -3.1751165e-06 -9.017236e-05 -9.450035e-05 5.565689e-05
0003f0 e9 e8 be b9 58 11 b9 36 2a 95 b0 b8 f8 91 a4 38
       -0.00036413156 5.5154487e-06 -8.420118e-05 7.847318e-05

exp_avg_sq f4 [256, 5]
000000 a1 4f 33 33 fd dd 20 33 e5 06 16 34 64 03 ae 33
       4.1749107e-08 3.74548e-08 1.3972347e-07 8.103123e-08
000010 96 31 8c 33 42 90 8c 33 10 6f 90 33 bc 9a 07 33
       6.528278e-08 6.5454984e-08 6.725725e-08 3.1572867e-08
000020 f4 08 24 33 6a 1a c3 33 fa f1 8f 33 3a a5 9e 33
       3.819237e-08 9.0852e-08 6.702972e-08 7.387503e-08
000030 1d a7 07 35 a4 91 bd 33 b8 1f a1 33 e5 3b 01 34
       5.05346e-07 8.82749e-08 7.502916e-08 1.2035851e-07
000040 9a d3 f3 33 2b 98 f1 34 d9 77 3b 34 29 e9 77 33
       1.13540594e-07 4.5000465e-07 1.7459332e-07 5.7721227e-08
000050 22 89 28 31 bb 42 2d 31 f3 6f aa 32 74 71 0a 32
       2.4525169e-09 2.5212745e-09 1.9841513e-08 8.0584535e-09
000060 02 73 95 31 20 74 88 33 bc 00 86 33 02 ad 4b 34
       4.3495456e-09 6.3541165e-08 6.239995e-08 1.8968788e-07
000070 12 82 8b 33 6d 9c 3c 33 b7 6b 11 33 2b d2 1f 33
       6.4963515e-08 4.391443e-08 3.385841e-08 3.721122e-08
000080 3e 2c c6 33 e1 40 31 33 eb 78 74 33 4f 2a 55 34
       9.228141e-08 4.127003e-08 5.692065e-08 1.9852563e-07
000090 21 4d 4b 34 ee d1 e0 34 42 04 c9 33 c9 40 88 33
       1.8933908e-07 4.1875995e-07 9.3605664e-08 6.344778e-08
0000a0 56 ef 17 34 45 5c 00 34 65 01 64 35 3e 83 2b 35
       1.4150041e-07 1.1954496e-07 8.493865e-07 6.3893447e-07
0000b0 ca 5c 13 34 cd e1 d3 33 77 e2 ce 33 67 a9 b1 33
       1.3724198e-07 9.866526e-08 9.633816e-08 8.273019e-08
0000c0 95 ea 4c 33 7e 09 73 33 a7 33 d4 33 53 50 de 33
       4.7710802e-08 5.658648e-08 9.881415e-08 1.03522915e-07
0000d0 f9 a5 4b 35 c7 17 12 34 03 57 16 34 0b 16 6f 33
       7.5864915e-07 1.360596e-07 1.4001493e-07 5.5666572e-08
0000e0 b8 e7 42 33 c2 03 c6 34 33 3c 7f 34 7d 3a ca 33
       4.5379892e-08 3.6883108e-07 2.3770626e-07 9.416997e-08
0000f0 a3 e9 89 33 2c 0b 66 33 0b c7 c2 34 a7 fa 95 34
       6.422058e-08 5.356121e-08 3.628014e-07 2.7935786e-07
000100 f0 b2 01 34 7a 44 3b 34 2e 80 2b 34 16 ea 03 35
       1.2079158e-07 1.7440644e-07 1.5972248e-07 4.914194e-07
000110 30 25 90 34 30 1f b6 33 22 86 e5 33 10 82 f3 33
       2.6849148e-07 8.4807084e-08 1.0688042e-07 1.13392275e-07
000120 66 40 1a 35 5d 76 90 33 ee cb cd 33 7b da 37 34
       5.746318e-07 6.727053e-08 9.583151e-08 1.7122686e-07
000130 e1 38 34 34 86 c6 8a 34 0d 4e 17 34 f6 4b 31 33
       1.6784499e-07 2.5848948e-07 1.4091366e-07 4.128011e-08
000140 83 fe ca 32 21 37 d8 32 2e a2 3b 34 48 44 c2 33
       2.3631634e-08 2.517078e-08 1.7474733e-07 9.046249e-08
000150 d7 d2 de 32 c5 3c e6 33 5a 70 bf 33 dc 4e 1b 35
       2.594008e-08 1.07212635e-07 8.914567e-08 5.7856755e-07
000160 30 39 bc 34 6a df d3 33 c5 db d4 32 6c 85 04 33
       3.5059338e-07 9.866092e-08 2.4779988e-08 3.085499e-08
000170 a5 8c 43 34 89 e2 06 33 52 44 09 33 bd a3 17 33
       1.8211956e-07 3.140534e-08 3.1959935e-08 3.5306346e-08
000180 21 63 10 33 33 df 8d 34 62 10 2a 34 49 07 23 33
       3.361777e-08 2.6425695e-07 1.5838444e-07 3.795802e-08
000190 14 5b 8c 33 90 d3 6c 33 3e 88 db 34 a5 d3 9f 34
       6.535825e-08 5.5140447e-08 4.0891058e-07 2.977005e-07
0001a0 de 66 cb 33 0c 2e a8 33 37 6d 91 33 a5 2b ea 34
       9.4716356e-08 7.8314855e-08 6.771955e-08 4.3617652e-07
0001b0 6a 01 aa 34 f3 fe 90 33 bd 39 8b 33 63 3f 58 33
       3.1665996e-07 6.7518975e-08 6.4831944e-08 5.034907e-08
0001c0 0c b6 9d 34 b0 4d c2 33 89 d4 74 33 11 8a cf 33
       2.9375985e-07 9.04796e-08 5.7003977e-08 9.664303e-08
0001d0 2e d4 bf 33 f3 dd a8 34 70 23 23 34 83 4d 46 33
       8.932726e-08 3.1453928e-07 1.519345e-07 4.6170964e-08
0001e0 2f 0d 01 33 cb b7 00 33 d9 da ac 33 6a 8d 54 33
       3.0047143e-08 2.996948e-08 8.049182e-08 4.9488712e-08
0001f0 33 f8 fc 32 32 c8 88 32 e2 07 8c 32 df 9e 11 33
       2.9449529e-08 1.5923522e-08 1.630173e-08 3.3904936e-08
000200 e6 10 2b 33 6a 75 01 33 69 3d 9c 33 c6 26 97 33
       3.982941e-08 3.014194e-08 7.2754865e-08 7.038538e-08
000210 47 51 9b 33 b5 7e fa 33 0b c7 39 33 04 10 42 34
       7.232534e-08 1.166458e-07 4.3254698e-08 1.8073484e-07
000220 09 f7 3a 34 e9 8b 0c 35 0e 4a b6 33 9e 7a 77 33
       1.7412471e-07 5.235766e-07 8.488506e-08 5.762069e-08
000230 2a 86 70 33 09 0f 4d 33 0f d4 8f 34 44 e2 69 34
       5.6001376e-08 4.7743956e-08 2.6790119e-07 2.1782131e-07
000240 ed a6 04 34 03 f3 01 34 61 18 01 34 4c 3f 93 33
       1.2354185e-07 1.2102468e-07 1.202293e-07 6.8567346e-08
000250 36 38 73 33 4d 9d f0 32 de 03 cf 32 f0 ae b3 32
       5.662897e-08 2.801121e-08 2.409973e-08 2.0917895e-08
000260 d7 8b e6 33 ee 17 95 32 0a 88 01 33 c4 31 d6 33
       1.0735646e-07 1.7356765e-08 3.015888e-08 9.974204e-08
000270 cd 2a ab 33 fb 5a 3e 35 58 c5 ad 34 45 7c d0 33
       7.9705934e-08 7.091291e-07 3.2367348e-07 9.708359e-08
000280 f4 0a 35 33 bf 4c 20 33 24 22 73 34 67 2b 81 34
       4.215231e-08 3.7322703e-08 2.2643559e-07 2.4059702e-07
000290 c7 de e8 33 55 ea e9 33 a9 78 f4 33 04 98 36 35
       1.0843865e-07 1.0892533e-07 1.13840834e-07 6.8021495e-07
0002a0 98 94 dc 33 b2 7c c5 33 c2 d2 1c 34 a8 8e 02 34
       1.02715774e-07 9.196209e-08 1.4605305e-07 1.2159092e-07
0002b0 f9 eb 57 35 cc a6 23 35 26 58 2f 34 92 6e 84 33
       8.0437127e-07 6.0964953e-07 1.6330213e-07 6.1668416e-08
0002c0 25 7c a0 33 33 8c f2 34 92 44 9e 33 83 2c 96 33
       7.4731624e-08 4.517802e-07 7.369921e-08 6.993016e-08
0002d0 a3 a6 69 33 e5 66 4f 33 9d 27 31 34 c6 44 d7 33
       5.4401095e-08 4.8289525e-08 1.6498821e-07 1.00242275e-07
0002e0 b7 df 4f 33 48 4f 93 33 b9 1a 8d 33 e7 2e 9a 33
       4.839941e-08 6.859642e-08 6.570685e-08 7.179715e-08
0002f0 2c 33 7a 33 f8 fb 64 33 f7 c2 34 33 1b 6e 1b 33
       5.82542e-08 5.331455e-08 4.2086835e-08 3.618889e-08
000300 5f 45 80 34 26 d0 26 34 e4 b4 8d 33 20 e9 2a 34
       2.3892332e-07 1.5535679e-07 6.598728e-08 1.5917294e-07
000310 07 2b 4d 34 a3 f1 66 35 a4 4d b4 33 e1 00 4c 34
       1.9107766e-07 8.6033305e-07 8.396026e-08 1.89993e-07
000320 a8 53 c0 32 e0 cb bb 32 ff c5 2f 34 71 90 b0 33
       2.2389784e-08 2.1862377e-08 1.6370176e-07 8.2219124e-08
000330 fb f7 a3 32 e0 57 38 33 20 6d 38 33 5b 73 0c 34
       1.9088466e-08 4.292076e-08 4.2940087e-08 1.3080482e-07
000340 74 3a 92 33 f3 ea fe 32 9b c9 31 33 92 2e 2d 33
       6.8092874e-08 2.9676334e-08 4.1394383e-08 4.0322057e-08
000350 d2 bb 6b 34 37 30 ca 33 53 47 dc 32 4f 0b 18 33
       2.1954409e-07 9.415128e-08 2.5643805e-08 3.5400543e-08
000360 cf 96 0d 33 0a ac d8 33 d1 3f 30 34 b5 21 a2 33
       3.296628e-08 1.00895775e-07 1.6414494e-07 7.549844e-08
000370 24 11 85 33 7e cb 7f 33 3a ac 03 34 e9 6a 8e 33
       6.196413e-08 5.955689e-08 1.2262981e-07 6.631837e-08
000380 ca ea aa 33 9d 7c b9 33 a3 a4 9f 33 bb 86 14 35
       7.95895e-08 8.637401e-08 7.433962e-08 5.5330355e-07
000390 68 68 f4 34 85 1e 43 34 1a 0f 8e 32 50 d6 a7 32
       4.5524507e-07 1.8171893e-07 1.6537843e-08 1.9538817e-08
0003a0 1c 64 05 34 72 7a ff 32 ed 73 a7 32 3e 08 6e 33
       1.242301e-07 2.9741589e-08 1.9494076e-08 5.542119e-08
0003b0 9f a5 42 33 42 55 8f 34 89 d5 ed 33 3b d0 39 33
       4.5319776e-08 2.669786e-07 1.1075014e-07 4.3263054e-08
0003c0 72 c5 db 33 b2 6b f4 33 60 b6 1b 35 3c 02 8a 33
       1.0233897e-07 1.1381725e-07 5.800739e-07 6.426532e-08
0003d0 87 57 cf 33 0b b7 9c 33 68 f1 7f 33 5f 34 f5 34
       9.65511e-08 7.2976114e-08 5.9591372e-08 4.567291e-07
0003e0 89 bc 4f 34 cf f8 d7 33 87 3d 84 33 10 de 75 33
       1.9346966e-07 1.0056976e-07 6.157921e-08 5.7245472e-08
0003f0 aa 09 78 34 f3 2b 94 33 5d 6f 15 33 0f e7 83 33
       2.3100316e-07 6.8997814e-08 3.479305e-08 6.142192e-08

exp_avg f4 [256, 64]
000000 00 00 00 00 00 00 00 00 00 00 00 00 00 00 00 00
       0.0 0.0 0.0 0.0
000010 00 00 00 00 00 00 00 00 00 00 00 00 00 00 00 00
       0.0 0.0 0.0 0.0
000020 00 00 00 00 00 00 00 00 00 00 00 00 00 00 00 00
       0.0 0.0 0.0 0.0
000030 00 00 00 00 00 00 00 00 00 00 00 00 00 00 00 00
       0.0 0.0 0.0 0.0
000040 00 00 00 00 00 00 00 00 00 00 00 00 00 00 00 00
       0.0 0.0 0.0 0.0
000050 00 00 00 00 00 00 00 00 00 00 00 00 00 00 00 00
       0.0 0.0 0.0 0.0
000060 00 00 00 00 00 00 00 00 00 00 00 00 00 00 00 00
       0.0 0.0 0.0 0.0
000070 00 00 00 00 00 00 00 00 00 00 00 00 00 00 00 00
       0.0 0.0 0.0 0.0
000080 00 00 00 00 00 00 00 00 00 00 00 00 00 00 00 00
       0.0 0.0 0.0 0.0
000090 00 00 00 00 00 00 00 00 00 00 00 00 00 00 00 00
       0.0 0.0 0.0 0.0
0000a0 00 00 00 00 00 00 00 00 00 00 00 00 00 00 00 00
       0.0 0.0 0.0 0.0
0000b0 00 00 00 00 00 00 00 00 00 00 00 00 00 00 00 00
       0.0 0.0 0.0 0.0
0000c0 00 00 00 00 00 00 00 00 00 00 00 00 00 00 00 00
       0.0 0.0 0.0 0.0
0000d0 00 00 00 00 00 00 00 00 00 00 00 00 00 00 00 00
       0.0 0.0 0.0 0.0
0000e0 00 00 00 00 00 00 00 00 00 00 00 00 00 00 00 00
       0.0 0.0 0.0 0.0
0000f0 00 00 00 00 00 00 00 00 00 00 00 00 00 00 00 00
       0.0 0.0 0.0 0.0
000100 00 00 00 00 00 00 00 00 00 00 00 00 00 00 00 00
       0.0 0.0 0.0 0.0
000110 00 00 00 00 00 00 00 00 00 00 00 00 00 00 00 00
       0.0 0.0 0.0 0.0
000120 00 00 00 00 00 00 00 00 00 00 00 00 00 00 00 00
       0.0 0.0 0.0 0.0
000130 00 00 00 00 00 00 00 00 00 00 00 00 00 00 00 00
       0.0 0.0 0.0 0.0
000140 00 00 00 00 00 00 00 00 00 00 00 00 00 00 00 00
       0.0 0.0 0.0 0.0
000150 00 00 00 00 00 00 00 00 00 00 00 00 00 00 00 00
       0.0 0.0 0.0 0.0
000160 00 00 00 00 00 00 00 00 00 00 00 00 00 00 00 00
       0.0 0.0 0.0 0.0
000170 00 00 00 00 00 00 00 00 00 00 00 00 00 00 00 00
       0.0 0.0 0.0 0.0
000180 00 00 00 00 00 00 00 00 00 00 00 00 00 00 00 00
       0.0 0.0 0.0 0.0
000190 00 00 00 00 00 00 00 00 00 00 00 00 00 00 00 00
       0.0 0.0 0.0 0.0
0001a0 00 00 00 00 00 00 00 00 00 00 00 00 00 00 00 00
       0.0 0.0 0.0 0.0
0001b0 00 00 00 00 00 00 00 00 00 00 00 00 00 00 00 00
       0.0 0.0 0.0 0.0
0001c0 00 00 00 00 00 00 00 00 00 00 00 00 00 00 00 00
       0.0 0.0 0.0 0.0
0001d0 00 00 00 00 00 00 00 00 00 00 00 00 00 00 00 00
       0.0 0.0 0.0 0.0
0001e0 00 00 00 00 00 00 00 00 00 00 00 00 00 00 00 00
       0.0 0.0 0.0 0.0
0001f0 00 00 00 00 00 00 00 00 00 00 00 00 00 00 00 00
       0.0 0.0 0.0 0.0
000200 00 00 00 00 00 00 00 00 00 00 00 00 00 00 00 00
       0.0 0.0 0.0 0.0
000210 00 00 00 00 00 00 00 00 00 00 00 00 00 00 00 00
       0.0 0.0 0.0 0.0
000220 00 00 00 00 00 00 00 00 00 00 00 00 00 00 00 00
       0.0 0.0 0.0 0.0
000230 00 00 00 00 00 00 00 00 00 00 00 00 00 00 00 00
       0.0 0.0 0.0 0.0
000240 00 00 00 00 00 00 00 00 00 00 00 00 00 00 00 00
       0.0 0.0 0.0 0.0
000250 00 00 00 00 00 00 00 00 00 00 00 00 00 00 00 00
       0.0 0.0 0.0 0.0
000260 00 00 00 00 00 00 00 00 00 00 00 00 00 00 00 00
       0.0 0.0 0.0 0.0
000270 00 00 00 00 00 00 00 00 00 00 00 00 00 00 00 00
       0.0 0.0 0.0 0.0
000280 00 00 00 00 00 00 00 00 00 00 00 00 00 00 00 00
       0.0 0.0 0.0 0.0
000290 00 00 00 00 00 00 00 00 00 00 00 00 00 00 00 00
       0.0 0.0 0.0 0.0
0002a0 00 00 00 00 00 00 00 00 00 00 00 00 00 00 00 00
       0.0 0.0 0.0 0.0
0002b0 00 00 00 00 00 00 00 00 00 00 00 00 00 00 00 00
       0.0 0.0 0.0 0.0
0002c0 00 00 00 00 00 00 00 00 00 00 00 00 00 00 00 00
       0.0 0.0 0.0 0.0
0002d0 00 00 00 00 00 00 00 00 00 00 00 00 00 00 00 00
       0.0 0.0 0.0 0.0
0002e0 00 00 00 00 00 00 00 00 00 00 00 00 00 00 00 00
       0.0 0.0 0.0 0.0
0002f0 00 00 00 00 00 00 00 00 00 00 00 00 00 00 00 00
       0.0 0.0 0.0 0.0
000300 00 00 00 00 00 00 00 00 00 00 00 00 00 00 00 00
       0.0 0.0 0.0 0.0
000310 00 00 00 00 00 00 00 00 00 00 00 00 00 00 00 00
       0.0 0.0 0.0 0.0
000320 00 00 00 00 00 00 00 00 00 00 00 00 00 00 00 00
       0.0 0.0 0.0 0.0
000330 00 00 00 00 00 00 00 00 00 00 00 00 00 00 00 00
       0.0 0.0 0.0 0.0
000340 00 00 00 00 00 00 00 00 00 00 00 00 00 00 00 00
       0.0 0.0 0.0 0.0
000350 00 00 00 00 00 00 00 00 00 00 00 00 00 00 00 00
       0.0 0.0 0.0 0.0
000360 00 00 00 00 00 00 00 00 00 00 00 00 00 00 00 00
       0.0 0.0 0.0 0.0
000370 00 00 00 00 00 00 00 00 00 00 00 00 00 00 00 00
       0.0 0.0 0.0 0.0
000380 00 00 00 00 00 00 00 00 00 00 00 00 00 00 00 00
       0.0 0.0 0.0 0.0
000390 00 00 00 00 00 00 00 00 00 00 00 00 00 00 00 00
       0.0 0.0 0.0 0.0
0003a0 00 00 00 00 00 00 00 00 00 00 00 00 00 00 00 00
       0.0 0.0 0.0 0.0
0003b0 00 00 00 00 00 00 00 00 00 00 00 00 00 00 00 00
       0.0 0.0 0.0 0.0
0003c0 00 00 00 00 00 00 00 00 00 00 00 00 00 00 00 00
       0.0 0.0 0.0 0.0
0003d0 00 00 00 00 00 00 00 00 00 00 00 00 00 00 00 00
       0.0 0.0 0.0 0.0
0003e0 00 00 00 00 00 00 00 00 00 00 00 00 00 00 00 00
       0.0 0.0 0.0 0.0
0003f0 00 00 00 00 00 00 00 00 00 00 00 00 00 00 00 00
       0.0 0.0 0.0 0.0
