lightning_logs/version_15/checkpoints/epoch=4-step=130.ckpt (torch, 227860 bytes, 15 tensors)

lstm.weight_ih_l0 f4 [256, 5]
-0.059917282 0.07477328 -0.009368235 -0.042130653 -0.11366033 -0.112125106 0.13318251 -0.25671518
0.15779093 -0.098569945 -0.013319958 0.06691944 -0.0656479 0.21538278 -0.19182554 0.021073056
-0.13857685 0.08808861 -0.08578689 0.10171706 0.25500345 -0.1587017 0.099917114 0.087402135
-0.1683545 -0.09246755 0.24135342 -0.18363343 0.12203726 0.03872273 0.0021900532 -0.015773103
-0.11785116 0.13631098 -0.08935562 0.20088205 -0.10348519 0.00735696 -0.08504828 0.07810517
-0.04329158 0.2247532 -0.044968776 0.18603323 -0.15217039 -0.038599398 -0.0507487 -0.09933573
-0.14422688 0.09867507 -0.017754385 0.08886108 0.17876795 0.06306513 -0.097273074 0.07602659
-0.10356086 0.056232493 0.19955069 -0.028057355 0.11691173 -0.14540079 -0.00274831 -0.039594896
0.04605842 0.045901258 0.034280032 0.17689347 0.07177573 -0.026242329 0.11493538 -0.08063904
0.032330863 0.112004444 -0.22480549 -0.15332323 0.06726847 -0.027542068 -0.19752252 0.19657512
-0.12242666 0.124136925 -0.020902708 0.12926252 -0.1316061 0.023934375 0.026026161 0.09775219
0.19259384 -0.23564512 0.1941693 -0.08907815 0.03971515 0.11042399 -0.16475587 -0.20111766
0.21178901 -0.19470133 0.035092033 0.20163843 -0.12845117 0.06519314 -0.18162428 -0.2223644
0.18056312 0.042026382 -0.038428675 0.020708064 0.18098149 -0.08040174 -0.21727651 0.1843364
-0.16001607 -0.003777386 0.1337816 -0.13350499 0.16523832 -0.19431908 -0.08846206 0.16899757
-0.14845364 0.079826504 0.007866927 0.19867061 -0.2492927 0.022807542 0.0723523 -0.064172946
0.17559603 0.063027434 0.017907228 -0.04301379 0.018965047 0.013690871 0.018233953 0.1625054
0.0055612265 -0.04921867 0.1399135 -0.11968696 0.07700866 -0.20852701 0.19089502 0.024214411
-0.1092053 -0.12580206 0.22720775 -0.22064376 0.22882071 -0.018017678 0.014838267 -0.097849965
0.025832903 -0.1252532 -0.056964133 -0.21076164 0.21755718 -0.15901415 -0.13407966 0.08352267
-0.030760579 0.054114066 0.033209972 0.0072269356 0.09525414 0.04894393 -0.20704052 0.20118164
0.085049786 -0.1359264 0.21873054 -0.13730097 0.09599861 -0.027470086 -0.18079568 -0.105287805
-0.032268934 -0.09668487 0.022891296 0.13672948 -0.05352664 0.0618057 -0.12547375 -0.029659275
0.010675075 -0.11722878 0.1533628 -0.03104953 0.12159478 -0.06509342 -0.021047967 0.011275041
0.07022893 0.076555446 0.05845729 -0.021132125 0.022385495 -0.18172748 -0.0681672 0.12864304
-0.0029039946 -0.07093135 -0.08527629 -0.1495463 0.0532565 0.039333817 -0.16115154 0.13387616
0.10823474 -0.0046526855 -0.037438534 -0.050953813 -0.031818874 -0.09445968 0.035556585 -0.1758557
0.18407713 -0.06302909 -0.010253375 0.14388755 -0.15805465 0.06940128 -0.17842768 -0.20370093
0.169132 -0.032618336 0.23547177 -0.1100418 -0.034355324 0.11741614 -0.088466376 0.10856279
-0.054527123 -0.021426778 0.06748752 -0.18444149 0.1895196 -0.14444111 -0.21729656 0.13937803
-0.15512176 0.071556866 -0.18469784 -0.006971256 0.107726656 -0.064424545 0.11422236 0.00012215896
-0.13940838 0.16779827 0.03472368 0.0066365073 0.05205505 -0.05234914 -0.12667474 -0.17242317
00000000: d36b 75bd bc22 993d 3a7d 19bc 3191 2cbd
00000010: bfc6 e8bd d9a1 e5bd ff60 083e 2c70 83be
00000020: f293 213e 0adf c9bd f43b 5abc 0f0d 893d
00000030: 6872 86bd 4e8d 5c3e ea6d 44be 67a1 ac3c
00000040: 17e7 0dbe cd67 b43d 09b1 afbd 0951 d03d
00000050: d08f 823e b382 22be 58a1 cc3d e4ff b23d
00000060: 1f65 2cbe a05f bdbd 5a25 773e 670a 3cbe
00000070: acee f93d ba9b 1e3d ff86 0f3b 9836 81bc
00000080: f35b f1bd 1b95 0b3e 1400 b7bd 06b4 4d3e
00000090: 0bf0 d3bd a712 f13b cb2d aebd 9af5 9f3d
000000a0: 8352 31bd b425 663e 2e31 38bd 7f7f 3e3e
000000b0: 8ed2 1bbe 671a 1ebd dedd 4fbd 8870 cbbd
000000c0: 36b0 13be 2816 ca3d a571 91bc ccfc b53d
000000d0: f20e 373e 4a28 813d 1b37 c7bd d4b3 9b3d
000000e0: b717 d4bd 0b54 663d 0457 4c3e 8ad8 e5bc
000000f0: 6b6f ef3d f2e3 14be fe1c 34bb 422e 22bd
00000100: c1a7 3c3d f502 3c3d 3869 0c3d 9023 353e
00000110: 27ff 923d 27fa d6bc 3e63 eb3d 1526 a5bd
00000120: 5e6d 043d 9662 e53d 6933 66be c400 1dbe
00000130: 0dc4 893d e79f e1bc 5843 4abe fd4a 493e
00000140: d4ba fabd 803b fe3d 283c abbc 655d 043e
00000150: c0c3 06be 0612 c43c d134 d53c 4d32 c83d
00000160: 5237 453e f44c 71be 51d4 463e 9b6e b6bd
00000170: 5aac 223d f925 e23d c3b5 28be caf1 4dbe
00000180: 38df 583e c95f 47be aabc 0f3d 4e7a 4e3e
00000190: b488 03be fb83 853d b7fb 39be 7eb3 63be
000001a0: 8ae5 383e db23 2c3d 6367 1dbd f5a3 a93c
000001b0: 3653 393e aba9 a4bd bc7d 5ebe aec2 3c3e
000001c0: 41db 23be 058e 77bb 0bfe 083e 88b5 08be
000001d0: 3c34 293e 95fb 46be 992b b5bd b30d 2d3e
000001e0: 3b04 18be 147c a33d 49e4 003c 4f70 4b3e
000001f0: 9646 7fbe e2d6 ba3c 712d 943d 1b6d 83bd
00000200: 72cf 333e 8714 813d 2eb2 923c 3a2f 30bd
00000210: 965c 9b3c ad4f 603c 5f5f 953c d167 263e
00000220: f33a b63b 8499 49bd 7c45 0f3e 701e f5bd
00000230: b7b6 9d3d 1b88 55be fc79 433e 4d5d c63c
00000240: 07a7 dfbd 41d2 00be 26a9 683e 70f0 61be
00000250: fa4f 6a3e cf99 93bc 341c 733c 9065 c8bd
00000260: 869f d33c 6042 00be 3953 69bd e6d1 57be
00000270: 4fc7 5e3e 9bd4 22be 2e4c 09be ef0d ab3d
00000280: 9cfd fbbc b6a6 5d3d 2e07 083d eecf ec3b
00000290: 9a14 c33d 6e79 483d 6e02 54be 8f02 4e3e
000002a0: 952e ae3d 4a30 0bbe e6fa 5f3e a098 0cbe
000002b0: eb9a c43d f208 e1bc 8122 39be 22a1 d7bd
000002c0: 6e2c 04bd b802 c6bd 8786 bb3c d002 0c3e
000002d0: c03e 5bbd f927 7d3d 317c 00be 02f8 f2bc
000002e0: 83e6 2e3c a515 f0bd 230b 1d3e 955b febc
000002f0: af06 f93d b34f 85bd c96c acbc f3ba 383c
00000300: 2fd4 8f3d 1ac9 9c3d e970 6f3d 471d adbc
00000310: c961 b73c c516 3abe 3f9b 8bbd 00bb 033e
00000320: f250 3ebb 7544 91bd 56a5 aebd aa22 19be
00000330: 7d23 5a3d 7f1c 213d e904 25be d516 093e
00000340: 2daa dd3d 8e75 98bb 2659 19bd f2b4 50bd
00000350: 8254 02bd 1474 c1bd c8a3 113d 8413 34be
00000360: b77e 3c3e 6515 81bd c6fd 27bc 4257 133e
00000370: 14d9 21be 4222 8e3d bfb5 36be fa96 50be
00000380: f030 2d3e ce9a 05bd 831f 713e 985d e1bd
00000390: 2bb8 0cbd e077 f03d dc2d b5bd 2b56 de3d
000003a0: d557 5fbd 3687 afbc e636 8a3d 3bde 3cbe
000003b0: 6d11 423e 5fe8 13be fd82 5ebe 1db9 0e3e
000003c0: 3dd8 1ebe 688c 923d 6e21 3dbe 226f e4bb
000003d0: cb9f dc3d 04f1 83bd 6aed e93d cc17 0039
000003e0: 12c1 0ebe 4fd3 2b3e 6b3a 0e3d 0f77 d93b
000003f0: ad37 553d 0d6c 56bd 06b7 01be b38f 30be

lstm.weight_hh_l0 f4 [256, 64]
0.03860089 -0.057679296 0.10533643 0.008369565 0.086546615 -0.06608561 0.092489675 -0.07086228
0.11372176 -0.07834281 -0.010726854 0.088817805 -0.09636995 -0.02541329 0.050258204 0.044698566
-0.0034088045 0.036783114 -0.073800266 -0.11355902 0.05185297 0.019122615 0.044463173 0.10875642
0.09290472 0.025636941 0.051968426 0.04166229 0.025247961 -0.0108551085 0.036520585 0.05959651
-0.1044358 -0.09498155 0.1047059 0.07150693 -0.10870212 -0.11228204 0.027677149 0.07115583
-0.09017421 0.06400818 0.06561971 -0.031617194 0.08310509 0.08603056 -0.01825288 -0.023507208
-0.0837135 0.03281513 0.030362666 -0.016726226 -0.049743995 -0.055249393 0.06262502 -0.100885004
-0.0907612 0.048262328 0.11492437 -0.014967054 0.107534185 0.10643254 0.04313743 0.025508806
-0.012957409 -0.03743872 0.10968438 -0.040524155 0.06079887 -0.10521825 0.04282245 -0.013155222
-0.07213001 -0.063877076 -0.057403445 0.069963634 0.048971027 0.07132612 -0.09115285 -0.058319002
0.10761745 -0.051632136 0.064597905 0.10577947 0.09581104 -0.05194211 0.10235703 -0.050904766
0.056684718 -0.06728032 -0.10669638 0.07502483 -0.036162645 -0.11507173 -0.048961163 -0.12232171
-0.046931982 0.080046535 -0.09896675 -0.06769 0.031266496 -0.019107357 -0.0556996 -0.096901804
-0.11617668 -0.08023809 0.090915695 -0.10401875 0.024155974 -0.075378686 -0.025895894 -0.01924093
-0.017551199 -0.07228054 0.04417394 -0.10481733 -0.029647395 -0.061337814 0.011824772 0.06753911
0.046619862 0.10344149 0.06514493 0.040732384 -0.07530439 0.040516183 0.09326646 -0.08329834
0.08240995 0.09689143 -0.032491878 -0.010669008 -0.044022903 0.11783126 -0.039083913 -0.08377318
0.07357912 0.048956573 0.07119487 -0.026988998 0.011546493 0.11860497 -0.02185814 0.059995815
-0.109672606 -0.08509563 0.117398724 0.034703523 0.061447248 0.081280574 0.07573825 -0.03306225
0.042252287 -0.08080244 -0.06658891 -0.09742284 -0.094317585 0.070929915 0.080388874 0.01672773
-0.09712027 0.07283546 0.008583531 -0.11549747 -0.045204327 0.051981434 0.02917914 0.117433086
0.10928632 0.061096117 0.023500651 0.09858993 -0.113445655 -0.032807693 -0.07361163 0.06371383
-0.1158697 -0.010509685 0.1079445 0.026967853 0.036980167 -0.006923482 -0.07915744 0.08351143
0.06605582 0.11935173 0.029479459 -0.060578063 0.022163272 0.07597695 0.0065529794 -0.038931474
-0.02046904 0.026655808 -0.022682235 0.07350552 -0.11937797 -0.022608936 -0.08434573 0.10303679
0.07890718 0.08911501 -0.10864727 -0.0020250678 -0.08162896 -0.08343813 -0.12462138 0.09823485
0.058267012 0.024695888 -0.0092277825 0.023345724 0.077601224 -0.048224077 -0.013268143 0.07385743
0.04235193 0.1117388 -0.07825196 0.08935502 0.039085925 0.09515791 0.11812788 0.09210162
-0.050373808 0.059543848 0.035786673 0.042589515 0.12200007 0.08151744 -0.051897064 -0.013233528
0.005383119 -0.12429851 0.051761597 0.08232191 -0.09818843 -0.11948949 -0.0404699 0.0070466697
-0.111206934 0.114900276 0.077696174 -0.015992612 -0.07469237 -0.048306793 0.11692974 0.015957862
-0.0008355528 -0.0026088953 0.11719972 0.09465888 0.026015699 -0.10793233 -0.12466477 -0.034772485
00000000: f81b 1e3d 2041 6cbd a0ba d73d 8020 093c
00000010: 5a3f b13d e457 87bd 3a6b bd3d 3e20 91bd
00000020: f4e6 e83d 3272 a0bd b0bf 2fbc 1ce6 b53d
00000030: 9c5d c5bd 882f d0bc 8cdb 4d3d d815 373d
00000040: 4066 5fbb e4a9 163d 9824 97bd a291 e8bd
00000050: c863 543d 08a7 9c3c 041f 363d b0bb de3d
00000060: d444 be3d 9004 d23c d8dc 543d 14a6 2a3d
00000070: d0d4 ce3c a0d9 31bc 9c96 153d 781b 743d
00000080: 70e2 d5bd b085 c2bd 0c70 d63d 3a72 923d
00000090: 389f debd 20f4 e5bd 30bb e23c 26ba 913d
000000a0: 42ad b8bd b816 833d a063 863d 0881 01bd
000000b0: 0033 aa3d ca30 b03d 1087 95bc 3092 c0bc
000000c0: fc71 abbd 2869 063d 20bb f83c 7005 89bc
000000d0: 5cc0 4bbd 304d 62bd 8c41 803d cc9c cebd
000000e0: 02e1 b9bd b8ae 453d 785d eb3d 6038 75bc
000000f0: e23a dc3d 4ef9 d93d e0b0 303d d8f7 d03c
00000100: 504b 54bc 5859 19bd 34a2 e03d a8fc 25bd
00000110: 3c08 793d aa7c d7bd 9866 2f3d 0089 57bc
00000120: e6b8 93bd fcd1 82bd e01f 6bbd 1849 8f3d
00000130: d895 483d 6e13 923d 58ae babd e8df 6ebd
00000140: 8a66 dc3d 387c 53bd e84b 843d e8a2 d83d
00000150: 9438 c43d 40c1 54bd 90a0 d13d 8481 50bd
00000160: 3c2e 683d 44ca 89bd a283 dabd 9ea6 993d
00000170: 481f 14bd baaa ebbd 808b 48bd ce83 fabd
00000180: c03b 40bd 70ef a33d 14af cabd 0ea1 8abd
00000190: 4c11 003d 0887 9cbc 4425 64bd 7474 c6bd
000001a0: 0aee edbd de53 a4bd 0232 ba3d c807 d5bd
000001b0: c0e2 c53c 2460 9abd a023 d4bc 289f 9dbc
000001c0: 88c7 8fbc d207 94bd bcef 343d 78aa d6bd
000001d0: 18df f2bc 5c3d 7bbd b0bc 413c f251 8a3d
000001e0: 78f4 3e3d 22d9 d33d b46a 853d 00d7 263d
000001f0: 3039 9abd 4cf4 253d 7c02 bf3d 5298 aabd
00000200: 8cc6 a83d 046f c63d 3416 05bd 10cd 2ebc
00000210: 5c51 34bd 8451 f13d 7416 20bd 4691 abbd
00000220: a6b0 963d b086 483d 9ece 913d 0818 ddbc
00000230: 802d 3d3c 2ae7 f23d d80f b3bc 2cbe 753d
00000240: 089c e0bd 9e46 aebd be6e f03d 4825 0e3d
00000250: 1cb0 7b3d 6e76 a63d a81c 9b3d 486c 07bd
00000260: bc10 2d3d c07b a5bd c45f 88bd a085 c7bd
00000270: 9429 c1bd b443 913d eca2 a43d 9808 893c
00000280: fee6 c6bd c22a 953d f0a1 0c3c f089 ecbd
00000290: 2c28 39bd 7cea 543d 1809 ef3c c280 f03d
000002a0: 82d1 df3d ec3f 7a3d 7084 c03c 84e9 c93d
000002b0: 3256 e8bd 5c61 06bd b2c1 96bd 667c 823d
000002c0: 184d edbd d030 2cbc 0212 dd3d b0eb dc3c
000002d0: 8478 173d 60de e2bb 4c1d a2bd 0a08 ab3d
000002e0: 4648 873d ae6e f43d e87e f13c b420 78bd
000002f0: c08f b53c ce99 9b3d 60ba d63b 9c76 1fbd
00000300: b0ae a7bc 485d da3c 18d0 b9bc 108a 963d
00000310: 707c f4bd 6036 b9bc 74bd acbd f404 d33d
00000320: 169a a13d ee81 b63d 7682 debd 00b7 04bb
00000330: 162d a7bd 9ce1 aabd 7e39 ffbd 5a2f c93d
00000340: 64a9 6e3d 084f ca3c 2030 17bc 883f bf3c
00000350: 64ed 9e3d 9c86 45bd a062 59bc 9042 973d
00000360: 3879 2d3d 50d7 e43d 9042 a0bd c4ff b63d
00000370: 9018 203d 26e2 c23d 08ed f13d c69f bc3d
00000380: c454 4ebd 40e4 733d 0c95 123d 5872 2e3d
00000390: 2cdb f93d 9ef2 a63d 0492 54bd 70d1 58bc
000003a0: e064 b03b 3890 febd f803 543d 6498 a83d
000003b0: 0417 c9bd e8b6 f4bd c4c3 25bd c0e7 e63b
000003c0: 76c0 e3bd d650 eb3d 2c1f 9f3d f002 83bc
000003d0: 50f8 98bd 58dd 45bd dc78 ef3d 10ba 823c
000003e0: 0009 5bba 00fa 2abb 6806 f03d 84dc c13d
000003f0: e01e d53c a00b ddbd 3e50 ffbd 986d 0ebd

lstm.bias_ih_l0 f4 [256]
-0.07075797 0.04934248 0.28042778 -0.029644715 0.04722861 0.07646798 0.04299574 0.0017986567
0.102578364 0.07890035 0.06621545 0.06777427 0.02083257 0.18088871 0.25454673 0.029788332
0.095687434 0.11723729 0.11471101 -0.057662025 0.022442369 0.09339651 0.12568463 -0.061002973
0.06681841 0.2446256 0.116117984 0.1329789 0.1433502 0.09367287 -0.11490717 0.21207617
0.17289862 0.16496703 0.11051873 0.034801614 0.1673765 -0.06766989 0.1330947 0.15737781
-0.019573927 0.14000466 0.037476722 0.09371282 0.19392057 0.14597598 0.10967722 0.1111686
0.03761812 0.033749282 -0.123929985 0.2766959 0.15750092 0.096986994 0.28132105 -0.007160098
0.1255613 -0.065024056 0.0014684309 0.003548044 0.11697033 0.19217566 0.25308275 0.17545465
-0.06361748 -0.039605588 0.051186845 0.11124034 0.10911703 0.0953086 0.07364689 0.07888606
0.12017001 -0.08440444 0.07904787 0.00033535063 0.10204609 -0.06057842 0.01776594 0.059527412
0.020306915 0.10861248 -0.049892828 0.07297003 0.00576669 -0.08794767 0.115859434 0.076101795
-0.0067804903 -0.039473176 0.048585072 0.0005799979 -0.035385072 0.090651825 -0.011001259 0.005678326
-0.11925553 -0.044112176 -0.106086135 0.034062788 -0.054822788 -0.065785795 0.051677123 -0.00043162704
0.039247632 0.10884622 0.076243 -0.013620168 0.02522546 0.050262153 0.04866232 -0.056015253
0.015288159 -0.021477923 -0.100718066 0.06945914 -0.06955828 -0.121715456 0.063318655 0.10715768
0.030164436 -0.088051215 0.11033417 -0.044315875 0.10245386 0.015566781 -0.106318295 -0.0070292205
0.036644425 -0.13952321 0.13543427 0.023772366 -0.07675879 -0.15948145 -0.03138953 0.04771112
0.15039751 -0.02477273 0.13255586 0.035734635 -0.07142876 0.20833018 -0.09366516 -0.04133161
0.20155653 -0.17845574 0.019396964 -0.060489878 0.022432659 0.105667286 -0.080013014 -0.025973909
0.14363308 0.028897764 0.07004815 0.17409159 0.022258542 -0.12858056 0.037671544 -0.033283178
-0.17388393 -0.011733849 0.019722044 -0.06452755 -0.035562858 0.03543813 0.14991668 0.08921698
-0.0067507513 -0.0076578045 0.043494247 -0.120432705 -0.062084153 0.16434804 0.14400974 0.1648796
0.050083496 0.044621628 0.041979626 -0.034610506 -0.1882762 0.10965217 -0.060687747 -0.072907425
0.05814922 -0.009554922 0.029440671 -0.040975664 0.18852702 -0.08189449 0.20289697 0.0009775277
-0.10851434 0.23928456 0.086071596 0.10019636 0.26642644 0.104112886 0.17538553 0.04554068
0.21457438 0.06116223 0.19150624 0.03472299 -0.039625976 0.1625513 0.28907484 0.133597
0.1065523 0.16915826 0.10081139 -0.08416114 0.011471821 0.22939081 0.17534897 -0.05752318
0.1962964 0.25242817 0.0014699631 0.11141599 -0.009033924 0.205381 0.12239473 0.092535496
0.15251936 0.015011534 0.16914926 0.016958887 0.18242776 -0.09201756 0.07583357 -0.007967215
0.018019943 0.21601963 0.086560585 0.22918035 0.096640654 0.27349168 0.23936413 0.19592112
0.054518346 0.08486887 -0.10766595 0.28842872 0.12943546 0.21406919 0.052738722 0.008236122
0.2146699 0.18165378 0.16625202 0.052452 0.097022794 0.048089046 0.25755516 0.059028603
00000000: 8ee9 90bd 571b 4a3d 3b94 8f3e 79d9 f2bc
00000010: c972 413d 3f9b 9c3d 4d1c 303d e7c0 eb3a
00000020: 9b14 d23d 8296 a13d f79b 873d 3dcd 8a3d
00000030: 11a9 aa3c e43a 393e f353 823e a906 f43c
00000040: c6f7 c33d 1b1a f03d 9bed ea3d 042f 6cbd
00000050: 0fd9 b73c ab46 bf3d 79b3 003e 41de 79bd
00000060: 17d8 883d 227f 7a3e 44cf ed3d 9f2b 083e
00000070: 65ca 123e 90d7 bf3d 7354 ebbd 7f2a 593e
00000080: 560c 313e 1eed 283e a557 e23d 238c 0e3d
00000090: bf64 2b3e 8396 8abd fa49 083e a627 213e
000000a0: 8059 a0bc 625d 0f3e 3181 193d 82ec bf3d
000000b0: 1d93 463e ba7a 153e 739e e03d 5dac e33d
000000c0: 7515 1a3d b03c 0a3d 01cf fdbd 16ab 8d3e
000000d0: ec47 213e 1ea1 c63d 5009 903e 419f eabb
000000e0: 2493 003e 552b 85bd 5d78 c03a 4d86 683b
000000f0: 248e ef3d b2c9 443e 1094 813e 62aa 333e
00000100: e249 82bd 7839 22bd 4ca9 513d fad1 e33d
00000110: c078 df3d 2831 c33d 2ed4 963d 048f a13d
00000120: b21b f63d 3cdc acbd dae3 a13d 00d2 af39
00000130: 8afd d03d 1421 78bd e089 913c 04d3 733d
00000140: b05a a63c 3870 de3d 6c5c 4cbd 5071 953d
00000150: 80f6 bc3b e81d b4bd b647 ed3d 42db 9b3d
00000160: e02e debb a0ae 21bd 2401 473d 000b 183a
00000170: f0ef 10bd aaa7 b93d a03e 34bc 4011 ba3b
00000180: 3e3c f4bd f8ae 34bd b043 d9bd 6c85 0b3d
00000190: dc8d 60bd b4ba 86bd 64ab 533d 004c e2b9
000001a0: 20c2 203d c4ea de3d 4a25 9c3d 2027 5fbc
000001b0: a0a5 ce3c b0df 4d3d 2452 473d 4070 65bd
000001c0: 307b 7a3c 78f2 afbc 4645 cebd 9840 8e3d
000001d0: 9274 8ebd f445 f9bd 36ad 813d 7c75 db3d
000001e0: 681b f73c 3254 b4bd e2f6 e13d 9084 35bd
000001f0: 54d3 d13d d00b 7f3c 68bd d9bd 6055 e6bb
00000200: 7718 163d 2cdf 0ebe 48af 0a3e 44be c23c
00000210: b633 9dbd 1b4f 23be 4f92 00bd bc6c 433d
00000220: ce01 1a3e 2ef0 cabc b9bc 073e 7b5e 123d
00000230: 3e49 92bd 8254 553e 85d3 bfbd 564b 29bd
00000240: d664 4e3e 1abd 36be 62e6 9e3c 3cc4 77bd
00000250: b2c4 b73c 1768 d83d dddd a3bd 3cc7 d4bc
00000260: 8d14 133e 01bb ec3c 6875 8f3d 1145 323e
00000270: 8c57 b63c 9faa 03be 7a4d 1a3d f153 08bd
00000280: a10e 32be 543f 40bc 2090 a13c 0527 84bd
00000290: 5caa 11bd 9327 113d c283 193e 64b7 b63d
000002a0: 6835 ddbb 52ee fabb 0627 323d 6ca5 f6bd
000002b0: f44b 7ebd da4a 283e 4a77 133e 33d6 283e
000002c0: 5a24 4d3d 2bc5 363d d4f2 2b3d bfc3 0dbd
000002d0: 7acb 40be 5191 e03d b793 78bd 7d50 95bd
000002e0: e02d 6e3d 3f8c 1cbc 902d f13c 19d6 27bd
000002f0: 3a0d 413e 4cb8 a7bd 39c4 4f3e 6320 803a
00000300: c43c debd 0307 753e 4e46 b03d c033 cd3d
00000310: 0c69 883e 2339 d53d 4498 333e dd88 3a3d
00000320: 63b9 5b3e 3f85 7a3d 361a 443e b239 0e3d
00000330: d94e 22bd d973 263e 9e01 943e a7cd 083e
00000340: 1838 da3d d337 2d3e 3476 ce3d ad5c acbd
00000350: 4ef4 3b3c 6de5 6a3e ae8e 333e 6d9d 6bbd
00000360: ec01 493e 443e 813e c7ab c03a 112e e43d
00000370: 0603 14bc 664f 523e 17aa fa3d 4083 bd3d
00000380: 092e 1c3e f0f2 753c 7735 2d3e 5ded 8a3c
00000390: 58ce 3a3e b473 bcbd a14e 9b3d ec88 02bc
000003a0: 8f9e 933c 4034 5d3e ad46 b13d 41ae 6a3e
000003b0: 89eb c53d 1a07 8c3e df1b 753e 8c9f 483e
000003c0: a14e 5f3d bbcf ad3d f77f dcbd eeac 933e
000003d0: bb8a 043e f434 5b3e 8f04 583d cdf0 063c
000003e0: 6dd2 5b3e 7303 3a3e f83d 2a3e e9d7 563d
000003f0: e3b3 c63d 05f9 443d 45de 833e fac7 713d

lstm.bias_hh_l0 f4 [256]
0.10495876 0.27246884 0.19857177 -0.034520708 0.2664445 0.027683228 0.081437245 -0.0019208281
0.26199573 -0.041431252 0.0447089 0.11180676 -0.12706734 0.00800571 0.18118544 0.12783466
0.12940556 0.058594517 0.025158247 0.009470118 0.074405864 0.061730873 -0.043104637 -0.07712611
0.13104427 0.21613395 0.22735679 0.17208683 -0.029317882 0.23422869 0.06804671 0.243783
0.10967661 0.23477818 0.07403092 -0.13098392 0.24312569 0.09504716 0.15697515 0.07685549
0.07144245 0.16225761 0.022097569 0.049696423 0.068133175 0.14977771 0.27495736 0.06581858
0.15655798 0.07594067 0.055176124 0.26016968 -0.013621286 0.27116606 0.07225221 0.0483992
0.17955907 0.026858889 0.17849821 0.024300167 0.24832182 0.1066817 0.22462402 0.12616564
0.08727643 -0.010585234 -0.05976492 -0.09904285 -0.025771767 -0.085746035 0.0030700266 -0.023891255
-0.10152948 0.07478307 0.004129663 0.110783815 0.054540172 0.1054153 -0.08001411 0.035534814
-0.031414628 -0.004855782 -0.103708774 0.06597054 0.11634329 -0.038191125 0.03356807 0.03631206
0.086310476 0.06669323 -0.09206763 -0.10776158 0.037130937 -0.0040304214 0.013130903 -0.07769175
-0.052272424 0.077851936 -0.10768601 0.0444434 -0.006160006 -0.094124615 -0.12233688 0.06931667
0.03130074 -0.10836373 -0.10196477 0.06611252 -0.063646 -0.062425137 0.07395671 -0.03225556
-0.027486205 -0.087910235 0.07748708 -0.11753814 0.09371427 0.06691454 -0.06685467 -0.014567152
0.10151459 -0.042613268 0.061686352 0.040506333 0.019355074 0.11737737 -0.017302707 0.01918614
-0.037326604 -0.06788511 0.07865762 -0.080063626 -0.070695244 -0.049935058 -0.056421027 0.034028154
0.10257634 -0.056158174 0.19845404 0.11549774 0.041931804 0.12138074 -0.114707366 0.16643366
0.0425484 -0.16310954 0.110834666 0.022061 -0.036887944 0.1422328 0.03962237 0.00020856284
0.2173407 0.14925349 0.027926954 0.06087394 -0.18633242 -0.17943269 0.07446855 0.16612029
-0.15089218 -0.19464459 -0.10187775 -0.062121768 0.18593866 0.16740124 0.121543415 -0.032983184
-0.026958557 0.17360064 -0.054214213 -0.012898027 -0.13489988 0.12810859 0.10640948 0.008778091
-0.048402034 0.16870181 0.08217108 -0.09278354 -0.10033196 0.100126736 -0.16756469 0.06490278
0.12812258 0.024039077 0.02112396 0.1291724 0.20415422 -0.13517004 0.05977395 -0.05566391
0.0062001017 0.19281346 0.1913269 0.07726355 0.28010318 0.16924231 0.15158728 0.16497649
0.25790238 -0.08400613 0.016488912 -0.042961705 0.030097894 0.20300283 0.27045587 0.0046388167
0.12024778 0.06280453 0.018637672 -0.14564067 -0.0071395515 0.14167859 0.20018445 -0.0421926
0.20922515 0.16231465 0.024531156 0.0771575 0.07773877 0.1388923 0.07321114 0.22772337
0.100733005 0.06885414 0.1602164 -0.12538145 0.09897134 -0.0629011 0.2288161 0.14106518
0.06870709 0.16264366 0.07478884 0.11282639 0.12653944 0.18906558 0.15918306 0.23051703
-0.020311657 0.12523592 0.033512015 0.2575702 0.1021717 0.07100141 0.121882826 -0.043032695
0.032778665 0.032347426 0.14877811 -0.033594884 0.0714497 0.15426049 0.2070125 0.04677903
00000000: 9ef4 d63d 0981 8b3e 6656 4b3e 9665 0dbd
00000010: 6a6b 883e f0c7 e23c 92c8 a63d 4cc4 fbba
00000020: 4e24 863e d1b3 29bd ae20 373d f1fa e43d
00000030: f11d 02be 622a 033c ad88 393e 17e7 023e
00000040: e482 043e ce00 703d ab18 ce3c 8e28 1b3c
00000050: 1a62 983d 83d9 7c3d 7d8e 30bd 4bf4 9dbd
00000060: 7830 063e 3852 5d3e 38d0 683e 8837 303e
00000070: 0e2c f0bc a5d9 6f3e 135c 8b3d 40a2 793e
00000080: 219e e03d b169 703e 869d 973d a620 06be
00000090: f1f5 783e 16a8 c23d 18be 203e 6966 9d3d
000000a0: 6b50 923d dc26 263e f605 b53c 7a8e 4b3d
000000b0: 6889 8b3d 545f 193e 36c7 8c3e e4cb 863d
000000c0: bc50 203e c886 9b3d 5c00 623d f634 853e
000000d0: d02b 5fbc 47d6 8a3e f7f8 933d 3d3e 463d
000000e0: 55de 373e 2c07 dc3c 3cc8 363e 2511 c73c
000000f0: 1348 7e3e ef7b da3d d703 663e 9131 013e
00000100: fcbd b23d b06d 2dbc 10cc 74bd fad6 cabd
00000110: 501f d3bc 9e9b afbd 8032 493b 98b7 c3bc
00000120: b0ee cfbd de27 993d 2052 873b a0e2 e23d
00000130: 8465 5f3d fae3 d73d 70de a3bd f48c 113d
00000140: a0ac 00bd 401d 9fbb 4465 d4bd 901b 873d
00000150: 6445 ee3d 4c6e 1cbd ac7e 093d f4bb 143d
00000160: 8cc3 b03d 7696 883d f48d bcbd 1ab2 dcbd
00000170: 9c16 183d a011 84bb 0023 573c da1c 9fbd
00000180: 9c1b 56bd d670 9f3d 7c8a dcbd 480a 363d
00000190: e0d9 c9bb 68c4 c0bd c28b fabd e6f5 8d3d
000001a0: 3435 003d ceed ddbd e8d2 d0bd 0066 873d
000001b0: d658 82bd 80b1 7fbd 9e76 973d 681e 04bd
000001c0: c02a e1bc 480a b4bd 8cb1 9e3d d6b7 f0bd
000001d0: 44ed bf3d 7e0a 893d 1aeb 88bd 10ab 6ebc
000001e0: e2e6 cf3d 408b 2ebd d4aa 7c3d f8e9 253d
000001f0: 888e 9e3c 8c63 f03d 68be 8dbc 402c 9d3c
00000200: c8e3 18bd 5907 8bbd 3f17 a13d 66f8 a3bd
00000210: abc8 90bd b488 4cbd bc19 67bd 1b61 0b3d
00000220: 8b13 d23d 1d06 66bd 8937 4b3e 148a ec3d
00000230: afc0 2b3d 7796 f83d b2eb eabd 966d 2a3e
00000240: 3b47 2e3d 3006 27be 49fd e23d 45b9 b43c
00000250: d017 17bd 7aa5 113e 114b 223d a9b1 5a39
00000260: 8f8e 5e3e e8d5 183e 11c7 e43c f456 793d
00000270: edcd 3ebe 34bd 37be f882 983d 701b 2a3e
00000280: 7b83 1abe e950 47be 48a5 d0bd 6573 7ebd
00000290: b466 3e3e 3b6b 2b3e c1eb f83d 6019 07bd
000002a0: 31d8 dcbc 5ec4 313e b90f 5ebd 3f52 53bc
000002b0: 3223 0abe e62e 033e 37ed d93d fbd1 0f3c
000002c0: 3641 46bd 2bc0 2c3e 5049 a83d 4c05 bebd
000002d0: d87a cdbd 3f0f cd3d 1496 2bbe c0eb 843d
000002e0: 9132 033e 99ed c43c 280c ad3c c545 043e
000002f0: ce0d 513e 046a 0abe 88d5 743d d7ff 63bd
00000300: 392a cb3b e470 453e 33eb 433e 5a3c 9e3d
00000310: af69 8f3e db4d 2d3e b239 1b3e 99ef 283e
00000320: c80b 843e 680b acbd c113 873c 9df8 2fbd
00000330: dc8f f63c f9df 4f3e 3179 8a3e 3701 983b
00000340: 7844 f63d a99f 803d 08ae 983c d422 15be
00000350: e6f2 e9bb 3114 113e 27fd 4c3e 26d2 2cbd
00000360: 1e3f 563e d035 263e 90f5 c83c c004 9e3d
00000370: 8135 9f3d c839 0e3e b9ef 953d 5130 693e
00000380: 1b4d ce3d 6603 8d3d c50f 243e ff63 00be
00000390: 7cb1 ca3d 4bd2 80bd c54e 6a3e 6473 103e
000003a0: 4eb6 8c3d 0f8c 263e e42a 993d 8611 e73d
000003b0: 8e93 013e 689a 413e e200 233e a80c 6c3e
000003c0: a264 a6bc d83d 003e e543 093d 3ee0 833e
000003d0: 653f d13d 3069 913d b49d f93d 0d43 30bd
000003e0: ec42 063d bc7e 043d 4a59 183e ca9a 09bd
000003f0: 3854 923d 76f6 1d3e 16fb 533e 5e9b 3f3d

fc.weight f4 [1, 64]
-0.047849633 0.24950665 -0.19348274 0.03139996 0.23043887 0.2424999 0.19844133 -0.17325914
-0.22620434 -0.07177425 -0.12206157 -0.054285362 -0.0779054 -0.15622652 0.19888966 -0.17368521
-0.24962968 0.19850437 -0.24842456 -0.11327602 0.09115662 -0.21638158 0.21201088 0.05634748
-0.14305456 -0.23665483 -0.11151803 -0.212823 0.17682925 0.20293362 -0.053014398 -0.18252333
0.13054135 0.22868039 0.08422798 -0.0017231725 -0.20429389 -0.09915237 -0.24022609 -0.16427352
-0.100392595 -0.22846943 -0.12269083 0.21739708 0.12822194 -0.17129773 -0.14815249 -0.19759458
-0.11431774 -0.15240407 -0.027526738 0.24700762 0.18150899 -0.1561265 0.2779484 -0.11216867
-0.25378552 0.07490125 -0.09961965 -0.024236491 -0.11190907 0.10071134 -0.1553783 0.12147561
00000000: fafd 43bd ac7e 7f3e 5720 46be 3f9d 003d
00000010: 2bf8 6b3e e551 783e 3434 4b3e d86a 31be
00000020: 1ca2 67be 61fe 92bd 6bfb f9bd 545a 5ebd
00000030: de8c 9fbd d8f9 1fbe bba9 4b3e 89da 31be
00000040: ec9e 7fbe bb44 4b3e 0263 7ebe 42fd e7bd
00000050: 52b0 ba3d 2293 5dbe 6119 593e 9dcc 663d
00000060: e57c 12be a555 72be 9163 e4bd 46ee 59be
00000070: ba12 353e d5cd 4f3e a025 59bd 65e7 3abe
00000080: a2ac 053e 312b 6a3e b87f ac3d 13dc e1ba
00000090: 6b32 51be 6610 cbbd d4fd 75be 5137 28be
000000a0: a29a cdbd e4f3 69be 5445 fbbd 579d 5e3e
000000b0: 9d4c 033e ac68 2fbe 49b5 17be 3c56 4abe
000000c0: 6b1f eabd d00f 1cbe c17f e1bc 91ef 7c3e
000000d0: 7edd 393e a0df 1fbe 414f 8e3e b0b8 e5bd
000000e0: 2df0 81be d465 993d 6305 ccbd 9b8b c6bc
000000f0: 9530 e5bd bf41 ce3d 7d1b 1fbe 34c8 f83d

exp_avg f4 [256, 5]
5.2167055e-05 -5.2167055e-05 0.00017914188 -0.00026380148 0.00022801258 0.0012737814 -0.0012737814 0.0010209229
-0.0015538062 0.0009996489 0.00037228418 -0.00037228418 0.000272899 -0.0009693579 0.0007736926 -5.168575e-05
5.168575e-05 -8.46722e-05 3.0900614e-05 -1.0517684e-05 -0.001353838 0.001353838 -0.0011611783 -0.00055106706
0.0009959766 0.0010885466 -0.0010885466 0.00041560398 -0.000298218 -0.00010800072 -5.4757118e-05 5.4757118e-05
0.0006520596 -0.0014432231 0.0013682689 -0.0003912804 0.0003912804 0.00010666669 -0.00020527857 0.00033085461
0.00087753497 -0.00087753497 0.0002184182 -0.0017209154 0.0012965953 0.00024352649 -0.00024352649 0.0005009112
8.1449805e-05 -0.0001626357 0.0001848295 -0.0001848295 -0.00060741475 -0.000289316 0.00020472913 -6.967848e-05
6.967848e-05 -0.00017053956 -0.00016183517 0.00017600249 -0.00025951568 0.00025951568 -3.4303226e-05 -0.00012117691
0.00020544438 -0.000153059 0.000153059 -0.0011048148 0.00030125995 -0.0002271784 -0.00049484207 0.00049484207
-0.0004942607 -0.0005733553 0.0007116447 0.0006531155 -0.0006531155 0.00033247116 0.00012314228 -0.00034710925
0.00031007058 -0.00031007058 9.4861076e-05 -0.0012813383 0.0010873667 0.00024777994 -0.00024777994 -0.00078125956
-0.0007109837 0.0005764505 -0.0012097147 0.0012097147 -0.0011519829 -0.0013026947 0.0016472366 0.00073389907
-0.00073389907 0.0006014522 6.468707e-05 -0.00032117654 0.00023617299 -0.00023617299 0.00025871416 0.00019998153
-0.00027080142 -0.00025834792 0.00025834792 -0.0006386758 -0.0005213536 0.00057902903 0.001552429 -0.001552429
0.0018742847 0.00023122683 -0.0007676086 0.0001825978 -0.0001825978 0.00014464748 -3.8016842e-05 -2.9338686e-05
0.00043993714 -0.00043993714 -0.000111857815 -0.0010956151 0.0008676569 0.0009778411 -0.0009778411 0.0010030715
-0.0009767949 0.0005655164 -0.0005307269 0.0005307269 -0.0002466769 -0.0003827527 0.0005462585 -0.00013592262
0.00013592262 -6.620568e-05 -0.0010663207 0.0010448556 -0.00065477466 0.00065477466 -0.0009071645 -0.0004000284
0.00060647255 0.00089849834 -0.00089849834 0.00035393628 -0.0014696324 0.0010543022 -3.954733e-05 3.954733e-05
-6.771798e-05 -0.000114534174 0.0001210914 0.00084530714 -0.00084530714 0.0008330659 -0.00017618253 -0.00013564149
0.0007942665 -0.0007942665 2.2527624e-05 -0.00024011514 -5.7758512e-05 -0.0011783714 0.0011783714 -0.0015877356
-0.00012957619 0.00053972186 -0.0007065044 0.0007065044 -0.0005104087 -0.00026161785 0.00049549324 1.581735e-05
-1.581735e-05 2.406257e-05 1.06076e-05 -1.5532902e-05 0.0008390475 -0.0008390475 0.00087235396 -0.0008845007
0.00052856654 0.00042859314 -0.00042859314 2.5116735e-05 -0.00012919719 -3.151376e-05 0.00058807974 -0.00058807974
-0.0002241957 -4.883246e-05 -0.0001632798 0.0008372663 -0.0008372663 0.00088465284 0.00019403175 -0.00047878196
-0.00017429363 0.00017429363 0.00016592318 0.00013738917 -6.648338e-05 -0.0010443307 0.0010443307 -0.0007272303
-0.00078927877 0.0011086521 -0.00014509322 0.00014509322 0.0003128521 0.00033909673 -0.00026537004 0.00092195615
-0.00092195615 0.00082384126 1.8483945e-05 -0.00034480394 0.00029715587 -0.00029715587 1.7743017e-05 0.0003787734
-0.00045956223 0.00026699385 -0.00026699385 -0.00026451863 0.00017218449 -0.00025577194 0.0004470548 -0.0004470548
0.00034356915 -0.00016398249 -5.56247e-06 0.00060652493 -0.00060652493 0.0003877107 0.0007849286 -0.00094905397
0.00023356223 -0.00023356223 0.0005250135 0.00014761226 -0.00022093038 0.00075542374 -0.00075542374 7.844739e-05
0.00044390338 -0.00068323355 3.8379032e-05 -3.8379032e-05 -3.992358e-06 1.8224928e-05 -3.0667085e-05 0.0012574318
00000000: f3cd 5a38 f3cd 5ab8 08d8 3b39 d64e 8ab9
00000010: a916 6f39 03f5 a63a 03f5 a6ba 7dd0 853a
00000020: 16a9 cbba a706 833a 232f c339 232f c3b9
00000030: e213 8f39 821c 7eba a2d1 4a3a 27c9 58b8
00000040: 27c9 5838 0b92 b1b8 489b 0138 1c75 30b7
00000050: 4473 b1ba 4473 b13a ae32 98ba 7c75 10ba
00000060: 6e8b 823a 90ad 8e3a 90ad 8eba 6ce5 d939
00000070: 245a 9cb9 727e e2b8 02ab 65b8 02ab 6538
00000080: fbee 2a3a 882a bdba 7c57 b33a c424 cdb9
00000090: c424 cd39 3eb2 df38 0c40 57b9 8e76 ad39
000000a0: 600a 663a 600a 66ba 3007 6539 5790 e1ba
000000b0: 85f2 a93a 255b 7f39 255b 7fb9 954f 033a
000000c0: 08d0 aa38 3089 2ab9 cbce 4139 cbce 41b9
000000d0: ea3a 1fba 56af 97b9 8fac 5639 5920 92b8
000000e0: 5920 9238 ddd2 32b9 4cb2 29b9 4f8d 3839
000000f0: 9b0f 88b9 9b0f 8839 cfe0 0fb8 5c20 feb8
00000100: 8e6c 5739 767e 20b9 767e 2039 6fcf 90ba
00000110: 6df2 9d39 bd36 6eb9 4ab8 01ba 4ab8 013a
00000120: 4691 01ba 394d 16ba ab8d 3a3a d735 2b3a
00000130: d735 2bba 864f ae39 c11f 0139 37fc b5b9
00000140: f890 a239 f890 a2b9 27f0 c638 94f2 a7ba
00000150: f985 8e3a 76e8 8139 76e8 81b9 71cd 4cba
00000160: 4f61 3aba f01c 173a 4a8f 9eba 4a8f 9e3a
00000170: 22fe 96ba 2ebf aaba 17e8 d73a 2263 403a
00000180: 2263 40ba c6aa 1d3a 9ba8 8738 9663 a8b9
00000190: 34a5 7739 34a5 77b9 07a4 8739 22b2 5139
000001a0: 5afa 8db9 df72 87b9 df72 8739 cf6c 27ba
000001b0: 73ab 08ba fbc9 173a e07a cb3a e07a cbba
000001c0: 8faa f53a 7b75 7239 5739 49ba b977 3f39
000001d0: b977 3fb9 83ac 1739 4674 1fb8 591c f6b7
000001e0: 5da7 e639 5da7 e6b9 3595 eab8 be9a 8fba
000001f0: 7873 633a e72a 803a e72a 80ba 7f79 833a
00000200: cc07 80ba 2a3f 143a 7b20 0bba 7b20 0b3a
00000210: 6a54 81b9 33ac c8b9 ca32 0f3a 7386 0eb9
00000220: 7386 0e39 e7d7 8ab8 c9c3 8bba 89f3 883a
00000230: 2fa5 2bba 2fa5 2b3a c7ce 6dba e7ba d1b9
00000240: affb 1e3a 3489 6b3a 3489 6bba 8690 b939
00000250: aea0 c0ba 8330 8a3a 9fdf 25b8 9fdf 2538
00000260: d003 8eb8 1132 f0b8 73f2 fd38 9a97 5d3a
00000270: 9a97 5dba 1b62 5a3a a3bd 38b9 fc3a 0eb9
00000280: 5336 503a 5336 50ba b4f9 bc37 6bc7 7bb9
00000290: bb41 72b8 9573 9aba 9573 9a3a 911b d0ba
000002a0: d8de 07b9 1f7c 0d3a b534 39ba b534 393a
000002b0: f3cc 05ba c129 89b9 fde3 013a 80af 8437
000002c0: 80af 84b7 fad9 c937 4cf7 3137 a74c 82b7
000002d0: 86f3 5b3a 86f3 5bba afae 643a d6dd 67ba
000002e0: 808f 0a3a ccb4 e039 ccb4 e0b9 c7b1 d237
000002f0: 1b79 07b9 a42d 04b8 5d29 1a3a 5d29 1aba
00000300: 1316 6bb9 74d1 4cb8 1636 2bb9 fe7b 5b3a
00000310: fe7b 5bba 0ce8 673a 0075 4b39 0705 fbb9
00000320: 97c2 36b9 97c2 3639 aafb 2d39 2010 1039
00000330: fe6c 8bb8 ece1 88ba ece1 883a 99a3 3eba
00000340: 9ae7 4eba 3150 913a 2a24 18b9 2a24 1839
00000350: 4c06 a439 cbc8 b139 5d21 8bb9 6eaf 713a
00000360: 6eaf 71ba 0df7 573a f80d 9b37 cdc6 b4b9
00000370: 96cb 9b39 96cb 9bb9 d7d6 9437 1b96 c639
00000380: 66f1 f0b9 4ffb 8b39 4ffb 8bb9 17af 8ab9
00000390: 6c8c 3439 2119 86b9 ae62 ea39 ae62 eab9
000003a0: 1221 b439 b7f2 2bb9 41a5 bab6 33ff 1e3a
000003b0: 33ff 1eba a645 cb39 abc3 4d3a efc9 78ba
000003c0: 62e8 7439 62e8 74b9 0fa1 093a 5dc8 1a39
000003d0: 8ca9 67b9 a107 463a a107 46ba 1f84 a438
000003e0: b4bb e839 071b 33ba 2cf9 2038 2cf9 20b8
000003f0: 18f6 85b6 bce1 9837 88a0 00b8 69d0 a43a

exp_avg_sq f4 [256, 5]
1.4710569e-09 1.4710569e-09 7.3613755e-09 9.656941e-09 6.983702e-09 3.1598407e-07 3.1598407e-07 2.478938e-07
3.655464e-07 1.3916784e-07 2.1729637e-08 2.1729637e-08 6.320128e-08 1.2623003e-07 8.231704e-08 1.5270869e-09
1.5270869e-09 3.8276475e-09 3.8096033e-09 1.9603263e-09 1.2028127e-07 1.2028127e-07 1.902015e-07 8.9293835e-08
1.3372251e-07 1.5920284e-07 1.5920284e-07 4.4064006e-08 2.5598053e-08 1.5314807e-08 9.985607e-08 9.985607e-08
5.0499364e-07 5.179515e-07 3.9274855e-07 4.2461497e-08 4.2461497e-08 2.2269214e-07 1.0271888e-07 6.208216e-08
6.455061e-08 6.455061e-08 2.6398007e-08 3.7755908e-07 2.3934507e-07 2.32635e-08 2.32635e-08 8.090212e-08
2.4908037e-08 1.8472823e-08 9.571689e-09 9.571689e-09 6.087749e-08 2.2084693e-08 1.1207836e-08 1.2665643e-09
1.2665643e-09 4.4419086e-09 2.3270563e-09 2.0851438e-09 2.4421423e-08 2.4421423e-08 1.571856e-08 7.508351e-09
9.996027e-09 3.8442542e-09 3.8442542e-09 7.280406e-08 1.6952473e-08 1.3124048e-08 2.7496288e-08 2.7496288e-08
1.2217711e-07 9.425918e-08 9.0264024e-08 2.374582e-08 2.374582e-08 1.38256855e-08 5.4170735e-09 6.875448e-09
4.6693987e-08 4.6693987e-08 1.8726895e-07 3.459471e-07 2.3753317e-07 1.6695774e-08 1.6695774e-08 1.1982415e-07
1.0860122e-07 7.3126216e-08 9.435985e-08 9.435985e-08 1.3077045e-07 2.0297357e-07 2.705523e-07 8.1900254e-08
8.1900254e-08 6.800525e-08 1.9397346e-08 4.8442676e-08 4.917314e-09 4.917314e-09 1.0369316e-08 7.400461e-09
7.742935e-09 1.4580668e-08 1.4580668e-08 1.2285703e-07 8.5489496e-08 6.513648e-08 4.815584e-07 4.815584e-07
5.563137e-07 1.4076919e-07 2.07603e-07 1.8462506e-09 1.8462506e-09 2.0398423e-09 6.574476e-10 6.246036e-10
1.1354394e-08 1.1354394e-08 1.4671678e-08 1.4057127e-07 1.0196857e-07 2.1020426e-07 2.1020426e-07 3.2430205e-07
2.5247328e-07 9.822031e-08 2.9280473e-08 2.9280473e-08 5.8053875e-08 3.7502225e-08 4.2437676e-08 2.8266502e-08
2.8266502e-08 1.6133414e-07 2.7607138e-07 2.3062422e-07 4.322615e-08 4.322615e-08 7.2426936e-08 2.4573197e-08
4.176748e-08 1.4686073e-07 1.4686073e-07 3.5400404e-08 2.6739565e-07 1.2228554e-07 3.8893339e-10 3.8893339e-10
2.5764837e-09 3.769509e-09 3.1692489e-09 7.83632e-08 7.83632e-08 8.625727e-08 2.9517667e-08 1.2467593e-08
7.7486284e-08 7.7486284e-08 7.0915607e-09 5.1760867e-09 3.558841e-09 1.041746e-07 1.041746e-07 1.8954562e-07
1.449041e-08 3.973182e-08 1.5900294e-08 1.5900294e-08 1.704134e-08 6.731344e-09 1.2194009e-08 3.8003964e-09
3.8003964e-09 1.17145715e-08 1.4172894e-08 1.7433365e-08 1.2610188e-07 1.2610188e-07 2.3075391e-07 1.8296544e-07
7.6097585e-08 2.0540584e-08 2.0540584e-08 1.5329727e-08 8.64172e-09 9.718776e-09 1.0075949e-07 1.0075949e-07
1.1593485e-07 4.8366434e-08 2.389984e-08 1.0410203e-07 1.0410203e-07 1.421354e-07 4.6338393e-08 4.9766324e-08
1.9494612e-08 1.9494612e-08 5.224783e-08 2.458436e-08 1.0368153e-08 1.641743e-07 1.641743e-07 3.54358e-07
2.5061448e-07 2.9126883e-07 2.6404647e-08 2.6404647e-08 1.4390909e-07 6.726044e-08 3.5254565e-08 1.1049466e-07
1.1049466e-07 1.4913292e-07 5.408499e-08 3.531357e-08 1.0607917e-08 1.0607917e-08 1.2282435e-08 8.344165e-09
1.0312225e-08 3.3748734e-08 3.3748734e-08 6.07537e-08 2.0634667e-08 1.2926335e-08 6.726891e-08 6.726891e-08
1.4193073e-07 6.5206265e-08 2.6355936e-08 9.956317e-08 9.956317e-08 1.6390352e-07 8.3643336e-08 8.482948e-08
2.1029326e-08 2.1029326e-08 8.294456e-08 3.3545035e-08 2.273827e-08 5.14483e-08 5.14483e-08 5.9318523e-09
1.30428015e-08 3.2881253e-08 4.8733884e-09 4.8733884e-09 3.9966865e-09 2.46663e-09 8.1827245e-10 2.4992806e-07
00000000: 372e ca30 372e ca30 58ef fc31 ade7 2532
00000010: 4bf5 ef31 85a4 a934 85a4 a934 4416 8534
00000020: 5140 c434 2a6e 1534 faa7 ba32 faa7 ba32
00000030: 45b9 8733 d989 0734 45c6 b033 98e1 d130
00000040: 98e1 d130 5884 8331 a0e5 8231 6db6 0631
00000050: aa26 0134 aa26 0134 313a 4c34 cec1 bf33
00000060: 5d95 0f34 58f1 2a34 58f1 2a34 e340 3d33
00000070: b7e2 db32 9e8d 8332 7470 d633 7470 d633
00000080: e68e 0735 5b09 0b35 f3da d234 e95e 3633
00000090: e95e 3633 261d 6f34 4d96 dc33 0752 8533
000000a0: 139f 8a33 139f 8a33 d5c1 e232 53b3 ca34
000000b0: 567f 8034 fad4 c732 fad4 c732 69bc ad33
000000c0: 5af5 d532 2bae 9e32 bc70 2432 bc70 2432
000000d0: c1bb 8233 c1b4 bd32 968c 4032 4513 ae30
000000e0: 4513 ae30 719f 9831 02ea 1f31 3d4a 0f31
000000f0: 47c7 d132 47c7 d132 7b05 8732 14fe 0032
00000100: feba 2b32 6b16 8431 6b16 8431 7558 9c33
00000110: e29e 9132 2c78 6132 fa30 ec32 fa30 ec32
00000120: ca2f 0334 886b ca33 2cd7 c133 9cf9 cb32
00000130: 9cf9 cb32 0286 6d32 1521 ba31 153d ec31
00000140: 958c 4833 958c 4833 1914 4934 9bba b934
00000150: 9f0c 7f34 656a 8f32 656a 8f32 03a9 0034
00000160: 2738 e933 9009 9d33 e0a2 ca33 e0a2 ca33
00000170: e869 0c34 f3f0 5934 6d40 9134 24e1 af33
00000180: 24e1 af33 480a 9233 379f a632 490f 5033
00000190: 27f5 a831 27f5 a831 bc24 3232 2547 fe31
000001a0: ca05 0532 757e 7a32 757e 7a32 afea 0334
000001b0: 5996 b733 29e1 8b33 7144 0135 7144 0135
000001c0: 9655 1535 5726 1734 7ae9 5e34 2bbf fd30
000001d0: 2bbf fd30 492d 0c31 c3b7 3430 92b0 2b30
000001e0: 2711 4332 2711 4332 b90e 7c32 f0ef 1634
000001f0: d0f9 da33 82b4 6134 82b4 6134 bc1b ae34
00000200: aa8b 8734 30ed d233 7184 fb32 7184 fb32
00000210: e956 7933 2212 2133 b844 3633 b2ce f232
00000220: b2ce f232 313b 2d34 f636 9434 81a1 7734
00000230: a8a7 3933 a8a7 3933 2189 9b33 0815 d332
00000240: d463 3333 c5b0 1d34 c5b0 1d34 280b 1833
00000250: 948e 8f34 984d 0334 82d1 d52f 82d1 d52f
00000260: fb0d 3131 f484 8131 04ca 5931 a048 a833
00000270: a048 a833 703c b933 098e fd32 0e31 5632
00000280: 8966 a633 8966 a633 07aa f331 57d9 b131
00000290: cb8f 7431 98b6 df33 98b6 df33 e785 4b34
000002a0: 7ff1 7832 99a5 2a33 1e95 8832 1e95 8832
000002b0: 4e62 9232 8749 e731 d27d 5132 a494 8231
000002c0: a494 8231 3b41 4932 0c7d 7332 60c0 9532
000002d0: 9f66 0734 9f66 0734 27c5 7734 2875 4434
000002e0: 176b a333 3971 b032 3971 b032 6dae 8332
000002f0: b076 1432 a1f7 2632 1e61 d833 1e61 d833
00000300: dcf7 f833 75bb 4f33 4e4c cd32 b28e df33
00000310: b28e df33 e29d 1834 9a05 4733 a7be 5533
00000320: 1b75 a732 1b75 a732 1967 6033 942d d332
00000330: 9e1f 3232 e347 3034 e347 3034 983e be34
00000340: 318c 8634 af5f 9c34 6fd0 e232 6fd0 e232
00000350: 6e85 1a34 d170 9033 ce6a 1733 1549 ed33
00000360: 1549 ed33 5821 2034 134b 6833 aeab 1733
00000370: 1d3e 3632 1d3e 3632 b802 5332 075a 0f32
00000380: a529 3132 20f3 1033 20f3 1033 b377 8233
00000390: 1d40 b132 9f12 5e32 7975 9033 7975 9033
000003a0: 9f65 1834 8607 8c33 5165 e232 6ecf d533
000003b0: 6ecf d533 75fd 2f34 699f b333 802b b633
000003c0: faa3 b432 faa3 b432 411f b233 2813 1033
000003d0: fc51 c332 01f8 5c33 01f8 5c33 20d1 cb31
000003e0: d912 6032 5239 0d33 c772 a731 c772 a731
000003f0: 3a53 8931 6a81 2931 ceec 6030 da2d 8634

exp_avg f4 [256, 64]
0.0 0.0 0.0 0.0 0.0 0.0 0.0 0.0
0.0 0.0 0.0 0.0 0.0 0.0 0.0 0.0
0.0 0.0 0.0 0.0 0.0 0.0 0.0 0.0
0.0 0.0 0.0 0.0 0.0 0.0 0.0 0.0
0.0 0.0 0.0 0.0 0.0 0.0 0.0 0.0
0.0 0.0 0.0 0.0 0.0 0.0 0.0 0.0
0.0 0.0 0.0 0.0 0.0 0.0 0.0 0.0
0.0 0.0 0.0 0.0 0.0 0.0 0.0 0.0
0.0 0.0 0.0 0.0 0.0 0.0 0.0 0.0
0.0 0.0 0.0 0.0 0.0 0.0 0.0 0.0
0.0 0.0 0.0 0.0 0.0 0.0 0.0 0.0
0.0 0.0 0.0 0.0 0.0 0.0 0.0 0.0
0.0 0.0 0.0 0.0 0.0 0.0 0.0 0.0
0.0 0.0 0.0 0.0 0.0 0.0 0.0 0.0
0.0 0.0 0.0 0.0 0.0 0.0 0.0 0.0
0.0 0.0 0.0 0.0 0.0 0.0 0.0 0.0
0.0 0.0 0.0 0.0 0.0 0.0 0.0 0.0
0.0 0.0 0.0 0.0 0.0 0.0 0.0 0.0
0.0 0.0 0.0 0.0 0.0 0.0 0.0 0.0
0.0 0.0 0.0 0.0 0.0 0.0 0.0 0.0
0.0 0.0 0.0 0.0 0.0 0.0 0.0 0.0
0.0 0.0 0.0 0.0 0.0 0.0 0.0 0.0
0.0 0.0 0.0 0.0 0.0 0.0 0.0 0.0
0.0 0.0 0.0 0.0 0.0 0.0 0.0 0.0
0.0 0.0 0.0 0.0 0.0 0.0 0.0 0.0
0.0 0.0 0.0 0.0 0.0 0.0 0.0 0.0
0.0 0.0 0.0 0.0 0.0 0.0 0.0 0.0
0.0 0.0 0.0 0.0 0.0 0.0 0.0 0.0
0.0 0.0 0.0 0.0 0.0 0.0 0.0 0.0
0.0 0.0 0.0 0.0 0.0 0.0 0.0 0.0
0.0 0.0 0.0 0.0 0.0 0.0 0.0 0.0
0.0 0.0 0.0 0.0 0.0 0.0 0.0 0.0
00000000: 0000 0000 0000 0000 0000 0000 0000 0000
00000010: 0000 0000 0000 0000 0000 0000 0000 0000
00000020: 0000 0000 0000 0000 0000 0000 0000 0000
00000030: 0000 0000 0000 0000 0000 0000 0000 0000
00000040: 0000 0000 0000 0000 0000 0000 0000 0000
00000050: 0000 0000 0000 0000 0000 0000 0000 0000
00000060: 0000 0000 0000 0000 0000 0000 0000 0000
00000070: 0000 0000 0000 0000 0000 0000 0000 0000
00000080: 0000 0000 0000 0000 0000 0000 0000 0000
00000090: 0000 0000 0000 0000 0000 0000 0000 0000
000000a0: 0000 0000 0000 0000 0000 0000 0000 0000
000000b0: 0000 0000 0000 0000 0000 0000 0000 0000
000000c0: 0000 0000 0000 0000 0000 0000 0000 0000
000000d0: 0000 0000 0000 0000 0000 0000 0000 0000
000000e0: 0000 0000 0000 0000 0000 0000 0000 0000
000000f0: 0000 0000 0000 0000 0000 0000 0000 0000
00000100: 0000 0000 0000 0000 0000 0000 0000 0000
00000110: 0000 0000 0000 0000 0000 0000 0000 0000
00000120: 0000 0000 0000 0000 0000 0000 0000 0000
00000130: 0000 0000 0000 0000 0000 0000 0000 0000
00000140: 0000 0000 0000 0000 0000 0000 0000 0000
00000150: 0000 0000 0000 0000 0000 0000 0000 0000
00000160: 0000 0000 0000 0000 0000 0000 0000 0000
00000170: 0000 0000 0000 0000 0000 0000 0000 0000
00000180: 0000 0000 0000 0000 0000 0000 0000 0000
00000190: 0000 0000 0000 0000 0000 0000 0000 0000
000001a0: 0000 0000 0000 0000 0000 0000 0000 0000
000001b0: 0000 0000 0000 0000 0000 0000 0000 0000
000001c0: 0000 0000 0000 0000 0000 0000 0000 0000
000001d0: 0000 0000 0000 0000 0000 0000 0000 0000
000001e0: 0000 0000 0000 0000 0000 0000 0000 0000
000001f0: 0000 0000 0000 0000 0000 0000 0000 0000
00000200: 0000 0000 0000 0000 0000 0000 0000 0000
00000210: 0000 0000 0000 0000 0000 0000 0000 0000
00000220: 0000 0000 0000 0000 0000 0000 0000 0000
00000230: 0000 0000 0000 0000 0000 0000 0000 0000
00000240: 0000 0000 0000 0000 0000 0000 0000 0000
00000250: 0000 0000 0000 0000 0000 0000 0000 0000
00000260: 0000 0000 0000 0000 0000 0000 0000 0000
00000270: 0000 0000 0000 0000 0000 0000 0000 0000
00000280: 0000 0000 0000 0000 0000 0000 0000 0000
00000290: 0000 0000 0000 0000 0000 0000 0000 0000
000002a0: 0000 0000 0000 0000 0000 0000 0000 0000
000002b0: 0000 0000 0000 0000 0000 0000 0000 0000
000002c0: 0000 0000 0000 0000 0000 0000 0000 0000
000002d0: 0000 0000 0000 0000 0000 0000 0000 0000
000002e0: 0000 0000 0000 0000 0000 0000 0000 0000
000002f0: 0000 0000 0000 0000 0000 0000 0000 0000
00000300: 0000 0000 0000 0000 0000 0000 0000 0000
00000310: 0000 0000 0000 0000 0000 0000 0000 0000
00000320: 0000 0000 0000 0000 0000 0000 0000 0000
00000330: 0000 0000 0000 0000 0000 0000 0000 0000
00000340: 0000 0000 0000 0000 0000 0000 0000 0000
00000350: 0000 0000 0000 0000 0000 0000 0000 0000
00000360: 0000 0000 0000 0000 0000 0000 0000 0000
00000370: 0000 0000 0000 0000 0000 0000 0000 0000
00000380: 0000 0000 0000 0000 0000 0000 0000 0000
00000390: 0000 0000 0000 0000 0000 0000 0000 0000
000003a0: 0000 0000 0000 0000 0000 0000 0000 0000
000003b0: 0000 0000 0000 0000 0000 0000 0000 0000
000003c0: 0000 0000 0000 0000 0000 0000 0000 0000
000003d0: 0000 0000 0000 0000 0000 0000 0000 0000
000003e0: 0000 0000 0000 0000 0000 0000 0000 0000
000003f0: 0000 0000 0000 0000 0000 0000 0000 0000

exp_avg_sq f4 [256, 64]
0.0 0.0 0.0 0.0 0.0 0.0 0.0 0.0
0.0 0.0 0.0 0.0 0.0 0.0 0.0 0.0
0.0 0.0 0.0 0.0 0.0 0.0 0.0 0.0
0.0 0.0 0.0 0.0 0.0 0.0 0.0 0.0
0.0 0.0 0.0 0.0 0.0 0.0 0.0 0.0
0.0 0.0 0.0 0.0 0.0 0.0 0.0 0.0
0.0 0.0 0.0 0.0 0.0 0.0 0.0 0.0
0.0 0.0 0.0 0.0 0.0 0.0 0.0 0.0
0.0 0.0 0.0 0.0 0.0 0.0 0.0 0.0
0.0 0.0 0.0 0.0 0.0 0.0 0.0 0.0
0.0 0.0 0.0 0.0 0.0 0.0 0.0 0.0
0.0 0.0 0.0 0.0 0.0 0.0 0.0 0.0
0.0 0.0 0.0 0.0 0.0 0.0 0.0 0.0
0.0 0.0 0.0 0.0 0.0 0.0 0.0 0.0
0.0 0.0 0.0 0.0 0.0 0.0 0.0 0.0
0.0 0.0 0.0 0.0 0.0 0.0 0.0 0.0
0.0 0.0 0.0 0.0 0.0 0.0 0.0 0.0
0.0 0.0 0.0 0.0 0.0 0.0 0.0 0.0
0.0 0.0 0.0 0.0 0.0 0.0 0.0 0.0
0.0 0.0 0.0 0.0 0.0 0.0 0.0 0.0
0.0 0.0 0.0 0.0 0.0 0.0 0.0 0.0
0.0 0.0 0.0 0.0 0.0 0.0 0.0 0.0
0.0 0.0 0.0 0.0 0.0 0.0 0.0 0.0
0.0 0.0 0.0 0.0 0.0 0.0 0.0 0.0
0.0 0.0 0.0 0.0 0.0 0.0 0.0 0.0
0.0 0.0 0.0 0.0 0.0 0.0 0.0 0.0
0.0 0.0 0.0 0.0 0.0 0.0 0.0 0.0
0.0 0.0 0.0 0.0 0.0 0.0 0.0 0.0
0.0 0.0 0.0 0.0 0.0 0.0 0.0 0.0
0.0 0.0 0.0 0.0 0.0 0.0 0.0 0.0
0.0 0.0 0.0 0.0 0.0 0.0 0.0 0.0
0.0 0.0 0.0 0.0 0.0 0.0 0.0 0.0
00000000: 0000 0000 0000 0000 0000 0000 0000 0000
00000010: 0000 0000 0000 0000 0000 0000 0000 0000
00000020: 0000 0000 0000 0000 0000 0000 0000 0000
00000030: 0000 0000 0000 0000 0000 0000 0000 0000
00000040: 0000 0000 0000 0000 0000 0000 0000 0000
00000050: 0000 0000 0000 0000 0000 0000 0000 0000
00000060: 0000 0000 0000 0000 0000 0000 0000 0000
00000070: 0000 0000 0000 0000 0000 0000 0000 0000
00000080: 0000 0000 0000 0000 0000 0000 0000 0000
00000090: 0000 0000 0000 0000 0000 0000 0000 0000
000000a0: 0000 0000 0000 0000 0000 0000 0000 0000
000000b0: 0000 0000 0000 0000 0000 0000 0000 0000
000000c0: 0000 0000 0000 0000 0000 0000 0000 0000
000000d0: 0000 0000 0000 0000 0000 0000 0000 0000
000000e0: 0000 0000 0000 0000 0000 0000 0000 0000
000000f0: 0000 0000 0000 0000 0000 0000 0000 0000
00000100: 0000 0000 0000 0000 0000 0000 0000 0000
00000110: 0000 0000 0000 0000 0000 0000 0000 0000
00000120: 0000 0000 0000 0000 0000 0000 0000 0000
00000130: 0000 0000 0000 0000 0000 0000 0000 0000
00000140: 0000 0000 0000 0000 0000 0000 0000 0000
00000150: 0000 0000 0000 0000 0000 0000 0000 0000
00000160: 0000 0000 0000 0000 0000 0000 0000 0000
00000170: 0000 0000 0000 0000 0000 0000 0000 0000
00000180: 0000 0000 0000 0000 0000 0000 0000 0000
00000190: 0000 0000 0000 0000 0000 0000 0000 0000
000001a0: 0000 0000 0000 0000 0000 0000 0000 0000
000001b0: 0000 0000 0000 0000 0000 0000 0000 0000
000001c0: 0000 0000 0000 0000 0000 0000 0000 0000
000001d0: 0000 0000 0000 0000 0000 0000 0000 0000
000001e0: 0000 0000 0000 0000 0000 0000 0000 0000
000001f0: 0000 0000 0000 0000 0000 0000 0000 0000
00000200: 0000 0000 0000 0000 0000 0000 0000 0000
00000210: 0000 0000 0000 0000 0000 0000 0000 0000
00000220: 0000 0000 0000 0000 0000 0000 0000 0000
00000230: 0000 0000 0000 0000 0000 0000 0000 0000
00000240: 0000 0000 0000 0000 0000 0000 0000 0000
00000250: 0000 0000 0000 0000 0000 0000 0000 0000
00000260: 0000 0000 0000 0000 0000 0000 0000 0000
00000270: 0000 0000 0000 0000 0000 0000 0000 0000
00000280: 0000 0000 0000 0000 0000 0000 0000 0000
00000290: 0000 0000 0000 0000 0000 0000 0000 0000
000002a0: 0000 0000 0000 0000 0000 0000 0000 0000
000002b0: 0000 0000 0000 0000 0000 0000 0000 0000
000002c0: 0000 0000 0000 0000 0000 0000 0000 0000
000002d0: 0000 0000 0000 0000 0000 0000 0000 0000
000002e0: 0000 0000 0000 0000 0000 0000 0000 0000
000002f0: 0000 0000 0000 0000 0000 0000 0000 0000
00000300: 0000 0000 0000 0000 0000 0000 0000 0000
00000310: 0000 0000 0000 0000 0000 0000 0000 0000
00000320: 0000 0000 0000 0000 0000 0000 0000 0000
00000330: 0000 0000 0000 0000 0000 0000 0000 0000
00000340: 0000 0000 0000 0000 0000 0000 0000 0000
00000350: 0000 0000 0000 0000 0000 0000 0000 0000
00000360: 0000 0000 0000 0000 0000 0000 0000 0000
00000370: 0000 0000 0000 0000 0000 0000 0000 0000
00000380: 0000 0000 0000 0000 0000 0000 0000 0000
00000390: 0000 0000 0000 0000 0000 0000 0000 0000
000003a0: 0000 0000 0000 0000 0000 0000 0000 0000
000003b0: 0000 0000 0000 0000 0000 0000 0000 0000
000003c0: 0000 0000 0000 0000 0000 0000 0000 0000
000003d0: 0000 0000 0000 0000 0000 0000 0000 0000
000003e0: 0000 0000 0000 0000 0000 0000 0000 0000
000003f0: 0000 0000 0000 0000 0000 0000 0000 0000
