lightning_logs/version_31/checkpoints/epoch=4-step=130.ckpt (torch, 9428 bytes, 12 tensors)

lstm.weight_ih_l0 f4 [4, 5]
0	0x3f2c131a	0.67216647
1	0x3dab6fe4	0.08370951
2	0x3ed02256	0.40651196
3	0x3efd6bfe	0.49496454
4	0xbde6a0ed	-0.11261163
5	0x3e978508	0.29593682
6	0xbf7693ca	-0.9631926
7	0xbf3f4ef8	-0.7472987
8	0x3f0e90f4	0.5568993
9	0xbe9f175c	-0.3107251
10	0xbebc5a72	-0.36787754
11	0xbeac728b	-0.3368114
12	0x3f5f6c9f	0.8727512
13	0x3f70ada0	0.9401493
14	0x3f08645e	0.5327815
15	0x3f8193c0	1.0123215
16	0xbeaf0957	-0.34186813
17	0xbd2ce813	-0.04221351
18	0xbbdbe622	-0.0067107836
19	0x3ecd71d4	0.40125906

lstm.weight_hh_l0 f4 [4, 1]
0	0x3ef32d0c	0.47495306
1	0x3e7ec6f0	0.24880576
2	0xbf35a108	-0.7094884
3	0xbf54c0cc	-0.83106685

lstm.bias_ih_l0 f4 [4]
0	0xbef21098	-0.47278285
1	0xbf600306	-0.87504613
2	0xbf1bbeb3	-0.6083786
3	0x3f689269	0.90848404

lstm.bias_hh_l0 f4 [4]
0	0xbf28dd6f	-0.6596288
1	0xbe195da0	-0.14977121
2	0x3d88c4df	0.06678175
3	0x3f826da8	1.0189714

exp_avg f4 [4, 5]
0	0xbb94f71e	-0.00454606
1	0x3b94f71e	0.00454606
2	0x3b60edbd	0.003432139
3	0xbb6133aa	-0.003436307
4	0x3b9e27e5	0.004826533
5	0x00000000	0.0
6	0x00000000	0.0
7	0x00000000	0.0
8	0x00000000	0.0
9	0x00000000	0.0
10	0xbc0aea8c	-0.008478772
11	0x3c0aea8c	0.008478772
12	0xbc760970	-0.0150168985
13	0xbbb43769	-0.0054997695
14	0x3c059082	0.008152129
15	0xbac73cc6	-0.0015200607
16	0x3ac73cc6	0.0015200607
17	0xba8a8561	-0.0010568314
18	0xbafc3f72	-0.0019244982
19	0x3b19437f	0.0023386178

exp_avg_sq f4 [4, 5]
0	0x36b5222c	5.3981985e-06
1	0x36b5222c	5.3981985e-06
2	0x37ea653a	2.7942111e-05
3	0x37547e7e	1.2665636e-05
4	0x37011d0e	7.695764e-06
5	0x00000000	0.0
6	0x00000000	0.0
7	0x00000000	0.0
8	0x00000000	0.0
9	0x00000000	0.0
10	0x371969b8	9.144125e-06
11	0x371969b8	9.144125e-06
12	0x37efc43b	2.8582397e-05
13	0x37834edd	1.565314e-05
14	0x37bba722	2.2369964e-05
15	0x34349dcd	1.6821214e-07
16	0x34349dcd	1.6821214e-07
17	0x3450aa81	1.9433539e-07
18	0x34c0005e	3.5763054e-07
19	0x34f9b8ed	4.6514415e-07

exp_avg f4 [4, 1]
0	0x00000000	0.0
1	0x00000000	0.0
2	0x00000000	0.0
3	0x00000000	0.0

exp_avg_sq f4 [4, 1]
0	0x00000000	0.0
1	0x00000000	0.0
2	0x00000000	0.0
3	0x00000000	0.0

exp_avg f4 [4]
0	0xbb9ad23b	-0.0047247685
1	0x00000000	0.0
2	0xbc8c5bf0	-0.017133683
3	0xba751be3	-0.0009350164

exp_avg_sq f4 [4]
0	0x376bc1fa	1.4052255e-05
1	0x00000000	0.0
2	0x38269cb7	3.9723436e-05
3	0x33b7636f	8.5396884e-08

exp_avg f4 [4]
0	0xbb9ad23b	-0.0047247685
1	0x00000000	0.0
2	0xbc8c5bf0	-0.017133683
3	0xba751be3	-0.0009350164

exp_avg_sq f4 [4]
0	0x376bc1fa	1.4052255e-05
1	0x00000000	0.0
2	0x38269cb7	3.9723436e-05
3	0x33b7636f	8.5396884e-08
