lightning_logs/version_8/checkpoints/epoch=4-step=130.ckpt (torch, 227860 bytes, 15 tensors)

lstm.weight_ih_l0 f4 [256, 5]
-0.021174857 0.03251114 -0.061661344 0.22149917 -0.16737956 0.23680544 -0.12036162 -0.13880295
-0.015366855 -0.18367963 -0.053157825 0.13327003 -0.04561055 0.07289591 -0.112101786 -0.1165473
0.021266712 -0.020914983 0.060017087 0.034543153 -0.12154345 0.26768735 0.06817591 0.016721904
0.18589275 -0.0057977415 0.002792864 0.15003482 0.1442795 -0.034410615 -0.12574218 0.13612173
-0.06938986 -0.050595403 0.08397865 0.21803601 -0.01734467 0.07788357 -0.06660879 -0.16622289
-0.15652362 0.23219857 -0.027476141 0.0008504994 -0.042400982 0.07207114 -0.13068828 -0.042485867
-0.039463792 0.14269494 -0.13022186 0.048169848 -0.13105175 -0.11535668 0.089280814 0.050008405
-0.111875005 -0.020902181 -0.07606971 -0.14638437 -0.05796056 -0.116031624 -0.060095504 0.087707534
-0.11273715 0.08013842 -0.05060482 0.06625266 0.15933959 -0.13696133 0.1798699 -0.11304332
0.19373614 0.1506457 -0.25488132 -0.12418433 0.24565728 0.040288486 0.21064173 0.038962636
0.2359932 -0.22224154 -0.026668042 0.15702704 0.016368465 0.083791174 0.12487664 -0.20735686
0.029374061 -0.11979879 -0.034982774 0.20534442 -0.0625884 -0.20558836 0.21276069 -0.06806775
0.13123456 -0.0010318094 -0.04609614 0.0013278053 0.07207791 -0.0862128 0.018077457 0.20588621
-0.16409273 0.13241914 -0.1364943 0.08423007 0.101989366 -0.08077387 -0.24274679 0.061223395
-0.027646158 -0.06272816 0.070004076 0.10968629 -0.13005102 -0.048490662 0.11706345 -0.09312407
0.09530355 0.069409296 -0.078382544 -0.13041556 0.10890975 -0.11949401 0.17437935 0.16017826
0.09443065 -0.024091957 -0.08116388 0.0008404008 -0.06996231 0.045075018 0.010443085 0.0429749
-0.13412574 0.12782533 0.23448901 -0.14136209 0.1875423 -0.03498906 0.15554297 0.07692491
-0.042053744 0.24698046 -0.06735051 0.06951716 0.07778609 -0.077534094 -0.025553776 0.24902713
0.029434524 -0.15356702 0.1983653 -0.016123477 0.050396483 -0.057353932 -0.021996543 -0.08469145
0.034255765 0.043498605 -0.05721375 -0.14031331 0.06044351 0.21016194 -0.0734648 -0.029129233
-0.01574218 -0.09524879 0.03153233 -0.07058329 -0.025626095 0.0050818087 -0.0049388264 0.17676297
-0.1833539 -0.0025946677 -0.06586257 -0.18540962 -0.22038656 0.18907109 0.08228747 -0.09762678
0.003555555 -0.14838353 0.193482 -0.058622297 -0.10879222 0.14222726 0.22370742 -0.17570485
0.06039661 0.02737208 -0.16358897 -0.032242246 0.0014089375 -0.011347875 -0.09026303 0.014354734
0.1698434 -0.19387814 0.19379392 0.080320895 -0.083728194 -0.23518635 0.17735471 -0.24651712
0.21597123 -0.026972618 -0.14155531 0.2770611 0.16979508 0.055775076 -0.06795729 0.23436399
-0.14059532 0.18815297 0.10965758 -0.17921194 -0.14931773 0.20625551 -0.0024189937 0.23012482
-0.1038981 -0.13289747 0.13924108 -0.050428025 0.047871724 0.03762919 -0.14310212 0.05220086
-0.22020395 -0.109871 0.1300847 -0.03332149 0.08691017 -0.18782772 -0.06098589 0.19957168
0.0016115765 0.20925073 -0.18183506 0.21202432 0.03056234 0.027366545 0.1052364 -0.12548289
0.0075030094 0.023627628 0.0021960551 0.22987154 -0.11450758 -0.16568981 0.22372797 -0.2139657
00000000: e576 adbc 672a 053d 9b90 7cbd aed0 623e
00000010: 8c65 2bbe 207d 723e 2780 f6bd 5c22 0ebe
00000020: 43c5 7bbc 8316 3cbe 05bc 59bd f077 083e
00000030: 21d2 3abd 734a 953d 9f95 e5bd 5ab0 eebd
00000040: 8737 ae3c e655 abbc 7ad4 753d 1f7d 0d3d
00000050: c6eb f8bd 510e 893e d09f 8b3d 60fc 883c
00000060: ab5a 3e3e fbfa bdbb 7c08 373b baa2 193e
00000070: 01be 133e 25f2 0cbd 8fc2 00be 7f63 0b3e
00000080: 451c 8ebd 203d 4fbd 00fd ab3d d544 5f3e
00000090: 6916 8ebc 6c81 9f3d 306a 88bd 5536 2abe
000000a0: ba47 20be 76c5 6d3e a515 e1bc 0cf4 5e3a
000000b0: a7ac 2dbd 099a 933d 26d3 05be a905 2ebd
000000c0: c9a4 21bd 9f1e 123e e158 05be bf4d 453d
000000d0: 6e32 06be 1f40 ecbd dcd8 b63d 9dd5 4c3d
000000e0: b91e e5bd 0d3b abbc 70ca 9bbd c9e5 15be
000000f0: 0d68 6dbd fda1 edbd b426 76bd 02a0 b33d
00000100: bce2 e6bd 9d1f a43d 0047 4fbd 79af 873d
00000110: eb29 233e 973f 0cbe d12f 383e 4283 e7bd
00000120: c462 463e de42 1a3e ce7f 82be 5b54 febd
00000130: 958d 7b3e 8a05 253d 77b2 573e 4997 1f3d
00000140: 34a8 713e 4993 63be f076 dabc b2cb 203e
00000150: 2917 863c b59a ab3d 53bf ff3d 5b55 54be
00000160: dfa1 f03c 1159 f5bd 194a 0fbd cf45 523e
00000170: 592e 80bd c185 52be f0dd 593e 1b67 8bbd
00000180: 5a62 063e c73d 87ba 4ecf 3cbd c109 ae3a
00000190: 959d 933d 5690 b0bd 2d17 943c d6d3 523e
000001a0: ed07 28be e298 073e 29c5 0bbe d180 ac3d
000001b0: cddf d03d c56c a5bd 9d92 78be 62c5 7a3d
000001c0: 327a e2bc 9f77 80bd 4c5e 8f3d 35a3 e03d
000001d0: 182c 05be 259e 46bd f6be ef3d d5b7 bebd
000001e0: 822e c33d 7626 8e3d 0787 a0bd a88b 05be
000001f0: 130c df3d 47b9 f4bd 8090 323e c505 243e
00000200: db64 c13d 7f5c c5bc 4039 a6bd 584e 5c3a
00000210: 6648 8fbd 95a0 383d 7919 2b3c 7306 303d
00000220: 4258 09be a5e4 023e e31d 703e 39c1 10be
00000230: 170b 403e b050 0fbd a846 1f3e cf8a 9d3d
00000240: 8c40 2cbd 72e8 7c3e 10ef 89bd 035f 8e3d
00000250: 504e 9f3d 32ca 9ebd 2756 d1bc f800 7f3e
00000260: ac20 f13c ac40 1dbe 4620 4b3e 6215 84bc
00000270: 8b6c 4e3d f5eb 6abd 1832 b4bc b672 adbd
00000280: c64f 0c3d 982b 323d f758 6abd 4bae 0fbe
00000290: 9d93 773d b134 573e b774 96bd 6ea0 eebc
000002a0: bff5 80bc cc11 c3bd 0b28 013d f98d 90bd
000002b0: d1ed d1bc 4d85 a63b e1d5 a1bb 5a01 353e
000002c0: 20c1 3bbe 4d0b 2abb f5e2 86bd 05dc 3dbe
000002d0: 04ad 61be da9b 413e 5586 a83d 8df0 c7bd
000002e0: 5004 693b daf1 17be 2520 463e ef1d 70bd
000002f0: 75ce debd 06a4 113e 8f13 653e f9eb 33be
00000300: 7062 773d 6a3b e03c de83 27be 7210 04bd
00000310: 19ac b83a 70ec 39bc d3db b8bd 1e30 6b3c
00000320: 6eeb 2d3e fe87 46be ea71 463e 487f a43d
00000330: b079 abbd b1d4 70be 799c 353e fc6e 7cbe
00000340: 9027 5d3e aef5 dcbc e0f3 10be f4da 8d3e
00000350: c3de 2d3e 6874 643d 312d 8bbd 1dfd 6f3e
00000360: 38f8 0fbe 2cab 403e 2794 e03d 5683 37be
00000370: bfe6 18be a534 533e fb87 1ebb d7a5 6b3e
00000380: 87c8 d4bd 4616 08be 3795 0e3e 9e8d 4ebd
00000390: 2415 443d 1121 1a3d 5d89 12be 92d0 553d
000003a0: 257d 61be 0c04 e1bd ec34 053e 1d7c 08bd
000003b0: f6fd b13d e955 40be 57cc 79bd 855c 4c3e
000003c0: 893b d33a d345 563e f832 3abe e71c 593e
000003d0: df5d fa3c ce2f e03c 2f86 d73d 967e 00be
000003e0: cedb f53b ba8e c13c b1eb 0f3b 7263 6b3e
000003f0: f382 eabd 97aa 29be f218 653e d319 5bbe

lstm.weight_hh_l0 f4 [256, 64]
0.060355663 -0.015003219 0.042304263 0.05081302 0.1182099 0.099968106 -0.10889594 0.07287437
-0.025134504 0.09062208 -0.06652711 0.019915655 -0.035159588 -0.0064138025 0.113919914 -0.07819374
0.04508294 -0.121366695 -0.030121341 0.08074351 -0.10660893 -0.11718652 0.1118301 0.032989427
-0.10112852 0.100842655 -0.031365603 -0.0793336 -0.057087883 -0.099499255 0.03528942 0.08809912
-0.082038134 -0.027641535 0.05812329 -0.016059116 -0.020979851 -0.04985471 -0.07988791 -0.01607883
0.10585585 -0.10850793 0.05853921 -0.08376591 -0.11373675 -0.0076429397 0.015333995 0.017730594
0.11276208 -0.08748135 0.030131474 -0.11138219 -0.017217353 0.09592809 -0.019419834 -0.055143967
0.059792846 0.018137872 -0.005775824 -0.11474939 0.031867504 0.016868204 0.11198205 0.039236322
0.040333644 -0.10088846 0.05155155 -0.037670776 -0.032804295 -0.093198165 -0.11672376 -0.04493624
-0.09096876 -0.07648775 0.09282513 0.039876416 0.07444507 0.078224674 -0.030638441 0.11882506
-0.024789602 -0.022192344 0.08968656 -0.08156249 -0.07591312 -0.1037077 0.10785711 -0.020481184
0.06312713 0.112601385 -0.050243154 0.072335556 0.05408871 0.07237382 -0.045327783 0.12194854
-0.030252233 0.08649905 -0.06350936 0.072653785 -0.055612355 -0.07717273 -0.029443055 0.0740571
0.08924167 0.12040003 0.027436972 -0.0055740774 0.10247189 -0.011329129 -0.06206101 0.038579106
-0.028318197 -0.101619676 0.038810104 -0.0349302 -0.067250535 -0.053915486 0.11896093 0.062625185
-0.049458608 0.08885266 0.060149923 0.009075269 -0.06714629 0.115187645 -0.039445296 0.085893884
0.045440823 0.047955588 -0.07604247 -0.06178148 0.102699846 -0.07780464 -0.07604836 -0.03400792
0.05321513 -0.009355709 0.11894521 0.10917632 -0.10586326 -0.0003632754 -0.11955923 0.0004401058
-0.0026803017 0.06720805 -0.12149389 -0.020542666 -0.052823916 -0.10646993 -0.08321141 0.093678445
0.053667963 0.0936901 0.050026223 -0.06300038 0.04329835 -0.05169685 0.037215576 0.0012649149
-0.066689596 0.052429155 -0.10528161 0.097405374 -0.0220474 -0.048692927 -0.07593146 0.1217189
0.04781826 0.11290826 0.09751533 0.048704624 -0.10374217 -0.0708247 0.06922297 -0.019649073
0.02700235 0.027983591 0.09139715 0.054793105 0.10543588 -0.025034606 -0.0466343 -0.115751386
0.07804069 0.04601966 0.07604508 -0.042695343 -0.05284828 0.011875704 0.09556532 -0.105693
0.026451185 0.11000842 0.10288857 -0.08994609 0.06891169 -0.09265323 0.02493307 0.038918987
-0.020436317 0.10191287 -0.057778716 -0.02066426 0.046096444 -0.1161537 0.09809697 -0.094318286
0.04181069 -0.08372685 0.069358304 -0.07758817 -0.10379037 -0.08027153 0.0627058 -0.076201424
-0.07564111 -0.1155408 -0.10270697 0.0050717145 0.027572602 0.081009164 0.04938759 -0.12421529
-0.094609424 -0.03992054 -0.09088789 0.10987446 0.10965316 0.09166786 0.005048737 -0.10885677
0.011796579 -0.037125662 0.0036724508 0.09309395 0.07917349 0.11652839 0.07191157 -0.041128263
-0.07444751 -0.08889559 0.11584368 0.0075227916 0.114270136 -0.01609689 -0.12329644 -0.12183586
0.031185538 0.04990901 -0.102479786 0.08591154 0.04451841 -0.062134117 -0.11215556 0.04303129
00000000: 8037 773d 10d0 75bc 3c47 2d3d 5021 503d
00000010: 0818 f23d 14bc cc3d d604 dfbd 283f 953d
00000020: e0e6 cdbc 1298 b93d 5e3f 88bd 2826 a33c
00000030: 8003 10bd e02a d2bb d84e e93d 0a24 a0bd
00000040: e4a8 383d 1a8f f8bd 08c1 f6bc da5c a53d
00000050: c855 dabd 7cff efbd 2e07 e53d ec1f 073d
00000060: 781c cfbd 9886 ce3d 3879 00bd a879 a2bd
00000070: fcd4 69bd 44c6 cbbd a48b 103d 506d b43d
00000080: 9c03 a8bd 8070 e2bc b012 6e3d 688e 83bc
00000090: f0dd abbc 7434 4cbd 469c a3bd c0b7 83bc
000000a0: f4ca d83d 6839 debd d0c6 6f3d 768d abbd
000000b0: d0ee e8bd a071 fabb 703b 7b3c c03f 913c
000000c0: ceef e63d 6c29 b3bd 48d6 f63c 581c e4bd
000000d0: 680b 8dbc f275 c43d 5816 9fbc a4de 61bd
000000e0: 58e9 743d e095 943c 2043 bdbb ba01 ebbd
000000f0: 8087 023d 302f 8a3c d856 e53d 44b6 203d
00000100: e434 253d 9c9e cebd b827 533d ac4c 1abd
00000110: cc5d 06bd aede bebd de0c efbd 100f 38bd
00000120: d44d babd 9ca5 9cbd 1a1b be3d 7455 233d
00000130: a876 983d 4234 a03d 78fd fabc 8e5a f33d
00000140: 9013 cbbc b8cc b5bc 96ad b73d 3c0a a7bd
00000150: 5678 9bbd b464 d4bd 30e4 dc3d 28c8 a7bc
00000160: cc48 813d 8e9b e63d c4cb 4dbd aa24 943d
00000170: 208c 5d3d ba38 943d a0a9 39bd 28c0 f93d
00000180: 88d3 f7bc 6a26 b13d 3211 82bd 82cb 943d
00000190: c8c9 63bd bc0c 9ebd 9032 f1bc 40ab 973d
000001a0: 56c4 b63d 4a94 f63d 80c3 e03c c0a6 b6bb
000001b0: c8dc d13d d09d 39bc b033 7ebd 2005 1e3d
000001c0: 90fb e7bc fa1d d0bd 58f7 1e3d f812 0fbd
000001d0: a6ba 89bd 7cd6 5cbd caa1 f33d a241 803d
000001e0: 1c95 4abd 62f8 b53d c45f 763d 70b0 143c
000001f0: fe83 89bd 80e7 eb3d 6491 21bd 22e9 af3d
00000200: 2820 3a3d 146d 443d 28bc 9bbd 940e 7dbd
00000210: 4c54 d23d 0a58 9fbd 3ebf 9bbd e44b 0bbd
00000220: 1cf8 593d b048 19bc 8c99 f33d d697 df3d
00000230: d6ce d8bd 0076 beb9 78db f4bd 00be e639
00000240: 00a8 2fbb 60a4 893d cad1 f8bd 1849 a8bc
00000250: e45d 58bd e80c dabd be6a aabd 7cda bf3d
00000260: f0d2 5b3d 98e0 bf3d 4ce8 4c3d 5806 81bd
00000270: 9c59 313d 14c0 53bd 5c6f 183d 80cb a53a
00000280: 8e94 88bd f4bf 563d e29d d7bd 787c c73d
00000290: c09c b4bc 3c72 47bd f481 9bbd c247 f93d
000002a0: 14dd 433d 723c e73d 1eb6 c73d 807e 473d
000002b0: c676 d4bd 8a0c 91bd c6c4 8d3d 18f7 a0bc
000002c0: 0834 dd3c d83d e53c 6e2e bb3d bc6e 603d
000002d0: c4ee d73d 6015 cdbc 9c03 3fbd 100f edbd
000002e0: ccd3 9f3d 1c7f 3c3d 86bd 9b3d 50e1 2ebd
000002f0: 7077 58bd 5092 423c c0b7 c33d 9275 d8bd
00000300: 28b0 d83c 184c e13d 3eb7 d23d a835 b8bd
00000310: 9221 8d3d fac0 bdbd 7040 cc3c 8469 1f3d
00000320: 106a a7bc b2b7 d03d 60a9 6cbd 1848 a9bc
00000330: a0cf 3c3d fee1 edbd 10e7 c83d f229 c1bd
00000340: b041 2b3d fc78 abbd ba0b 8e3d 8ce6 9ebd
00000350: 0c90 d4bd 6665 a4bd e66b 803d 7e0f 9cbd
00000360: bae9 9abd a8a0 ecbd 0858 d2bd a030 a63b
00000370: f0df e13c 22e8 a53d a44a 4a3d 9664 febd
00000380: 96c2 c1bd b883 23bd 6e23 babd dc05 e13d
00000390: d691 e03d 5cbc bb3d e06f a53b 4cf0 debd
000003a0: 7046 413c 1411 18bd 80ad 703b 0aa8 be3d
000003b0: b625 a23d 70a6 ee3d 6046 933d 1c76 28bd
000003c0: f077 98bd e40e b6bd 743f ed3d c081 f63b
000003d0: 7606 ea3d a0dd 83bc d882 fcbd 1485 f9bd
000003e0: d078 ff3c 646d 4c3d ece0 d1bd 64f2 af3d
000003f0: f058 363d 5880 7ebd d0b1 e5bd 9441 303d

lstm.bias_ih_l0 f4 [256]
0.11455552 0.12599754 0.1358449 -0.07823441 0.11871627 0.12733318 0.08578081 0.24556173
0.13572359 -0.062245097 -0.021929892 0.08944731 0.23659164 -0.06209778 0.21494275 -0.0098108705
-0.0049293996 -0.02545887 0.014733556 0.06187794 0.25582674 0.051244207 0.08929729 -0.02072764
-0.087261185 0.1906989 0.10428815 0.15484364 0.23657331 0.09330273 0.08554961 0.0055872845
0.17874339 0.1325781 0.28687423 0.04889446 0.1880342 0.198509 0.16657846 -0.027408361
0.11201872 0.11985347 0.14711457 0.1733233 0.2512 0.1548658 -0.035794314 0.26426739
0.07741303 0.22579034 0.118274376 0.05697895 0.15677457 0.05852409 0.13896367 0.1823382
0.06302078 0.06567623 0.29219097 0.13606273 0.25582913 0.116086975 0.10283895 0.11909543
0.09666288 0.022293389 -0.10374181 0.11440204 0.06329097 0.063473836 0.07479738 -0.018662855
0.054316342 0.12345128 -0.020820946 0.020965397 -0.100547075 0.04937999 -0.12062651 0.082197785
-0.04687777 -0.072690815 -0.037344724 0.12467241 0.09737936 0.12437579 0.008658677 0.0014010221
0.12151173 0.08624682 0.049405053 0.012350723 -0.0686215 -0.08291192 0.09617238 0.0015774965
0.021152422 -0.02173616 -0.00034552813 -0.1030896 0.009791523 -0.024959117 -0.004531473 0.051429376
-0.08876163 0.03729856 0.077225775 -0.09886858 -0.03539835 -0.0398549 -0.06365888 0.085146844
-0.0064650774 0.022021309 -0.020386636 -0.06060925 -0.07008867 -0.022457033 0.031144872 -0.11607997
0.05267054 -0.041214168 -0.05047196 -0.056381136 -0.10958837 0.086497754 0.08463009 0.00048789382
0.023721866 -0.025308376 0.09090426 -0.15933956 -0.15289944 -0.20197114 -0.13424627 -0.108684145
0.0828957 0.042918596 -0.1406634 -0.038396414 -0.099202976 0.060250897 -0.1895974 0.056001376
-0.0118644005 0.08948191 -0.055275485 -0.04549939 -0.1419412 0.044134814 0.083056144 -0.036651496
0.107140355 -0.19726564 0.004479975 -0.16533023 0.16356343 0.06313533 -0.085961215 0.12881036
-0.09675767 -0.035046753 -0.17108034 0.116847925 0.052240588 0.1749206 -0.18458727 0.037630748
-0.1275408 0.057358112 -0.1937473 0.093791135 0.026602615 0.1817402 0.017031979 0.1631962
-0.046378125 -0.008052596 0.012212958 0.17633247 -0.019954754 -0.050039534 0.03730454 -0.107017204
0.14927939 -0.19846559 0.16328008 0.14119145 -0.17714188 -0.05781091 0.11832236 0.18497193
0.2077935 0.08600964 -0.00382899 0.12186304 0.21043181 0.2131394 0.050013814 0.1650146
0.0023617737 0.00014120738 -0.025841752 0.011255984 0.22163641 0.06358236 0.14719713 0.19219674
0.12710853 0.10524356 0.099805064 0.20398977 0.14617078 0.062238563 0.053135645 0.13742293
0.04557111 0.002224192 0.09358622 0.028402572 0.21424036 0.14766718 -0.011093922 0.10773682
0.08726559 0.2028058 0.23123956 0.2524532 0.2384999 0.1957661 0.112183146 -0.12628567
0.24557795 0.17063208 0.031951968 -0.011890652 0.28075516 0.05332056 0.07640455 0.22549996
0.054585245 0.25642005 0.076881506 0.20730048 0.21660706 -0.0022775177 0.01573216 0.011951393
0.22851384 0.024673786 0.22148392 0.19455741 0.108607076 0.07144081 0.071794376 0.17158392
00000000: 169c ea3d 8005 013e ed1a 0b3e 5d39 a0bd
00000010: 8421 f33d a163 023e d9ad af3d 8974 7b3e
00000020: 20fb 0a3e b7f4 7ebd 51a6 b3bc 2730 b73d
00000030: 1445 723e 3e5a 7ebd f419 5c3e c6bd 20bc
00000040: cd86 a1bb 1f8f d0bc 0365 713c b973 7d3d
00000050: b9fb 823e 72e5 513d 7fe1 b63d 03cd a9bc
00000060: feb5 b2bd 9346 433e 0795 d53d 558f 1e3e
00000070: 4640 723e 8015 bf3d a234 af3d 8a15 b73b
00000080: 8208 373e 8ec2 073e 2ee1 923e 8f45 483d
00000090: 0a8c 403e f145 4b3e 8b93 2a3e 8087 e0bc
000000a0: 126a e53d bc75 f53d 34a5 163e aa7b 313e
000000b0: 499d 803e 2495 1e3e 0f9d 12bd 0e4e 873e
000000c0: b98a 9e3d 9535 673e d639 f23d c262 693d
000000d0: 8389 203e f5b6 6f3d 7e4c 0e3e ddb6 3a3e
000000e0: 0a11 813d 4281 863d 0e9a 953e 0754 0b3e
000000f0: 09fc 823e 02bf ed3d 3a9d d23d 4ee8 f33d
00000100: 30f7 c53d a0a0 b63c 9676 d4bd 9e4b ea3d
00000110: b29e 813d 92fe 813d 5e2f 993d d8e2 98bc
00000120: d07a 5e3d 06d4 fc3d b090 aabc a0bf ab3c
00000130: a0eb cdbd ac42 4a3d 080b f7bd 5057 a83d
00000140: e802 40bd ecde 94bd c8f6 18bd 4054 ff3d
00000150: d46e c73d bcb8 fe3d 20dd 0d3c 80a2 b73a
00000160: 24db f83d 2ca2 b03d f45c 4a3d b05a 4a3c
00000170: 6e89 8cbd bacd a9bd 06f6 c43d 00c4 ce3a
00000180: d847 ad3c 0810 b2bc 0028 b5b9 a420 d3bd
00000190: a06c 203c 1077 ccbc c07c 94bb 9ca7 523d
000001a0: a8c8 b5bd 60c6 183d 8c28 9e3d 9c7b cabd
000001b0: dcfd 10bd e43e 23bd 965f 82bd 7861 ae3d
000001c0: 00d9 d3bb 0866 b43c e001 a7bc 6841 78bd
000001d0: a68a 8fbd d0f7 b7bc 8823 ff3c 56bb edbd
000001e0: 10bd 573d 30d0 28bd b0bb 4ebd e8ef 66bd
000001f0: de6f e0bd bc25 b13d 8a52 ad3d 00cc ff39
00000200: 5c54 c23c 8353 cfbc 032c ba3d e929 23be
00000210: ac91 1cbe 86d1 4ebe db77 09be cb95 debd
00000220: 39c5 a93d 69cb 2f3d 110a 10be 8f45 1dbd
00000230: ee2a cbbd a5c9 763d d225 42be b361 653d
00000240: e762 42bc 4b42 b73d 8c68 62bd 925d 3abd
00000250: 0959 11be b5c6 343d 5719 aa3d e11f 16bd
00000260: 676c db3d 0100 4abe c1cc 923b 544c 29be
00000270: 2c7d 273e 194d 813d 6f0c b0bd dde6 033e
00000280: e328 c6bd 2f8d 0fbd af2f 2fbe f74d ef3d
00000290: 3afa 553d 631e 333e 7204 3dbe b322 1a3d
000002a0: 0e9a 02be 57f0 6a3d b165 46be 9115 c03d
000002b0: baed d93c 1a1a 3a3e a686 8b3c e81c 273e
000002c0: fdf6 3dbd 09ef 03bc dc18 483c 8090 343e
000002d0: 2778 a3bc 41f6 4cbd a5cc 183d d62b dbbd
000002e0: b2dc 183e 903a 4bbe e532 273e 7e94 103e
000002f0: ae64 35be 22cb 6cbd fe52 f23d 4869 3d3e
00000300: d2c7 543e d225 b03d cbef 7abb 5493 f93d
00000310: 707b 573e 3741 5a3e 49db 4c3d 96f9 283e
00000320: fdc7 1a3b 1111 1439 15b2 d3bc 056b 383c
00000330: a8f4 623e 7837 823d d8ba 163e 39cf 443e
00000340: bd28 023e f089 d73d 9966 cc3d b2e2 503e
00000350: cbad 153e dded 7e3d c3a4 593d 99b8 0c3e
00000360: c6a8 3a3d c0c3 113b 22aa bf3d 83ac e83c
00000370: d361 5b3e 1136 173e 48c3 35bc 1fa5 dc3d
00000380: 4db8 b23d 53ac 4f3e 10ca 6c3e 8c41 813e
00000390: 5139 743e e976 483e 47c0 e53d 0851 01be
000003a0: c978 7b3e 2dba 2e3e 11e0 023d 02d1 42bc
000003b0: 24bf 8f3e a966 5a3d fd79 9c3d 76e9 663e
000003c0: c794 5f3d 7d49 833e 0d74 9d3d 9446 543e
000003d0: 3ece 5d3e 6842 15bb bbe0 803c c7cf 433c
000003e0: 88ff 693e ae20 ca3c aecc 623e 0f3a 473e
000003f0: 636d de3d 8f4f 923d ee08 933d b2b3 2f3e

lstm.bias_hh_l0 f4 [256]
0.048910268 0.043716595 0.05088106 0.06546139 0.084775455 0.07257533 -0.0030412532 0.12911068
-0.017754659 -0.07436431 -0.02216938 0.08696577 0.12936458 0.14390987 0.19871865 0.1588955
0.06336918 0.17034501 0.05361835 0.034228057 0.12014366 0.0009534238 0.04398424 0.108653806
0.016150054 0.13649103 0.10071081 0.013439816 0.20176636 0.07694662 0.059136588 -0.018195743
0.09619175 0.144269 0.10638723 0.19818558 0.13903202 0.19494525 0.09536378 0.043762416
0.21613768 0.069553286 0.2405503 -0.0036335136 0.05802074 0.013130097 0.0094337 0.13202077
0.28459558 0.2091068 0.05868779 0.22887735 0.071373835 0.060403902 -0.028437931 0.10787275
0.20939052 0.19855376 0.08259089 0.14635248 0.16413964 -0.077322066 0.27165538 0.24679375
-0.09593938 -0.007902652 -0.038537785 -0.009866655 0.016770646 0.050174057 0.10801688 -0.025876388
0.01857026 -0.08954978 0.107631594 -0.10712828 -0.100158155 -0.0001874417 0.03693506 0.038499877
0.025754154 -0.107847124 -0.12036793 -0.115157485 0.08177236 -0.12116161 0.10864885 0.12402056
-0.10967328 -0.06385526 0.08640458 0.0689742 0.088587806 -0.06814101 -0.062042713 -0.09622358
0.10824886 0.12299788 -0.09149961 -0.042491913 -0.0032019615 -0.06424096 0.07333447 0.024446324
-0.07918851 -0.093654945 0.08706002 0.047246024 -0.041466072 0.06493141 -0.023003146 0.0230394
0.079800576 -0.0071458966 -0.027607799 0.06777321 0.0931434 0.021265179 0.08155976 0.026680842
-0.07197872 -0.0249729 -0.0013867021 0.02911374 0.05118145 -0.08510974 -0.029020876 -0.07834442
-0.1633046 0.03354993 -0.01218011 -0.037377737 -0.23738915 -0.0696905 -0.007534782 -0.08508964
0.05179748 0.015664244 -0.003438876 0.0008307764 -0.009003546 0.13980907 -0.15767743 0.17851254
-0.068844005 -0.0105202105 -0.06286251 -0.098336674 -0.107899636 -0.16199642 0.100115195 -0.035785615
0.025855752 -0.22297825 0.0133877965 -0.21679066 0.09385063 0.07903772 0.006240746 0.028601617
0.020363573 -0.17453715 -0.013857531 -0.018682161 0.19100323 0.17717572 0.019614197 -0.0041646133
-0.11506864 0.15996926 -0.22156 0.110378414 0.13710527 0.18133044 0.0065435665 0.013224629
-0.13031623 -0.12769243 -0.04930757 0.043615587 -0.18068768 0.005819499 -0.062319007 0.0025424992
-0.0019978404 -0.1657579 0.11959506 0.061255902 -0.023463592 0.14577384 0.20560601 0.14748323
0.16667247 -0.0054793335 0.05983124 -0.049031634 0.18568055 0.14381507 0.088316634 0.23784028
-0.016232733 -0.055960655 -0.0642946 -0.008009399 0.20977847 0.053883795 0.15506697 0.1708866
0.18186572 0.18183073 0.12572052 0.025587091 0.07350375 -0.0734636 0.18502353 0.09856665
0.09140539 0.08025256 0.055344276 0.1398959 0.1887911 0.19613174 0.00638923 0.14276776
-0.013574937 0.096365795 0.07203291 0.10676367 0.026371274 0.15489875 0.23757829 -0.10343743
0.07827494 0.2348197 0.024045212 0.23120244 0.16113776 0.099412195 0.13180962 0.21403183
0.256179 0.0837508 0.0750111 0.12379803 0.15049995 0.118216634 0.02827845 0.0003328665
0.15912096 0.05067335 0.28085172 0.25204882 0.13899763 -0.03138953 0.056204975 0.11569122
00000000: 2256 483d 2c10 333d a968 503d 9f10 863d
00000010: c19e ad3d 60a2 943d c34f 47bb 9735 043e
00000020: 3872 91bc 514c 98bd 8f9c b5bc 1c1b b23d
00000030: 2678 043e 1c5d 133e e77c 4b3e 80b5 223e
00000040: b3c7 813d ec6e 2e3e ea9e 5b3d b832 0c3d
00000050: e10d f63d 30ef 793a d228 343d e385 de3d
00000060: 1e4d 843c 4ec4 0b3e 7841 ce3d ad32 5c3c
00000070: d79b 4e3e 3196 9d3d 3539 723d 3d0f 95bc
00000080: 2e00 c53d 41bb 133e 8ce1 d93d 29f1 4a3e
00000090: 695e 0e3e ba9f 473e 164e c33d 3840 333d
000000a0: 3253 5d3e f471 8e3d d152 763e 3e20 6ebb
000000b0: 28a7 6d3d 9e1f 573c ce8f 1a3c 7430 073e
000000c0: 83b6 913e 1820 563e 9c62 703d d35e 6a3e
000000d0: 722c 923d 156a 773d aaf6 e8bc 63ec dc3d
000000e0: 786a 563e ad51 4b3e 6a25 a93d 6ddd 153e
000000f0: 3914 283e 085b 9ebd 6a16 8b3e 80b7 7c3e
00000100: de7b c4bd 207a 01bc ccd9 1dbd c0a7 21bc
00000110: 9862 893c 5083 4d3d f437 dd3d b8fa d3bc
00000120: a820 983c e065 b7bd f46d dc3d 1266 dbbd
00000130: b81f cdbd 008c 44b9 3849 173d 0cb2 1d3d
00000140: 60fa d23c f4de dcbd 7683 f6bd b0d7 ebbd
00000150: 4478 a73d 9423 f8bd 4a83 de3d 7efe fd3d
00000160: 629c e0bd 8cc6 82bd e2f4 b03d 5842 8d3d
00000170: 866d b53d 848d 8bbd 8020 7ebd de10 c5bd
00000180: 94b1 dd3d 50e6 fb3d 2664 bbbd 000c 2ebd
00000190: 00d8 51bb c490 83bd 6230 963d a843 c83c
000001a0: 962d a2bd 2ace bfbd 864c b23d 0c85 413d
000001b0: 54d8 29bd c2fa 843d 1871 bcbc 20bd bc3c
000001c0: 7c6e a33d 2028 eabb c029 e2bc aecc 8a3d
000001d0: f8c1 be3d 5034 ae3c ce08 a73d c891 da3c
000001e0: 9469 93bd f893 ccbc 00c2 b5ba f07f ee3c
000001f0: a4a3 513d 044e aebd 30bd edbc 0a73 a0bd
00000200: 5239 27be a76b 093d 168f 47bc 6619 19bd
00000210: 2416 73be e5b9 8ebd 55e6 f6bb 7a43 aebd
00000220: 9829 543d 4d52 803c c45e 61bb 76c8 593a
00000230: 9c83 13bc 1c2a 0f3e 3176 21be fecb 363e
00000240: 16fe 8cbd f65c 2cbc 0fbe 80bd bd64 c9bd
00000250: 7cfa dcbd 64e2 25be 3209 cd3d f093 12bd
00000260: 71cf d33c 6954 64be 7d58 5b3c 5ffe 5dbe
00000270: c234 c03d 87de a13d 2c7f cc3b f04d ea3c
00000280: 82d1 a63c deb9 32be b30a 63bc 550b 99bc
00000290: 5a96 433e 8d6d 353e f4ad a03c 4f77 88bb
000002a0: 1ba9 ebbd fbce 233e a0e0 62be 140e e23d
000002b0: 5365 0c3e b0ae 393e 6a6b d63b 1dac 583c
000002c0: 9e71 05be cec1 02be bcf6 49bd 42a6 323d
000002d0: 3106 39be 7fb1 be3b 3742 7fbd 0fa0 263b
000002e0: 33ee 02bb 70bc 29be 41ee f43d 78e7 7a3d
000002f0: b836 c0bc bd45 153e 628a 523e d805 173e
00000300: 30ac 2a3e fb8b b3bb 9a11 753d 65d5 48bd
00000310: 0b23 3e3e 4244 133e 5adf b43d 678c 733e
00000320: 82fa 84bc 0037 65bd e3ac 83bd db39 03bc
00000330: 2bd0 563e 41b5 5c3d e0c9 1e3e e6fc 2e3e
00000340: 023b 3a3e d631 3a3e e1bc 003e 059c d13c
00000350: 2289 963d 1574 96bd cf76 3d3e 50dd c93d
00000360: c032 bb3d 745b a43d aeb0 623d df40 0f3e
00000370: 7452 413e c2d6 483e bf5c d13b b631 123e
00000380: 6a69 5ebc 6e5b c53d fe85 933d e9a6 da3d
00000390: 9208 d83c c79d 1e3e b947 733e 01d7 d3bd
000003a0: 9d4e a03d 9374 703e 77fa c43c 55c0 6c3e
000003b0: 4c01 253e 9f98 cb3d 1af9 063e 292b 5b3e
000003c0: e529 833e 8a85 ab3d 6b9f 993d d289 fd3d
000003d0: a91c 1a3e 901b f23d 35a8 e73c 9684 ae39
000003e0: 9bf0 223e dc8e 4f3d cccb 8f3e 8b0c 813e
000003f0: 6555 0e3e 4f92 00bd 3037 663d 85ef ec3d

fc.weight f4 [1, 64]
0.2219653 -0.07934422 -0.07373231 0.14034532 0.08947606 0.21477099 0.107826084 0.25886837
-0.138347 0.14168014 0.06553709 -0.09563482 0.18837978 -0.093716994 0.14688943 -0.21967894
0.098468 -0.058935225 0.2142395 0.19184202 0.26418614 0.09242082 -0.16280074 0.07735277
-0.040640473 0.10695488 -0.05892961 0.14114757 -0.122442745 -0.23586588 0.09664195 -0.1505418
0.16371903 0.15929945 0.2037586 -0.18007721 -0.17793795 -0.13226384 0.20044887 0.08916758
0.21300828 -0.18943736 0.14937992 -0.21299496 -0.26052752 -0.16477492 0.17590842 -0.27062562
0.27751586 0.21577264 0.18751469 -0.15172353 0.13689126 0.19027568 0.04021604 0.12540112
-0.2355928 0.17407218 -0.1536766 -0.21075574 0.21933205 -0.06724141 -0.15045954 -0.13616996
00000000: df4a 633e 397f a2bd f700 97bd afb6 0f3e
00000010: 393f b73d edec 5b3e ecd3 dc3d 658a 843e
00000020: d6aa 0dbe 9914 113e 4f38 863d 30dc c3bd
00000030: a1e6 403e b2ee bfbd 2f6a 163e 84f3 60be
00000040: 97a9 c93d 1066 71bd 9961 5b3e 3c72 443e
00000050: 6843 873e 2047 bd3d 3db5 26be 216b 9e3d
00000060: a076 26bd 290b db3d 2d60 71bd fd88 103e
00000070: 43c3 fabd d386 71be 37ec c53d a127 1abe
00000080: f6a5 273e 651f 233e 18a6 503e 2966 38be
00000090: 5e35 36be 2c70 07be 7842 4d3e 7e9d b63d
000000a0: d81e 5a3e defb 41be 0df7 183e 5a1b 5abe
000000b0: dd63 85be c2ba 28be 5621 343e 718f 8abe
000000c0: 8f16 8e3e 81f3 5c3e da03 403e 6a5d 1bbe
000000d0: 392d 0c3e a1d7 423e 93b9 243d 2769 003e
000000e0: 3d3f 71be fa3f 323e 665d 1dbe 5ad0 57be
000000f0: 9598 603e ddb5 89bd 1112 1abe 2370 0bbe

exp_avg f4 [256, 5]
0.00021996349 -0.00021996349 0.0003376681 -0.0012964328 0.001133485 -0.00020224755 0.00020224755 0.00011380536
-0.00043809088 0.00048128294 0.00022426421 -0.00022426421 0.00030442578 -0.00025812027 0.00016156472 0.0001552794
-0.0001552794 -0.00040241296 -0.00030506475 0.0002299455 0.0006030752 -0.0006030752 -0.00013606044 -5.591534e-07
-0.00021372261 -4.5707162e-05 4.5707162e-05 -0.00086958776 -0.0010073448 0.00095768797 0.00072202523 -0.00072202523
0.00031125764 -9.774186e-05 -0.00016515455 -0.0014144898 0.0014144898 -0.0015166302 -7.6522694e-05 0.00057402096
0.00073510903 -0.00073510903 0.00032519517 -0.00036955794 8.4232895e-05 0.00023961875 -0.00023961875 0.00065374654
0.0004278514 -0.00048498946 0.00030002833 -0.00030002833 7.504878e-05 -1.2446877e-05 -9.4953735e-05 -0.00037820183
0.00037820183 0.00010951971 -0.00028790245 0.0004034275 0.00026208378 -0.00026208378 0.0005234387 -0.0009674802
0.00081108697 -0.00022173778 0.00022173778 -0.00046122534 -0.00015640135 0.00022494387 -0.00078661845 0.00078661845
-0.0014233709 -4.362291e-06 0.00028352672 0.0020662842 -0.0020662842 0.0007857409 -0.0006489275 -0.00012757811
-0.00044178867 0.00044178867 -6.243846e-05 -0.0004563743 0.0005834684 0.00026651708 -0.00026651708 0.0002904185
-0.00030114123 0.00018676097 0.0022453906 -0.0022453906 0.0016004464 0.00027952797 -0.0010589281 0.00064268085
-0.00064268085 0.00029113507 0.000267028 -0.00047787587 -0.0014830834 0.0014830834 -0.0014802339 -0.0001875731
0.00070217525 -0.00035410235 0.00035410235 -0.00044106177 -0.0001986486 0.00031145065 0.0012221887 -0.0012221887
0.00043061897 0.00050193514 -0.0009032896 0.00011847629 -0.00011847629 0.00036415335 -0.0005449005 0.00046716718
-6.450918e-05 6.450918e-05 -0.00014542173 2.2829183e-05 1.5813415e-06 0.00046914077 -0.00046914077 -0.00034182987
-4.332884e-05 -0.00012616983 0.00045534514 -0.00045534514 0.00045403876 -0.00028560075 0.000105155035 -0.00062307576
0.00062307576 -0.0012345786 -0.00020318381 0.0004112432 -0.0002434075 0.0002434075 -0.0005181164 -0.00010895723
0.0001883015 -0.001808799 0.001808799 -0.0011466488 -0.0006364178 0.0012373714 0.0005233304 -0.0005233304
0.00024272817 0.00019299377 -0.00036628477 0.0010087984 -0.0010087984 0.00034571346 -0.00052224146 0.00012969936
0.0007114166 -0.0007114166 0.00071560184 0.00030251555 -0.0005354607 -0.00043361008 0.00043361008 -0.00035735
-0.00045132282 0.0005758419 -0.00044562205 0.00044562205 -0.00056260295 -0.00022701899 0.00037047802 -0.0010434262
0.0010434262 -0.00062483613 -0.00034883482 0.00069669797 0.0003833318 -0.0003833318 -0.00036054963 0.00011020565
-0.000239177 0.0005764003 -0.0005764003 -0.00032289274 0.00019072372 -0.00038301648 -0.0014980695 0.0014980695
-0.0015602747 -0.00042242487 0.0009269883 -0.00041703568 0.00041703568 -0.000105807536 -4.2275005e-05 0.00018766342
-0.0018143537 0.0018143537 -0.0016968893 -0.00028723353 0.00091300183 0.0012117227 -0.0012117227 0.001100149
-0.0011963777 0.00068764784 0.00048430517 -0.00048430517 -0.00051005965 -0.0003088687 0.0001166128 -0.0012755377
0.0012755377 -0.0014092309 -0.00093552464 0.0013274687 0.0016915398 -0.0016915398 0.001612951 -0.0023152449
0.0015628684 0.0008736524 -0.0008736524 -0.00057884067 0.00013751196 -0.0004388857 0.0016688353 -0.0016688353
0.0017417433 0.00013154132 -0.0007157978 0.002528868 -0.002528868 0.0017068622 -0.0005005375 -0.0004305963
0.0015450096 -0.0015450096 0.001042442 -0.0013791301 0.000740044 0.0007231069 -0.0007231069 0.00083781837
-0.000549766 0.00025691662 0.001998822 -0.001998822 0.0013982303 0.00025858032 -0.00095175614 0.0007179422
00000000: 00a6 6639 00a6 66b9 0c09 b139 11ed a9ba
00000010: 7291 943a 6a12 54b9 6a12 5439 caaa ee38
00000020: 90af e5b9 b454 fc39 7728 6b39 7728 6bb9
00000030: 569b 9f39 5154 87b9 b369 2939 7fd2 2239
00000040: 7fd2 22b9 f4fa d2b9 19f1 9fb9 861d 7139
00000050: b117 1e3a b117 1eba 72ab 0eb9 bb18 16b5
00000060: ba1a 60b9 b1b5 3fb8 b1b5 3f38 0cf5 63ba
00000070: e208 84ba 5a0d 7b3a 4b46 3d3a 4b46 3dba
00000080: 4b30 a339 c3fa ccb8 562d 2db9 6766 b9ba
00000090: 6766 b93a aac9 c6ba cf7a a0b8 e579 163a
000000a0: 55b4 403a 55b4 40ba f57e aa39 3ac1 c1b9
000000b0: 31a6 b038 2b42 7b39 2b42 7bb9 3060 2b3a
000000c0: 3e51 e039 2f46 feb9 1f4d 9d39 1f4d 9db9
000000d0: 8263 9d38 eed2 50b7 e621 c7b8 6449 c6b9
000000e0: 6449 c639 f2ad e538 9df1 96b9 1f83 d339
000000f0: 4a68 8939 4a68 89b9 6037 093a 7f9e 7dba
00000100: 209f 543a 4882 68b9 4882 6839 9ed0 f1b9
00000110: abff 23b9 e9de 6b39 1235 4eba 1235 4e3a
00000120: 6790 baba cb5f 92b6 50a6 9439 7f6a 073b
00000130: 7f6a 07bb 2efa 4d3a ca1c 2aba 7dc6 05b9
00000140: df9f e7b9 df9f e739 65f1 82b8 8645 efb9
00000150: e7f3 183a 51bb 8b39 51bb 8bb9 5043 9839
00000160: 7ee2 9db9 44d5 4339 6727 133b 6727 13bb
00000170: 12c6 d13a 9c8d 9239 bbcb 8aba 9579 283a
00000180: 9579 28ba 7da3 9839 e4ff 8b39 6a8b fab9
00000190: 0564 c2ba 0564 c23a 6804 c2ba 45af 44b9
000001a0: 2f12 383a d0a6 b9b9 d0a6 b939 4f3e e7b9
000001b0: 544c 50b9 334a a339 d931 a03a d931 a0ba
000001c0: b3c4 e139 4c94 033a bdca 6cba 7976 f838
000001d0: 7976 f8b8 d6eb be39 a7d7 0eba 1eee f439
000001e0: 1a49 87b8 1a49 8738 597c 18b9 4c81 bf37
000001f0: 7b3e d435 02f7 f539 02f7 f5b9 a137 b3b9
00000200: fdbb 35b8 754c 04b9 64bb ee39 64bb eeb9
00000210: 0d0c ee39 afbc 95b9 ae86 dc38 e855 23ba
00000220: e855 233a 95d1 a1ba bd0d 55b9 219c d739
00000230: 343b 7fb9 343b 7f39 34d2 07ba f87f e4b8
00000240: cd72 4539 3915 edba 3915 ed3a 264b 96ba
00000250: 47d5 26ba 4b2f a23a 1c30 093a 1c30 09ba
00000260: d984 7e39 5f5e 4a39 e909 c0b9 a839 843a
00000270: a839 84ba e040 b539 08e7 08ba e8ff 0739
00000280: 5c7e 3a3a 5c7e 3aba 3a97 3b3a f39a 9e39
00000290: 295e 0cba 2956 e3b9 2956 e339 b55a bbb9
000002a0: 869f ecb9 19f4 163a 61a2 e9b9 61a2 e939
000002b0: a57b 13ba f20b 6eb9 b83c c239 93c3 88ba
000002c0: 93c3 883a 0bcc 23ba d1e3 b6b9 9ca2 363a
000002d0: ecf9 c839 ecf9 c8b9 2708 bdb9 351e e738
000002e0: 96cb 7ab9 9219 173a 9219 17ba ee49 a9b9
000002f0: 02fd 4739 9acf c8b9 df5a c4ba df5a c43a
00000300: 2282 ccba e878 ddb9 2201 733a 95a5 dab9
00000310: 95a5 da39 fde4 ddb8 7150 31b8 84c7 4439
00000320: 9ccf edba 9ccf ed3a 286a deba d597 96b9
00000330: 8456 6f3a abd2 9e3a abd2 9eba e032 903a
00000340: c6cf 9cba 4443 343a 57ea fd39 57ea fdb9
00000350: 86b5 05ba a8ef a1b9 058e f438 f12f a7ba
00000360: f12f a73a f1b5 b8ba ff3d 75ba 75fe ad3a
00000370: a8b6 dd3a a8b6 ddba a869 d33a 5dbb 17bb
00000380: 29d9 cc3a d205 653a d205 65ba 57bd 17ba
00000390: 1631 1039 3e1a e6b9 d2bc da3a d2bc daba
000003a0: 354b e43a 5bee 0939 61a4 3bba 5dbb 253b
000003b0: 5dbb 25bb cbb8 df3a 8136 03ba a8c1 e1b9
000003c0: eb81 ca3a eb81 caba 8da2 883a edc3 b4ba
000003d0: 83ff 413a e28e 3d3a e28e 3dba 0aa1 5b3a
000003e0: 2c1e 10ba c4b2 8639 abfe 023b abfe 02bb
000003f0: d344 b73a 1092 8739 467f 79ba 4934 3c3a

exp_avg_sq f4 [256, 5]
3.374492e-08 3.374492e-08 1.2833428e-07 2.3269936e-07 1.8502864e-07 6.848504e-09 6.848504e-09 3.22882e-08
2.9195533e-08 2.3711923e-08 5.4068523e-09 5.4068523e-09 1.726068e-08 1.0488255e-08 4.8729087e-09 9.93542e-09
9.93542e-09 4.9747047e-08 2.069764e-08 1.0551648e-08 2.49426e-08 2.49426e-08 4.574755e-09 1.8496887e-09
5.005297e-09 8.775081e-09 8.775081e-09 9.343862e-08 1.5914654e-07 1.5165631e-07 4.179087e-08 4.179087e-08
1.759026e-08 6.957302e-09 1.3422571e-08 1.8733306e-07 1.8733306e-07 4.0960393e-07 9.3858304e-08 1.2647799e-07
3.6086906e-08 3.6086906e-08 1.7294761e-08 1.1348488e-08 2.4731195e-09 4.692686e-08 4.692686e-08 2.39576e-07
1.201058e-07 7.8147295e-08 5.0173696e-09 5.0173696e-09 2.825454e-09 1.7109083e-09 2.39136e-09 4.79256e-08
4.79256e-08 9.2844125e-08 5.3234267e-08 5.1191797e-08 3.6314745e-08 3.6314745e-08 1.6413983e-07 1.780009e-07
1.1512002e-07 3.576612e-09 3.576612e-09 1.2431436e-08 2.7950675e-09 3.1612168e-09 5.0685543e-08 5.0685543e-08
1.405322e-07 1.4642953e-08 2.6056554e-08 5.360036e-07 5.360036e-07 1.139597e-07 3.940308e-08 2.573417e-08
1.601437e-08 1.601437e-08 6.058213e-08 4.802823e-08 4.2307942e-08 3.470762e-09 3.470762e-09 6.8489365e-09
6.325831e-09 2.9252072e-09 5.314364e-07 5.314364e-07 2.4927692e-07 4.0312408e-08 1.5193095e-07 5.6638402e-08
5.6638402e-08 6.5915096e-08 4.8293337e-08 5.686375e-08 4.5496725e-07 4.5496725e-07 6.054835e-07 2.0862606e-07
3.8424082e-07 1.7433438e-08 1.7433438e-08 1.650533e-08 4.4552895e-09 6.7950197e-09 1.0872318e-07 1.0872318e-07
1.9887063e-08 2.2661567e-08 6.085395e-08 5.5007634e-09 5.5007634e-09 2.5995117e-08 3.24962e-08 2.1812347e-08
3.3645164e-10 3.3645164e-10 2.3855902e-09 9.500196e-10 1.052397e-09 1.6064044e-08 1.6064044e-08 7.005533e-09
1.9696662e-09 1.5587531e-09 1.6032962e-08 1.6032962e-08 1.6179616e-08 6.5043695e-09 1.9358684e-09 3.1877914e-08
3.1877914e-08 1.0937314e-07 2.914086e-08 4.6396025e-08 2.708432e-09 2.708432e-09 2.2162695e-08 6.1535648e-09
5.682306e-09 4.8664816e-07 4.8664816e-07 6.1452835e-07 3.3454626e-07 4.998568e-07 1.5290675e-08 1.5290675e-08
7.053673e-09 1.1971921e-08 1.8798001e-08 8.980358e-08 8.980358e-08 4.056098e-08 2.7287786e-08 7.668605e-09
9.106854e-08 9.106854e-08 1.8671216e-07 7.112651e-08 5.6780912e-08 2.8893922e-08 2.8893922e-08 1.3405023e-07
9.028058e-08 7.8612516e-08 3.527685e-08 3.527685e-08 1.7382011e-07 7.085727e-08 5.418021e-08 1.0228804e-07
1.0228804e-07 1.6444288e-07 7.346547e-08 9.1661434e-08 1.536106e-08 1.536106e-08 1.2942153e-08 5.741789e-09
7.204667e-09 5.593524e-08 5.593524e-08 1.3987157e-08 7.987433e-09 2.036543e-08 1.11252675e-07 1.11252675e-07
1.7574182e-07 5.526216e-08 9.986512e-08 1.222939e-07 1.222939e-07 4.938603e-08 1.3082717e-08 3.309857e-08
3.6538296e-07 3.6538296e-07 4.7723336e-07 2.0082892e-07 3.5757108e-07 1.93624e-07 1.93624e-07 1.8141476e-07
2.0453561e-07 7.360077e-08 2.5605617e-08 2.5605617e-08 2.0090223e-08 1.4301538e-08 3.5413654e-09 1.9977517e-07
1.9977517e-07 1.9727764e-07 2.0848437e-07 3.3856315e-07 2.8509177e-07 2.8509177e-07 3.6246914e-07 8.714876e-07
4.794525e-07 1.1793409e-07 1.1793409e-07 1.19805e-07 5.095194e-08 5.614184e-08 3.703376e-07 3.703376e-07
4.822488e-07 1.0895325e-07 1.0940129e-07 1.0537196e-06 1.0537196e-06 3.9891876e-07 5.8739563e-08 9.749896e-08
2.8110597e-07 2.8110597e-07 2.3875631e-07 3.107237e-07 1.1364626e-07 1.4611044e-07 1.4611044e-07 4.2561956e-07
2.295135e-07 9.96723e-08 4.785272e-07 4.785272e-07 2.3083815e-07 4.2040615e-08 1.7720845e-07 3.0274805e-08
00000000: efee 1033 efee 1033 42cc 0934 eadb 7934
00000010: 49ac 4634 1450 eb31 1450 eb31 40ad 0a33
00000020: a8c9 fa32 12af cb32 2dc7 b931 2dc7 b931
00000030: a344 9432 d52f 3432 8f6e a731 70b0 2a32
00000040: 70b0 2a32 75a9 5533 97ca b132 a446 3532
00000050: 5c41 d632 5c41 d632 f82f 9d31 2338 fe30
00000060: 0ffb ab31 37c1 1632 37c1 1632 6da8 c833
00000070: dee1 2a34 f8d6 2234 8c7d 3333 8c7d 3333
00000080: 6419 9732 130d ef31 1799 6632 b825 4934
00000090: b825 4934 89e7 db34 268f c933 01ce 0734
000000a0: f9fd 1a33 f9fd 1a33 958f 9432 2ef7 4232
000000b0: 94f3 2931 a18c 4933 a18c 4933 139f 8034
000000c0: 6ef6 0034 eed1 a733 4065 ac31 4065 ac31
000000d0: ea29 4231 3c25 eb30 4055 2431 c1d6 4d33
000000e0: c1d6 4d33 9961 c733 b2a3 6433 fadd 5b33
000000f0: 7cf8 1b33 7cf8 1b33 6a3e 3034 8420 3f34
00000100: e637 f733 6cc8 7531 6cc8 7531 0992 5532
00000110: 5913 4031 b73c 5931 58b1 5933 58b1 5933
00000120: 32e5 1634 6390 7b32 f8d2 df32 e3e1 0f35
00000130: e3e1 0f35 02ba f433 253c 2933 0a0e dd32
00000140: f98f 8932 f98f 8932 6119 8233 9947 4e33
00000150: 13b6 3533 4a82 6e31 4a82 6e31 e253 eb31
00000160: 995a d931 ca04 4931 08a8 0e35 08a8 0e35
00000170: 5cd4 8534 f623 2d33 7622 2334 9542 7333
00000180: 9542 7333 358d 8d33 166b 4f33 5b3a 7433
00000190: 3942 f434 3942 f434 8288 2235 b202 6034
000001a0: a849 ce34 89c0 9532 89c0 9532 9bc7 8d32
000001b0: 2415 9931 a079 e931 337b e933 337b e933
000001c0: 1dd4 aa32 50a9 c232 d0ae 8233 3a01 bd31
000001d0: 3a01 bd31 de4b df32 f391 0b33 dc5d bb32
000001e0: 5cf7 b82f 5cf7 b82f bfef 2331 d891 8230
000001f0: eda3 9030 35fd 8932 35fd 8932 52b5 f031
00000200: bc5a 0731 c03b d630 dbb8 8932 dbb8 8932
00000210: 5afb 8a32 0a7d df31 2808 0531 23ea 0833
00000220: 23ea 0833 85e0 ea33 6e51 fa32 f844 4733
00000230: 3d1f 3a31 3d1f 3a31 4860 be32 546f d331
00000240: 183e c331 35a2 0235 35a2 0235 11f6 2435
00000250: b09b b334 e62d 0635 8d58 8332 8d58 8332
00000260: c45c f231 11ad 4d32 3e79 a132 0ada c033
00000270: 0ada c033 4535 2e33 7a66 ea32 e2be 0332
00000280: 7691 c333 7691 c333 0c7b 4834 36be 9833
00000290: 46df 7333 6832 f832 6832 f832 72ef 0f34
000002a0: 46e0 c133 b0d1 a833 4f83 1733 4f83 1733
000002b0: 4fa3 3a34 322a 9833 c5b3 6833 72a9 db33
000002c0: 72a9 db33 b791 3034 12c4 9d33 68d7 c433
000002d0: 54f3 8332 54f3 8332 3158 5e32 4f49 c531
000002e0: ec8c f731 723d 7033 723d 7033 2b4c 7032
000002f0: 1a39 0932 0ef0 ae32 cee9 ee33 cee9 ee33
00000300: 8bb3 3c34 6359 6d33 6e75 d633 e44f 0334
00000310: e44f 0334 841c 5433 66c2 6032 4328 0e33
00000320: da29 c434 da29 c434 3a1b 0035 6fa3 5734
00000330: 32f8 bf34 f6e6 4f34 f6e6 4f34 e9ca 4234
00000340: 529e 5b34 740e 9e33 59f3 db32 59f3 db32
00000350: de92 ac32 d4b2 7532 5c5c 7331 c881 5634
00000360: c881 5634 44d3 5334 bfdb 5f34 c4c3 b534
00000370: b70e 9934 b70e 9934 6199 c234 2cf0 6935
00000380: bab3 0035 f442 fd33 f442 fd33 bfa3 0034
00000390: 40d6 5a33 9b20 7133 d0d2 c634 d0d2 c634
000003a0: e373 0135 aff9 e933 ffef ea33 886d 8d35
000003b0: 886d 8d35 fa2a d634 d548 7c33 9f60 d133
000003c0: e9ea 9634 e9ea 9634 6b2e 8034 8ad1 a634
000003d0: b10d f433 88e2 1c34 88e2 1c34 b580 e434
000003e0: 3170 7634 6d0b d633 2474 0035 2474 0035
000003f0: 4fdc 7734 2590 3433 b046 3e34 8007 0233

exp_avg f4 [256, 64]
0.0 0.0 0.0 0.0 0.0 0.0 0.0 0.0
0.0 0.0 0.0 0.0 0.0 0.0 0.0 0.0
0.0 0.0 0.0 0.0 0.0 0.0 0.0 0.0
0.0 0.0 0.0 0.0 0.0 0.0 0.0 0.0
0.0 0.0 0.0 0.0 0.0 0.0 0.0 0.0
0.0 0.0 0.0 0.0 0.0 0.0 0.0 0.0
0.0 0.0 0.0 0.0 0.0 0.0 0.0 0.0
0.0 0.0 0.0 0.0 0.0 0.0 0.0 0.0
0.0 0.0 0.0 0.0 0.0 0.0 0.0 0.0
0.0 0.0 0.0 0.0 0.0 0.0 0.0 0.0
0.0 0.0 0.0 0.0 0.0 0.0 0.0 0.0
0.0 0.0 0.0 0.0 0.0 0.0 0.0 0.0
0.0 0.0 0.0 0.0 0.0 0.0 0.0 0.0
0.0 0.0 0.0 0.0 0.0 0.0 0.0 0.0
0.0 0.0 0.0 0.0 0.0 0.0 0.0 0.0
0.0 0.0 0.0 0.0 0.0 0.0 0.0 0.0
0.0 0.0 0.0 0.0 0.0 0.0 0.0 0.0
0.0 0.0 0.0 0.0 0.0 0.0 0.0 0.0
0.0 0.0 0.0 0.0 0.0 0.0 0.0 0.0
0.0 0.0 0.0 0.0 0.0 0.0 0.0 0.0
0.0 0.0 0.0 0.0 0.0 0.0 0.0 0.0
0.0 0.0 0.0 0.0 0.0 0.0 0.0 0.0
0.0 0.0 0.0 0.0 0.0 0.0 0.0 0.0
0.0 0.0 0.0 0.0 0.0 0.0 0.0 0.0
0.0 0.0 0.0 0.0 0.0 0.0 0.0 0.0
0.0 0.0 0.0 0.0 0.0 0.0 0.0 0.0
0.0 0.0 0.0 0.0 0.0 0.0 0.0 0.0
0.0 0.0 0.0 0.0 0.0 0.0 0.0 0.0
0.0 0.0 0.0 0.0 0.0 0.0 0.0 0.0
0.0 0.0 0.0 0.0 0.0 0.0 0.0 0.0
0.0 0.0 0.0 0.0 0.0 0.0 0.0 0.0
0.0 0.0 0.0 0.0 0.0 0.0 0.0 0.0
00000000: 0000 0000 0000 0000 0000 0000 0000 0000
00000010: 0000 0000 0000 0000 0000 0000 0000 0000
00000020: 0000 0000 0000 0000 0000 0000 0000 0000
00000030: 0000 0000 0000 0000 0000 0000 0000 0000
00000040: 0000 0000 0000 0000 0000 0000 0000 0000
00000050: 0000 0000 0000 0000 0000 0000 0000 0000
00000060: 0000 0000 0000 0000 0000 0000 0000 0000
00000070: 0000 0000 0000 0000 0000 0000 0000 0000
00000080: 0000 0000 0000 0000 0000 0000 0000 0000
00000090: 0000 0000 0000 0000 0000 0000 0000 0000
000000a0: 0000 0000 0000 0000 0000 0000 0000 0000
000000b0: 0000 0000 0000 0000 0000 0000 0000 0000
000000c0: 0000 0000 0000 0000 0000 0000 0000 0000
000000d0: 0000 0000 0000 0000 0000 0000 0000 0000
000000e0: 0000 0000 0000 0000 0000 0000 0000 0000
000000f0: 0000 0000 0000 0000 0000 0000 0000 0000
00000100: 0000 0000 0000 0000 0000 0000 0000 0000
00000110: 0000 0000 0000 0000 0000 0000 0000 0000
00000120: 0000 0000 0000 0000 0000 0000 0000 0000
00000130: 0000 0000 0000 0000 0000 0000 0000 0000
00000140: 0000 0000 0000 0000 0000 0000 0000 0000
00000150: 0000 0000 0000 0000 0000 0000 0000 0000
00000160: 0000 0000 0000 0000 0000 0000 0000 0000
00000170: 0000 0000 0000 0000 0000 0000 0000 0000
00000180: 0000 0000 0000 0000 0000 0000 0000 0000
00000190: 0000 0000 0000 0000 0000 0000 0000 0000
000001a0: 0000 0000 0000 0000 0000 0000 0000 0000
000001b0: 0000 0000 0000 0000 0000 0000 0000 0000
000001c0: 0000 0000 0000 0000 0000 0000 0000 0000
000001d0: 0000 0000 0000 0000 0000 0000 0000 0000
000001e0: 0000 0000 0000 0000 0000 0000 0000 0000
000001f0: 0000 0000 0000 0000 0000 0000 0000 0000
00000200: 0000 0000 0000 0000 0000 0000 0000 0000
00000210: 0000 0000 0000 0000 0000 0000 0000 0000
00000220: 0000 0000 0000 0000 0000 0000 0000 0000
00000230: 0000 0000 0000 0000 0000 0000 0000 0000
00000240: 0000 0000 0000 0000 0000 0000 0000 0000
00000250: 0000 0000 0000 0000 0000 0000 0000 0000
00000260: 0000 0000 0000 0000 0000 0000 0000 0000
00000270: 0000 0000 0000 0000 0000 0000 0000 0000
00000280: 0000 0000 0000 0000 0000 0000 0000 0000
00000290: 0000 0000 0000 0000 0000 0000 0000 0000
000002a0: 0000 0000 0000 0000 0000 0000 0000 0000
000002b0: 0000 0000 0000 0000 0000 0000 0000 0000
000002c0: 0000 0000 0000 0000 0000 0000 0000 0000
000002d0: 0000 0000 0000 0000 0000 0000 0000 0000
000002e0: 0000 0000 0000 0000 0000 0000 0000 0000
000002f0: 0000 0000 0000 0000 0000 0000 0000 0000
00000300: 0000 0000 0000 0000 0000 0000 0000 0000
00000310: 0000 0000 0000 0000 0000 0000 0000 0000
00000320: 0000 0000 0000 0000 0000 0000 0000 0000
00000330: 0000 0000 0000 0000 0000 0000 0000 0000
00000340: 0000 0000 0000 0000 0000 0000 0000 0000
00000350: 0000 0000 0000 0000 0000 0000 0000 0000
00000360: 0000 0000 0000 0000 0000 0000 0000 0000
00000370: 0000 0000 0000 0000 0000 0000 0000 0000
00000380: 0000 0000 0000 0000 0000 0000 0000 0000
00000390: 0000 0000 0000 0000 0000 0000 0000 0000
000003a0: 0000 0000 0000 0000 0000 0000 0000 0000
000003b0: 0000 0000 0000 0000 0000 0000 0000 0000
000003c0: 0000 0000 0000 0000 0000 0000 0000 0000
000003d0: 0000 0000 0000 0000 0000 0000 0000 0000
000003e0: 0000 0000 0000 0000 0000 0000 0000 0000
000003f0: 0000 0000 0000 0000 0000 0000 0000 0000

exp_avg_sq f4 [256, 64]
0.0 0.0 0.0 0.0 0.0 0.0 0.0 0.0
0.0 0.0 0.0 0.0 0.0 0.0 0.0 0.0
0.0 0.0 0.0 0.0 0.0 0.0 0.0 0.0
0.0 0.0 0.0 0.0 0.0 0.0 0.0 0.0
0.0 0.0 0.0 0.0 0.0 0.0 0.0 0.0
0.0 0.0 0.0 0.0 0.0 0.0 0.0 0.0
0.0 0.0 0.0 0.0 0.0 0.0 0.0 0.0
0.0 0.0 0.0 0.0 0.0 0.0 0.0 0.0
0.0 0.0 0.0 0.0 0.0 0.0 0.0 0.0
0.0 0.0 0.0 0.0 0.0 0.0 0.0 0.0
0.0 0.0 0.0 0.0 0.0 0.0 0.0 0.0
0.0 0.0 0.0 0.0 0.0 0.0 0.0 0.0
0.0 0.0 0.0 0.0 0.0 0.0 0.0 0.0
0.0 0.0 0.0 0.0 0.0 0.0 0.0 0.0
0.0 0.0 0.0 0.0 0.0 0.0 0.0 0.0
0.0 0.0 0.0 0.0 0.0 0.0 0.0 0.0
0.0 0.0 0.0 0.0 0.0 0.0 0.0 0.0
0.0 0.0 0.0 0.0 0.0 0.0 0.0 0.0
0.0 0.0 0.0 0.0 0.0 0.0 0.0 0.0
0.0 0.0 0.0 0.0 0.0 0.0 0.0 0.0
0.0 0.0 0.0 0.0 0.0 0.0 0.0 0.0
0.0 0.0 0.0 0.0 0.0 0.0 0.0 0.0
0.0 0.0 0.0 0.0 0.0 0.0 0.0 0.0
0.0 0.0 0.0 0.0 0.0 0.0 0.0 0.0
0.0 0.0 0.0 0.0 0.0 0.0 0.0 0.0
0.0 0.0 0.0 0.0 0.0 0.0 0.0 0.0
0.0 0.0 0.0 0.0 0.0 0.0 0.0 0.0
0.0 0.0 0.0 0.0 0.0 0.0 0.0 0.0
0.0 0.0 0.0 0.0 0.0 0.0 0.0 0.0
0.0 0.0 0.0 0.0 0.0 0.0 0.0 0.0
0.0 0.0 0.0 0.0 0.0 0.0 0.0 0.0
0.0 0.0 0.0 0.0 0.0 0.0 0.0 0.0
00000000: 0000 0000 0000 0000 0000 0000 0000 0000
00000010: 0000 0000 0000 0000 0000 0000 0000 0000
00000020: 0000 0000 0000 0000 0000 0000 0000 0000
00000030: 0000 0000 0000 0000 0000 0000 0000 0000
00000040: 0000 0000 0000 0000 0000 0000 0000 0000
00000050: 0000 0000 0000 0000 0000 0000 0000 0000
00000060: 0000 0000 0000 0000 0000 0000 0000 0000
00000070: 0000 0000 0000 0000 0000 0000 0000 0000
00000080: 0000 0000 0000 0000 0000 0000 0000 0000
00000090: 0000 0000 0000 0000 0000 0000 0000 0000
000000a0: 0000 0000 0000 0000 0000 0000 0000 0000
000000b0: 0000 0000 0000 0000 0000 0000 0000 0000
000000c0: 0000 0000 0000 0000 0000 0000 0000 0000
000000d0: 0000 0000 0000 0000 0000 0000 0000 0000
000000e0: 0000 0000 0000 0000 0000 0000 0000 0000
000000f0: 0000 0000 0000 0000 0000 0000 0000 0000
00000100: 0000 0000 0000 0000 0000 0000 0000 0000
00000110: 0000 0000 0000 0000 0000 0000 0000 0000
00000120: 0000 0000 0000 0000 0000 0000 0000 0000
00000130: 0000 0000 0000 0000 0000 0000 0000 0000
00000140: 0000 0000 0000 0000 0000 0000 0000 0000
00000150: 0000 0000 0000 0000 0000 0000 0000 0000
00000160: 0000 0000 0000 0000 0000 0000 0000 0000
00000170: 0000 0000 0000 0000 0000 0000 0000 0000
00000180: 0000 0000 0000 0000 0000 0000 0000 0000
00000190: 0000 0000 0000 0000 0000 0000 0000 0000
000001a0: 0000 0000 0000 0000 0000 0000 0000 0000
000001b0: 0000 0000 0000 0000 0000 0000 0000 0000
000001c0: 0000 0000 0000 0000 0000 0000 0000 0000
000001d0: 0000 0000 0000 0000 0000 0000 0000 0000
000001e0: 0000 0000 0000 0000 0000 0000 0000 0000
000001f0: 0000 0000 0000 0000 0000 0000 0000 0000
00000200: 0000 0000 0000 0000 0000 0000 0000 0000
00000210: 0000 0000 0000 0000 0000 0000 0000 0000
00000220: 0000 0000 0000 0000 0000 0000 0000 0000
00000230: 0000 0000 0000 0000 0000 0000 0000 0000
00000240: 0000 0000 0000 0000 0000 0000 0000 0000
00000250: 0000 0000 0000 0000 0000 0000 0000 0000
00000260: 0000 0000 0000 0000 0000 0000 0000 0000
00000270: 0000 0000 0000 0000 0000 0000 0000 0000
00000280: 0000 0000 0000 0000 0000 0000 0000 0000
00000290: 0000 0000 0000 0000 0000 0000 0000 0000
000002a0: 0000 0000 0000 0000 0000 0000 0000 0000
000002b0: 0000 0000 0000 0000 0000 0000 0000 0000
000002c0: 0000 0000 0000 0000 0000 0000 0000 0000
000002d0: 0000 0000 0000 0000 0000 0000 0000 0000
000002e0: 0000 0000 0000 0000 0000 0000 0000 0000
000002f0: 0000 0000 0000 0000 0000 0000 0000 0000
00000300: 0000 0000 0000 0000 0000 0000 0000 0000
00000310: 0000 0000 0000 0000 0000 0000 0000 0000
00000320: 0000 0000 0000 0000 0000 0000 0000 0000
00000330: 0000 0000 0000 0000 0000 0000 0000 0000
00000340: 0000 0000 0000 0000 0000 0000 0000 0000
00000350: 0000 0000 0000 0000 0000 0000 0000 0000
00000360: 0000 0000 0000 0000 0000 0000 0000 0000
00000370: 0000 0000 0000 0000 0000 0000 0000 0000
00000380: 0000 0000 0000 0000 0000 0000 0000 0000
00000390: 0000 0000 0000 0000 0000 0000 0000 0000
000003a0: 0000 0000 0000 0000 0000 0000 0000 0000
000003b0: 0000 0000 0000 0000 0000 0000 0000 0000
000003c0: 0000 0000 0000 0000 0000 0000 0000 0000
000003d0: 0000 0000 0000 0000 0000 0000 0000 0000
000003e0: 0000 0000 0000 0000 0000 0000 0000 0000
000003f0: 0000 0000 0000 0000 0000 0000 0000 0000
