lightning_logs/version_24/checkpoints/epoch=4-step=130.ckpt (torch, 227860 bytes, 15 tensors)

lstm.weight_ih_l0 f4 [256, 5]
00000000: cd81 22bd a9ba 30be 0608 0c3e ae57 96bd
00000010: 5ac8 103e c013 703e e1d1 3fbe 8e9d 473e
00000020: 3cb3 353e fe56 27be a06c 363e 7f64 19be
00000030: 50f4 dc3d 3a09 6d3e d898 2cbe 9270 e23d
00000040: 690d b5bd e6ad ba3d 0968 ecbb 25cf bd3d
00000050: cf3e 54be f25a b53d be1b 71be d5d9 d73c
00000060: 3e30 543e 7de9 1b3e 90dd 6ebd 0454 05bd
00000070: 1293 bebd c098 9b3d 7b04 dabc 09f1 32be
00000080: 420c 313e d2b1 fd3d 1fc4 08be 31a0 64be
00000090: 51ba 673e 1ceb 5fbe a718 bbbd b48d b83d
000000a0: 5492 293e b17d f13c 64af c1bc 7cca d03d
000000b0: 1661 1bbe 0024 18be 011b 203e f762 6f3c
000000c0: eefd 9dbd b0c3 31bd c28c 48be 9aa6 603e
000000d0: d767 5c3e 15d0 91bc 92ec 103e 5ac6 32be
000000e0: 3f69 5d3d 1acd 06be a3b1 843d 3a98 303d
000000f0: 6101 cf3c 5cd9 d4bd 3908 83bd 1c2b 7abd
00000100: ab21 003e d868 22be e97e 353e 3a1e 72bd
00000110: 6fed 0a3d 9cba 5f3b 09bd 12be b57f 1f3e
00000120: 3579 15bd df7a 063e 53d5 923c 1afc 973d
00000130: a44f 30be 6f57 5f3e aba8 493e 3066 12be
00000140: 42ef 32be 0c27 4c3e 1959 71be 21ea cf3c
00000150: 3df7 0d3e 7d1b b4bd b51a 5f3d b266 fdbc
00000160: 0fac 253d eb1d 603d 431b 083c 6fd5 e83d
00000170: df53 08be 215a 71bd 653c 153e aed8 813d
00000180: eb50 993c 0aa4 06bc 3df4 0e3e 538e 78be
00000190: d342 8a3d 1daa ed3d 83cc 61be 4657 5c3c
000001a0: 8a18 5bbc 6c63 70be a6a6 0f3d f163 3a3d
000001b0: e0c2 7b3d 616e f23d 68c3 7fbd 747a be3d
000001c0: 6e97 a6bd d222 b63d 69a4 3c3e df64 f63d
000001d0: aa6a 79bd b802 53bd 735b 573d 5257 4ebe
000001e0: fd77 f2bd 2ad5 483e 173e 2f3d e3ba 283e
000001f0: c814 45be ddff 87bd b401 2a3e a09a 02be
00000200: 3674 ccbd 202a 8a3d 3eaa 87bd 3779 55bb
00000210: 4786 45be 4e9f 87bc 017e 883d 9827 e73d
00000220: 5697 b4bd 6c11 8ebb 1eda e33d e8d1 ecbd
00000230: d0d1 d03c cd16 993d 1aef 7ebe f454 943c
00000240: 4096 5dbc 5ce9 f53d 7113 77be 6f38 5c3e
00000250: c356 2b3d 7433 3ebe 1322 67be 5bad a53d
00000260: ac09 85bd fff7 fa3d bf42 1bbd e709 e13d
00000270: b96b 67bd 25b8 1bbe 4ad5 3fbd 8325 113e
00000280: 7ddc 11be d34e 7b3e 12f8 ac3c a867 df3d
00000290: 7bf8 58bc 4ba3 b4bc d592 dc3d 7cbf 02bd
000002a0: f5d8 333d 7591 de3d 1339 f9bd 8e76 763e
000002b0: dfc0 78be 6dd7 49be 6998 563e 4fdb 4e3d
000002c0: c3f9 4dbd 67e8 d43d af49 423e 2161 5cbe
000002d0: 9e29 33be 2a3d 4d3e d2dd 7bbe 8a01 9fbd
000002e0: 74c7 7c3e 124b 913d 4131 1bbd 2453 39be
000002f0: 0271 3c3e 3c89 99bd f856 a43d 4d8d 6a3c
00000300: 5bf4 72bd 1825 fc3c e24f c138 be7b 943c
00000310: 29a6 e1bc 4b75 b1bc 3ec9 b5bd 045d 673e
00000320: 92ca a5bd 82a8 af3d 01f4 8dbd 6a88 373e
00000330: 0851 89be cc63 4bbe c955 003e 7887 18be
00000340: d55c 523e dff1 053d d727 23bd 850c 013e
00000350: 8033 14be 9299 fdbd 6dc6 283e 64b4 5d3d
00000360: 37d0 2b3e 3f58 50bd 94c9 3dbc 35a4 8d3b
00000370: ab7a 703e 6ad4 61bd 6048 d4bd 5232 be3d
00000380: df00 98bd f270 e6bd 891f 323d 3fd8 20be
00000390: 064c 5d3c 0207 3e3e dc59 bfbc 6f1e 653b
000003a0: 80f7 53be 7f84 9ebc f150 233b c4c7 bc3d
000003b0: 8f20 89be 38ef a2bd 99b0 19bd 6a56 13be
000003c0: d072 673e 3747 f0bc 1e72 1a3e d4dd c3bc
000003d0: b552 bfbc 57a5 02be a45e 9a3d 5d4c b93d
000003e0: 6993 06be a1f4 c0bd 61ff 233e 9c28 9dbd
000003f0: 6841 073e 76d9 2c3e 169d 82bd d0f7 aa3c
-0.03967457 -0.17258705 0.13674936 -0.07340942 0.14138928 0.23445034 -0.18732406 0.19493696
0.17744154 -0.16341779 0.17814875 -0.14979742 0.107887864 0.23148051 -0.1685518 0.11056627
-0.088404484 0.091152 -0.0072145504 0.09268025 -0.20727085 0.08855237 -0.23545739 0.026348988
0.20721528 0.15225787 -0.058316767 -0.032550827 -0.09305395 0.07597494 -0.026613465 -0.1747476
0.17289832 0.12387432 -0.13356064 -0.22326733 0.22629668 -0.21867031 -0.091355614 0.09011403
0.16559726 0.02947888 -0.023643203 0.10194871 -0.15173754 -0.14857483 0.15635301 0.014610997
-0.07714449 -0.043399513 -0.19584945 0.21938553 0.21523987 -0.017799417 0.14152744 -0.17458478
0.05405545 -0.13164178 0.06479194 0.043113925 0.025269212 -0.103930205 -0.06398053 -0.06107627
0.12512843 -0.15860307 0.17724194 -0.059110858 0.03391784 0.0034138327 -0.14329924 0.1557606
-0.036492545 0.13132809 0.017923987 0.074211314 -0.1721788 0.21810697 0.19693248 -0.14296794
-0.17474082 0.1993677 -0.23569144 0.025380196 0.13863845 -0.087943055 0.05446883 -0.030932758
0.04044729 0.054716032 0.008307281 0.11368834 -0.13313244 -0.058923844 0.1457382 0.063401565
0.018715343 -0.008217821 0.13960357 -0.24273042 0.06751027 0.11604712 -0.22050671 0.013448542
-0.01337255 -0.23475426 0.035071038 0.045505468 0.061465144 0.11837459 -0.062442213 0.093007
-0.08134352 0.0889336 0.18422092 0.120309584 -0.06089274 -0.051516265 0.052577447 -0.20150498
-0.11839292 0.19612566 0.042783823 0.16477542 -0.19246209 -0.06640599 0.16602212 -0.12754297
-0.09983103 0.06746316 -0.06624268 -0.003257347 -0.19289504 -0.016555455 0.06664658 0.11286849
-0.088179275 -0.004335573 0.11125587 -0.11563474 0.025490671 0.07475052 -0.24895898 0.018106915
-0.013524592 0.120074004 -0.2412851 0.21505903 0.04183079 -0.18574315 -0.22571592 0.080897056
-0.064959854 0.12254333 -0.03790545 0.10988217 -0.056499217 -0.15206964 -0.046834268 0.14174466
-0.14244266 0.24541788 0.021114383 0.10908443 -0.013242836 -0.02205052 0.107701935 -0.031920895
0.04390808 0.108675875 -0.12169089 0.24068663 -0.24292324 -0.19711085 0.20956577 0.050502118
-0.05028702 0.1039589 0.1897342 -0.21521427 -0.17496344 0.20042863 -0.24596336 -0.077639654
0.2468546 0.07094397 -0.03788877 -0.18098122 0.18402484 -0.074968785 0.080244005 0.014315915
-0.059315067 0.030779406 9.2178365e-05 0.018125411 -0.027545052 -0.021662375 -0.088762745 0.22594076
-0.08095278 0.08577062 -0.06931306 0.17923132 -0.26819634 -0.19862288 0.12532724 -0.14895427
0.20543225 0.03270137 -0.039832916 0.12602432 -0.1447277 -0.12382807 0.16481943 0.054127112
0.16778646 -0.050865408 -0.0115837045 0.0043225535 0.23484294 -0.055134214 -0.10365367 0.092869416
-0.07422041 -0.11252011 0.043487106 -0.15707491 0.013506895 0.18557361 -0.023358278 0.0034960767
-0.20699883 -0.019350288 0.002492007 0.0921779 -0.26782653 -0.079557836 -0.037521932 -0.14388433
0.22602391 -0.029330833 0.15082595 -0.023909487 -0.023354867 -0.12758385 0.075375825 0.09047768
-0.1314217 -0.09421659 0.16015388 -0.07673761 0.13208544 0.1687983 -0.06377618 0.02087012

lstm.weight_hh_l0 f4 [256, 64]
00000000: e0ce 2abd 02b1 b8bd d847 17bd e05f 38bc
00000010: 6003 d4bc a092 ffbd 5275 9b3d ca60 d0bd
00000020: ac41 3d3d b075 5fbd bce7 30bd 8837 af3c
00000030: 605c c6bb 90de ed3c f072 47bc 802c d2bc
00000040: f8df f9bc f2c1 eebd 105d ebbd 008d de3a
00000050: 107f b63d 202e 4b3c 80f8 cb3d b6cf c83d
00000060: a033 14bd 0474 ab3d 6286 b63d 4e9a f03d
00000070: 3056 aebc ba41 b93d 8004 573c 4426 f5bd
00000080: 2058 793c babc a6bd 00b7 a0ba 109b 563c
00000090: f8ba 623d 40e3 7abc 20d7 23bc a825 cabd
000000a0: 5cc8 0e3d a81d 203d a09f cebb 1043 623d
000000b0: 26ae 94bd 2890 81bc fe08 9dbd 0c62 24bd
000000c0: 6014 f2bd 1c99 0bbd be85 a53d 08b7 153d
000000d0: 9669 f1bd 002f 673d b091 f03c 7871 cebd
000000e0: bcbf b8bd c074 773b 7069 ecbc f8c4 0bbd
000000f0: 906d 143d 8431 af3d f805 2e3d 5605 913d
00000100: 6c95 a43d f85a dc3d b07f 7bbc c0e0 813b
00000110: 627f 8b3d 60b3 f03b 9ca9 283d 9052 72bd
00000120: fc45 e73d 04ea f1bd 367a f7bd 64be 8ebd
00000130: f6ed c53d 9c04 ac3d 6218 bcbd 080e d1bd
00000140: 2860 c5bd d866 a9bd 28bf 7fbd b00e d9bd
00000150: 00e4 543c 581f d0bd 48bd 093d 64d3 1fbd
00000160: ccf6 9e3d a4a9 6f3d 6227 a03d ce18 d8bd
00000170: a64d c2bd 1088 ccbc a88d 96bc 681c b3bc
00000180: 761e cb3d a026 a6bc 4658 febd b83e 4b3d
00000190: 20a1 383c e0ee d03b 7604 8abd 72aa 81bd
000001a0: b4e0 e93d bca0 5f3d 72e6 e9bd a01e f73c
000001b0: fc85 e23d b844 14bd 3004 05bd fc2a cfbd
000001c0: 2c8f a63d 387c 78bd 96e9 e6bd 6440 c4bd
000001d0: f0c9 023d d88b ccbd 528f 913d 14d3 d8bd
000001e0: 3e31 8dbd facf debd b8f3 e8bc 0040 b13a
000001f0: 18b7 c0bc f897 93bd 70f1 0abd 408f a73c
00000200: 783b 2b3d 80f4 0ebc 3071 fd3d 504f a6bc
00000210: b891 aebd d0e5 263c 1c66 a9bd d8da c83c
00000220: 207e bc3b 9ee9 82bd fe8b 8abd 708d 66bd
00000230: c888 e8bc a8fe b13c aecb 993d 882c c23d
00000240: 80c9 30bb 6c26 973d a034 3e3d ec55 e93d
00000250: 0013 a2bb 42d8 dfbd 8e52 e0bd 0079 55bd
00000260: 6025 c63d c496 4fbd 808d 3ebc 746b dbbd
00000270: 0802 9b3c 08b2 8fbd 7485 e73d 20fc 98bc
00000280: 242a 07bd f0fc 813c a634 dfbd 74a9 b7bd
00000290: 4440 eabd a08f e2bc 607b 4d3d 581f d7bc
000002a0: 884a f03d 0083 eb3c f466 fcbd e43d b6bd
000002b0: 60bd d43d a8a6 603d fc1c f83d 3e51 dcbd
000002c0: 2873 8f3d 42cc 9cbd e810 0f3d 623c 833d
000002d0: d4e8 e6bd 8205 a5bd 804c 563c 16b2 b33d
000002e0: 5202 893d 38df 833c 98c7 7e3d c094 2dbc
000002f0: f046 12bd 82f9 ecbd de1c f5bd c4a6 913d
00000300: 6642 a83d 1ed7 ef3d 0081 ba3d 405e 87bd
00000310: 0011 1d3d f807 4cbd 2873 b33d a465 0cbd
00000320: c02e 9ebd c00c e63b c6be b93d 80f0 373b
00000330: 76f8 d5bd 5a21 9ebd 70c2 01bc 8cd8 c23d
00000340: 6041 733c 98d8 9dbc a8b9 973d a836 21bd
00000350: 8081 fe3c 565c 94bd 94f4 103d 30ed e13c
00000360: 983b f3bd e4fa b73d 9200 d73d f028 74bc
00000370: e275 a2bd 40a0 353c a4b1 52bd 6226 ee3d
00000380: 5cbb d13d 78a3 97bc d07e 86bc baa9 a73d
00000390: 648c bcbd 6812 83bd 5013 bfbc cc45 a0bd
000003a0: 18bf 463d a0bd 20bd 0024 54bd 9a73 b63d
000003b0: f4e6 913d 007d 2aba 1e5f fcbd 58c4 ba3c
000003c0: e075 233c 80c0 f03a 6663 afbd 6a07 bc3d
000003d0: 4c7d 63bd e823 4ebd b0c9 78bc 84f5 cabd
000003e0: 7e4f ec3d b6f8 d3bd 6e08 d1bd ca4e 92bd
000003f0: c018 69bb 0682 e83d c0a5 413d 62f6 bc3d
-0.041701198 -0.090181366 -0.03693375 -0.011253327 -0.025880516 -0.124791384 0.075907364 -0.10174711
0.046205208 -0.054555595 -0.04318975 0.021388784 -0.0060534924 0.02903679 -0.012173399 -0.025655985
-0.030502304 -0.11658086 -0.1149236 0.0016979277 0.08910954 0.012401134 0.09959507 0.09805243
-0.036182046 0.083717376 0.0891235 0.11748181 -0.021281332 0.090457395 0.0131236315 -0.11970189
0.015218765 -0.081414655 -0.001226157 0.013098493 0.05535409 -0.01531297 -0.01000002 -0.098704636
0.034859046 0.039090782 -0.00630565 0.055239737 -0.07259779 -0.01581581 -0.07667731 -0.040132567
-0.118202925 -0.034081563 0.0808215 0.036551505 -0.11787717 0.056441307 0.029366344 -0.10080236
-0.090209454 0.0037758797 -0.02885887 -0.03412339 0.0362373 0.08554366 0.04248616 0.07081096
0.080363125 0.107595384 -0.015350267 0.00396356 0.06811406 0.007345602 0.041177377 -0.05916077
0.11292645 -0.11812213 -0.12083857 -0.06969908 0.09664528 0.08399317 -0.09184338 -0.102077544
-0.09637481 -0.08271569 -0.06243816 -0.105985045 0.012993813 -0.10162228 0.03362778 -0.039019957
0.077619165 0.05851139 0.07820012 -0.10551606 -0.094874665 -0.024967223 -0.018378094 -0.021864131
0.09917919 -0.02028209 -0.124191806 0.04962036 0.011268884 0.0063761324 -0.06739132 -0.06331338
0.11419812 0.054596648 -0.11420907 0.03016597 0.11060712 -0.036198348 -0.032474697 -0.101156205
0.081327766 -0.06066534 -0.11275022 -0.09582594 0.031930864 -0.099876106 0.07107414 -0.10587135
-0.06894158 -0.10879512 -0.028436527 0.0013523102 -0.023524806 -0.0720672 -0.03392166 0.02045405
0.04180476 -0.0087252855 0.123751044 -0.020301491 -0.085238874 0.0101866275 -0.08271429 0.024518415
0.00575234 -0.06392215 -0.06764983 -0.05628723 -0.028385535 0.021727875 0.07509552 0.0948115
-0.0026975572 0.07380375 0.046436906 0.113933414 -0.0049461126 -0.1092992 -0.10953246 -0.052117348
0.096750975 -0.05068089 -0.011630416 -0.107138544 0.018921867 -0.07016379 0.11304751 -0.01867491
-0.032999173 0.01586768 -0.10898714 -0.089678675 -0.11438039 -0.027656376 0.050166488 -0.026260063
0.11732966 0.02874899 -0.12324324 -0.088985234 0.10387683 0.054846436 0.12114903 -0.10757683
0.07004386 -0.076561466 0.034928232 0.064080015 -0.11274877 -0.08057691 0.013079762 0.087742016
0.06689896 0.01609765 0.062202066 -0.010594547 -0.035712183 -0.11571027 -0.119683966 0.07111886
0.082157895 0.11710952 0.09106636 -0.06609774 0.03834629 -0.049812287 0.08762199 -0.03427662
-0.077237606 0.007020563 0.0906959 0.0028066933 -0.10447781 -0.07721205 -0.007919893 0.09513959
0.01484713 -0.019268319 0.07408458 -0.039358765 0.03106761 -0.07244174 0.035389498 0.02757892
-0.11876601 0.089834005 0.10498156 -0.014902338 -0.079326406 0.01108557 -0.051438943 0.11628415
0.10240814 -0.018510565 -0.01641789 0.0818667 -0.09206465 -0.06399995 -0.023324639 -0.07825813
0.048522085 -0.03924334 -0.051792145 0.08908768 0.07124129 -0.0006503612 -0.1232283 0.022798702
0.009976834 0.0018367916 -0.085638806 0.091811016 -0.055539414 -0.05032721 -0.015184805 -0.0991011
0.115385994 -0.10350172 -0.10206686 -0.07143934 -0.003556773 0.11352925 0.047277212 0.09226681

lstm.bias_ih_l0 f4 [256]
00000000: 6715 49bd 93ef d13d a100 543e 624a e13d
00000010: 7fff 073e 1c40 833d e052 853e 7883 0e3d
00000020: e17e 6e3d 5114 fb3d 92bb c73d 989d 923d
00000030: 3839 c63b c3bd 813b ee93 103e a64c 843e
00000040: d4f3 1c3e 58c3 303e b923 27bb 6efa fd3d
00000050: 3edc 1d3e 367c 473e d370 2c3e a584 733e
00000060: 8add 103e 1e14 253e 3c58 763e 9c21 063d
00000070: 9cb4 3b3d b318 113d ca74 7a3e 8e39 933c
00000080: 2418 d13d e01e a03d ccee 2c3e e4ee 8d3e
00000090: 450a 6a3d 3159 3e3e fd76 633d 6b98 323e
000000a0: 55a7 a13d cd8d 513d 08ed 23bc 1da9 243e
000000b0: cc16 c03d 2a10 263d d347 ad3d ec60 c53d
000000c0: 4870 7e3e ba8b 633e 230f 853e 5f9a aebd
000000d0: 039d 2e3e 3717 163e 22c1 203e 4d5a fc3d
000000e0: c8a1 a1bd 2d92 833d 3388 933d 6cb1 2f3d
000000f0: 34d1 e83d f82f 803e 0117 a43d 584e 0a3e
00000100: 84bd a9bd e811 e63d 106f 61bc a298 d93d
00000110: bc12 4dbd 7a75 b1bd 0cb2 d0bd 20c4 ab3d
00000120: 4e22 b73d ac9c da3d d070 f2bc e8c6 2d3d
00000130: dc50 043d 82bc f3bd f87b 2c3d ac56 16bd
00000140: 0ea8 8ebd f053 09bd 583b ff3c a205 9cbd
00000150: 00e0 bcbc 9ae3 ef3d d899 c23d 769d d73d
00000160: 103f a43c 6a87 a03d 481a 00bd 1a19 e93d
00000170: fc19 523d c0ab ffbb 246f 93bd 74e0 56bd
00000180: 0a9e 96bd 4022 d1bc 2ad5 b83d b891 883c
00000190: f883 b53d 804c de3c e82a ff3c 000d 6c3b
000001a0: e829 593d a050 49bd a862 f93c 8e92 a5bd
000001b0: 7eae fcbd 52e4 d8bd 8491 58bd 24f2 a3bd
000001c0: 56d1 f3bd 3859 803c b632 893d 545d 273d
000001d0: 0042 563a 92f4 bebd 4417 1f3d c0ea ab3c
000001e0: e8bc e43d f8ee 05bd bece 85bd c438 323d
000001f0: be88 ae3d 382c 933c 88e0 d4bd 78be dcbc
00000200: 32d9 d9bc fa3f 4a3e 66c9 1b3e 79cb 153d
00000210: 2534 21be e36c dbbc 879e 11be f189 9cbc
00000220: 4992 1dbd 5dbd 40bd 56cc 2abe 3190 7dbc
00000230: e113 29bc 1217 4b3d f92a 323c 2f1d bd3d
00000240: a1b0 173e 2699 093e c7de 553d a0e2 2ebe
00000250: 158e ebbb 7a2d 09be a853 febd 1587 e9bd
00000260: 2329 9d3d 8a1f 013e bc8a a63c 65a2 87bd
00000270: bdd3 76bd 365e febd 082f 31be 3b7a 3ebd
00000280: 053a 0cbe 7e46 4b3b dec8 b83d 187b 44be
00000290: 10fb 283d cc42 e63c 5c69 0fbb 1d5c 823c
000002a0: 8c6b 403e e02d df3d e4ae 21bc bb39 293d
000002b0: 3280 1b3e d297 203d 537c eebc cc2d debd
000002c0: d7c3 eebc ef3a 8fbd 5efd 18be ea35 553c
000002d0: cd1d f8bd d524 cd3c 039c c53c 9e8d 07bd
000002e0: 7c54 fb3d 9737 0cbd a160 0a3c e2fc b3bd
000002f0: c89d f7bd 5196 9b3d 8ac7 2a3e e8d7 08bb
00000300: dee5 29bd 4b18 e03d 5c5e 053d bae8 023d
00000310: ca09 863e 3962 523e 362f b03d c7df 3c3e
00000320: 8019 333d 2fb6 ad3d e973 423e e780 963d
00000330: dd34 ec3d 5d3d 3d3c 8ce1 e33c 381a ef3c
00000340: 041a 363e e8fe 413e 52d8 c2bc 463c 143e
00000350: 2210 b53c 23f8 3c3e dc00 c83d d96a 613e
00000360: 4d77 893e b3d0 a2bd 51c1 d13d b760 3a3d
00000370: 89a6 5339 4c48 a53d 425f 6d3e ace3 c4bc
00000380: 56e9 613d 52eb 483e 13a9 2f3e 58dd 8d3e
00000390: eeb5 293e bf60 333e 8963 893d 2941 1b3e
000003a0: 6c40 1e3e 7cee 923e f5fb 9e3c 2a3d 353d
000003b0: 0eb9 363e 3192 e93c 419d 0e3e dda4 4c3e
000003c0: 26b5 103e 3855 823e 80f6 c63d 1102 9dbd
000003d0: f77f 803e d11a 493d 82b9 0e3e bcca bf3d
000003e0: 164a a6bc 95aa 8c3d c554 143d 9c7b 6b3d
000003f0: 2549 4a3e b9ab 623e b318 2b3e f702 5e3e
-0.049092676 0.10250773 0.20703365 0.110005155 0.13281058 0.06408712 0.2603979 0.034793347
0.05822647 0.122597344 0.09752573 0.07158965 0.0060493015 0.003959389 0.1411893 0.25839728
0.15327388 0.17262018 -0.002550347 0.12401281 0.15416047 0.19480976 0.16839914 0.23781069
0.1414701 0.16120955 0.24057096 0.032746896 0.04582654 0.035423946 0.24458614 0.01797178
0.102096826 0.07818389 0.16887969 0.27721322 0.0571387 0.18588711 0.055533398 0.17440955
0.07893244 0.051160622 -0.010005243 0.16080137 0.09379348 0.04054276 0.08460965 0.09637627
0.2484752 0.2222127 0.2598811 -0.08525538 0.17052083 0.14657293 0.15698674 0.12321911
-0.078921854 0.06424365 0.07203712 0.042893812 0.11368027 0.25036597 0.080122 0.13506448
-0.082881 0.11233884 -0.0137593895 0.106248155 -0.050066695 -0.08664985 -0.1019021 0.08387017
0.0894209 0.10674414 -0.029594809 0.04242602 0.032303676 -0.119011894 0.042110413 -0.03670375
-0.06965648 -0.033527315 0.031156227 -0.07618262 -0.02305603 0.117133334 0.095019996 0.1052808
0.020049602 0.07838328 -0.031275064 0.11381741 0.051294312 -0.0078024566 -0.07198933 -0.05246015
-0.07354362 -0.025529027 0.09025033 0.016671047 0.08863062 0.027136087 0.031148389 0.003601849
0.05301848 -0.049149156 0.03044255 -0.08084594 -0.12337969 -0.10590424 -0.05287315 -0.08005169
-0.11905162 0.015667543 0.066991255 0.04086049 0.0008173287 -0.09323992 0.038840547 0.020985961
0.111688435 -0.0326986 -0.065335736 0.043511167 0.08522175 0.017965421 -0.103943884 -0.026946291
-0.026592825 0.19750968 0.15213546 0.036571 -0.15742548 -0.02678532 -0.1422063 -0.019108744
-0.038469587 -0.04705559 -0.1667951 -0.015476272 -0.010319681 0.04958255 0.010874503 0.09234082
0.14813472 0.13437328 0.05221441 -0.17078638 -0.0071885684 -0.13396254 -0.124183 -0.11402718
0.07673862 0.12609687 0.020329826 -0.06622771 -0.060260523 -0.12420313 -0.17303097 -0.046503287
-0.13694008 0.0031017358 0.090226874 -0.19187582 0.041255057 0.028108023 -0.0021882867 0.015913064
0.18791026 0.10897422 -0.009868357 0.04131482 0.15185621 0.039207287 -0.029112017 -0.10848579
-0.029146118 -0.069936626 -0.14940402 0.013013342 -0.12115059 0.025041977 0.024122244 -0.03309404
0.122719735 -0.034232702 0.00844589 -0.08788468 -0.12090641 0.0759703 0.1667768 -0.0020880643
-0.041478984 0.109421335 0.03256069 0.031960227 0.26179343 0.20545281 0.08602755 0.1844474
0.04372549 0.084820144 0.18989529 0.07348805 0.1153352 0.011550275 0.02781751 0.029187307
0.17783362 0.18944895 -0.02378479 0.14476117 0.02210242 0.18454032 0.09765789 0.22013415
0.26848832 -0.079499625 0.1024195 0.04550239 0.00020184567 0.0807043 0.23180869 -0.024034344
0.055154167 0.19621018 0.1715434 0.27707934 0.16573307 0.17517374 0.06708438 0.15161575
0.15454262 0.28697574 0.019407252 0.044247784 0.1784403 0.028512092 0.13927175 0.19984765
0.14131603 0.25455642 0.09714985 -0.0766641 0.2509763 0.04909784 0.13937953 0.093648404
-0.020298999 0.068684734 0.036213655 0.05749093 0.19754465 0.2213582 0.16708641 0.21680818

lstm.bias_hh_l0 f4 [256]
00000000: 7937 11bd e1dc 693e 826f 2b3c c89d aebd
00000010: f4d3 673e 7e9b 033e 5736 803e d953 f23d
00000020: 110b 693e 1833 f33c 0303 5a3e 5b67 85bd
00000030: 9ffc 563d 2535 943d c4c1 96bd 8dfa 1d3e
00000040: c4c2 673e f2d9 1b3e 2b4e 4c3e 328b 7b3e
00000050: 064e 6abd d395 483e 22f0 073e 1675 263d
00000060: de5e e53d 9f38 0d3e 4ba5 803e 88e3 92bd
00000070: a051 e13d 8311 043e 1e30 833e 4b57 a83d
00000080: 74e0 023c dbef 3fbc df5c 233d 1e3f 913e
00000090: 41ad 1fbc d01c 633e 008e 9dbd 2064 393e
000000a0: 3b12 063e eed3 b63d 1ac8 823d 34b4 6a3e
000000b0: 4c58 873e f4d7 2e3e c740 023e 916d 2e3e
000000c0: e57c 793d 07a6 1d3e 9d1a 2d3e 4c2d 883d
000000d0: edbb 493e 70eb 223e fde6 743e 9638 2a3e
000000e0: 597e c03d b826 3f3d 2507 283e 5a88 3a3d
000000f0: 5a8f a83d 93c7 a53d c501 d33d 7e02 843e
00000100: 0c12 083d 8cfc 1bbd e21b 8fbd 7ef8 e5bd
00000110: 3a88 eb3d d800 e8bd 08e8 bbbc 7ee8 9e3d
00000120: d04e 98bc a0a3 96bb 3cac 14bd c0d0 a8bc
00000130: a044 bfbc bcc6 a6bd 48c8 cf3d c8b6 b8bd
00000140: 6409 b83d 5ccc 84bd 5204 ccbd d430 f1bd
00000150: f06d fcbc d4d9 a5bd 1416 3d3d b40c 373d
00000160: 4877 273d 28b0 f8bc b642 ea3d c42e bdbd
00000170: 8674 ed3d 6e17 d7bd acdb 663d 48fb 40bd
00000180: 006a 173d d45d 473d 6061 e33d e046 4fbc
00000190: 66c6 8a3d cc99 bc3d 109a e3bd 0a52 d2bd
000001a0: 7098 123c a4c3 02bd 7250 b7bd 7837 cd3d
000001b0: 1c0f e73d 20cb cc3d 00f6 9d3b a013 8ebd
000001c0: f228 d8bd c265 bc3d ae76 adbd ce5a c4bd
000001d0: 6818 58bd 189c 9bbd c0f2 61bb 4eba 843d
000001e0: 183c cc3c 40db 6dbc 607d 50bd c071 e1bb
000001f0: 18e5 09bd 621d febd 101b da3d 8075 2c3b
00000200: 39e2 da3d 02e1 263e 2e73 e53d 0e94 003e
00000210: 2433 383c 347f f13d 2882 5dbe 8c83 cb3d
00000220: b314 9fbd 5993 293e 7d27 50be d8f6 053e
00000230: aed7 38bd f41a 34bd df26 30be 7cc2 dd3d
00000240: 05fd 0ebd 798e 193e 38b6 90bd 97b0 93bb
00000250: 558d aabc 37c8 2bbe e459 fcbd 1d84 09be
00000260: bb06 3d3e de34 cc3c 42bf ff3d eeb9 50bd
00000270: 4fc6 443d 9654 48be 26c8 4cbe 4437 433d
00000280: bc5b a2bd 37f8 93bd 3fd6 76bd 628f 5ebe
00000290: 5d4c 28bd 81b5 063e 34de 103c b856 5cbd
000002a0: e75f a13c 46f7 023e 4827 48bc 9bab 343e
000002b0: 4380 583b 6cc5 b13d 126a c63d a34f 76bd
000002c0: 3b94 21be a8bc 22be 740f 49be da71 bc3d
000002d0: d85d 0dbe 95b8 c83c c82e ed3d 8fef db3d
000002e0: 1ea9 9abd 83ae 9bbd 03ab 3cbe bc3d 32bc
000002f0: 39df b1bd c88e 093d 5cb7 503e db04 57be
00000300: 7071 143d 01aa 643e eb51 253d 7873 423d
00000310: 40b1 843e 59b4 923c 0561 0b3e 5426 403e
00000320: 94c9 663e aa89 4a3e 9c6b 343e 8b07 013c
00000330: 397e 843d 41d2 dfbc bbbd 4a3d 4b07 903d
00000340: c89c ab3d e299 1c3b 8a3f c1bc 93f9 f93d
00000350: 47c3 41bd 3d56 b43c ae91 26bd 4746 853e
00000360: 07cd 703e 303d 59bd d8f3 3f3e 8f08 df3d
00000370: 2d22 573c b04a 0d3e 883a 923d f9f4 19be
00000380: 0816 77bd da10 533d ce81 333e 8040 543e
00000390: d799 a23b d4ba 3a3e a47a 523d 7c62 98bc
000003a0: 652d 743e bd9a 833d 093f 833d 71e4 4a3e
000003b0: 0d89 973d 9089 053e 1525 793d 5375 213d
000003c0: c77f 553e 1e9e c63d 5bfd 723e 42e8 7fbd
000003d0: f4bb 023e f8eb 53bc ab66 1a3e 72de c33d
000003e0: 272a 90bd 69fe 033c 3bae ce3d 3523 413e
000003f0: c774 553d 3e46 063d 97ca 633e 78e2 8f3e
-0.035453293 0.22838165 0.010463597 -0.08526188 0.22639447 0.12852284 0.25041458 0.11832399
0.22758128 0.02968745 0.21290211 -0.06513854 0.052487012 0.07236699 -0.073611766 0.15427609
0.22632891 0.15219858 0.19951694 0.24564818 -0.057203315 0.19588403 0.13275197 0.040639006
0.11199735 0.1379113 0.2512611 -0.071723044 0.11001897 0.12897305 0.25622648 0.08219775
0.007988084 -0.011714901 0.03988349 0.28368467 -0.009745897 0.2217896 -0.076931 0.18104601
0.13092892 0.08927141 0.063858226 0.22920305 0.26434553 0.17074567 0.12720023 0.17033984
0.060910124 0.15395366 0.16904683 0.06649265 0.19700594 0.15910125 0.2391624 0.16623148
0.09399099 0.046667784 0.16408975 0.04554019 0.08230467 0.080947064 0.10303072 0.2578315
0.033220336 -0.038082644 -0.0698774 -0.11229037 0.115005925 -0.11328286 -0.02293779 0.07759188
-0.018592268 -0.0045971423 -0.036297068 -0.020607352 -0.023348153 -0.08143374 0.101456225 -0.09019238
0.08986166 -0.06484291 -0.099617615 -0.11776891 -0.030814141 -0.08098188 0.046163633 0.04468985
0.04088524 -0.030357435 0.11438505 -0.092374355 0.11594491 -0.10502516 0.05636184 -0.04711464
0.036966324 0.048673466 0.11102557 -0.012651175 0.06776123 0.09209022 -0.111133695 -0.10269554
0.008947477 -0.03192486 -0.089508906 0.100203454 0.11282179 0.099996805 0.0048205853 -0.06937337
-0.10554685 0.09199096 -0.08469902 -0.09587632 -0.05275765 -0.07598132 -0.0034476966 0.06480847
0.024930999 -0.014517605 -0.050900817 -0.006880015 -0.033665746 -0.12407948 0.10649693 0.0026315153
0.1068768 0.16296771 0.112036094 0.12556478 0.011242662 0.1179184 -0.21631682 0.099372
-0.0776762 0.16560115 -0.20327564 0.13082445 -0.045127563 -0.043971017 -0.17202328 0.108281106
-0.034909267 0.14995755 -0.070660055 -0.004507135 -0.020819345 -0.16775595 -0.12321833 -0.13429303
0.18459599 0.024927553 0.124876514 -0.050958566 0.048040684 -0.19563517 -0.19998226 0.047660127
-0.07927653 -0.072250776 -0.060262915 -0.21734384 -0.04108845 0.13155176 0.00884204 -0.05379364
0.01969905 0.1278964 -0.012216397 0.17643587 0.0033035434 0.08680233 0.096882 -0.06013454
-0.15779202 -0.15892279 -0.19634801 0.09201403 -0.1380533 0.024502078 0.115811884 0.107390516
-0.07551788 -0.07601645 -0.18424611 -0.010878976 -0.086851545 0.033583432 0.20382446 -0.20997946
0.036240995 0.22330476 0.040361326 0.0474734 0.2591648 0.017908262 0.13611229 0.18764621
0.22537833 0.19779077 0.17619175 0.007875334 0.064693876 -0.027321937 0.049497347 0.07032641
0.08379513 0.0023895432 -0.023589868 0.12205806 -0.04730537 0.022013778 -0.040666275 0.2603018
0.23515712 -0.05303687 0.18745363 0.10890304 0.013130707 0.13798022 0.0714007 -0.15034856
-0.060323745 0.051529743 0.17529985 0.2072773 0.004962187 0.18235332 0.05138649 -0.018601649
0.23845442 0.06425998 0.064085074 0.19813706 0.07399187 0.13040757 0.06082638 0.03941853
0.20849524 0.09698127 0.2372946 -0.062477358 0.12767011 -0.012934677 0.15078227 0.095639125
-0.0703929 0.008056262 0.100918256 0.18861087 0.05211332 0.032781832 0.2224525 0.2810247

fc.weight f4 [1, 64]
00000000: 80ac c9bd 59bb 5cbe a4b3 1fbe 5447 7bbd
00000010: 6ad3 773e 0ddb 1ebe da4e 1e3e d8ac 0cbe
00000020: ed06 f93d a1fb b1bd bb4c 603e bfd5 2abe
00000030: 2d5c 21be b468 2cbe 35ac ad3d 9d7f 37be
00000040: b8bf 67be 79fd a5bd cf02 bd3d c69d 373e
00000050: bfb3 1d3d f6ed 143e 3f4d ba3d 004d 7c3e
00000060: 5eac 7cbe aa3b 05be 0bb9 1fbe 4bc3 ab3c
00000070: bdf0 7fbd 1d61 383e a37c 2f3e bdb4 36bd
00000080: 4b27 0e3e 1b73 383e 67c3 27be 8b46 0a3e
00000090: 1747 1e3e ede7 39be 47f7 f6bd 4e4c 373e
000000a0: 9896 37be 9178 4abe 01b3 013e 1a8f 4dbe
000000b0: 9124 86be 8015 e6bd 14db 19be 570b 613e
000000c0: 9e4b 843e a83b 223e c99d 1a3e cde1 f0bd
000000d0: c200 1d3e f18d b8bd be67 47be 447f 3dbe
000000e0: 7379 26bd c774 f93c ccaf b83d f2cc dd3d
000000f0: 74f2 e03d a120 39be d841 16be 7e10 083e
-0.09847355 -0.21555842 -0.15595871 -0.06134732 0.24201742 -0.15513249 0.15459767 -0.1373781
0.12159524 -0.086905725 0.2190427 -0.166831 -0.15757819 -0.16836816 0.084801115 -0.17919774
-0.22631729 -0.08104987 0.09229051 0.1793128 0.038501497 0.145439 0.09096765 0.24638748
-0.24675128 -0.13011041 -0.15597932 0.020967146 -0.062485445 0.18005796 0.17137389 -0.04460596
0.13882177 0.18012659 -0.16383134 0.13503473 0.15456806 -0.18154879 -0.12058883 0.17900202
-0.1792854 -0.19772555 0.12665941 -0.2007412 -0.26199773 -0.112345695 -0.15024978 0.21976982
0.2583894 0.1584307 0.15099253 -0.11761818 0.1533232 -0.09011448 -0.19473168 -0.18505579
-0.040643167 0.030451192 0.090179056 0.10830106 0.10983744 -0.18078853 -0.14673555 0.13287541

exp_avg f4 [256, 5]
00000000: 9048 21b9 9048 2139 3eeb 57b9 d0d3 9438
00000010: 43fd 43b7 2ccc 5cba 2ccc 5c3a 7751 cbba
00000020: aaee 3435 638c 9c39 acac 1aba acac 1a3a
00000030: e2d8 64ba dc7c a9b8 737f 9539 79e0 53b9
00000040: 79e0 5339 1737 87b9 9385 e5b8 2c86 3639
00000050: 3c6e 893a 3c6e 89ba 1c3d 883a a4e5 0939
00000060: 66dd 01ba 1af7 9db7 1af7 9d37 efd1 8a39
00000070: d463 d836 66e4 3135 e90b 68b9 e90b 6839
00000080: e197 2cba fd5f 0eb9 497f 5739 e174 1f3a
00000090: e174 1fba b686 073a ea05 0f39 0621 b4b9
000000a0: b244 2339 b244 23b9 a27f f039 20dc 67ba
000000b0: 4b31 4a3a 6a6b 6f39 6a6b 6fb9 c7dc 7139
000000c0: 105c c1b7 2add 79b8 31f8 f839 31f8 f8b9
000000d0: d9ac 37ba eb9b ccb8 ba90 a2b8 9ccc 723a
000000e0: 9ccc 72ba dedf 143a 292f 02ba bca6 0d39
000000f0: 7328 afb7 7328 af37 b212 493a 0630 9139
00000100: 1ccd 83b9 58bb 8a3a 58bb 8aba 3854 c93a
00000110: eaf6 1eba b3fb 4739 518b 6539 518b 65b9
00000120: 59e0 b135 27ce 05b9 1306 2e38 51fb b2b9
00000130: 51fb b239 1f14 d6b9 1abf f3b9 6bb1 113a
00000140: a9c5 953a a9c5 95ba a138 973a 8f79 b5b9
00000150: 72e6 acb8 921d f339 921d f3b9 4f98 3e38
00000160: 088b 30b9 b0b6 f7b6 10c9 f439 10c9 f4b9
00000170: 6efa f239 1127 4139 4f38 b1b9 fc9a 0139
00000180: fc9a 01b9 ce2a c639 5f73 a9ba 619c 983a
00000190: 906c 1639 906c 16b9 9cc6 5139 563b 1fb9
000001a0: 01c1 be38 c133 373a c133 37ba 5c92 4cb8
000001b0: 4ebb b2b7 1b74 6fb9 214b 273a 214b 27ba
000001c0: e799 dd38 2c17 6c38 c171 92b9 b78b 6bb9
000001d0: b78b 6b39 3f64 20b8 cace 4eba 0633 563a
000001e0: a38f 6f3a a38f 6fba 2ba7 9339 7f27 9dba
000001f0: aca4 503a cf99 4d3a cf99 4dba 244d a939
00000200: 02d4 57b6 5f81 90b9 ea40 543a ea40 54ba
00000210: e1a1 443a 6cfc 53b9 73fe ceb8 7a35 29b7
00000220: 7a35 2937 74c9 49b8 9f3f 06b8 ad7e 0c38
00000230: d9d1 bd39 d9d1 bdb9 f8b7 e739 0f53 09b9
00000240: 18de d0b6 4559 5bba 4559 5b3a c25b b4ba
00000250: faed a5b9 5d76 1b3a 2afb 363a 2afb 36ba
00000260: 4810 d7b8 1997 6fba ade9 1e3a 1acf ed37
00000270: 1acf edb7 c738 0c38 3208 6938 d003 82b8
00000280: cca7 123a cca7 12ba d8da 6b38 17f1 05ba
00000290: 0029 9239 6742 8e3a 6742 8eba c5b8 b13a
000002a0: 9b10 9db9 3873 ddb8 85ad 863a 85ad 86ba
000002b0: ee54 943a 508d 2038 c322 d2b9 bdf5 bfb9
000002c0: bdf5 bf39 4728 46ba 7e8d df38 a965 ff37
000002d0: ab65 623a ab65 62ba 5b1b ad3a 242c 3739
000002e0: d073 f6b9 a8a1 cf39 a8a1 cfb9 fec5 383a
000002f0: 8d49 84ba 0163 523a 2bde 2bb9 2bde 2b39
00000300: 7d51 1739 b799 a738 f017 8ab7 8fc9 423a
00000310: 8fc9 42ba 9487 783a 7c4c 8d39 1d3a 07ba
00000320: 271e 6c3a 271e 6cba 2a46 083a 7ffe 8aba
00000330: 08ec 2f3a 1a9b 843a 1a9b 84ba c0c4 163a
00000340: c73c 21ba eae3 6139 c413 cc39 c413 ccb9
00000350: ec9b 423a b1e2 c838 00df 6eb9 38f6 163a
00000360: 38f6 16ba 405f e239 035c 51ba d708 0e3a
00000370: 02f6 4dba 02f6 4d3a 0e5e beb9 f399 7cba
00000380: 859f 9a3a 1e40 f839 1e40 f8b9 73e9 353a
00000390: 5db4 a037 7f28 43b9 9e89 0a3a 9e89 0aba
000003a0: b9ce 153a 5305 07ba e8f1 9939 7fa9 58ba
000003b0: 7fa9 583a 5a0f 1dba b0ba 21ba be1e 643a
000003c0: 6215 2dba 6215 2d3a 360d 30ba a378 3dba
000003d0: dd90 6e3a e23f 0037 e23f 00b7 b3c8 a3b9
000003e0: 8822 a8b8 fd70 9738 f8ea 89b9 f8ea 8939
000003f0: 5f65 1bba 002e ebb8 c4e3 4f39 4ede d438
-0.00015381188 0.00015381188 -0.00020591632 7.096643e-05 -1.1681873e-05 -0.0008422758 0.0008422758 -0.0015511949
6.740253e-07 0.00029859235 -0.0005900364 0.0005900364 -0.0008729828 -8.081805e-05 0.00028514452 -0.0002020615
0.0002020615 -0.00025790252 -0.00010944451 0.00017406855 0.0010485123 -0.0010485123 0.0010394189 0.00013150886
-0.00049539504 -1.8830924e-05 1.8830924e-05 0.00026477824 6.448923e-06 6.627e-07 -0.00022129681 0.00022129681
-0.0006583911 -0.00013577934 0.00020551415 0.0006082785 -0.0006082785 0.0005169915 0.00013639746 -0.0003435688
0.00015570482 -0.00015570482 0.0004587146 -0.0008844752 0.00077130337 0.00022832831 -0.00022832831 0.00023065797
-2.3050263e-05 -5.95722e-05 0.00047487163 -0.00047487163 -0.00070066523 -9.75652e-05 -7.7517194e-05 0.00092620566
-0.00092620566 0.0005679111 -0.0004966134 0.00013508921 -2.0880461e-05 2.0880461e-05 0.00076703273 0.00027692335
-0.00025139085 0.0010584397 -0.0010584397 0.0015360182 -0.0006064015 0.00019071884 0.00021891041 -0.00021891041
1.3252821e-06 -0.00012760666 4.149049e-05 -0.0003413805 0.0003413805 -0.00040832252 -0.00046490954 0.00055577484
0.0011426705 -0.0011426705 0.0011537262 -0.00034613578 -8.244523e-05 0.00046370603 -0.00046370603 4.544138e-05
-0.00016836461 -7.3824413e-06 0.0004668911 -0.0004668911 0.00046344422 0.00018420468 -0.00033802024 0.00012360135
-0.00012360135 0.00037797395 -0.001292806 0.0011643284 0.00014345557 -0.00014345557 0.00020005781 -0.00015185526
9.095856e-05 0.0006988608 -0.0006988608 -4.8773698e-05 -2.1306474e-05 -0.00022836069 0.00063817395 -0.00063817395
0.00010566768 5.6288365e-05 -0.00027932043 -0.00022463394 0.00022463394 -3.8240334e-05 -0.00078890903 0.0008171055
0.000913853 -0.000913853 0.00028162575 -0.001198992 0.00079591083 0.00078430487 -0.00078430487 0.00032291666
-3.2160901e-06 -0.0002756221 0.0008096831 -0.0008096831 0.00075009285 -0.00020216563 -9.87024e-05 -1.0085636e-05
1.0085636e-05 -4.8109752e-05 -3.200734e-05 3.3496577e-05 0.00036205238 -0.00036205238 0.0004419682 -0.0001309628
-6.224738e-06 -0.0008367489 0.0008367489 -0.0013760256 -0.0003164856 0.0005930418 0.00069801754 -0.00069801754
-0.000102550315 -0.0009139642 0.0006062042 2.834904e-05 -2.834904e-05 3.343148e-05 5.555916e-05 -6.199593e-05
0.00055944617 -0.00055944617 5.623218e-05 -0.00051094725 0.00027877837 0.001085353 -0.001085353 0.0013559094
-0.00029957746 -0.00010559562 0.0010275102 -0.0010275102 0.0011316815 3.827858e-05 -0.0004008022 -0.00036613448
0.00036613448 -0.00075591024 0.000106598236 3.0445708e-05 0.00086363655 -0.00086363655 0.0013207005 0.00017468684
-0.00047007063 0.0003960256 -0.0003960256 0.0007048546 -0.0010092721 0.0008025617 -0.00016390595 0.00016390595
0.00014430839 7.991812e-05 -1.6462029e-05 0.0007430547 -0.0007430547 0.0009480652 0.000269506 -0.0005158501
0.00090071786 -0.00090071786 0.00051984435 -0.001060441 0.00067108916 0.0010117025 -0.0010117025 0.0005751364
-0.0006150719 0.00021542577 0.0003892464 -0.0003892464 0.0007423747 9.578968e-05 -0.00022780523 0.00057587354
-0.00057587354 0.00043177046 -0.0007986428 0.00054181874 -0.00078567874 0.00078567874 -0.000363097 -0.00096359773
0.0011796808 0.00047350017 -0.00047350017 0.00069393887 1.9157475e-05 -0.00018611735 0.0005284789 -0.0005284789
0.0005714703 -0.00051506347 0.00029362668 -0.0008265003 0.0008265003 -0.0005991362 -0.0006169481 0.00087020907
-0.00066026126 0.00066026126 -0.0006715836 -0.0007227754 0.0009100566 7.644268e-06 -7.644268e-06 -0.00031239315
-8.017296e-05 7.221287e-05 -0.00026305742 0.00026305742 -0.0005927886 -0.000112142414 0.00019825908 0.00010150355

exp_avg_sq f4 [256, 5]
00000000: c952 2931 c952 2931 f57a 4331 d786 3231
00000010: 2073 8c30 412e 4533 412e 4533 2731 7c34
00000020: 5082 8733 4c1d ba33 b169 ef32 b169 ef32
00000030: d265 8633 3459 f331 9829 8732 2f0e 4831
00000040: 2f0e 4831 42ab 9c31 6be7 2531 3342 8c31
00000050: eb36 9134 eb36 9134 1460 c034 6c09 0634
00000060: 0e73 d533 3e7a 0b33 3e7a 0b33 3b75 3934
00000070: 4a90 9333 6365 0d33 fc3a 7d31 fc3a 7d31
00000080: ef61 6233 0111 c232 4463 9d32 1a32 ba32
00000090: 1a32 ba32 b758 b932 3d91 f931 60b0 1032
000000a0: 6863 3432 6863 3432 7a83 5333 1f35 9d33
000000b0: 40b2 5c33 a933 ad31 a933 ad31 22ba 5732
000000c0: 3ee3 a431 76bd 1931 d0b5 b733 d0b5 b733
000000d0: f54d 4f33 fc6f 9d32 8b3f b931 9dfd 8833
000000e0: 9dfd 8833 9d08 eb32 1596 8432 817d 8631
000000f0: 23fd c833 23fd c833 3b26 fb34 d478 3f34
00000100: 6be3 b233 ee48 6034 ee48 6034 0ac3 d934
00000110: ae8f 1534 7fa4 6533 263e 3b31 263e 3b31
00000120: 8341 6431 42fc 0831 5a83 4030 ffae d031
00000130: ffae d031 cbb7 e632 cd28 0133 cd09 0433
00000140: b92a 2e34 b92a 2e34 4613 3334 6a23 7533
00000150: c233 e332 6751 7032 6751 7032 40a7 1b31
00000160: d06a ce30 2be4 8830 adf7 6b32 adf7 6b32
00000170: 8dc7 ac32 8e36 fe31 2ec4 0632 9bf4 8a32
00000180: 9bf4 8a32 d18a ac33 02f7 5f34 6ccd 3034
00000190: fba1 a630 fba1 a630 f47c 5131 1403 0731
000001a0: 9968 6a30 c162 7333 c162 7333 df56 d031
000001b0: 8822 8c31 c59e 5732 7e85 3d33 7e85 3d33
000001c0: 2170 8832 c237 ee31 a5f2 8a32 6e02 0134
000001d0: 6e02 0134 ab8e 3f35 f7de 1935 4555 de34
000001e0: 274f 0534 274f 0534 9f4e f733 7c20 8934
000001f0: fb71 0234 8ff9 9c33 8ff9 9c33 98b1 fa32
00000200: 8624 0632 35bc a632 e65f a133 e65f a133
00000210: 3e8e b933 f6dd 0433 2e69 7f32 4a99 452e
00000220: 4a99 452e 005c b42f 6a8d a82f fbfb 9d2f
00000230: c3e3 5232 c3e3 5232 8b82 a032 4e74 ab31
00000240: 01e8 3c31 c095 4e33 c095 4e33 ab46 2234
00000250: 9082 1c33 b4c3 8433 78f9 9d33 78f9 9d33
00000260: e706 0932 76eb e233 6873 3b33 61e3 812f
00000270: 61e3 812f abcd 6c30 dfa1 b031 f637 8e31
00000280: aadc dc32 aadc dc32 0edd 3232 29f8 8832
00000290: 81ba be31 ac0e 3b34 ac0e 3b34 573d bc34
000002a0: b0bd 0834 a2f1 5b33 8040 df33 8040 df33
000002b0: 505b fe33 9ce7 d532 e73d d832 63a2 3732
000002c0: 63a2 3732 e47a 9a33 d316 9c32 f60a 9f32
000002d0: c6b6 1534 c6b6 1534 b393 a534 48e0 bf33
000002e0: d26f 8733 6d56 7533 6d56 7533 2f92 7534
000002f0: b18c 7d34 3e1c 1a34 84f3 bd32 84f3 bd32
00000300: ee22 5e33 b053 c232 586e 2932 3008 f533
00000310: 3008 f533 6a87 9a34 ab79 d433 b0ee 8c33
00000320: 1b05 5933 1b05 5933 f613 e632 f044 c233
00000330: 1d9b 2f33 8ddf 0934 8ddf 0934 74ce a033
00000340: e3a0 8533 edc4 9232 3b4a 4533 3b4a 4533
00000350: 3865 3c34 f45b 8533 65bd 0433 6bbe 9033
00000360: 6bbe 9033 c3dd 2834 e6f7 3034 c533 b333
00000370: 27ca 0734 27ca 0734 b8bf 0235 d3b7 e034
00000380: 69fc d134 374f 3533 374f 3533 fec5 0534
00000390: c32e 4633 f9cc b232 b097 b132 b097 b132
000003a0: b96c 2033 a133 1e33 595b 9932 90b6 a533
000003b0: 90b6 a533 4f61 8934 90b2 2f34 c668 3034
000003c0: bdfe 4f33 bdfe 4f33 f27d 7c34 80c0 2934
000003d0: 5b2a 1a34 0635 a531 0635 a531 f3ec 0633
000003e0: 7a14 3f32 e386 c231 6344 0332 6344 0332
000003f0: 5d12 9633 5ec6 0a33 43db c932 e2f1 d531
2.4639795e-09 2.4639795e-09 2.8446128e-09 2.5979057e-09 1.0219061e-09 4.5909704e-08 4.5909704e-08 2.348721e-07
6.310131e-08 8.666629e-08 2.7871325e-08 2.7871325e-08 6.258382e-08 7.082372e-09 1.5734983e-08 2.9111893e-09
2.9111893e-09 4.5596673e-09 2.4142206e-09 4.0820622e-09 2.7048313e-07 2.7048313e-07 3.5832693e-07 1.248315e-07
9.939514e-08 3.2474638e-08 3.2474638e-08 1.7272116e-07 6.871467e-08 3.292133e-08 3.6849874e-09 3.6849874e-09
5.2708796e-08 2.2592305e-08 1.8322346e-08 2.1676033e-08 2.1676033e-08 2.1577177e-08 7.2633655e-09 8.422006e-09
1.0499981e-08 1.0499981e-08 4.9246843e-08 7.320545e-08 5.138486e-08 5.0408357e-09 5.0408357e-09 1.2556969e-08
4.7988626e-09 2.2372126e-09 8.554673e-08 8.554673e-08 4.8266845e-08 1.832813e-08 5.3914326e-09 6.3791255e-08
6.3791255e-08 2.7361517e-08 1.5435072e-08 3.9141814e-09 9.359271e-08 9.359271e-08 4.678021e-07 1.7832218e-07
8.330138e-08 2.0888157e-07 2.0888157e-07 4.056131e-07 1.3928977e-07 5.3467826e-08 2.7247409e-09 2.7247409e-09
3.3215606e-09 1.9933997e-09 7.0035855e-10 6.0734915e-09 6.0734915e-09 2.6859103e-08 3.007226e-08 3.074256e-08
1.6220555e-07 1.6220555e-07 1.6677686e-07 5.7075717e-08 2.6449815e-08 1.3988347e-08 1.3988347e-08 2.265054e-09
1.5018831e-09 9.960152e-10 1.3735115e-08 1.3735115e-08 2.011418e-08 7.398575e-09 7.844433e-09 1.6176548e-08
1.6176548e-08 8.034625e-08 2.0858354e-07 1.646601e-07 1.2124127e-09 1.2124127e-09 3.048453e-09 1.9646835e-09
8.5277346e-10 5.6667663e-08 5.6667663e-08 6.063473e-09 4.078462e-09 1.2550747e-08 4.4126402e-08 4.4126402e-08
1.5883474e-08 6.9330506e-09 1.6175656e-08 1.2014945e-07 1.2014945e-07 7.1360654e-07 5.73214e-07 4.1412764e-07
1.2415386e-07 1.2415386e-07 1.1516135e-07 2.5541874e-07 1.214866e-07 7.3097105e-08 7.3097105e-08 2.918459e-08
7.808131e-09 1.941053e-08 7.5145905e-08 7.5145905e-08 8.6406075e-08 3.0935517e-08 1.4866869e-08 4.4928762e-11
4.4928762e-11 3.280718e-10 3.0659503e-10 2.8737177e-10 1.2275396e-08 1.2275396e-08 1.8685816e-08 4.9899773e-09
2.748948e-09 4.809931e-08 4.809931e-08 1.5113135e-07 3.6440326e-08 6.182327e-08 7.35626e-08 7.35626e-08
7.976019e-09 1.0566775e-07 4.364429e-08 2.3626526e-10 2.3626526e-10 8.614857e-10 5.1406768e-09 4.139106e-09
2.5711717e-08 2.5711717e-08 1.0411226e-08 1.5945334e-08 5.550931e-09 1.742107e-07 1.742107e-07 3.506236e-07
1.2734995e-07 5.1209675e-08 1.0395979e-07 1.0395979e-07 1.1844406e-07 2.4901787e-08 2.517386e-08 1.0688924e-08
1.0688924e-08 7.1935375e-08 1.817117e-08 1.851502e-08 1.3943199e-07 1.3943199e-07 3.084111e-07 8.934927e-08
6.3067674e-08 5.712211e-08 5.712211e-08 2.2870584e-07 2.3613644e-07 1.4352642e-07 2.2113234e-08 2.2113234e-08
5.172017e-08 2.2622629e-08 9.862184e-09 1.1410191e-07 1.1410191e-07 2.8783262e-07 9.8941506e-08 6.562675e-08
5.0528893e-08 5.0528893e-08 2.6784601e-08 9.0463686e-08 4.0886437e-08 1.2840447e-07 1.2840447e-07 7.488134e-08
6.22256e-08 1.7086188e-08 4.593515e-08 4.593515e-08 1.7545688e-07 6.210021e-08 3.09059e-08 6.7401594e-08
6.7401594e-08 1.5726896e-07 1.6481462e-07 8.344754e-08 1.2646397e-07 1.2646397e-07 4.870776e-07 4.1857e-07
3.9112936e-07 4.2214392e-08 4.2214392e-08 1.245862e-07 4.6142997e-08 2.0815138e-08 2.0674491e-08 2.0674491e-08
3.7351786e-08 3.6834198e-08 1.7853084e-08 7.716619e-08 7.716619e-08 2.558904e-07 1.6363106e-07 1.6429394e-07
4.8427626e-08 4.8427626e-08 2.3515148e-07 1.5809383e-07 1.4357776e-07 4.80816e-09 4.80816e-09 3.141481e-08
1.1122319e-08 5.661478e-09 7.640753e-09 7.640753e-09 6.9882596e-08 3.2311043e-08 2.3499188e-08 6.226615e-09

exp_avg f4 [256, 64]
00000000: 0000 0000 0000 0000 0000 0000 0000 0000
00000010: 0000 0000 0000 0000 0000 0000 0000 0000
00000020: 0000 0000 0000 0000 0000 0000 0000 0000
00000030: 0000 0000 0000 0000 0000 0000 0000 0000
00000040: 0000 0000 0000 0000 0000 0000 0000 0000
00000050: 0000 0000 0000 0000 0000 0000 0000 0000
00000060: 0000 0000 0000 0000 0000 0000 0000 0000
00000070: 0000 0000 0000 0000 0000 0000 0000 0000
00000080: 0000 0000 0000 0000 0000 0000 0000 0000
00000090: 0000 0000 0000 0000 0000 0000 0000 0000
000000a0: 0000 0000 0000 0000 0000 0000 0000 0000
000000b0: 0000 0000 0000 0000 0000 0000 0000 0000
000000c0: 0000 0000 0000 0000 0000 0000 0000 0000
000000d0: 0000 0000 0000 0000 0000 0000 0000 0000
000000e0: 0000 0000 0000 0000 0000 0000 0000 0000
000000f0: 0000 0000 0000 0000 0000 0000 0000 0000
00000100: 0000 0000 0000 0000 0000 0000 0000 0000
00000110: 0000 0000 0000 0000 0000 0000 0000 0000
00000120: 0000 0000 0000 0000 0000 0000 0000 0000
00000130: 0000 0000 0000 0000 0000 0000 0000 0000
00000140: 0000 0000 0000 0000 0000 0000 0000 0000
00000150: 0000 0000 0000 0000 0000 0000 0000 0000
00000160: 0000 0000 0000 0000 0000 0000 0000 0000
00000170: 0000 0000 0000 0000 0000 0000 0000 0000
00000180: 0000 0000 0000 0000 0000 0000 0000 0000
00000190: 0000 0000 0000 0000 0000 0000 0000 0000
000001a0: 0000 0000 0000 0000 0000 0000 0000 0000
000001b0: 0000 0000 0000 0000 0000 0000 0000 0000
000001c0: 0000 0000 0000 0000 0000 0000 0000 0000
000001d0: 0000 0000 0000 0000 0000 0000 0000 0000
000001e0: 0000 0000 0000 0000 0000 0000 0000 0000
000001f0: 0000 0000 0000 0000 0000 0000 0000 0000
00000200: 0000 0000 0000 0000 0000 0000 0000 0000
00000210: 0000 0000 0000 0000 0000 0000 0000 0000
00000220: 0000 0000 0000 0000 0000 0000 0000 0000
00000230: 0000 0000 0000 0000 0000 0000 0000 0000
00000240: 0000 0000 0000 0000 0000 0000 0000 0000
00000250: 0000 0000 0000 0000 0000 0000 0000 0000
00000260: 0000 0000 0000 0000 0000 0000 0000 0000
00000270: 0000 0000 0000 0000 0000 0000 0000 0000
00000280: 0000 0000 0000 0000 0000 0000 0000 0000
00000290: 0000 0000 0000 0000 0000 0000 0000 0000
000002a0: 0000 0000 0000 0000 0000 0000 0000 0000
000002b0: 0000 0000 0000 0000 0000 0000 0000 0000
000002c0: 0000 0000 0000 0000 0000 0000 0000 0000
000002d0: 0000 0000 0000 0000 0000 0000 0000 0000
000002e0: 0000 0000 0000 0000 0000 0000 0000 0000
000002f0: 0000 0000 0000 0000 0000 0000 0000 0000
00000300: 0000 0000 0000 0000 0000 0000 0000 0000
00000310: 0000 0000 0000 0000 0000 0000 0000 0000
00000320: 0000 0000 0000 0000 0000 0000 0000 0000
00000330: 0000 0000 0000 0000 0000 0000 0000 0000
00000340: 0000 0000 0000 0000 0000 0000 0000 0000
00000350: 0000 0000 0000 0000 0000 0000 0000 0000
00000360: 0000 0000 0000 0000 0000 0000 0000 0000
00000370: 0000 0000 0000 0000 0000 0000 0000 0000
00000380: 0000 0000 0000 0000 0000 0000 0000 0000
00000390: 0000 0000 0000 0000 0000 0000 0000 0000
000003a0: 0000 0000 0000 0000 0000 0000 0000 0000
000003b0: 0000 0000 0000 0000 0000 0000 0000 0000
000003c0: 0000 0000 0000 0000 0000 0000 0000 0000
000003d0: 0000 0000 0000 0000 0000 0000 0000 0000
000003e0: 0000 0000 0000 0000 0000 0000 0000 0000
000003f0: 0000 0000 0000 0000 0000 0000 0000 0000
0.0 0.0 0.0 0.0 0.0 0.0 0.0 0.0
0.0 0.0 0.0 0.0 0.0 0.0 0.0 0.0
0.0 0.0 0.0 0.0 0.0 0.0 0.0 0.0
0.0 0.0 0.0 0.0 0.0 0.0 0.0 0.0
0.0 0.0 0.0 0.0 0.0 0.0 0.0 0.0
0.0 0.0 0.0 0.0 0.0 0.0 0.0 0.0
0.0 0.0 0.0 0.0 0.0 0.0 0.0 0.0
0.0 0.0 0.0 0.0 0.0 0.0 0.0 0.0
0.0 0.0 0.0 0.0 0.0 0.0 0.0 0.0
0.0 0.0 0.0 0.0 0.0 0.0 0.0 0.0
0.0 0.0 0.0 0.0 0.0 0.0 0.0 0.0
0.0 0.0 0.0 0.0 0.0 0.0 0.0 0.0
0.0 0.0 0.0 0.0 0.0 0.0 0.0 0.0
0.0 0.0 0.0 0.0 0.0 0.0 0.0 0.0
0.0 0.0 0.0 0.0 0.0 0.0 0.0 0.0
0.0 0.0 0.0 0.0 0.0 0.0 0.0 0.0
0.0 0.0 0.0 0.0 0.0 0.0 0.0 0.0
0.0 0.0 0.0 0.0 0.0 0.0 0.0 0.0
0.0 0.0 0.0 0.0 0.0 0.0 0.0 0.0
0.0 0.0 0.0 0.0 0.0 0.0 0.0 0.0
0.0 0.0 0.0 0.0 0.0 0.0 0.0 0.0
0.0 0.0 0.0 0.0 0.0 0.0 0.0 0.0
0.0 0.0 0.0 0.0 0.0 0.0 0.0 0.0
0.0 0.0 0.0 0.0 0.0 0.0 0.0 0.0
0.0 0.0 0.0 0.0 0.0 0.0 0.0 0.0
0.0 0.0 0.0 0.0 0.0 0.0 0.0 0.0
0.0 0.0 0.0 0.0 0.0 0.0 0.0 0.0
0.0 0.0 0.0 0.0 0.0 0.0 0.0 0.0
0.0 0.0 0.0 0.0 0.0 0.0 0.0 0.0
0.0 0.0 0.0 0.0 0.0 0.0 0.0 0.0
0.0 0.0 0.0 0.0 0.0 0.0 0.0 0.0
0.0 0.0 0.0 0.0 0.0 0.0 0.0 0.0

exp_avg_sq f4 [256, 64]
00000000: 0000 0000 0000 0000 0000 0000 0000 0000
00000010: 0000 0000 0000 0000 0000 0000 0000 0000
00000020: 0000 0000 0000 0000 0000 0000 0000 0000
00000030: 0000 0000 0000 0000 0000 0000 0000 0000
00000040: 0000 0000 0000 0000 0000 0000 0000 0000
00000050: 0000 0000 0000 0000 0000 0000 0000 0000
00000060: 0000 0000 0000 0000 0000 0000 0000 0000
00000070: 0000 0000 0000 0000 0000 0000 0000 0000
00000080: 0000 0000 0000 0000 0000 0000 0000 0000
00000090: 0000 0000 0000 0000 0000 0000 0000 0000
000000a0: 0000 0000 0000 0000 0000 0000 0000 0000
000000b0: 0000 0000 0000 0000 0000 0000 0000 0000
000000c0: 0000 0000 0000 0000 0000 0000 0000 0000
000000d0: 0000 0000 0000 0000 0000 0000 0000 0000
000000e0: 0000 0000 0000 0000 0000 0000 0000 0000
000000f0: 0000 0000 0000 0000 0000 0000 0000 0000
00000100: 0000 0000 0000 0000 0000 0000 0000 0000
00000110: 0000 0000 0000 0000 0000 0000 0000 0000
00000120: 0000 0000 0000 0000 0000 0000 0000 0000
00000130: 0000 0000 0000 0000 0000 0000 0000 0000
00000140: 0000 0000 0000 0000 0000 0000 0000 0000
00000150: 0000 0000 0000 0000 0000 0000 0000 0000
00000160: 0000 0000 0000 0000 0000 0000 0000 0000
00000170: 0000 0000 0000 0000 0000 0000 0000 0000
00000180: 0000 0000 0000 0000 0000 0000 0000 0000
00000190: 0000 0000 0000 0000 0000 0000 0000 0000
000001a0: 0000 0000 0000 0000 0000 0000 0000 0000
000001b0: 0000 0000 0000 0000 0000 0000 0000 0000
000001c0: 0000 0000 0000 0000 0000 0000 0000 0000
000001d0: 0000 0000 0000 0000 0000 0000 0000 0000
000001e0: 0000 0000 0000 0000 0000 0000 0000 0000
000001f0: 0000 0000 0000 0000 0000 0000 0000 0000
00000200: 0000 0000 0000 0000 0000 0000 0000 0000
00000210: 0000 0000 0000 0000 0000 0000 0000 0000
00000220: 0000 0000 0000 0000 0000 0000 0000 0000
00000230: 0000 0000 0000 0000 0000 0000 0000 0000
00000240: 0000 0000 0000 0000 0000 0000 0000 0000
00000250: 0000 0000 0000 0000 0000 0000 0000 0000
00000260: 0000 0000 0000 0000 0000 0000 0000 0000
00000270: 0000 0000 0000 0000 0000 0000 0000 0000
00000280: 0000 0000 0000 0000 0000 0000 0000 0000
00000290: 0000 0000 0000 0000 0000 0000 0000 0000
000002a0: 0000 0000 0000 0000 0000 0000 0000 0000
000002b0: 0000 0000 0000 0000 0000 0000 0000 0000
000002c0: 0000 0000 0000 0000 0000 0000 0000 0000
000002d0: 0000 0000 0000 0000 0000 0000 0000 0000
000002e0: 0000 0000 0000 0000 0000 0000 0000 0000
000002f0: 0000 0000 0000 0000 0000 0000 0000 0000
00000300: 0000 0000 0000 0000 0000 0000 0000 0000
00000310: 0000 0000 0000 0000 0000 0000 0000 0000
00000320: 0000 0000 0000 0000 0000 0000 0000 0000
00000330: 0000 0000 0000 0000 0000 0000 0000 0000
00000340: 0000 0000 0000 0000 0000 0000 0000 0000
00000350: 0000 0000 0000 0000 0000 0000 0000 0000
00000360: 0000 0000 0000 0000 0000 0000 0000 0000
00000370: 0000 0000 0000 0000 0000 0000 0000 0000
00000380: 0000 0000 0000 0000 0000 0000 0000 0000
00000390: 0000 0000 0000 0000 0000 0000 0000 0000
000003a0: 0000 0000 0000 0000 0000 0000 0000 0000
000003b0: 0000 0000 0000 0000 0000 0000 0000 0000
000003c0: 0000 0000 0000 0000 0000 0000 0000 0000
000003d0: 0000 0000 0000 0000 0000 0000 0000 0000
000003e0: 0000 0000 0000 0000 0000 0000 0000 0000
000003f0: 0000 0000 0000 0000 0000 0000 0000 0000
0.0 0.0 0.0 0.0 0.0 0.0 0.0 0.0
0.0 0.0 0.0 0.0 0.0 0.0 0.0 0.0
0.0 0.0 0.0 0.0 0.0 0.0 0.0 0.0
0.0 0.0 0.0 0.0 0.0 0.0 0.0 0.0
0.0 0.0 0.0 0.0 0.0 0.0 0.0 0.0
0.0 0.0 0.0 0.0 0.0 0.0 0.0 0.0
0.0 0.0 0.0 0.0 0.0 0.0 0.0 0.0
0.0 0.0 0.0 0.0 0.0 0.0 0.0 0.0
0.0 0.0 0.0 0.0 0.0 0.0 0.0 0.0
0.0 0.0 0.0 0.0 0.0 0.0 0.0 0.0
0.0 0.0 0.0 0.0 0.0 0.0 0.0 0.0
0.0 0.0 0.0 0.0 0.0 0.0 0.0 0.0
0.0 0.0 0.0 0.0 0.0 0.0 0.0 0.0
0.0 0.0 0.0 0.0 0.0 0.0 0.0 0.0
0.0 0.0 0.0 0.0 0.0 0.0 0.0 0.0
0.0 0.0 0.0 0.0 0.0 0.0 0.0 0.0
0.0 0.0 0.0 0.0 0.0 0.0 0.0 0.0
0.0 0.0 0.0 0.0 0.0 0.0 0.0 0.0
0.0 0.0 0.0 0.0 0.0 0.0 0.0 0.0
0.0 0.0 0.0 0.0 0.0 0.0 0.0 0.0
0.0 0.0 0.0 0.0 0.0 0.0 0.0 0.0
0.0 0.0 0.0 0.0 0.0 0.0 0.0 0.0
0.0 0.0 0.0 0.0 0.0 0.0 0.0 0.0
0.0 0.0 0.0 0.0 0.0 0.0 0.0 0.0
0.0 0.0 0.0 0.0 0.0 0.0 0.0 0.0
0.0 0.0 0.0 0.0 0.0 0.0 0.0 0.0
0.0 0.0 0.0 0.0 0.0 0.0 0.0 0.0
0.0 0.0 0.0 0.0 0.0 0.0 0.0 0.0
0.0 0.0 0.0 0.0 0.0 0.0 0.0 0.0
0.0 0.0 0.0 0.0 0.0 0.0 0.0 0.0
0.0 0.0 0.0 0.0 0.0 0.0 0.0 0.0
0.0 0.0 0.0 0.0 0.0 0.0 0.0 0.0
