lightning_logs/version_49/checkpoints/epoch=9-step=810.ckpt (torch, 227860 bytes, 15 tensors)

lstm.weight_ih_l0 f4 [256, 5]
00000000: 6dc3 cc3d 35e2 eebd 0c68 683f d54b bb3e
00000010: a28d 0f3f c691 c93e bc0a 94be b374 473f
00000020: 16f5 583e 0e61 11be 77ed 8cbe 989e 7d3d
00000030: bdd6 45bf 1585 edbe cc1b 9d3e ceae 053f
00000040: bed8 c8be 32a6 473f 8cfe 873e 3c0c 40be
00000050: 76b6 4c3e a63f 813d 3c97 423f 1e13 4a3e
00000060: 57ba fdbd cea6 8cbe 4e5c 83bc 3c84 6fbf
00000070: 3b35 6dbd eb4f 2bbe 0f1e a3be f9f5 26bd
00000080: 613b 6abf 7af5 4dbe 2956 7c3e 87ac 543d
00000090: 21d6 48bc e45b 573f 6a13 5a3e 25d7 d5bd
000000a0: 35ef 8fbe 1008 f33d 0ef4 39bf 9410 86bd
000000b0: dd82 8cbe a5ce 923e d8c3 7dbe 4685 7b3f
000000c0: 7a94 c53e 4b81 b73d c672 8b3e 4654 29be
000000d0: a69d 1e3f c957 313e 11a5 69be 97ff 35be
000000e0: 9760 883e ea98 eb3e 9d11 293e f4c7 3fbe
000000f0: ee46 a33d c4bc 173e c9f8 3e3f ad3a a63e
00000100: 100b 2a3c 929c 47be 626a 2c3e 3ddd 3dbf
00000110: 7910 433e e9a9 4cbe 40bd 12be f7c1 d03d
00000120: e3c8 62bf d0e6 80be 2743 1fbe 2ccd 9fbe
00000130: ff45 bf3d 68ce 67bf 39a7 88be 17d0 8e3e
00000140: ae57 1e3e b76b a03d 3f17 463f 3b89 1a3e
00000150: e065 27be f3ba aebe db7f 1b3e 27c1 4ebf
00000160: 28ef 22be 3beb 20be 9b7d 40bd e597 a4bd
00000170: c383 1cbf cfdd 813e 8d71 80be f6d9 7bbe
00000180: 421f 833e 6283 4cbf 8e10 61be 03b3 4cbe
00000190: 4dff 033f 6000 8fbe df1b 503f fa5f 3d3e
000001a0: b075 ebbd d94d 86bd 518c 893d ec37 74bf
000001b0: 3bd8 e0be c84f c03e c358 803e 0325 dc3d
000001c0: 5217 2e3f 13e8 fd3d ae9d 02bd 0a4a c73e
000001d0: 9478 5cbe 6c91 443f 3ed8 f63e 2d5c 11bd
000001e0: e472 7fbe 4d48 7b3d 59cd 20bf c48c efbd
000001f0: 55c9 69be 660a d4be 8b1f 9a3c 66fa 5abf
00000200: 676f 7ebe e530 f83d 2700 fd3d a082 8f3d
00000210: 2136 493f 6bfd 0b3e bca2 52be 3bd1 0b3f
00000220: d738 aebe c406 3b3f c6cc da3e c6a9 03bc
00000230: 8a51 8abe 470a 823d 5927 4cbf 9215 aabe
00000240: d18f e2bd 82e1 85be f542 923e 36be 4ebf
00000250: a913 f3bd bae0 c7be f60a 3dbe 1322 f93d
00000260: b31f 4ebf 2c34 15be 963d 12be c6f6 023d
00000270: f747 b53d 3164 3f3f 18e6 743e 824b 84be
00000280: 679b 763c d1fc 823d 7000 193f 5ece 933e
00000290: 50c9 2a3c 2fa9 87bd 81fc 263e ba6e 073f
000002a0: 3c1f 0e3e 19e4 6dbe e319 fbbe bb00 293e
000002b0: 6908 73bf 7c8e 90be 463e 063e ebcf 29be
000002c0: e5ea c43d 2347 5ebf 2843 b93b b395 a5be
000002d0: 4607 e6bc 0060 163e ce29 1c3f 054a 7f3e
000002e0: f15a 37be 4b8b a63e 65ea 3fbe b62a 253f
000002f0: 9154 0e3e 2a10 97be 8ff7 d63d 5214 bc3d
00000300: 4e53 413f 1d56 463e 3030 d93c 46c1 b9be
00000310: 17c9 4c3e ba21 0e3e 3f2c b63e 86f1 823d
00000320: 23e5 b03d 243f 7abe 9f23 43bf da72 5e3e
00000330: 7865 a3be 3ae6 c2bd 96df d13d ea80 ec3e
00000340: 5b58 a23e a36a 90be bca8 5abe db7e abbc
00000350: f4c4 50bf b5a6 bfbe 5981 0b3c d5b5 67be
00000360: 7934 7e3e 46e5 1cbf 461c 20be 1110 34be
00000370: 6e90 fdbd d000 763e 10dc 50bf 524d 95be
00000380: 9d66 0a3e 52c2 f13c 4372 c93d e6d3 573f
00000390: ecd1 fc3d f228 d6bd c762 953b 6684 11bb
000003a0: 14c0 253f 499b 923e 782d d23e a3df 81be
000003b0: 9f82 6e3e 880b 59bf 3b10 7dbe 9e87 47be
000003c0: 970d f9bc 1495 273b a4e9 4d3f ae29 b83e
000003d0: 23cf b03d 4946 9a3e 13c6 13be 0e80 383f
000003e0: 50ed 843e cb49 66be b732 be3e 8fe7 29be
000003f0: 63c2 163f b35e f63d 87b9 91be 1b88 ea3e
0.09998212 -0.11664239 0.9078376 0.36581293 0.5607549 0.3936903 -0.2891444 0.77912444
0.21187243 -0.1419718 -0.2752492 0.061918825 -0.7728079 -0.46390596 0.3068527 0.52219856
-0.3922786 0.7798797 0.2656139 -0.18754667 0.19991478 0.06310968 0.76012015 0.19733855
-0.12389057 -0.27471012 -0.016035225 -0.9356115 -0.057912093 -0.16729705 -0.3185887 -0.04076192
-0.91496855 -0.20113173 0.24642242 0.051922347 -0.012258084 0.8412459 0.21296468 -0.10441426
-0.28112188 0.11866772 -0.7263802 -0.06546131 -0.2744359 0.28673282 -0.2478174 0.98250234
0.3858984 0.089602076 0.27236003 -0.16536054 0.619593 0.17318644 -0.22816874 -0.17773281
0.26636192 0.46015102 0.16510625 -0.1872862 0.07972513 0.14818102 0.74598366 0.3246664
0.010378614 -0.1949332 0.16837457 -0.7416571 0.19049253 -0.1998669 -0.14330006 0.10193246
-0.8858778 -0.25176096 -0.1555296 -0.3121122 0.093395226 -0.90549326 -0.2669008 0.27893135
0.15463135 0.07833045 0.7737922 0.15091412 -0.16347456 -0.34127006 0.15185492 -0.8076348
-0.15911543 -0.15714733 -0.046994787 -0.08036784 -0.6113855 0.2536454 -0.25086632 -0.24594864
0.25609785 -0.79887974 -0.21978971 -0.19990163 0.51561433 -0.27929974 0.8129253 0.18493643
-0.114970565 -0.06557817 0.06716216 -0.9539783 -0.4391497 0.37560868 0.2506772 0.10749247
0.68004334 0.1239778 -0.031888656 0.38923675 -0.21530372 0.76784396 0.48211855 -0.035488296
-0.24946171 0.06134825 -0.62813336 -0.11696771 -0.22830708 -0.41414183 0.018813869 -0.8553833
-0.24847184 0.12118701 0.12353545 0.070073366 0.7859822 0.1367089 -0.2056989 0.54616135
-0.3402774 0.730572 0.42734355 -0.008036083 -0.27015334 0.063496165 -0.7974754 -0.33219582
-0.11062587 -0.2614861 0.2856671 -0.8075899 -0.11868984 -0.3903864 -0.18461213 0.12164702
-0.8051712 -0.14570683 -0.14281306 0.031973623 0.08851617 0.74762255 0.23915899 -0.25838858
0.015051699 0.06395877 0.5976629 0.28868383 0.010423973 -0.06624066 0.1630726 0.5290333
0.13879102 -0.23231544 -0.49043187 0.16504185 -0.9493471 -0.28233707 0.13109693 -0.1658322
0.09615115 -0.86827296 0.0056537576 -0.32340774 -0.02807964 0.14685059 0.6100129 0.2493058
-0.17905785 0.32528147 -0.18741758 0.64518297 0.13899447 -0.2950452 0.10496437 0.09183563
0.7551774 0.19368787 0.026512235 -0.36280268 0.19998585 0.13880053 0.35580632 0.06393723
0.08637454 -0.24438149 -0.7622623 0.217235 -0.31913352 -0.095165685 0.10247724 0.46192104
0.31708035 -0.28206357 -0.2135343 -0.020934513 -0.81550527 -0.37431875 0.008514726 -0.22627957
0.24824704 -0.61287344 -0.15635785 -0.17584254 -0.123810634 0.24023747 -0.8158579 -0.29160553
0.13515706 0.029511604 0.09836247 0.84307706 0.12344727 -0.104570284 0.0045588943 -0.002220416
0.6474621 0.28634098 0.41050315 -0.25365934 0.23292015 -0.8478322 -0.24713223 -0.19485328
-0.030401988 0.0025571035 0.8043463 0.359693 0.08633258 0.30131748 -0.14431028 0.72070396
0.25962305 -0.22489087 0.37148067 -0.16592239 0.5889036 0.12029781 -0.2846186 0.45806965

lstm.weight_hh_l0 f4 [256, 64]
00000000: c04c 65bc 84e5 8c3d f27b 973d 8848 d43d
00000010: 0e02 8abd e08a e03b 4a15 ffbd 78f1 643d
00000020: 30c8 4dbd 683e d93d 78b4 96bd 3c0c 7bbd
00000030: a087 1f3c c005 92bd a065 f3bc f286 b23d
00000040: 5ed5 893d a032 41bd 20bb 853c 0afb cebd
00000050: 7050 023d 8084 4c3b 703c 7f3d b888 773d
00000060: 6aac e0bd d0d7 713c 90f4 2abc b608 913d
00000070: 28ef 823d 8062 963c 089d 38bd 58a8 f4bd
00000080: 20d8 4f3d d68a bbbd 44b8 30bd d4f1 f6bd
00000090: 90c0 fbbc cc59 2bbd 08c7 0dbd 52b1 82bd
000000a0: 7a0b f6bd 4070 473c d436 15bd ea8e eb3d
000000b0: d452 0abd b080 4cbc a847 833c 4056 4bbd
000000c0: 50d9 93bd b6c0 b43d 18f6 bc3d 3269 8c3d
000000d0: a871 e6bd 8ca5 063d 8072 943c 50fd db3d
000000e0: f09d 453d c023 c83c 04ba 46bd ba01 bc3d
000000f0: 1a9d 9dbd 80b2 77bd fe54 cd3d b012 05bd
00000100: 9c3e 243d f095 15bd 3c76 713d ac74 e43d
00000110: 1418 393d 20f1 8a3c a824 88bd 228e d23d
00000120: e240 9e3d 6680 dcbd c28c 863d fc57 e0bd
00000130: a0ae 45bc 04de b43d a0d3 983d e8fa be3c
00000140: dea0 cfbd 2a05 83bd 7e83 d63d 82be e6bd
00000150: c681 e0bd 4803 e33d 1060 993c 98bb 4d3d
00000160: 4c96 6d3d 30d6 41bd e0ad 773d 3241 a03d
00000170: b01c 38bc 7895 653d 1c35 893d b885 9c3c
00000180: 98a5 cc3d 16cd cc3d 34de 373d 9075 3a3c
00000190: c4d0 eebd 10b4 26bd de78 c3bd 0a87 b9bd
000001a0: eaee b4bd fcc9 12bd 18b7 bfbc eaa0 b8bd
000001b0: 78b4 673d 4ecd b03d fcc8 e0bd a03d 8f3c
000001c0: b07e 3c3d 003e 803a 301c fa3d 9058 72bc
000001d0: 3280 e0bd 5054 e2bc a0a5 c93c 0ee0 ffbd
000001e0: 2087 febc 9437 2ebd 48db bfbd 7c41 d5bd
000001f0: e690 ddbd a891 b83d 7032 583c 340a f5bd
00000200: 3a3e 9a3d 5efb a43d e02b 813d 18bc c43d
00000210: 10ff 1fbc c848 88bd 0076 b0bb 88b6 73bd
00000220: 5a4d c83d 50a8 883d 54e4 903d f83d 213d
00000230: 78a4 843d aca5 5fbd c296 a6bd a07d 31bd
00000240: 0c91 a0bd d81a 03bd b87a 38bd 40ba eabd
00000250: 54cc 8c3d c03e 4abb 24ae c4bd 2c26 4a3d
00000260: 0c42 0ebd 2c74 613d 167d 80bd b0dd 413c
00000270: 806d ecbc 58eb b73d 2c80 63bd 4a65 c6bd
00000280: b41e 33bd c0ef f1bb d0f6 63bd 1848 153d
00000290: 7083 0fbc 0015 3bbd c083 53bd 40ce 6fbd
000002a0: d600 d53d 6c37 843d 5041 123c f897 b63c
000002b0: a6ea 9bbd 409c 2bbb a043 4c3c 1a87 db3d
000002c0: 8436 523d d016 0abd 20f7 90bb 3c8c a83d
000002d0: 00e4 ad3b a4a0 6ebd 6efb 893d f624 afbd
000002e0: a48e 69bd e8b0 fcbd c09e ba3d 3073 6d3c
000002f0: 52d8 90bd a8d3 dd3c b230 c63d b025 62bd
00000300: e06e d33d d4e8 6fbd 0c2a 3a3d 008f 9a3b
00000310: b00d b8bc d8ac 7a3d d843 43bd 4aef c5bd
00000320: e05e 19bd 76c9 f4bd 0cfb 8e3d 587b 9dbd
00000330: c062 ea3c 0cdf 5e3d 88b0 89bc 02e5 a83d
00000340: 7872 243d f4b4 053d 30d2 d33c 28b5 493d
00000350: bcb6 14bd fa12 a3bd 0ca1 bd3d 08fd 463d
00000360: 2482 c33d 16e1 a53d b8bc 043d ace8 c1bd
00000370: a077 36bc f4af 2dbd 5029 7f3d 90da ca3d
00000380: d2e8 9dbd ca6b d13d 629e d43d 02b4 833d
00000390: b690 e7bd 8ce6 6fbd be19 833d 80db bdbd
000003a0: 8ca3 6dbd 243f 223d 9cf6 d1bd 22f3 fdbd
000003b0: 40b3 04bc 547b d8bd 943a 36bd c423 babd
000003c0: 5cdc 6a3d d02f 233c 10f2 5f3d 9433 fabd
000003d0: 4010 513b 80ef e93d e437 e0bd 1284 813d
000003e0: 78ba cebc 3056 d43d 3803 bc3d 0893 15bd
000003f0: a832 573d b0da a43c 0a09 f6bd f6de abbd
-0.013995349 0.06879714 0.073966876 0.10365397 -0.06738673 0.0068524927 -0.124552324 0.055894345
-0.05023974 0.10607606 -0.073586404 -0.061290964 0.009736925 -0.07130003 -0.029711545 0.08717145
0.0673015 -0.04716742 0.01632458 -0.10106476 0.031814992 0.0031206906 0.062313497 0.06043312
-0.109703854 0.014760926 -0.010434285 0.070817396 0.06393272 0.018357515 -0.04507163 -0.119461715
0.050743222 -0.0915734 -0.04314448 -0.12057844 -0.03073147 -0.041833684 -0.03461364 -0.063814774
-0.12013908 0.012172759 -0.03642924 0.11501868 -0.033770397 -0.012481853 0.01602538 -0.0496428
-0.072191834 0.08825819 0.09226626 0.06856002 -0.11252147 0.03287272 0.018121004 0.10741675
0.048246324 0.02443111 -0.048517242 0.09180017 -0.0769598 -0.060472965 0.100259766 -0.032488525
0.04009877 -0.036519945 0.058950648 0.11155066 0.04518898 0.01696068 -0.066476166 0.10281016
0.07727219 -0.107666776 0.06569816 -0.10954282 -0.01206556 0.088314086 0.07462239 0.023313
-0.10138105 -0.06397469 0.10474299 -0.11266805 -0.10962252 0.1108461 0.018722564 0.05022773
0.058004662 -0.047323406 0.060468554 0.07824935 -0.011237308 0.056050748 0.06699583 0.01910673
0.09992522 0.100000545 0.044889644 0.011380568 -0.11660913 -0.040699065 -0.09544538 -0.0905896
-0.08834632 -0.03583716 -0.023402736 -0.09015067 0.056568593 0.08632909 -0.10975835 0.01748544
0.046019256 0.0009784102 0.122124076 -0.014791623 -0.10961951 -0.027628094 0.024615109 -0.12493907
-0.031070292 -0.042533472 -0.093679965 -0.10412881 -0.10818653 0.09012157 0.013195619 -0.11964837
0.075314 0.08055757 0.063071966 0.096061885 -0.0097654015 -0.06654507 -0.0053851604 -0.059500247
0.09780379 0.06672728 0.070748 0.03936574 0.064766824 -0.054601356 -0.081342235 -0.043332696
-0.078401655 -0.032008022 -0.04503891 -0.114613056 0.0687491 -0.0030860156 -0.09603527 0.04935281
-0.034730956 0.05504243 -0.06273858 0.01183264 -0.028860807 0.08980435 -0.055542156 -0.09687288
-0.043730453 -0.0073833168 -0.0556553 0.036445707 -0.0087593645 -0.045674324 -0.05163932 -0.058546305
0.1040055 0.064558834 0.0089267045 0.022289261 -0.07613115 -0.0026185662 0.012467295 0.10719128
0.05132152 -0.033713162 -0.004423991 0.082298726 0.0053067207 -0.058258668 0.067374095 -0.085519716
-0.0570208 -0.1233843 0.091123104 0.014492795 -0.0707251 0.027078465 0.09677257 -0.055211723
0.10323882 -0.05857165 0.045450255 0.004716754 -0.022467464 0.061199993 -0.047672123 -0.096647814
-0.037443995 -0.11952488 0.06981477 -0.076895416 0.02861154 0.054411933 -0.01680781 0.08246805
0.04014823 0.032643273 0.025857061 0.04924503 -0.03630708 -0.07962604 0.09259233 0.048581153
0.09546307 0.08099572 0.03240654 -0.09468207 -0.011136919 -0.04240413 0.062295258 0.09904969
-0.077104226 0.10225637 0.103817716 0.06430818 -0.11306898 -0.058569476 0.06401394 -0.09270382
-0.0580173 0.039610997 -0.10252115 -0.123998895 -0.008099377 -0.10570398 -0.04448946 -0.09088853
0.057339057 0.00996013 0.05467421 -0.12216869 0.0031900555 0.11422634 -0.1094816 0.063240185
-0.0252354 0.103680015 0.091803014 -0.036517173 0.052538544 0.02012381 -0.12013443 -0.08392136

lstm.bias_ih_l0 f4 [256]
00000000: d9be 013f d5d9 de3e e929 a53e 2968 ef3e
00000010: afa0 f53e 912a d03e c9d6 e83e df81 b53e
00000020: 234e 993e 8803 f53e 88e9 bb3e c3c0 433e
00000030: 2a65 9b3e e1d1 b83e ba9c bf3e c45a d73e
00000040: 845f ef3e eb0f a33e b257 103e b47e 7d3e
00000050: 5322 043f 50a9 a23e d44c de3e c362 153f
00000060: 1f13 8e3e 0c74 743e 7410 a73e e452 033f
00000070: 233f 703e 84db 1e3e d391 ed3e 69e3 d83e
00000080: 4076 a93e a7df 563e 469b ab3e fb3e d63e
00000090: 65e2 973e cbee ca3e a112 b33e a2da 8b3e
000000a0: 48e8 b93e 67c2 543e 15af b83e b0db 533e
000000b0: b7c3 923e 1d71 e73e 3b2d e33e a420 c53e
000000c0: 8d78 033f f92b 733e ea62 ad3e 6c39 d33e
000000d0: 4a29 b03e 25c8 073f 1dc7 083f af2f 1b3f
000000e0: 51b9 ad3e 957e 683e c927 ef3e 1c36 bc3e
000000f0: c0b5 bc3e b842 0b3f d751 a93e e7d4 913e
00000100: d273 e0bd fed6 883d 8010 2cbd f056 d4bd
00000110: 6ebb a8bd 0292 af3d 44c5 e63d 809f 18bb
00000120: 148e e0bd 00ba 09ba 2676 de3d 5c9f fa3d
00000130: b4a5 44bd 50dd 6abc 00b6 2bbd a8e1 88bc
00000140: 407a 0ebb d4d0 ab3d f85a ffbd 0028 1bba
00000150: f058 e2bd 005e d4bc 96e9 f8bd dc49 adbd
00000160: bab3 d43d 1056 643c aeb8 fdbd 1c6f 663d
00000170: b47d e0bd 3088 eabc 002a 5bba 88f2 f03d
00000180: 1cd5 d03d 5ccb dabd 2883 873c 2cda 373d
00000190: 527b d43d 38c6 b03d 302a b0bc 9881 bfbd
000001a0: 9a15 a2bd 8049 843d 44a0 f73d 3240 823d
000001b0: 60b7 bfbb f08f 3dbd a604 ffbd 5c80 0d3d
000001c0: dc66 6fbd 80c9 58bb a046 edbc ee80 bdbd
000001d0: 6eb9 9c3d 7c93 0b3d ec63 e63d 4013 7cbb
000001e0: c0a4 dfbb 8438 e1bd 8017 e53c 30b2 ecbc
000001f0: a030 a9bc ae6d 8a3d 1008 babd e216 f73d
00000200: f444 64bc 97ef df3d 1c9b 0bbd 8b6c db3c
00000210: fdfb 0fbe 82ce 03be 2722 653c 7415 32be
00000220: bc48 193e 6490 d6bc b6a8 e0bd af6d 63be
00000230: 0c70 973d 3e0e cbbd f15e 59bd b5c9 903c
00000240: a263 a63d ce8f 55bb ea69 38be 8ced 79bd
00000250: 1986 44bd d1b0 11be 67f8 8dbd 8356 a4bc
00000260: c6f4 1c3e d7a2 1ebe 3b46 44be 3b11 393d
00000270: fa83 05be b82a 07be 0095 593d 88ea 39be
00000280: da05 e93d 837a 3cbe 51e8 363d 4877 72bd
00000290: e44a 43be 23b0 62bd c7af 36bd a58d 84bd
000002a0: 62b0 f73c 73f2 5f3e 402e 5cbc 2fc4 47be
000002b0: c32d 623d 7266 4ebe 93f9 193c a540 01be
000002c0: 6094 ab3c d600 2d3e d02e f0bd 8407 9d3c
000002d0: 2cc9 00be ea10 a03c 6041 12be 60c7 c63d
000002e0: 0152 44be 52f7 093e f4b3 1dbd 07c4 0e3e
000002f0: e0e6 6b3c ff15 803c 050b 20bc ca12 5a3e
00000300: cbe5 1c3f 04ab e73e 76e1 d03e ab60 e03e
00000310: 8ade b53e 0998 e43e 315b 083f 3b51 8e3e
00000320: 0dbd c13e 7a7f 103f 1b80 6c3e b292 c83d
00000330: 1b31 df3e 143f c93e 6592 ff3e 1197 063f
00000340: 9b2a f23e 88e4 db3e 57a1 9b3e 9c6d dd3e
00000350: 387e 0c3f 889d ef3e b196 8e3e bfdd c93e
00000360: 1653 833e 575a 9f3e a834 c83e af02 123f
00000370: 7d5a 663e df87 d43e 8845 c13e 98b3 d13e
00000380: d247 2a3e 3662 983e 38c0 fb3e 8063 d23e
00000390: a626 bb3e 9745 a93e 09f8 953e 91c0 953e
000003a0: 9ee5 be3e de7a 233e 1159 cd3e a046 253e
000003b0: 12cf ae3e e7b3 d03e ca5a f93e 0718 e33e
000003c0: f435 083f da93 5c3e a7a5 273e 99fd d93e
000003d0: ddb8 cc3e 20ae c53e 9fb1 083f b6cc 213f
000003e0: 95f0 ca3e b3c0 703e c6a2 073f dd7b 443e
000003f0: da52 6f3e f185 e43e 2bba 993e 9eca 353e
0.50681835 0.43525568 0.32258537 0.46759155 0.47974154 0.40657476 0.45476368 0.35450646
0.29942426 0.47854257 0.36701608 0.19116502 0.3035062 0.36097625 0.3742426 0.42061436
0.4675256 0.31848082 0.14095953 0.24755365 0.51614875 0.317698 0.4341799 0.58353823
0.27748963 0.23872393 0.3262974 0.51298356 0.23461585 0.15513426 0.46400318 0.42361
0.3309803 0.20983754 0.33516902 0.41844925 0.29664913 0.3963531 0.3497515 0.2731524
0.3631003 0.20777284 0.36071077 0.20689273 0.28664944 0.45203486 0.44370446 0.38501465
0.5135582 0.23747243 0.33864528 0.41254747 0.344065 0.5303977 0.5342882 0.60619634
0.33930448 0.22704537 0.4671004 0.36760032 0.36857414 0.5439868 0.3307025 0.28482744
-0.10959591 0.066816315 -0.042007923 -0.103681445 -0.082388744 0.08572771 0.11268094 -0.0023288429
-0.10964599 -0.00052538514 0.10862379 0.12237427 -0.04800959 -0.014334992 -0.041921616 -0.016709164
-0.0021740347 0.0838944 -0.12468523 -0.0005918741 -0.1105212 -0.025923729 -0.12153928 -0.08461353
0.103858426 0.0139365345 -0.123887405 0.056258306 -0.10961476 -0.028629392 -0.00083604455 0.11765009
0.101968974 -0.10683319 0.016542032 0.0448858 0.10375084 0.08631557 -0.021504492 -0.0935089
-0.079142764 0.064593315 0.12091115 0.063599005 -0.0058507174 -0.046279848 -0.124520585 0.03454624
-0.058447704 -0.0033079088 -0.02896434 -0.09253107 0.076525554 0.0340762 0.11249527 -0.0038463622
-0.0068250597 -0.109971076 0.027965307 -0.02889356 -0.020653069 0.06759201 -0.09083569 0.120649114
-0.013932455 0.1093437 -0.03408347 0.026785156 -0.1406097 -0.12871745 0.013985193 -0.17390996
0.14969152 -0.026191898 -0.10969679 -0.2220981 0.07394418 -0.09914826 -0.05306906 0.017674306
0.08124472 -0.0032586935 -0.18009153 -0.061017558 -0.047979448 -0.14227606 -0.069321446 -0.020060783
0.15327749 -0.15491806 -0.19167416 0.045182448 -0.13038626 -0.1319989 0.053120613 -0.18155873
0.11378069 -0.1840611 0.044655148 -0.059195787 -0.19071537 -0.05534376 -0.044601228 -0.06472329
0.030235473 0.21869831 -0.013438761 -0.19508432 0.055219423 -0.20156267 0.009397882 -0.12622316
0.020944774 0.1689485 -0.11727679 0.019168623 -0.12576741 0.019539315 -0.14282751 0.097059965
-0.19171907 0.13473251 -0.038501695 0.13941966 0.014398307 0.015635489 -0.009768252 0.2129623
0.61288136 0.45247662 0.40797013 0.43823752 0.35521346 0.44647244 0.5326415 0.2779635
0.37839547 0.56444514 0.23095743 0.09793605 0.43592152 0.39305937 0.49916378 0.5257426
0.4729813 0.42947793 0.3039653 0.43247688 0.54880095 0.46799874 0.27849343 0.3942699
0.25649327 0.3112361 0.39102674 0.57035345 0.22495456 0.4150991 0.3774836 0.40957332
0.1662896 0.2976243 0.4917009 0.41091537 0.36552924 0.33060905 0.29290798 0.2924848
0.3728456 0.15964839 0.40107015 0.16140223 0.34142357 0.40762255 0.4870208 0.4435427
0.53207326 0.21540776 0.16371785 0.42576292 0.3998479 0.3860941 0.5339603 0.6320299
0.39636675 0.23511009 0.5298275 0.19187875 0.23371449 0.4463344 0.30024847 0.17753074

lstm.bias_hh_l0 f4 [256]
00000000: a2d0 1d3f bf50 fe3e 573b da3e b09d 143f
00000010: 3596 dc3e 00d2 093f cdd8 d13e 2c92 ef3e
00000020: 5f4e e83e 8daf 093f 3fef 963e 24ab 3a3e
00000030: 5edb 9d3e e8f9 cd3e 693d ad3e 8bc5 a13e
00000040: 49b7 b13e 20ea ed3e 895d 233e 3ca2 813e
00000050: 1cb4 a83e 06b2 8f3e 78d3 9f3e 5110 fe3e
00000060: 7f7c 773e a470 553e 2656 643e d219 d03e
00000070: ea1b a03e 83c3 893e ad42 d43e 5fcd d73e
00000080: da66 a23e 4c23 4a3e c078 863e caaf ae3e
00000090: f00e d63e 2001 393e 8b6f 9a3e c288 b33e
000000a0: 79c5 d43e 419c 9f3e 78a5 0b3f b652 553e
000000b0: 3320 333e c411 d43e 454f ce3e 58e5 dd3e
000000c0: f6e1 ee3e 10fb 813e e113 463e f23b f53e
000000d0: 59f4 c43e 72f9 073f 6e18 f63e b969 053f
000000e0: 97be ca3e 5f7c 9f3e 6720 f23e 0c6b b93e
000000f0: f8df dc3e 7695 283f a87b 813e 0783 9b3e
00000100: 0c28 99bd e29c ff3d 58f8 ccbd 8810 d83c
00000110: 18cc b73c d085 e2bc 9cab 553d 04ee cc3d
00000120: 8861 57bd f4a3 12bd 7cb7 cebd 60b4 bdbb
00000130: d896 d7bd e09b edbd 78a9 583d 1869 013d
00000140: 0e91 bb3d 6817 e5bd 1809 9e3c ac62 883d
00000150: b06a 3fbd d823 8fbc e458 30bd b857 9ebc
00000160: 2663 fabd e230 953d 480f fcbc 7cf1 e9bd
00000170: 265b a8bd 861a 85bd c0fe 89bc d06d c2bd
00000180: 6831 853c 688c 553d 86b1 babd b2fb cdbd
00000190: 144f 713d 38ee d2bc f085 d9bc 6e4d c73d
000001a0: f011 38bc 3e3b bdbd ea9e 9bbd 2423 7f3d
000001b0: 3865 0ebd 7aad dcbd 8a1f d8bd f688 b03d
000001c0: 80f8 eabc 04a2 07bd 80e2 4b3b acdd 8fbd
000001d0: fcd9 30bd 481f eabc 4846 923c deea df3d
000001e0: e03e ec3d e0e0 0ebd 001c 753c 84e6 dabd
000001f0: b853 993c 3062 99bd 2c53 e2bd ccc4 093d
00000200: 1600 f23d 3839 423d 94da eebd 9606 a23d
00000210: 4af6 c9bd 4772 353d 0e23 353d e578 98bd
00000220: dd75 e53d 3a84 9b3d 049d 88bb c814 52be
00000230: d74e 003e 4c65 ffbd 2bdb 18bd af17 88bd
00000240: 3f19 5c3e c69a e1bd f32a 913c 379a f2bd
00000250: cbc1 73bd a619 11be 8b31 25be da3e d7bd
00000260: 9ca7 b53d e836 443d 2a49 b3bd 1a30 8e3d
00000270: d956 afbd a15c 38be ddfb b63d eef5 27be
00000280: 6c83 2e3e 3a9a 2cbe 8ab2 0d3c 05d6 3dbe
00000290: 6373 7dbd 9cc2 d9bd 1f4c 20be 7b14 843c
000002a0: 07fc a4bd 9169 853d 5b21 303d c0ae e7bd
000002b0: 0c96 ce3d f01e c9bd dbc7 41bd a618 403c
000002c0: c594 413e 73cb 823c edf2 15be 7192 513d
000002d0: 30d1 cbbd 1d09 013e a0a1 95bc c135 053c
000002e0: e550 6cbb a8e6 583e 754c 07be af21 1b3e
000002f0: cd22 ccbc 943c d53d 9aa8 9cbb 2e1d 323c
00000300: bb84 e93e 344f bc3e 6d29 653e 2969 ed3e
00000310: 053e 913e 1048 083f 42f7 b23e 2028 853e
00000320: 3ca7 993e e03f 153f 3bba 993e 990e b13e
00000330: 24c6 ce3e d156 a13e 3090 cc3e c022 a53e
00000340: 41af cf3e 951d f33e 1bf3 2a3e 5153 b33e
00000350: 50d9 c43e 850d a33e 4928 603e b114 163f
00000360: 5b23 a83e 2160 6b3e db35 a43e 7cf3 073f
00000370: a069 aa3e 9ecc b13e 2e04 ac3e 1a3d 9a3e
00000380: f60d ae3e 5559 7b3e 9124 fd3e 28ee a73e
00000390: fe98 d73e 3c2f 6e3e 567b fa3e 3368 6e3e
000003a0: f4f5 ce3e bc40 b83e 39c3 eb3e 6c08 823e
000003b0: a46c 3d3e 2f29 c03e 85b9 dd3e a1bc 8c3e
000003c0: 4b66 b13e 8c44 5b3e f902 823e 493a d23e
000003d0: a1a7 e83e 8784 003f 97b8 ef3e 97db 243f
000003e0: a6e4 a13e eb9d a53e 0b63 e13e 51de cf3e
000003f0: 8362 d13e 9046 2b3f f671 8d3e 62c5 8a3e
0.61646473 0.4967098 0.42623398 0.5805311 0.4308335 0.5383606 0.40985718 0.46791208
0.45372292 0.53783494 0.29479405 0.18229347 0.30831426 0.40229726 0.33835915 0.31596026
0.34710148 0.46467686 0.1595365 0.25319088 0.32949913 0.2806551 0.31216025 0.49621823
0.24168585 0.2084375 0.22298488 0.406447 0.31271297 0.26906976 0.4145712 0.42148873
0.31719095 0.19740027 0.26264 0.3411849 0.4180827 0.18066835 0.30163226 0.35065275
0.4155691 0.311739 0.5454936 0.20832333 0.17492752 0.41419804 0.40294853 0.43339038
0.4665677 0.25386858 0.1934352 0.47897297 0.38467672 0.53115 0.48065513 0.52114445
0.39598534 0.31149575 0.47290346 0.36214483 0.43139625 0.6585306 0.25289655 0.30373403
-0.074783415 0.12481095 -0.10008305 0.02637507 0.022436187 -0.027651697 0.052165613 0.100063354
-0.052583247 -0.03580089 -0.100935906 -0.0057893246 -0.10526818 -0.116019964 0.052895993 0.031594366
0.09158526 -0.11186105 0.019291446 0.06659445 -0.046732605 -0.017473146 -0.043053523 -0.019328937
-0.12225942 0.07284714 -0.030769005 -0.114230126 -0.0822051 -0.064991996 -0.016845107 -0.09493601
0.01625891 0.052135855 -0.09115891 -0.10057773 0.058913305 -0.025748357 -0.026553124 0.097315654
-0.011234745 -0.09239815 -0.0759867 0.062289372 -0.0347645 -0.107752755 -0.105528906 0.08619873
-0.028682947 -0.033113495 0.0031110346 -0.070247024 -0.043176636 -0.02857937 0.017855778 0.10933469
0.1153543 -0.034882426 0.014960289 -0.106884986 0.018716678 -0.07489431 -0.1105102 0.033634946
0.11816423 0.04741785 -0.11662784 0.079114124 -0.09861429 0.044298436 0.044222884 -0.07444934
0.11204121 0.075935796 -0.0041691083 -0.2051574 0.12530075 -0.12470493 -0.03731839 -0.06645142
0.21494006 -0.11015849 0.017720675 -0.118458204 -0.059510987 -0.1416994 -0.1613218 -0.10510035
0.088698596 0.047903925 -0.08754189 0.069427684 -0.08561487 -0.18004085 0.08934758 -0.16402408
0.17042321 -0.16855708 0.008648524 -0.18538673 -0.06187762 -0.10632822 -0.15654038 0.016123047
-0.08055883 0.06514276 0.04300056 -0.11312628 0.10087213 -0.09820354 -0.047309738 0.011724627
0.18904407 0.015966153 -0.1464345 0.051165048 -0.09952009 0.12601133 -0.018265545 0.008130492
-0.003605896 0.21181738 -0.1321276 0.15149568 -0.024918938 0.10411945 -0.004780841 0.010871215
0.45609078 0.36779177 0.22379084 0.46369293 0.2836763 0.5323496 0.34954268 0.26007175
0.30010402 0.5830059 0.30024895 0.3458145 0.40385544 0.31511548 0.39953756 0.32253075
0.40563396 0.47483507 0.166943 0.35024503 0.38447046 0.31846252 0.21890368 0.5862532
0.32839474 0.22985889 0.32072338 0.531059 0.3328371 0.34726423 0.3359694 0.30124742
0.33995026 0.24545796 0.4944196 0.32798886 0.4210891 0.23260206 0.48922223 0.23281936
0.40422022 0.35986888 0.4604738 0.2539705 0.18498474 0.3753142 0.43305603 0.27487662
0.34648356 0.21412867 0.25392893 0.41060093 0.4544039 0.5020222 0.46820518 0.6439757
0.31619757 0.32347044 0.44020876 0.405993 0.4089547 0.66904545 0.27626008 0.27103716

fc.weight f4 [1, 64]
00000000: 1090 1bbf 5aaa 00bf 2892 24bf f924 21bf
00000010: 916d d43e 91cf 023f b1fe 293f ae86 043f
00000020: 2c91 bebe 697a 253f 6ef2 fb3e a4ef 6c3e
00000030: 4e8c f9be 5276 da3e b66e 0a3f c91f 1bbf
00000040: f645 d0be 37a4 023f 7a60 d23e 504f ea3e
00000050: 9d3e f33e fa55 29bf 31f1 d73e 041b 233f
00000060: dd3f e8be 0778 0fbf 1718 d13e fa73 24bf
00000070: 37bb c63e 5422 b63e 6097 f1be 0fa4 a23e
00000080: 6901 b5be ffaf b73e ea00 233f bb7f d03e
00000090: cb7a c73e edd7 bf3e a043 e13e 3dd3 8c3e
000000a0: ba6d 1d3f 661e a7be 0827 143f d885 dd3e
000000b0: 8140 ecbe 87eb d33e 21a4 213f 41ce 083f
000000c0: ed42 0abf 1d60 dabe a9c0 b23e 5253 21bf
000000d0: 4bd7 ce3e 9152 03bf 3376 ed3e 6722 1abf
000000e0: 347c 1bbf 6511 a2be 5cbb 083f 2d00 69be
000000f0: c3db b4be 1c29 13bf d97d 313f 2506 d8be
-0.60766697 -0.50259936 -0.64285517 -0.6294704 0.41489843 0.5109797 0.66404253 0.51768005
-0.37220132 0.6463991 0.49208397 0.2313829 -0.48739856 0.42668396 0.5407518 -0.60595375
-0.40678376 0.5103182 0.4108923 0.45763636 0.47508708 -0.66146815 0.42176202 0.637131
-0.45361224 -0.5604252 0.40838692 -0.64239466 0.3881471 0.35573065 -0.47185802 0.31765792
-0.35352638 0.35876462 0.6367327 0.4072245 0.3896087 0.37469426 0.43996906 0.27504912
0.61495554 -0.3264038 0.57872057 0.43266177 -0.46142963 0.4139063 0.63141066 0.5343972
-0.5400837 -0.42651454 0.34912613 -0.6301776 0.4039863 -0.5129786 0.4637924 -0.60208744
-0.60736394 -0.31653896 0.5341089 -0.22753973 -0.35323915 -0.574846 0.69332653 -0.42192188

exp_avg f4 [256, 5]
00000000: b59c 3bb9 bd52 3039 6b70 06ba c5cc 2538
00000010: 1020 51b9 2f32 c3b8 b579 0638 1e60 a8b9
00000020: 3f72 fb38 fbcf 0fb8 5c24 c9b9 3915 753a
00000030: be48 ab38 88b3 ffb9 e06c 6cba eb05 32b9
00000040: 5ba4 1939 ea51 f8b9 56ee 4638 79f2 15b9
00000050: 82f4 43b8 cf8d 5bb8 fd85 4db9 2113 5739
00000060: 32e0 3238 a852 adb9 2f27 453a 0da8 bd37
00000070: 39e9 c5b9 91b0 43ba 2367 c7b9 a668 6b3a
00000080: 0c8f 5538 4f88 f8b9 a99c 64ba c51b c2b8
00000090: 6a7b c8b7 8e7b a2b9 4f9f 5539 2083 5b37
000000a0: 01e5 21b9 633b b539 cf3c c838 c7a5 24b9
000000b0: ac6c b0b9 c2e1 5fb9 7ffe 5339 d5db 11ba
000000c0: ad21 34b7 3d30 61b9 897c a7b8 a290 0ab8
000000d0: 9944 b0b9 904f 4439 f04b d537 2419 8537
000000e0: 4007 dcb8 1442 9ab8 7113 b638 c0d4 e138
000000f0: b416 afb8 56b5 16b8 8e85 b1b9 6046 ed38
00000100: fbaf 8037 855a 26b9 fc4c bf39 db47 b338
00000110: 1895 6eb9 4ae3 bab9 15c2 abb9 f479 3a3a
00000120: 64b7 6c38 07a7 90b9 8025 37ba 81bd bdb9
00000130: 1083 613a 7d47 6338 f190 efb9 bf14 5aba
00000140: ca9e a6b8 b688 96b7 3716 7cb9 1821 4539
00000150: 13e8 5437 fa02 6db9 809a 0d3a 44e7 a538
00000160: 5fc6 a7b9 bcfa 09ba 5bc0 d3b8 75d2 6839
00000170: 6102 a438 94f6 e6b8 abcd 57b9 88aa 43b9
00000180: 4c5a ec39 e435 e838 4c50 8bb9 db0c e4b9
00000190: cfa1 eeb8 b64c 4438 eb79 b3b9 197a 3839
000001a0: 16b1 66b8 2310 09ba 9f6d 963a 1935 93b8
000001b0: a007 18ba 6872 91ba 7f75 2eb8 1dfd b5b8
000001c0: 934e 63b9 2ebd 7b39 dec0 9838 a07b 1db9
000001d0: 611a f038 3765 02ba d20f 0e38 3367 05b9
000001e0: 930b 15b9 241a b039 3775 2b39 5c70 2eb9
000001f0: 6220 a5b9 3e43 adb9 416d 463a 2d4d c838
00000200: 2298 b9b9 dc14 42ba 1cab 25b8 5408 cdb8
00000210: 49f1 6db9 2d25 4639 24a5 b538 20a5 41b9
00000220: 15b5 2439 7d20 0eba b529 8038 808a 2fb9
00000230: 6ce0 0db9 c44d a539 5dd9 f238 a19d e2b8
00000240: 51bf 9eb9 5f8e adb8 cc8e 5b39 7780 1e39
00000250: de28 f5b8 1cbb 50b9 ec9f 5eb9 9e46 043a
00000260: 5400 5f38 69e0 94b9 e2c2 01ba 218e f0b7
00000270: 5d24 84b8 d555 11b9 690b 1739 1b4c 9238
00000280: 0fab dfb6 21d7 d8b8 890f 20b9 0d20 1039
00000290: 97c4 c338 34c4 c8b7 9906 9db8 62c8 23b9
000002a0: a55d fc38 88fe 9f38 981d d2b9 5bfc 713a
000002b0: 0b0e 7e37 5150 09ba 9a85 6bba 28e3 cdb8
000002c0: e759 8639 b370 d438 65ba 29b9 5bf0 83b9
000002d0: 133b 77b8 fa9d acb7 e078 4db9 a4e5 0d39
000002e0: 3dcf ae37 3659 33b8 86b2 b8b8 6e24 4bb9
000002f0: e4a1 7439 cad5 c038 f089 70b8 4b73 52b8
00000300: eae9 7cb9 73ba 3939 7e97 1338 e3da c3b8
00000310: 5517 6639 b7d5 37b9 d094 2eb9 d252 6bb9
00000320: a110 88b9 c0cb 263a 02a3 9938 5951 eab9
00000330: 0330 24ba 66e4 3fb7 4f67 82b8 62d5 deb8
00000340: bafb db38 38c1 8738 a55a bdb9 dd93 593a
00000350: 3a29 5538 959f c7b9 311c 54ba e1cc 6cb8
00000360: 53b5 1f39 7173 5039 85d3 adb8 b158 07b9
00000370: 248a c6b8 85a3 9e39 29ab ff38 9f4e 6eb9
00000380: 3773 98b9 2cb8 76b8 2f57 16b8 1246 5ab9
00000390: f125 2c39 3939 0f38 ff87 97b9 a8d7 9e39
000003a0: f07d 39ba 5cce 0cb6 7813 b3b9 eada 64b9
000003b0: d663 073a b8d1 7338 e51f a1b9 3aad 03ba
000003c0: db6d 0db9 133e cb38 4ae5 d1b9 09f1 1237
000003d0: f919 ebb8 517b 7ab8 e958 a1b8 ad67 74b9
000003e0: 9f48 8039 86a4 b038 b876 93b7 25c9 ddb8
000003f0: a4e0 25b9 1188 5539 6b39 e938 8ab6 55b9
-0.00017892088 0.0001681549 -0.0005128446 3.9529772e-05 -0.00019943737 -9.307672e-05 3.2061438e-05 -0.0003211507
0.00011989893 -3.4287554e-05 -0.00038364797 0.0009349171 8.167465e-05 -0.0004877115 -0.0009018909 -0.00016977607
0.00014652444 -0.00047363277 4.7428846e-05 -0.00014300075 -4.671934e-05 -5.234574e-05 -0.00019600238 0.00020511124
4.2647305e-05 -0.00033058715 0.00075207924 2.260881e-05 -0.00037748532 -0.000746497 -0.0003803308 0.00089801324
5.091638e-05 -0.00047403804 -0.0008720854 -9.255813e-05 -2.3899327e-05 -0.00030991103 0.0002037261 1.3083947e-05
-0.00015439467 0.00034567257 9.54807e-05 -0.00015702016 -0.00033650303 -0.00021351039 0.00020217335 -0.00055640686
-1.0736677e-05 -0.00021475642 -7.986377e-05 -3.3036464e-05 -0.00033620445 0.00018721656 2.542694e-05 1.5866543e-05
-0.00010491768 -7.3556e-05 8.6820575e-05 0.00010768464 -8.348879e-05 -3.593167e-05 -0.00033859577 0.00011314149
1.5340736e-05 -0.00015864715 0.00036487717 8.548769e-05 -0.0002275299 -0.00035646028 -0.00032760264 0.00071135093
5.643758e-05 -0.00027590265 -0.0006986484 -0.0003619008 0.00086025987 5.4187596e-05 -0.00045693622 -0.00083191314
-7.9450736e-05 -1.7945054e-05 -0.00024040868 0.00018799712 1.2690219e-05 -0.0002260319 0.00054017454 7.91089e-05
-0.0003200052 -0.00052634976 -0.00010097093 0.00022203645 7.8205725e-05 -0.000110131834 -0.00020580615 -0.00018660177
0.00045080704 0.0001107266 -0.00026571972 -0.00043497127 -0.000113788636 4.6801484e-05 -0.00034232376 0.00017593092
-5.5001197e-05 -0.000522854 0.0011476761 -7.0193964e-05 -0.0005799476 -0.0011096718 -4.159426e-05 -8.6778986e-05
-0.00021677678 0.000240077 7.283849e-05 -0.0001501874 0.00011449005 -0.00049741886 3.3870172e-05 -0.00012722313
-0.00014214059 0.00033588812 0.00016351497 -0.0001663579 -0.0003149538 -0.0003304723 0.00075693807 9.551118e-05
-0.00035399297 -0.0007403621 -3.9498424e-05 -9.776713e-05 -0.00022691967 0.000188966 8.6615124e-05 -0.00018467428
0.00015707717 -0.0005421711 6.111284e-05 -0.00016740896 -0.00013530412 0.00031529192 0.00011579946 -0.000108058804
-0.0003027865 -8.2758015e-05 0.00020938664 0.00015115911 -0.000116901225 -0.0001990613 -0.00021231145 0.0005045923
5.316765e-05 -0.00028395958 -0.0004949999 -2.8676413e-05 -6.301024e-05 -0.00013860253 0.00014404733 6.975998e-05
-6.6658317e-06 -0.000103397535 -0.00015264576 0.0001374485 9.334942e-05 -2.3933222e-05 -7.487572e-05 -0.0001561954
0.00012033739 7.629121e-05 -0.0004007637 0.00092310243 1.5142849e-05 -0.00052381033 -0.0008984447 -9.817473e-05
0.00025625454 0.000101299396 -0.00016186533 -0.00025165346 -5.8944406e-05 -2.0577561e-05 -0.00019595353 0.00013532356
2.083892e-05 -4.276001e-05 -8.807056e-05 -0.0001937316 0.00023329962 9.195095e-05 -5.7348923e-05 -5.0175277e-05
-0.00024119733 0.00017712433 3.518862e-05 -9.3390954e-05 0.00021943201 -0.00017531855 -0.0001664937 -0.000224422
-0.0002595233 0.00063627586 7.325971e-05 -0.00044692567 -0.0006263258 -1.1437665e-05 -6.218126e-05 -0.000106255306
0.000104896215 6.4732914e-05 -0.00036116425 0.00082999264 5.0821553e-05 -0.00038075136 -0.0008091359 -5.6457593e-05
0.0001523097 0.00019879431 -8.2886814e-05 -0.00012907643 -9.4671064e-05 0.0003025794 0.000121912286 -0.00022726737
-0.0002907754 -5.8822494e-05 -3.5843983e-05 -0.00020816203 0.00016417333 3.414715e-05 -0.0002890229 0.00030296785
-0.0007075956 -2.0981743e-06 -0.00034156046 -0.00021825326 0.0005164718 5.813103e-05 -0.00030732076 -0.0005023066
-0.00013487732 9.6913565e-05 -0.0004003442 8.7583985e-06 -0.00011210511 -5.9719492e-05 -7.693639e-05 -0.00023308276
0.0002446817 8.422979e-05 -1.7579048e-05 -0.00010575567 -0.00015819311 0.00020363952 0.00011121001 -0.00020381264

exp_avg_sq f4 [256, 5]
00000000: d0e0 d433 89a5 c633 cb46 f134 dfb9 5e34
00000010: 9933 9c33 9b4c 7a33 7ff0 8233 1e43 9d34
00000020: 46a0 6e34 1dea bb33 513e 1c35 6a1c 8135
00000030: bb4b 1136 ea68 9134 9b7c 7d35 5eb3 8a33
00000040: 284c 7933 8d70 b534 4879 9f34 dbac c333
00000050: c90d b333 06a9 d633 c460 8834 7d56 1b34
00000060: 0cf5 c033 0b53 6a34 141a cc34 4f4e 5235
00000070: 9bbe fe33 51b2 cf34 4585 df34 4296 3a35
00000080: 2690 cf35 0a60 6234 5274 3335 649b 1134
00000090: a8c9 2734 f3ed 0035 7d25 3034 607c 1a34
000000a0: 3bec 7b33 d2e6 b433 a21e 9534 7d08 b933
000000b0: dc62 c533 3ec0 ae33 a5ee 9c33 da9f 8934
000000c0: d939 de33 74ed 6933 9eb8 dc33 68ca 0b34
000000d0: 3581 2535 5fce 9a34 b444 3934 5e51 5633
000000e0: 22b7 a233 77d5 f533 3b92 c532 6641 a133
000000f0: a1da cb33 4be0 f733 eef7 be34 a651 6c33
00000100: 11b7 dc33 1690 6533 6534 b733 2001 5f34
00000110: 1615 7833 a448 eb33 2f78 4434 0bc1 9a34
00000120: fe1f 2e35 e8cc 0634 f3c3 8c34 7912 af34
00000130: ec78 1335 886b 9835 0138 1934 4f7e 1135
00000140: f278 9433 3b07 ab33 687e 7434 dc03 df33
00000150: fcf2 b333 6d30 d233 f89c 2934 b721 f934
00000160: 32cb 0134 a4eb 2534 9d96 e432 8949 2033
00000170: 5c21 9e33 d8d6 5933 a9cb 3934 9bc0 f733
00000180: b1d7 2934 1438 0935 ba18 3334 7e19 0a34
00000190: d47c f533 36b9 0434 c797 0a35 0a17 ab34
000001a0: 80e5 2134 84b2 0c35 dedc 8035 93b7 e535
000001b0: 9847 8d34 0f86 8135 f984 e833 b4a9 1834
000001c0: be92 f534 ee44 1d34 2020 1f34 c8ef a033
000001d0: b400 9633 1f8b 0935 19a8 ad34 0224 f333
000001e0: 32b7 8433 ef3a bb33 c016 e734 1c72 2834
000001f0: 4b17 6d34 6758 3e34 a9bc 9f34 f76b 5935
00000200: 6210 7034 5ee8 9e34 0a31 dd33 0736 1634
00000210: aedf be34 8396 9733 cb0f 1834 cad1 db33
00000220: a57e c433 f9b3 2535 2cd0 f534 5887 2634
00000230: 9e22 9533 15c5 b733 c98c 8834 e4e9 af33
00000240: 5b29 5e33 88aa 5533 f3ea 8233 609d 8834
00000250: b642 2134 c659 9233 7fde 0034 02ac 4434
00000260: bd0d cd34 ad98 6f33 a9f6 2f34 4a34 3d33
00000270: 37e8 8133 02ba 2c34 3a84 9333 4b66 c533
00000280: d4d3 de33 89ad 1934 13ca a134 682c 8633
00000290: 656e 0634 fc5c 0934 df92 2034 324f 2234
000002a0: 0f53 9d33 0b2b c933 80e8 8e34 704b f734
000002b0: 5ae5 8a35 4b5d 5934 ee71 f734 6ff1 5a33
000002c0: ea97 8c33 bf1e 2d34 f598 5e33 89a9 8433
000002d0: 69cd 1e33 37bf 4033 be0d 0034 1ce6 c433
000002e0: e63f 6a33 e987 df33 19a8 1534 c55a da34
000002f0: 88c8 0e34 c1e9 3634 36b1 8333 949e a733
00000300: c386 6134 c2b4 a733 349e 9a33 5d89 8733
00000310: 66dc ae33 853e ec33 e1f0 1b34 1789 ad33
00000320: b88d 3b34 95bf a434 bb89 3a35 9970 0334
00000330: e8f6 b234 3174 4b33 1d38 8733 41a7 bf33
00000340: 2563 7b33 a864 8233 ba71 ab34 d35e 1435
00000350: fe82 9c35 a1b9 3034 b356 1435 fcdf 9933
00000360: 2a29 ad33 55e0 8b34 ce79 2134 c5f7 cf33
00000370: 0039 5a34 fcdb 7034 07cd 9734 8984 7e33
00000380: d297 f833 187c 5533 2426 7933 511a 3434
00000390: 7f59 ba33 0b95 a433 a316 2c34 fe8a 2b34
000003a0: 0b57 1035 b4cc e334 d07e 2134 088f da33
000003b0: b237 2934 d532 0035 b73a 1234 a9ff 2034
000003c0: faf1 d833 4c03 d933 e190 8034 4207 fc33
000003d0: b7df 3b33 f0bc 1434 ed19 3c34 9475 0b35
000003e0: d2c8 7834 deec 8f34 f259 a033 9a8b e233
000003f0: 3ad3 ae34 6d08 0934 9fa5 1e34 4c3d e933
9.9129124e-08 9.250204e-08 4.4941257e-07 2.074298e-07 7.2737016e-08 5.8277333e-08 6.097343e-08 2.9292363e-07
2.2223784e-07 8.750451e-08 5.820521e-07 9.619519e-07 2.1650765e-06 2.708469e-07 9.443117e-07 6.4587525e-08
5.8044094e-08 3.379577e-07 2.9704302e-07 9.111837e-08 8.3378445e-08 9.995897e-08 2.540238e-07 1.4466964e-07
8.9852705e-08 2.1823159e-07 3.8016935e-07 7.834505e-07 1.18624676e-07 3.8686497e-07 4.1633953e-07 6.9509053e-07
1.5464655e-06 2.1082829e-07 6.6851965e-07 1.3560708e-07 1.5626449e-07 4.802998e-07 1.6404915e-07 1.4387615e-07
5.8655342e-08 8.423889e-08 2.77757e-07 8.616278e-08 9.19151e-08 8.137475e-08 7.307725e-08 2.5634546e-07
1.0348203e-07 5.4465502e-08 1.027813e-07 1.3019019e-07 6.165531e-07 2.883489e-07 1.7254462e-07 4.989976e-08
7.5770245e-08 1.14475306e-07 2.3000316e-08 7.5090426e-08 9.4926925e-08 1.15426324e-07 3.557065e-07 5.502229e-08
1.0277848e-07 5.3449263e-08 8.531132e-08 2.0768903e-07 5.7761177e-08 1.09562535e-07 1.8297645e-07 2.8825193e-07
6.4866606e-07 1.2554267e-07 2.6219604e-07 3.260973e-07 5.493773e-07 1.1356178e-06 1.426961e-07 5.420051e-07
6.913787e-08 7.964123e-08 2.2770257e-07 1.0384949e-07 8.3795356e-08 9.7876956e-08 1.5796456e-07 4.6404395e-07
1.2087983e-07 1.5452548e-07 2.6611184e-08 3.7319783e-08 7.3635164e-08 5.071965e-08 1.7303559e-07 1.15368685e-07
1.581782e-07 5.111808e-07 1.667967e-07 1.2861526e-07 1.14314076e-07 1.2360837e-07 5.162987e-07 3.1867995e-07
1.5077785e-07 5.241384e-07 9.601024e-07 1.7115257e-06 2.6315388e-07 9.650265e-07 1.08275295e-07 1.4217841e-07
4.5741575e-07 1.4646841e-07 1.4819716e-07 7.4941966e-08 6.985047e-08 5.1238925e-07 3.2346068e-07 1.1322119e-07
6.180052e-08 8.718586e-08 4.3043656e-07 1.5687732e-07 2.2080819e-07 1.772729e-07 2.9753326e-07 8.099591e-07
2.2357702e-07 2.9598863e-07 1.03000346e-07 1.3989494e-07 3.5553006e-07 7.0588634e-08 1.4161849e-07 1.02361426e-07
9.149998e-08 6.1729185e-07 4.578627e-07 1.5509193e-07 6.94465e-08 8.5574506e-08 2.543441e-07 8.191617e-08
5.1726015e-08 4.9748024e-08 6.096334e-08 2.544648e-07 1.5018563e-07 6.8149845e-08 1.2001873e-07 1.8316499e-07
3.8194221e-07 5.578538e-08 1.638788e-07 4.405255e-08 6.04927e-08 1.6086418e-07 6.869273e-08 9.192134e-08
1.0376212e-07 1.4312367e-07 3.0135615e-07 6.247939e-08 1.2519884e-07 1.2792947e-07 1.4954593e-07 1.5116237e-07
7.3259905e-08 9.367621e-08 2.6618727e-07 4.6062223e-07 1.0348551e-06 2.024364e-07 4.609023e-07 5.0976663e-08
6.546891e-08 1.6123066e-07 5.1827517e-08 6.177567e-08 3.697406e-08 4.4877392e-08 1.1925928e-07 9.168818e-08
5.4540486e-08 1.04089686e-07 1.393786e-07 4.0671708e-07 1.3297733e-07 1.703511e-07 6.132397e-08 7.805389e-08
2.1003784e-07 7.809423e-08 7.199961e-08 6.3114136e-08 8.1425966e-08 1.10009786e-07 1.4523131e-07 8.080877e-08
1.7467289e-07 3.0686775e-07 6.9490824e-07 1.2241289e-07 3.3334732e-07 4.7370296e-08 6.296634e-08 8.924554e-08
5.8530663e-08 6.071906e-08 3.193398e-07 5.5272284e-07 1.166103e-06 1.6458809e-07 5.526046e-07 7.16536e-08
8.063428e-08 2.605399e-07 1.5038606e-07 9.684258e-08 2.0323569e-07 2.2431772e-07 2.827512e-07 5.9259524e-08
1.1576016e-07 4.970579e-08 5.800952e-08 1.677338e-07 8.677579e-08 7.663956e-08 1.6026983e-07 1.5976181e-07
5.3770844e-07 4.2430986e-07 1.5040428e-07 1.0177433e-07 1.5759613e-07 4.7757686e-07 1.361867e-07 1.499417e-07
1.0102299e-07 1.01054496e-07 2.394727e-07 1.17359846e-07 4.3742798e-08 1.3852309e-07 1.7518296e-07 5.1952634e-07
2.3169858e-07 2.680817e-07 7.4669416e-08 1.05493385e-07 3.2563713e-07 1.2762185e-07 1.4775149e-07 1.0861058e-07

exp_avg f4 [256, 64]
00000000: 0000 0000 0000 0000 0000 0000 0000 0000
00000010: 0000 0000 0000 0000 0000 0000 0000 0000
00000020: 0000 0000 0000 0000 0000 0000 0000 0000
00000030: 0000 0000 0000 0000 0000 0000 0000 0000
00000040: 0000 0000 0000 0000 0000 0000 0000 0000
00000050: 0000 0000 0000 0000 0000 0000 0000 0000
00000060: 0000 0000 0000 0000 0000 0000 0000 0000
00000070: 0000 0000 0000 0000 0000 0000 0000 0000
00000080: 0000 0000 0000 0000 0000 0000 0000 0000
00000090: 0000 0000 0000 0000 0000 0000 0000 0000
000000a0: 0000 0000 0000 0000 0000 0000 0000 0000
000000b0: 0000 0000 0000 0000 0000 0000 0000 0000
000000c0: 0000 0000 0000 0000 0000 0000 0000 0000
000000d0: 0000 0000 0000 0000 0000 0000 0000 0000
000000e0: 0000 0000 0000 0000 0000 0000 0000 0000
000000f0: 0000 0000 0000 0000 0000 0000 0000 0000
00000100: 0000 0000 0000 0000 0000 0000 0000 0000
00000110: 0000 0000 0000 0000 0000 0000 0000 0000
00000120: 0000 0000 0000 0000 0000 0000 0000 0000
00000130: 0000 0000 0000 0000 0000 0000 0000 0000
00000140: 0000 0000 0000 0000 0000 0000 0000 0000
00000150: 0000 0000 0000 0000 0000 0000 0000 0000
00000160: 0000 0000 0000 0000 0000 0000 0000 0000
00000170: 0000 0000 0000 0000 0000 0000 0000 0000
00000180: 0000 0000 0000 0000 0000 0000 0000 0000
00000190: 0000 0000 0000 0000 0000 0000 0000 0000
000001a0: 0000 0000 0000 0000 0000 0000 0000 0000
000001b0: 0000 0000 0000 0000 0000 0000 0000 0000
000001c0: 0000 0000 0000 0000 0000 0000 0000 0000
000001d0: 0000 0000 0000 0000 0000 0000 0000 0000
000001e0: 0000 0000 0000 0000 0000 0000 0000 0000
000001f0: 0000 0000 0000 0000 0000 0000 0000 0000
00000200: 0000 0000 0000 0000 0000 0000 0000 0000
00000210: 0000 0000 0000 0000 0000 0000 0000 0000
00000220: 0000 0000 0000 0000 0000 0000 0000 0000
00000230: 0000 0000 0000 0000 0000 0000 0000 0000
00000240: 0000 0000 0000 0000 0000 0000 0000 0000
00000250: 0000 0000 0000 0000 0000 0000 0000 0000
00000260: 0000 0000 0000 0000 0000 0000 0000 0000
00000270: 0000 0000 0000 0000 0000 0000 0000 0000
00000280: 0000 0000 0000 0000 0000 0000 0000 0000
00000290: 0000 0000 0000 0000 0000 0000 0000 0000
000002a0: 0000 0000 0000 0000 0000 0000 0000 0000
000002b0: 0000 0000 0000 0000 0000 0000 0000 0000
000002c0: 0000 0000 0000 0000 0000 0000 0000 0000
000002d0: 0000 0000 0000 0000 0000 0000 0000 0000
000002e0: 0000 0000 0000 0000 0000 0000 0000 0000
000002f0: 0000 0000 0000 0000 0000 0000 0000 0000
00000300: 0000 0000 0000 0000 0000 0000 0000 0000
00000310: 0000 0000 0000 0000 0000 0000 0000 0000
00000320: 0000 0000 0000 0000 0000 0000 0000 0000
00000330: 0000 0000 0000 0000 0000 0000 0000 0000
00000340: 0000 0000 0000 0000 0000 0000 0000 0000
00000350: 0000 0000 0000 0000 0000 0000 0000 0000
00000360: 0000 0000 0000 0000 0000 0000 0000 0000
00000370: 0000 0000 0000 0000 0000 0000 0000 0000
00000380: 0000 0000 0000 0000 0000 0000 0000 0000
00000390: 0000 0000 0000 0000 0000 0000 0000 0000
000003a0: 0000 0000 0000 0000 0000 0000 0000 0000
000003b0: 0000 0000 0000 0000 0000 0000 0000 0000
000003c0: 0000 0000 0000 0000 0000 0000 0000 0000
000003d0: 0000 0000 0000 0000 0000 0000 0000 0000
000003e0: 0000 0000 0000 0000 0000 0000 0000 0000
000003f0: 0000 0000 0000 0000 0000 0000 0000 0000
0.0 0.0 0.0 0.0 0.0 0.0 0.0 0.0
0.0 0.0 0.0 0.0 0.0 0.0 0.0 0.0
0.0 0.0 0.0 0.0 0.0 0.0 0.0 0.0
0.0 0.0 0.0 0.0 0.0 0.0 0.0 0.0
0.0 0.0 0.0 0.0 0.0 0.0 0.0 0.0
0.0 0.0 0.0 0.0 0.0 0.0 0.0 0.0
0.0 0.0 0.0 0.0 0.0 0.0 0.0 0.0
0.0 0.0 0.0 0.0 0.0 0.0 0.0 0.0
0.0 0.0 0.0 0.0 0.0 0.0 0.0 0.0
0.0 0.0 0.0 0.0 0.0 0.0 0.0 0.0
0.0 0.0 0.0 0.0 0.0 0.0 0.0 0.0
0.0 0.0 0.0 0.0 0.0 0.0 0.0 0.0
0.0 0.0 0.0 0.0 0.0 0.0 0.0 0.0
0.0 0.0 0.0 0.0 0.0 0.0 0.0 0.0
0.0 0.0 0.0 0.0 0.0 0.0 0.0 0.0
0.0 0.0 0.0 0.0 0.0 0.0 0.0 0.0
0.0 0.0 0.0 0.0 0.0 0.0 0.0 0.0
0.0 0.0 0.0 0.0 0.0 0.0 0.0 0.0
0.0 0.0 0.0 0.0 0.0 0.0 0.0 0.0
0.0 0.0 0.0 0.0 0.0 0.0 0.0 0.0
0.0 0.0 0.0 0.0 0.0 0.0 0.0 0.0
0.0 0.0 0.0 0.0 0.0 0.0 0.0 0.0
0.0 0.0 0.0 0.0 0.0 0.0 0.0 0.0
0.0 0.0 0.0 0.0 0.0 0.0 0.0 0.0
0.0 0.0 0.0 0.0 0.0 0.0 0.0 0.0
0.0 0.0 0.0 0.0 0.0 0.0 0.0 0.0
0.0 0.0 0.0 0.0 0.0 0.0 0.0 0.0
0.0 0.0 0.0 0.0 0.0 0.0 0.0 0.0
0.0 0.0 0.0 0.0 0.0 0.0 0.0 0.0
0.0 0.0 0.0 0.0 0.0 0.0 0.0 0.0
0.0 0.0 0.0 0.0 0.0 0.0 0.0 0.0
0.0 0.0 0.0 0.0 0.0 0.0 0.0 0.0

exp_avg_sq f4 [256, 64]
00000000: 0000 0000 0000 0000 0000 0000 0000 0000
00000010: 0000 0000 0000 0000 0000 0000 0000 0000
00000020: 0000 0000 0000 0000 0000 0000 0000 0000
00000030: 0000 0000 0000 0000 0000 0000 0000 0000
00000040: 0000 0000 0000 0000 0000 0000 0000 0000
00000050: 0000 0000 0000 0000 0000 0000 0000 0000
00000060: 0000 0000 0000 0000 0000 0000 0000 0000
00000070: 0000 0000 0000 0000 0000 0000 0000 0000
00000080: 0000 0000 0000 0000 0000 0000 0000 0000
00000090: 0000 0000 0000 0000 0000 0000 0000 0000
000000a0: 0000 0000 0000 0000 0000 0000 0000 0000
000000b0: 0000 0000 0000 0000 0000 0000 0000 0000
000000c0: 0000 0000 0000 0000 0000 0000 0000 0000
000000d0: 0000 0000 0000 0000 0000 0000 0000 0000
000000e0: 0000 0000 0000 0000 0000 0000 0000 0000
000000f0: 0000 0000 0000 0000 0000 0000 0000 0000
00000100: 0000 0000 0000 0000 0000 0000 0000 0000
00000110: 0000 0000 0000 0000 0000 0000 0000 0000
00000120: 0000 0000 0000 0000 0000 0000 0000 0000
00000130: 0000 0000 0000 0000 0000 0000 0000 0000
00000140: 0000 0000 0000 0000 0000 0000 0000 0000
00000150: 0000 0000 0000 0000 0000 0000 0000 0000
00000160: 0000 0000 0000 0000 0000 0000 0000 0000
00000170: 0000 0000 0000 0000 0000 0000 0000 0000
00000180: 0000 0000 0000 0000 0000 0000 0000 0000
00000190: 0000 0000 0000 0000 0000 0000 0000 0000
000001a0: 0000 0000 0000 0000 0000 0000 0000 0000
000001b0: 0000 0000 0000 0000 0000 0000 0000 0000
000001c0: 0000 0000 0000 0000 0000 0000 0000 0000
000001d0: 0000 0000 0000 0000 0000 0000 0000 0000
000001e0: 0000 0000 0000 0000 0000 0000 0000 0000
000001f0: 0000 0000 0000 0000 0000 0000 0000 0000
00000200: 0000 0000 0000 0000 0000 0000 0000 0000
00000210: 0000 0000 0000 0000 0000 0000 0000 0000
00000220: 0000 0000 0000 0000 0000 0000 0000 0000
00000230: 0000 0000 0000 0000 0000 0000 0000 0000
00000240: 0000 0000 0000 0000 0000 0000 0000 0000
00000250: 0000 0000 0000 0000 0000 0000 0000 0000
00000260: 0000 0000 0000 0000 0000 0000 0000 0000
00000270: 0000 0000 0000 0000 0000 0000 0000 0000
00000280: 0000 0000 0000 0000 0000 0000 0000 0000
00000290: 0000 0000 0000 0000 0000 0000 0000 0000
000002a0: 0000 0000 0000 0000 0000 0000 0000 0000
000002b0: 0000 0000 0000 0000 0000 0000 0000 0000
000002c0: 0000 0000 0000 0000 0000 0000 0000 0000
000002d0: 0000 0000 0000 0000 0000 0000 0000 0000
000002e0: 0000 0000 0000 0000 0000 0000 0000 0000
000002f0: 0000 0000 0000 0000 0000 0000 0000 0000
00000300: 0000 0000 0000 0000 0000 0000 0000 0000
00000310: 0000 0000 0000 0000 0000 0000 0000 0000
00000320: 0000 0000 0000 0000 0000 0000 0000 0000
00000330: 0000 0000 0000 0000 0000 0000 0000 0000
00000340: 0000 0000 0000 0000 0000 0000 0000 0000
00000350: 0000 0000 0000 0000 0000 0000 0000 0000
00000360: 0000 0000 0000 0000 0000 0000 0000 0000
00000370: 0000 0000 0000 0000 0000 0000 0000 0000
00000380: 0000 0000 0000 0000 0000 0000 0000 0000
00000390: 0000 0000 0000 0000 0000 0000 0000 0000
000003a0: 0000 0000 0000 0000 0000 0000 0000 0000
000003b0: 0000 0000 0000 0000 0000 0000 0000 0000
000003c0: 0000 0000 0000 0000 0000 0000 0000 0000
000003d0: 0000 0000 0000 0000 0000 0000 0000 0000
000003e0: 0000 0000 0000 0000 0000 0000 0000 0000
000003f0: 0000 0000 0000 0000 0000 0000 0000 0000
0.0 0.0 0.0 0.0 0.0 0.0 0.0 0.0
0.0 0.0 0.0 0.0 0.0 0.0 0.0 0.0
0.0 0.0 0.0 0.0 0.0 0.0 0.0 0.0
0.0 0.0 0.0 0.0 0.0 0.0 0.0 0.0
0.0 0.0 0.0 0.0 0.0 0.0 0.0 0.0
0.0 0.0 0.0 0.0 0.0 0.0 0.0 0.0
0.0 0.0 0.0 0.0 0.0 0.0 0.0 0.0
0.0 0.0 0.0 0.0 0.0 0.0 0.0 0.0
0.0 0.0 0.0 0.0 0.0 0.0 0.0 0.0
0.0 0.0 0.0 0.0 0.0 0.0 0.0 0.0
0.0 0.0 0.0 0.0 0.0 0.0 0.0 0.0
0.0 0.0 0.0 0.0 0.0 0.0 0.0 0.0
0.0 0.0 0.0 0.0 0.0 0.0 0.0 0.0
0.0 0.0 0.0 0.0 0.0 0.0 0.0 0.0
0.0 0.0 0.0 0.0 0.0 0.0 0.0 0.0
0.0 0.0 0.0 0.0 0.0 0.0 0.0 0.0
0.0 0.0 0.0 0.0 0.0 0.0 0.0 0.0
0.0 0.0 0.0 0.0 0.0 0.0 0.0 0.0
0.0 0.0 0.0 0.0 0.0 0.0 0.0 0.0
0.0 0.0 0.0 0.0 0.0 0.0 0.0 0.0
0.0 0.0 0.0 0.0 0.0 0.0 0.0 0.0
0.0 0.0 0.0 0.0 0.0 0.0 0.0 0.0
0.0 0.0 0.0 0.0 0.0 0.0 0.0 0.0
0.0 0.0 0.0 0.0 0.0 0.0 0.0 0.0
0.0 0.0 0.0 0.0 0.0 0.0 0.0 0.0
0.0 0.0 0.0 0.0 0.0 0.0 0.0 0.0
0.0 0.0 0.0 0.0 0.0 0.0 0.0 0.0
0.0 0.0 0.0 0.0 0.0 0.0 0.0 0.0
0.0 0.0 0.0 0.0 0.0 0.0 0.0 0.0
0.0 0.0 0.0 0.0 0.0 0.0 0.0 0.0
0.0 0.0 0.0 0.0 0.0 0.0 0.0 0.0
0.0 0.0 0.0 0.0 0.0 0.0 0.0 0.0
