lightning_logs/version_71/checkpoints/epoch=9-step=4350.ckpt (torch, 227924 bytes, 15 tensors)

lstm.weight_ih_l0 f4 [256, 5]
-0.21351363 0.2960096 0.29611692 0.24681349 0.08490018 -0.32462108 0.29100794 -0.52196735
0.3112137 -0.05099928 -0.3114724 0.40132672 -0.2786776 -0.2205165 0.3943709 -0.05744993
0.06179732 -0.67860234 -0.07618141 0.3267583 -0.38015634 0.2704322 -0.50201 -0.2891195
0.5773858 -0.5103299 0.4135173 0.40065897 0.0884287 0.20518038 -0.49896204 0.4916298
0.18519069 0.078509554 0.29578024 -0.22001544 0.18539397 -0.3812322 -0.14624469 0.42382258
-0.15621118 0.12149425 -0.09719844 -0.12719624 0.23077317 0.18364547 -0.14221935 0.17040324
-0.07172271 0.013043662 -0.37438068 0.38509426 -0.2817008 -0.3827222 0.34184882 -0.2692234
0.3368201 -0.22296461 0.08552772 0.3375679 -0.2807851 0.34670982 -0.25211 -0.32113868
0.72813207 -0.2737358 0.45447934 0.32467803 0.06512308 0.20237426 -0.32719526 0.1453075
0.24079852 0.16814393 0.20993409 -0.33872813 0.3432693 0.28079724 0.00376746 0.2081838
-0.34758428 0.16613105 -0.42746 -0.37817222 0.6895366 -0.48758277 0.36446324 -0.40134403
0.14901224 -0.087518886 -0.28496552 0.12334618 0.12980008 0.01903542 0.10296124 -0.6420771
0.6251129 0.22565077 -0.086922064 0.57396233 -0.40782362 0.4539464 -0.5901429 -0.09243351
0.5743776 -0.12757008 0.17059045 -0.0070590903 -0.027684575 0.12203057 -0.37168238 0.38850224
-0.39845455 -0.2645453 0.5020512 -0.0067758104 0.0038566717 -0.30571538 -0.066665724 0.20296635
-0.2705833 0.16170609 0.29977855 0.034070134 0.13809106 -0.054343745 0.18808599 -0.3841176
0.12107567 0.08821347 -0.47182113 0.40835106 0.39176217 0.116101176 0.12152336 -0.3075777
0.46632132 -0.3987283 -0.40081012 0.5745431 6.509021e-05 0.14534716 -0.51418054 -0.18957944
0.038923364 -0.5146928 0.51110876 0.19902274 0.12948157 0.14953266 -0.2483775 0.2802632
0.54140204 0.020689454 0.25674993 -0.19678932 0.15373297 -0.14595467 0.062039927 0.14348674
-0.28539842 0.1673568 0.37055624 0.016510176 -0.097705394 -0.2591141 0.4548144 -0.3823782
-0.24481055 0.45567998 -0.22174475 0.16443193 0.41626987 0.25823814 -0.103442974 -0.38148177
0.34913382 0.039806817 0.039734535 0.06835266 -0.36592436 0.400581 -0.3678411 -0.39399472
0.5826529 -0.13813728 0.19086717 0.43372077 0.019274373 0.0028170752 -0.042049356 0.015661959
-0.52782035 -0.051319823 0.1458595 -0.4753454 0.48215133 -0.59556663 -0.26405436 0.477098
0.08308044 -0.07640273 0.4367066 -0.0037738364 0.008494469 -0.38081926 0.3597872 -0.3524815
-0.23135728 0.41141817 -0.32848954 0.35372248 0.58356 0.042122502 -0.14212304 -0.23182519
0.21289504 -0.62904894 -0.061340597 0.24309893 -0.16457601 0.2474349 0.45685574 0.0753724
-0.064904064 -0.3956442 0.38023973 -0.42758617 -0.34952375 0.65393764 -0.2559423 0.2298486
0.5902072 0.20515528 0.32961968 -0.18163662 0.21390556 0.7229813 0.30673325 0.12068346
-0.32968113 0.359671 -0.37049136 -0.30955407 0.56015474 -0.2940558 0.16043454 0.35118726
0.11613785 0.0034118237 -0.3955089 0.37284452 -0.54238516 0.22919582 -0.042067595 -0.107408226
00000000: 51a3 5abe 928e 973e a39c 973e adbc 7c3e
00000010: 25e0 ad3d bc34 a6be fefe 943e a79f 05bf
00000020: 6757 9f3e 9fe4 50bd 4f79 9fbe b27a cd3e
00000030: d5ae 8ebe 14cf 61be fcea c93e 9e50 6bbd
00000040: 301f 7d3d e2b8 2dbf 0005 9cbd dd4c a73e
00000050: daa3 c2be 1776 8a3e ba83 00bf 7907 94be
00000060: 8ecf 133f fba4 02bf 8ab8 d33e 2c23 cd3e
00000070: 1b1a b53d ce1a 523e f477 ffbe e7b6 fb3e
00000080: a1a2 3d3e 9ec9 a03d 8270 973e ba4b 61be
00000090: ebd7 3d3e de30 c3be 2bc1 15be 46ff d83e
000000a0: d3f5 1fbe fad1 f83d fa0f c7bd bb3f 02be
000000b0: cd4f 6c3e 8f0d 3c3e f3a1 11be 307e 2e3e
000000c0: 5be3 92bd 15b5 553c d3ae bfbe 132b c53e
000000d0: 163b 90be 2af4 c3be cf06 af3e a6d7 89be
000000e0: af73 ac3e d650 64be 2829 af3d b3d5 ac3e
000000f0: 11c3 8fbe f383 b13e 9014 81be 4a6c a4be
00000100: dd66 3a3f 1927 8cbe 84b1 e83e 333c a63e
00000110: 405f 853d 333b 4f3e 2386 a7be 7dcb 143e
00000120: e393 763e ec2d 2c3e f6f8 563e c66d adbe
00000130: fec0 af3e a8c4 8f3e 7de7 763b 222e 553e
00000140: 91f6 b1be 421e 2a3e 0adc dabe ca9f c1be
00000150: 7885 303f 73a4 f9be ed9a ba3e f77c cdbe
00000160: aa96 183e 1a3d b3bd 00e7 91be ec9c fc3d
00000170: 50ea 043e 2bf0 9b3c 58dd d23d 2a5f 24bf
00000180: 6607 203f ff10 673e 3204 b2bd 32ef 123f
00000190: 42ce d0be aa6b e83e 9b13 17bf c84d bdbd
000001a0: 690a 133f bba1 02be 43af 2e3e f14f e7bb
000001b0: c3ca e2bc 2aeb f93d 274d bebe c4e9 c63e
000001c0: 3c02 ccbe 7b72 87be 6d86 003f 9e07 debb
000001d0: 37c0 7c3b ba86 9cbe 0a88 88bd 69d6 4f3e
000001e0: e589 8abe 4896 253e 937c 993e 208d 0b3d
000001f0: be67 0d3e 8c97 5ebd 9d99 403e 10ab c4be
00000200: 85f6 f73d 44a9 b43d 8a92 f1be 6413 d13e
00000210: 0d95 c83e 74c6 ed3d 3de1 f83d d37a 9dbe
00000220: abc1 ee3e 1e26 ccbe fc36 cdbe 4215 133f
00000230: 0a81 8838 e3d5 143e 56a1 03bf 1d21 42be
00000240: 1b6e 1f3d e8c2 03bf 06d8 023f 9ecc 4b3e
00000250: d196 043e 171f 193e ac56 7ebe a87e 8f3e
00000260: 5399 0a3f ee7c a93c ba74 833e 2483 49be
00000270: 2d6c 1d3e 2475 15be 941d 7e3d 30ee 123e
00000280: be1f 92be 955f 2b3e 8cb9 bd3e 5940 873c
00000290: c419 c8bd 9aaa 84be 6fdd e83e 13c7 c3be
000002a0: 9eaf 7abe e34e e93e 0e11 63be d860 283e
000002b0: 5321 d53e ca37 843e e9d9 d3bd 9451 c3be
000002c0: abc1 b23e 790c 233d aec0 223d 7bfc 8b3d
000002d0: 705a bbbe f418 cd3e ab55 bcbe adb9 c9be
000002e0: be28 153f dc73 0dbe af72 433e a610 de3e
000002f0: 4ae5 9d3c ae9e 383b f23b 2cbd 824d 803c
00000300: 3c1f 07bf bc34 52bd 315c 153e 7960 f3be
00000310: 8adc f63e 0e77 18bf 2232 87be 3046 f43e
00000320: 1426 aa3d 0979 9cbd 0298 df3e 7852 77bb
00000330: 632c 0b3c befa c2be 0736 b83e 7578 b4be
00000340: ece8 6cbe 67a5 d23e c82f a8be 1d1b b53e
00000350: 3064 153f a588 2c3d b488 11be 9563 6dbe
00000360: 2801 5a3e 5a09 21bf 4740 7bbd edee 783e
00000370: 9d86 28be 935f 7d3e ffe8 e93e d85c 9a3d
00000380: 6cec 84bd e091 cabe c8ae c23e 93ec dabe
00000390: c7f4 b2be 7568 273f df0a 83be 6e5d 6b3e
000003a0: d217 173f 3a14 523e e9c3 a83e f3fe 39be
000003b0: 0f0a 5b3e 4d15 393f 240c 9d3e e428 f73d
000003c0: f7cb a8be cc26 b83e 0bb1 bdbe df7d 9ebe
000003d0: 4d66 0f3f 7b8e 96be f448 243e d1ce b33e
000003e0: aed9 ed3d e798 5f3b 2480 cabe 7ae5 be3e
000003f0: c1d9 0abf 4fb2 6a3e 124f 2cbd d8f8 dbbd

lstm.weight_hh_l0 f4 [256, 64]
0.015129417 0.06302431 0.07404576 -0.08540608 -0.07644507 0.11808479 0.013307154 0.030242562
-0.045961156 0.054898366 -0.016118437 -0.06353049 -0.12088151 -0.062517494 -0.10029586 -0.117733136
0.08882201 0.026137173 -0.03318362 -0.019661129 -0.09814799 -0.11341682 0.010755777 -0.015768945
-0.12077528 0.123489365 0.09061462 0.09378959 -0.06507127 -0.0069126785 0.07685056 0.11593902
-0.0036743581 0.07434906 -0.09728053 -0.10489446 -0.04117982 -0.0042901486 0.09186496 0.08993401
-0.00046503544 -0.107405126 -0.08081123 -0.12085563 0.01201342 0.07433835 0.031298384 0.092490286
0.02566807 0.00095561147 -0.05168949 -0.05733496 0.082376555 0.014288664 -0.02630505 -0.11367011
-0.05377868 0.095536545 -0.113307536 0.05006431 -0.052237943 -0.08971405 -0.09631422 -0.05381094
-0.090397224 0.007584259 -0.11557779 -0.11098577 0.11479452 -0.07503863 0.008066341 0.08520183
-0.07600467 0.031975374 0.077390105 0.105531216 -0.004877925 -0.0780312 -0.008932695 -0.10614121
0.08941531 0.110688075 -0.116783276 0.016255885 0.040953755 -0.035806328 -0.011483952 0.12394075
0.037022337 0.0026439726 -0.06393799 0.041367263 -0.058849186 0.050791815 -0.039388523 0.07784353
-0.09579474 -0.02000226 0.028112128 0.11422004 -0.10196558 -0.068534344 -0.102292255 -0.10105039
0.09480192 -0.009839445 -0.03436528 0.07327929 0.099460796 0.11599958 -0.122534856 -0.10725996
-0.12281905 -0.009406224 -0.06703237 0.12324807 0.033508062 -0.11824232 -0.09049693 0.02132611
-0.10724239 0.05704944 0.012169644 0.03017211 -0.09238011 0.014318779 -0.10738744 0.0527983
0.062361762 -0.09600696 -0.09960897 0.052916825 -0.032950833 0.005362347 -0.10788821 -0.058135033
0.09076017 -0.07828711 -0.073702484 0.10474488 -0.051226065 0.02588065 0.048732042 -0.0075096935
0.0714208 -0.06341043 0.019367859 0.09113997 -0.029866025 -0.078998715 0.0904863 0.1152461
0.07119323 0.083412126 -0.073194295 -0.006747827 -0.043240562 -0.032682315 -0.10325436 -0.11404958
0.0761648 -0.08577277 -0.11923425 -0.056671515 0.0948699 -0.050911278 -0.04600109 -0.04886058
0.09686136 -0.021107823 -0.051261544 -0.064985245 0.08960067 -0.10868403 0.058066383 -0.07232049
-0.11857669 -0.11798662 0.032647565 -0.052785113 -0.0038881898 -0.007938504 0.01519981 0.117003426
-0.0064350516 0.04284796 0.09944318 0.046358585 0.013719633 -0.075782895 0.08609474 0.06833431
-0.045525953 0.034742147 -0.07086554 0.07160388 0.0022228658 0.0666216 -0.04701145 0.0052631795
0.052707836 0.1172114 -0.120330825 0.046641335 0.024946496 -0.07934773 -0.122749716 -0.058728024
0.008680105 -0.07125953 -0.12048048 0.11701879 0.0221297 -0.11743069 -0.0926241 0.028903916
0.09348975 0.043404043 0.04740703 0.0014727116 0.060207173 -0.008646697 0.095401436 0.011452585
-0.07834266 -0.09028159 -0.12334615 0.09706099 -0.0767203 -0.05120282 -0.028528333 -0.04623297
-0.03016746 0.020082071 0.029112533 -0.029307902 -0.04143709 0.07283375 -0.055453047 0.09271787
-0.014657691 0.07746126 0.058666065 -0.0033038557 -0.04265313 0.08727504 0.10296616 0.028593361
-0.07484746 -0.05795011 0.111334965 0.02172631 -0.102437094 -0.008153021 0.10940473 -0.036848664
00000000: 60e1 773c e412 813d 4ea5 973d 62e9 aebd
00000010: 3c8f 9cbd 70d6 f13d 4006 5a3c 40bf f73c
00000020: c441 3cbd 1cdd 603d d00a 84bc 461c 82bd
00000030: ba90 f7bd 2c09 80bd ea67 cdbd 121e f1bd
00000040: 50e8 b53d a01d d63c 8ceb 07bd 6010 a1bc
00000050: d001 c9bd 1447 e8bd 0039 303c e02d 81bc
00000060: 0859 f7bd fee7 fc3d 2894 b93d c214 c03d
00000070: 1644 85bd c083 e2bb d463 9d3d 7071 ed3d
00000080: 80cd 70bb 5244 983d 043b c7bd e8d2 d6bd
00000090: 2cac 28bd 6094 8cbb b223 bc3d 522f b83d
000000a0: 00d0 f3b9 38f7 dbbd 5c80 a5bd 2883 f7bd
000000b0: f0d3 443c b43e 983d bc32 003d 8c6b bd3d
000000c0: d845 d23c 0082 7a3a 5cb8 53bd 10d8 6abd
000000d0: 0ab5 a83d 001b 6a3c b07d d7bc e0cb e8bd
000000e0: 0847 5cbd aaa8 c33d c80d e8bd 3c10 4d3d
000000f0: 74f7 55bd 00bc b7bd 6440 c5bd dc68 5cbd
00000100: 2e22 b9bd 6085 f83b 0cb4 ecbd 824c e3bd
00000110: 6419 eb3d daad 99bd b028 043c 4c7e ae3d
00000120: 56a8 9bbd 9cf8 023d b47e 9e3d c020 d83d
00000130: 00d7 9fbb d2ce 9fbd 705a 12bc 9060 d9bd
00000140: 601f b73d 6eb0 e23d 122c efbd 102b 853c
00000150: 20bf 273d a8a9 12bd 3027 3cbc a6d4 fd3d
00000160: bca4 173d 8046 2d3b ecf1 82bd b870 293d
00000170: d80b 71bd 140b 503d dc55 21bd 6e6c 9f3d
00000180: 0830 c4bd c8db a3bc 684b e63c 32ec e93d
00000190: 54d3 d0bd bc5b 8cbd 9a7e d1bd 82f3 cebd
000001a0: 8227 c23d a035 21bc 9cc2 0cbd 7413 963d
000001b0: 1ab2 cb3d 3091 ed3d 8ef3 fabd 1cab dbbd
000001c0: 8e88 fbbd 901c 1abc 4448 89bd 7c69 fc3d
000001d0: c03f 093d 0829 f2bd 7456 b9bd 18b4 ae3c
000001e0: e6a1 dbbd acac 693d 3063 473c 802b f73c
000001f0: c831 bdbd 5099 6a3c f2ed dbbd 0843 583d
00000200: 0c6f 7f3d 4c9f c4bd caff cbbd 50bf 583d
00000210: 74f7 06bd a0b6 af3b 7ef4 dcbd 001f 6ebd
00000220: 78e0 b93d fe54 a0bd 54f1 96bd 7c84 d63d
00000230: 6cd2 51bd a803 d43c 409b 473d e013 f6bb
00000240: 1245 923d 54dd 81bd 58a9 9e3c 98a7 ba3d
00000250: 98a9 f4bc 14ca a1bd e250 b93d 2606 ec3d
00000260: c2cd 913d fad3 aa3d e4e6 95bd e01c ddbb
00000270: 041d 31bd e4dd 05bd 0677 d3bd d492 e9bd
00000280: 4afc 9b3d a2a9 afbd 1631 f4bd 6420 68bd
00000290: 264b c23d 5888 50bd a46b 3cbd 0822 48bd
000002a0: 405f c63d 50ea acbc a0f7 51bd fc16 85bd
000002b0: 8e80 b73d bc95 debd 04d7 6d3d c41c 94bd
000002c0: 56d8 f2bd f8a2 f1bd 74b9 053d 3435 58bd
000002d0: 00d1 7ebb 8010 02bc a008 793c 7e9f ef3d
000002e0: 20dd d2bb 5881 2f3d dea8 cb3d 80e2 3d3d
000002f0: 50c8 603c 1034 9bbd 7052 b03d dcf2 8b3d
00000300: 6c79 3abd c84d 0e3d f421 91bd 0ea5 923d
00000310: 80ad 113b e870 883d 148f 40bd c076 ac3b
00000320: 2ce4 573d 880c f03d 0270 f6bd fc0a 3f3d
00000330: 985c cc3c 1081 a2bd 3464 fbbd cc8c 70bd
00000340: 0037 0e3c 84f0 91bd 78be f6bd 8ca7 ef3d
00000350: 5849 b53c 807f f0bd b4b1 bdbd e8c7 ec3c
00000360: 8e77 bf3d 70c8 313d e02d 423d 0008 c13a
00000370: cc9b 763d e0aa 0dbc d461 c33d a0a3 3b3c
00000380: 1e72 a0bd 8ee5 b8bd e89c fcbd eac7 c63d
00000390: 881f 9dbd 0cba 51bd 40b4 e9bc c85e 3dbd
000003a0: c021 f7bc 2883 a43c 687d ee3c 2017 f0bc
000003b0: f0b9 29bd dc29 953d bc22 63bd dee2 bd3d
000003c0: d026 70bc 02a4 9e3d d44b 703d 8085 58bb
000003d0: 0cb5 2ebd 42bd b23d ecdf d23d a03c ea3c
000003e0: a049 99bd 185d 6dbd 9603 e43d 60fb b13c
000003f0: 8aca d1bd 4094 05bc 960f e03d a0ee 16bd

lstm.bias_ih_l0 f4 [256]
0.51515466 0.5300408 0.62180656 0.6526406 0.61120087 0.9152035 1.0538528 0.91898984
0.68888295 0.4087411 0.5721697 0.51650393 0.57040256 0.7320404 0.56389534 0.60423607
0.55187064 0.6397386 0.52647775 0.7568993 0.6815047 0.5798987 0.4884404 0.570418
0.05409496 0.4310698 0.73976946 0.6430745 0.6504179 0.80039394 0.57166094 0.5791123
0.371617 0.47785586 0.42752004 0.8301889 0.42476085 0.6122694 0.80336505 0.4740331
0.68532807 0.5591128 0.54208237 0.5615494 0.4992992 0.64222467 0.4778773 0.42432418
0.61741394 0.5289323 0.58198076 0.57158035 0.5543174 0.47868583 0.6303203 0.5974253
0.672945 0.804487 0.09475984 0.34469357 0.7118788 0.55393434 0.70974314 0.6368893
0.032494664 -0.061332688 -0.031206638 0.11333552 -0.09977913 -0.08006056 0.017811075 0.11241843
-0.088583365 0.09103669 0.124806315 -0.0065816045 -0.027763456 -0.035264343 0.022239864 -0.045355722
0.12026848 -0.016517103 0.0437081 -0.10449673 -0.11858094 -0.041298196 -0.037491545 0.022380307
0.0874511 -0.051634505 -0.081324846 0.019834086 0.034023613 -0.05358924 -0.04738213 -0.057793215
-0.050897032 0.088853374 -0.0102430135 -0.094923735 0.07768743 0.11823058 -0.00044326484 0.02881828
-0.12157211 -0.017589599 -0.06998937 0.058760226 0.06566957 0.06558262 -0.0041018575 0.10198727
0.0855128 0.028971031 -0.07802625 0.023222744 0.11596522 0.05300896 -0.041314915 0.000914678
0.10889295 0.06486693 0.015182972 -0.057358027 -0.09445283 -0.05062157 -0.03385389 -0.09439482
0.3042972 0.14655244 0.041844364 0.25932455 0.18436848 -0.30400583 -0.3149323 0.2778857
-0.26311466 -0.30690062 0.06941443 0.14289713 -0.26427913 0.28880453 0.25836363 0.27507475
0.18517938 0.17074792 -0.25698087 -0.20474395 0.061519228 0.25212777 0.05151843 -0.24034883
-0.12010771 0.18858705 0.26909468 0.22076419 -0.22597845 -0.3246679 -0.32651046 -0.18614964
-0.26414338 0.107427716 -0.31382293 -0.2841686 0.1827189 -0.26200193 -0.17061017 -0.13622892
0.38721067 -0.042666037 -0.3262949 -0.28197524 0.26745838 0.063026465 -0.33497006 -0.34158784
-0.18630962 -0.20152228 -0.09517468 0.1598055 -0.05200659 0.071711764 0.16614558 -0.08049863
0.16425534 0.22584651 0.027873514 -0.10524049 0.16238439 -0.18446693 -0.12305392 -0.2962422
0.5130252 0.41581258 0.5170338 0.7047808 0.7824871 0.97193 1.1308751 1.1065147
0.6627579 0.53850037 0.4983527 0.48237237 0.60065997 0.49305972 0.7251228 0.5796021
0.6293036 0.67498255 0.61424136 0.7404561 0.6467813 0.47013444 0.6280475 0.6693792
0.074501656 0.5656932 0.9334801 0.5337578 0.70771146 0.8840262 0.55105025 0.63110125
0.49262032 0.4307837 0.2719701 0.6705111 0.55853045 0.6087267 0.6403682 0.58951604
0.6498547 0.522712 0.5475514 0.6899413 0.58579326 0.6229851 0.5523507 0.69913435
0.67020243 0.70532745 0.62167394 0.70766133 0.4307767 0.49025464 0.673336 0.4701871
0.6428006 0.64498293 -0.05676649 0.39660037 0.6263422 0.47449934 0.61716706 0.51886165
00000000: 2de1 033f c1b0 073f b72e 1f3f 7413 273f
00000010: a977 1c3f c74a 6a3f a6e4 863f eb42 6b3f
00000020: a25a 303f 8346 d13e b779 123f 9a39 043f
00000030: e705 123f 0067 3b3f 725b 103f 37af 1a3f
00000040: 6547 0d3f e9c5 233f 3fc7 063f 27c4 413f
00000050: 1877 2e3f 3e74 143f dc14 fa3e ea06 123f
00000060: ad92 5d3d 2eb5 dc3e 8861 3d3f 88a0 243f
00000070: ca81 263f 9ee6 4c3f 5f58 123f b440 143f
00000080: 9544 be3e 86a9 f43e e8e3 da3e 4287 543f
00000090: 417a d93e b0bd 1c3f 55a9 4d3f 77b4 f23e
000000a0: a971 2f3f 0422 0f3f e9c5 0a3f b4c1 0f3f
000000b0: 25a4 ff3e d668 243f 55ac f43e 0541 d93e
000000c0: d70e 1e3f 1b68 073f b1fc 143f 1753 123f
000000d0: bfe7 0d3f 4f16 f53e ac5c 213f ddf0 183f
000000e0: 2046 2c3f dcf2 4d3f 7211 c23d ad7b b03e
000000f0: b03d 363f a4ce 0d3f bab1 353f 2d0b 233f
00000100: 2019 053d fc37 7bbd 10a5 ffbc 741c e83d
00000110: 0059 ccbd caf6 a3bd 88e8 913c a23b e63d
00000120: 326b b5bd 7271 ba3d 749a ff3d 80aa d7bb
00000130: 3070 e3bc 5871 10bd 6030 b63c ecc6 39bd
00000140: 524f f63d e04e 87bc 4407 333d 6202 d6bd
00000150: 90da f2bd 4c28 29bd bc90 19bd e856 b73c
00000160: 9019 b33d b47e 53bd a48d a6bd 187b a23c
00000170: 585c 0b3d 6480 5bbd c413 42bd 94b8 6cbd
00000180: 6879 50bd c2f8 b53d 50d2 27bc 6067 c2bd
00000190: 961a 9f3d e022 f23d 0066 e8b9 5014 ec3c
000001a0: ccfa f8bd 1018 90bc 9656 8fbd 90ae 703d
000001b0: c47d 863d 2e50 863d e068 86bb b4de d03d
000001c0: 5621 af3d a854 ed3c 3acc 9fbd a03d be3c
000001d0: 2c7f ed3d ec1f 593d d439 29bd 00c7 6f3a
000001e0: 4403 df3d f4d8 843d 00c2 783c 40f0 6abd
000001f0: 7c70 c1bd 9058 4fbd 60aa 0abd 1252 c1bd
00000200: d8cc 9b3e d811 163e ff64 2b3d 30c6 843e
00000210: 17cb 3c3e a7a6 9bbe ce3e a1be 0947 8e3e
00000220: f7b6 86be 1422 9dbe 2729 8e3d a053 123e
00000230: 984f 87be 30de 933e 3d48 843e 99d6 8c3e
00000240: aa9f 3d3e 8bd8 2e3e ff92 83be 66a8 51be
00000250: 96fb 7b3d e416 813e fd04 533d 011e 76be
00000260: 08fb f5bd f71c 413e c7c6 893e 0210 623e
00000270: e566 67be df3a a6be 612c a7be 039e 3ebe
00000280: cd3d 87be 1003 dc3d 66ad a0be 8c7e 91be
00000290: aa1a 3b3e 1e25 86be 6fb4 2ebe 987f 0bbe
000002a0: 7a40 c63e 95c2 2ebd 2010 a7be 0f5f 90be
000002b0: 4ef0 883e 0514 813d 3281 abbe 9ae4 aebe
000002c0: f3c7 3ebe db5b 4ebe f1ea c2bd 0ea4 233e
000002d0: dd04 55bd 9edd 923d 1122 2a3e 77dc a4bd
000002e0: 8d32 283e 4f44 673e ff56 e43c 5388 d7bd
000002f0: 1848 263e e6e4 3cbe b203 fcbd 0fad 97be
00000300: 9f55 033f 63e5 d43e 545c 043f 846c 343f
00000310: 1351 483f 68d0 783f 84c0 903f 46a2 8d3f
00000320: 80aa 293f 29db 093f 1628 ff3e 83f9 f63e
00000330: dac4 193f 5372 fc3e a6a1 393f ce60 143f
00000340: 0a1a 213f a8cb 2c3f ec3e 1d3f 888e 3d3f
00000350: 7693 253f 76b5 f03e b9c7 203f 6f5c 2b3f
00000360: 5394 983d 45d1 103f 8df8 6e3f 5aa4 083f
00000370: 942c 353f 8b4f 623f a111 0d3f da8f 213f
00000380: bb38 fc3e ae8f dc3e aa3f 8b3e 9ea6 2b3f
00000390: dafb 0e3f 83d5 1b3f 2cef 233f 86ea 163f
000003a0: e15c 263f 74d0 053f 542c 0c3f fe9f 303f
000003b0: 8cf6 153f f47b 1f3f db66 0d3f 78fa 323f
000003c0: 6392 2b3f 5790 343f 0626 1f3f 4b29 353f
000003d0: c38e dc3e a802 fb3e c05f 2c3f 5dbc f03e
000003e0: 958e 243f 9a1d 253f fb83 68bd 340f cb3e
000003f0: f657 203f 94f1 f23e a9fe 1d3f 1ed4 043f

lstm.bias_hh_l0 f4 [256]
0.5397441 0.5324821 0.49182922 0.6420552 0.6633509 0.9390509 0.9336772 1.0197117
0.779392 0.31512347 0.476514 0.46794376 0.78108066 0.7201526 0.5395639 0.4796462
0.5951868 0.7246331 0.46231762 0.6446201 0.66337353 0.44658828 0.69493216 0.6698051
0.14321303 0.53613955 0.72469693 0.6002672 0.48870653 0.93333256 0.5127372 0.4213473
0.5434883 0.51500356 0.39094988 0.6809245 0.41894737 0.71574575 0.61499554 0.5034914
0.80977666 0.53387344 0.54392874 0.58335525 0.649574 0.626066 0.49678716 0.64993525
0.47244647 0.5936808 0.5681838 0.60257125 0.6308183 0.524911 0.6860271 0.4653555
0.53611195 0.61715424 0.040070634 0.57073575 0.709183 0.42390224 0.60963345 0.46783444
-0.094709784 -0.07425083 0.06429176 0.01171425 -0.09413104 -0.06734531 0.10362701 -0.066291854
-0.0983327 -0.06759733 -0.019916385 -0.021372065 -0.09274131 -0.04581894 -0.029473007 0.061137766
0.027510911 0.032001734 0.041844204 0.013645142 0.042543724 0.07436143 -0.084734485 0.0019148886
-0.008555397 -0.038588583 0.098278776 -0.037177786 -0.06414002 0.07852344 -0.08092329 -0.0055557936
-0.021478951 0.029150918 -0.08939347 -0.023978308 0.120541364 -0.092656985 0.094938666 -0.11863221
-0.0880055 0.044373184 -0.008858249 -0.11143711 -0.040169373 0.0031980127 0.11882985 -0.089498326
0.11523342 -0.031754866 -0.09474343 0.009062931 0.060705885 0.007929876 0.081332564 -0.0591287
-0.11541231 0.08353521 0.08694449 0.09916073 0.0050706714 0.07764141 -0.119222015 -0.07036024
0.21686505 -0.0078105037 0.126514 0.17830066 0.14382885 -0.33481723 -0.20369866 0.2325588
-0.22005807 -0.19955184 0.1416039 0.082931705 -0.14847875 0.27682063 0.33005643 0.20752586
0.15469338 0.052028142 -0.2233612 -0.22975704 0.14272086 0.27596077 0.21925345 -0.16555949
-0.055923935 0.16592099 0.32580957 0.11217684 -0.11979366 -0.12545343 -0.27327713 -0.30894518
-0.28322744 0.08412882 -0.32656473 -0.21573326 0.10090064 -0.307198 -0.19277148 -0.013722254
0.24805032 -0.19079176 -0.2929326 -0.111295156 0.3406526 0.19501297 -0.23640323 -0.27389535
-0.06630641 -0.35932225 -0.1447256 0.20513003 -0.19703153 0.27796522 0.26463366 -0.19651635
0.11031838 0.2701201 0.24702021 -0.09657372 0.16223633 -0.0070528984 -0.12272251 -0.31381986
0.639632 0.43782863 0.69685 0.6662951 0.55897033 0.9296831 0.94312 0.9921544
0.79493093 0.37238726 0.58010095 0.48726544 0.7066045 0.6761778 0.52131754 0.49492168
0.6436176 0.6049838 0.5629169 0.6267645 0.85176176 0.54466015 0.56527823 0.66348064
-0.06713845 0.52137357 0.84309435 0.54521215 0.48380163 0.9608524 0.7429748 0.50046545
0.53221655 0.6719922 0.3187294 0.86574477 0.42060775 0.7727451 0.7871319 0.59558094
0.6448031 0.631913 0.4938737 0.49827406 0.649897 0.6703856 0.4635846 0.5867272
0.60781205 0.6299852 0.5833477 0.6864514 0.5210083 0.55416363 0.65761864 0.616755
0.57209784 0.6822669 0.015931688 0.373848 0.7103896 0.5213858 0.6480779 0.44004408
00000000: ab2c 0a3f bf50 083f 0ad1 fb3e bb5d 243f
00000010: 5dd1 293f a465 703f 7805 6f3f ea85 823f
00000020: 3c86 473f dd57 a13e a5f9 f33e 5396 ef3e
00000030: e7f4 473f ec5b 383f dc20 0a3f 3094 f53e
00000040: 2a5e 183f 8e81 393f e5b4 ec3e d305 253f
00000050: d9d2 293f 38a7 e43e 13e7 313f 5978 2b3f
00000060: 70a6 123e 7140 093f bd85 393f 1cab 193f
00000070: be37 fa3e e2ee 6e3f bf42 033f d5ba d73e
00000080: 0d22 0b3f 46d7 033f 952a c83e 1151 2e3f
00000090: 4580 d63e 1d3b 373f 5970 1d3f d0e4 003f
000000a0: 864d 4f3f eeab 083f ea3e 0b3f c556 153f
000000b0: 7b4a 263f dd45 203f e35a fe3e 2862 263f
000000c0: 81e4 f13e 77fb 173f 7e74 113f 1c42 1a3f
000000d0: 4f7d 213f 9160 063f 799f 2f3f 1343 ee3e
000000e0: a23e 093f d2fd 1d3f 1b21 243d bd1b 123f
000000f0: 048d 353f b709 d93e f010 1c3f ff87 ef3e
00000100: 34f7 c1bd d210 98bd 66ab 833d 20ed 3f3c
00000110: c6c7 c0bd 56ec 89bd 663a d43d 06c4 87bd
00000120: a862 c9bd 7870 8abd b027 a3bc 7814 afbc
00000130: 28ef bdbd a4ac 3bbd 6071 f1bc 986b 7a3d
00000140: 905e e13c 4014 033d d464 2b3d e08f 5f3c
00000150: 5442 2e3d ce4a 983d 4689 adbd 00fd fa3a
00000160: f02b 0cbc 100f 1ebd 6246 c93d bc47 18bd
00000170: d85b 83bd e6d0 a03d 1cbb a5bd 600d b6bb
00000180: a0f4 afbc e8cd ee3c ec13 b7bd 286e c4bc
00000190: 64de f63d f2c2 bdbd 346f c23d 72f5 f2bd
000001a0: 3a3c b4bd a8c0 353d 3022 11bc 2439 e4bd
000001b0: a488 24bd c095 513b 105d f33d e64a b7bd
000001c0: 80ff eb3d 6411 02bd d808 c2bd b07c 143c
000001d0: bca6 783d 50ec 013c b091 a63d f030 72bd
000001e0: 4a5d ecbd 8214 ab3d f40f b23d c814 cb3d
000001f0: e027 a63b 7602 9f3d ac2a f4bd 0819 90bd
00000200: df11 5e3e 41ef ffbb e38c 013e 7394 363e
00000210: df47 133e 2a6d abbe 6296 50be e523 6e3e
00000220: e756 61be 5157 4cbe 9d00 113e 19d8 a93d
00000230: d00a 18be 6fbb 8d3e 28fd a83e a981 543e
00000240: f167 1e3e 761b 553d ccb8 64be 6e45 6bbe
00000250: 6b25 123e bb4a 8d3e fa83 603e 6d88 29be
00000260: 7f10 65bd 31e7 293e 83d0 a63e f9bc e53d
00000270: 6156 f5bd dd76 00be fbea 8bbe 102e 9ebe
00000280: 3003 91be bb4b ac3d 7e33 a7be 2ee9 5cbe
00000290: ffa4 ce3d 0e49 9dbe e365 45be 4ed3 60bc
000002a0: e700 7e3e ea5e 43be 43fb 95be b7ee e3bd
000002b0: 056a ae3e 7bb1 473e b013 72be 033c 8cbe
000002c0: a8cb 87bd 16f9 b7be f332 14be 9b0d 523e
000002d0: a2c2 49be 7551 8e3e 107e 873e 953b 49be
000002e0: 9aee e13d 2f4d 8a3e def2 7c3e 71c8 c5bd
000002f0: 4821 263e 001c e7bb f055 fbbd ffac a0be
00000300: ecbe 233f 132b e03e c364 323f 5192 2a3f
00000310: ae18 0f3f b6ff 6d3f 5070 713f d5fd 7d3f
00000320: 9880 4b3f 8ba9 be3e 7f81 143f db7a f93e
00000330: 08e4 343f fd19 2d3f 1175 053f 6066 fd3e
00000340: 1fc4 243f 38e0 1a3f 521b 103f a373 203f
00000350: 0f0d 5a3f d96e 0b3f 13b6 103f ded9 293f
00000360: e27f 89bd bd78 053f 08d5 573f 0693 0b3f
00000370: d9b4 f73e 6cfa 753f 9933 3e3f 811e 003f
00000380: 583f 083f ae07 2c3f 8030 a33e 73a1 5d3f
00000390: e659 d73e 9fd2 453f 7a81 493f fe77 183f
000003a0: d111 253f 0dc5 213f 03dd fc3e c71d ff3e
000003b0: a65f 263f 649e 2b3f f65a ed3e c133 163f
000003c0: 9299 1b3f b646 213f 4656 153f 47bb 2f3f
000003d0: cd60 053f abdd 0d3f b259 283f a8e3 1d3f
000003e0: 0175 123f 0ba9 2e3f 2c83 823c 0169 bf3e
000003f0: 18dc 353f 8a79 053f 6fe8 253f 754d e13e

fc.weight f4 [1, 64]
-0.57673496 -0.529832 -0.65070397 -0.54786277 -0.65695417 0.7925293 0.96636224 -0.7814136
0.5169574 0.44888172 -0.6186355 -0.56474996 0.59951156 -0.47488907 -0.4462448 -0.53020483
-0.5507949 -0.72787225 0.50475925 0.6021785 -0.78668493 -0.530841 -0.60303223 0.5924505
0.13955487 -0.4939919 -0.71298754 -0.6296914 0.6142113 0.71287966 0.63800853 0.42581913
0.4818172 -0.67447865 0.43599477 0.64924693 -0.58537644 0.6582472 0.65912324 0.75247777
-0.5465707 0.5019776 0.5142864 0.49179655 -0.4944109 -0.7034313 0.6454422 0.6528123
0.6262482 0.49094418 0.47045365 -0.60639614 0.48894617 -0.6497892 -0.45253024 0.51897836
-0.56763583 -0.6631165 -0.09627302 0.48670244 -0.6729703 0.63669926 0.66515005 0.4472103
00000000: e7a4 13bf 12a3 07bf 8994 26bf bc40 0cbf
00000010: 262e 28bf 33e3 4a3f 8463 773f b90a 48bf
00000020: 5257 043f d3d3 e53e e55e 1ebf 7493 10bf
00000030: 9779 193f a924 f3be 337a e4be 81bb 07bf
00000040: e500 0dbf d655 3abf e737 013f 5f28 1a3f
00000050: 2f64 49bf 32e5 07bf 5260 1abf d6aa 173f
00000060: 79e7 0e3e 82ec fcbe 5a86 36bf 7533 21bf
00000070: f43c 1d3f 487f 363f 8754 233f f704 da3e
00000080: beb0 f63e a2aa 2cbf b53a df3e 0c35 263f
00000090: 3bdb 15bf e382 283f 4dbc 283f 62a2 403f
000000a0: 0fec 0bbf 9b81 003f 46a8 033f c2cc fb3e
000000b0: 6d23 fdbe 1314 34bf b33b 253f b51e 273f
000000c0: cd51 203f 095d fb3e 4ddf f03e c73c 1bbf
000000d0: 2757 fa3e 9658 26bf 0bb2 e7be c4db 043f
000000e0: 9550 11bf 01c2 29bf ca2a c5bd 1031 f93e
000000f0: c847 2cbf b9fe 223f 4647 2a3f c0f8 e43e

exp_avg f4 [256, 5]
1.7784142e-06 -1.7784142e-06 3.7371203e-07 -3.486933e-07 -3.0897687e-07 5.7854203e-07 -5.7854203e-07 1.1184905e-07
-4.480322e-07 2.1409667e-07 8.050092e-07 -8.050092e-07 1.9366398e-07 -3.064988e-07 -8.836201e-11 1.1328414e-06
-1.1328414e-06 2.173104e-07 -4.336438e-07 2.0696025e-09 7.255113e-07 -7.255113e-07 1.3687453e-07 -1.5880028e-07
-1.10501105e-07 7.9867317e-07 -7.9867317e-07 1.5064848e-07 -4.243531e-07 1.1298908e-07 4.5732284e-07 -4.5732284e-07
-1.3116053e-07 -6.358e-07 4.340321e-07 8.8014207e-07 -8.8014207e-07 -2.7849243e-08 -7.297445e-07 3.7096945e-07
1.325253e-06 -1.325253e-06 3.3537012e-07 -4.5576135e-07 -4.603036e-08 2.2572517e-06 -2.2572517e-06 5.185514e-07
-3.9138953e-07 -4.402893e-07 9.421299e-07 -9.421299e-07 2.8648108e-07 -1.1090731e-07 -2.331013e-07 8.957015e-07
-8.957015e-07 2.1312925e-07 -4.3703983e-07 9.018249e-08 7.5968006e-07 -7.5968006e-07 1.9223734e-07 -1.6183887e-07
-1.198751e-07 8.419371e-07 -8.419371e-07 2.1822306e-07 -2.8920482e-07 -2.9569271e-08 1.3969534e-06 -1.3969534e-06
3.3907912e-07 -3.5598705e-07 -1.6552029e-07 1.2530775e-06 -1.2530775e-06 2.4972485e-07 -4.2339116e-07 -5.0625296e-08
8.849601e-07 -8.849601e-07 2.7587402e-07 -9.4390366e-08 -2.2815466e-07 5.029891e-07 -5.029891e-07 -1.2364793e-08
-5.713816e-07 3.5712313e-07 1.7141681e-06 -1.7141681e-06 4.2352363e-07 -4.3885214e-07 -2.0119697e-07 2.1556745e-07
-2.1556745e-07 -8.1450096e-08 -2.4951964e-07 1.5740275e-07 4.2736633e-07 -4.2736633e-07 -3.6867778e-08 -2.1409251e-07
4.8244992e-08 1.6460586e-06 -1.6460586e-06 4.0612665e-07 -4.906754e-07 -1.2807938e-07 6.0652195e-07 -6.0652195e-07
1.04761064e-07 -1.8133164e-07 -4.670523e-08 1.5049151e-06 -1.5049151e-06 3.8472115e-07 -5.5049924e-07 -2.1287782e-08
5.988137e-07 -5.988137e-07 1.04380696e-07 -4.9823e-08 -1.6757986e-07 1.0500418e-06 -1.0500418e-06 2.9803954e-07
-4.4509125e-07 4.248561e-08 1.1123653e-06 -1.1123653e-06 2.605786e-07 -4.3310527e-07 8.886871e-09 7.456388e-07
-7.456388e-07 2.408016e-07 1.2960949e-08 -2.7920854e-07 1.460224e-06 -1.460224e-06 3.8642602e-07 -4.880653e-07
-6.399237e-08 3.883328e-07 -3.883328e-07 -8.1510265e-08 -4.1415552e-07 2.5033583e-07 2.256759e-06 -2.256759e-06
4.853655e-07 -5.292132e-07 -3.1052633e-07 1.2135351e-06 -1.2135351e-06 3.257742e-07 -3.7898988e-07 -7.82124e-08
2.0756852e-06 -2.0756852e-06 4.1163588e-07 -3.4913893e-07 -4.150007e-07 9.862727e-07 -9.862727e-07 2.970654e-07
-8.9473204e-08 -2.6906466e-07 2.1368614e-06 -2.1368614e-06 1.8039806e-07 -2.3455947e-07 -5.446374e-07 8.76092e-07
-8.76092e-07 1.2369195e-07 -4.513161e-07 1.1061989e-07 9.4675545e-07 -9.4675545e-07 3.4410215e-07 2.9726515e-08
-3.6699117e-07 2.387529e-06 -2.387529e-06 4.5432574e-07 -3.6891763e-07 -5.0807154e-07 1.4649653e-06 -1.4649653e-06
3.4719451e-07 -5.7812855e-07 1.8994978e-08 5.6846756e-07 -5.6846756e-07 1.5347267e-07 -9.886462e-08 -1.10619375e-07
2.7294273e-06 -2.7294273e-06 6.627315e-07 -2.3907296e-07 -7.525832e-07 5.831822e-07 -5.831822e-07 1.2477835e-07
-2.2478729e-07 2.5176206e-09 1.767775e-06 -1.767775e-06 4.112383e-07 -2.661429e-07 -3.8278142e-07 8.381704e-07
-8.381704e-07 1.3088658e-07 -3.7857026e-07 5.5804414e-08 1.9865026e-06 -1.9865026e-06 3.4269388e-07 -2.7799564e-07
-4.4995897e-07 6.309966e-07 -6.309966e-07 1.4223811e-07 -6.40798e-08 -1.6571985e-07 2.4763249e-06 -2.4763249e-06
3.8579168e-07 -4.7783857e-07 -4.3745527e-07 3.2177716e-06 -3.2177716e-06 6.124962e-07 -3.0243524e-07 -8.6788e-07
8.009359e-07 -8.009359e-07 2.1890143e-07 -1.6864536e-07 -1.2824913e-07 1.7476503e-06 -1.7476503e-06 4.117985e-07
-3.0339945e-07 -3.4054582e-07 4.074782e-07 -4.074782e-07 7.737502e-10 -4.3201976e-07 2.6029227e-07 1.094252e-06
00000000: d9b1 ee35 d9b1 eeb5 97a2 c834 0b34 bbb4
00000010: 75e1 a5b4 1b4d 1b35 1b4d 1bb5 aa31 f033
00000020: 1489 f0b4 72e2 6534 d017 5835 d017 58b5
00000030: f3f1 4f34 e08c a4b4 644f c2ae 220c 9835
00000040: 220c 98b5 d455 6934 8dcf e8b4 d538 0e31
00000050: c2c0 4235 c2c0 42b5 c9f7 1234 b082 2ab4
00000060: a04c edb3 6764 5635 6764 56b5 f0c1 2134
00000070: a5d2 e3b4 67a4 f233 f985 f534 f985 f5b4
00000080: 22d5 0cb4 d8ab 2ab5 eb04 e934 e742 6c35
00000090: e742 6cb5 2239 efb2 a9e3 43b5 a729 c734
000000a0: 59df b135 59df b1b5 eb0c b434 5daf f4b4
000000b0: ebb2 45b3 4a7b 1736 4a7b 17b6 9532 0b35
000000c0: 2b20 d2b4 e760 ecb4 ace6 7c35 ace6 7cb5
000000d0: a9cd 9934 f02b eeb3 664a 7ab4 2370 7035
000000e0: 2370 70b5 86d8 6434 4ca2 eab4 59aa c133
000000f0: d1ec 4b35 d1ec 4bb5 cc69 4e34 eec5 2db4
00000100: 04b7 00b4 7a01 6235 7a01 62b5 b350 6a34
00000110: 0244 9bb4 84ff fdb2 f47e bb35 f47e bbb5
00000120: ae0a b634 7d1e bfb4 dfb9 31b4 6a2f a835
00000130: 6a2f a8b5 ec11 8634 704e e3b4 1a6f 59b3
00000140: ff8d 6d35 ff8d 6db5 d61b 9434 a7b3 cab3
00000150: adfa 74b4 2605 0735 2605 07b5 ef6c 54b2
00000160: 0b61 19b5 a1ba bf34 5e12 e635 5e12 e6b5
00000170: a560 e334 619b ebb4 9a08 58b4 bb76 6734
00000180: bb76 67b4 aae9 aeb3 b8f5 85b4 8a02 2934
00000190: c870 e534 c870 e5b4 8d58 1eb3 4de1 65b4
000001a0: ee35 4f33 25ee dc35 25ee dcb5 9f09 da34
000001b0: f5b6 03b5 3186 09b4 dfcf 2235 dfcf 22b5
000001c0: 01f9 e033 10b4 42b4 f298 48b3 7dfc c935
000001d0: 7dfc c9b5 ac8b ce34 05c6 13b5 54dc b6b2
000001e0: 2abe 2035 2abe 20b5 e527 e033 f8fc 55b3
000001f0: 00f0 33b4 29ef 8c35 29ef 8cb5 3e02 a034
00000200: e0f4 eeb4 6c79 3633 954c 9535 954c 95b5
00000210: a6e5 8b34 8985 e8b4 dfac 1832 e827 4835
00000220: e827 48b5 8547 8134 dbaa 5e32 21e6 95b4
00000230: eafc c335 eafc c3b5 fd75 cf34 9803 03b5
00000240: 2d6c 89b3 0e7c d034 0e7c d0b4 be0a afb3
00000250: 1a59 deb4 e565 8634 d372 1736 d372 17b6
00000260: 104a 0235 410f 0eb5 6ab6 a6b4 c0e0 a235
00000270: c0e0 a2b5 11e6 ae34 f977 cbb4 b9f5 a7b3
00000280: 004c 0b36 004c 0bb6 cefe dc34 4a71 bbb4
00000290: 43cd deb4 1260 8435 1260 84b5 5c7c 9f34
000002a0: 6a24 c0b3 f773 90b4 0067 0f36 0067 0fb6
000002b0: 71b3 4134 37db 7bb4 3233 12b5 952c 6b35
000002c0: 952c 6bb5 2fd0 0434 6a4c f2b4 ed8d ed33
000002d0: 8a24 7e35 8a24 7eb5 0abd b834 4c59 ff32
000002e0: e206 c5b4 7039 2036 7039 20b6 0eea f334
000002f0: a70f c6b4 6962 08b5 d39f c435 d39f c4b5
00000300: 0d66 ba34 b130 1bb5 662a a332 cb98 1835
00000310: cb98 18b5 3fca 2434 664f d4b3 a58d edb3
00000320: 342b 3736 342b 37b6 90e6 3135 f059 80b4
00000330: 2005 4ab5 fa8b 1c35 fa8b 1cb5 d0fa 0534
00000340: 0f5d 71b4 7302 2d31 4944 ed35 4944 edb5
00000350: 29c8 dc34 67e2 8eb4 1481 cdb4 a2fe 6035
00000360: a2fe 60b5 d489 0c34 4d3e cbb4 9aad 6f33
00000370: db4f 0536 db4f 05b6 7dfb b734 6e3f 95b4
00000380: e491 f1b4 c261 2935 c261 29b5 1dba 1834
00000390: 3e9c 89b3 baf0 31b4 f02e 2636 f02e 26b6
000003a0: ce1e cf34 d144 00b5 65db eab4 e5f0 5736
000003b0: e5f0 57b6 6b6a 2435 625e a2b4 42f8 68b5
000003c0: e5ff 5635 e5ff 56b5 2b0b 6b34 e214 35b4
000003d0: dab4 09b4 cf90 ea35 cf90 eab5 2815 dd34
000003e0: e7e2 a2b4 43d4 b6b4 61c3 da34 61c3 dab4
000003f0: d4af 5430 58f0 e7b4 4cbe 8b34 36de 9235

exp_avg_sq f4 [256, 5]
4.051923e-09 4.051923e-09 3.8179224e-09 9.705009e-10 8.7837404e-10 2.395064e-09 2.395064e-09 2.2723523e-09
1.4565031e-09 8.54359e-10 2.3862605e-09 2.3862605e-09 6.954717e-09 4.990346e-10 7.0344536e-10 1.5827409e-09
1.5827409e-09 7.8136597e-10 7.2356204e-10 4.481404e-10 1.0892549e-09 1.0892549e-09 1.911984e-09 7.263036e-10
5.24806e-10 1.713377e-09 1.713377e-09 1.6580445e-09 1.4967766e-10 2.6488733e-10 9.239395e-10 9.239395e-10
7.1786405e-10 1.0734165e-10 1.6420992e-10 2.3010691e-09 2.3010691e-09 1.1549572e-09 4.757979e-10 3.9064343e-10
2.1248974e-09 2.1248974e-09 2.1212248e-09 1.0987932e-09 6.7770844e-10 2.1277058e-09 2.1277058e-09 1.2311036e-09
2.8848932e-09 2.9599476e-09 2.7458935e-09 2.7458935e-09 7.249298e-09 4.075965e-09 3.833293e-09 2.8086116e-09
2.8086116e-09 6.2666357e-09 6.147324e-10 5.563035e-10 9.377354e-10 9.377354e-10 3.8642967e-10 9.332763e-10
5.128157e-10 1.3631448e-09 1.3631448e-09 1.7579777e-09 4.2504217e-10 3.6743583e-10 8.9795915e-10 8.9795915e-10
1.4963653e-09 8.9908836e-10 7.896862e-10 3.046603e-09 3.046603e-09 3.0607048e-09 7.78144e-10 6.9401374e-10
1.5148385e-09 1.5148385e-09 1.3524327e-09 1.3251138e-09 7.861805e-10 1.0863678e-09 1.0863678e-09 1.5095614e-09
5.697791e-10 4.2946577e-10 2.0787605e-09 2.0787605e-09 2.1662263e-09 2.6112856e-09 2.5874882e-09 9.5391244e-11
9.5391244e-11 4.124665e-10 2.085152e-11 2.224936e-11 3.8618236e-10 3.8618236e-10 4.5542703e-10 1.0503146e-10
1.2685328e-10 1.9734472e-09 1.9734472e-09 3.997e-09 2.8638085e-09 3.4331102e-09 1.1378545e-09 1.1378545e-09
2.9350373e-09 5.2987836e-10 4.1357168e-10 2.2696556e-09 2.2696556e-09 7.578009e-10 9.920009e-10 9.463648e-10
5.894547e-11 5.894547e-11 2.5837549e-11 6.43862e-12 1.3049534e-11 1.8524581e-09 1.8524581e-09 3.0841418e-09
1.6350343e-09 1.6553041e-09 2.7069338e-09 2.7069338e-09 2.0344522e-09 1.6001445e-10 3.6047174e-10 1.5840701e-09
1.5840701e-09 1.0223122e-09 9.17825e-10 8.0224494e-10 8.1935605e-09 8.1935605e-09 2.4740485e-09 2.2437308e-09
2.2488558e-09 3.090181e-10 3.090181e-10 4.704144e-10 4.0461485e-11 6.6113996e-11 4.266627e-09 4.266627e-09
6.9587687e-09 3.0352748e-10 6.1634586e-10 1.3972442e-09 1.3972442e-09 6.5399175e-10 1.7538428e-09 1.5420596e-09
4.943794e-09 4.943794e-09 5.4072817e-09 2.3797102e-09 1.9385185e-09 2.6521014e-09 2.6521014e-09 4.9009263e-09
5.4099156e-09 4.9990403e-09 8.0150295e-09 8.0150295e-09 3.7490824e-09 2.680747e-09 1.5224879e-09 1.9352704e-09
1.9352704e-09 1.0799424e-09 3.243646e-10 3.838033e-10 1.6752492e-09 1.6752492e-09 6.342107e-09 1.6495204e-09
1.1865084e-09 4.437241e-10 4.437241e-10 1.8446548e-09 4.5382317e-10 4.0194661e-10 4.410593e-09 4.410593e-09
2.9943452e-09 7.138903e-10 8.1477747e-10 8.7251345e-10 8.7251345e-10 4.3501376e-09 4.0107828e-10 3.4251127e-10
2.8468417e-10 2.8468417e-10 1.1601432e-09 1.5261278e-10 1.0263173e-10 1.76001e-09 1.76001e-09 1.6115352e-09
2.7792532e-10 3.0051892e-10 3.6148258e-09 3.6148258e-09 4.190716e-09 6.8909345e-10 7.2588296e-10 1.2698922e-09
1.2698922e-09 1.6471626e-09 6.367343e-10 5.9040955e-10 3.809212e-09 3.809212e-09 2.604037e-09 8.66315e-10
8.737563e-10 1.2683588e-09 1.2683588e-09 1.10381e-09 6.399716e-10 6.1864514e-10 6.6739427e-09 6.6739427e-09
5.0201123e-09 3.023891e-10 7.698549e-10 7.021766e-09 7.021766e-09 4.698654e-09 2.390586e-10 7.7574586e-10
1.997147e-09 1.997147e-09 2.9440925e-09 5.555625e-10 5.6438076e-10 6.8676115e-10 6.8676115e-10 9.636612e-10
9.938841e-10 8.990284e-10 7.319283e-10 7.319283e-10 1.9001858e-09 9.876692e-10 7.870226e-10 1.8599452e-09
00000000: 1739 8b31 1739 8b31 cd2e 8331 7762 8530
00000010: 1472 7130 6996 2431 6996 2431 a527 1c31
00000020: 262e c830 2bd8 6a30 8afb 2331 8afb 2331
00000030: 56f6 ee31 702c 0930 915c 4130 bf87 d930
00000040: bf87 d930 bec7 5630 27e4 4630 285e f62f
00000050: c0b4 9530 c0b4 9530 fa63 0331 12a5 4730
00000060: f041 1030 187c eb30 187c eb30 41e1 e330
00000070: 8492 242f 949f 912f 76f8 7d30 76f8 7d30
00000080: 3153 4530 fa0b ec2e fc8c 342f d620 1e31
00000090: d620 1e31 72bc 9e30 4dc9 0230 2dc2 d62f
000000a0: 9705 1231 9705 1231 fbc4 1131 5904 9730
000000b0: 7e49 3a30 ff36 1231 ff36 1231 9b33 a930
000000c0: 943f 4631 f367 4b31 45b2 3c31 45b2 3c31
000000d0: 8015 f931 910c 8c31 00b6 8331 9e01 4131
000000e0: 9e01 4131 e951 d731 f2f9 2830 61ea 1830
000000f0: a2e1 8030 a2e1 8030 2471 d42f be44 8030
00000100: 32f6 0c30 6559 bb30 6559 bb30 579d f130
00000110: 5eab e92f ffff c92f 42d4 7630 42d4 7630
00000120: aca8 cd30 b823 7730 3a11 5930 685c 5131
00000130: 685c 5131 7d54 5231 04e5 5530 e0c4 3e30
00000140: a432 d030 a432 d030 7fe0 b930 4c1f b630
00000150: 891a 5830 2b4f 9530 2b4f 9530 f878 cf30
00000160: a49e 1c30 ef19 ec2f f1d9 0e31 f1d9 0e31
00000170: a8dc 1431 3972 3331 93cf 3131 7fc4 d12e
00000180: 7fc4 d12e 80c1 e22f 7369 b72d 1bb5 c32d
00000190: 564e d42f 564e d42f a85f fa2f 75f7 e62e
000001a0: 067a 0b2f 409d 0731 409d 0731 fc55 8931
000001b0: a7cc 4431 eaeb 6b31 b262 9c30 b262 9c30
000001c0: b9b1 4931 e0a6 1130 0a5d e32f 34f8 1b31
000001d0: 34f8 1b31 7f4d 5030 ee56 8830 4011 8230
000001e0: 599f 812e 599f 812e fd44 e32d ef89 e22c
000001f0: e091 652d 9399 fe30 9399 fe30 ccf0 5331
00000200: a8b7 e030 d680 e330 e204 3a31 e204 3a31
00000210: 76ce 0b31 10f0 2f2f e32b c62f 83b6 d930
00000220: 83b6 d930 6a81 8c30 314a 7c30 f884 5c30
00000230: a9c3 0c32 a9c3 0c32 ec03 2a31 2130 1a31
00000240: 4a8a 1a31 6ee2 a92f 6ee2 a92f 784e 0130
00000250: 95f3 312e df62 912e a699 9231 a699 9231
00000260: fa19 ef31 b2dd a62f 7c6b 2930 2909 c030
00000270: 2909 c030 94c4 3330 dc0b f130 66f0 d330
00000280: 12de a931 12de a931 f4ca b931 4e88 2331
00000290: c736 0531 4340 3631 4340 3631 0165 a831
000002a0: 1fe2 b931 06c4 ab31 79b2 0932 79b2 0932
000002b0: 47d1 8031 3338 3831 c83f d130 a3fd 0431
000002c0: a3fd 0431 186d 9430 4252 b22f 83ff d22f
000002d0: 973e e630 973e e630 c3e9 d931 57b5 e230
000002e0: 8e12 a330 9ef0 f32f 9ef0 f32f 0587 fd30
000002f0: ef7d f92f f5f8 dc2f fc8b 9731 fc8b 9731
00000300: 14c5 4d31 903b 4430 def6 5f30 add5 6f30
00000310: add5 6f30 3778 9531 c07e dc2f 2d4c bc2f
00000320: bc81 9c2f bc81 9c2f e972 9f30 aecc 272f
00000330: 87b0 e12e d9e4 f130 d9e4 f130 db7c dd30
00000340: 83ca 982f 4736 a52f b068 7831 b068 7831
00000350: eefd 8f31 a46a 3d30 7987 4730 5c88 ae30
00000360: 5c88 ae30 6262 e230 3106 2f30 614a 2230
00000370: 2fe2 8231 2fe2 8231 b4f2 3231 8021 6e30
00000380: 222d 7030 6852 ae30 6852 ae30 ddb4 9730
00000390: ffe9 2f30 480d 2a30 9f50 e531 9f50 e531
000003a0: 607d ac31 7c3d a62f b99d 5330 1b44 f131
000003b0: 1b44 f131 cc71 a131 826c 832f 433c 5530
000003c0: 2e3e 0931 2e3e 0931 0651 4a31 3cb6 1830
000003d0: c422 1b30 85c6 3c30 85c6 3c30 d071 8430
000003e0: 3099 8830 801f 7730 e030 4930 e030 4930
000003f0: 6c94 0231 85be 8730 cb55 5830 01a1 ff30

exp_avg f4 [256, 64]
0.0 0.0 0.0 0.0 0.0 0.0 0.0 0.0
0.0 0.0 0.0 0.0 0.0 0.0 0.0 0.0
0.0 0.0 0.0 0.0 0.0 0.0 0.0 0.0
0.0 0.0 0.0 0.0 0.0 0.0 0.0 0.0
0.0 0.0 0.0 0.0 0.0 0.0 0.0 0.0
0.0 0.0 0.0 0.0 0.0 0.0 0.0 0.0
0.0 0.0 0.0 0.0 0.0 0.0 0.0 0.0
0.0 0.0 0.0 0.0 0.0 0.0 0.0 0.0
0.0 0.0 0.0 0.0 0.0 0.0 0.0 0.0
0.0 0.0 0.0 0.0 0.0 0.0 0.0 0.0
0.0 0.0 0.0 0.0 0.0 0.0 0.0 0.0
0.0 0.0 0.0 0.0 0.0 0.0 0.0 0.0
0.0 0.0 0.0 0.0 0.0 0.0 0.0 0.0
0.0 0.0 0.0 0.0 0.0 0.0 0.0 0.0
0.0 0.0 0.0 0.0 0.0 0.0 0.0 0.0
0.0 0.0 0.0 0.0 0.0 0.0 0.0 0.0
0.0 0.0 0.0 0.0 0.0 0.0 0.0 0.0
0.0 0.0 0.0 0.0 0.0 0.0 0.0 0.0
0.0 0.0 0.0 0.0 0.0 0.0 0.0 0.0
0.0 0.0 0.0 0.0 0.0 0.0 0.0 0.0
0.0 0.0 0.0 0.0 0.0 0.0 0.0 0.0
0.0 0.0 0.0 0.0 0.0 0.0 0.0 0.0
0.0 0.0 0.0 0.0 0.0 0.0 0.0 0.0
0.0 0.0 0.0 0.0 0.0 0.0 0.0 0.0
0.0 0.0 0.0 0.0 0.0 0.0 0.0 0.0
0.0 0.0 0.0 0.0 0.0 0.0 0.0 0.0
0.0 0.0 0.0 0.0 0.0 0.0 0.0 0.0
0.0 0.0 0.0 0.0 0.0 0.0 0.0 0.0
0.0 0.0 0.0 0.0 0.0 0.0 0.0 0.0
0.0 0.0 0.0 0.0 0.0 0.0 0.0 0.0
0.0 0.0 0.0 0.0 0.0 0.0 0.0 0.0
0.0 0.0 0.0 0.0 0.0 0.0 0.0 0.0
00000000: 0000 0000 0000 0000 0000 0000 0000 0000
00000010: 0000 0000 0000 0000 0000 0000 0000 0000
00000020: 0000 0000 0000 0000 0000 0000 0000 0000
00000030: 0000 0000 0000 0000 0000 0000 0000 0000
00000040: 0000 0000 0000 0000 0000 0000 0000 0000
00000050: 0000 0000 0000 0000 0000 0000 0000 0000
00000060: 0000 0000 0000 0000 0000 0000 0000 0000
00000070: 0000 0000 0000 0000 0000 0000 0000 0000
00000080: 0000 0000 0000 0000 0000 0000 0000 0000
00000090: 0000 0000 0000 0000 0000 0000 0000 0000
000000a0: 0000 0000 0000 0000 0000 0000 0000 0000
000000b0: 0000 0000 0000 0000 0000 0000 0000 0000
000000c0: 0000 0000 0000 0000 0000 0000 0000 0000
000000d0: 0000 0000 0000 0000 0000 0000 0000 0000
000000e0: 0000 0000 0000 0000 0000 0000 0000 0000
000000f0: 0000 0000 0000 0000 0000 0000 0000 0000
00000100: 0000 0000 0000 0000 0000 0000 0000 0000
00000110: 0000 0000 0000 0000 0000 0000 0000 0000
00000120: 0000 0000 0000 0000 0000 0000 0000 0000
00000130: 0000 0000 0000 0000 0000 0000 0000 0000
00000140: 0000 0000 0000 0000 0000 0000 0000 0000
00000150: 0000 0000 0000 0000 0000 0000 0000 0000
00000160: 0000 0000 0000 0000 0000 0000 0000 0000
00000170: 0000 0000 0000 0000 0000 0000 0000 0000
00000180: 0000 0000 0000 0000 0000 0000 0000 0000
00000190: 0000 0000 0000 0000 0000 0000 0000 0000
000001a0: 0000 0000 0000 0000 0000 0000 0000 0000
000001b0: 0000 0000 0000 0000 0000 0000 0000 0000
000001c0: 0000 0000 0000 0000 0000 0000 0000 0000
000001d0: 0000 0000 0000 0000 0000 0000 0000 0000
000001e0: 0000 0000 0000 0000 0000 0000 0000 0000
000001f0: 0000 0000 0000 0000 0000 0000 0000 0000
00000200: 0000 0000 0000 0000 0000 0000 0000 0000
00000210: 0000 0000 0000 0000 0000 0000 0000 0000
00000220: 0000 0000 0000 0000 0000 0000 0000 0000
00000230: 0000 0000 0000 0000 0000 0000 0000 0000
00000240: 0000 0000 0000 0000 0000 0000 0000 0000
00000250: 0000 0000 0000 0000 0000 0000 0000 0000
00000260: 0000 0000 0000 0000 0000 0000 0000 0000
00000270: 0000 0000 0000 0000 0000 0000 0000 0000
00000280: 0000 0000 0000 0000 0000 0000 0000 0000
00000290: 0000 0000 0000 0000 0000 0000 0000 0000
000002a0: 0000 0000 0000 0000 0000 0000 0000 0000
000002b0: 0000 0000 0000 0000 0000 0000 0000 0000
000002c0: 0000 0000 0000 0000 0000 0000 0000 0000
000002d0: 0000 0000 0000 0000 0000 0000 0000 0000
000002e0: 0000 0000 0000 0000 0000 0000 0000 0000
000002f0: 0000 0000 0000 0000 0000 0000 0000 0000
00000300: 0000 0000 0000 0000 0000 0000 0000 0000
00000310: 0000 0000 0000 0000 0000 0000 0000 0000
00000320: 0000 0000 0000 0000 0000 0000 0000 0000
00000330: 0000 0000 0000 0000 0000 0000 0000 0000
00000340: 0000 0000 0000 0000 0000 0000 0000 0000
00000350: 0000 0000 0000 0000 0000 0000 0000 0000
00000360: 0000 0000 0000 0000 0000 0000 0000 0000
00000370: 0000 0000 0000 0000 0000 0000 0000 0000
00000380: 0000 0000 0000 0000 0000 0000 0000 0000
00000390: 0000 0000 0000 0000 0000 0000 0000 0000
000003a0: 0000 0000 0000 0000 0000 0000 0000 0000
000003b0: 0000 0000 0000 0000 0000 0000 0000 0000
000003c0: 0000 0000 0000 0000 0000 0000 0000 0000
000003d0: 0000 0000 0000 0000 0000 0000 0000 0000
000003e0: 0000 0000 0000 0000 0000 0000 0000 0000
000003f0: 0000 0000 0000 0000 0000 0000 0000 0000

exp_avg_sq f4 [256, 64]
0.0 0.0 0.0 0.0 0.0 0.0 0.0 0.0
0.0 0.0 0.0 0.0 0.0 0.0 0.0 0.0
0.0 0.0 0.0 0.0 0.0 0.0 0.0 0.0
0.0 0.0 0.0 0.0 0.0 0.0 0.0 0.0
0.0 0.0 0.0 0.0 0.0 0.0 0.0 0.0
0.0 0.0 0.0 0.0 0.0 0.0 0.0 0.0
0.0 0.0 0.0 0.0 0.0 0.0 0.0 0.0
0.0 0.0 0.0 0.0 0.0 0.0 0.0 0.0
0.0 0.0 0.0 0.0 0.0 0.0 0.0 0.0
0.0 0.0 0.0 0.0 0.0 0.0 0.0 0.0
0.0 0.0 0.0 0.0 0.0 0.0 0.0 0.0
0.0 0.0 0.0 0.0 0.0 0.0 0.0 0.0
0.0 0.0 0.0 0.0 0.0 0.0 0.0 0.0
0.0 0.0 0.0 0.0 0.0 0.0 0.0 0.0
0.0 0.0 0.0 0.0 0.0 0.0 0.0 0.0
0.0 0.0 0.0 0.0 0.0 0.0 0.0 0.0
0.0 0.0 0.0 0.0 0.0 0.0 0.0 0.0
0.0 0.0 0.0 0.0 0.0 0.0 0.0 0.0
0.0 0.0 0.0 0.0 0.0 0.0 0.0 0.0
0.0 0.0 0.0 0.0 0.0 0.0 0.0 0.0
0.0 0.0 0.0 0.0 0.0 0.0 0.0 0.0
0.0 0.0 0.0 0.0 0.0 0.0 0.0 0.0
0.0 0.0 0.0 0.0 0.0 0.0 0.0 0.0
0.0 0.0 0.0 0.0 0.0 0.0 0.0 0.0
0.0 0.0 0.0 0.0 0.0 0.0 0.0 0.0
0.0 0.0 0.0 0.0 0.0 0.0 0.0 0.0
0.0 0.0 0.0 0.0 0.0 0.0 0.0 0.0
0.0 0.0 0.0 0.0 0.0 0.0 0.0 0.0
0.0 0.0 0.0 0.0 0.0 0.0 0.0 0.0
0.0 0.0 0.0 0.0 0.0 0.0 0.0 0.0
0.0 0.0 0.0 0.0 0.0 0.0 0.0 0.0
0.0 0.0 0.0 0.0 0.0 0.0 0.0 0.0
00000000: 0000 0000 0000 0000 0000 0000 0000 0000
00000010: 0000 0000 0000 0000 0000 0000 0000 0000
00000020: 0000 0000 0000 0000 0000 0000 0000 0000
00000030: 0000 0000 0000 0000 0000 0000 0000 0000
00000040: 0000 0000 0000 0000 0000 0000 0000 0000
00000050: 0000 0000 0000 0000 0000 0000 0000 0000
00000060: 0000 0000 0000 0000 0000 0000 0000 0000
00000070: 0000 0000 0000 0000 0000 0000 0000 0000
00000080: 0000 0000 0000 0000 0000 0000 0000 0000
00000090: 0000 0000 0000 0000 0000 0000 0000 0000
000000a0: 0000 0000 0000 0000 0000 0000 0000 0000
000000b0: 0000 0000 0000 0000 0000 0000 0000 0000
000000c0: 0000 0000 0000 0000 0000 0000 0000 0000
000000d0: 0000 0000 0000 0000 0000 0000 0000 0000
000000e0: 0000 0000 0000 0000 0000 0000 0000 0000
000000f0: 0000 0000 0000 0000 0000 0000 0000 0000
00000100: 0000 0000 0000 0000 0000 0000 0000 0000
00000110: 0000 0000 0000 0000 0000 0000 0000 0000
00000120: 0000 0000 0000 0000 0000 0000 0000 0000
00000130: 0000 0000 0000 0000 0000 0000 0000 0000
00000140: 0000 0000 0000 0000 0000 0000 0000 0000
00000150: 0000 0000 0000 0000 0000 0000 0000 0000
00000160: 0000 0000 0000 0000 0000 0000 0000 0000
00000170: 0000 0000 0000 0000 0000 0000 0000 0000
00000180: 0000 0000 0000 0000 0000 0000 0000 0000
00000190: 0000 0000 0000 0000 0000 0000 0000 0000
000001a0: 0000 0000 0000 0000 0000 0000 0000 0000
000001b0: 0000 0000 0000 0000 0000 0000 0000 0000
000001c0: 0000 0000 0000 0000 0000 0000 0000 0000
000001d0: 0000 0000 0000 0000 0000 0000 0000 0000
000001e0: 0000 0000 0000 0000 0000 0000 0000 0000
000001f0: 0000 0000 0000 0000 0000 0000 0000 0000
00000200: 0000 0000 0000 0000 0000 0000 0000 0000
00000210: 0000 0000 0000 0000 0000 0000 0000 0000
00000220: 0000 0000 0000 0000 0000 0000 0000 0000
00000230: 0000 0000 0000 0000 0000 0000 0000 0000
00000240: 0000 0000 0000 0000 0000 0000 0000 0000
00000250: 0000 0000 0000 0000 0000 0000 0000 0000
00000260: 0000 0000 0000 0000 0000 0000 0000 0000
00000270: 0000 0000 0000 0000 0000 0000 0000 0000
00000280: 0000 0000 0000 0000 0000 0000 0000 0000
00000290: 0000 0000 0000 0000 0000 0000 0000 0000
000002a0: 0000 0000 0000 0000 0000 0000 0000 0000
000002b0: 0000 0000 0000 0000 0000 0000 0000 0000
000002c0: 0000 0000 0000 0000 0000 0000 0000 0000
000002d0: 0000 0000 0000 0000 0000 0000 0000 0000
000002e0: 0000 0000 0000 0000 0000 0000 0000 0000
000002f0: 0000 0000 0000 0000 0000 0000 0000 0000
00000300: 0000 0000 0000 0000 0000 0000 0000 0000
00000310: 0000 0000 0000 0000 0000 0000 0000 0000
00000320: 0000 0000 0000 0000 0000 0000 0000 0000
00000330: 0000 0000 0000 0000 0000 0000 0000 0000
00000340: 0000 0000 0000 0000 0000 0000 0000 0000
00000350: 0000 0000 0000 0000 0000 0000 0000 0000
00000360: 0000 0000 0000 0000 0000 0000 0000 0000
00000370: 0000 0000 0000 0000 0000 0000 0000 0000
00000380: 0000 0000 0000 0000 0000 0000 0000 0000
00000390: 0000 0000 0000 0000 0000 0000 0000 0000
000003a0: 0000 0000 0000 0000 0000 0000 0000 0000
000003b0: 0000 0000 0000 0000 0000 0000 0000 0000
000003c0: 0000 0000 0000 0000 0000 0000 0000 0000
000003d0: 0000 0000 0000 0000 0000 0000 0000 0000
000003e0: 0000 0000 0000 0000 0000 0000 0000 0000
000003f0: 0000 0000 0000 0000 0000 0000 0000 0000
