lightning_logs/version_64/checkpoints/epoch=9-step=810.ckpt (torch, 227860 bytes, 15 tensors)

lstm.weight_ih_l0 f4 [256, 5]
0	0xbe2e1708	-0.17000973
1	0x3e21d1c3	0.15802674
2	0x3f4cb533	0.7996399
3	0x3e9cd1f1	0.30628923
4	0xbc8782c2	-0.016541842
5	0x3e08b728	0.13351119
6	0xbda2de08	-0.07952505
7	0x3f3458d6	0.7044805
8	0x3ec38cd7	0.3819339
9	0xbe175714	-0.14779311
10	0x3f079f52	0.5297748
11	0xbe8a3bbe	-0.26998705
12	0x3f51fa24	0.8202231
13	0x3e99f5d1	0.30070356
14	0x3d0049d1	0.031320397
15	0xbe97fd26	-0.29685324
16	0x3e7bb4ee	0.24580738
17	0xbf614143	-0.87990206
18	0xbecacf7e	-0.3961143
19	0x3ea6e495	0.3259627
20	0x3f04ef8d	0.51928025
21	0xbee71142	-0.45130354
22	0x3f6b554a	0.91927016
23	0x3ea78c66	0.32724303
24	0xbe74007b	-0.23828308
25	0xbe6615bf	-0.22469233
26	0x3bd082be	0.006363242
27	0xbf5f971a	-0.8733994
28	0xbece0790	-0.40240145
29	0xbdd4f1ba	-0.10397668
30	0x3f0390da	0.513929
31	0xbea823de	-0.32839864
32	0x3f627bf1	0.8847037
33	0x3ea2d6f2	0.31804615
34	0xbe978887	-0.2959635
35	0xbe1c6aa7	-0.1527506
36	0xbcb6be66	-0.022307586
37	0xbf7e866d	-0.9942387
38	0xbec237dd	-0.37933245
39	0xbe38de6d	-0.18053599
40	0x3c38ecb0	0.011286899
41	0x3c965a33	0.018353557
42	0x3f4f0f7a	0.8088299
43	0x3e979a22	0.29609782
44	0x3e72bcc5	0.23704822
45	0xbcc86832	-0.024463747
46	0x3e121f7a	0.1426982
47	0x3f0869a8	0.5328622
48	0x3e937b4d	0.2880501
49	0xbe406061	-0.18786766
50	0x3f0e85c8	0.55672884
51	0xbef25136	-0.47327584
52	0x3f3b08e1	0.73060423
53	0x3ed7e64a	0.42167884
54	0xbe6d67e4	-0.23184162
55	0x3ea803b0	0.32815313
56	0xbe9ed40b	-0.3102115
57	0x3f45c165	0.7724822
58	0x3eb4b17a	0.35291654
59	0xbe46b882	-0.19406322
60	0x3ee5b657	0.44865677
61	0xbe9c873a	-0.3057192
62	0x3f82f911	1.0232259
63	0x3e239360	0.15974188
64	0x3edd0f94	0.43175948
65	0x3f0b1ef4	0.54344106
66	0xbea238c6	-0.3168394
67	0x3f7289ca	0.947415
68	0x3f031775	0.5120767
69	0xbdc67d02	-0.09691812
70	0x3e6bf30a	0.23041931
71	0xbe68f53f	-0.22749804
72	0x3f826778	1.0187826
73	0x3ed41a6c	0.41426408
74	0x3ed3b38f	0.4134793
75	0x3edb44d4	0.4282595
76	0xbe1a478f	-0.1506636
77	0x3f26fa68	0.6522584
78	0x3eac3d02	0.33640295
79	0xbdf08e8d	-0.117459394
80	0x3f0b5e17	0.54440445
81	0xbea4d0d7	-0.32190582
82	0x3f7fa5c6	0.99862325
83	0x3e9de14a	0.30835944
84	0x3db3e7da	0.087844566
85	0xbeb08e4b	-0.3448356
86	0x3d8ecae7	0.06972294
87	0xbf605793	-0.8763363
88	0xbe8b7d78	-0.27244163
89	0x3e844430	0.25833273
90	0xbebaf697	-0.36516258
91	0x3e0ae5e8	0.13564265
92	0xbf4d4680	-0.801857
93	0xbe2ae881	-0.16690256
94	0xbe67749f	-0.22603081
95	0xbed902e7	-0.42385027
96	0x3e6bed90	0.23039842
97	0x3db31c93	0.087456845
98	0x3ee045d2	0.4380327
99	0xbe3f38bb	-0.18673985
100	0x3e6d37aa	0.23165765
101	0xbe07c35c	-0.13258117
102	0x3f153014	0.58276486
103	0x3eac6306	0.336693
104	0xbe8ff3fe	-0.2811584
105	0x3d53aaae	0.051676445
106	0x3d6ba9fc	0.057535157
107	0x3f496327	0.7866692
108	0x3e0d84c9	0.13820185
109	0xbd3d6fd3	-0.046249222
110	0x3ec33654	0.38127387
111	0xbe8f0205	-0.27931228
112	0x3f61f53d	0.8826483
113	0x3ead1a86	0.33809298
114	0xbe56bb2d	-0.2096984
115	0x3be3699e	0.006940081
116	0xbe8f8641	-0.28032115
117	0xbea61b98	-0.32442927
118	0xbe512f07	-0.20428096
119	0x3e9d0373	0.30666694
120	0xbe1b49e4	-0.15164906
121	0x3de6e813	0.112747334
122	0x3f0896f0	0.5335531
123	0x3f27fa8f	0.656167
124	0xbe3eb046	-0.1862193
125	0x3f22b2e2	0.63554204
126	0xbef9c907	-0.48786184
127	0x3f6003b9	0.8750568
128	0x3ee9254d	0.4553627
129	0xbdd8cc30	-0.10585821
130	0xbe884047	-0.2661154
131	0x3e18b377	0.1491221
132	0xbf5df345	-0.86699325
133	0xbdcbebb1	-0.09957064
134	0xbe47442d	-0.19459601
135	0xbe430d37	-0.1904801
136	0x3e8e535d	0.27797976
137	0xbe8a2e11	-0.2698827
138	0xbe59bdc4	-0.21263796
139	0xbe4267f8	-0.18984973
140	0xbe3da98b	-0.18521707
141	0x3e8e067d	0.27739325
142	0xbf6ff693	-0.9373562
143	0xbebb4935	-0.3657929
144	0x3c65c129	0.014023104
145	0x3e942fe4	0.28942788
146	0xbec11528	-0.37711453
147	0x3f0c2ff8	0.54760695
148	0x3e3b3aaa	0.18284097
149	0xbe44794c	-0.19186896
150	0x3e995eec	0.29955232
151	0xbe9265be	-0.28593248
152	0x3f3f5229	0.7473474
153	0x3ea4d23c	0.32191646
154	0xbe4b5375	-0.19856055
155	0xbbfe23a5	-0.007755714
156	0x3d3721b5	0.04470988
157	0x3f28961a	0.65854037
158	0x3e896294	0.26833022
159	0xbdadbd0e	-0.08483325
160	0x3c7b4eb4	0.0153385885
161	0xbd01d1ab	-0.031694096
162	0x3f61ee8f	0.88254637
163	0x3ea45fed	0.32104436
164	0x3e037215	0.12836488
165	0xbe871082	-0.26379782
166	0x3de88b24	0.11354664
167	0xbf39c03d	-0.7255896
168	0xbec988dd	-0.3936223
169	0x3d7c306d	0.06156962
170	0x3cfe5e13	0.031050717
171	0x3da3944d	0.079872705
172	0x3f3a3e6d	0.72751504
173	0x3e663d0d	0.22484227
174	0xbe0fb779	-0.14034833
175	0x3f2b2b85	0.6686328
176	0xbea13d8c	-0.3149227
177	0x3f6c9a65	0.9242309
178	0x3ec7668a	0.3894542
179	0x3dbd7021	0.092499025
180	0xbe2e4b04	-0.17020804
181	0x3e0736d7	0.13204513
182	0xbf1bde7a	-0.6088635
183	0xbec310dc	-0.380988
184	0xbe83853c	-0.25687587
185	0xbeae7005	-0.3406984
186	0x3eb12663	0.345996
187	0x3e07cc6c	0.13261575
188	0x3e8a2420	0.26980686
189	0xbed91fb9	-0.42407015
190	0xbe465428	-0.1936804
191	0x3dcafff1	0.09912098
192	0xbf0eb881	-0.5575028
193	0xbddbb211	-0.10727323
194	0x3e662361	0.22474433
195	0xbe6cdf6d	-0.23132105
196	0x3d3d0c0c	0.046154067
197	0xbf2e46c1	-0.6807671
198	0xbda3b7b7	-0.07994025
199	0xbe943ffd	-0.2895507
200	0xbea23e59	-0.31688192
201	0x3e864fdf	0.26232812
202	0xbe02a965	-0.12759931
203	0x3e872597	0.26395866
204	0xbe94eccd	-0.29086915
205	0x3f0ba3da	0.5454689
206	0xbf03d66a	-0.51499045
207	0x3f5ba185	0.85793334
208	0x3e98ecf9	0.29868296
209	0xbe264692	-0.16237858
210	0xbed3df7c	-0.41381443
211	0x3e53e104	0.20691305
212	0xbf70c002	-0.9404298
213	0xbeebad45	-0.46030632
214	0x3ed8ad48	0.42319703
215	0xbe888fc7	-0.26672193
216	0x3ded44c9	0.11585385
217	0xbf134250	-0.5752306
218	0xbe36a045	-0.17834575
219	0xbe54a956	-0.20767722
220	0xbe4b1a9d	-0.19834371
221	0x3e41c206	0.1892167
222	0xbf56f706	-0.8397068
223	0x3bcee692	0.006314107
224	0xbdd1ba03	-0.10240557
225	0xbe74333d	-0.23847671
226	0x3db64fc3	0.08901932
227	0x3f38325c	0.7195184
228	0x3df2b410	0.118507504
229	0x3e079f5e	0.13244388
230	0xbe9deb50	-0.30843592
231	0xba1188d3	-0.00055516994
232	0xbf6b69ae	-0.9195813
233	0x3dcbafdd	0.09945653
234	0xbe6abeaa	-0.22924295
235	0x3d892a3a	0.06697507
236	0x3e8e5b44	0.27804005
237	0x3f47881a	0.7794205
238	0x3e84d3d7	0.2594287
239	0xbe90e7e9	-0.28301933
240	0xbe86ab48	-0.26302552
241	0x3deb0069	0.114746876
242	0xbf40d9e7	-0.7533249
243	0xbe479846	-0.19491681
244	0xbe9bf67e	-0.30461496
245	0x3ea7356d	0.32657948
246	0xbec49dce	-0.38401645
247	0x3f2a637f	0.6655807
248	0x3ec3ab1c	0.38216484
249	0xbeb558d6	-0.3541934
250	0x3e92e17c	0.28687656
251	0xbe5eb5ad	-0.21748991
252	0x3f3378fe	0.70106494
253	0x3eb94041	0.36181834
254	0xbe57d1c8	-0.21076119
255	0xbe3c6c77	-0.18400751

lstm.weight_hh_l0 f4 [256, 64]
0	0xbdfe57dc	-0.124191016
1	0xbc69d330	-0.014271542
2	0x3d6f3d18	0.058407873
3	0xbda6de24	-0.08147839
4	0xbdb4f898	-0.08836478
5	0x3d839e20	0.06426644
6	0x3dd19d3c	0.10235068
7	0x3d8cf63a	0.068829015
8	0x3d98474a	0.07435472
9	0x3d15ccb8	0.03657219
10	0xbdecd924	-0.11564854
11	0xbd7c42f4	-0.06158729
12	0x3dd5840e	0.10425578
13	0xbdfa70dc	-0.122285575
14	0xbd8c4040	-0.06848192
15	0x3dd633d2	0.10459103
16	0x3df7bf1a	0.120969966
17	0x3dde658e	0.10859214
18	0x3dbeca92	0.09315981
19	0xbcdb7b30	-0.026792139
20	0xbd64f99c	-0.05590211
21	0xbd769d30	-0.0602085
22	0x3d464b28	0.04841152
23	0xbde2bde8	-0.11071378
24	0x3d9a529c	0.07535288
25	0xbd86c2da	-0.06580134
26	0x3d519e70	0.05117649
27	0x3a060900	0.00051130354
28	0xbde37738	-0.111067235
29	0x3c6dfd00	0.014525652
30	0xbde5e2b6	-0.11224882
31	0xbcb9a588	-0.02266194
32	0xbd921dd0	-0.071345925
33	0x3ded3686	0.11582665
34	0xbdedbe56	-0.11608569
35	0xbc439440	-0.011937201
36	0x3c875f90	0.01652506
37	0xbdb386d2	-0.08765949
38	0xbbc4ef40	-0.006009966
39	0xbaf1cc80	-0.0018447787
40	0x3d41b130	0.04728812
41	0x3da2d41c	0.07950613
42	0xbd465b94	-0.04842718
43	0xbc253bb0	-0.010085031
44	0xbde53f60	-0.111937284
45	0xbd7197a4	-0.058982506
46	0xbd1f5fb4	-0.03890963
47	0x3de3097a	0.11085792
48	0xbd8770fc	-0.06613347
49	0xbdf88e5c	-0.12136528
50	0xbdbfb594	-0.09360805
51	0xbcc3fcf0	-0.023924321
52	0x3c694b20	0.014239103
53	0xbd178c54	-0.03699906
54	0x3d6871dc	0.05674921
55	0x3c9e2138	0.01930295
56	0x3ddc3dc6	0.1075397
57	0x3ddad7d6	0.10685699
58	0x3d4395b4	0.04775019
59	0x3c39cc00	0.011340141
60	0x3ce55990	0.027996808
61	0x3dd30b4e	0.103048906
62	0x3c8e5568	0.01737471
63	0xbada7600	-0.0016667247
64	0x3c022890	0.007944241
65	0x3ae1bd00	0.0017222464
66	0x3c5e2990	0.013559714
67	0xbdc48b38	-0.09596866
68	0xbdaeb644	-0.08530858
69	0xbd13a924	-0.036049977
70	0xbdd463a2	-0.10370566
71	0xbd9972ee	-0.07492624
72	0xbcb83270	-0.022484988
73	0xbdd6d0d0	-0.104890466
74	0xbd6c3c80	-0.057674885
75	0x3d181668	0.037130743
76	0x3cf56b18	0.029958293
77	0xbdf2616c	-0.11834988
78	0x3c18fe00	0.009337902
79	0xbc18c160	-0.009323448
80	0x3dc02d3a	0.09383626
81	0xbde5d204	-0.11221698
82	0xbd325d94	-0.043546274
83	0x3dc5251c	0.09626219
84	0x3cdf7a40	0.027279973
85	0xbded9892	-0.11601366
86	0x3d0e5ec4	0.034758344
87	0xbdb2f2e0	-0.08737731
88	0xbd93214e	-0.07184087
89	0xbd9011e0	-0.070346594
90	0x3deb3644	0.1148496
91	0x3d75a0ec	0.05996792
92	0xbd8dd83c	-0.06926009
93	0x3cb67c98	0.022276208
94	0xbd9e2f56	-0.07723872
95	0xbdad2564	-0.08454397
96	0x3d87c012	0.066284314
97	0x3dd15e4a	0.10223062
98	0x3b2d0b80	0.002640456
99	0x3def14b6	0.11673872
100	0xbdd55178	-0.104159296
101	0xbdeff00a	-0.11715706
102	0xbd99cb62	-0.07509495
103	0x3d2df05c	0.042465553
104	0xbda8eab0	-0.08247888
105	0x3dc3967a	0.095501855
106	0xbd84fd98	-0.06493682
107	0xbd807252	-0.06271805
108	0xbdefa9e8	-0.11702329
109	0xbdfa6b12	-0.12227453
110	0xbde0c280	-0.10974598
111	0x3d2c49d4	0.042062595
112	0xbd7db428	-0.06193939
113	0x3d475f9c	0.048675165
114	0x3c188390	0.009308711
115	0x3cc633a0	0.024194539
116	0x3d27f678	0.041006535
117	0x3be93c60	0.007117793
118	0x3db0e92c	0.08638224
119	0xbdaebc90	-0.08532059
120	0xbdfba6d2	-0.12287678
121	0x3dc96e3c	0.09835479
122	0x3d093750	0.033500016
123	0x3daf3fc8	0.08557087
124	0x3ded7116	0.11593835
125	0xbde44154	-0.11145273
126	0xbdc1435a	-0.094366744
127	0xbdf080a0	-0.11743283
128	0x3d3e9f10	0.046538413
129	0x3cb238e8	0.02175565
130	0xbdab6cfa	-0.08370395
131	0xbdeb949e	-0.11502956
132	0xbd9e8450	-0.0774008
133	0x3d3f2ddc	0.046674594
134	0xbd9fb9c0	-0.07799101
135	0x3debdd78	0.11516851
136	0xbd90cd22	-0.07070376
137	0x3c0a7970	0.0084518045
138	0xbcbd4ea8	-0.023108795
139	0x3de5f690	0.11228669
140	0x3d7b3d50	0.06133777
141	0xbc8c4ba0	-0.017125905
142	0xbcea8a30	-0.028630346
143	0xbd1ffc0c	-0.03905873
144	0xbddf6dce	-0.109096155
145	0xbd354ee0	-0.044264674
146	0x3df76190	0.120791554
147	0x3dc7b2d2	0.09750904
148	0x3d915cd0	0.07097781
149	0xbd098548	-0.033574373
150	0x3da0e3e0	0.07855964
151	0xbdc68c7a	-0.096947625
152	0xbdcbcdc4	-0.09951356
153	0x3d3c5eec	0.045988962
154	0x3d8fd974	0.07023898
155	0xbd99e1fa	-0.07513805
156	0x3cf452b0	0.029824585
157	0xbd9672aa	-0.07346089
158	0x3d5d0450	0.05395919
159	0xbd926414	-0.07147995
160	0xbdaf73e6	-0.08567028
161	0x3d95fefc	0.07324025
162	0xbd560ec4	-0.052260175
163	0xbd04bc80	-0.03240633
164	0xbddb1872	-0.10698022
165	0x3daa202c	0.083069175
166	0x3cf45190	0.029824048
167	0x3d7fc420	0.0624429
168	0x3d4ff814	0.050773695
169	0x3b31b2c0	0.00271146
170	0xbde13edc	-0.109983176
171	0xbd3f4260	-0.04669416
172	0x3d17fb1c	0.03710471
173	0x3d8c1b32	0.068411246
174	0xbdbcb108	-0.092134535
175	0xbd80d912	-0.06291403
176	0x3dcc78b4	0.0998396
177	0x3dcc797e	0.0998411
178	0xbdeaede6	-0.11471157
179	0xbc80e688	-0.015734926
180	0xbd78059c	-0.060552225
181	0xbca170f8	-0.019707188
182	0x3d15766c	0.03648989
183	0xbda056e4	-0.07829073
184	0xbd655c48	-0.05599621
185	0x3dfe4b5c	0.124167174
186	0x3c1eb660	0.009687036
187	0x3c6c2550	0.014413193
188	0x3d9e0b6e	0.07717024
189	0x3d79ba08	0.06096843
190	0xbd87e820	-0.06636071
191	0xbda109ba	-0.07863183
192	0xbd42f4c0	-0.047596693
193	0xbc9dda30	-0.019269079
194	0xbd91a0fa	-0.07110782
195	0xbdb9ee5a	-0.09078665
196	0xbc321970	-0.010870323
197	0xbd00d808	-0.031456023
198	0x3df25d20	0.118341684
199	0xbddf4130	-0.109011054
200	0xbdf6ec5a	-0.12056799
201	0x3c019d10	0.007910982
202	0x3d67c80c	0.056587264
203	0x3d3ad718	0.045615286
204	0x3ddb62ca	0.10712202
205	0xbcba5350	-0.022744805
206	0x3ccf50a8	0.025307015
207	0x3d65ddfc	0.056119904
208	0x3d4bdf70	0.049773633
209	0x3dbf5286	0.09341912
210	0xbdee1abc	-0.11626193
211	0x3b47a280	0.0030461848
212	0x3d66a470	0.056309164
213	0x3cc19110	0.023628742
214	0x3c378d80	0.01120317
215	0xbd69b640	-0.057058573
216	0xbda2bbf8	-0.079460084
217	0xbc900968	-0.01758261
218	0xbda9e6a4	-0.08295944
219	0xbcf3e768	-0.029773429
220	0xbd0c801c	-0.034301862
221	0x3cc0ad50	0.023520142
222	0x3d8ca3a0	0.068671465
223	0xbd028c28	-0.031871945
224	0xbca90ba8	-0.020635441
225	0xbd86fcea	-0.06591208
226	0xbd8e90d2	-0.06961216
227	0xbdb446fe	-0.08802603
228	0xbd30f340	-0.04320073
229	0x3db750cc	0.08950958
230	0xbca0c520	-0.019625247
231	0x3dbaa3b6	0.09113257
232	0x3d80201e	0.06256126
233	0x3d854d98	0.065089405
234	0xbd6a92bc	-0.057268843
235	0x3d77fedc	0.060545787
236	0x3d4a2a84	0.049356952
237	0x3d246b28	0.040141255
238	0xbdb2b4d2	-0.08725895
239	0xbd943bd6	-0.07237975
240	0xbda41db8	-0.08013481
241	0xbdfd2f6e	-0.12362562
242	0x3d56e6b0	0.052466094
243	0x3cddb760	0.02706498
244	0xbda57436	-0.08078806
245	0x3c26fdf0	0.010192379
246	0xbcd97570	-0.026545256
247	0x3dab19fe	0.08354567
248	0x3d795334	0.060870364
249	0x3da0a42e	0.07843815
250	0x3dba9e06	0.09112172
251	0xbca83840	-0.020534635
252	0x3df5a312	0.11993994
253	0xbdb5477a	-0.08851524
254	0xbdd3fc58	-0.10350865
255	0xbd6f3e18	-0.058408827

lstm.bias_ih_l0 f4 [256]
0	0x3eb9a8c1	0.36261562
1	0x3f0523e4	0.5200789
2	0x3ef67aa6	0.48140448
3	0x3ea0e1da	0.3142231
4	0x3ed82d51	0.42222074
5	0x3ec5e652	0.38652283
6	0x3eab4b3a	0.3345583
7	0x3ed7316a	0.42029887
8	0x3ec094a5	0.37613407
9	0x3ed1be50	0.4096551
10	0x3ed78621	0.4209452
11	0x3e92d266	0.28676146
12	0x3ebca533	0.36844787
13	0x3ece80db	0.40332684
14	0x3f00e438	0.50348234
15	0x3ea3ae50	0.31968927
16	0x3f00964e	0.50229347
17	0x3ec16515	0.37772432
18	0x3ef301a3	0.47462186
19	0x3e967fe2	0.29394442
20	0x3ebec141	0.37256816
21	0x3ea7ba95	0.32759538
22	0x3eb32b50	0.34993982
23	0x3e4ad117	0.19806324
24	0x3f09ff16	0.53904855
25	0x3ede995e	0.43476385
26	0x3ea34e90	0.31895876
27	0x3e85995b	0.26093563
28	0x3ec17e0a	0.37791473
29	0x3ec5a732	0.38604122
30	0x3ee3874d	0.44439164
31	0x3eb7cc0b	0.3589786
32	0x3f04f539	0.5193668
33	0x3ea0d4a3	0.3141223
34	0x3ec2e36b	0.3806413
35	0x3edd8726	0.43267173
36	0x3e4c6b4b	0.19962804
37	0x3ec13277	0.37733814
38	0x3da48d36	0.08034746
39	0x3e88b6e8	0.26702046
40	0x3e8a380b	0.26995882
41	0x3ec1d44b	0.3785728
42	0x3e8fea63	0.2810851
43	0x3e240593	0.16017751
44	0x3ee61143	0.44935045
45	0x3e965343	0.293604
46	0x3ece8d30	0.40342093
47	0x3edd8438	0.43264937
48	0x3ea8f66b	0.33000502
49	0x3e94204c	0.2893089
50	0x3ea4e482	0.32205588
51	0x3eab4655	0.33452097
52	0x3eaaa7fa	0.3333128
53	0x3ea1624c	0.31520307
54	0x3ed18491	0.40921453
55	0x3eab7035	0.33484045
56	0x3eb8a612	0.36064202
57	0x3e56b5e1	0.20967819
58	0x3e1e223d	0.15442748
59	0x3e9e8eb2	0.30968243
60	0x3ee06bab	0.43832144
61	0x3e8c7ebd	0.27440444
62	0x3eaaeccb	0.33383784
63	0x3ed6a163	0.41920003
64	0xbc997678	-0.018733248
65	0xbc866ce0	-0.016409338
66	0xbdd1d994	-0.10246578
67	0xbdcc0e6c	-0.09963688
68	0xbd458494	-0.04822214
69	0xbdf78ab2	-0.12087001
70	0xbd6db108	-0.05803016
71	0x3dad4c12	0.08461775
72	0xbd4dbab8	-0.050226897
73	0x3dd7b98e	0.105334386
74	0x3ddb3fc8	0.10705525
75	0xbde4af3e	-0.11166237
76	0xbbae3360	-0.005316183
77	0x3b98fcc0	0.004668802
78	0x3dce13e2	0.10062386
79	0x3def7ce8	0.11693746
80	0x3da70484	0.08155158
81	0xbdb3e36c	-0.08783612
82	0xbd9ff178	-0.078097284
83	0xbb8a3360	-0.00421755
84	0xbda2d7e0	-0.07951331
85	0xbdb33f48	-0.08752304
86	0xbda90d48	-0.08254486
87	0xbdf180a0	-0.117921114
88	0xbdac4a5a	-0.08412619
89	0x3dfbdbc0	0.12297773
90	0xbc2bb620	-0.010480434
91	0x3c0fd7a0	0.008779436
92	0x3d8a5024	0.06753567
93	0xbd8dd3d4	-0.06925169
94	0x3de12e42	0.10995151
95	0x3d8bbe30	0.06823385
96	0x3dd361f0	0.103214145
97	0x3d95148c	0.0727931
98	0xbc3730c0	-0.0111810565
99	0xbc5232b0	-0.012829468
100	0x3cefec10	0.029287368
101	0x3dc6c21c	0.09704992
102	0xbdd0038e	-0.10156928
103	0x3dfd6b9e	0.12374042
104	0xbdb81b7e	-0.08989619
105	0xbd2260f4	-0.039643243
106	0x3d6defbc	0.058089957
107	0x3d240214	0.040041044
108	0xbc9ad330	-0.01889953
109	0xbdccf42a	-0.10007508
110	0xbcfba488	-0.030718103
111	0x3ca82888	0.02052714
112	0x3d70f428	0.058826596
113	0xbd557954	-0.05211766
114	0xbdfd420a	-0.123661116
115	0xbcbd9278	-0.02314113
116	0x3d855bc4	0.065116435
117	0x3a5b7e00	0.00083729625
118	0xbd86be5a	-0.065792754
119	0x3da0645a	0.078316405
120	0x3d684270	0.056703985
121	0x3d503864	0.05083503
122	0x3da4a278	0.08038801
123	0xbcea7620	-0.02862078
124	0xbdf61fd6	-0.12017791
125	0x3d267c50	0.040645897
126	0x3d9695b0	0.073527694
127	0x3dc0e3f4	0.094184786
128	0x3de5802c	0.112060875
129	0x3e3a9a44	0.1822291
130	0x3d32c677	0.043646302
131	0x3d4e597e	0.050378315
132	0xbcec04a8	-0.028810814
133	0x3c22a916	0.009928009
134	0x3d874649	0.06605203
135	0x3c41b003	0.01182175
136	0xbd841198	-0.06448668
137	0xbd923fbb	-0.07141062
138	0xbb4f6eef	-0.0031651815
139	0xbcf6381d	-0.030056054
140	0x3d3409db	0.04395471
141	0x3dd5e462	0.10443951
142	0xbda8968e	-0.08231841
143	0x3e0ec2ec	0.13941544
144	0xbd1c6fa3	-0.038192403
145	0x3db51a30	0.088428855
146	0x3e070bbf	0.13188075
147	0x3e151582	0.14558986
148	0x3e0463a1	0.1292863
149	0xbe3b8268	-0.18311465
150	0xbdf15386	-0.11783509
151	0xbd0e0158	-0.03466925
152	0x3e0ef2e7	0.13959847
153	0xbca25e96	-0.019820493
154	0xbdfb4404	-0.12268832
155	0x3e915233	0.28383026
156	0x3e366a0c	0.17813891
157	0x3e08b312	0.1334956
158	0xbc905edb	-0.017623356
159	0xbe04d9ea	-0.12973753
160	0xbdd8c44b	-0.10584315
161	0xbe31529b	-0.17316668
162	0x3daeb8f9	0.085313745
163	0xbe127f06	-0.14306268
164	0xbe229287	-0.15876208
165	0x3e277caa	0.1635615
166	0x3a54cab8	0.00081173657
167	0xbe480403	-0.1953278
168	0x3e117213	0.14203672
169	0x3de03ae9	0.10948736
170	0xbda1b8c6	-0.07896571
171	0xbe0fcc8c	-0.14042872
172	0x3dd8f039	0.10592694
173	0x3e102f53	0.14080553
174	0xbdf3953a	-0.11893697
175	0x3e1549e0	0.14578962
176	0x3dea74c9	0.11448056
177	0xbd4815aa	-0.048848785
178	0x3dca932c	0.09891352
179	0xbcbfba84	-0.023404367
180	0xbdfbcc3a	-0.122948125
181	0xbc8b04a0	-0.016969979
182	0x3b0e5f80	0.0021724403
183	0xbded47c6	-0.11585955
184	0xbdcaf9e5	-0.09910945
185	0x3e2410fd	0.16022106
186	0xbe916209	-0.28395107
187	0x3e6a0340	0.22852802
188	0xbdf5a3c3	-0.11994126
189	0xbe10a96c	-0.1412713
190	0xbd9b02cf	-0.07568895
191	0x3d2e88b0	0.042610824
192	0x3ee76bf2	0.45199543
193	0x3f07861a	0.52939
194	0x3f19a9f3	0.60024947
195	0x3f0002b9	0.50004154
196	0x3f164cde	0.5871104
197	0x3f0f9152	0.56081116
198	0x3ede87cf	0.4346299
199	0x3efa1b19	0.488488
200	0x3ee8b727	0.45452234
201	0x3ea4ce63	0.3218871
202	0x3eb8134c	0.35952222
203	0x3ec4186a	0.38299876
204	0x3ed30add	0.41219226
205	0x3f21503c	0.6301305
206	0x3f03ced9	0.514875
207	0x3ef73e88	0.48289895
208	0x3f04be3a	0.5185276
209	0x3f06e7c3	0.5269739
210	0x3ebeaa4b	0.37239298
211	0x3e7f12d1	0.24909522
212	0x3e968d68	0.2940476
213	0x3f003343	0.5007822
214	0x3ee2c1a2	0.44288355
215	0x3d49be05	0.049253482
216	0x3f1605fd	0.5860289
217	0x3edecd87	0.4351618
218	0x3f0f3c65	0.5595153
219	0x3e90349a	0.28165132
220	0x3ee9e176	0.45679826
221	0x3eab227f	0.33424756
222	0x3ee34f9f	0.44396684
223	0x3eef8370	0.46779966
224	0x3ef6c56d	0.481975
225	0x3ec59eab	0.38597617
226	0x3e746cc6	0.23869619
227	0x3ed1f1f1	0.410049
228	0x3e33cdab	0.17558925
229	0x3e3a69cd	0.18204422
230	0x3e4a6b62	0.19767526
231	0x3eed07db	0.46295056
232	0x3e4f2eb1	0.20232655
233	0x3ed28cc5	0.41123024
234	0x3edf6e2b	0.4363874
235	0x3e83165c	0.25602996
236	0x3ee13ccb	0.43991694
237	0x3edee003	0.43530282
238	0x3f0fd3b9	0.5618244
239	0x3ee4a67f	0.44658276
240	0x3e4d48f3	0.20047359
241	0x3eaecdc3	0.3414136
242	0x3ede1421	0.43374732
243	0x3ebb5d73	0.36594734
244	0x3ed8225b	0.4221371
245	0x3ebc8950	0.3682351
246	0x3eeb1db5	0.45921102
247	0x3ec67cf1	0.38767198
248	0x3eeb6ab9	0.4597986
249	0x3ec042d2	0.3755098
250	0x3e9f2966	0.31086272
251	0x3ee85623	0.45378217
252	0x3ee3e962	0.44513994
253	0x3e9f26fd	0.31084433
254	0x3eabbae0	0.33541012
255	0x3e8ecdf4	0.27891505

lstm.bias_hh_l0 f4 [256]
0	0x3ed6bd22	0.41941172
1	0x3f10e9eb	0.5660693
2	0x3f013dd0	0.50484943
3	0x3ee5615f	0.4480085
4	0x3ef6bda7	0.48191568
5	0x3ef3c0fa	0.47608167
6	0x3e52b99e	0.2057862
7	0x3ea71501	0.32633212
8	0x3eba81d1	0.36427167
9	0x3eaba1a5	0.33521762
10	0x3f00737d	0.5017622
11	0x3e667648	0.22506058
12	0x3eba8b20	0.3643427
13	0x3ef6e768	0.48223424
14	0x3e9472f5	0.28993955
15	0x3ea3183f	0.31854436
16	0x3ebefe5f	0.37303445
17	0x3ef5a586	0.47977847
18	0x3ef31a34	0.4748093
19	0x3e56e189	0.20984472
20	0x3ea63353	0.32461032
21	0x3ee4eba2	0.44711024
22	0x3ec11003	0.37707528
23	0x3d791121	0.06080735
24	0x3ee62c03	0.44955453
25	0x3eee9a17	0.46601936
26	0x3ee09f18	0.4387138
27	0x3e8e7f84	0.27831662
28	0x3e51ecd4	0.20500499
29	0x3e61c9d9	0.22049655
30	0x3ed02044	0.40649617
31	0x3eccd9e5	0.4000999
32	0x3f03c168	0.5146699
33	0x3ea6de4f	0.32591483
34	0x3ebcac95	0.3685042
35	0x3ed88550	0.4228921
36	0x3e42dfd0	0.1903069
37	0x3eb71ff0	0.35766554
38	0x3e1ed3c8	0.15510476
39	0x3eeeb0e1	0.46619323
40	0x3e6d43fc	0.23170465
41	0x3ec70644	0.38871968
42	0x3ebb113e	0.36536592
43	0x3e5de4df	0.21669339
44	0x3ecf282b	0.40460333
45	0x3e4fe05b	0.20300429
46	0x3ecd11dd	0.4005269
47	0x3ef840f9	0.4848707
48	0x3e4a048b	0.19728296
49	0x3ebfc84b	0.374575
50	0x3ed8f905	0.42377487
51	0x3ec7067e	0.3887214
52	0x3eeeeecf	0.46666571
53	0x3ec78699	0.38969877
54	0x3e86d160	0.26331615
55	0x3e88494b	0.26618418
56	0x3ef448e1	0.47711852
57	0x3eaabaf5	0.33345762
58	0x3d951738	0.07279819
59	0x3eb3f366	0.35146636
60	0x3e85dec2	0.26146513
61	0x3eb02cfd	0.34409323
62	0x3eb8f569	0.36124733
63	0x3ed86ce6	0.42270583
64	0xbd613c24	-0.054988995
65	0x3da276f2	0.07932843
66	0xbdb3a7ac	-0.08772215
67	0x3dc7cca4	0.09755829
68	0xbdd281c4	-0.10278657
69	0xbdd0e8d8	-0.102006614
70	0x3d46dd3c	0.04855083
71	0xbb4bca80	-0.0031096041
72	0xbde3e688	-0.11127955
73	0xbdfcf198	-0.12350768
74	0xbce24ea8	-0.027625397
75	0x3dabd164	0.083895475
76	0x3cbf4388	0.023347631
77	0x3dc1225c	0.09430382
78	0x3db739be	0.0894656
79	0x3d43746c	0.04771845
80	0xbdc53d1a	-0.09630795
81	0x3dda5b90	0.106619954
82	0x3da260dc	0.07928631
83	0x3dea4f7e	0.11440943
84	0xbdd415ee	-0.10355745
85	0x3de4c78a	0.111708716
86	0xbda03354	-0.0782229
87	0x3c135370	0.008992061
88	0xbd59e1b8	-0.053193778
89	0xbd4361f4	-0.047700837
90	0xbdc10bee	-0.094261035
91	0x3d30ce18	0.043165296
92	0xbd848c76	-0.06472103
93	0xbd2212e4	-0.039568797
94	0x3d821e94	0.063534886
95	0xbd2f5b5c	-0.042811736
96	0x3de1b744	0.11021283
97	0x3dbb4f74	0.09146014
98	0xbd87e364	-0.06635168
99	0xbdb3d488	-0.087807715
100	0xba930280	-0.0011215955
101	0xbd5cc314	-0.05389698
102	0x3cf4f888	0.029903665
103	0x3d91a0de	0.07110761
104	0x3dab3424	0.083595544
105	0x3df8dd5a	0.121515945
106	0x3d3d41dc	0.046205387
107	0xbd846b92	-0.0646583
108	0xbdfb3364	-0.12265661
109	0xbcfff548	-0.031244889
110	0x3db533de	0.088477835
111	0xbddfe3bc	-0.10932109
112	0xbc63dda0	-0.01390782
113	0x3d166070	0.036713064
114	0xbda2ef40	-0.079557896
115	0x3bebbc20	0.007194057
116	0x3cb631c0	0.02224052
117	0xbd8d5aec	-0.069021076
118	0xbda26fcc	-0.0793148
119	0xbdfcc424	-0.12342098
120	0xbd453c44	-0.048153177
121	0xbd89098e	-0.066912755
122	0xbd9b5edc	-0.07586452
123	0xbdab0446	-0.083504245
124	0xbc6cb5b0	-0.014447615
125	0xbdad4b98	-0.08461684
126	0xbd651e60	-0.05593717
127	0xbd9b28dc	-0.07576153
128	0x3e382a31	0.17984845
129	0x3d02eb7e	0.031962864
130	0xbe01c8f0	-0.12674308
131	0x3d8828df	0.066484205
132	0x3d862f53	0.06551995
133	0xbca126de	-0.019671854
134	0x3d76ee7b	0.060286026
135	0xbbceb5e2	-0.006308303
136	0xbd7bf6e7	-0.06151476
137	0xbe382d90	-0.1798613
138	0x3c8f1272	0.01746485
139	0xbe02baf1	-0.12766625
140	0x3e2101a5	0.15723284
141	0xbe066aa8	-0.13126624
142	0xbdd97d44	-0.10619596
143	0x3dbd55eb	0.09244903
144	0xbd286302	-0.041110046
145	0xbbf7edc1	-0.0075661843
146	0x3e3a8b6a	0.18217245
147	0x3dac4b34	0.08412781
148	0x3e1cd4d5	0.15315564
149	0xbd179267	-0.037004855
150	0x3c5929f5	0.013254632
151	0x3d1d6695	0.038427908
152	0x3e1cd105	0.1531411
153	0x3b3dc6d5	0.0028957624
154	0xbd82030f	-0.0634824
155	0x3e8ce7bc	0.2752055
156	0x3cc17ed0	0.02362004
157	0xbd561920	-0.052270055
158	0x3e19be40	0.15013981
159	0xbe00d673	-0.12581806
160	0x3d305f12	0.043059416
161	0x3d4fbe91	0.050718848
162	0x3e4df2a9	0.20112099
163	0x3d922829	0.07136566
164	0xbe5b2e2f	-0.21404336
165	0x3dc558d7	0.096360855
166	0xbe50f07a	-0.20404235
167	0xbd67b98e	-0.056573443
168	0x3e3431c9	0.17597117
169	0xbe03e158	-0.1287893
170	0xbbda932e	-0.006670377
171	0xbe443f94	-0.19164878
172	0x3e00024f	0.1250088
173	0x3db4421f	0.08801674
174	0xbe2acf92	-0.16680744
175	0x3e1d67ef	0.15371679
176	0x3e627da4	0.2211824
177	0xbdc90407	-0.09815221
178	0xbb94a4e4	-0.004536258
179	0x3d081759	0.03322539
180	0xbe1991ca	-0.1499702
181	0x3db95223	0.090488695
182	0xbdd24a47	-0.102680735
183	0xbe005815	-0.125336
184	0xbdc8d137	-0.098055296
185	0x3d4d4e9e	0.050123803
186	0xbe6c0aed	-0.23051043
187	0x3c8260db	0.015915325
188	0xbdfd6b5a	-0.12373991
189	0xbe10872f	-0.14114068
190	0xbd8520a0	-0.06500363
191	0x3d5dca63	0.05414809
192	0x3eaf43b4	0.3423134
193	0x3ef7750b	0.48331484
194	0x3ef589ba	0.4795664
195	0x3ee66f9f	0.45007035
196	0x3eb9dc52	0.36300904
197	0x3ee1c659	0.4409664
198	0x3e98bac4	0.2982999
199	0x3ee941db	0.45558056
200	0x3ecb69ca	0.39729148
201	0x3edad1bf	0.4273815
202	0x3eaf091c	0.34186637
203	0x3ec84e09	0.39122036
204	0x3e5c997f	0.21542929
205	0x3f0af1fe	0.542755
206	0x3ea2ec0c	0.31820714
207	0x3ee374fe	0.44425195
208	0x3f1cd6bd	0.61265165
209	0x3ef0d321	0.4703608
210	0x3ebeb8ba	0.3725031
211	0x3e8e85f0	0.2783656
212	0x3e57c14b	0.21069829
213	0x3ebea588	0.37235665
214	0x3e90e8d4	0.28302634
215	0x3de5301b	0.11190816
216	0x3ed77219	0.42079237
217	0x3f094bc1	0.53631216
218	0x3ebb7859	0.36615255
219	0x3e806bd2	0.2508226
220	0x3e9fd1ff	0.31214902
221	0x3eb13296	0.34608907
222	0x3edeb312	0.43495995
223	0x3ebff33d	0.37490264
224	0x3f0a7690	0.5408716
225	0x3ed099e6	0.40742415
226	0x3e9734e3	0.29532537
227	0x3ee8d31c	0.45473564
228	0x3e435d1f	0.19078492
229	0x3e50efce	0.20403978
230	0x3e729d89	0.23692907
231	0x3edec0ae	0.43506378
232	0x3e9c8d26	0.30576438
233	0x3ec8cd0f	0.39218947
234	0x3ef55764	0.47918236
235	0x3e81f5bf	0.25382802
236	0x3ed1b493	0.4095808
237	0x3ed68579	0.41898707
238	0x3f20f6ae	0.62876403
239	0x3ea99563	0.33121786
240	0x3ee15d21	0.44016364
241	0x3e955b89	0.29171398
242	0x3ed80891	0.42194036
243	0x3ee4e96a	0.4470933
244	0x3edf230e	0.43581432
245	0x3ec367ba	0.38165075
246	0x3f04f291	0.51932627
247	0x3eb36ac4	0.35042393
248	0x3ea018c8	0.31268907
249	0x3e5ebb3c	0.21751112
250	0x3e4255cb	0.1897804
251	0x3ec1e159	0.3786724
252	0x3ea3bf08	0.31981683
253	0x3ed26a93	0.41096935
254	0x3eb8b25e	0.36073583
255	0x3ece0541	0.40238383

fc.weight f4 [1, 64]
0	0xbeb12565	-0.34598842
1	0xbedc1bba	-0.42989904
2	0x3f305018	0.68872213
3	0xbf0e5241	-0.5559426
4	0x3f14e321	0.5815907
5	0xbf3996fe	-0.7249602
6	0xbed6f806	-0.41986102
7	0xbf29deb3	-0.6635544
8	0x3f171fbd	0.59032804
9	0x3ec17f01	0.3779221
10	0xbf12fdfc	-0.574188
11	0x3ede9376	0.4347188
12	0x3f10741e	0.5642718
13	0x3f22cede	0.63596904
14	0xbedccc79	-0.4312475
15	0xbedcb885	-0.43109527
16	0xbf2dfef5	-0.6796716
17	0xbf14ac53	-0.58075446
18	0xbee39314	-0.4444815
19	0xbe8e31d8	-0.27772403
20	0xbec7aa8a	-0.38997298
21	0x3edb6121	0.4284754
22	0x3f0583a8	0.52154016
23	0xbe1efadf	-0.15525387
24	0xbebf7a0d	-0.37397805
25	0x3f32590c	0.69667125
26	0x3f211dc7	0.6293606
27	0xbe609b54	-0.21934253
28	0xbf119793	-0.5687191
29	0xbedfdb18	-0.43721843
30	0xbf0f21d1	-0.55910975
31	0x3ed08a91	0.40730718
32	0x3f0566c5	0.5210994
33	0x3ef248ba	0.4732111
34	0xbec8fd1b	-0.39255604
35	0xbf3801a0	-0.7187748
36	0x3ef76458	0.48318744
37	0xbe9a88a8	-0.30182385
38	0x3ea23b58	0.316859
39	0x3eea95be	0.4581737
40	0xbe9ee5ee	-0.31034797
41	0x3f16804b	0.5878951
42	0xbf31032d	-0.6914547
43	0x3ecb1e7a	0.3967169
44	0xbf0ac063	-0.5419981
45	0xbed2bf8a	-0.41161758
46	0x3eeb5d61	0.4596968
47	0xbebdba5e	-0.3705625
48	0xbeef99b6	-0.4679696
49	0x3f0593fb	0.52178925
50	0xbf01fdef	-0.50778097
51	0xbf172103	-0.59034747
52	0x3ebc413d	0.36768523
53	0xbf246f76	-0.64232576
54	0xbf1af01b	-0.6052262
55	0x3ebeb94e	0.3725075
56	0x3f069c30	0.52582073
57	0xbed47b21	-0.4150019
58	0x3e636e8b	0.22210138
59	0xbf1616a5	-0.586283
60	0xbf218d59	-0.63106304
61	0x3ead5bc9	0.3385909
62	0x3f02c6dc	0.51084685
63	0x3f204cf4	0.6261742

exp_avg f4 [256, 5]
0	0xb9593122	-0.00020713036
1	0x39377e81	0.00017499366
2	0xb94067a4	-0.00018349156
3	0x39b8f602	0.00035278505
4	0xb945874d	-0.00018837788
5	0xb97433d3	-0.0002328896
6	0x395fafa1	0.00021332364
7	0xb9483396	-0.00019092704
8	0x39c0d043	0.0003677626
9	0xb95c7be6	-0.0002102699
10	0xb9d1205b	-0.00039887693
11	0x39cd12bf	0.00039114614
12	0xb9a42e37	-0.0003131495
13	0x3a395391	0.00070696423
14	0xb9e30a0b	-0.00043304297
15	0x391512e5	0.00014216786
16	0x3717404f	9.015274e-06
17	0x3a0741ac	0.0005159627
18	0xb908fa30	-0.00013063173
19	0x384d2a88	4.891542e-05
20	0xb9eb6593	-0.00044898372
21	0x39e71417	0.00044074722
22	0xb9a61d67	-0.00031683894
23	0x3a57d4b7	0.0008233296
24	0xb9eef064	-0.00045574002
25	0x39140d2c	0.00014119287
26	0x38d208d9	0.00010015228
27	0x3a50865a	0.000795459
28	0xb7a12805	-1.9211331e-05
29	0xb828d32f	-4.0251e-05
30	0xb9a46a7a	-0.0003135985
31	0x3993861f	0.00028137953
32	0xb962140d	-0.00021560509
33	0x3a0e9ee6	0.0005440548
34	0xb98d4775	-0.00026946855
35	0x38b2bc5b	8.522785e-05
36	0x38fdda1c	0.00012104606
37	0x3a30260c	0.00067195366
38	0x38207f60	3.82656e-05
39	0xb8a0854a	-7.6542216e-05
40	0xb9d6e2e2	-0.00040986302
41	0x39cb5c4a	0.00038787938
42	0xb9b01959	-0.0003358822
43	0x3a3ca81b	0.00071966805
44	0xb9e26659	-0.00043182334
45	0xb959dfdb	-0.00020778125
46	0x39462ca8	0.00018899387
47	0xb92f50c6	-0.00016719391
48	0x39b10d4d	0.0003376998
49	0xb94694a7	-0.00018938129
50	0xb9cdd5d4	-0.0003925996
51	0x39c35541	0.00037256817
52	0xb983bc25	-0.00025126446
53	0x3a3f2156	0.0007291039
54	0xb9c8f0de	-0.00038326433
55	0xb9b8ea39	-0.00035269724
56	0x39a7fb01	0.00032039735
57	0xb97c0bd6	-0.00024037002
58	0x3a251ece	0.0006298841
59	0xb9a1c229	-0.00030852974
60	0xb9a4a517	-0.0003140352
61	0x39a38f18	0.00031196396
62	0xb9967115	-0.00028694482
63	0x3a0869a6	0.0005203731
64	0xb9ba657b	-0.00035552293
65	0xb9ffa380	-0.00048759207
66	0x39fbd321	0.00048031754
67	0xb9aa6fbc	-0.00032508175
68	0x3a731c47	0.0009273928
69	0xba06389d	-0.00051201304
70	0xb948d906	-0.00019154334
71	0x3946b04d	0.00018948429
72	0xb98f27ee	-0.00027304835
73	0x397dab7e	0.00024191846
74	0xb970c47b	-0.00022961378
75	0xb97b8844	-0.00023987988
76	0x3961c390	0.00021530525
77	0xb9819f1d	-0.00024723346
78	0x39a16baf	0.00030788544
79	0xb95869d4	-0.0002063879
80	0xba0c6337	-0.00053553603
81	0x3a0d1940	0.00053824857
82	0xb9dde62d	-0.000423239
83	0x3a86ab58	0.0010274453
84	0xba2189e9	-0.0006162213
85	0x38f89b56	0.00011854495
86	0x384e7b96	4.9229326e-05
87	0x3a1f15e2	0.00060686294
88	0xb80da809	-3.3773515e-05
89	0x3709b0cd	8.207001e-06
90	0x38e76199	0.00011033117
91	0xb839823f	-4.422874e-05
92	0x39a03603	0.0003055782
93	0xb91e669a	-0.00015106276
94	0x389151b2	6.929356e-05
95	0xb6620cf4	-3.3684164e-06
96	0x38169e51	3.591023e-05
97	0x38570a57	5.1269624e-05
98	0x3855945a	5.092132e-05
99	0xb78f0760	-1.7050363e-05
100	0xb91ca40e	-0.00014938434
101	0x38dda5dd	0.00010568996
102	0xb9795b59	-0.0002378052
103	0x3904d3b7	0.00012667371
104	0xb8d6b306	-0.00010237661
105	0xb990f579	-0.00027648712
106	0x39842310	0.00025203126
107	0xb9732d0e	-0.0002319107
108	0x39fe939c	0.00048556633
109	0xb98db91e	-0.0002703154
110	0xb99e98df	-0.00030250006
111	0x398c9f14	0.00026821403
112	0xb97e05da	-0.00024225508
113	0x3a044207	0.0005045239
114	0xb98a6c9c	-0.0002640233
115	0x3819defc	3.6685713e-05
116	0xb7e65ee9	-2.7462333e-05
117	0x381dbec5	3.7609385e-05
118	0xb8fd72c0	-0.00012085354
119	0x3807739d	3.229418e-05
120	0xb8e37ed5	-0.00010847828
121	0x38f50467	0.000116833304
122	0xb917b6c4	-0.00014468568
123	0x38540510	5.0549454e-05
124	0xb8da929b	-0.000104223574
125	0xb9c8e0b8	-0.000383144
126	0x39c531cc	0.0003761187
127	0xb9a09613	-0.00030629392
128	0x3a20e80a	0.0006138092
129	0xb9bdcb5c	-0.00036200404
130	0x39635bb1	0.00021682565
131	0xb8242910	-3.913889e-05
132	0x3a2b5d8b	0.00065370713
133	0xb9844e0e	-0.00025235157
134	0x389fd157	7.6207034e-05
135	0x3861adab	5.380592e-05
136	0xb88cd907	-6.716145e-05
137	0x38960116	7.15276e-05
138	0xb9051566	-0.0001269184
139	0x38b544a7	8.64354e-05
140	0x392bc8a8	0.00016382581
141	0xb83d3a80	-4.5115594e-05
142	0x39f8ad87	0.00047431534
143	0xb937fe77	-0.00017547036
144	0x38cc2850	9.734987e-05
145	0xb99ca376	-0.00029876427
146	0x3990d0a0	0.00027621258
147	0xb987d4b5	-0.00025907686
148	0x39fa7f79	0.0004777869
149	0xb98a4a6f	-0.00026376868
150	0xb9a9cff7	-0.00032389138
151	0x399e7d19	0.00030229313
152	0xb9a30e45	-0.00031100414
153	0x3a082cb9	0.00051946525
154	0xb9a3b053	-0.00031221154
155	0xb97942fa	-0.00023771441
156	0x395cfd1e	0.00021075128
157	0xb95ed40a	-0.0002125056
158	0x39c9984f	0.00038451186
159	0xb9625a8a	-0.00021586768
160	0xb9d2e161	-0.00040222242
161	0x39cd5597	0.00039164416
162	0xb9ab238c	-0.00032642146
163	0x3a4a1594	0.0007708904
164	0xb9ecff56	-0.00045203668
165	0x39171c4b	0.00014411022
166	0xb826c0c0	-3.9756997e-05
167	0x39d000b1	0.00039673367
168	0xb947f11c	-0.00019067939
169	0x38b08f8b	8.419071e-05
170	0xb9670056	-0.00022030002
171	0x393a514d	0.00017768629
172	0xb92c3615	-0.00016423345
173	0x39d7741b	0.000410945
174	0xb93ce34f	-0.00018013756
175	0xb9fcd48b	-0.00048223542
176	0x39f90251	0.00047494707
177	0xb9b3f2bb	-0.0003432239
178	0x3a70f301	0.0009191484
179	0xba0ea9cb	-0.0005442171
180	0x3909cc05	0.00013141341
181	0xb8b27ca3	-8.510917e-05
182	0x39bc569f	0.00035922692
183	0xb94c070c	-0.00019457581
184	0x390db714	0.0001351501
185	0xb7c008d1	-2.2892289e-05
186	0x3845f50d	4.719668e-05
187	0x37dd0a7a	2.6350132e-05
188	0x388484aa	6.318961e-05
189	0xb7e592d6	-2.7367303e-05
190	0x390a900c	0.00013214367
191	0xb8e2890a	-0.00010802045
192	0x391dd6d2	0.00015052714
193	0xb9a700f3	-0.0003185343
194	0x390379eb	0.00012538552
195	0x38f3bd9d	0.00011622461
196	0xb816d975	-3.596531e-05
197	0x39d02e2a	0.00039707246
198	0xb8fecd43	-0.00012149897
199	0x38880463	6.4858024e-05
200	0x3752c6b7	1.2563242e-05
201	0x3784cc12	1.5830654e-05
202	0x3908ad16	0.0001303445
203	0x389fa046	7.611564e-05
204	0x37535151	1.2595513e-05
205	0xb9e2674d	-0.00043183044
206	0x39da28c2	0.00041610567
207	0xb98bf9b5	-0.00026698192
208	0x3a4b954d	0.0007766083
209	0xb9d63b4c	-0.0004086144
210	0x3923abda	0.00015608911
211	0x38d8e54f	0.00010342395
212	0x3a603854	0.00085533154
213	0x36f92d7a	7.4260724e-06
214	0xb8289a1d	-4.019785e-05
215	0x39041d9d	0.00012599533
216	0xb8f40417	-0.000116355885
217	0x396c09d3	0.00022510374
218	0xb986b854	-0.00025695807
219	0x39223f2e	0.0001547306
220	0x39360732	0.00017359553
221	0xb83c828a	-4.4944267e-05
222	0x39f5ba56	0.00046868873
223	0xb988b55c	-0.00026075065
224	0x389d650d	7.5051656e-05
225	0xb9787134	-0.00023693294
226	0x394f157c	0.00019749062
227	0xb981590e	-0.00024671148
228	0x39cd7a25	0.00039191652
229	0xb9697ac6	-0.00022266348
230	0x39349ed2	0.00017225303
231	0xb8578e9a	-5.1392803e-05
232	0x39d6e0fe	0.00040984893
233	0xb9944ef1	-0.00028287576
234	0x3889734d	6.5541455e-05
235	0xb95c99a7	-0.00021038075
236	0x3932f25a	0.00017065686
237	0xb923ee00	-0.00015633553
238	0x39be22dd	0.000362656
239	0xb92f3528	-0.00016709103
240	0x3916c255	0.00014377509
241	0xb8aa4fbe	-8.121085e-05
242	0x39c72f32	0.000379914
243	0xb9448dbd	-0.00018744818
244	0x38f2eff0	0.00011584151
245	0xb94cf00e	-0.00019544383
246	0x3930489f	0.00016811721
247	0xb984b98b	-0.00025315242
248	0x39406af2	0.00018350387
249	0xb918dc41	-0.000145779
250	0xb9c4b1b3	-0.0003751643
251	0x39b9be5c	0.00035427778
252	0xb9a2e63f	-0.00031070595
253	0x3a2b63b8	0.00065379916
254	0xb9be3f74	-0.000362869
255	0x392af2e6	0.0001630295

exp_avg_sq f4 [256, 5]
0	0x3398aac2	7.109112e-08
1	0x339d268f	7.317896e-08
2	0x3458bb38	2.0184677e-07
3	0x3461ee6f	2.10415e-07
4	0x336509a2	5.332698e-08
5	0x3351c427	4.8840004e-08
6	0x3348db07	4.6765333e-08
7	0x3459e797	2.0293952e-07
8	0x349191ee	2.7114532e-07
9	0x33a17e58	7.5201285e-08
10	0x341fc9c4	1.4881431e-07
11	0x34126153	1.3632716e-07
12	0x3519d7f9	5.7311223e-07
13	0x35613ec5	8.3910373e-07
14	0x34244f83	1.5302616e-07
15	0x33aae066	7.95706e-08
16	0x33b0dcae	8.23578e-08
17	0x34cb5571	3.7873863e-07
18	0x33737a77	5.6689228e-08
19	0x337bc2e4	5.8617744e-08
20	0x346bb7cc	2.1952945e-07
21	0x346035e3	2.088123e-07
22	0x35528b9a	7.8434243e-07
23	0x35b7ab00	1.368433e-06
24	0x346c40ae	2.2002743e-07
25	0x341857fd	1.4188113e-07
26	0x343f3d11	1.7810477e-07
27	0x359321f0	1.0962231e-06
28	0x348982e7	2.5613483e-07
29	0x3433cfa4	1.6746213e-07
30	0x33a529a4	7.6909856e-08
31	0x339c3ad6	7.275018e-08
32	0x34b6ec61	3.407213e-07
33	0x34c36740	3.6396705e-07
34	0x33dae8ca	1.019376e-07
35	0x33bb3ac9	8.718559e-08
36	0x33ef5281	1.1144312e-07
37	0x353a3a33	6.937509e-07
38	0x349458ba	2.7631705e-07
39	0x33e23577	1.053367e-07
40	0x346d8ef1	2.2124347e-07
41	0x34695af0	2.1732899e-07
42	0x351af3c7	5.7724213e-07
43	0x358411b9	9.839924e-07
44	0x3427d045	1.5628855e-07
45	0x33ba1e4a	8.6668095e-08
46	0x33bb364f	8.717745e-08
47	0x3439109f	1.7235514e-07
48	0x34da20f3	4.0629638e-07
49	0x33a5da7d	7.723154e-08
50	0x342cbfed	1.608857e-07
51	0x342305d3	1.5182677e-07
52	0x351f3f9f	5.9324697e-07
53	0x357c1f0b	9.392249e-07
54	0x3431e0fa	1.6566256e-07
55	0x3418de1a	1.4236903e-07
56	0x341576b5	1.3919892e-07
57	0x3513caae	5.5056705e-07
58	0x35810b47	9.614531e-07
59	0x346de8a8	2.2156985e-07
60	0x32f385ca	2.8349763e-08
61	0x32de88fd	2.5906497e-08
62	0x34148ea6	1.383547e-07
63	0x34292a39	1.5754712e-07
64	0x33016e71	3.01356e-08
65	0x3453721c	1.9692419e-07
66	0x34492d71	1.8736115e-07
67	0x354fa489	7.735294e-07
68	0x35a7d05d	1.2503111e-06
69	0x345897ff	2.0171863e-07
70	0x31cb30e5	5.9136362e-09
71	0x31c2edc6	5.673175e-09
72	0x332d5285	4.0354752e-08
73	0x3312c940	3.417631e-08
74	0x320c0114	8.149318e-09
75	0x334b0462	4.7268607e-08
76	0x333596a0	4.227934e-08
77	0x348479e7	2.4675612e-07
78	0x347a8b56	2.3333754e-07
79	0x3402c7df	1.2179906e-07
80	0x34dcffc6	4.1164293e-07
81	0x34d241ef	3.916352e-07
82	0x35b270de	1.3294882e-06
83	0x362f31ff	2.6106134e-06
84	0x34d804e1	4.0236685e-07
85	0x33acfd6e	8.055473e-08
86	0x33c03abb	8.95138e-08
87	0x34c4a202	3.662572e-07
88	0x3387dbe4	6.326425e-08
89	0x33864e12	6.254062e-08
90	0x330ea3d0	3.3210938e-08
91	0x3316bc00	3.509558e-08
92	0x343b3115	1.7433588e-07
93	0x34016de7	1.2054043e-07
94	0x32de3822	2.5869728e-08
95	0x33531484	4.9145925e-08
96	0x334f51d1	4.8270355e-08
97	0x33337bdf	4.1789345e-08
98	0x34211696	1.500251e-07
99	0x331fa47a	3.7169663e-08
100	0x3328a9b9	3.926991e-08
101	0x331c299b	3.635942e-08
102	0x344647d5	1.846632e-07
103	0x3391c6cb	6.788249e-08
104	0x3393768e	6.866786e-08
105	0x33c4ebf1	9.169879e-08
106	0x33c1a956	9.018065e-08
107	0x348db83c	2.6397345e-07
108	0x35101bd1	5.368466e-07
109	0x33bd16cc	8.805145e-08
110	0x33a4b865	7.670386e-08
111	0x339a5bf0	7.187907e-08
112	0x34a961c8	3.1549848e-07
113	0x34b65fe9	3.3969926e-07
114	0x3403d113	1.2276386e-07
115	0x3118daeb	2.2243352e-09
116	0x312937a5	2.4624367e-09
117	0x318d3b68	4.110394e-09
118	0x32148efe	8.6472465e-09
119	0x30f1ca64	1.7592581e-09
120	0x3294ec0d	1.7336811e-08
121	0x329fbe8e	1.859669e-08
122	0x331b14c5	3.610764e-08
123	0x33720cb5	5.6356573e-08
124	0x32afaf80	2.045249e-08
125	0x33c2cca7	9.071055e-08
126	0x33b73f03	8.533063e-08
127	0x34c610c7	3.689258e-07
128	0x3518cf6a	5.692624e-07
129	0x33d4c14b	9.907179e-08
130	0x342fd55a	1.6375762e-07
131	0x3446026c	1.8441068e-07
132	0x359552f3	1.1125506e-06
133	0x350903d6	5.104206e-07
134	0x34467c4a	1.8485403e-07
135	0x33ab8ebd	7.988772e-08
136	0x33b32c26	8.3433676e-08
137	0x33865ca3	6.256712e-08
138	0x3414413c	1.3807306e-07
139	0x32fe1c88	2.9582466e-08
140	0x34400b57	1.7885519e-07
141	0x343c6ffa	1.7549601e-07
142	0x35034dc3	4.891446e-07
143	0x343c04f8	1.7510672e-07
144	0x339176c2	6.7736906e-08
145	0x341a2cb4	1.435863e-07
146	0x34166d87	1.4009684e-07
147	0x350fec56	5.3615565e-07
148	0x35828a52	9.726011e-07
149	0x3471aea3	2.2508407e-07
150	0x33eeecc0	1.1125803e-07
151	0x33e0c9bc	1.0467508e-07
152	0x351c73e0	5.828315e-07
153	0x3545855a	7.358227e-07
154	0x342c5b0b	1.605187e-07
155	0x33d0a962	9.716565e-08
156	0x33d0f301	9.729957e-08
157	0x348f3eca	2.668151e-07
158	0x34f5cd3e	4.578414e-07
159	0x33d57f58	9.941749e-08
160	0x34690e80	2.1705091e-07
161	0x3460274e	2.0875925e-07
162	0x3547597a	7.426348e-07
163	0x35bd6ec8	1.4113839e-06
164	0x34698590	2.1748406e-07
165	0x33618d07	5.251516e-08
166	0x3368b032	5.4176958e-08
167	0x348d8f2f	2.6367476e-07
168	0x341e913d	1.4767734e-07
169	0x3333e7b3	4.1887414e-08
170	0x33ecf968	1.1034973e-07
171	0x33f45184	1.1376963e-07
172	0x34840f36	2.4597983e-07
173	0x34f243c6	4.5125324e-07
174	0x33e9f1af	1.089387e-07
175	0x343e43aa	1.7719745e-07
176	0x342fe8d2	1.6382845e-07
177	0x3524add2	6.13477e-07
178	0x35830061	9.760371e-07
179	0x3438e5bd	1.7219914e-07
180	0x3491865d	2.7106117e-07
181	0x34922283	2.721973e-07
182	0x3521ce80	6.027767e-07
183	0x3505df98	4.987173e-07
184	0x33a92a56	7.8773766e-08
185	0x332225d8	3.7752983e-08
186	0x331fdaa9	3.7218943e-08
187	0x3320baeb	3.7422904e-08
188	0x34279df2	1.5610547e-07
189	0x33720808	5.635232e-08
190	0x331fbc2f	3.7191224e-08
191	0x3324b771	3.8351065e-08
192	0x33e8df32	1.0843941e-07
193	0x34827612	2.4300294e-07
194	0x331c2e0b	3.6363456e-08
195	0x330a0acf	3.214046e-08
196	0x331107a3	3.376739e-08
197	0x345ba34f	2.0455376e-07
198	0x33d2c1c6	9.814134e-08
199	0x34169d8c	1.4027154e-07
200	0x33ed171c	1.1040376e-07
201	0x33e6baec	1.07442105e-07
202	0x33a25d4c	7.5606835e-08
203	0x34a151b8	3.0048045e-07
204	0x3446e169	1.8522191e-07
205	0x343f5f39	1.7822903e-07
206	0x3435fe7c	1.694952e-07
207	0x35267cac	6.202124e-07
208	0x35934673	1.0972857e-06
209	0x344b5df5	1.894003e-07
210	0x342dc23c	1.6182543e-07
211	0x344eac2e	1.9247884e-07
212	0x3596011b	1.1176193e-06
213	0x348a142b	2.5719177e-07
214	0x3445d947	1.84261e-07
215	0x335a503f	5.0830064e-08
216	0x335edef4	5.1891178e-08
217	0x3438ea09	1.7221477e-07
218	0x34930c23	2.7389714e-07
219	0x3340b5ce	4.4868834e-08
220	0x33ee6dd6	1.1102718e-07
221	0x3405956f	1.2440954e-07
222	0x34f405d9	4.5452796e-07
223	0x3447ad09	1.8596269e-07
224	0x33c40f5d	9.129756e-08
225	0x3465d2d0	2.140398e-07
226	0x346e8c2e	2.2216474e-07
227	0x34b13b67	3.301204e-07
228	0x34c1df65	3.6111592e-07
229	0x33ab8926	7.987755e-08
230	0x3352f66e	4.911856e-08
231	0x337f50a7	5.9445167e-08
232	0x34821a0c	2.4233339e-07
233	0x340b2f92	1.296269e-07
234	0x33632b77	5.2892087e-08
235	0x3384176e	6.150991e-08
236	0x3387df0e	6.327001e-08
237	0x342117bd	1.500293e-07
238	0x347bd8b3	2.3455031e-07
239	0x3389fa4d	6.425089e-08
240	0x33c6fc55	9.2659924e-08
241	0x33c694fe	9.247195e-08
242	0x34e7caa3	4.317454e-07
243	0x34a14c84	3.004426e-07
244	0x340c19e7	1.3047939e-07
245	0x32c4b732	2.290071e-08
246	0x32b57e21	2.112853e-08
247	0x33cf02b4	9.63968e-08
248	0x33f0fe92	1.1222177e-07
249	0x33650676	5.3324094e-08
250	0x346e9e67	2.2223104e-07
251	0x34654d41	2.1355392e-07
252	0x356f891b	8.9233953e-07
253	0x35ce1838	1.5355245e-06
254	0x349feb84	2.9787418e-07
255	0x3400b156	1.1985443e-07

exp_avg f4 [256, 64]
0	0x00000000	0.0
1	0x00000000	0.0
2	0x00000000	0.0
3	0x00000000	0.0
4	0x00000000	0.0
5	0x00000000	0.0
6	0x00000000	0.0
7	0x00000000	0.0
8	0x00000000	0.0
9	0x00000000	0.0
10	0x00000000	0.0
11	0x00000000	0.0
12	0x00000000	0.0
13	0x00000000	0.0
14	0x00000000	0.0
15	0x00000000	0.0
16	0x00000000	0.0
17	0x00000000	0.0
18	0x00000000	0.0
19	0x00000000	0.0
20	0x00000000	0.0
21	0x00000000	0.0
22	0x00000000	0.0
23	0x00000000	0.0
24	0x00000000	0.0
25	0x00000000	0.0
26	0x00000000	0.0
27	0x00000000	0.0
28	0x00000000	0.0
29	0x00000000	0.0
30	0x00000000	0.0
31	0x00000000	0.0
32	0x00000000	0.0
33	0x00000000	0.0
34	0x00000000	0.0
35	0x00000000	0.0
36	0x00000000	0.0
37	0x00000000	0.0
38	0x00000000	0.0
39	0x00000000	0.0
40	0x00000000	0.0
41	0x00000000	0.0
42	0x00000000	0.0
43	0x00000000	0.0
44	0x00000000	0.0
45	0x00000000	0.0
46	0x00000000	0.0
47	0x00000000	0.0
48	0x00000000	0.0
49	0x00000000	0.0
50	0x00000000	0.0
51	0x00000000	0.0
52	0x00000000	0.0
53	0x00000000	0.0
54	0x00000000	0.0
55	0x00000000	0.0
56	0x00000000	0.0
57	0x00000000	0.0
58	0x00000000	0.0
59	0x00000000	0.0
60	0x00000000	0.0
61	0x00000000	0.0
62	0x00000000	0.0
63	0x00000000	0.0
64	0x00000000	0.0
65	0x00000000	0.0
66	0x00000000	0.0
67	0x00000000	0.0
68	0x00000000	0.0
69	0x00000000	0.0
70	0x00000000	0.0
71	0x00000000	0.0
72	0x00000000	0.0
73	0x00000000	0.0
74	0x00000000	0.0
75	0x00000000	0.0
76	0x00000000	0.0
77	0x00000000	0.0
78	0x00000000	0.0
79	0x00000000	0.0
80	0x00000000	0.0
81	0x00000000	0.0
82	0x00000000	0.0
83	0x00000000	0.0
84	0x00000000	0.0
85	0x00000000	0.0
86	0x00000000	0.0
87	0x00000000	0.0
88	0x00000000	0.0
89	0x00000000	0.0
90	0x00000000	0.0
91	0x00000000	0.0
92	0x00000000	0.0
93	0x00000000	0.0
94	0x00000000	0.0
95	0x00000000	0.0
96	0x00000000	0.0
97	0x00000000	0.0
98	0x00000000	0.0
99	0x00000000	0.0
100	0x00000000	0.0
101	0x00000000	0.0
102	0x00000000	0.0
103	0x00000000	0.0
104	0x00000000	0.0
105	0x00000000	0.0
106	0x00000000	0.0
107	0x00000000	0.0
108	0x00000000	0.0
109	0x00000000	0.0
110	0x00000000	0.0
111	0x00000000	0.0
112	0x00000000	0.0
113	0x00000000	0.0
114	0x00000000	0.0
115	0x00000000	0.0
116	0x00000000	0.0
117	0x00000000	0.0
118	0x00000000	0.0
119	0x00000000	0.0
120	0x00000000	0.0
121	0x00000000	0.0
122	0x00000000	0.0
123	0x00000000	0.0
124	0x00000000	0.0
125	0x00000000	0.0
126	0x00000000	0.0
127	0x00000000	0.0
128	0x00000000	0.0
129	0x00000000	0.0
130	0x00000000	0.0
131	0x00000000	0.0
132	0x00000000	0.0
133	0x00000000	0.0
134	0x00000000	0.0
135	0x00000000	0.0
136	0x00000000	0.0
137	0x00000000	0.0
138	0x00000000	0.0
139	0x00000000	0.0
140	0x00000000	0.0
141	0x00000000	0.0
142	0x00000000	0.0
143	0x00000000	0.0
144	0x00000000	0.0
145	0x00000000	0.0
146	0x00000000	0.0
147	0x00000000	0.0
148	0x00000000	0.0
149	0x00000000	0.0
150	0x00000000	0.0
151	0x00000000	0.0
152	0x00000000	0.0
153	0x00000000	0.0
154	0x00000000	0.0
155	0x00000000	0.0
156	0x00000000	0.0
157	0x00000000	0.0
158	0x00000000	0.0
159	0x00000000	0.0
160	0x00000000	0.0
161	0x00000000	0.0
162	0x00000000	0.0
163	0x00000000	0.0
164	0x00000000	0.0
165	0x00000000	0.0
166	0x00000000	0.0
167	0x00000000	0.0
168	0x00000000	0.0
169	0x00000000	0.0
170	0x00000000	0.0
171	0x00000000	0.0
172	0x00000000	0.0
173	0x00000000	0.0
174	0x00000000	0.0
175	0x00000000	0.0
176	0x00000000	0.0
177	0x00000000	0.0
178	0x00000000	0.0
179	0x00000000	0.0
180	0x00000000	0.0
181	0x00000000	0.0
182	0x00000000	0.0
183	0x00000000	0.0
184	0x00000000	0.0
185	0x00000000	0.0
186	0x00000000	0.0
187	0x00000000	0.0
188	0x00000000	0.0
189	0x00000000	0.0
190	0x00000000	0.0
191	0x00000000	0.0
192	0x00000000	0.0
193	0x00000000	0.0
194	0x00000000	0.0
195	0x00000000	0.0
196	0x00000000	0.0
197	0x00000000	0.0
198	0x00000000	0.0
199	0x00000000	0.0
200	0x00000000	0.0
201	0x00000000	0.0
202	0x00000000	0.0
203	0x00000000	0.0
204	0x00000000	0.0
205	0x00000000	0.0
206	0x00000000	0.0
207	0x00000000	0.0
208	0x00000000	0.0
209	0x00000000	0.0
210	0x00000000	0.0
211	0x00000000	0.0
212	0x00000000	0.0
213	0x00000000	0.0
214	0x00000000	0.0
215	0x00000000	0.0
216	0x00000000	0.0
217	0x00000000	0.0
218	0x00000000	0.0
219	0x00000000	0.0
220	0x00000000	0.0
221	0x00000000	0.0
222	0x00000000	0.0
223	0x00000000	0.0
224	0x00000000	0.0
225	0x00000000	0.0
226	0x00000000	0.0
227	0x00000000	0.0
228	0x00000000	0.0
229	0x00000000	0.0
230	0x00000000	0.0
231	0x00000000	0.0
232	0x00000000	0.0
233	0x00000000	0.0
234	0x00000000	0.0
235	0x00000000	0.0
236	0x00000000	0.0
237	0x00000000	0.0
238	0x00000000	0.0
239	0x00000000	0.0
240	0x00000000	0.0
241	0x00000000	0.0
242	0x00000000	0.0
243	0x00000000	0.0
244	0x00000000	0.0
245	0x00000000	0.0
246	0x00000000	0.0
247	0x00000000	0.0
248	0x00000000	0.0
249	0x00000000	0.0
250	0x00000000	0.0
251	0x00000000	0.0
252	0x00000000	0.0
253	0x00000000	0.0
254	0x00000000	0.0
255	0x00000000	0.0
