lightning_logs/version_68/checkpoints/epoch=9-step=810.ckpt (torch, 227860 bytes, 15 tensors)

lstm.weight_ih_l0 f4 [256, 5]
0	0x3e433787	0.19064151
1	0x3be465d4	0.0069701467
2	0x3f4e5f7e	0.8061446
3	0x3e459710	0.19295907
4	0xbe611866	-0.21981964
5	0xbea7488e	-0.32672542
6	0x3e33c5f1	0.17555977
7	0xbf128643	-0.5723612
8	0xbde16571	-0.110056765
9	0xbe026365	-0.12733229
10	0xbe4677ff	-0.19381712
11	0x3e2b4780	0.16726494
12	0xbf312011	-0.69189554
13	0xbe9fd67f	-0.31218335
14	0xbed6d46d	-0.41958943
15	0xbe902aca	-0.28157645
16	0x3dbd31c6	0.09238009
17	0x3e8fb658	0.28068805
18	0x3ebd7234	0.37001193
19	0xbe63eb75	-0.22257788
20	0xbee4b561	-0.4466963
21	0x3e23522f	0.1594932
22	0xbf746b2d	-0.9547604
23	0xbeac3073	-0.33630714
24	0x3e09c50f	0.13454078
25	0x3ed07b0c	0.40718877
26	0xbec66ec8	-0.38756394
27	0x3f3ce287	0.73783153
28	0x3e532c44	0.20622355
29	0x3ce3a3e2	0.027788106
30	0xbe4a154a	-0.19734684
31	0x3e97458d	0.2954525
32	0xbf17c275	-0.5928109
33	0xbe73f07b	-0.23822205
34	0xbe87406b	-0.26416335
35	0xbea8ffcd	-0.3300766
36	0x3d628e79	0.055311654
37	0xbf6da296	-0.9282621
38	0xbe8f5950	-0.27997828
39	0x3eaf9823	0.3429576
40	0x3ea975f9	0.33097818
41	0xbe4345de	-0.19069621
42	0x3f87f9d9	1.0623122
43	0x3e88cd68	0.26719213
44	0x3ed2df99	0.41186216
45	0xbc6e7599	-0.014554405
46	0x3e3b84d8	0.18312395
47	0x3f276d9e	0.6540164
48	0x3e22456c	0.15846795
49	0x3d985ef9	0.074399896
50	0x3ed47a39	0.41499498
51	0xbef05809	-0.46942165
52	0x3f4c0e87	0.79709667
53	0x3e3d5b3b	0.18491833
54	0xbd8ca8b9	-0.06868119
55	0x3f06ee0d	0.52706987
56	0xbe812970	-0.25226927
57	0x3f229c9c	0.63520217
58	0x3e976a1f	0.2957315
59	0xbd11bda5	-0.03558125
60	0xbe8f5cd3	-0.28000507
61	0x3e2a0563	0.16603617
62	0xbf4def6b	-0.8044345
63	0xbec24b5b	-0.37948117
64	0xbde683e3	-0.11255624
65	0x3ed65323	0.41860303
66	0xbe2e3379	-0.17011823
67	0x3f4c82e4	0.79887223
68	0x3e62785a	0.22116223
69	0x3d98d0a7	0.07461672
70	0xbe5ba79b	-0.21450655
71	0x3da55463	0.08072736
72	0xbf3b3b78	-0.7313762
73	0xbdb814ee	-0.08988367
74	0xbdc75936	-0.097338125
75	0x3ef034f7	0.4691541
76	0xbed38824	-0.41314805
77	0x3f56cb60	0.83904076
78	0x3eb6c721	0.35698798
79	0x3e85921f	0.26088044
80	0x3e449fb4	0.19201547
81	0xbe467d10	-0.19383645
82	0x3f562cc1	0.8366204
83	0x3eb2be81	0.34910968
84	0x3c1f9aa2	0.009741457
85	0x3d22a859	0.03971133
86	0x3cb72ebd	0.022361154
87	0x3f4701ab	0.7773692
88	0x3ea10cc6	0.31455058
89	0xbe95b6c4	-0.29241002
90	0xbe9de458	-0.30838275
91	0x3e7f722f	0.24945901
92	0xbf6814e6	-0.9065689
93	0xbe323521	-0.1740308
94	0xbe3d22a5	-0.18470247
95	0xbe310f13	-0.17290907
96	0x3e684d3f	0.22685717
97	0xbf186954	-0.5953572
98	0xbe1d88fe	-0.1538429
99	0x3ed67eeb	0.41893706
100	0xbdbabe33	-0.09118309
101	0x3e03c821	0.12869312
102	0xbc38fce5	-0.0112907635
103	0x3e9723c6	0.2951948
104	0x3be300d5	0.0069275894
105	0xbe9ba80c	-0.30401647
106	0x3de8a686	0.11359887
107	0xbf25a056	-0.6469778
108	0xbd984dc9	-0.07436711
109	0xbe803447	-0.25039884
110	0x3f27ecfb	0.6559598
111	0xbec2ea07	-0.38069174
112	0x3f298026	0.66211164
113	0x3ec8865d	0.3916501
114	0xbd86fa49	-0.06590707
115	0xbe6cf8a8	-0.2314173
116	0x3c66a492	0.014077323
117	0xbf499598	-0.78743887
118	0xbecc1b8d	-0.3986477
119	0x3eb87ff8	0.36035132
120	0x3e3bb8e8	0.18332255
121	0xbdab7b0f	-0.08373081
122	0x3f638252	0.8887073
123	0x3ebccc99	0.36874846
124	0x3ed9a34a	0.42507392
125	0x3d17ecb9	0.03709099
126	0x3cb3c26d	0.021943295
127	0x3f68c71f	0.90928835
128	0x3da580ed	0.08081231
129	0xbcba6df5	-0.02275751
130	0x3e4bcab5	0.19901545
131	0xbe9a08d7	-0.3008487
132	0x3f05ee70	0.5231695
133	0x3ecd86fc	0.40142047
134	0xbea25c08	-0.3171084
135	0x3ef0e51c	0.47049797
136	0xbf15a6d9	-0.58457714
137	0x3f6693cc	0.9006927
138	0x3e92a5b1	0.28642038
139	0x3d5732ca	0.05253867
140	0xbe58306a	-0.21112218
141	0x3d952995	0.07283322
142	0xbf2b5534	-0.66926885
143	0xbe9f7ddb	-0.31150708
144	0xbe15af51	-0.14617659
145	0x3ed42798	0.41436458
146	0xbecbe9f3	-0.39826927
147	0x3f478d5f	0.7795009
148	0x3ee3f3ea	0.4452203
149	0xbda4b66b	-0.08042606
150	0xbea675b9	-0.3251169
151	0x3e479a8c	0.19492549
152	0xbf4ae1ef	-0.79251
153	0xbcfd474f	-0.030917792
154	0xbe53d80e	-0.20687887
155	0x3f238ba8	0.63884974
156	0xbf094e90	-0.536355
157	0x3f52d7d9	0.8236061
158	0x3ee77fb3	0.45214614
159	0x3d0a5ada	0.03377805
160	0xbe9af3bc	-0.3026408
161	0x3e423ea6	0.18969211
162	0xbf3197b9	-0.69372135
163	0xbeb8fd62	-0.36130816
164	0xbea2cc07	-0.31796286
165	0xbd6e6899	-0.05820522
166	0x3e2bea6f	0.16788648
167	0xbe79a4d6	-0.24379286
168	0xbe01cd20	-0.12675905
169	0xbe83c978	-0.25739646
170	0x3c7809dc	0.015139069
171	0x3e3bd853	0.1834424
172	0x3df4a49b	0.119454585
173	0x3e8bf7c5	0.2733747
174	0xbec7112c	-0.3888029
175	0x3de817ee	0.11332689
176	0x3e46c05b	0.19409315
177	0x3f2a59fb	0.6654355
178	0x3e1cb0ea	0.15301862
179	0xbe8af718	-0.27141643
180	0x3e1e5147	0.15460692
181	0xbe338b9e	-0.17533728
182	0x3f3043f9	0.6885372
183	0x3e8a148c	0.269688
184	0xbe05fc0f	-0.13084434
185	0x3ede4c62	0.4341765
186	0xbe8c7dc8	-0.27439713
187	0x3f4f790f	0.81044096
188	0x3e1ed4f4	0.15510923
189	0xbd8859c9	-0.0665775
190	0xbe25d337	-0.16193853
191	0xbd41a2f3	-0.04727454
192	0xbf4352ec	-0.76298404
193	0xbe2fd87b	-0.17172424
194	0xbda851c2	-0.08218719
195	0xbbe96107	-0.0071221623
196	0xbcbb3d47	-0.022856368
197	0xbf131bbb	-0.5746419
198	0xbe1b80e2	-0.15185884
199	0xbe584a88	-0.21122181
200	0x3e8ab463	0.2709075
201	0xbe2126ce	-0.15737459
202	0x3f1d1d0b	0.6137244
203	0x3e12a30b	0.14320008
204	0xbe9361f5	-0.28785673
205	0xbe80bf7f	-0.251461
206	0xbe372d2a	-0.17888322
207	0xbf811561	-1.0084649
208	0xbec574b7	-0.3856561
209	0xbaa65528	-0.0012690173
210	0x3e65e6bb	0.22451298
211	0xbe38ab18	-0.18034017
212	0x3f18385d	0.59461004
213	0x3f1bc8d6	0.60853326
214	0xbe33d6b8	-0.17562377
215	0xbeb13729	-0.34612396
216	0x3d701883	0.058617126
217	0xbf3716c3	-0.71519107
218	0xbefb8f8d	-0.49132958
219	0x3d34e6ef	0.044165548
220	0xbe9725f5	-0.29521146
221	0x3e933e37	0.28758404
222	0xbf069ba2	-0.52581227
223	0x3db16a05	0.086628
224	0xbe98e8c8	-0.29865098
225	0x3f0c8b18	0.5489974
226	0xbef154ca	-0.47135
227	0x3f641a18	0.89102316
228	0x3eaea660	0.3411131
229	0x3daa85c4	0.08326295
230	0x3d971ce8	0.0737856
231	0x3cebbbb1	0.028776022
232	0x3f015be2	0.5053083
233	0x3e821c21	0.25412086
234	0xbe2957a5	-0.1653734
235	0x3d8a6bf4	0.06758872
236	0x3e1aed4f	0.15129589
237	0x3f1608f3	0.58607405
238	0x3e19605e	0.14978167
239	0xbe666729	-0.2250029
240	0xbe9c0692	-0.30473763
241	0x3e8c18ea	0.27362758
242	0xbf0c7110	-0.5486002
243	0xbe702f2d	-0.23455496
244	0x3d6c89c2	0.057748564
245	0xbea6d2cf	-0.3258271
246	0xbd814323	-0.063116334
247	0xbf63a9c2	-0.88930905
248	0xbddcfe19	-0.10790653
249	0x3d996059	0.0748908
250	0xbd38ddd1	-0.045133416
251	0x3e52a4e4	0.20570713
252	0x3eaf46f5	0.34233823
253	0x3e88d98f	0.26728484
254	0xbe028741	-0.12746908
255	0xbe93c8b3	-0.2886406

lstm.weight_hh_l0 f4 [256, 64]
0	0xbdcac9e8	-0.09901792
1	0xbcd65e20	-0.02616793
2	0xbd0e9b78	-0.034816235
3	0xbd4f8c2c	-0.050670788
4	0xbb14ea80	-0.002272278
5	0xbdf4d43e	-0.119545445
6	0x3ddeeda4	0.1088517
7	0xbd7c6504	-0.061619774
8	0xbda4459a	-0.08021088
9	0xbd9a9786	-0.07548432
10	0x3cd2b268	0.025719836
11	0x3d8060b2	0.06268443
12	0xbdae068e	-0.08497344
13	0xbd893264	-0.066990644
14	0xbdbf0df0	-0.0932883
15	0x3dddb528	0.108255684
16	0x3bd09a00	0.0063660145
17	0x3dec84ec	0.1154879
18	0xbc86f4f8	-0.016474232
19	0x3de0f2dc	0.10983822
20	0xbc3dd4c0	-0.011586368
21	0x3dbe5f82	0.092955604
22	0x3bc12dc0	0.0058953464
23	0x3dd2d17c	0.10293862
24	0x3df30ca4	0.118676454
25	0xbdfd3626	-0.123638436
26	0xbca2d940	-0.019878983
27	0x3d5831c8	0.05278185
28	0x3b99e600	0.0046966076
29	0x3d9809d6	0.07423751
30	0xbdd8d0c8	-0.10586697
31	0x3db76b70	0.08956039
32	0xbdfa014c	-0.122072786
33	0x3d82a7ec	0.06379685
34	0xbcb12ce8	-0.021627858
35	0xbcf7c268	-0.030244067
36	0x3c9b52d0	0.018960387
37	0xbdd838d2	-0.105577126
38	0x3dbfca7e	0.09364794
39	0xbd34d550	-0.044148743
40	0xbcf6e3e8	-0.030137971
41	0x3d877f04	0.06616023
42	0xbdefc210	-0.11706936
43	0xbbfbd2a0	-0.0076850206
44	0x3c9a2e38	0.018820867
45	0xbd72da48	-0.0592902
46	0xbd00cdb4	-0.031446174
47	0xbd461d44	-0.048367754
48	0x3db175d0	0.08665049
49	0xbde99a00	-0.11406326
50	0x3d773424	0.06035246
51	0x3d092f54	0.0334924
52	0x3df0bfa0	0.117552996
53	0xbdf87ae8	-0.121328175
54	0xbdf3242c	-0.118721336
55	0x3d88492a	0.0665458
56	0xbdf8c14e	-0.12146245
57	0xbd57cf08	-0.052687675
58	0xbca6ae10	-0.020346671
59	0x3dd9eea8	0.10641223
60	0x3d09f108	0.03367713
61	0x3dbd4c5c	0.0924308
62	0xbc7621a0	-0.015022665
63	0x3d8507d4	0.06495634
64	0x3d1ae768	0.037818342
65	0x3d952730	0.07282865
66	0x3dc97462	0.098366514
67	0x3dfec154	0.12439218
68	0xbdde288e	-0.10847579
69	0x3d758114	0.05993755
70	0x3d685b44	0.056727663
71	0xbd4636c4	-0.048392072
72	0x3df4f170	0.11960113
73	0xbde13a2e	-0.10997425
74	0x3dcc1e14	0.099666744
75	0x3dba08e6	0.090837285
76	0x3dd521ec	0.10406861
77	0xbb756d00	-0.0037449002
78	0xbd72b6d0	-0.059256375
79	0x3db41900	0.08793831
80	0xbd961d10	-0.07329762
81	0xbdcc05f0	-0.0996207
82	0x3cd12688	0.025531068
83	0x3df1e4e4	0.118112355
84	0xb8831000	-6.249547e-05
85	0x3d7b0e98	0.061293215
86	0xbcf9c710	-0.030490428
87	0x3d790b54	0.06080182
88	0xbdf49458	-0.11942357
89	0xbdf35f0a	-0.11883362
90	0xbd9c816a	-0.07641871
91	0x3db3e520	0.087839365
92	0xbd441f0c	-0.04788117
93	0xbd794154	-0.060853317
94	0x3c68efe0	0.014217347
95	0x3da9e3b6	0.082953855
96	0xbd8ef9fc	-0.069812745
97	0xbc9683c8	-0.018373385
98	0x3d39ce54	0.045362785
99	0x3c385ff0	0.011253342
100	0x3dd5668c	0.1041995
101	0xbdaad1b4	-0.08340779
102	0xbd835528	-0.06412727
103	0xbd5eced0	-0.05439645
104	0x3d23f284	0.040026203
105	0x3ce598f0	0.028027028
106	0xbd3f8284	-0.04675533
107	0x3da3ebca	0.080039576
108	0x3d2110b8	0.039322585
109	0xbd9125b4	-0.070872694
110	0xbd9f6caa	-0.07784398
111	0x3c59c2d0	0.013291076
112	0xbde63504	-0.11240581
113	0xbdde7806	-0.108627364
114	0xbd8de626	-0.06928663
115	0xbd929c8c	-0.07158765
116	0x3df71ace	0.120656595
117	0x3d82fc2a	0.06395753
118	0xbd1cec70	-0.038311422
119	0x3d0947d0	0.03351575
120	0x3babbb00	0.005240798
121	0x3d48e788	0.04904893
122	0x3c3dfbd0	0.011595681
123	0x3d3051d4	0.043046787
124	0xbd25ff64	-0.040526763
125	0x3c09e9b0	0.008417532
126	0x3dbea3d0	0.093085885
127	0xbd5da5c8	-0.05411318
128	0xbd48f1c0	-0.049058676
129	0x3d9e0a2e	0.07716785
130	0xbda6c782	-0.08143522
131	0x3c08d1b0	0.008350775
132	0xbd7f9040	-0.062393427
133	0xbccb2790	-0.024799138
134	0x3c3ffdf0	0.011718258
135	0xbd4dae78	-0.050215214
136	0x3d9267d2	0.071487084
137	0xbc8c6788	-0.017139211
138	0xbd5c2370	-0.053744733
139	0x3ddabdba	0.10680719
140	0x3d641424	0.05568327
141	0x3dc15a1e	0.094410166
142	0xbd8db7ba	-0.06919809
143	0xbda287b6	-0.07936041
144	0x3ac57e80	0.0015067607
145	0xbdeecb88	-0.11659914
146	0x3da97274	0.08273783
147	0xbd964300	-0.07336998
148	0x3cae4828	0.021274641
149	0x3c856190	0.016281873
150	0x3dd12450	0.10212004
151	0x3db948d0	0.09047091
152	0xbd5e0ff8	-0.054214448
153	0xbd2ec998	-0.042672724
154	0x3d945ba4	0.072440416
155	0xbd1d0774	-0.038337186
156	0x3de9a2cc	0.11408004
157	0xbd9a7b26	-0.0754302
158	0x3c8a5920	0.016888201
159	0xbdaeec6a	-0.08541186
160	0x3df3ea6c	0.11909947
161	0xbd5b139c	-0.053485498
162	0x3d74b664	0.059744254
163	0xbd133104	-0.035935417
164	0xbdb98a72	-0.090596095
165	0x3d30184c	0.04299192
166	0xbda89fc8	-0.08233601
167	0xbde74060	-0.112915754
168	0x3c997bf8	0.01873587
169	0x3db3c6c0	0.08778143
170	0x3de95540	0.11393213
171	0x3dba44a4	0.090951234
172	0xbd5a06e4	-0.053229228
173	0xbd3c7328	-0.04600826
174	0xbd51a02c	-0.051178142
175	0x3dc274ea	0.09494956
176	0xbdf25a4a	-0.118336275
177	0x3c1f2820	0.009714156
178	0xbda0a360	-0.07843661
179	0xbd274768	-0.040839583
180	0xbce59738	-0.028026208
181	0x3dcee456	0.101021454
182	0x3da92fba	0.08261056
183	0x3d341cb8	0.0439727
184	0xbdb701bc	-0.08935878
185	0x3c8a3198	0.016869351
186	0x3cbbe1d0	0.022934824
187	0xbd53a140	-0.05166745
188	0xbc96aff8	-0.018394455
189	0xbd9ab924	-0.07554844
190	0xbbc482c0	-0.005997032
191	0x3c541040	0.012943327
192	0xbdecc8a6	-0.11561708
193	0x3c9a9368	0.018869117
194	0x3db3ddf0	0.087825656
195	0xbdb05478	-0.08609861
196	0x3d994438	0.07483715
197	0x3d93b1ee	0.07211672
198	0xbdabc3d8	-0.083869636
199	0xbde7b454	-0.11313692
200	0xbd954aba	-0.072896436
201	0x3ded9382	0.116004005
202	0xbd1d93cc	-0.03847103
203	0x3d07d56c	0.03316252
204	0xbddbcbb2	-0.10732211
205	0x3dc33908	0.09532362
206	0x3d8cb068	0.06869584
207	0xbdcc2368	-0.09967691
208	0x3deb502e	0.114899024
209	0xbcbcbd30	-0.02303943
210	0x3ce313d0	0.027719408
211	0xbd77a348	-0.06045845
212	0x3ca9d458	0.020731136
213	0x3d3f7294	0.04674013
214	0x3d9bbf28	0.076048195
215	0xbd0abca0	-0.033871293
216	0xbcbf54c0	-0.023355842
217	0xbcc91640	-0.024546742
218	0xbc491500	-0.012273073
219	0x3d2cbe50	0.042173684
220	0x3daeb626	0.08530836
221	0xbda6f856	-0.08152835
222	0xbd93802a	-0.0720218
223	0xbdf2d88e	-0.11857711
224	0xbc4edd30	-0.012625977
225	0x3da9030e	0.08252536
226	0x3bc96b20	0.0061468035
227	0x3dc151a2	0.09439398
228	0x3c6557b0	0.013997957
229	0x3de52e98	0.11190528
230	0x3cdcae68	0.026938632
231	0x3d858a9a	0.06520577
232	0xbcf8dbb8	-0.030378208
233	0x3dd1c7fe	0.102432236
234	0xbdc4a0f0	-0.09601009
235	0xbccb4470	-0.024812907
236	0xbde73e6e	-0.112912044
237	0xbc6fa6a0	-0.014627129
238	0x3dcb6080	0.09930515
239	0xbd41e324	-0.04733576
240	0xbd68f67c	-0.05687569
241	0xbd9caa42	-0.076496616
242	0xbd275704	-0.04085447
243	0x3c94a788	0.018146291
244	0xbcf6d1c0	-0.030129313
245	0x3d8ac0e8	0.06775075
246	0xbd99dc14	-0.0751268
247	0xbd28e148	-0.04123047
248	0xbd9ca946	-0.07649474
249	0xbd23cb70	-0.039988935
250	0x3d2a0618	0.041509718
251	0x3d27f14c	0.041001603
252	0x3dee07da	0.11622591
253	0xbce20100	-0.027588367
254	0xbdcbef8e	-0.09957801
255	0x3dfaee3e	0.12252472

lstm.bias_ih_l0 f4 [256]
0	0x3efdc115	0.49561372
1	0x3eafc000	0.34326172
2	0x3e64de30	0.22350383
3	0x3e89c1a7	0.26905558
4	0x3ed91c2d	0.4240431
5	0x3f10fda4	0.56637025
6	0x3e8c7b79	0.27437952
7	0x3eef6a9e	0.4676103
8	0x3ed9798a	0.4247554
9	0x3eb7d44b	0.35904154
10	0x3eb83aa0	0.35982227
11	0x3ef89e87	0.48558447
12	0x3ee0772a	0.43840915
13	0x3f32d98f	0.6986322
14	0x3e6b3298	0.22968519
15	0x3f286f43	0.6579477
16	0x3f00e427	0.5034813
17	0x3e53551d	0.20637937
18	0x3e7015d5	0.23445828
19	0x3ec295e1	0.38004974
20	0x3ea8cb99	0.32967833
21	0x3ead6939	0.3386934
22	0x3edffaca	0.43746024
23	0x3ec5979a	0.38592225
24	0x3f057546	0.5213207
25	0x3f09741e	0.53692806
26	0x3eeb8925	0.4600307
27	0x3f0b741b	0.5447404
28	0x3e946c01	0.2898865
29	0x3f0db15b	0.5534875
30	0x3eb1ae27	0.3470318
31	0x3ed88504	0.42288983
32	0x3e6dbce7	0.23216592
33	0x3ea7bf72	0.3276325
34	0x3e634c60	0.22197104
35	0x3e5bf9c7	0.21482001
36	0x3e6d530f	0.23176216
37	0x3eac1c12	0.33615166
38	0x3f00294e	0.50063026
39	0x3dea7d74	0.114497095
40	0x3e7bddeb	0.24596374
41	0x3f0e4e91	0.5558863
42	0x3f081c11	0.53167826
43	0x3ea602b1	0.32423928
44	0x3e4f7191	0.20258166
45	0x3ee35738	0.4440248
46	0x3ea1d175	0.31605116
47	0x3eb79f65	0.35863796
48	0x3e825861	0.25458053
49	0x3f01913d	0.5061224
50	0x3e8dead3	0.2771822
51	0x3ea041af	0.31300113
52	0x3ecf867b	0.40532288
53	0x3ef095d6	0.46989316
54	0x3e911181	0.28333667
55	0x3ebb3826	0.36566275
56	0x3eec9574	0.46207774
57	0x3f0418a8	0.5160012
58	0x3edbfe0b	0.42967257
59	0x3e1ae86e	0.15127727
60	0x3ec93135	0.39295354
61	0x3e9bfaaf	0.30464694
62	0x3e767504	0.24068075
63	0x3edae4c3	0.42752656
64	0x3d8e5c7e	0.06951235
65	0x3dbc3910	0.09190571
66	0xbd55a6f4	-0.052161172
67	0x3dbafaa2	0.09129836
68	0xbd989224	-0.07449749
69	0xbca13b40	-0.019681573
70	0xbce12710	-0.027484447
71	0xbdac0da4	-0.08401039
72	0xbdd6c64a	-0.104870394
73	0x3de1b96e	0.11021696
74	0xbdabfca4	-0.08397797
75	0x3d955c9a	0.07293053
76	0xbddb6222	-0.10712077
77	0xbdd5b502	-0.10434915
78	0x3de254a2	0.11051299
79	0xbdbc9ba2	-0.09209372
80	0xbdd6ecf8	-0.10494417
81	0xbb84bc60	-0.0040507764
82	0x3d361c64	0.04446067
83	0x3dacdf64	0.08441046
84	0x3dd7a676	0.10529797
85	0xbdfa3800	-0.122177124
86	0xbddbd022	-0.107330576
87	0x3de3664a	0.111034945
88	0x3d418e48	0.04725483
89	0xbcb74520	-0.022371829
90	0xbd7e7498	-0.06212291
91	0x3db88bda	0.090110496
92	0xbd105d30	-0.03524512
93	0x3d1d48a8	0.03839937
94	0x3d870a6e	0.06593786
95	0xbc5b65c0	-0.013390958
96	0x3c9ec0b8	0.019379005
97	0x3d9eab20	0.07747483
98	0x3dec61a4	0.11542061
99	0xbdddff42	-0.10839702
100	0xbd0d733c	-0.034533724
101	0xbd90a898	-0.07063407
102	0x3d4f2014	0.0505677
103	0xbd8d0214	-0.06885162
104	0x3c5d81e0	0.013519734
105	0xbc1ee3f0	-0.009697899
106	0x3db840f2	0.08996762
107	0x3d204808	0.039131194
108	0xbd09a394	-0.033603266
109	0x3db90ccc	0.09035644
110	0x3bc66c00	0.006055355
111	0xbdda1276	-0.106480524
112	0xbdeaca7e	-0.114644036
113	0xbc2c7a90	-0.010527268
114	0x3bb16200	0.005413294
115	0x3b4bc840	0.00310947
116	0xbdf019f8	-0.11723703
117	0x3dc99aca	0.09843977
118	0x3dcc1926	0.09965734
119	0x3dd39c7c	0.103325814
120	0xbcdb3498	-0.026758477
121	0xbd91d51a	-0.07120724
122	0xbd9222de	-0.07135557
123	0x3daa2b1e	0.08309005
124	0xbda88038	-0.08227581
125	0x3dd87eae	0.10571037
126	0x3db27ee0	0.08715606
127	0x3d247740	0.04015279
128	0x3de517a4	0.1118615
129	0xbe3eb030	-0.18621898
130	0x3e181afa	0.1485404
131	0xbe46b54f	-0.19405101
132	0x3d95616c	0.072939724
133	0xbd97deaf	-0.074155204
134	0xbe13b3d8	-0.14424074
135	0xbc37e6a9	-0.011224427
136	0xbe01920d	-0.1265337
137	0x3dd1b0f6	0.10238831
138	0x3d9b4c6b	0.07582935
139	0xbc2bf20f	-0.010494723
140	0x3d68da05	0.056848545
141	0x3d038d74	0.032117322
142	0x3c7f7bf3	0.015593517
143	0xbc2cacd7	-0.010539255
144	0xbd684852	-0.056709595
145	0x3e2f0b00	0.1709404
146	0xbc320e02	-0.010867598
147	0x3ce5898b	0.028019687
148	0xbdc69d90	-0.096980214
149	0xbdfa9ef9	-0.12237353
150	0x3dcc4c38	0.09975475
151	0xbd1641e9	-0.03668395
152	0xbdb73067	-0.08944779
153	0xbe016012	-0.12634304
154	0xbe0006b0	-0.12502551
155	0xbd15f2ec	-0.03660862
156	0xbe11190e	-0.14169714
157	0x3df0ef03	0.11764338
158	0xbdcbf8e2	-0.0995958
159	0xbcdc3fc2	-0.02688587
160	0xbe037d38	-0.12840736
161	0x3e768e66	0.24077758
162	0x3e6cffaf	0.2314441
163	0x3e54a6a9	0.20766701
164	0xbe13fc29	-0.1445166
165	0x3d4fa0c3	0.050690424
166	0xbb40688e	-0.0029359194
167	0x3d8aa3e8	0.06769544
168	0xbd3dc283	-0.04632808
169	0x3d3748eb	0.044747274
170	0x3e0db4b6	0.13838467
171	0x3cab1947	0.020886077
172	0xbe23bf08	-0.15990841
173	0x3db10af3	0.086446665
174	0xbe64500c	-0.2229616
175	0xbe59e7ed	-0.21279879
176	0xbe5ae73a	-0.21377268
177	0x3d4aafc3	0.049484026
178	0xbe2f9eac	-0.17150372
179	0xbe128bd4	-0.14311153
180	0xbc02d385	-0.0079850005
181	0x3da5df1f	0.080991976
182	0xbe2d1b86	-0.1690503
183	0x3dd71698	0.10502356
184	0xbc69bc9d	-0.01426616
185	0xbdcbde54	-0.09954515
186	0x3c051693	0.008123058
187	0x3d41679f	0.04721796
188	0x3db8144d	0.08988247
189	0x3e10491c	0.14090389
190	0xbe23ff1b	-0.16015284
191	0x3c32686d	0.010889155
192	0x3ee953ea	0.45571834
193	0x3eb45eaa	0.35228473
194	0x3e1baba8	0.152022
195	0x3ec82d6f	0.39097163
196	0x3ef3083b	0.47467217
197	0x3efe5020	0.49670506
198	0x3e3816f7	0.1797751
199	0x3ec9bfd8	0.39404178
200	0x3ecb6dc8	0.39732194
201	0x3e96d2c3	0.29457673
202	0x3ec88a67	0.39168093
203	0x3f0552f4	0.520797
204	0x3e8d3cd8	0.27585483
205	0x3f290982	0.6603013
206	0x3ee0cb3b	0.43905053
207	0x3f0abbcd	0.5419281
208	0x3f351ca4	0.7074683
209	0x3e6eb7dc	0.23312324
210	0x3ecc6083	0.39917383
211	0x3eccc5ee	0.39994758
212	0x3e8e9aba	0.27852422
213	0x3e8810fb	0.26575455
214	0x3ec5054c	0.38480604
215	0x3ea50704	0.32231915
216	0x3efd356b	0.49454817
217	0x3ef21a79	0.47285822
218	0x3edeccb4	0.4351555
219	0x3f12c6fc	0.57334876
220	0x3e4a74da	0.19771138
221	0x3f1c4a21	0.6105061
222	0x3ed9b61e	0.42521757
223	0x3f235378	0.6379924
224	0x3e5365f6	0.20644364
225	0x3e9c0cdb	0.30478558
226	0x3ee156db	0.44011578
227	0x3eb8d686	0.36101168
228	0x3ecbf65b	0.39836392
229	0x3f007f2c	0.5019405
230	0x3ea0a303	0.31374368
231	0x3dfe52aa	0.12418111
232	0x3eba040b	0.3633121
233	0x3ed4e883	0.41583642
234	0x3ea93a42	0.3305226
235	0x3e959b66	0.29220122
236	0x3e929233	0.28627166
237	0x3f1ffbb3	0.6249344
238	0x3eda87be	0.42681688
239	0x3ec6594c	0.38740003
240	0x3e2a715a	0.16644803
241	0x3f0a62b0	0.54056835
242	0x3ebb47bf	0.36578175
243	0x3e3e4d66	0.18584213
244	0x3f1383f0	0.57623196
245	0x3eaa151f	0.3321924
246	0x3e8050c0	0.25061607
247	0x3f15695a	0.5836388
248	0x3ec1cbbe	0.37850755
249	0x3ebaab76	0.3645894
250	0x3f02b6a9	0.5105997
251	0x3e676720	0.22597933
252	0x3ef74949	0.482981
253	0x3e7c4402	0.24635318
254	0x3e9c9aa7	0.3058674
255	0x3f1e0592	0.6172725

lstm.bias_hh_l0 f4 [256]
0	0x3ebe6c76	0.37192124
1	0x3ea13227	0.31483576
2	0x3e23e14a	0.1600391
3	0x3e7d4f09	0.24737181
4	0x3ef746d5	0.48296228
5	0x3f1e7437	0.6189608
6	0x3e22d1a7	0.15900289
7	0x3efd776c	0.49505174
8	0x3ee7f7a3	0.4530612
9	0x3e79d5b4	0.24397928
10	0x3f07050e	0.5274209
11	0x3f1459e6	0.57949674
12	0x3ec49ef3	0.3840252
13	0x3f0f34a7	0.55939716
14	0x3ea96631	0.33085778
15	0x3f35ce6a	0.7101809
16	0x3f30a9e8	0.69009256
17	0x3ea421b0	0.32056952
18	0x3ed174ec	0.40909517
19	0x3efdb9e6	0.49555892
20	0x3e814e1e	0.2525491
21	0x3e47b913	0.19504194
22	0x3f13a940	0.5768013
23	0x3edb1023	0.4278575
24	0x3f017514	0.5056927
25	0x3edf3e6c	0.43602312
26	0x3ed3045b	0.4121426
27	0x3f16a3be	0.588436
28	0x3e4fd466	0.20295867
29	0x3f0b1485	0.54328185
30	0x3f0df41b	0.554506
31	0x3edb4bc4	0.42831242
32	0x3ecb1c5d	0.39670077
33	0x3e096143	0.13416009
34	0x3eecae64	0.462268
35	0x3e717227	0.23578702
36	0x3eb9855f	0.36234567
37	0x3efdc779	0.49566248
38	0x3eea68c5	0.45783058
39	0x3dbdb6d2	0.09263386
40	0x3e9646ec	0.29350984
41	0x3f08a224	0.53372407
42	0x3f071dae	0.5277966
43	0x3eaa9ec8	0.33324265
44	0x3e66b7a7	0.22530995
45	0x3f07e65d	0.5308588
46	0x3eac7b6c	0.33687913
47	0x3ea5f28a	0.32411605
48	0x3e7005f1	0.23439766
49	0x3ee0bfb5	0.4389626
50	0x3eb29e47	0.3488638
51	0x3e781ffa	0.24230948
52	0x3f08a449	0.5337568
53	0x3e8be99a	0.2732666
54	0x3e98351b	0.29728016
55	0x3f10f06e	0.56616867
56	0x3f0bd7a2	0.54625905
57	0x3f00f3b9	0.5037189
58	0x3e9cf13d	0.306528
59	0x3e371eb8	0.17882812
60	0x3eb8bf89	0.3608363
61	0x3d8e2874	0.069413096
62	0x3e8d36d5	0.27580896
63	0x3ef5d1b7	0.48011562
64	0x3dca4508	0.09876448
65	0xbd99419e	-0.074832186
66	0x3db33102	0.08749582
67	0x3da567ac	0.080764145
68	0xbdcbadc4	-0.099452525
69	0xbd45ac80	-0.048260212
70	0xbd758c00	-0.059947968
71	0xbcc4fc88	-0.024046198
72	0xbac41180	-0.0014958829
73	0x3c9113e8	0.017709687
74	0xbceb1600	-0.028697014
75	0xbdf02e0c	-0.11727533
76	0x3c389b00	0.011267424
77	0xbbd48960	-0.006486103
78	0xbda5d9c0	-0.08098173
79	0x3d017214	0.031602934
80	0x3d284954	0.041085556
81	0x3de3b06e	0.11117636
82	0x3dbfda62	0.09367825
83	0x3dc43fce	0.09582482
84	0xbdd14de8	-0.102199376
85	0x3b9da440	0.00481084
86	0xbd6c9f60	-0.05776918
87	0x3d634a00	0.055490494
88	0x3dd5f322	0.104467645
89	0xbdcee994	-0.10103145
90	0xbd99de04	-0.07513049
91	0x3d38add4	0.04508765
92	0xbd848356	-0.06470363
93	0xbd8e3590	-0.0694381
94	0xbceee558	-0.029162094
95	0x3d83bf20	0.064329386
96	0xbd6a58bc	-0.05721353
97	0xbd85e5da	-0.06537981
98	0x3ddd3da8	0.108027756
99	0x3bb48340	0.0055088103
100	0xbc4c05d0	-0.012452558
101	0x3ddeb0ea	0.108735874
102	0xbca95f30	-0.020675272
103	0xbd5d035c	-0.053958282
104	0xbccffd68	-0.025389388
105	0xbde601f2	-0.1123084
106	0x3cc894b0	0.024484962
107	0x3c1da480	0.009621739
108	0xbd018538	-0.031621188
109	0xbd352bd8	-0.044231266
110	0xbc5ce9d0	-0.01348348
111	0xbd6f07b0	-0.05835694
112	0x3c21e990	0.009882346
113	0xbdb164a0	-0.08661771
114	0x3d1d0a44	0.03833987
115	0x3c3e1090	0.0116006285
116	0x3d0bd3bc	0.034137473
117	0x3dd14ac4	0.102193385
118	0x3d1c762c	0.038198635
119	0x3d948ae6	0.07253055
120	0x3ba617a0	0.0050687343
121	0x3b93d780	0.0045117736
122	0xbde18cfa	-0.11013217
123	0x3cdd6538	0.027025804
124	0x3d1097e8	0.03530112
125	0x3d096d94	0.033551767
126	0xbdf7b0e6	-0.120942876
127	0x3deacb0a	0.11464508
128	0x3e0572d0	0.13032079
129	0x3c5ff138	0.013668351
130	0x3e1beb53	0.15226488
131	0xbd85d55a	-0.06534834
132	0xbd879a9b	-0.066212855
133	0x3d982e9c	0.07430765
134	0xbe21fa84	-0.1581822
135	0xbd392727	-0.045203354
136	0x3bacfb80	0.0052790046
137	0x3e4a6b91	0.19767596
138	0x3d21d1ad	0.039506603
139	0xbd94c676	-0.07264416
140	0x3dbca9a5	0.092120446
141	0x3da14ab2	0.07875575
142	0xbe3d281a	-0.18472329
143	0x3cb54854	0.022129215
144	0xbd93030d	-0.07178316
145	0x3e4a1cca	0.19737545
146	0x3def9852	0.11698975
147	0xbdbb05f6	-0.09131996
148	0xbe339d8e	-0.17540571
149	0xbe5da5a9	-0.21645226
150	0xbd9127c3	-0.07087662
151	0xbd688dfa	-0.056776024
152	0x3d115fce	0.035491757
153	0xbd613cd2	-0.054989643
154	0xbda0db99	-0.07854385
155	0x3d5d5a6b	0.054041307
156	0xbe173ac4	-0.14768511
157	0xbcd90baa	-0.02649482
158	0xbdf73c14	-0.12072006
159	0x3c26261b	0.010140921
160	0xbe05866f	-0.13039564
161	0x3e7651bf	0.24054621
162	0x3e00c0eb	0.12573592
163	0x3e15eaf4	0.14640409
164	0xbde5ff3f	-0.11230325
165	0xbe17c463	-0.1482101
166	0xbd678bb7	-0.056529727
167	0x3e498767	0.19680558
168	0xbe50df65	-0.20397718
169	0x3da7fa69	0.08202059
170	0x3dd5c4f3	0.10437956
171	0xbdbfa010	-0.093567014
172	0xbe38bea6	-0.18041477
173	0xbdce3a8b	-0.1006976
174	0xbd1a9ece	-0.037749104
175	0xbe3aaeb7	-0.18230711
176	0xbd068298	-0.032839388
177	0x3d631f00	0.055449486
178	0xbe20c409	-0.15699781
179	0xbd892ad4	-0.06697622
180	0x3d864acc	0.06557235
181	0x3ce0ba07	0.027432455
182	0xbdf2b783	-0.11851408
183	0xbdbcb095	-0.09213368
184	0x3de8a50a	0.11359604
185	0x3dc5e195	0.09662167
186	0x3db5bd11	0.08873952
187	0x3e3ed8fb	0.18637459
188	0x3d90da6a	0.07072909
189	0x3e1400a5	0.14453371
190	0xbe3da976	-0.18521675
191	0x3bd60f87	0.0065326127
192	0x3ec08752	0.3760324
193	0x3ed3cba4	0.41366303
194	0x3e7e95bc	0.24861807
195	0x3e7b014d	0.24512215
196	0x3f08c007	0.5341801
197	0x3ee06122	0.43824106
198	0x3e659462	0.22419885
199	0x3ec87d45	0.39158073
200	0x3eb8714f	0.36023948
201	0x3eb68bbd	0.35653487
202	0x3ef656a0	0.48112965
203	0x3eeb997c	0.46015537
204	0x3eaa003a	0.33203298
205	0x3efcdea6	0.49388617
206	0x3ea47dce	0.3212723
207	0x3f2f4740	0.68468094
208	0x3f2e0410	0.6797495
209	0x3eb3fef2	0.35155445
210	0x3ef5c8cb	0.48004755
211	0x3e881fdf	0.26586816
212	0x3edd4f69	0.43224648
213	0x3eb0fe27	0.34568903
214	0x3eec7d96	0.46189564
215	0x3e9e1fc0	0.30883598
216	0x3f23f9d8	0.64053106
217	0x3ee522f6	0.44753236
218	0x3e9c50d8	0.3053043
219	0x3f0c1705	0.54722625
220	0x3e013e8c	0.12621516
221	0x3f0dac50	0.55341053
222	0x3f0044e5	0.50105125
223	0x3ede90ad	0.43469754
224	0x3e6d0a0c	0.23148364
225	0x3ea3990f	0.31952712
226	0x3e911fc0	0.28344536
227	0x3e268480	0.16261482
228	0x3ea975c0	0.3309765
229	0x3ea58093	0.32324657
230	0x3f074995	0.5284665
231	0x3e80d170	0.25159788
232	0x3e9201e9	0.28517082
233	0x3ece7bcc	0.40328825
234	0x3eb72833	0.35772857
235	0x3ecd0049	0.4003928
236	0x3e782a2c	0.24234837
237	0x3f02ee1b	0.5114457
238	0x3eb711ad	0.35755673
239	0x3e972367	0.29519197
240	0x3e92a674	0.2864262
241	0x3ed5cf36	0.41759652
242	0x3ec0a7ea	0.37628108
243	0x3e65fd44	0.22459894
244	0x3eef78fc	0.4677199
245	0x3ec4eff6	0.38464326
246	0x3eb45593	0.35221538
247	0x3f178b19	0.5919662
248	0x3f13d8f2	0.5775291
249	0x3ee2a759	0.442683
250	0x3ee7d887	0.45282385
251	0x3e31068e	0.17287657
252	0x3eb8309b	0.35974583
253	0x3e7f9b4d	0.24961586
254	0x3eeb3080	0.4593544
255	0x3f01db5f	0.5072536

fc.weight f4 [1, 64]
0	0xbeea28b3	-0.45734176
1	0x3ed6e1a9	0.4196904
2	0xbee816b3	-0.45329818
3	0x3e9cafb2	0.30602795
4	0xbf0dc321	-0.5537587
5	0x3f20f93d	0.6288031
6	0x3ef275d0	0.4735551
7	0xbf1c6b27	-0.61101
8	0xbf2716b8	-0.6526904
9	0xbed1b0c0	-0.40955162
10	0x3f27027b	0.6523816
11	0x3f0114d5	0.5042241
12	0xbee6ef1d	-0.45104304
13	0xbf133b0f	-0.5751199
14	0x3ee88c90	0.4541974
15	0x3f35d27d	0.71024305
16	0x3f1c1de1	0.6098309
17	0xbeb7a1e0	-0.35865688
18	0xbf117fde	-0.56835735
19	0x3f04a061	0.5180722
20	0x3ed0e92d	0.408029
21	0x3ecd7fa5	0.40136448
22	0xbf15fb3c	-0.5858648
23	0xbf1af0ad	-0.6052349
24	0x3f49921f	0.7873859
25	0x3f018b16	0.50602853
26	0x3ed32810	0.41241503
27	0xbf2c6269	-0.6733766
28	0x3ed28fd1	0.41125348
29	0xbf054bdb	-0.5206887
30	0x3ee1f4c9	0.4413207
31	0x3f1cdd34	0.6127503
32	0x3edbece9	0.42954186
33	0xbeafdaa7	-0.34346506
34	0xbeb86c5c	-0.36020172
35	0xbed11a8b	-0.40840563
36	0x3ed4c4ae	0.41556305
37	0x3f219119	0.63112026
38	0x3f1fd76c	0.6243808
39	0xbedeb7ef	-0.43499705
40	0x3ef77892	0.48334175
41	0x3f45aeb6	0.7721971
42	0xbef96139	-0.48706988
43	0x3f082b38	0.53190947
44	0x3e8200f7	0.2539136
45	0x3f27efc2	0.65600216
46	0x3eca3de9	0.3950036
47	0x3e9c284e	0.304995
48	0x3ec85a71	0.391315
49	0x3f11e0d0	0.5698366
50	0x3ea69c62	0.32541186
51	0x3ee8f0c8	0.45496202
52	0x3f21aafe	0.6315154
53	0xbeffd80d	-0.4996952
54	0x3ed1eab6	0.40999383
55	0x3f2ff3aa	0.68731177
56	0xbef9d514	-0.48795378
57	0x3f314972	0.69252694
58	0xbf12cf2f	-0.5734739
59	0xbe9d1c70	-0.3068576
60	0xbf0eee18	-0.5583205
61	0xbebb510a	-0.36585265
62	0x3ec0bb26	0.37642783
63	0x3f2af1a7	0.6677498

exp_avg f4 [256, 5]
0	0xb8599e9b	-5.1884545e-05
1	0x37d3b772	2.5238583e-05
2	0xb9a74f1a	-0.00031911657
3	0xb77e7476	-1.5166695e-05
4	0xb815fcb2	-3.575971e-05
5	0xb684aafd	-3.953812e-06
6	0x3882f4ed	6.244504e-05
7	0x39a5ba14	0.0003160989
8	0x3881ff03	6.198699e-05
9	0xb82f8b8c	-4.1853214e-05
10	0xb69bb0f3	-4.6399596e-06
11	0x37d12c8c	2.4935485e-05
12	0x399c4e65	0.00029813047
13	0x38b98dcd	8.8479e-05
14	0xb5e75449	-1.7235371e-06
15	0xb7719f71	-1.4401842e-05
16	0x37bd8dde	2.2596618e-05
17	0xb8f362f2	-0.00011605573
18	0xb8717d26	-5.757543e-05
19	0xb78bc54f	-1.666197e-05
20	0x378725dc	1.6110884e-05
21	0x38caa323	9.662497e-05
22	0x39bcbcce	0.00035998825
23	0xb721a386	-9.634421e-06
24	0xb89cc4e6	-7.475335e-05
25	0xb835258b	-4.3188727e-05
26	0x38261459	3.9596434e-05
27	0xb9e89d7f	-0.00044367832
28	0xb8be0958	-9.0616464e-05
29	0xb8a1deac	-7.718554e-05
30	0xb7129fe1	-8.739503e-06
31	0x37df8e30	2.6649883e-05
32	0x39a6007e	0.00031662354
33	0x38b0cb8c	8.4302475e-05
34	0xb5c13596	-1.4395216e-06
35	0x3798ab81	1.8199675e-05
36	0x38d6efab	0.00010248957
37	0x39cce4f8	0.00039080507
38	0xb715205b	-8.888625e-06
39	0xb89a1565	-7.347277e-05
40	0xb83072cc	-4.2068583e-05
41	0x381dedb4	3.7653095e-05
42	0xba0115b2	-0.00049241923
43	0xb8ecc8f8	-0.0001129079
44	0xb8a76da9	-7.983606e-05
45	0xb822cd1d	-3.8814836e-05
46	0x37322562	1.0618331e-05
47	0xb96c032b	-0.00022507894
48	0xb80841b9	-3.2486136e-05
49	0xb7ab3247	-2.04082e-05
50	0xb87d1bd8	-6.0345832e-05
51	0x384661be	4.7297908e-05
52	0xba160281	-0.0005722419
53	0xb8a0dde4	-7.670725e-05
54	0xb8d0ffbf	-9.965849e-05
55	0xb86a6d44	-5.589171e-05
56	0x38472a7c	4.7484864e-05
57	0xb9ba2343	-0.00035502957
58	0xb805b1c6	-3.1875235e-05
59	0xb8a73e90	-7.974834e-05
60	0xb741b5d5	-1.15460325e-05
61	0x38a5eb27	7.911614e-05
62	0x3996abd1	0.00028738243
63	0x38949f9f	7.086922e-05
64	0xb87cfa7e	-6.031477e-05
65	0xb84a26d7	-4.8196725e-05
66	0x384dbfa8	4.9054303e-05
67	0xb9d623ad	-0.0004084384
68	0xb8a05110	-7.6444936e-05
69	0xb8c43003	-9.354951e-05
70	0xb6d599bb	-6.3657913e-06
71	0x389e8252	7.558301e-05
72	0x39b3fb11	0.000343286
73	0x388927c6	6.5400774e-05
74	0xb87c5cf4	-6.016805e-05
75	0xb7e28958	-2.7005255e-05
76	0x3808ae03	3.2586988e-05
77	0xb9ff6baa	-0.00048717606
78	0xb9023ba1	-0.0001241998
79	0xb8bfae79	-9.140088e-05
80	0xb8730446	-5.7939695e-05
81	0x3869d571	5.575031e-05
82	0xba04f6d5	-0.0005072181
83	0xb8e9e4ee	-0.00011152947
84	0xb8b38547	-8.56021e-05
85	0xb83c3a29	-4.487686e-05
86	0xb66578b8	-3.4193927e-06
87	0xb9647844	-0.00021788577
88	0x3760f2fb	1.3408014e-05
89	0x3677ec52	3.6943425e-06
90	0x36dd36c8	6.5926906e-06
91	0x38c40a33	9.347908e-05
92	0x39d7fd1e	0.00041196583
93	0x37178538	9.031319e-06
94	0xb89bd002	-7.4297204e-05
95	0x36506cad	3.1057673e-06
96	0x388725e3	6.4443586e-05
97	0x398bb3af	0.0002664602
98	0xb7b12b7a	-2.112029e-05
99	0xb85754b1	-5.133887e-05
100	0xb73cfb07	-1.126412e-05
101	0x37aebf80	2.083159e-05
102	0xb7e89fbc	-2.7730937e-05
103	0xb877b87f	-5.9061214e-05
104	0xb79da9aa	-1.8794864e-05
105	0xb68a918d	-4.129665e-06
106	0x37dbe3a5	2.621284e-05
107	0x398bbfcd	0.0002665505
108	0x384020ce	4.580692e-05
109	0xb724d0b0	-9.823751e-06
110	0xb885be79	-6.3774125e-05
111	0x387bb1a9	6.0008522e-05
112	0xb9ece419	-0.00045183374
113	0xb8b37c4f	-8.5585394e-05
114	0xb8a3d330	-7.8117824e-05
115	0xb77279b9	-1.4452665e-05
116	0x38ef44ae	0.00011409201
117	0x399fbaf9	0.0003046615
118	0x3521f96b	6.0340125e-07
119	0xb8beed11	-9.104063e-05
120	0xb8944e1c	-7.071739e-05
121	0x389222e7	6.9683236e-05
122	0xba23c366	-0.0006247073
123	0xb90e9e10	-0.00013601058
124	0xb904b6ec	-0.00012656645
125	0xb84f4bda	-4.9423288e-05
126	0x37b58ee4	2.164342e-05
127	0xb9c495bd	-0.00037495597
128	0xb714027c	-8.822066e-06
129	0xb8520675	-5.0073915e-05
130	0xb84214af	-4.6272467e-05
131	0x3803c382	3.1414915e-05
132	0xb9777708	-0.00023600098
133	0xb85a880c	-5.2101954e-05
134	0xb7d91e54	-2.5882538e-05
135	0xb80cd868	-3.3580145e-05
136	0x3818f77e	3.647012e-05
137	0xba055771	-0.0005086577
138	0xb908b0e4	-0.00013035868
139	0xb8acd4da	-8.241246e-05
140	0x3706c573	8.032995e-06
141	0x3797291f	1.8019751e-05
142	0x397db0e3	0.00024193856
143	0x38743c4a	5.8230282e-05
144	0xb6944919	-4.4192534e-06
145	0xb8434fe4	-4.6566027e-05
146	0x38286815	4.0151255e-05
147	0xb9d6b034	-0.00040948542
148	0xb8a4e36b	-7.862489e-05
149	0xb85048f6	-4.9659015e-05
150	0x364b9ba3	3.033995e-06
151	0x386a9b46	5.5934557e-05
152	0x39996dc1	0.00029264207
153	0x37fcad39	3.0121404e-05
154	0xb83a6fef	-4.4450102e-05
155	0xb83af470	-4.4573506e-05
156	0x3837ad6c	4.379211e-05
157	0xba1308fd	-0.00056089443
158	0xb90eea0b	-0.00013629363
159	0xb893232b	-7.016057e-05
160	0xb6aadef9	-5.0923522e-06
161	0x3848fee3	4.7921098e-05
162	0x39906b6e	0.00027545862
163	0x388af85f	6.6266155e-05
164	0xb7fa7f96	-2.9861734e-05
165	0xb82fe1b1	-4.1933443e-05
166	0x37a4bd56	1.963849e-05
167	0x39028368	0.00012446719
168	0x3897e00e	7.2419745e-05
169	0xb51bb44e	-5.800438e-07
170	0xb80a0814	-3.2909287e-05
171	0x37a59c49	1.9742309e-05
172	0xb832e682	-4.2653184e-05
173	0xb7a43a0f	-1.957736e-05
174	0xb717684e	-9.024587e-06
175	0xb8524719	-5.0134116e-05
176	0xb6966fef	-4.483379e-06
177	0xb98e08b4	-0.00027090835
178	0xb73cb38b	-1.1247476e-05
179	0xb681b485	-3.865515e-06
180	0xb8457939	-4.7081357e-05
181	0x378be839	1.6678228e-05
182	0xb9af13e0	-0.0003339341
183	0xb7fab9bb	-2.988881e-05
184	0xb7a9efca	-2.025803e-05
185	0xb8703e34	-5.727839e-05
186	0x38023321	3.1042033e-05
187	0xb9dc8195	-0.00042058216
188	0xb819afe0	-3.664184e-05
189	0xb831f1bb	-4.2425218e-05
190	0xb7454614	-1.1758431e-05
191	0x38f29fc2	0.000115692164
192	0x39ccf972	0.00039095763
193	0x384715ab	4.7465477e-05
194	0xb8c6e485	-9.483941e-05
195	0xb768672a	-1.3852297e-05
196	0x38097f96	3.278217e-05
197	0x399eb593	0.00030271392
198	0x388aba72	6.615081e-05
199	0xb6ae9bcb	-5.203741e-06
200	0xb892ed52	-7.006027e-05
201	0x379f828d	1.901507e-05
202	0xb9af1d99	-0.00033400653
203	0x37dd2aea	2.6365236e-05
204	0xb79e59f4	-1.8876955e-05
205	0x382957ee	4.037463e-05
206	0x39009ff0	0.00012266613
207	0x39fc127e	0.00048078963
208	0xb7d8a2b7	-2.5824977e-05
209	0xb8cef402	-9.8682955e-05
210	0xb8179b71	-3.614597e-05
211	0x37c9ca55	2.4055285e-05
212	0xb986506e	-0.00025618396
213	0xb8e7717a	-0.00011036075
214	0xb7b84b9f	-2.1969723e-05
215	0xb69dc79f	-4.7022036e-06
216	0x38bedcfa	9.101066e-05
217	0x39b03747	0.0003361052
218	0x380d883f	3.374391e-05
219	0xb87f7334	-6.090403e-05
220	0xb71508c2	-8.883131e-06
221	0x37bc675a	2.2459473e-05
222	0x3915eb1f	0.00014297337
223	0x386d4e24	5.6577977e-05
224	0xb74bce95	-1.21478415e-05
225	0xb82f555b	-4.1802745e-05
226	0x3834eaef	4.3134143e-05
227	0xba171902	-0.00057639193
228	0xb9142221	-0.00014127094
229	0xb8acf01c	-8.246323e-05
230	0xb8603290	-5.345285e-05
231	0x37fc7a9c	3.0097835e-05
232	0xb9988d1e	-0.0002909684
233	0xb7d2b95a	-2.5120262e-05
234	0xb816b93b	-3.5935296e-05
235	0xb8076900	-3.2284297e-05
236	0x369b665c	4.631276e-06
237	0xb9318874	-0.00016930868
238	0xb6cce53e	-6.106361e-06
239	0xb61e1778	-2.3557495e-06
240	0x35e6600d	1.716429e-06
241	0x37f4a8b7	2.916563e-05
242	0x39915dd7	0.0002772647
243	0x3885b728	6.37605e-05
244	0xb71dbcd0	-9.401891e-06
245	0x377b97e2	1.4996129e-05
246	0x38d9c9e4	0.000103849714
247	0x39d93fe4	0.00041437068
248	0xb592a75c	-1.0926556e-06
249	0xb8a26393	-7.743309e-05
250	0xb7f95d2d	-2.9726501e-05
251	0x37ccc38b	2.4409752e-05
252	0xb90c2094	-0.00013363577
253	0xb8499f1b	-4.8070313e-05
254	0xb79324fd	-1.754099e-05
255	0xb5850393	-9.910312e-07

exp_avg_sq f4 [256, 5]
0	0x334c63a4	4.7588074e-08
1	0x3338cae2	4.302536e-08
2	0x3464ea14	2.1319312e-07
3	0x34150053	1.3876824e-07
4	0x335d3afd	5.1509222e-08
5	0x33bf6bd0	8.9137416e-08
6	0x33bda3f7	8.8308234e-08
7	0x344fdb9d	1.9358272e-07
8	0x33449927	4.5774097e-08
9	0x332ed7ff	4.070898e-08
10	0x333b17e4	4.356106e-08
11	0x33353f4a	4.2199908e-08
12	0x34996ae3	2.857624e-07
13	0x344ff746	1.9368335e-07
14	0x33ccf5b8	9.544186e-08
15	0x32da7483	2.5431524e-08
16	0x32d9c627	2.5352234e-08
17	0x33255936	3.8498193e-08
18	0x339a19b0	7.175856e-08
19	0x32f294e3	2.8240214e-08
20	0x33706e44	5.597964e-08
21	0x3379fd56	5.8205238e-08
22	0x34a1dc92	3.0149073e-07
23	0x3309dd59	3.2099113e-08
24	0x3334f0ed	4.2128637e-08
25	0x33b43819	8.392107e-08
26	0x33949467	6.918781e-08
27	0x35160e37	5.590004e-07
28	0x34bd5dc4	3.5272217e-07
29	0x33f2d3ff	1.1307565e-07
30	0x3356dbd6	5.0025697e-08
31	0x3356ed04	5.0041322e-08
32	0x34970470	2.812917e-07
33	0x345777e2	2.0067048e-07
34	0x3333afdb	4.1836625e-08
35	0x33f91068	1.159795e-07
36	0x3407ec95	1.2658923e-07
37	0x35119cc9	5.424486e-07
38	0x3392f476	6.843122e-08
39	0x33a83830	7.83333e-08
40	0x3291338e	1.6903666e-08
41	0x326ca395	1.3774202e-08
42	0x342cffee	1.6111855e-07
43	0x33893b51	6.390349e-08
44	0x32b8e1b9	2.1523066e-08
45	0x338f725b	6.6797575e-08
46	0x33912c7d	6.760181e-08
47	0x33bb5af1	8.724408e-08
48	0x32f48860	2.8467355e-08
49	0x328ae68e	1.6170159e-08
50	0x341f0ead	1.4813368e-07
51	0x3400cde6	1.1995834e-07
52	0x3586f0c2	1.0053848e-06
53	0x35091721	5.1070134e-07
54	0x341e5d4f	1.4748842e-07
55	0x3375c6f8	5.722447e-08
56	0x3343b3dd	4.556556e-08
57	0x34df8860	4.1636213e-07
58	0x3446557c	1.8471286e-07
59	0x33a3c736	7.626515e-08
60	0x335a4a14	5.0824454e-08
61	0x335f2ae1	5.196023e-08
62	0x348b0b8b	2.5899166e-07
63	0x339d0a5e	7.312768e-08
64	0x32cd5f97	2.390861e-08
65	0x338a58d7	6.4422856e-08
66	0x335e9d17	5.1831275e-08
67	0x34bff69b	3.5755951e-07
68	0x3451c637	1.9536752e-07
69	0x337ff551	5.9594928e-08
70	0x342c136e	1.6025817e-07
71	0x342d2623	1.6125755e-07
72	0x347cf3a0	2.3557959e-07
73	0x338fe896	6.7012635e-08
74	0x33356e4a	4.2242654e-08
75	0x336f09f1	5.5655565e-08
76	0x334e216f	4.799352e-08
77	0x34d6d2ae	4.0013896e-07
78	0x34829275	2.4320948e-07
79	0x337085e0	5.6001113e-08
80	0x339f72ca	7.4248945e-08
81	0x338bf168	6.5166034e-08
82	0x34e50e16	4.2664823e-07
83	0x34ad4449	3.2273445e-07
84	0x33a222fe	7.550078e-08
85	0x334bab7f	4.7420595e-08
86	0x3340549c	4.4780435e-08
87	0x346aed1f	2.1879212e-07
88	0x334acfed	4.7220897e-08
89	0x33b7d6c5	8.560668e-08
90	0x339b0ebc	7.22043e-08
91	0x339dfc55	7.356781e-08
92	0x35072f06	5.0359847e-07
93	0x34435685	1.8192266e-07
94	0x336d7614	5.5288254e-08
95	0x3384802b	6.1700426e-08
96	0x33917502	6.773372e-08
97	0x341cdb5f	1.4608439e-07
98	0x331f5ab9	3.7102584e-08
99	0x3326cb67	3.883488e-08
100	0x33ec6a6c	1.10089644e-07
101	0x33f18cc6	1.12480436e-07
102	0x33033a81	3.0554023e-08
103	0x33382755	4.287661e-08
104	0x32861d39	1.5612942e-08
105	0x334aebb9	4.724618e-08
106	0x334ea868	4.8116277e-08
107	0x34604cb4	2.088953e-07
108	0x3433819c	1.6717826e-07
109	0x3350aa76	4.8583807e-08
110	0x33bec4af	8.883341e-08
111	0x339e3661	7.36734e-08
112	0x3517cc14	5.6548856e-07
113	0x34baa0b3	3.4762124e-07
114	0x341b5ff9	1.4470415e-07
115	0x3339d7b7	4.326986e-08
116	0x33607f8b	5.2270064e-08
117	0x34993524	2.8537136e-07
118	0x33a8f31b	7.86733e-08
119	0x333fadb6	4.4628642e-08
120	0x340f33b1	1.3336718e-07
121	0x33fe620a	1.184563e-07
122	0x3533e19f	6.701102e-07
123	0x34a7f945	3.1287541e-07
124	0x33b57e6f	8.4514674e-08
125	0x3349fc86	4.7028628e-08
126	0x332f110e	4.0760874e-08
127	0x34961547	2.7955159e-07
128	0x3407e325	1.265549e-07
129	0x3328f97b	3.934245e-08
130	0x3255458e	1.2414047e-08
131	0x3240d3a4	1.1223992e-08
132	0x339ddb73	7.3508e-08
133	0x339072a8	6.7263784e-08
134	0x3360510b	5.2227772e-08
135	0x33ae5d94	8.119528e-08
136	0x33907ef8	6.728618e-08
137	0x35179690	5.647098e-07
138	0x34bdb839	3.5338033e-07
139	0x33d61fb7	9.9709204e-08
140	0x345dbe22	2.0651399e-07
141	0x345e0842	2.0678365e-07
142	0x3449fd9a	1.8811843e-07
143	0x33b7af7e	8.5535234e-08
144	0x33056bdd	3.1064577e-08
145	0x33749e6d	5.6954764e-08
146	0x33541e4e	4.938766e-08
147	0x34c3dea7	3.648358e-07
148	0x349aecee	2.8857124e-07
149	0x33a60133	7.7301955e-08
150	0x328e351e	1.655513e-08
151	0x32941cad	1.7242508e-08
152	0x33d2fcc1	9.824863e-08
153	0x32b51253	2.1079506e-08
154	0x329335b5	1.7137475e-08
155	0x33ace96c	8.051833e-08
156	0x3396a0d9	7.014177e-08
157	0x3525cf59	6.176902e-07
158	0x34daf76a	4.0785682e-07
159	0x33b60ea3	8.477698e-08
160	0x339e6771	7.376264e-08
161	0x339de24c	7.3520454e-08
162	0x3470a25b	2.2410806e-07
163	0x33a9fcbb	7.915647e-08
164	0x330b02c4	3.2365975e-08
165	0x3391f40b	6.79648e-08
166	0x33913988	6.7625535e-08
167	0x340ae64f	1.2936037e-07
168	0x3458e665	2.0200385e-07
169	0x34303c35	1.641318e-07
170	0x3284ce56	1.5460653e-08
171	0x32840857	1.5370615e-08
172	0x32bb3bf4	2.1796929e-08
173	0x32edb18f	2.7671176e-08
174	0x33374ae0	4.2676106e-08
175	0x3381a198	6.036424e-08
176	0x337b6884	5.8535548e-08
177	0x3499e6d4	2.866642e-07
178	0x3351347b	4.8709335e-08
179	0x33a43a05	7.647399e-08
180	0x335610cb	4.984103e-08
181	0x3342eca6	4.5384375e-08
182	0x34e30c27	4.2290887e-07
183	0x349320dd	2.7404795e-07
184	0x34283005	1.5663689e-07
185	0x33b90147	8.614966e-08
186	0x339a0677	7.17236e-08
187	0x3510f020	5.399361e-07
188	0x34c45501	3.6569693e-07
189	0x3477c7bb	2.3076329e-07
190	0x3383c6e8	6.136344e-08
191	0x3396f3af	7.029245e-08
192	0x34fe2b2f	4.7342607e-07
193	0x33abc3e7	7.9984424e-08
194	0x33c1ead5	9.0299785e-08
195	0x336a35b7	5.4531224e-08
196	0x33671e18	5.381125e-08
197	0x34bb5e54	3.4900097e-07
198	0x349b9dd5	2.8985838e-07
199	0x33960653	6.98607e-08
200	0x33934cc0	6.859182e-08
201	0x33821bc0	6.0586444e-08
202	0x34f1f116	4.506516e-07
203	0x34735b39	2.2664325e-07
204	0x345ee003	2.0756856e-07
205	0x34159f58	1.3934675e-07
206	0x342ab004	1.5896518e-07
207	0x356d5b61	8.8422354e-07
208	0x3399be94	7.159284e-08
209	0x341fb12c	1.4872484e-07
210	0x3240b871	1.1217808e-08
211	0x322af949	9.951983e-09
212	0x33a205a2	7.5447375e-08
213	0x336ad038	5.4671744e-08
214	0x33201c16	3.7278447e-08
215	0x33b7f4c7	8.566126e-08
216	0x33bb8238	8.731553e-08
217	0x34c95af2	3.750534e-07
218	0x33b94c0a	8.628565e-08
219	0x3311c085	3.393554e-08
220	0x32dd5351	2.5765674e-08
221	0x32dccdd8	2.5704978e-08
222	0x32e94900	2.7157967e-08
223	0x32b23ec5	2.0750472e-08
224	0x3313bd32	3.4398177e-08
225	0x33e31f40	1.05761956e-07
226	0x33c098e3	8.968507e-08
227	0x354f1f31	7.71589e-07
228	0x350515ed	4.957827e-07
229	0x34041327	1.2300426e-07
230	0x33243822	3.8235278e-08
231	0x331e23f5	3.6819944e-08
232	0x3482b1ba	2.43437e-07
233	0x3440f296	1.7969646e-07
234	0x33a5610c	7.701064e-08
235	0x332e49bc	4.0579593e-08
236	0x3334e444	4.2117122e-08
237	0x33d89df2	1.0087014e-07
238	0x3386bfca	6.2747475e-08
239	0x33903710	6.715538e-08
240	0x3412e1cd	1.3679455e-07
241	0x34125e69	1.3631656e-07
242	0x34682648	2.162061e-07
243	0x33baa606	8.6914994e-08
244	0x3304af24	3.0892934e-08
245	0x331ac178	3.6031878e-08
246	0x33347a8c	4.202097e-08
247	0x3487251d	2.5172713e-07
248	0x32ecf03f	2.7583267e-08
249	0x332eaa19	4.0667235e-08
250	0x3317f0d5	3.5376463e-08
251	0x331ab939	3.6024378e-08
252	0x3319bcee	3.579492e-08
253	0x33712d1f	5.6153223e-08
254	0x332fd531	4.093926e-08
255	0x33ebd4d6	1.0981755e-07

exp_avg f4 [256, 64]
0	0x00000000	0.0
1	0x00000000	0.0
2	0x00000000	0.0
3	0x00000000	0.0
4	0x00000000	0.0
5	0x00000000	0.0
6	0x00000000	0.0
7	0x00000000	0.0
8	0x00000000	0.0
9	0x00000000	0.0
10	0x00000000	0.0
11	0x00000000	0.0
12	0x00000000	0.0
13	0x00000000	0.0
14	0x00000000	0.0
15	0x00000000	0.0
16	0x00000000	0.0
17	0x00000000	0.0
18	0x00000000	0.0
19	0x00000000	0.0
20	0x00000000	0.0
21	0x00000000	0.0
22	0x00000000	0.0
23	0x00000000	0.0
24	0x00000000	0.0
25	0x00000000	0.0
26	0x00000000	0.0
27	0x00000000	0.0
28	0x00000000	0.0
29	0x00000000	0.0
30	0x00000000	0.0
31	0x00000000	0.0
32	0x00000000	0.0
33	0x00000000	0.0
34	0x00000000	0.0
35	0x00000000	0.0
36	0x00000000	0.0
37	0x00000000	0.0
38	0x00000000	0.0
39	0x00000000	0.0
40	0x00000000	0.0
41	0x00000000	0.0
42	0x00000000	0.0
43	0x00000000	0.0
44	0x00000000	0.0
45	0x00000000	0.0
46	0x00000000	0.0
47	0x00000000	0.0
48	0x00000000	0.0
49	0x00000000	0.0
50	0x00000000	0.0
51	0x00000000	0.0
52	0x00000000	0.0
53	0x00000000	0.0
54	0x00000000	0.0
55	0x00000000	0.0
56	0x00000000	0.0
57	0x00000000	0.0
58	0x00000000	0.0
59	0x00000000	0.0
60	0x00000000	0.0
61	0x00000000	0.0
62	0x00000000	0.0
63	0x00000000	0.0
64	0x00000000	0.0
65	0x00000000	0.0
66	0x00000000	0.0
67	0x00000000	0.0
68	0x00000000	0.0
69	0x00000000	0.0
70	0x00000000	0.0
71	0x00000000	0.0
72	0x00000000	0.0
73	0x00000000	0.0
74	0x00000000	0.0
75	0x00000000	0.0
76	0x00000000	0.0
77	0x00000000	0.0
78	0x00000000	0.0
79	0x00000000	0.0
80	0x00000000	0.0
81	0x00000000	0.0
82	0x00000000	0.0
83	0x00000000	0.0
84	0x00000000	0.0
85	0x00000000	0.0
86	0x00000000	0.0
87	0x00000000	0.0
88	0x00000000	0.0
89	0x00000000	0.0
90	0x00000000	0.0
91	0x00000000	0.0
92	0x00000000	0.0
93	0x00000000	0.0
94	0x00000000	0.0
95	0x00000000	0.0
96	0x00000000	0.0
97	0x00000000	0.0
98	0x00000000	0.0
99	0x00000000	0.0
100	0x00000000	0.0
101	0x00000000	0.0
102	0x00000000	0.0
103	0x00000000	0.0
104	0x00000000	0.0
105	0x00000000	0.0
106	0x00000000	0.0
107	0x00000000	0.0
108	0x00000000	0.0
109	0x00000000	0.0
110	0x00000000	0.0
111	0x00000000	0.0
112	0x00000000	0.0
113	0x00000000	0.0
114	0x00000000	0.0
115	0x00000000	0.0
116	0x00000000	0.0
117	0x00000000	0.0
118	0x00000000	0.0
119	0x00000000	0.0
120	0x00000000	0.0
121	0x00000000	0.0
122	0x00000000	0.0
123	0x00000000	0.0
124	0x00000000	0.0
125	0x00000000	0.0
126	0x00000000	0.0
127	0x00000000	0.0
128	0x00000000	0.0
129	0x00000000	0.0
130	0x00000000	0.0
131	0x00000000	0.0
132	0x00000000	0.0
133	0x00000000	0.0
134	0x00000000	0.0
135	0x00000000	0.0
136	0x00000000	0.0
137	0x00000000	0.0
138	0x00000000	0.0
139	0x00000000	0.0
140	0x00000000	0.0
141	0x00000000	0.0
142	0x00000000	0.0
143	0x00000000	0.0
144	0x00000000	0.0
145	0x00000000	0.0
146	0x00000000	0.0
147	0x00000000	0.0
148	0x00000000	0.0
149	0x00000000	0.0
150	0x00000000	0.0
151	0x00000000	0.0
152	0x00000000	0.0
153	0x00000000	0.0
154	0x00000000	0.0
155	0x00000000	0.0
156	0x00000000	0.0
157	0x00000000	0.0
158	0x00000000	0.0
159	0x00000000	0.0
160	0x00000000	0.0
161	0x00000000	0.0
162	0x00000000	0.0
163	0x00000000	0.0
164	0x00000000	0.0
165	0x00000000	0.0
166	0x00000000	0.0
167	0x00000000	0.0
168	0x00000000	0.0
169	0x00000000	0.0
170	0x00000000	0.0
171	0x00000000	0.0
172	0x00000000	0.0
173	0x00000000	0.0
174	0x00000000	0.0
175	0x00000000	0.0
176	0x00000000	0.0
177	0x00000000	0.0
178	0x00000000	0.0
179	0x00000000	0.0
180	0x00000000	0.0
181	0x00000000	0.0
182	0x00000000	0.0
183	0x00000000	0.0
184	0x00000000	0.0
185	0x00000000	0.0
186	0x00000000	0.0
187	0x00000000	0.0
188	0x00000000	0.0
189	0x00000000	0.0
190	0x00000000	0.0
191	0x00000000	0.0
192	0x00000000	0.0
193	0x00000000	0.0
194	0x00000000	0.0
195	0x00000000	0.0
196	0x00000000	0.0
197	0x00000000	0.0
198	0x00000000	0.0
199	0x00000000	0.0
200	0x00000000	0.0
201	0x00000000	0.0
202	0x00000000	0.0
203	0x00000000	0.0
204	0x00000000	0.0
205	0x00000000	0.0
206	0x00000000	0.0
207	0x00000000	0.0
208	0x00000000	0.0
209	0x00000000	0.0
210	0x00000000	0.0
211	0x00000000	0.0
212	0x00000000	0.0
213	0x00000000	0.0
214	0x00000000	0.0
215	0x00000000	0.0
216	0x00000000	0.0
217	0x00000000	0.0
218	0x00000000	0.0
219	0x00000000	0.0
220	0x00000000	0.0
221	0x00000000	0.0
222	0x00000000	0.0
223	0x00000000	0.0
224	0x00000000	0.0
225	0x00000000	0.0
226	0x00000000	0.0
227	0x00000000	0.0
228	0x00000000	0.0
229	0x00000000	0.0
230	0x00000000	0.0
231	0x00000000	0.0
232	0x00000000	0.0
233	0x00000000	0.0
234	0x00000000	0.0
235	0x00000000	0.0
236	0x00000000	0.0
237	0x00000000	0.0
238	0x00000000	0.0
239	0x00000000	0.0
240	0x00000000	0.0
241	0x00000000	0.0
242	0x00000000	0.0
243	0x00000000	0.0
244	0x00000000	0.0
245	0x00000000	0.0
246	0x00000000	0.0
247	0x00000000	0.0
248	0x00000000	0.0
249	0x00000000	0.0
250	0x00000000	0.0
251	0x00000000	0.0
252	0x00000000	0.0
253	0x00000000	0.0
254	0x00000000	0.0
255	0x00000000	0.0
