lightning_logs/version_78/checkpoints/epoch=9-step=4350.ckpt (torch, 227924 bytes, 15 tensors)

lstm.weight_ih_l0 f4 [256, 5]
00000000: 936d 83be 52a5 8e3e 96dd 7dbe 57a5 c4be
00000010: 0d30 0d3f 67b9 babe 0509 fa3d cc86 0cbf
00000020: aa33 74be 683c ec3e 068c 9abe 49f5 073f
00000030: 25bd 2e3e 6109 6fbe e91f ab3e 9eda c8be
00000040: 1f23 933e f2b8 f9be 5b3c 3ebe a322 b13e
00000050: 7fda 44be 0a54 8d3e c3bf 15bf 32e0 59be
00000060: d461 ea3e 9764 4e3d 1baf f83d 3fcc 3a3e
00000070: f5e9 a6bc 4f9e a43d d818 e0be 9085 a53e
00000080: e7f9 24be f701 183e ebf3 913d 17e0 81be
00000090: 56dd 113e ee60 433e 7cdf 92bc 8d6a 083e
000000a0: 91f7 fdbe fa4c f53e 9531 1cbf dcd4 e7bd
000000b0: 1d37 fd3e 9bd5 a9be 7e5b c13e ef13 493d
000000c0: 8012 a9bd 56e6 b73d de49 dfbd 01db cbbb
000000d0: c5ea a4be eb43 efbd 3d35 773e 19e5 ccbe
000000e0: 9693 df3e b9ae 05bf 56de a9be a1c7 ec3e
000000f0: b1ae c6be 47ff 583e d424 b4be 3b4a 8e3d
00000100: 5ef2 313e dbf1 cebe 6c4c a63e 171d aebe
00000110: 8e79 e4be 3f93 c23e 21bf bdbe 6230 e73e
00000120: e20b b6be e1e0 f7be be9a 1b3f ec7f 0abe
00000130: 02c1 793e c4b6 92be 7d14 f83d bd0f bf3c
00000140: 6cd7 39bd 947f 4f3e 1779 833e 5ff2 363d
00000150: 0437 8cbd a282 cbbe a491 6e3e 5699 bcbe
00000160: e3b4 873d ce02 b23e dee2 ccbe 4370 ba3e
00000170: 626e fdbe c9ec 0bbf 9382 543f 2939 cdbd
00000180: 8223 8e3e f2aa 06bf fc76 403e b86a 05bd
00000190: 6de4 bbbe 7000 bd3e bc52 d7bd c464 d93c
000001a0: 4554 9d3e 9bf9 27be 59c0 7f3e d9d5 343d
000001b0: 40ba 5cbe 5f33 c03e 64e3 d5be 5be8 b03e
000001c0: f840 93be 6ad2 ac3e 35b0 e73d fd06 a6be
000001d0: ba97 953e 2bd3 123e 0bf5 ab3c fb96 bfbc
000001e0: 4e9c b7be 3012 c03e 65ac 123f 786f 70bd
000001f0: 0809 7f3e 4e0f 34be 0434 bb3e 9b52 f1be
00000200: c70f 383e 0933 283e 2468 a1be 89b7 533e
00000210: d19c 673d 8e92 fe3d 5bdc 4f3e 19a0 93be
00000220: 7929 993e 0e8f 9e3e 719d 343e 85a4 aebd
00000230: e3de d2be b12f 003f e5cd cc3e 0ea9 3d3d
00000240: f158 c63e 2fe0 11be 6340 f03d d11a 113e
00000250: 18bd 00bd 0fc4 303e afbb 34be b940 813e
00000260: dbcd f33e 68a3 143e 465a 69bd 1822 9abe
00000270: 80fb d43e 754f 943e a8d2 f43d 7363 213d
00000280: 856c 3abe e809 013e cd8e 213e 8805 6fb9
00000290: 83a0 413e a585 52be ee9d bc3d e849 11bf
000002a0: ac64 5e3e cd88 263e 41c6 20bf 47b5 173f
000002b0: a0b0 acbe 7e75 b2bc 97e7 473e 6002 e1be
000002c0: 0822 db3e d970 92bd 3033 f43d 5d4b b63e
000002d0: 11e9 a4be 79a7 1c3e f849 133f 6c04 043e
000002e0: 69af 283d f640 c2be 0764 783e 9806 b3be
000002f0: 69fc 9cbe 9848 0a3f c312 13be 15ca 6e3d
00000300: c6d5 74be 6e73 54be aac8 d83d c426 29be
00000310: 2433 343e 52e8 0a3f 3b5c 753e b577 ddbd
00000320: 6cec 1fbd 0167 213e b0cc d63e e8ad 3cbd
00000330: 9718 673e 03d5 bbbe bb13 b53e 0e1c fdbe
00000340: f611 54bc 3481 863d 82d4 33be de46 4b3e
00000350: 119d a73d 9bf6 a2bd 61a4 ab3d f4e4 debe
00000360: 2510 c33e 05b2 c8be 9cea 50be c7fa eb3e
00000370: 43bb 96be 4d20 ab3e 8f42 a1bd eade c53d
00000380: 2ed8 193e a986 03bf 0a4c e63e 116b d83d
00000390: f60d 60be df04 d33e 8365 c0be c61d a73e
000003a0: af33 5b3d 63d1 153e 89fa 683e be9e 80be
000003b0: e30b ba3e e1d8 253e e7a6 6d3e 92e7 cb3d
000003c0: d7dd 69be c26d ce3e 0af4 aa3e 5473 58bb
000003d0: a884 2d3e f574 49be ed9e 343d 8911 f7be
000003e0: 77cb b2be 7b48 de3e dbf5 66be 1eaf 8d3e
000003f0: 92ec c03d 154f e0bc a102 1dbd 22bc adbd
-0.25669536 0.27860504 -0.2479156 -0.38407394 0.55151445 -0.36469576 0.122087516 -0.54893184
-0.23847833 0.46139836 -0.30184954 0.5310865 0.1706434 -0.23343422 0.33422783 -0.39229292
0.28737733 -0.48773915 -0.18577711 0.34596738 -0.19223975 0.2760318 -0.5849573 -0.2127693
0.45777762 0.0503889 0.12142774 0.18241976 -0.020375231 0.080380075 -0.43768954 0.32328463
-0.16110955 0.148445 0.07126602 -0.2536628 0.14244589 0.19079944 -0.017928831 0.13321896
-0.4960294 0.4791029 -0.61013156 -0.113198966 0.4945611 -0.3317078 0.37765115 0.049091276
-0.08255482 0.0897948 -0.10902761 -0.0062211757 -0.32210365 -0.11682876 0.24141403 -0.40018538
0.43667287 -0.5221973 -0.3317744 0.46246055 -0.38805154 0.2119113 -0.35184348 0.06947752
0.17377612 -0.40418896 0.3248018 -0.3400657 -0.4462399 0.38002965 -0.37059882 0.451541
-0.3555594 -0.48413756 0.6078299 -0.13525361 0.24390033 -0.28655064 0.12113283 0.023322934
-0.045371458 0.20263511 0.25678322 0.044664737 -0.06846431 -0.39748102 0.23297745 -0.36835736
0.06626298 0.34767765 -0.40016836 0.36413774 -0.49498278 -0.5465818 0.8301174 -0.10020668
0.27761465 -0.5260459 0.18795389 -0.032572478 -0.36697713 0.36914396 -0.10513827 0.026537307
0.30728355 -0.1640381 0.24975719 0.044149254 -0.21555424 0.37539193 -0.41775048 0.34552273
-0.28760505 0.33754283 0.11312906 -0.32427207 0.2921732 0.14338367 0.020990869 -0.023387423
-0.3586144 0.37513876 0.57294303 -0.058700055 0.24905789 -0.17583963 0.36563122 -0.47133335
0.17974769 0.16425718 -0.31524765 0.20675482 0.056546036 0.12430297 0.20298903 -0.28833082
0.29914454 0.30968517 0.17638184 -0.08527473 -0.41185674 0.5007277 0.40000835 0.0463038
0.38739732 -0.14245676 0.11731031 0.14170386 -0.031430334 0.1726229 -0.1764972 0.25244692
0.47617993 0.1451546 -0.056970857 -0.30104136 0.4159813 0.2896687 0.11954242 0.039401483
-0.1820546 0.12601435 0.1577713 -0.00022794877 0.18908887 -0.20558794 0.0920981 -0.56753397
0.21718091 0.16263123 -0.6280251 0.5926098 -0.33728504 -0.02178454 0.19521938 -0.43947124
0.427994 -0.0715043 0.11923826 0.35604373 -0.32209066 0.15298261 0.5753474 0.12892312
0.04118291 -0.37940186 0.24256907 -0.34965968 -0.30661324 0.5401702 -0.14362626 0.05829819
-0.23909673 -0.20747158 0.10585149 -0.16518694 0.17597634 0.5426074 0.23960964 -0.10813848
-0.03904383 0.15761949 0.4195304 -0.046064287 0.22567974 -0.36685953 0.35366616 -0.49435467
-0.012943735 0.06567612 -0.17561534 0.19851252 0.08184255 -0.079571925 0.08380962 -0.43534052
0.38098255 -0.39198318 -0.20401996 0.46089765 -0.29439744 0.3342308 -0.07874023 0.09661658
0.15023872 -0.5137735 0.44979888 0.10567296 -0.21880326 0.41214654 -0.37577447 0.32639903
0.053516086 0.14630656 0.22751822 -0.2512111 0.36337194 0.16196014 0.232082 0.09956278
-0.22838531 0.40318114 0.33389312 -0.0033027725 0.16945136 -0.19673522 0.044096876 -0.48255566
-0.34920856 0.43414673 -0.22554724 0.27672666 0.09420122 -0.02738146 -0.038332585 -0.08483149

lstm.weight_hh_l0 f4 [256, 64]
00000000: 44b8 cc3d 8e20 94bd 3089 bfbd 2481 b33d
00000010: 10f8 edbc 0c3f e33d 20ff d73c b686 c7bd
00000020: 988e f53c c697 c53d d046 0b3d 000d 413b
00000030: 3ce4 14bd fc17 d3bd 78f8 c3bc 7073 b73d
00000040: dc63 463d 2402 903d 80d6 743d f44f 8f3d
00000050: 18a0 bf3c 7cb4 703d 4cc8 e33d a05c 483d
00000060: 201c f6bb c063 45bd 9486 453d 9281 8cbd
00000070: d0e1 333c 4063 4e3b ee1a d73d 20fc e3bd
00000080: 00e7 963c e425 20bd e8cf e8bc c0a1 493c
00000090: aab8 f3bd 0231 ed3d 80f1 5e3b d08b 093c
000000a0: d455 6ebd 743d 29bd 226f eb3d e0e1 553c
000000b0: 7029 5c3c 8c3e 4b3d d8a9 313d cc11 32bd
000000c0: 201d 663c b4ef 51bd 0a75 ecbd c853 5cbd
000000d0: ac3e 8bbd 98db 8f3c 6810 ebbd 8e4d 8c3d
000000e0: 1e91 b23d 00e1 1bbc ac48 e23d fcc2 383d
000000f0: 940b 6d3d 402a 443b 1ac5 863d 007a c639
00000100: 8672 dd3d 7cf2 1d3d 48c4 833d 4452 b9bd
00000110: fed2 be3d 0001 c63b 7212 f7bd 7e10 a23d
00000120: 6030 69bd 90fd 8f3d b6df b4bd c864 1abd
00000130: 665c bd3d d645 a2bd a477 8f3d ae42 bebd
00000140: 408a a6bc b645 a13d 0874 b4bc f680 dabd
00000150: 5e59 fe3d c841 abbd ba56 c23d 8471 3dbd
00000160: a4ca a8bd d036 443c fc5a 4f3d 00fc 673c
00000170: 661b e43d 7e1a c83d 5247 a43d acbc 9a3d
00000180: 9841 6a3d f478 293d c43d e83d a6f4 b53d
00000190: 40c0 21bd 9cec 273d 347b 1cbd cc97 d2bd
000001a0: 4241 94bd d8be 183d 1a27 a33d 00f0 f1b8
000001b0: ca87 d9bd 0cf8 0f3d 2ca4 133d 3cdd 9f3d
000001c0: 74ae 7cbd 2e27 d3bd 70ca afbd 00f0 883b
000001d0: c89e 963c f8e0 f03c 20f2 783c 90b4 b43c
000001e0: ce8a b8bd 4043 a4bc 705f 2e3d 3eb8 c1bd
000001f0: aa1a c8bd 30ca 8b3c ccd5 18bd 22f8 d93d
00000200: b255 e4bd 6cad 32bd 9489 503d 34cb 273d
00000210: 1a3d 903d 4245 e4bd 98dd cbbd 1af3 883d
00000220: 00ee b9b9 c0fe 653b a0f1 5abd a09e 62bd
00000230: 82f6 f3bd b462 af3d 9602 a63d b8f4 93bd
00000240: 2c34 45bd a24c fbbd aa33 f03d 281a ca3c
00000250: b0ee 3abd 4c8b 59bd 3646 a9bd 28f3 b3bc
00000260: fc9b 403d 084f 083d 0c04 ccbd 6035 7c3c
00000270: 68a7 823d 8ece ddbd 32e1 f03d 0e43 8e3d
00000280: 688d 433d 8c14 c1bd 7629 8f3d e8f2 e43d
00000290: 3677 b8bd 70f2 f1bc 203f 57bd d4ed 283d
000002a0: 38a0 bbbc faa5 a53d 7c0d c3bd 00f0 8939
000002b0: a2b8 d5bd 602d 513c 1855 c03d a057 4fbd
000002c0: 4481 563d 8092 673c 549a 63bd 0037 f33a
000002d0: c89c c13c eeb5 c1bd eef6 ce3d 42f0 94bd
000002e0: 2881 433d d48d ce3d 80de 5c3b 183a b93d
000002f0: ccd7 353d 068a 9ebd 467b 933d d86b 8d3d
00000300: 601f 9b3d 50ae adbd 0c4e 71bd d60b b1bd
00000310: 2628 ecbd ee97 cf3d c0dc 4abb d2da a5bd
00000320: 404a d73c 285a ad3d 345a 8b3d 2012 bb3b
00000330: 102c 943c 903f 18bc 8c2b 3ebd c071 28bd
00000340: 28f1 113d d61a 93bd 4010 94bb 8ce4 afbd
00000350: 5afc 843d 46ad febd 2a56 b83d 9cd7 5abd
00000360: 7846 cebd 7033 c0bc b88f e93c 00ea 0dba
00000370: fa77 8a3d 2cf3 723d c0ef d4bd 9c26 5ebd
00000380: de7e f6bd e876 86bc d293 9d3d 8804 d0bd
00000390: 58ed bf3c b837 483d 948a 41bd 40ca ce3d
000003a0: e2ea fbbd 544e 14bd a023 49bc 8a7c f3bd
000003b0: 8052 ca3b 9097 92bd cc96 2b3d 1832 46bd
000003c0: b0f3 6e3c d229 b13d 54ce 69bd 48ca c9bc
000003d0: b810 863d 183e aa3c 442b 80bd 94cf a93d
000003e0: 3e33 d4bd aecb dc3d fc7e 80bd 0097 bebc
000003f0: 7c47 55bd a077 c3bb ac01 a33d 3619 e33d
0.099960834 -0.07232772 -0.09352338 0.08764866 -0.02904895 0.110960096 0.02636677 -0.09742491
0.02997522 0.09648089 0.03400308 0.0029457211 -0.036350474 -0.10307309 -0.02392219 0.08957565
0.048435077 0.07031658 0.059774876 0.06997672 0.023391768 0.058765873 0.11122188 0.04891646
-0.007510677 -0.048190832 0.048224047 -0.06860651 0.010979131 0.0031492263 0.10503183 -0.111320734
0.018420696 -0.039098635 -0.02841945 0.012306631 -0.11900456 0.11581613 0.0034018457 0.00839515
-0.05818732 -0.041318372 0.11495806 0.013054341 0.013437614 0.049620196 0.043374866 -0.043474004
0.01404503 -0.05125399 -0.11545761 -0.053790838 -0.06799063 0.017560765 -0.114777386 0.0685073
0.08719085 -0.009514093 0.11049017 0.045107827 0.05787237 0.002993241 0.06580563 0.000378564
0.10812859 0.03856133 0.06433922 -0.09048894 0.09317587 0.0060425997 -0.12064065 0.07913302
-0.0569309 0.07030785 -0.08831732 -0.03769377 0.09246139 -0.079234764 0.070052415 -0.09290062
-0.020329595 0.078746244 -0.022027984 -0.106691286 0.12419389 -0.08362156 0.09489198 -0.046250835
-0.08241776 0.011975959 0.05062388 0.014159203 0.11138038 0.09770678 0.08021416 0.075555176
0.05719146 0.041375116 0.11339906 0.088845536 -0.039489985 0.040997133 -0.038203433 -0.10282859
-0.072390094 0.037291378 0.079664424 -0.00011536479 -0.10621603 0.035148665 0.03604524 0.07805869
-0.06168981 -0.10310207 -0.08583534 0.004179001 0.01838626 0.029404148 0.015194446 0.022058755
-0.0901085 -0.020051599 0.042571485 -0.094589695 -0.09770711 0.017064184 -0.037313268 0.10643031
-0.111491576 -0.04362242 0.050912455 0.040965274 0.07042904 -0.111460224 -0.09954375 0.06686993
-0.00035463274 0.003509447 -0.053453088 -0.055327058 -0.11912252 0.08563748 0.08105962 -0.07224411
-0.048145458 -0.12270476 0.11728604 0.024670675 -0.045637786 -0.05311136 -0.08265345 -0.021966532
0.04702376 0.033278495 -0.099617094 0.015393585 0.063795865 -0.10830413 0.117617026 0.069463834
0.047742277 -0.09427747 0.0699033 0.11179143 -0.09007113 -0.029534549 -0.052550435 0.041242436
-0.022903547 0.08088298 -0.09524056 0.0002630949 -0.104356065 0.012767166 0.0939123 -0.050620675
0.05236937 0.014134049 -0.0555671 0.001855582 0.02363433 -0.094585285 0.10105692 -0.07272388
0.047730595 0.10085645 0.0033701956 0.09044284 0.044395253 -0.0774117 0.07201247 0.06905335
0.07574344 -0.08480513 -0.058912322 -0.08644836 -0.11531095 0.101364 -0.003095433 -0.08098377
0.026280522 0.084644616 0.06804314 0.005708948 0.018087417 -0.009292498 -0.04642825 -0.041124105
0.035630375 -0.07182853 -0.0045185387 -0.08588514 0.06493445 -0.12435393 0.090008095 -0.053428277
-0.100720346 -0.023462027 0.028510913 -0.0005413592 0.06761165 0.059313938 -0.10397291 -0.05423604
-0.12035917 -0.01641412 0.0769421 -0.10157114 0.023428604 0.048881263 -0.0472513 0.1009717
-0.1230066 -0.036207512 -0.01227656 -0.11888988 0.0061743855 -0.071578145 0.041891858 -0.048387617
0.014584467 0.08650555 -0.057081535 -0.024632588 0.065461576 0.020781562 -0.06258252 0.082915455
-0.10361336 0.10781036 -0.0627422 -0.023265362 -0.052070126 -0.005965188 0.07959303 0.11088793

lstm.bias_ih_l0 f4 [256]
00000000: 7674 df3e bd22 2e3f 48dc 373f 64d1 203f
00000010: 5d61 2c3f 4468 013f 500b 603e db40 263f
00000020: 8ec1 123f 8072 173f cf00 473f 712d 333f
00000030: b52b 473f e555 053f 0d8c 1d3f 9696 bb3e
00000040: 8e0f f93e 0838 193f b8ab 3d3f 5b93 1d3f
00000050: b5ec 2c3f 9021 263f 88f2 353f f317 0d3f
00000060: 0b8b 083f 4701 b63e 9294 f83e cc53 3a3f
00000070: a5d9 463f 686a 363f 2933 fe3e 49d1 593f
00000080: c221 f43e f243 473f 1a5f 183f a27f 883f
00000090: 4c87 ec3e d919 0d3f 0132 313f 119e cd3e
000000a0: 31ed 233f 94b3 253f f3ae 063f 15b9 f43e
000000b0: 99f4 0d3f 78aa 353f 8058 013f 8c74 053f
000000c0: 184a 0a3f 51b8 183f 3b8f 153f e578 3d3f
000000d0: 73ca 073f 99e1 c13e a106 893f 4b42 293f
000000e0: 9a6b 203f be7b 553f 7681 2e3f dd3f 2f3f
000000f0: fe0a 123f b69b 0f3f 59c6 523f 0054 303f
00000100: 4e3b 8dbd 7c42 5cbd 5015 08bd c020 943d
00000110: 742c dd3d 04e4 a33d a0c2 213c c65c 86bd
00000120: a884 13bd d894 7bbd 7643 af3d fe3e aa3d
00000130: 5c24 113d 2020 92bb 0a71 b23d 108b 2ebd
00000140: c8c4 aebd d473 2cbd 88ab 503d 50b3 283c
00000150: e0b0 d6bd a867 f53c 0858 933c c4a6 60bd
00000160: 0814 cabd 0872 be3c 3a1b e5bd fceb 9a3d
00000170: 389e ff3d 0822 0fbd cc27 3bbd 2010 59bc
00000180: 100b 38bc 005c 9ebc 64eb 913d 94b6 91bd
00000190: 88a3 85bd d013 053d 40cc 0ebd 2417 0b3d
000001a0: 001d 323a 7693 a2bd 5024 2fbc 68dc dfbd
000001b0: 0015 0bba 6c81 77bd 04ab 083d a855 153d
000001c0: e8fa b63d 8e99 eb3d 32b5 b8bd 6431 03bd
000001d0: 84c7 363d d8dc 56bd 1878 f4bc f84d cdbc
000001e0: d8f2 bfbd e2b7 b83d 5c03 0cbd 168b d63d
000001f0: 04a6 0e3d 00e9 77bb d0a5 6bbc 2cd7 4b3d
00000200: 29f9 503e 6c59 1b3e bbfe 6f3e dfdf 63be
00000210: cf2e 563e e297 1fbe f9dd 5ebb 35a4 c13e
00000220: dce5 e0bd f6e1 583e 8885 883e 17ee 2e3e
00000230: 5dca 623e 6689 e7bd 7698 a43d ed87 163e
00000240: 111b 90be 52ed 273e 2d9f d63d 047a 0bbe
00000250: 4760 883e fb92 1d3e dd2e 1a3e 2df2 adbe
00000260: 49ab aebe 8e27 88bc 691a 58be 2d4e b03e
00000270: 7783 1bbe 54bf a03e 0579 9fbe 12f8 713e
00000280: e574 82be 4e25 733e fdb6 423d ff66 87be
00000290: 1cff 923e 8fff c8bd 66ea 2fbe 9f7b b2be
000002a0: c9d9 7c3e adb1 3ebe 22a8 83be fa19 5f3d
000002b0: 4816 46be 9c9a 8cbe f1c9 24be bbd7 91be
000002c0: 8e56 8f3e 5078 3cbe fe7b 32be 4cd8 b2be
000002d0: b2d2 a03e 0f58 c03d acc9 7e3e b75b fabd
000002e0: dc4f 8f3e c09a 5ebe b468 49be db91 6a3e
000002f0: 8274 d23d 19e1 9abd 7631 51be eb08 9ebe
00000300: 3729 fa3e d121 2b3f 92dc 123f 13dc 163f
00000310: e029 3f3f 3655 1e3f 3683 6e3d f52b 1d3f
00000320: cc1a 313f 00e4 303f 0c71 1c3f 920c f73e
00000330: 71cf 3a3f 6fec e63e dfec 103f 42b0 003f
00000340: f1e1 033f 98d1 023f 81f7 5b3f 47e4 233f
00000350: 0226 353f 8fb5 143f 80da f63e 0bfc 063f
00000360: 37e5 473f 48fd ff3e aecc 1a3f c2f5 183f
00000370: 8ab5 773f 1e37 063f 8269 013f fc10 343f
00000380: ea50 223f c251 2b3f 283b 063f e56e 893f
00000390: 3eb1 ed3e c76e c43e 1069 013f f20d a83e
000003a0: 52bf 2a3f 38b1 f23e 3c4d 0c3f c02a 173f
000003b0: 849b e93e 3c16 463f cc01 0d3f b4e3 243f
000003c0: 4394 fc3e 5cfb 1d3f 0faf 373f a811 333f
000003d0: d3cb 0b3f 4f1a e73e 71a2 833f 6df0 1f3f
000003e0: 9636 093f 3d3a 353f 2e61 4e3f d87f 273f
000003f0: 0086 113f 74dd 123f dee6 713f 6660 2d3f
0.4364354 0.68021756 0.718205 0.62819505 0.67336065 0.5054972 0.21879315 0.6494271
0.5732659 0.5915909 0.7773561 0.69991213 0.77801067 0.5208419 0.61541826 0.36638325
0.4864468 0.5985112 0.74090147 0.6155297 0.67548686 0.6489496 0.710732 0.5511467
0.5333716 0.3554785 0.4855085 0.72784114 0.7767585 0.71256113 0.49648407 0.8508497
0.47682005 0.7783805 0.59520113 1.066395 0.46196973 0.55117565 0.69216925 0.40159658
0.640338 0.6472714 0.526107 0.47797456 0.5545135 0.7096324 0.50525665 0.5213096
0.5401931 0.59656245 0.5842168 0.74012595 0.5304329 0.3786743 1.0705148 0.6611678
0.62664187 0.8339194 0.6816629 0.6845682 0.5704802 0.5609697 0.82333905 0.68878174
-0.06896077 -0.053774342 -0.03322345 0.07232809 0.107994944 0.08002475 0.009873062 -0.06560664
-0.036015183 -0.061421245 0.08557789 0.08312796 0.035435066 -0.004459396 0.08712967 -0.04261309
-0.08533627 -0.04210265 0.050944835 0.010296658 -0.10482955 0.029956654 0.017986313 -0.05484654
-0.09867102 0.023247734 -0.11186834 0.07564542 0.1248135 -0.034944564 -0.04569225 -0.013248473
-0.011233106 -0.019330978 0.07124975 -0.07114902 -0.06525332 0.032489598 -0.034862757 0.033957615
0.00067944825 -0.07938282 -0.01068981 -0.10930711 -0.00053055584 -0.06042616 0.03336622 0.03645864
0.08934575 0.115038976 -0.09018935 -0.032029524 0.044623867 -0.052456707 -0.029842421 -0.025061592
-0.09372491 0.09019448 -0.03418289 0.10475747 0.034826294 -0.0037828088 -0.0143827945 0.04976575
0.20407547 0.1517083 0.23437016 -0.22253369 0.20916294 -0.15585282 -0.0034006818 0.37820593
-0.10981342 0.21179947 0.26664376 0.17083012 0.22147508 -0.113055035 0.08036892 0.14700289
-0.2814565 0.16399124 0.10479579 -0.13620764 0.26635954 0.153881 0.1505694 -0.33973828
-0.34115055 -0.016620424 -0.21103825 0.34434643 -0.15186869 0.31395972 -0.31147018 0.23629788
-0.25479808 0.237447 0.047537792 -0.26445767 0.28710258 -0.09814369 -0.1717926 -0.3485994
0.24692453 -0.18622465 -0.25714213 0.054468133 -0.19344437 -0.27461708 -0.1609266 -0.28484902
0.27995723 -0.1840527 -0.17430112 -0.34930646 0.31410748 0.09391796 0.24881619 -0.122245245
0.27990615 -0.2173872 -0.19668847 0.22907202 0.10276128 -0.07562465 -0.20429024 -0.3086618
0.4885957 0.66848475 0.57367814 0.58929557 0.7467327 0.6184877 0.0582306 0.613952
0.69181514 0.690979 0.61109996 0.48251778 0.7297278 0.4510226 0.56611437 0.5026895
0.51516634 0.51101065 0.85924536 0.640202 0.7076112 0.58089536 0.48213577 0.5272834
0.7808413 0.49997926 0.60468566 0.59749997 0.9676138 0.5242785 0.5055162 0.70338416
0.63404715 0.6692163 0.52434015 1.0736967 0.46424288 0.38365766 0.5055094 0.3282314
0.6669818 0.47400832 0.5480535 0.59049606 0.45626462 0.77377677 0.55080867 0.6440995
0.49331865 0.6171167 0.71751493 0.69948816 0.54607886 0.4513726 1.0283948 0.62476236
0.53598917 0.7079199 0.80617034 0.6542945 0.5684509 0.5736916 0.944929 0.6772522

lstm.bias_hh_l0 f4 [256]
00000000: 4e5b e13e 06ad 233f e3d4 013f b51e 293f
00000010: 459e 323f b42e 0a3f f56f 833c 5dfa 4e3f
00000020: ba83 253f f8c5 023f 26b5 433f 7cfd 023f
00000030: 3552 193f 4cd9 033f 3f75 233f 3cc4 193f
00000040: 771c e73e c170 003f e176 1e3f 7dc3 3e3f
00000050: 3389 303f 7a93 1d3f ca3c 083f 0322 0c3f
00000060: 6244 373f 96ab de3e 926d 023f ced5 323f
00000070: 99ab 6f3f 1282 1b3f 1a83 b33e 330c 383f
00000080: af9c d13e 1906 293f 12c5 303f 1243 8f3f
00000090: 4693 283f 1de5 e03e 108c fd3e 6e3b e63e
000000a0: 3947 3e3f f090 273f 6635 303f 72fa 1f3f
000000b0: 85f1 e73e c4a5 493f 1e1b 073f 90b4 193f
000000c0: 4b84 f33e 04bf 073f 1635 f83e f843 203f
000000d0: e127 f63e 563d d53e 2901 6b3f bdd4 273f
000000e0: 3ce5 1c3f ca9e 3d3f c207 523f 081e 3d3f
000000f0: 1e30 e73e c5e4 063f 50cc 593f 679e 0c3f
00000100: c0b0 f4bd 889b 96bc 28f5 ff3d 2003 44bc
00000110: b60f fbbd 2201 a43d f8ff 0dbd 60db 3dbd
00000120: 5872 b0bd 944c e83d aa1a d5bd e0bd 09bd
00000130: 60f1 15bd 8838 bdbd ba8a bfbd e0ae 923c
00000140: c0aa 1fbb 28ec c7bd 7c97 9d3d b836 60bd
00000150: 0063 9abd d8fb d6bc 722f a9bd a638 92bd
00000160: d620 df3d bca9 fdbd 38f0 bb3d 107c 0bbd
00000170: 407f 703b 504a ed3c 9c28 c13d 9837 f73d
00000180: b689 dc3d 4ce7 2d3d ea25 ec3d 1061 cabd
00000190: 56a6 ca3d a8f0 a2bd 70fe cabd 9049 f73d
000001a0: fee1 fb3d 40a1 90bd 182d 72bd b065 ccbc
000001b0: 7815 77bd b031 bd3d 403d 083c 8cdd 483d
000001c0: 2c57 89bd 205c d8bc 9c18 e5bd fc1c 4e3d
000001d0: f428 733d 10c1 d93c 3499 36bd ea89 9d3d
000001e0: 4820 873d 8c1f 3ebd a421 273d b68f 8e3d
000001f0: b8a0 b5bd 1cb2 ab3d b8d8 e53c 0090 c73b
00000200: 1251 083c d360 4c3e fadb 713e ffc2 24be
00000210: 33f9 313e be48 95be 9ae5 043d 2e3a 563e
00000220: ae3e 4eba 18bc 853e af8a 423e 4b4a d53d
00000230: 4949 133e 4194 d7bc 8223 503e 3b06 5b3e
00000240: 1a5c 8abe 23d4 843e ab1a 633e 7834 37be
00000250: 8ea7 523e 7258 913e 6be6 9b3d 5d95 1cbe
00000260: f70a 5bbe 040f 2c3e f6d9 89be 2a09 683e
00000270: 620f b6be 71b4 7d3e 5638 93be 5400 bb3e
00000280: 9370 88be 8458 313e 6ed5 403e c92f 73be
00000290: ff1c b03e 4eb1 c7bd e318 43be 3036 b1be
000002a0: bdf1 813e c296 80bd 29bc 9ebe ceca 813d
000002b0: 7386 9ebe 29f6 89be 1fc4 78be 6b7d 19be
000002c0: eb44 833e 69a2 03be 6e92 91be 6964 3bbe
000002d0: 6c63 a33e 3a2c ae3d 16db 863e 6e33 68be
000002e0: 1017 6d3e 4452 19be bdd9 cbbd 9d77 ce3e
000002f0: ce31 b33d 5f37 61be b819 b7be 0c17 15be
00000300: 6c44 0d3f 8c7b 1c3f 1246 343f 48ab 363f
00000310: 42fd 333f 6e2a 083f 5107 6d3e 2479 323f
00000320: 8cd5 253f ee4e 2e3f 2e18 0f3f b29e 173f
00000330: f30c 1f3f c6b1 d93e 0f40 203f 3947 e83e
00000340: 1158 c73e 4322 023f ea76 3a3f 5035 323f
00000350: 3a96 1b3f adf3 183f 1263 173f 7b4f 1f3f
00000360: 0335 243f 7fef df3e 0a3f 223f a313 113f
00000370: 52fd 753f 8c04 293f 3440 ff3e c6a7 4d3f
00000380: cd48 1a3f a093 3d3f b059 293f 13a1 873f
00000390: e3a8 043f 5ba3 ff3e 34e6 283f bdff 123f
000003a0: f538 263f ec7e 0c3f 2e71 0b3f e84b 253f
000003b0: d14f 283f 7bd5 423f 1642 f63e 855b 043f
000003c0: 49d4 063f 6903 1f3f b8fb 293f 6430 1b3f
000003d0: 19bc 133f 3afb ef3e 7c1f 8f3f a6dc 123f
000003e0: a57b 183f f260 5a3f a089 293f 9134 303f
000003f0: eb4c f03e ed74 0a3f b479 5c3f 37f5 253f
0.44014972 0.6393589 0.50715464 0.6606248 0.6977275 0.53977513 0.016044596 0.80850774
0.64654124 0.51083326 0.76448286 0.51168036 0.5989106 0.51503444 0.6385078 0.60065055
0.45138904 0.5017205 0.61900145 0.7451704 0.6895935 0.61553156 0.53217757 0.547394
0.7158872 0.43490285 0.5094844 0.6985749 0.9362121 0.60745347 0.3506096 0.71893615
0.40939853 0.6602493 0.69050705 1.1192343 0.6584972 0.439248 0.49520922 0.44967216
0.7432743 0.6545553 0.6883148 0.62491524 0.45301452 0.78768563 0.5277575 0.6004114
0.4756187 0.5302584 0.48478 0.6260371 0.480773 0.41648358 0.91798645 0.6555899
0.61287284 0.7407042 0.8204309 0.7387395 0.45153898 0.52692825 0.8507738 0.549292
-0.11947775 -0.01838471 0.12497932 -0.011963636 -0.12258856 0.080080286 -0.03466794 -0.04635179
-0.08615559 0.11342731 -0.104054764 -0.033628345 -0.036607146 -0.09239298 -0.09352632 0.017905653
-0.002436325 -0.0976184 0.07694909 -0.054739684 -0.07538414 -0.026243135 -0.082610026 -0.07139711
0.10894935 -0.1238589 0.091766775 -0.034053862 0.003669694 0.028966099 0.09431574 0.120711505
0.10768454 0.04245691 0.11530669 -0.098817945 0.09895007 -0.07956058 -0.09911811 0.12074578
0.12298964 -0.07062006 -0.059125036 -0.024950832 -0.06032321 0.09237993 0.008315384 0.04903941
-0.0670608 -0.026411116 -0.111863345 0.05032061 0.059365228 0.026581317 -0.0445797 0.07692321
0.06597954 -0.046416804 0.040803567 0.069610044 -0.08868545 0.08383581 0.028057441 0.006090164
0.00832011 0.1995881 0.2361907 -0.1609001 0.17380218 -0.2915706 0.032445528 0.20920631
-0.00078676164 0.26120067 0.18998216 0.10414561 0.14383425 -0.02631581 0.20326045 0.21389095
-0.27023393 0.25943097 0.22178142 -0.17891109 0.2057173 0.2838779 0.07612308 -0.15291353
-0.21390902 0.16802603 -0.26924103 0.22659746 -0.3555861 0.24775864 -0.28753918 0.36523688
-0.26648387 0.17318922 0.18831417 -0.23748697 0.34397122 -0.09750615 -0.19052462 -0.34611654
0.25379744 -0.06278755 -0.3100293 0.0633751 -0.30961952 -0.26945618 -0.24293564 -0.1498925
0.25638518 -0.12854923 -0.2843203 -0.18300022 0.3191179 0.08504529 0.26339024 -0.22675869
0.23153329 -0.14972788 -0.0995364 0.40325633 0.08749734 -0.21993779 -0.3576181 -0.14559573
0.5518253 0.6112602 0.7041942 0.71355104 0.70308316 0.5318974 0.23147322 0.69716096
0.6477897 0.6808919 0.5589627 0.59226525 0.62129134 0.42518443 0.62597746 0.4536684
0.38934377 0.5083353 0.728377 0.696126 0.607761 0.5974682 0.59135544 0.6223065
0.6414339 0.4373741 0.6337744 0.5667059 0.9608966 0.66022563 0.4985367 0.80334127
0.60267335 0.7405338 0.6615248 1.0596031 0.518202 0.49929318 0.6597626 0.57421476
0.6493066 0.5488117 0.54469573 0.6456895 0.6574679 0.76106995 0.48097295 0.5170215
0.5266767 0.6211458 0.6639972 0.60620713 0.5770889 0.46871358 1.1181483 0.5736793
0.59563667 0.85304177 0.66225624 0.6883021 0.46933684 0.54084665 0.86123204 0.64827293

fc.weight f4 [1, 64]
00000000: 82d8 18bf 2dc4 12bf 9cd5 14bf 803a 073f
00000010: c6fc 14bf d4a2 073f a1ea 4dbe 2897 eebe
00000020: e93b 2a3f 2e16 e4be 2a70 f7be b273 26bf
00000030: 8fcf 2dbf 3f6c 133f e763 04bf f06f 06bf
00000040: 1a3d d73e 30ae dabe e515 46bf bf77 2b3f
00000050: 6e6b 06bf e0c8 0bbf 9818 02bf 0c20 053f
00000060: 3c41 103f af26 0abf 342d ec3e 8ef7 0ebf
00000070: a18c 4a3f 9a03 d7be c51b ca3e d861 22bf
00000080: a7bc e13e ae19 23bf 64e5 0dbf be65 5a3f
00000090: 88dd d9be 164f 093f e4cd 1a3f 1316 d43e
000000a0: 2024 15bf 4fe9 1c3f 9c58 d53e 5da8 13bf
000000b0: 02d7 db3e 5298 243f 40ac f93e 8053 0b3f
000000c0: 22fa e3be 5fc6 103f b46d 123f feba e93e
000000d0: 6c98 dbbe 8415 1bbf 074f 3abf 6670 423f
000000e0: dd85 00bf cd7c 483f 5b01 343f 29b5 23bf
000000f0: 6f0f 17bf d4c9 003f e9ee 3f3f 6ffe 123f
-0.59705365 -0.5733059 -0.5813844 0.5282364 -0.581982 0.5298283 -0.20109035 -0.46599698
0.66497666 -0.44548172 -0.48327762 -0.6502029 -0.67894834 0.57587045 -0.5171494 -0.52514553
0.42038804 -0.4271102 -0.7737716 0.66979593 -0.52507675 -0.54603386 -0.5081878 0.52002025
0.5634954 -0.53965276 0.46128237 -0.5584649 0.7912083 -0.41994935 0.3947431 -0.6343055
0.44089243 -0.6371106 -0.5542815 0.85311496 -0.42551827 0.536363 0.60470414 0.4142309
-0.5825825 0.612935 0.41669166 -0.57678777 0.42937475 0.6429492 0.4876423 0.54424286
-0.44526774 0.5655269 0.57198644 0.45650476 -0.42889726 -0.60579705 -0.72776836 0.75952756
-0.5020426 0.7831543 0.7031457 -0.63948303 -0.59007925 0.50307965 0.7497392 0.57419485

exp_avg f4 [256, 5]
00000000: e511 9035 e511 90b5 c1cd 0e35 d03a 37b3
00000010: 55d5 b8b4 ed32 3e35 ed32 3eb5 f127 6834
00000020: eac7 feb3 14ad 18b4 1d49 5d35 1d49 5db5
00000030: c234 8134 cd51 e9b4 458f f333 a49e 0a35
00000040: a49e 0ab5 5de6 b633 399e 7cb4 facc 1b33
00000050: 7353 3b35 7353 3bb5 8cf3 2a34 ba3c 83b4
00000060: 4d5f acb2 405f a435 405f a4b5 72ed 5134
00000070: aeb9 d0b4 13c3 9cb3 64a3 6434 64a3 64b4
00000080: cea8 9833 2aff aab3 76de bdb0 6fc7 7e35
00000090: 6fc7 7eb5 3ec8 a434 1c2d a8b4 e5c0 42b3
000000a0: 2fdd 9d34 2fdd 9db4 6157 1e33 e080 3ab4
000000b0: 871f 7933 3347 5e35 3347 5eb5 dcf9 8e34
000000c0: df06 d9b4 1472 b333 59f6 8835 59f6 88b5
000000d0: 8cfe c734 acd7 c1b4 c2be deb2 9147 1235
000000e0: 9147 12b5 21e7 4a34 6d56 a232 2aa2 64b4
000000f0: f40a 2935 f40a 29b5 7d42 5d33 b37d 0fb5
00000100: a6c2 9434 efb7 5435 efb7 54b5 f476 d634
00000110: 3848 8a32 037b a0b4 0d5b 0435 0d5b 04b5
00000120: 97fe 5234 c879 a231 0f60 42b4 7273 7f35
00000130: 7273 7fb5 383d ab34 a61f e5b4 71eb 8133
00000140: 97ea 1435 97ea 14b5 6c36 71b4 0d20 7cb4
00000150: 93fb bd32 f5d0 2435 f5d0 24b5 723e 4834
00000160: 8dc3 97b4 6435 4533 a944 1a35 a944 1ab5
00000170: 175a 5134 e3dd 9133 5cc9 90b4 2c63 6535
00000180: 2c63 65b5 dc33 8034 9a90 13b5 b96a 6234
00000190: 2190 1c35 2190 1cb5 e55f f933 c235 dbb4
000001a0: eef3 3b34 8b56 7635 8b56 76b5 f25c 7a34
000001b0: e51c e1b4 08f1 8c33 38ba 1135 38ba 11b5
000001c0: 9ee5 4834 4d24 e0b4 64c2 5434 1059 6435
000001d0: 1059 64b5 515f 2d34 521a cfb4 2177 7933
000001e0: cb19 8b35 cb19 8bb5 0c42 9d34 a665 f3b4
000001f0: 89d9 6c33 d26e 4b35 d26e 4bb5 bd05 9234
00000200: e679 01b5 1a92 4334 cd42 7e35 cd42 7eb5
00000210: 5f26 8e34 d007 d8b4 3828 2833 58d2 2735
00000220: 58d2 27b5 02bd ec31 0a5a 44b4 1a1c 5fb3
00000230: 218b 3635 218b 36b5 ea01 1334 38ed 23b5
00000240: 2485 b134 e9f3 7e35 e9f3 7eb5 05ea 8634
00000250: f64e a6b4 b6ca 51b3 5281 95b4 5281 9534
00000260: d147 89b5 a72c 64b4 b0cc a034 0770 7735
00000270: 0770 77b5 8777 a634 64d7 9cb4 c8fd 6db3
00000280: 896c ae35 896c aeb5 6bf6 c234 28c2 d6b4
00000290: 69aa bfb3 13ca 8635 13ca 86b5 5538 8e34
000002a0: 2bfa 04b5 e6f4 e333 5536 0034 5536 00b4
000002b0: 32aa a2b3 2648 37b4 a6c9 fc33 121a 8534
000002c0: 121a 85b4 f794 23b4 3ed0 14b5 a02b e834
000002d0: 76ca b434 76ca b4b4 6ed3 c8b4 65c3 58b4
000002e0: c7a4 9433 7455 4835 7455 48b5 9c85 bc34
000002f0: a0c5 6db3 ce12 67b4 9ded be35 9ded beb5
00000300: e765 0b35 7de0 04b5 f7db 3cb3 34c4 05b5
00000310: 34c4 0535 d6d4 b6b5 8e2d 13b4 02fc a434
00000320: 1e89 0035 1e89 00b5 461a f0b4 e1e1 cfb4
00000330: eccd 4e34 97da 0235 97da 02b5 12d6 8d33
00000340: faec ddb4 58e3 6534 b6af 8435 b6af 84b5
00000350: 55b9 b434 8978 acb4 f824 5fb3 edac 0835
00000360: edac 08b5 44ef 3d34 3349 55b4 e545 9831
00000370: 1147 5c35 1147 5cb5 0965 8734 8803 c4b4
00000380: 254b 5433 a08c 1635 a08c 16b5 1fc7 d733
00000390: a149 02b5 f62c 8934 7409 5135 7409 51b5
000003a0: 1fb1 7b34 015e ccb4 b7c3 a933 bada 5835
000003b0: bada 58b5 ada6 3a34 2750 b8b4 87e2 0f33
000003c0: 5b3b 8935 5b3b 89b5 bbb0 ad34 90ae b9b4
000003d0: 6edd 2fb3 5195 a435 5195 a4b5 a1bd 0e35
000003e0: f320 46b4 be9a 8eb4 683c 9635 683c 96b5
000003f0: 471c 8d34 4db0 f1b4 29c4 c032 902b 6035
1.0734044e-06 -1.0734044e-06 5.3198534e-07 -4.2661497e-08 -3.442789e-07 7.085462e-07 -7.085462e-07 2.1621214e-07
-1.1864161e-07 -1.4219069e-07 8.243531e-07 -8.243531e-07 2.406651e-07 -4.345915e-07 1.134163e-07 5.163986e-07
-5.163986e-07 8.516938e-08 -2.352689e-07 3.6275175e-08 6.9784363e-07 -6.9784363e-07 1.5921086e-07 -2.4444836e-07
-2.0066773e-08 1.2246674e-06 -1.2246674e-06 1.9551024e-07 -3.887812e-07 -7.2998e-08 2.1293596e-07 -2.1293596e-07
7.108757e-08 -7.962656e-08 -1.3814787e-09 9.491259e-07 -9.491259e-07 3.0693076e-07 -3.132526e-07 -4.534458e-08
2.940446e-07 -2.940446e-07 3.6866712e-08 -1.7369484e-07 5.8003504e-08 8.2805053e-07 -8.2805053e-07 2.6631358e-07
-4.04244e-07 8.356088e-08 1.0204486e-06 -1.0204486e-06 3.7251846e-07 -3.6105973e-07 -2.5930948e-08 5.449338e-07
-5.449338e-07 1.88968e-07 1.8898584e-08 -2.129315e-07 6.2973345e-07 -6.2973345e-07 5.1516043e-08 -5.345457e-07
2.7708774e-07 7.9243813e-07 -7.9243813e-07 3.9947156e-07 1.6098156e-08 -2.9891825e-07 4.930633e-07 -4.930633e-07
1.9650393e-07 4.7286655e-09 -1.8102604e-07 9.51629e-07 -9.51629e-07 3.1895775e-07 -4.26776e-07 6.049857e-08
5.547567e-07 -5.547567e-07 -2.2464673e-07 -2.3480989e-07 2.2116899e-08 6.1398833e-07 -6.1398833e-07 1.8649169e-07
-2.8268224e-07 4.5916195e-08 5.7469384e-07 -5.7469384e-07 1.9497416e-07 6.7924496e-08 -2.6968598e-07 8.545346e-07
-8.545346e-07 2.387959e-07 -5.497219e-07 2.1086716e-07 5.8324264e-07 -5.8324264e-07 1.1612409e-07 -4.0831043e-07
1.7504473e-07 9.176808e-07 -9.176808e-07 2.3316878e-07 -4.193054e-07 6.563101e-08 5.4287693e-07 -5.4287693e-07
1.8709986e-07 -4.1749664e-07 1.9814757e-07 8.506622e-07 -8.506622e-07 1.6146556e-07 -3.8575905e-07 5.8083177e-08
1.0363814e-06 -1.0363814e-06 2.9291584e-07 -4.5336236e-07 5.514588e-08 7.578466e-07 -7.578466e-07 2.7198794e-07
-4.823363e-07 1.8213942e-07 9.471958e-07 -9.471958e-07 2.647748e-07 -4.023882e-07 3.9152127e-08 6.251844e-07
-6.251844e-07 6.8899917e-09 -1.8286678e-07 -5.194679e-08 6.800274e-07 -6.800274e-07 1.3691138e-07 -6.106743e-07
3.3065692e-07 9.497731e-07 -9.497731e-07 2.5129717e-07 -3.097736e-07 -4.884597e-08 -2.7847506e-07 2.7847506e-07
-1.0228197e-06 -2.1250399e-07 2.9951252e-07 9.217769e-07 -9.217769e-07 3.1006877e-07 -2.9213982e-07 -5.5411675e-08
1.2995598e-06 -1.2995598e-06 3.6314609e-07 -4.0001873e-07 -8.925128e-08 1.0042589e-06 -1.0042589e-06 2.6490548e-07
-4.9537874e-07 1.0615058e-07 1.1940695e-07 -1.1940695e-07 -7.574671e-08 -1.706945e-07 1.1771344e-07 2.479215e-07
-2.479215e-07 -1.5234751e-07 -5.543733e-07 4.324511e-07 3.3674922e-07 -3.3674922e-07 -3.7406738e-07 -2.0187652e-07
6.92176e-08 7.4630157e-07 -7.4630157e-07 3.5114942e-07 -5.53606e-08 -2.1520393e-07 1.4225258e-06 -1.4225258e-06
5.192982e-07 -4.9500505e-07 -4.3972218e-08 -4.9831874e-07 4.9831874e-07 -1.3622e-06 -1.3707015e-07 3.073074e-07
4.788325e-07 -4.788325e-07 -4.47226e-07 -3.8721103e-07 1.9260159e-07 4.8746864e-07 -4.8746864e-07 6.604763e-08
-4.133688e-07 2.1409994e-07 9.885905e-07 -9.885905e-07 3.366246e-07 -3.2125197e-07 -5.1954856e-08 5.091559e-07
-5.091559e-07 1.7689041e-07 -1.98638e-07 4.4317283e-09 8.20598e-07 -8.20598e-07 2.5219222e-07 -3.6510414e-07
4.942844e-08 5.608399e-07 -5.608399e-07 1.00479376e-07 -4.853592e-07 2.5550952e-07 7.7872323e-07 -7.7872323e-07
2.3440633e-07 -3.8066358e-07 7.905276e-08 8.078456e-07 -8.078456e-07 1.7383236e-07 -3.433099e-07 3.3500807e-08
1.022457e-06 -1.022457e-06 3.235235e-07 -3.4585946e-07 -4.094675e-08 1.2262409e-06 -1.2262409e-06 5.317507e-07
-1.8452174e-07 -2.656215e-07 1.1193451e-06 -1.1193451e-06 2.628387e-07 -4.5018024e-07 2.2440945e-08 8.3509894e-07

exp_avg_sq f4 [256, 5]
00000000: f514 b131 f514 b131 5e0a 7431 2989 7430
00000010: b8a1 ca30 6e99 9630 6e99 9630 cffb 9d30
00000020: 7cda 9330 5df3 3030 7cec e730 7cec e730
00000030: 28ae 1a31 5ab4 3a30 96b9 3330 3b8d 5d30
00000040: 3b8d 5d30 7bc9 bc30 8687 f22f fb1b bd2f
00000050: e708 be30 e708 be30 14a6 8a30 8656 6330
00000060: bf80 0830 3da5 2631 3da5 2631 6da8 a930
00000070: 1500 bf30 18f5 9530 6046 c62e 6046 c62e
00000080: 0264 c32f e885 452e eae5 7e2e 8b07 2830
00000090: 8b07 2830 f3dc 5b30 240c ea2f b1df a42f
000000a0: 61b3 1f30 61b3 1f30 bcaa c430 c3f4 ba2e
000000b0: 8b2e 172f 6cc2 0031 6cc2 0031 6ce9 7c30
000000c0: dee0 0b30 594e ff2f b318 a630 b318 a630
000000d0: 0261 c12f 5778 4930 340c ba2f 1ed4 6530
000000e0: 1ed4 6530 62a6 f630 8803 9130 9730 6030
000000f0: 0bce 4f30 0bce 4f30 7e18 ea30 d46d f12f
00000100: d5aa ab2f 3806 4b31 3806 4b31 f5d7 3c32
00000110: 9e97 d430 2998 0131 16ab 8130 16ab 8130
00000120: 421f cd30 8ab1 2130 81b0 1230 2893 a430
00000130: 2893 a430 648b cc30 58f5 5131 048a 5a31
00000140: f9af cb30 f9af cb30 117b 4631 fc5f 1531
00000150: f2be 0b31 b622 9430 b622 9430 de08 3b30
00000160: 2393 f72f 1d3b c82f 842e 9c30 842e 9c30
00000170: 8363 4030 db88 ea2f aa7f 0130 65ce b630
00000180: 65ce b630 a051 b930 6d78 d830 e0f7 0e31
00000190: 0983 9930 0983 9930 c09b 1730 89bd 542f
000001a0: 4437 692f 6651 6a30 6651 6a30 53aa ad30
000001b0: 4115 3630 12b8 bd2f 9652 c530 9652 c530
000001c0: 82d3 2831 fe52 5c2f aca4 4a2f 2fdd b330
000001d0: 2fdd b330 0d8a 7430 863b ca30 1399 cc30
000001e0: e826 3f31 e826 3f31 9d4b 1e31 c36a 6a2f
000001f0: 6cfd e92f 7855 f431 7855 f431 d28a 2f31
00000200: e2d2 1f30 48ae 0c30 a4eb da30 a4eb da30
00000210: 25ca 6e30 9cc8 8130 10c0 6b30 cb89 8630
00000220: cb89 8630 79ba 0231 c216 8a30 27a0 9830
00000230: d227 9a30 d227 9a30 0e62 a030 b181 192f
00000240: 679c 732f 2bef 3c30 2bef 3c30 55f5 3330
00000250: de75 2630 f8fa cb2f d455 ab31 d455 ab31
00000260: c437 3331 b09a 9730 f6af 6630 d36b b830
00000270: d36b b830 6580 fd30 ae72 602f 976e 9d2f
00000280: 316e 1631 316e 1631 89b8 f730 d2ce fb30
00000290: 953b dc30 41eb 0d31 41eb 0d31 0ebf ff30
000002a0: b378 0f30 710e 4930 745f a52e 745f a52e
000002b0: f693 1f2e 2c5b e42e d994 022f 33b6 ad2f
000002c0: 33b6 ad2f d206 582f c195 932e f3e7 a82e
000002d0: 8acc 6630 8acc 6630 762c 5630 b176 2d30
000002e0: 3d55 2230 1835 7a31 1835 7a31 9d1f 4231
000002f0: 7a0f da2f e5ec 5830 9f26 7c31 9f26 7c31
00000300: 8aa3 7d30 e6e3 d630 1bc8 ab30 697a 9d31
00000310: 697a 9d31 74fa 6a31 4102 cd30 392c b230
00000320: 3fe7 2330 3fe7 2330 f4f6 af30 63a7 a02f
00000330: fdf8 352f 7f96 5830 7f96 5830 de87 5e31
00000340: d595 3230 23a2 2130 86a7 3730 86a7 3730
00000350: cf4e 3430 cb67 3d30 3a03 0130 1a10 d430
00000360: 1a10 d430 8825 8231 bcfa 492f 5b69 c72f
00000370: 21fa a030 21fa a030 c0ef 4230 911b 8230
00000380: 5507 6f30 0ecc 4b30 0ecc 4b30 c724 7030
00000390: 08b4 c52f af16 932f 9751 0b31 9751 0b31
000003a0: 2ecd 8530 61d9 4c30 e266 2b30 dec1 0e31
000003b0: dec1 0e31 7937 aa30 6726 6f30 2cda 6030
000003c0: 44e0 5031 44e0 5031 aabd fe30 0bd6 c62f
000003d0: fa7e 0530 616d 4631 616d 4631 f8b2 2f31
000003e0: 25b6 d330 6dbc 5e30 0f5e 0131 0f5e 0131
000003f0: 0946 2731 e2fa f530 d4a6 0d31 0bf2 1f30
5.1537605e-09 5.1537605e-09 3.5512566e-09 8.89616e-10 1.4743398e-09 1.0957544e-09 1.0957544e-09 1.1494822e-09
1.0757755e-09 6.4374267e-10 1.6874675e-09 1.6874675e-09 2.2508946e-09 6.79227e-10 6.5383554e-10 8.060003e-10
8.060003e-10 1.3736065e-09 4.411584e-10 3.439878e-10 1.382685e-09 1.382685e-09 1.0088024e-09 8.2705076e-10
4.965947e-10 2.4250106e-09 2.4250106e-09 1.2344238e-09 1.3897102e-09 1.0910837e-09 9.016499e-11 9.016499e-11
3.5541353e-10 4.4911547e-11 5.795712e-11 6.1128763e-10 6.1128763e-10 7.9985724e-10 4.2572978e-10 2.9990369e-10
5.8098776e-10 5.8098776e-10 1.4309403e-09 8.501779e-11 1.3749905e-10 1.8736968e-09 1.8736968e-09 9.200878e-10
5.088746e-10 4.64399e-10 1.208511e-09 1.208511e-09 3.5175424e-10 7.329439e-10 3.3841874e-10 8.361115e-10
8.361115e-10 1.7946145e-09 1.0551142e-09 8.1559776e-10 7.5598966e-10 7.5598966e-10 1.7032702e-09 4.3915682e-10
3.1226102e-10 2.9543923e-09 2.9543923e-09 1.0992143e-08 1.5468122e-09 1.8858464e-09 9.434611e-10 9.434611e-10
1.4924597e-09 5.8823757e-10 5.336532e-10 1.1974395e-09 1.1974395e-09 1.4882571e-09 3.0552965e-09 3.1801628e-09
1.4820208e-09 1.4820208e-09 2.8882747e-09 2.1736914e-09 2.0335702e-09 1.0778283e-09 1.0778283e-09 6.8042805e-10
4.5033585e-10 3.642179e-10 1.1363714e-09 1.1363714e-09 6.999061e-10 4.2661594e-10 4.711135e-10 1.3300904e-09
1.3300904e-09 1.3483721e-09 1.5750296e-09 2.080462e-09 1.1169458e-09 1.1169458e-09 5.5154814e-10 1.9348624e-10
2.1210861e-10 8.524438e-10 8.524438e-10 1.2635816e-09 6.624142e-10 3.450969e-10 1.4357109e-09 1.4357109e-09
2.4567446e-09 2.0038368e-10 1.8430296e-10 1.3086828e-09 1.3086828e-09 8.8962865e-10 1.4714352e-09 1.488646e-09
2.7816274e-09 2.7816274e-09 2.3035007e-09 2.1320105e-10 4.256252e-10 7.1110513e-09 7.1110513e-09 2.5544762e-09
5.8143546e-10 5.117937e-10 1.5928561e-09 1.5928561e-09 8.687116e-10 9.443002e-10 8.576544e-10 9.788946e-10
9.788946e-10 1.9023487e-09 1.004729e-09 1.1104974e-09 1.1216292e-09 1.1216292e-09 1.1669401e-09 1.3961345e-10
2.2156287e-10 6.873388e-10 6.873388e-10 6.546846e-10 6.055795e-10 3.710381e-10 4.9865125e-09 4.9865125e-09
2.6079627e-09 1.1030661e-09 8.392357e-10 1.3418407e-09 1.3418407e-09 1.8444665e-09 2.0413424e-10 2.8636712e-10
2.189051e-09 2.189051e-09 1.8024063e-09 1.8321435e-09 1.6024041e-09 2.0651927e-09 2.0651927e-09 1.8607993e-09
5.219462e-10 7.3143896e-10 7.520287e-11 7.520287e-11 3.628383e-11 1.0384435e-10 1.1876312e-10 3.1597977e-10
3.1597977e-10 1.9647509e-10 6.711388e-11 7.680958e-11 8.396418e-10 8.396418e-10 7.791593e-10 6.3105704e-10
5.905639e-10 3.6409968e-09 3.6409968e-09 2.8248686e-09 3.9664966e-10 7.891699e-10 3.669278e-09 3.669278e-09
9.2273267e-10 1.5635322e-09 1.2498761e-09 4.583218e-09 4.583218e-09 3.4193848e-09 1.4916354e-09 1.2963773e-09
5.9627675e-10 5.9627675e-10 1.2803114e-09 2.9222766e-10 1.6550313e-10 7.879421e-10 7.879421e-10 3.2382483e-09
6.4968947e-10 5.880187e-10 6.681308e-10 6.681308e-10 6.559561e-10 6.89053e-10 4.693451e-10 1.5429606e-09
1.5429606e-09 3.7877648e-09 1.8369922e-10 3.627275e-10 1.1712623e-09 1.1712623e-09 7.0917494e-10 9.46658e-10
8.6958113e-10 7.414095e-10 7.414095e-10 8.7363755e-10 3.596201e-10 2.6755262e-10 2.027354e-09 2.027354e-09
9.735339e-10 7.452368e-10 6.2355643e-10 2.077392e-09 2.077392e-09 1.2384894e-09 8.7002267e-10 8.1800766e-10
3.0395464e-09 3.0395464e-09 1.8534838e-09 3.6168077e-10 4.856556e-10 2.8874967e-09 2.8874967e-09 2.5567584e-09
1.5404039e-09 8.10309e-10 1.8825437e-09 1.8825437e-09 2.4341509e-09 1.7897401e-09 2.0613031e-09 5.8187827e-10

exp_avg f4 [256, 64]
00000000: 0000 0000 0000 0000 0000 0000 0000 0000
00000010: 0000 0000 0000 0000 0000 0000 0000 0000
00000020: 0000 0000 0000 0000 0000 0000 0000 0000
00000030: 0000 0000 0000 0000 0000 0000 0000 0000
00000040: 0000 0000 0000 0000 0000 0000 0000 0000
00000050: 0000 0000 0000 0000 0000 0000 0000 0000
00000060: 0000 0000 0000 0000 0000 0000 0000 0000
00000070: 0000 0000 0000 0000 0000 0000 0000 0000
00000080: 0000 0000 0000 0000 0000 0000 0000 0000
00000090: 0000 0000 0000 0000 0000 0000 0000 0000
000000a0: 0000 0000 0000 0000 0000 0000 0000 0000
000000b0: 0000 0000 0000 0000 0000 0000 0000 0000
000000c0: 0000 0000 0000 0000 0000 0000 0000 0000
000000d0: 0000 0000 0000 0000 0000 0000 0000 0000
000000e0: 0000 0000 0000 0000 0000 0000 0000 0000
000000f0: 0000 0000 0000 0000 0000 0000 0000 0000
00000100: 0000 0000 0000 0000 0000 0000 0000 0000
00000110: 0000 0000 0000 0000 0000 0000 0000 0000
00000120: 0000 0000 0000 0000 0000 0000 0000 0000
00000130: 0000 0000 0000 0000 0000 0000 0000 0000
00000140: 0000 0000 0000 0000 0000 0000 0000 0000
00000150: 0000 0000 0000 0000 0000 0000 0000 0000
00000160: 0000 0000 0000 0000 0000 0000 0000 0000
00000170: 0000 0000 0000 0000 0000 0000 0000 0000
00000180: 0000 0000 0000 0000 0000 0000 0000 0000
00000190: 0000 0000 0000 0000 0000 0000 0000 0000
000001a0: 0000 0000 0000 0000 0000 0000 0000 0000
000001b0: 0000 0000 0000 0000 0000 0000 0000 0000
000001c0: 0000 0000 0000 0000 0000 0000 0000 0000
000001d0: 0000 0000 0000 0000 0000 0000 0000 0000
000001e0: 0000 0000 0000 0000 0000 0000 0000 0000
000001f0: 0000 0000 0000 0000 0000 0000 0000 0000
00000200: 0000 0000 0000 0000 0000 0000 0000 0000
00000210: 0000 0000 0000 0000 0000 0000 0000 0000
00000220: 0000 0000 0000 0000 0000 0000 0000 0000
00000230: 0000 0000 0000 0000 0000 0000 0000 0000
00000240: 0000 0000 0000 0000 0000 0000 0000 0000
00000250: 0000 0000 0000 0000 0000 0000 0000 0000
00000260: 0000 0000 0000 0000 0000 0000 0000 0000
00000270: 0000 0000 0000 0000 0000 0000 0000 0000
00000280: 0000 0000 0000 0000 0000 0000 0000 0000
00000290: 0000 0000 0000 0000 0000 0000 0000 0000
000002a0: 0000 0000 0000 0000 0000 0000 0000 0000
000002b0: 0000 0000 0000 0000 0000 0000 0000 0000
000002c0: 0000 0000 0000 0000 0000 0000 0000 0000
000002d0: 0000 0000 0000 0000 0000 0000 0000 0000
000002e0: 0000 0000 0000 0000 0000 0000 0000 0000
000002f0: 0000 0000 0000 0000 0000 0000 0000 0000
00000300: 0000 0000 0000 0000 0000 0000 0000 0000
00000310: 0000 0000 0000 0000 0000 0000 0000 0000
00000320: 0000 0000 0000 0000 0000 0000 0000 0000
00000330: 0000 0000 0000 0000 0000 0000 0000 0000
00000340: 0000 0000 0000 0000 0000 0000 0000 0000
00000350: 0000 0000 0000 0000 0000 0000 0000 0000
00000360: 0000 0000 0000 0000 0000 0000 0000 0000
00000370: 0000 0000 0000 0000 0000 0000 0000 0000
00000380: 0000 0000 0000 0000 0000 0000 0000 0000
00000390: 0000 0000 0000 0000 0000 0000 0000 0000
000003a0: 0000 0000 0000 0000 0000 0000 0000 0000
000003b0: 0000 0000 0000 0000 0000 0000 0000 0000
000003c0: 0000 0000 0000 0000 0000 0000 0000 0000
000003d0: 0000 0000 0000 0000 0000 0000 0000 0000
000003e0: 0000 0000 0000 0000 0000 0000 0000 0000
000003f0: 0000 0000 0000 0000 0000 0000 0000 0000
0.0 0.0 0.0 0.0 0.0 0.0 0.0 0.0
0.0 0.0 0.0 0.0 0.0 0.0 0.0 0.0
0.0 0.0 0.0 0.0 0.0 0.0 0.0 0.0
0.0 0.0 0.0 0.0 0.0 0.0 0.0 0.0
0.0 0.0 0.0 0.0 0.0 0.0 0.0 0.0
0.0 0.0 0.0 0.0 0.0 0.0 0.0 0.0
0.0 0.0 0.0 0.0 0.0 0.0 0.0 0.0
0.0 0.0 0.0 0.0 0.0 0.0 0.0 0.0
0.0 0.0 0.0 0.0 0.0 0.0 0.0 0.0
0.0 0.0 0.0 0.0 0.0 0.0 0.0 0.0
0.0 0.0 0.0 0.0 0.0 0.0 0.0 0.0
0.0 0.0 0.0 0.0 0.0 0.0 0.0 0.0
0.0 0.0 0.0 0.0 0.0 0.0 0.0 0.0
0.0 0.0 0.0 0.0 0.0 0.0 0.0 0.0
0.0 0.0 0.0 0.0 0.0 0.0 0.0 0.0
0.0 0.0 0.0 0.0 0.0 0.0 0.0 0.0
0.0 0.0 0.0 0.0 0.0 0.0 0.0 0.0
0.0 0.0 0.0 0.0 0.0 0.0 0.0 0.0
0.0 0.0 0.0 0.0 0.0 0.0 0.0 0.0
0.0 0.0 0.0 0.0 0.0 0.0 0.0 0.0
0.0 0.0 0.0 0.0 0.0 0.0 0.0 0.0
0.0 0.0 0.0 0.0 0.0 0.0 0.0 0.0
0.0 0.0 0.0 0.0 0.0 0.0 0.0 0.0
0.0 0.0 0.0 0.0 0.0 0.0 0.0 0.0
0.0 0.0 0.0 0.0 0.0 0.0 0.0 0.0
0.0 0.0 0.0 0.0 0.0 0.0 0.0 0.0
0.0 0.0 0.0 0.0 0.0 0.0 0.0 0.0
0.0 0.0 0.0 0.0 0.0 0.0 0.0 0.0
0.0 0.0 0.0 0.0 0.0 0.0 0.0 0.0
0.0 0.0 0.0 0.0 0.0 0.0 0.0 0.0
0.0 0.0 0.0 0.0 0.0 0.0 0.0 0.0
0.0 0.0 0.0 0.0 0.0 0.0 0.0 0.0

exp_avg_sq f4 [256, 64]
00000000: 0000 0000 0000 0000 0000 0000 0000 0000
00000010: 0000 0000 0000 0000 0000 0000 0000 0000
00000020: 0000 0000 0000 0000 0000 0000 0000 0000
00000030: 0000 0000 0000 0000 0000 0000 0000 0000
00000040: 0000 0000 0000 0000 0000 0000 0000 0000
00000050: 0000 0000 0000 0000 0000 0000 0000 0000
00000060: 0000 0000 0000 0000 0000 0000 0000 0000
00000070: 0000 0000 0000 0000 0000 0000 0000 0000
00000080: 0000 0000 0000 0000 0000 0000 0000 0000
00000090: 0000 0000 0000 0000 0000 0000 0000 0000
000000a0: 0000 0000 0000 0000 0000 0000 0000 0000
000000b0: 0000 0000 0000 0000 0000 0000 0000 0000
000000c0: 0000 0000 0000 0000 0000 0000 0000 0000
000000d0: 0000 0000 0000 0000 0000 0000 0000 0000
000000e0: 0000 0000 0000 0000 0000 0000 0000 0000
000000f0: 0000 0000 0000 0000 0000 0000 0000 0000
00000100: 0000 0000 0000 0000 0000 0000 0000 0000
00000110: 0000 0000 0000 0000 0000 0000 0000 0000
00000120: 0000 0000 0000 0000 0000 0000 0000 0000
00000130: 0000 0000 0000 0000 0000 0000 0000 0000
00000140: 0000 0000 0000 0000 0000 0000 0000 0000
00000150: 0000 0000 0000 0000 0000 0000 0000 0000
00000160: 0000 0000 0000 0000 0000 0000 0000 0000
00000170: 0000 0000 0000 0000 0000 0000 0000 0000
00000180: 0000 0000 0000 0000 0000 0000 0000 0000
00000190: 0000 0000 0000 0000 0000 0000 0000 0000
000001a0: 0000 0000 0000 0000 0000 0000 0000 0000
000001b0: 0000 0000 0000 0000 0000 0000 0000 0000
000001c0: 0000 0000 0000 0000 0000 0000 0000 0000
000001d0: 0000 0000 0000 0000 0000 0000 0000 0000
000001e0: 0000 0000 0000 0000 0000 0000 0000 0000
000001f0: 0000 0000 0000 0000 0000 0000 0000 0000
00000200: 0000 0000 0000 0000 0000 0000 0000 0000
00000210: 0000 0000 0000 0000 0000 0000 0000 0000
00000220: 0000 0000 0000 0000 0000 0000 0000 0000
00000230: 0000 0000 0000 0000 0000 0000 0000 0000
00000240: 0000 0000 0000 0000 0000 0000 0000 0000
00000250: 0000 0000 0000 0000 0000 0000 0000 0000
00000260: 0000 0000 0000 0000 0000 0000 0000 0000
00000270: 0000 0000 0000 0000 0000 0000 0000 0000
00000280: 0000 0000 0000 0000 0000 0000 0000 0000
00000290: 0000 0000 0000 0000 0000 0000 0000 0000
000002a0: 0000 0000 0000 0000 0000 0000 0000 0000
000002b0: 0000 0000 0000 0000 0000 0000 0000 0000
000002c0: 0000 0000 0000 0000 0000 0000 0000 0000
000002d0: 0000 0000 0000 0000 0000 0000 0000 0000
000002e0: 0000 0000 0000 0000 0000 0000 0000 0000
000002f0: 0000 0000 0000 0000 0000 0000 0000 0000
00000300: 0000 0000 0000 0000 0000 0000 0000 0000
00000310: 0000 0000 0000 0000 0000 0000 0000 0000
00000320: 0000 0000 0000 0000 0000 0000 0000 0000
00000330: 0000 0000 0000 0000 0000 0000 0000 0000
00000340: 0000 0000 0000 0000 0000 0000 0000 0000
00000350: 0000 0000 0000 0000 0000 0000 0000 0000
00000360: 0000 0000 0000 0000 0000 0000 0000 0000
00000370: 0000 0000 0000 0000 0000 0000 0000 0000
00000380: 0000 0000 0000 0000 0000 0000 0000 0000
00000390: 0000 0000 0000 0000 0000 0000 0000 0000
000003a0: 0000 0000 0000 0000 0000 0000 0000 0000
000003b0: 0000 0000 0000 0000 0000 0000 0000 0000
000003c0: 0000 0000 0000 0000 0000 0000 0000 0000
000003d0: 0000 0000 0000 0000 0000 0000 0000 0000
000003e0: 0000 0000 0000 0000 0000 0000 0000 0000
000003f0: 0000 0000 0000 0000 0000 0000 0000 0000
0.0 0.0 0.0 0.0 0.0 0.0 0.0 0.0
0.0 0.0 0.0 0.0 0.0 0.0 0.0 0.0
0.0 0.0 0.0 0.0 0.0 0.0 0.0 0.0
0.0 0.0 0.0 0.0 0.0 0.0 0.0 0.0
0.0 0.0 0.0 0.0 0.0 0.0 0.0 0.0
0.0 0.0 0.0 0.0 0.0 0.0 0.0 0.0
0.0 0.0 0.0 0.0 0.0 0.0 0.0 0.0
0.0 0.0 0.0 0.0 0.0 0.0 0.0 0.0
0.0 0.0 0.0 0.0 0.0 0.0 0.0 0.0
0.0 0.0 0.0 0.0 0.0 0.0 0.0 0.0
0.0 0.0 0.0 0.0 0.0 0.0 0.0 0.0
0.0 0.0 0.0 0.0 0.0 0.0 0.0 0.0
0.0 0.0 0.0 0.0 0.0 0.0 0.0 0.0
0.0 0.0 0.0 0.0 0.0 0.0 0.0 0.0
0.0 0.0 0.0 0.0 0.0 0.0 0.0 0.0
0.0 0.0 0.0 0.0 0.0 0.0 0.0 0.0
0.0 0.0 0.0 0.0 0.0 0.0 0.0 0.0
0.0 0.0 0.0 0.0 0.0 0.0 0.0 0.0
0.0 0.0 0.0 0.0 0.0 0.0 0.0 0.0
0.0 0.0 0.0 0.0 0.0 0.0 0.0 0.0
0.0 0.0 0.0 0.0 0.0 0.0 0.0 0.0
0.0 0.0 0.0 0.0 0.0 0.0 0.0 0.0
0.0 0.0 0.0 0.0 0.0 0.0 0.0 0.0
0.0 0.0 0.0 0.0 0.0 0.0 0.0 0.0
0.0 0.0 0.0 0.0 0.0 0.0 0.0 0.0
0.0 0.0 0.0 0.0 0.0 0.0 0.0 0.0
0.0 0.0 0.0 0.0 0.0 0.0 0.0 0.0
0.0 0.0 0.0 0.0 0.0 0.0 0.0 0.0
0.0 0.0 0.0 0.0 0.0 0.0 0.0 0.0
0.0 0.0 0.0 0.0 0.0 0.0 0.0 0.0
0.0 0.0 0.0 0.0 0.0 0.0 0.0 0.0
0.0 0.0 0.0 0.0 0.0 0.0 0.0 0.0
