lightning_logs/version_74/checkpoints/epoch=9-step=4350.ckpt (torch, 227924 bytes, 15 tensors)

lstm.weight_ih_l0 f4 [256, 5]
-0.42398658 0.5311952 -0.36145434 -0.5748135 0.8000275 -0.43406984 0.42406976 0.11998582
-0.4496401 0.66995674 -0.41466117 0.40282536 -0.51134753 -0.42669624 0.4420601 -0.26088354
0.3003915 0.6423698 0.09849346 0.085777245 -0.0038666003 -0.056115612 0.20005552 -0.019449832
0.030242883 -0.30840656 0.34392145 -0.076829806 -0.3138303 0.3979212 -0.31737617 0.20995483
0.16035907 0.050755274 -0.015067936 -0.3253541 0.4024944 -0.27189535 0.014002688 0.23899043
-0.2698592 0.16332701 -0.3930659 0.14335899 0.0012016653 -0.3514739 0.11158826 -0.41840327
-0.008888116 0.10707758 -0.06376635 -0.038914517 -0.26373208 -0.022022499 0.019879112 -0.18468979
0.42144346 -0.19502777 -0.3461185 0.57924014 -0.31060037 0.23637636 -0.33379018 -0.013748305
0.3498941 -0.3213688 0.23134063 0.34172204 0.10911499 0.16521315 0.0025474448 0.09770232
0.268311 0.05755054 0.13216092 -0.41367158 0.26954636 -0.37940577 0.27664033 0.007822044
-0.39763793 0.28320915 -0.32762945 -0.42591706 0.7195856 -0.27648526 0.28663084 -0.530265
-0.15574026 0.46464136 -0.28610045 0.24661875 0.4845555 0.098859794 0.16599384 -0.27235004
0.117279045 -0.331119 0.008353947 -0.022364056 -0.08342902 0.2836492 0.18731068 0.12921806
0.10263108 -0.50373834 0.3728187 -0.5071681 -0.6051301 0.6582969 -0.29035634 0.33559784
0.7740416 0.04278058 0.15876582 -0.09496291 0.10870565 0.08872497 0.053395458 0.24976385
-0.20246997 0.27713427 0.43363938 0.19534762 0.058741976 -0.32727605 0.30187884 -0.42149472
-0.07895367 0.31088123 -0.23689617 0.4104198 -0.1164429 0.30739045 -0.016448822 -0.39205807
0.4278321 -0.25570792 0.12752979 0.14630118 -0.31615973 0.47368518 -0.4039997 -0.23001754
0.25232926 -0.3138547 0.37995553 -0.32477126 -0.35797483 0.54610294 -0.11968603 0.07970498
0.20569007 0.055709757 0.21370424 -0.22968772 0.2706862 -0.28135857 0.08465137 0.23486146
-0.120984875 0.24219626 -0.2822165 0.04767978 0.09831027 -0.3384298 0.4795823 -0.3973958
-0.41931826 0.57865936 -0.27258593 0.31224373 0.41912082 0.03354989 0.18090105 -0.46692514
0.2856355 -0.24301615 0.288623 -0.14946002 -0.073357046 -0.022951499 -0.5358332 -0.18608956
0.2794981 -0.19062419 0.3315675 0.4708241 -0.1031699 0.24508545 -0.21248025 0.26613528
0.36781403 -0.03235738 0.27990383 -0.12600121 0.038044468 -0.44974107 -0.072615534 0.3063788
-0.13051902 0.015033265 0.3579564 0.16571955 -0.06672118 -0.45592004 0.2384897 -0.17219354
-0.25728825 0.31026334 -0.36558133 0.40250826 -0.49986553 -0.22822921 0.2834691 -0.3949064
0.24705288 -0.027132075 -0.38030258 0.41796207 -0.33362263 0.33128688 -0.2911787 0.30572918
-0.06639467 -0.20626049 0.12576723 -0.41245267 0.032334376 0.32336962 -0.24894053 0.19896978
-0.4418962 0.07634673 -0.090133965 -0.3124662 0.16093257 0.35604978 0.026449572 -0.049753476
-0.40968496 0.3641201 -0.4079232 0.24370135 0.020707069 -0.3581823 0.37304765 -0.33337343
0.21139468 -0.08838115 -0.25355884 0.403606 -0.45420432 0.3428937 0.15658988 -0.37696967
00000000: c514 d9be 69fc 073f 8b10 b9be fa26 13bf
00000010: 9ace 4c3f 673e debe ac1f d93e 20bb f53d
00000020: 3a37 e6be 4982 2b3f 784e d4be 203f ce3e
00000030: ace7 02bf ee77 dabe b455 e23e 8792 85be
00000040: eacc 993e 5972 243f f0b6 c93d fbab af3d
00000050: ca66 7dbb 7cd9 65bd 5bdb 4c3e 4155 9fbc
00000060: ecbf f73c 77e7 9dbe 7916 b03e f258 9dbd
00000070: 5dae a0be 54bc cb3e 217f a2be 66fe 563e
00000080: 2b35 243e c3e4 4f3d 81df 76bc d094 a6be
00000090: bf13 ce3e de35 8bbe 886b 653c e8b9 743e
000000a0: fc2a 8abe 323f 273e ef3f c9be b3cc 123e
000000b0: 3281 9d3a 63f4 b3be 6388 e43d f438 d6be
000000c0: 769f 11bc 7e4b db3d ef97 82bd d464 1fbd
000000d0: e407 87be 8768 b4bc 85d9 a23c 521f 3dbe
000000e0: 70c7 d73e 5cb5 47be 7236 b1be 1549 143f
000000f0: 0307 9fbe a50c 723e 8ce6 aabe 9240 61bc
00000100: 5225 b33e 748a a4be 8fe4 6c3e 31f6 ae3e
00000110: ae77 df3d a32d 293e 08f3 263b 2718 c83d
00000120: 0f60 893e 1dba 6b3d 3155 073e c3cc d3be
00000130: fb01 8a3e 7941 c2be cda3 8d3e 0828 003c
00000140: 3397 cbbe ca00 913e 0cbf a7be cd11 dabe
00000150: c336 383f 7a8f 8dbe 47c1 923e 72bf 07bf
00000160: 607a 1fbe 79e5 ed3e c27b 92be a089 7c3e
00000170: a917 f83e 0177 ca3d 4afa 293e 7771 8bbe
00000180: ff2f f03d 6e88 a9be fede 083c d334 b7bc
00000190: d6dc aabd 783a 913e 5fce 3f3e bd51 043e
000001a0: 3e30 d23d fff4 00bf 18e2 be3e c5d5 01bf
000001b0: cee9 1abf 2586 283f 96a9 94be 7bd3 ab3e
000001c0: 9727 463f b13a 2f3d 8293 223e ea7b c2bd
000001d0: 11a1 de3d 70b5 b53d 32b5 5a3d 18c2 7f3e
000001e0: 4a54 4fbe 8be4 8d3e fb05 de3e 3509 483e
000001f0: 6d9b 703d ba90 a7be dd8f 9a3e 28ce d7be
00000200: 76b2 a1bd d32b 9f3e e994 72be 8b22 d23e
00000210: 9d79 eebd 4862 9d3e aebf 86bc d6bb c8be
00000220: cf0c db3e 26ec 82be 2b97 023e facf 153e
00000230: b0df a1be dd86 f23e 0cd9 cebe b889 6bbe
00000240: 4d31 813e 90b1 a0be 8889 c23e 6b48 a6be
00000250: 7a48 b7be 67cd 0b3f f31d f5bd 5d3c a33d
00000260: 6ba0 523e ea2f 643d 49d5 5a3e 4233 6bbe
00000270: 6297 8a3e 3b0e 90be b35d ad3d 867f 703e
00000280: ebc6 f7bd 4c02 783e ae7e 90be df4b 433d
00000290: e556 c93d ac46 adbe d08b f53e 7677 cbbe
000002a0: e2b0 d6be 0523 143f 6290 8bbe 69de 9f3e
000002b0: 0197 d63e 9c6b 093d 203e 393e d010 efbe
000002c0: d13e 923e 3ad9 78be 65c6 933e 0c0c 19be
000002d0: 383c 96bd c804 bcbc 5d2c 09bf 438e 3ebe
000002e0: 601a 8f3e fd32 43be 37c3 a93e db0f f13e
000002f0: be4a d3bd aef7 7a3e 6c94 59be e242 883e
00000300: 1f52 bc3e 2c89 04bd 8e4f 8f3e 7606 01be
00000310: 84d4 1b3d 7644 e6be 74b7 94bd afdd 9c3e
00000320: c7a6 05be 154e 763c 1046 b73e 63b2 293e
00000330: 1da5 88bd 5a6e e9be a536 743e 8153 30be
00000340: 49bb 83be d6da 9e3e 7a2d bbbe 9015 ce3e
00000350: 60ee ffbe ebb4 69be dd22 913e 2c31 cabe
00000360: 6efb 7c3e 1644 debc 05b7 c2be 20ff d53e
00000370: 96d0 aabe 6f9e a93e 6015 95be 8988 9c3e
00000380: eef9 87bd f335 53be 20c9 003e ff2c d3be
00000390: 0d71 043d b490 a53e 44ea 7ebe bcbe 4b3e
000003a0: 3840 e2be ad5b 9c3d 2898 b8bd 92fb 9fbe
000003b0: 82cb 243e 284c b63e c6ac d83c 4dca 4bbd
000003c0: 3ac2 d1be f36d ba3e 4fdb d0be d98c 793e
000003d0: dfa1 a93c ac63 b7be 1a00 bf3e ecaf aabe
000003e0: d977 583e 2d01 b5bd 77d2 81be 72a5 ce3e
000003f0: 788d e8be c38f af3e 1959 203e 2b02 c1be

lstm.weight_hh_l0 f4 [256, 64]
0.001006484 -0.07553625 0.06996547 0.007835239 -0.07149556 0.03127964 0.052168533 0.032956153
0.026180193 -0.12310395 0.07572882 0.030531928 -0.09438868 -0.11626233 -0.037438378 0.022956133
0.0079666525 -0.10400082 -0.05190529 -0.023673907 -0.03648454 0.03461504 -0.012669757 0.010236546
-0.07557109 -0.033581987 0.009843633 -0.09724979 0.123290166 0.0806842 -0.0078449845 -0.02036962
-0.09881674 -0.09626633 0.053013444 0.11879866 -0.112196505 0.039493725 0.00042520463 0.06513934
0.10897297 -0.0068649948 -0.01898615 0.020939827 -0.021603703 0.01644434 -0.0693876 -0.04457864
0.07645401 -0.026065022 0.078943595 0.122231394 -0.046791553 -0.119037926 0.038602203 0.116880536
-0.059379593 -0.07706839 0.062735096 -0.042492285 0.11192289 -0.08574648 0.010222375 -0.018203497
0.07274087 -0.07906073 0.09507531 -0.031409398 0.049922273 -0.011586443 0.1039117 -0.07131183
-0.050097466 0.09509584 -0.10308075 -0.03715843 -0.015017495 0.08794545 -0.026793316 -0.0394167
0.06082779 -0.04615377 0.045222342 -0.07354838 -0.101274684 -0.10109939 0.119413525 -0.016247004
0.05960323 -0.06212151 0.09339835 0.016672164 0.063524246 0.06385161 0.04469563 -0.0458785
-0.005979806 0.08833189 -0.09532945 -0.07984382 -0.09649797 0.031774387 -0.11746892 -0.051369756
-0.06970489 0.1247354 0.117261514 -0.08657654 -0.041372657 -0.06309053 -0.08158149 0.08121516
-0.06541331 0.04337454 -0.06444381 0.025607288 0.018907428 -0.05006878 0.033189803 -0.007365629
-0.012192905 -0.09121823 0.0020320714 -0.04474765 0.013844147 -0.07396133 0.036771834 0.04860954
0.03648095 0.02459623 -0.0063315034 0.0029780269 -0.01447767 -0.066296875 -0.12036803 0.06101489
0.038618132 -0.0436195 -0.0071780235 0.031218931 -0.028998062 0.03335157 0.04741411 -0.027473286
0.07007015 -0.09556042 -0.068902075 -0.014120132 -0.029189512 0.10310146 0.12203355 -0.083192006
0.037783176 -0.09154485 -0.042298406 0.06504652 0.07141377 -0.124906465 -0.11193834 0.0067182034
-0.043971553 -0.059069276 0.057525158 -0.0022315532 0.050746888 -0.086400524 -0.0055757314 -0.05587028
-0.008545712 0.01776503 -0.076447785 -0.0023684949 -0.08859235 0.051205605 0.03105326 -0.024748072
-0.11510721 -0.009459436 -0.09737131 0.005168557 -0.08813797 0.019979507 -0.07105003 -0.088913664
0.0061023235 0.08195722 -0.06776093 -0.040860504 0.11357419 -0.08315238 -0.11544968 0.111260444
0.040051177 -0.06360452 0.022394553 -0.051834583 0.021481425 0.028257579 0.060716838 0.105366156
-0.01668854 -0.082887545 0.05865538 -0.11491616 -0.017090574 -0.038838074 -0.043402955 -0.116471976
-0.11308676 0.11389786 0.052855328 -0.038519144 -0.057583824 0.09556453 -0.03819956 -0.036236018
0.07578586 -0.085490346 -0.12401819 0.0703332 0.088247076 -0.12146054 -0.037880674 0.116512954
0.12234841 0.102874905 -0.08405334 -0.06658155 -0.08603871 0.093766764 0.076012984 -0.03035611
-0.07461774 0.057772025 -0.048934907 -0.09463313 0.04336311 0.100942984 0.11665964 0.06689753
-0.12296903 0.08525288 0.023486659 -0.0050620288 -0.024629444 0.12309265 -0.107129425 -0.07123087
-0.108087644 4.0739775e-05 0.017029181 -0.123471305 -0.10482645 0.016389683 0.10327071 -0.004055217
00000000: 00ec 833a c0b2 9abd 0e4a 8f3d 605f 003c
00000010: 446c 92bd 141f 003d acae 553d 08fd 063d
00000020: d877 d63c ec1d fcbd b617 9b3d 181e fa3c
00000030: da4e c1bd f21a eebd fc58 19bd 800e bc3c
00000040: 9086 023c 62fe d4bd a49a 54bd c8ef c1bc
00000050: d070 15bd 80c8 0d3d d094 4fbc 30b7 273c
00000060: 04c5 9abd 448d 09bd 3047 213c e62a c7bd
00000070: 8e7f fc3d c23d a53d 4088 00bc 30de a6bc
00000080: 6e60 cabd 4827 c5bd a024 593d b64c f33d
00000090: 48c7 e5bd 2cc4 213d 00ee de39 c667 853d
000000a0: 382d df3d c0f3 e0bb d888 9bbc 008a ab3c
000000b0: 40fa b0bc 48b6 863c 161b 8ebd 1898 36bd
000000c0: ec93 9c3d 5086 d5bc 2ead a13d 7454 fa3d
000000d0: 80a8 3fbd 28ca f3bd 581d 1e3d 105f ef3d
000000e0: 0438 73bd 08d6 9dbd 427b 803d 640c 2ebd
000000f0: d437 e53d da9b afbd c07b 273c 801f 95bc
00000100: 2af9 943d 98ea a1bd d8b6 c23d 24a7 00bd
00000110: 4c7b 4c3d 10d5 3dbc a8cf d43d f00b 92bd
00000120: 0033 4dbd 9cc1 c23d 001c d3bd 7033 18bd
00000130: f00b 76bc be1c b43d a87d dbbc 6873 21bd
00000140: 9026 793d bc0b 3dbd 103b 393d 88a0 96bd
00000150: 1a69 cfbd 320d cfbd 148f f43d 7018 85bc
00000160: 8422 743d 2073 7ebd a247 bf3d 1094 883c
00000170: 0019 823d a2c4 823d c412 373d 18eb 3bbd
00000180: 40f2 c3bb 5ae7 b43d 163c c3bd 2885 a3bd
00000190: baa0 c5bd dc25 023d 8c93 f0bd 1869 52bd
000001a0: 70c1 8ebd 4675 ff3d ce26 f03d 0a4f b1bd
000001b0: 6076 29bd 9c35 81bd 3214 a7bd 2254 a63d
000001c0: 6af7 85bd 80a9 313d 1efb 83bd 60c6 d13c
000001d0: c0e3 9a3c ec14 4dbd 08f2 073d 605b f1bb
000001e0: c0c4 47bc a0d0 babd 802c 053b 5049 37bd
000001f0: 90d2 623c 0a79 97bd 109e 163d cc1a 473d
00000200: 0c6d 153d 087e c93c 8078 cfbb 002b 433b
00000210: c033 6dbc a8c6 87bd 8483 f6bd c0ea 793d
00000220: 0c2e 1e3d 5caa 32bd a035 ebbb d8be ff3c
00000230: 588d edbc a89b 083d 4c35 423d a80f e1bc
00000240: f080 8f3d 2eb5 c3bd 881c 8dbd 2058 67bc
00000250: d81e efbc dc26 d33d baec f93d 9260 aabd
00000260: 88c2 1a3d de7b bbbd 1841 2dbd 1c37 853d
00000270: 6241 923d f6ce ffbd ee3f e5bd 6024 dc3b
00000280: 841b 34bd a0f2 71bd 809f 6b3d 403f 12bb
00000290: f8db 4f3d c2f2 b0bd a0b4 b6bb 3cd8 64bd
000002a0: 5003 0cbc f887 913c a890 9cbd c038 1bbb
000002b0: e86f b5bd f8bc 513d 6863 fe3c 78bc cabc
000002c0: 54bd ebbd c0fb 1abc 9c6a c7bd 005d a93b
000002d0: ae81 b4bd 10ac a33c ae82 91bd 5e18 b6bd
000002e0: 00f6 c73b 30d9 a73d 3ec6 8abd 585d 27bd
000002f0: 9699 e83d cc4b aabd e270 ecbd 84dc e33d
00000300: b40c 243d 1643 82bd c874 b73c 8050 54bd
00000310: d0f9 af3c 707c e73c 38b2 783d 36ca d73d
00000320: 68b6 88bc f2c0 a9bd a040 703d 2a59 ebbd
00000330: 8801 8cbc ac14 1fbd 4cc7 31bd dc88 eebd
00000340: 089a e7bd 4843 e93d d47e 583d 40c6 1dbd
00000350: 04dd 6bbd 56b7 c33d 2477 1cbd 386c 14bd
00000360: 9e35 9b3d 9015 afbd 40fd fdbd da0a 903d
00000370: e2ba b43d 4ec0 f8bd c428 1bbd 589e ee3d
00000380: ce91 fa3d 14b0 d23d 2824 acbd e85b 88bd
00000390: 1035 b0bd ca08 c03d b2ac 9b3d 60ad f8bc
000003a0: 30d1 98bd 5ca2 6c3d f86f 48bd 04cf c1bd
000003b0: 849d 313d 32bb ce3d 40eb ee3d 9201 893d
000003c0: 30d7 fbbd 1099 ae3d 1867 c03c 60df a5bb
000003d0: b0c3 c9bc 0018 fc3d ac66 dbbd 7ee1 91bd
000003e0: 0e5d ddbd 00e0 2a38 c880 8b3c 86de fcbd
000003f0: 40af d6bd a843 863c 987f d33d a0e1 84bb

lstm.bias_ih_l0 f4 [256]
0.80313665 0.61294883 0.45416975 0.39031556 0.5968436 0.6111132 0.58588666 0.67091215
0.47128445 0.6818854 0.5212292 0.73532844 0.50067526 0.5526887 0.78955364 0.628153
0.72298634 0.88019925 0.59596545 0.07286176 0.6945778 0.5969776 0.43435004 0.5953018
0.58313894 0.73771566 0.58570105 0.60774326 0.58302516 0.5428 0.56200516 0.38807705
0.6355596 0.6757326 0.401254 0.6130524 0.6231508 0.59274787 0.6351577 0.6787504
0.51544404 0.78327894 0.5402761 0.6359124 0.62380445 0.50782764 0.63041383 0.5512852
0.7943203 0.6015029 0.63863784 0.44458792 0.605138 0.6749737 0.46847945 0.597783
0.5931776 0.6714355 0.51703817 0.605903 0.8848949 0.42835748 0.79933023 0.37160054
0.08500941 0.094352275 -0.009054497 -0.09849815 -0.08174071 0.11670321 0.07722655 -0.11488266
0.04818377 -0.12280364 -0.007703617 0.07859801 -0.037489414 -0.1036918 -0.11187561 0.03078854
0.021215245 -0.11563754 0.107552886 -0.05793844 -0.09331091 -0.005012214 -0.013479933 -0.079696834
-0.0012425184 -0.10722199 0.11470002 0.0009356588 0.06833683 -0.049099818 0.07916172 0.036644086
-0.03609623 -0.009275645 -0.05364944 0.090225935 0.04558201 -0.0012911707 -0.047217175 -0.067429334
0.101919666 0.07474938 -0.115685865 0.011811867 -0.074594036 -0.12088771 -0.0891646 0.06935087
0.10461776 0.082644284 0.053106323 0.09678179 -0.06414974 0.032898292 0.11347495 0.077583015
-0.017284095 0.09940231 -0.04725541 0.06748924 0.04557556 0.000600338 0.07243939 0.010661736
-0.2262696 -0.18563177 0.06639224 0.36638784 -0.23312545 0.2809202 0.29466805 -0.18249868
0.13574181 -0.19258022 0.1441565 -0.1384591 -0.172386 0.29991803 0.22976759 0.24580052
-0.124718025 -0.17411125 -0.3088913 -0.009952483 -0.29652354 -0.0605646 0.2448841 -0.26189393
0.35262966 -0.20104441 0.057317268 0.20143998 -0.029853698 -0.14337844 -0.22261353 -0.18281181
-0.1953192 0.15340006 -0.3110412 -0.17536844 0.15433271 -0.25249636 0.33597466 -0.2029516
-0.35294804 -0.169677 0.17379126 -0.21338588 -0.0729743 0.2290256 -0.18149596 -0.35329664
0.18496028 0.19330643 -0.15477288 0.3096615 0.30889004 -0.26843214 -0.08795445 -0.14129247
0.094651036 -0.16727683 -0.04241307 -0.38125715 -0.19983879 -0.26720917 0.07335116 -0.19382067
0.7835214 0.71330714 0.5997678 0.58251464 0.68612385 0.6762979 0.5800434 0.47250623
0.3692825 0.64880073 0.7051918 0.595721 0.6886502 0.58186424 0.9534243 0.61556435
0.59652174 0.9276673 0.65821946 -0.0906214 0.5258339 0.62314427 0.49277472 0.69906056
0.6642121 0.66466314 0.48520464 0.7617295 0.55586755 0.4690062 0.73365766 0.43416172
0.5908587 0.598589 0.4235818 0.5887245 0.72632205 0.5723443 0.6182552 0.82335275
0.47260705 0.7442019 0.49433914 0.4776068 0.6884577 0.5945619 0.66888916 0.54059505
0.9600086 0.656525 0.62278336 0.6720305 0.7143038 0.82865465 0.45860434 0.5889189
0.72865057 0.8397422 0.44969872 0.785078 0.83814985 0.6342561 0.97526234 0.48864028
00000000: 5d9a 4d3f 37ea 1c3f f088 e83e 71d7 c73e
00000010: beca 183f ea71 1c3f abfc 153f e6c0 2b3f
00000020: 324c f13e 0b90 2e3f 476f 053f 7c3e 3c3f
00000030: 412c 003f 027d 0d3f 3020 4a3f a3ce 203f
00000040: a215 393f bd54 613f 3191 183f 8c38 953d
00000050: dacf 313f 86d3 183f 2163 de3e b365 183f
00000060: 9848 153f efda 3c3f 81f0 153f 1095 1b3f
00000070: 2341 153f f1f4 0a3f 92df 0f3f 09b2 c63e
00000080: 09b4 223f d0fc 2c3f 2a71 cd3e 01f1 1c3f
00000090: d086 1f3f 53be 173f b299 223f 96c2 2d3f
000000a0: 24f4 033f f884 483f 894f 0a3f 28cb 223f
000000b0: a6b1 1f3f fe00 023f cd62 213f 0721 0d3f
000000c0: 9358 4b3f 18fc 193f c57d 233f 07a1 e33e
000000d0: 53ea 1a3f 14cb 2c3f 8adc ef3e 4f08 193f
000000e0: 7dda 173f 32e3 2b3f 9d5c 043f 761c 1b3f
000000f0: 7988 623f ac51 db3e e8a0 4c3f 6d42 be3e
00000100: 6a19 ae3d c43b c13d 5059 14bc 66b9 c9bd
00000110: ac67 a7bd 1802 ef3d f428 9e3d 9a47 ebbd
00000120: 585c 453d 7a80 fbbd a06e fcbb fef7 a03d
00000130: 808e 19bd 5e5c d4bd 0a1f e5bd 4038 fc3c
00000140: 98cb ad3c 60d3 ecbd b044 dc3d dc50 6dbd
00000150: ca19 bfbd 803d a4bb f0da 5cbc 1838 a3bd
00000160: 00dc a2ba 3497 dbbd d8e7 ea3d 0047 753a
00000170: 2ef4 8b3d e41c 49bd 8a1f a23d 1c18 163d
00000180: a4d9 13bd e0f8 17bc 84bf 5bbd 60c8 b83d
00000190: 34b4 3a3d 803c a9ba cc66 41bd 6418 8abd
000001a0: 42bb d03d 3416 993d b6ec ecbd 9086 413c
000001b0: c2c4 98bd fa93 f7bd ee9b b6bd d407 8e3d
000001c0: d641 d63d 6841 a93d 0486 593d 8835 c63d
000001d0: f060 83bd 5cc0 063d 8e65 e83d d8e3 9e3d
000001e0: 6097 8dbc 7093 cb3d e48e 41bd cc37 8a3d
000001f0: 70ad 3a3d 0060 1d3a 1a5b 943d 90ae 2e3c
00000200: 38b3 67be 4116 3ebe a8f8 873d 3097 bb3e
00000210: 70b8 6ebe c6d4 8f3e bbde 963e efe0 3abe
00000220: e7ff 0a3e c033 45be c39d 133e 39c8 0dbe
00000230: f585 30be db8e 993e 3248 6b3e 22b3 7b3e
00000240: 2a6c ffbd 384a 32be 0027 9ebe bd0f 23bc
00000250: efd1 97be 9612 78bd e6c2 7a3e f616 86be
00000260: e08b b43e 96de 4dbe 83c5 6a3d 4846 4e3e
00000270: be8f f4bc ccd1 12be cdf4 63be 0533 3bbe
00000280: c201 48be e814 1d3e cb40 9fbe c993 33be
00000290: 6509 1e3e 3447 81be df04 ac3e 8bd2 4fbe
000002a0: 9bb5 b4be cfbf 2dbe 56f6 313e d481 5abe
000002b0: 8d73 95bd b085 6a3e 14da 39be 4ce3 b4be
000002c0: 3a66 3d3e 1ff2 453e c87c 1ebe f48b 9e3e
000002d0: d626 9e3e f06f 89be 7621 b4bd f9ae 10be
000002e0: 67d8 c13d 9e4a 2bbe 54b9 2dbd 2334 c3be
000002f0: 8aa2 4cbe a4cf 88be 2239 963d ed78 46be
00000300: dc94 483f 4c9b 363f 628a 193f ae1f 153f
00000310: d0a5 2f3f dc21 2d3f b97d 143f 56ec f13e
00000320: 9912 bd3e ce17 263f 7387 343f 2c81 183f
00000330: 614b 303f 0ef5 143f 9d13 743f a095 1d3f
00000340: a6b5 183f 9b7b 6d3f 1281 283f b697 b9bd
00000350: 0d9d 063f 6286 1f3f f84c fc3e a2f5 323f
00000360: ce09 2a3f 5d27 2a3f be6c f83e b400 433f
00000370: 564d 0e3f 9521 f03e fdd0 3b3f 724a de3e
00000380: 8442 173f 213d 193f b7df d83e a6b6 163f
00000390: 3ef0 393f 2885 123f f945 1e3f 3fc7 523f
000003a0: 8df9 f13e 0484 3e3f 051a fd3e e188 f43e
000003b0: c43e 303f 3535 183f 523c 2b3f 7064 0a3f
000003c0: 20c3 753f 0612 283f bb6e 1f3f 310a 2c3f
000003d0: 9ddc 363f b622 543f 30ce ea3e 64c3 163f
000003e0: d888 3a3f 58f9 563f e93e e63e dffa 483f
000003f0: fd90 563f 9c5e 223f cbaa 793f 0f2f fa3e

lstm.bias_hh_l0 f4 [256]
0.91352594 0.64080846 0.4361209 0.5622338 0.56173456 0.5371858 0.7629801 0.6333338
0.51397634 0.6152276 0.6343133 0.7182007 0.65971035 0.63870764 0.9105551 0.632388
0.52476406 0.9291069 0.6323416 -0.0026891327 0.6287936 0.5973411 0.33160096 0.5182381
0.6375042 0.6928876 0.43300566 0.7733763 0.3610081 0.5435114 0.7264059 0.4668805
0.5956337 0.6038607 0.47051936 0.64501375 0.6539476 0.48320976 0.5830602 0.67764604
0.45815626 0.6942013 0.67605966 0.6845097 0.812852 0.5141023 0.5680983 0.6370545
0.86588985 0.54232824 0.48269987 0.5796946 0.50857615 0.78619945 0.58608395 0.5011228
0.5140178 0.79622346 0.563722 0.5948043 0.8615355 0.5149768 0.9423679 0.35926467
0.09461379 -0.013086751 0.0033368915 -0.024386644 0.08703326 0.09028427 0.107001066 0.035320595
-0.06685418 -0.005477011 0.07436764 -0.10508239 -0.045161426 -0.123362154 -0.041657478 0.063028425
0.008538827 0.004133895 -0.076970324 -0.030965388 0.044784814 0.0649312 0.018614203 -0.071915835
-0.095857084 0.09458873 -0.07384315 0.059115186 0.03325139 -0.11018564 0.0011652708 0.09341346
0.05750081 0.12299499 0.010257199 0.100223556 0.052198574 -0.021715507 0.028733611 0.045139745
-0.035464555 0.087919325 -0.007949725 0.011404827 0.07281646 0.09409903 -0.07402329 0.021892384
0.0776204 -0.08952749 -0.025529623 0.07141639 0.070319 -0.031215876 -0.056275696 0.10828897
0.008978397 0.11760013 -0.11989693 -0.07399303 -0.082505494 0.03297983 0.019859865 0.051928967
-0.15625918 -0.20621842 0.1977547 0.35058287 -0.3215204 0.12762517 0.26956892 -0.084860064
0.26177078 -0.29834017 0.24998035 -0.19867824 -0.05320899 0.34000468 0.35079893 0.040999673
-0.20701723 -0.2438092 -0.3523525 0.031863824 -0.27727586 -0.17369878 0.2446835 -0.2954373
0.34272698 -0.097806945 0.24206036 0.12904991 -0.017870095 -0.1323017 -0.3272043 -0.14823993
-0.25788268 0.1294721 -0.27331907 -0.037361477 0.17771484 -0.24400511 0.21772292 -0.25083226
-0.24560407 -0.27494124 0.02407041 -0.04605897 -0.2636462 0.18849033 -0.12995593 -0.2359112
0.16779599 0.058426466 -0.025641704 0.33419073 0.32092458 -0.17439996 -0.18667504 -0.27482092
0.16105108 -0.32396972 -0.14027616 -0.19672507 -0.27438137 -0.21744895 0.15367573 -0.28373086
0.99189323 0.67288053 0.6378923 0.4497338 0.58899873 0.4948956 0.75905204 0.53793657
0.49902496 0.59724915 0.6810132 0.7260201 0.6366931 0.55164367 0.7950558 0.6041189
0.71913373 0.8119096 0.6297537 0.01990294 0.7038024 0.62702334 0.30538976 0.55583566
0.67761534 0.56846607 0.6167859 0.70881426 0.5323278 0.62494504 0.7359566 0.37284327
0.57061595 0.5800479 0.49029085 0.5434366 0.69396514 0.64656967 0.72191316 0.8378778
0.3877143 0.8389688 0.5873415 0.5232164 0.69776523 0.49156436 0.6700615 0.54355186
0.842665 0.5515254 0.58506644 0.5142397 0.68381774 0.61322063 0.6064848 0.5543777
0.5945153 0.6653077 0.47880426 0.70272785 0.9348692 0.4322192 0.78966373 0.5552175
00000000: d6dc 693f 060c 243f 3d4b df3e 8eee 0f3f
00000010: d6cd 0f3f 0285 093f aa52 433f 2a22 223f
00000020: f493 033f 8e7f 1d3f 5b62 223f 00dc 373f
00000030: c7e2 283f 5882 233f 241a 693f 2ee4 213f
00000040: f056 063f f3d9 6d3f 24e1 213f 293c 30bb
00000050: 9ef8 203f 59eb 183f 9ac7 a93e 41ab 043f
00000060: 7a33 233f 1561 313f ebb2 dd3e fdfb 453f
00000070: 0ed6 b83e 9023 0b3f bdf5 393f f60a ef3e
00000080: 737b 183f 9d96 1a3f eae7 f03e 9f1f 253f
00000090: 1c69 273f 4567 f73e 6f43 153f 367a 2d3f
000000a0: 7593 ea3e 2db7 313f 3f12 2d3f 073c 2f3f
000000b0: 1217 503f 359c 033f e46e 113f 0116 233f
000000c0: f5aa 5d3f 06d6 0a3f 7024 f73e de66 143f
000000d0: 0c32 023f 5e44 493f 9909 163f 9549 003f
000000e0: ac96 033f 4dd5 4b3f 1650 103f 1845 183f
000000f0: 978d 5c3f 85d5 033f 063f 713f 8af1 b73e
00000100: e0c4 c13d d069 56bc c0af 5a3b 80c6 c7bc
00000110: 7e3e b23d f6e6 b83d 6023 db3d 54ac 103d
00000120: d8ea 88bd 8078 b3bb 104e 983d 7035 d7bd
00000130: 30fb 38bd 4ca5 fcbd 08a1 2abd 0c15 813d
00000140: 70e6 0b3c a075 873b 9ea2 9dbd 20ab fdbc
00000150: 4870 373d a6fa 843d d07c 983c 9c48 93bd
00000160: b850 c4bd bcb7 c13d 143b 97bd c422 723d
00000170: 9c32 083d 02a9 e1bd 00bc 983a 8e4f bf3d
00000180: f885 6b3d cce4 fb3d d00d 283c 0242 cd3d
00000190: 2cce 553d b8e4 b1bc c062 eb3c 74e4 383d
000001a0: 4843 11bd 0c0f b43d 903f 02bc 50db 3a3c
000001b0: cc20 953d feb6 c03d 8699 97bd a857 b33c
000001c0: 72f7 9e3d 305a b7bd 8023 d1bc c242 923d
000001d0: 6803 903d 70b8 ffbc 5881 66bd 9cc6 dd3d
000001e0: 201a 133c 56d8 f03d 868c f5bd a889 97bd
000001f0: a4f8 a8bd dc15 073d 28b1 a23c 78b3 543d
00000200: 6802 20be ec2a 53be 3580 4a3e 997f b33e
00000210: 529e a4be 2cb0 023e f004 8a3e 1dcb adbd
00000220: d206 863e 0bc0 98be d9fa 7f3e 4f72 4bbe
00000230: abf1 59bd 1815 ae3e eb9b b33e 46ef 273d
00000240: 53fc 53be 1ea9 79be 8c67 b4be a483 023d
00000250: 1af7 8dbe 18de 31be 508e 7a3e 8f43 97be
00000260: e979 af3e 024f c8bd acde 773e a925 043e
00000270: 4e64 92bc 197a 07be 5287 a7be 35cc 17be
00000280: 3309 84be 5694 043e 7af0 8bbe 5908 19bd
00000290: e1fa 353e 7adc 79be c2f2 5e3e 166d 80be
000002a0: a27f 7bbe 19c5 8cbe 4f2f c53c 55a8 3cbd
000002b0: a2fc 86be 9c03 413e 2b13 05be b592 71be
000002c0: b6d2 2b3e 9750 6f3d 8d0e d2bc 0c1b ab3e
000002d0: 3a50 a43e e795 32be be27 3fbe 54b5 8cbe
000002e0: 93ea 243e 5cdf a5be 8ea4 0fbe 4c72 49be
000002f0: b77b 8cbe f0aa 5ebe 2c5d 1d3e 2c45 91be
00000300: b7ec 7d3f e641 2c3f e94c 233f 8243 e63e
00000310: 9fc8 163f f562 fd3e 3c51 423f 36b6 093f
00000320: 3380 ff3e 52e5 183f e256 2e3f 74dc 393f
00000330: 52fe 223f 8538 0d3f c788 4b3f 89a7 1a3f
00000340: 2619 383f 4fd9 4f3f 8a37 213f 7e0b a33c
00000350: 652c 343f 9a84 203f 0c5c 9c3e 3f4b 0e3f
00000360: 3378 2d3f fe86 113f aee5 1d3f da74 353f
00000370: a246 083f 66fc 1f3f a767 3c3f 50e5 be3e
00000380: e313 123f 057e 143f 6707 fb3e a91e 0b3f
00000390: b3a7 313f 9785 253f 4dcf 383f 297f 563f
000003a0: 7d82 c63e a9c6 563f 035c 163f 83f1 053f
000003b0: bea0 323f 53ae fb3e 2789 2b3f 3726 0b3f
000003c0: e5b8 573f c530 0d3f eac6 153f 37a5 033f
000003d0: ae0e 2f3f 07fc 1c3f 9642 1b3f b2eb 0d3f
000003e0: 2832 183f 9b51 2a3f d525 f53e f9e5 333f
000003f0: 9753 6f3f d64b dd3e 6727 4a3f bc22 0e3f

fc.weight f4 [1, 64]
0.80973095 0.6407205 -0.5781858 -0.39589033 0.42556334 -0.6415181 -0.63260853 0.6541276
-0.42012057 0.432706 -0.5625573 0.5115712 0.5074063 -0.4340921 -0.5931746 -0.4905995
0.6293342 0.74428785 0.4099031 0.11102218 0.5117275 0.7055552 -0.4855623 0.41225892
-0.46386153 0.68248653 -0.52162915 -0.67458326 0.55454886 0.5247163 0.46960667 0.47287557
0.5571837 -0.7596175 0.4761923 0.62392586 -0.6056027 0.56197494 -0.5733499 0.5793761
0.44447675 0.646652 -0.6067604 0.66788334 0.63776714 -0.49268335 0.6081444 0.44311422
-0.7421247 -0.626457 0.48315376 -0.40699425 -0.44686565 0.56143445 0.54400367 0.5387149
-0.70671743 0.69737285 0.4643749 0.5781713 0.83497673 0.54315495 -0.93619686 0.5302628
00000000: 874a 4f3f 4206 243f fc03 14bf 23b2 cabe
00000010: 70e3 d93e 883a 24bf a2f2 21bf e874 273f
00000020: 0b1a d7be a48b dd3e c103 10bf 55f6 023f
00000030: 61e5 013f 5241 debe 4ada 17bf dc2f fbbe
00000040: 0c1c 213f a689 3e3f d2de d13e 995f e33d
00000050: 9300 033f 449f 343f 9f9b f8be 9a13 d33e
00000060: 427f edbe 70b7 2e3f 7d89 05bf 7db1 2cbf
00000070: eaf6 0d3f cf53 063f 4970 f03e bf1c f23e
00000080: 97a3 0e3f 4b76 42bf 7acf f33e 9bb9 1f3f
00000090: c708 1bbf 97dd 0f3f 0fc7 12bf fe51 143f
000000a0: 7592 e33e fc8a 253f a654 1bbf 67fa 2a3f
000000b0: b544 233f fe40 fcbe 5aaf 1b3f dedf e23e
000000c0: e2fb 3dbf 7c5f 20bf ee5f f73e 8d61 d0be
000000d0: 93cb e4be 2bba 0f3f d343 0b3f 38e9 093f
000000e0: 6feb 34bf 0787 323f 8cc2 ed3e 0903 143f
000000f0: 09c1 553f 340c 0b3f 99aa 6fbf 4ebf 073f

exp_avg f4 [256, 5]
1.4300447e-06 -1.4300447e-06 8.597494e-07 -8.791624e-09 -5.038358e-07 3.1558154e-06 -3.1558154e-06 2.071629e-06
-2.0571271e-07 -9.366476e-07 2.255205e-06 -2.255205e-06 1.4097479e-06 -4.1590376e-08 -7.684745e-07 -1.7334319e-06
1.7334319e-06 -2.2562933e-06 -1.9369273e-07 8.028207e-07 1.580673e-07 -1.580673e-07 -8.900624e-07 -2.50409e-07
1.7883306e-07 3.821684e-06 -3.821684e-06 2.3898276e-06 -3.4424983e-07 -1.0448272e-06 2.2333768e-06 -2.2333768e-06
9.859567e-07 -3.98936e-07 -4.2465624e-07 2.5657125e-06 -2.5657125e-06 1.5544141e-06 -4.549938e-07 -4.9094893e-07
3.0576405e-06 -3.0576405e-06 1.93844e-06 -3.6734647e-07 -7.4950646e-07 2.671036e-06 -2.671036e-06 1.6151472e-06
-3.8333425e-07 -5.960404e-07 5.846315e-06 -5.846315e-06 3.802538e-06 -5.436547e-07 -1.5823164e-06 2.1096976e-06
-2.1096976e-06 1.3211735e-06 -1.6679054e-07 -5.9863976e-07 2.3032626e-06 -2.3032626e-06 1.3669481e-06 -4.1992288e-07
-4.2994037e-07 2.4458025e-06 -2.4458025e-06 1.2806133e-06 -3.1245835e-07 -5.8202824e-07 3.1519237e-06 -3.1519237e-06
1.5672115e-06 -3.0359413e-07 -8.432121e-07 2.0290327e-06 -2.0290327e-06 1.2296647e-06 -4.0857572e-07 -3.4241054e-07
2.362797e-06 -2.362797e-06 1.4944891e-06 -4.8733206e-08 -8.002826e-07 2.0322382e-06 -2.0322382e-06 1.0673693e-06
-4.7695755e-07 -2.7927382e-07 2.288653e-06 -2.288653e-06 1.1613117e-06 -2.7666454e-07 -5.594088e-07 9.0744214e-07
-9.0744214e-07 7.347985e-07 -6.601792e-08 -2.6286654e-07 1.6528105e-06 -1.6528105e-06 5.4094835e-07 -3.1660974e-07
-2.9416822e-07 1.8881672e-06 -1.8881672e-06 1.1847823e-06 7.7413624e-08 -7.4893956e-07 -7.005042e-06 7.005042e-06
-6.755263e-06 -1.5617715e-07 2.6552245e-06 3.2699745e-06 -3.2699745e-06 1.8061895e-06 -3.8326195e-07 -8.105767e-07
1.572957e-06 -1.572957e-06 4.3588477e-07 -2.3121319e-07 -3.4586864e-07 2.2560334e-06 -2.2560334e-06 1.2936143e-06
-4.70407e-07 -3.6556577e-07 2.3051991e-06 -2.3051991e-06 1.3449685e-06 -4.3922057e-07 -4.1248535e-07 2.2286176e-06
-2.2286176e-06 1.2431358e-06 -5.8493725e-07 -2.4806596e-07 2.3351404e-06 -2.3351404e-06 1.5102619e-06 -2.1736744e-07
-6.3180863e-07 2.4742765e-06 -2.4742765e-06 1.5949516e-06 -4.7068525e-08 -8.417651e-07 1.7099118e-06 -1.7099118e-06
4.8216486e-07 -3.5947963e-07 -2.7430443e-07 3.4188722e-06 -3.4188722e-06 2.1367653e-06 -3.8016964e-07 -8.6680353e-07
4.3883742e-06 -4.3883742e-06 2.7717178e-06 -4.794537e-07 -1.1206195e-06 2.4490666e-06 -2.4490666e-06 1.5577565e-06
6.2574394e-08 -9.358412e-07 1.800091e-06 -1.800091e-06 5.2915817e-07 -3.9431205e-07 -2.7384752e-07 2.4859544e-06
-2.4859544e-06 1.5692431e-06 -4.2773033e-07 -4.880161e-07 5.167711e-06 -5.167711e-06 3.33095e-06 -5.4129e-07
-1.3415437e-06 -2.3623929e-07 2.3623929e-07 -1.1681177e-06 -4.2369408e-07 4.8295755e-07 1.8627103e-06 -1.8627103e-06
5.583281e-07 -4.974828e-07 -1.9926328e-07 5.1273287e-06 -5.1273287e-06 3.205915e-06 -6.34641e-07 -1.2393101e-06
-3.7209836e-06 3.7209836e-06 -4.033772e-06 -1.18320095e-07 1.4436605e-06 2.577916e-06 -2.577916e-06 1.4774603e-06
-5.5298193e-07 -4.0318778e-07 1.842519e-06 -1.842519e-06 1.0930095e-06 -2.6144176e-07 -4.1397305e-07 3.1908182e-06
-3.1908182e-06 2.0196428e-06 -2.2849633e-07 -9.2775616e-07 2.851084e-06 -2.851084e-06 1.7821192e-06 -4.1313945e-07
-6.324895e-07 4.210297e-06 -4.210297e-06 2.7084786e-06 -4.3298633e-07 -1.100541e-06 3.892948e-06 -3.892948e-06
2.476181e-06 -5.688331e-07 -8.591714e-07 -1.3508279e-07 1.3508279e-07 -8.8965203e-07 -2.2572932e-07 2.6059874e-07
1.961769e-06 -1.961769e-06 1.0381985e-06 -4.7336488e-07 -2.5742497e-07 2.577084e-06 -2.577084e-06 1.5639843e-06
-5.589635e-07 -3.9725782e-07 1.8943465e-06 -1.8943465e-06 1.130826e-06 -4.9975876e-07 -2.0844034e-07 2.4217443e-06
00000000: f6ef bf35 f6ef bfb5 87c9 6635 f909 17b2
00000010: 553f 07b5 7fc8 5336 7fc8 53b6 5106 0b36
00000020: e1e1 5cb4 ef6d 7bb5 2058 1736 2058 17b6
00000030: 9236 bd35 1aa1 32b3 2a49 4eb5 44a8 e8b5
00000040: 44a8 e835 d36a 17b6 daf9 4fb4 6b81 5735
00000050: 35b9 2934 35b9 29b4 9fec 6eb5 f36f 86b4
00000060: 4205 4034 043c 8036 043c 80b6 ed60 2036
00000070: 56d1 b8b4 fd3b 8cb5 1fe1 1536 1fe1 15b6
00000080: 3755 8435 592d d6b4 4ffc e3b4 9b2e 2c36
00000090: 9b2e 2cb6 43a1 d035 df45 f4b4 c1c9 03b5
000000a0: dd31 4d36 dd31 4db6 2516 0236 b737 c5b4
000000b0: b131 49b5 0d40 3336 0d40 33b6 09c8 d835
000000c0: 0fcd cdb4 96ff 1fb5 772b c436 772b c4b6
000000d0: 1b2f 7f36 abef 11b5 fa5f d4b5 5494 0d36
000000e0: 5494 0db6 2d53 b135 0917 33b4 36b2 20b5
000000f0: c091 1a36 c091 1ab6 fb77 b735 c371 e1b4
00000100: 8ed2 e6b4 9122 2436 9122 24b6 8ae1 ab35
00000110: f3bf a7b4 ad3c 1cb5 a385 5336 a385 53b6
00000120: fa58 d235 a9fd a2b4 1859 62b5 842a 0836
00000130: 842a 08b6 f50a a535 385a dbb4 8cd4 b7b4
00000140: 8b90 1e36 8b90 1eb6 4196 c835 ba4e 51b3
00000150: 00d3 56b5 9661 0836 9661 08b6 8842 8f35
00000160: 4608 00b5 1aef 95b4 c296 1936 c296 19b6
00000170: 5ede 9b35 7c88 94b4 482a 16b5 f396 7335
00000180: f396 73b5 f83e 4535 bcc5 8db3 1a20 8db4
00000190: 23d6 dd35 23d6 ddb5 b035 1135 83fa a9b4
000001a0: 2cee 9db4 ee6c fd35 ee6c fdb5 cf04 9f35
000001b0: 973e a633 bc0a 49b5 da0c ebb6 da0c eb36
000001c0: 44ab e2b6 a6b1 27b4 6930 3236 bc71 5b36
000001d0: bc71 5bb6 336c f235 1fc3 cdb4 6896 59b5
000001e0: 641e d335 641e d3b5 8c03 ea34 6643 78b4
000001f0: d3af b9b4 5c66 1736 5c66 17b6 40a0 ad35
00000200: 3f8c fcb4 fa42 c4b4 05b3 1a36 05b3 1ab6
00000210: c484 b435 04ce ebb4 8e73 ddb4 5c8f 1536
00000220: 5c8f 15b6 d2d9 a635 9504 1db5 ed2d 85b4
00000230: 68b5 1c36 68b5 1cb6 34b4 ca35 8265 69b4
00000240: 8f99 29b5 bf0b 2636 bf0b 26b6 1f12 d635
00000250: 6428 4ab3 a8f5 61b5 1f80 e535 1f80 e5b5
00000260: 1e6e 0135 81fe c0b4 1d44 93b4 c76f 6536
00000270: c76f 65b6 5965 0f36 1e1a ccb4 49ae 68b5
00000280: d93f 9336 d93f 93b6 c001 3a36 cfb3 00b5
00000290: 3168 96b5 a55a 2436 a55a 24b6 1b14 d135
000002a0: a360 8633 8436 7bb5 a89a f135 a89a f1b5
000002b0: 790b 0e35 d6b1 d3b4 5105 93b4 5fd4 2636
000002c0: 5fd4 26b6 c89e d235 cfa2 e5b4 3600 03b5
000002d0: 4d66 ad36 4d66 adb6 4989 5f36 2a4d 11b5
000002e0: 170f b4b5 f6a8 7db4 f6a8 7d34 38c8 9cb5
000002f0: 1278 e3b4 97a4 0135 3d02 fa35 3d02 fab5
00000300: 04e0 1535 c28a 05b5 13f5 55b4 6b0b ac36
00000310: 6b0b acb6 3325 5736 335c 2ab5 5f56 a6b5
00000320: 03b6 79b6 03b6 7936 d659 87b6 2917 feb3
00000330: ccc3 c135 4200 2d36 4200 2db6 264d c635
00000340: a170 14b5 b575 d8b4 794c f735 794c f7b5
00000350: 85b3 9235 485c 8cb4 0640 deb4 d721 5636
00000360: d721 56b6 3389 0736 9858 75b4 eb0a 79b5
00000370: 4055 3f36 4055 3fb6 2631 ef35 74cd ddb4
00000380: 59c8 29b5 2d46 8d36 2d46 8db6 4fc3 3536
00000390: 3075 e8b4 4db6 93b5 2ba0 8236 2ba0 82b6
000003a0: 772c 2636 eab1 18b5 cfa1 66b5 460b 11b4
000003b0: 460b 1134 6cd0 6eb5 0160 72b4 6be8 8b34
000003c0: efa6 0336 efa6 03b6 3b58 8b35 c622 feb4
000003d0: 3834 8ab4 f7f1 2c36 f7f1 2cb6 17ea d135
000003e0: ae0b 16b5 b346 d5b4 4041 fe35 4041 feb5
000003f0: e3c6 9735 2927 06b5 a5cf 5fb4 4085 2236

exp_avg_sq f4 [256, 5]
4.4414297e-10 4.4414297e-10 5.1013027e-10 1.7623993e-10 1.7567407e-10 1.6788793e-09 1.6788793e-09 1.1239145e-09
1.1915032e-09 1.0453239e-09 1.7414508e-09 1.7414508e-09 1.41641e-09 1.0696807e-09 9.46864e-10 3.833462e-09
3.833462e-09 3.6929102e-09 2.7735117e-10 5.1357796e-10 1.352971e-09 1.352971e-09 1.3869927e-09 1.0665208e-09
8.151282e-10 1.9687327e-09 1.9687327e-09 1.3988312e-09 2.4175408e-09 1.2145557e-09 1.1584749e-09 1.1584749e-09
4.207334e-09 1.8253355e-09 2.0242958e-09 1.220836e-09 1.220836e-09 5.495156e-09 5.96357e-10 4.971721e-10
1.267839e-09 1.267839e-09 1.8713198e-09 1.8408459e-09 1.6045465e-09 8.284027e-10 8.284027e-10 4.081035e-10
8.609609e-10 6.290502e-10 4.674239e-09 4.674239e-09 1.4186172e-09 1.8943551e-09 2.1689277e-09 1.5441928e-09
1.5441928e-09 7.7325063e-10 4.0617318e-10 4.8106874e-10 3.1894993e-09 3.1894993e-09 2.6362073e-09 1.952495e-10
4.8507126e-10 1.8798167e-09 1.8798167e-09 2.085581e-09 5.633535e-10 5.9946825e-10 1.2333958e-09 1.2333958e-09
9.797476e-10 1.09772476e-10 2.1753625e-10 1.4406721e-09 1.4406721e-09 1.4124318e-09 4.0446627e-10 3.2848335e-10
1.1355376e-09 1.1355376e-09 1.2264405e-09 9.524417e-10 7.429005e-10 8.726292e-10 8.726292e-10 4.468714e-10
4.636991e-10 3.3643785e-10 1.4249457e-09 1.4249457e-09 2.2553497e-09 5.142675e-10 5.2121363e-10 1.3342723e-11
1.3342723e-11 5.8994594e-11 2.2454524e-11 1.7507185e-11 1.3095214e-09 1.3095214e-09 2.6812605e-09 1.71483e-09
2.1380997e-09 1.289684e-09 1.289684e-09 1.3329124e-09 3.3482425e-10 4.5271484e-10 8.7585683e-10 8.7585683e-10
5.814685e-10 9.783141e-11 1.9629663e-10 1.0691898e-09 1.0691898e-09 7.53549e-10 1.0812481e-09 7.0083106e-10
4.0101327e-09 4.0101327e-09 4.2743964e-09 3.0923633e-10 5.815077e-10 1.1788475e-09 1.1788475e-09 1.1693925e-09
3.115498e-10 3.30281e-10 3.4107726e-09 3.4107726e-09 1.9878583e-09 2.2885571e-09 1.6188254e-09 1.2239982e-09
1.2239982e-09 8.477667e-10 3.172726e-10 2.9095182e-10 3.1831393e-09 3.1831393e-09 1.3690586e-08 6.7349876e-10
1.2032324e-09 1.8974737e-09 1.8974737e-09 2.761101e-09 1.3232818e-09 1.2269771e-09 8.823453e-10 8.823453e-10
1.0532017e-09 7.8028684e-10 4.8866977e-10 4.694987e-09 4.694987e-09 3.0204832e-09 1.4604774e-09 1.222525e-09
2.9096627e-09 2.9096627e-09 8.000517e-10 1.5195765e-09 1.5968552e-09 1.1445953e-09 1.1445953e-09 2.316689e-09
1.1691068e-09 9.279415e-10 1.6737323e-09 1.6737323e-09 3.4029761e-09 1.5086289e-09 1.3652964e-09 2.1590323e-09
2.1590323e-09 3.729955e-09 5.1724547e-10 4.047331e-10 5.99808e-09 5.99808e-09 2.2862527e-09 1.4019562e-09
1.0986624e-09 5.3078986e-09 5.3078986e-09 4.2571795e-09 2.3682056e-10 9.063912e-10 1.2631347e-09 1.2631347e-09
3.1679146e-09 5.9012173e-10 3.9696169e-10 4.029685e-09 4.029685e-09 2.4795057e-09 9.810269e-10 8.9830354e-10
1.1599509e-09 1.1599509e-09 2.395304e-09 3.0202927e-09 3.4697443e-09 9.486495e-10 9.486495e-10 4.104354e-10
5.3351096e-10 3.7461664e-10 1.5127047e-09 1.5127047e-09 1.1675655e-09 3.4402126e-10 4.9713816e-10 4.2331503e-09
4.2331503e-09 1.5510628e-09 8.316312e-10 1.7730744e-09 2.0135549e-09 2.0135549e-09 1.3089206e-09 2.469013e-10
3.2280276e-10 1.5319127e-09 1.5319127e-09 2.147001e-09 1.0538032e-09 7.1037354e-10 1.7077525e-09 1.7077525e-09
4.0737356e-09 8.8156726e-10 8.9800817e-10 2.328326e-09 2.328326e-09 1.7034163e-09 1.1079838e-09 1.0811213e-09
5.249701e-10 5.249701e-10 2.3829478e-09 2.0645324e-10 1.8074392e-10 1.893588e-09 1.893588e-09 2.1266349e-09
8.6804547e-10 7.2688827e-10 1.9700392e-09 1.9700392e-09 1.9901139e-09 2.2703804e-10 2.314857e-10 2.763827e-09
00000000: 912b f42f 912b f42f 3a39 0c30 21c7 412f
00000010: db27 412f 50be e630 50be e630 3a78 9a30
00000020: 4bc2 a330 11ab 8f30 da57 ef30 da57 ef30
00000030: 7fab c230 0b04 9330 d122 8230 7db7 8331
00000040: 7db7 8331 5dc6 7d31 b579 982f d62b 0d30
00000050: 6ff3 b930 6ff3 b930 78a0 be30 dd94 9230
00000060: 8c0f 6030 504a 0731 504a 0731 ff40 c030
00000070: d421 2631 61ed a630 3638 9f30 3638 9f30
00000080: 1a90 9031 49df fa30 ca1b 0b31 59ca a730
00000090: 59ca a730 e7cf bc31 e5ec 2330 60a9 0830
000000a0: 1e40 ae30 1e40 ae30 9b98 0031 0201 fd30
000000b0: f686 dc30 a8b5 6330 a8b5 6330 765b e02f
000000c0: bda8 6c30 79e9 2c30 0b9b a031 0b9b a031
000000d0: 28f9 c230 d92d 0231 2e0c 1531 743b d430
000000e0: 743b d430 ad8c 5430 cb4b df2f 343c 0430
000000f0: 442e 5b31 442e 5b31 a628 3531 d9ad 562f
00000100: db55 0530 162e 0131 162e 0131 ee51 0f31
00000110: 7ada 1a30 d4c7 2430 4284 a930 4284 a930
00000120: cea7 8630 6964 f12e 032f 6f2f 2501 c630
00000130: 2501 c630 871f c230 915b de2f ec95 b42f
00000140: 2d11 9c30 2d11 9c30 8a8f a830 10e7 8230
00000150: fa34 4c30 d2dd 6f30 d2dd 6f30 8fab f52f
00000160: d9eb fe2f 6bf5 b82f d2d7 c330 d2d7 c330
00000170: 88fc 1a31 5c5c 0d30 2645 0f30 48ba 6a2d
00000180: 48ba 6a2d 01bb 812e 1883 c52d adfe 992d
00000190: b0fa b330 b0fa b330 3c41 3831 37af eb30
000001a0: d9ed 1231 b940 b130 b940 b130 b031 b730
000001b0: 5312 b82f f3e1 f82f f2c0 7030 f2c0 7030
000001c0: 35d5 1f30 3022 d72e 97d4 572f c6f2 9230
000001d0: c6f2 9230 4c22 4f30 099b 9430 9aa4 4030
000001e0: 80c9 8931 80c9 8931 fddd 9231 2501 aa2f
000001f0: f7d7 1f30 0205 a230 0205 a230 57b8 a030
00000200: bd46 ab2f eb92 b52f f262 6a31 f262 6a31
00000210: c69a 0831 b944 1d31 5b7d de30 9c39 a830
00000220: 9c39 a830 4708 6930 266c ae2f d4f3 9f2f
00000230: 61be 5a31 61be 5a31 d633 6b32 4321 3930
00000240: fa5e a530 b664 0231 b664 0231 cdbd 3d31
00000250: d7de b530 6ba2 a830 8889 7230 8889 7230
00000260: 3ec0 9030 ce7b 5630 1453 0630 8b51 a131
00000270: 8b51 a131 e790 4f31 fbb9 c830 c605 a830
00000280: 54f3 4731 54f3 4731 a2ea 5b30 58d9 d030
00000290: 5978 db30 de4f 9d30 de4f 9d30 a033 1f31
000002a0: 4aae a030 1412 7f30 3809 e630 3809 e630
000002b0: cad9 6931 2958 cf30 19a5 bb30 195e 1431
000002c0: 195e 1431 0829 8031 ea2d 0e30 1f81 de2f
000002d0: ab17 ce31 ab17 ce31 2f1c 1d31 f3ae c030
000002e0: bfff 9630 c560 b631 c560 b631 8c46 9231
000002f0: 8831 822f 9c25 7930 9a9a ad30 9a9a ad30
00000300: 8bb2 5931 2036 2230 643b da2f 7c75 8a31
00000310: 7c75 8a31 ed63 2a31 d1d4 8630 7eec 7630
00000320: 256c 9f30 256c 9f30 a29a 2431 8d8d 4f31
00000330: 6370 6e31 a361 8230 a361 8230 a6a3 e12f
00000340: 7fa6 1230 9bf2 cd2f 91e7 cf30 91e7 cf30
00000350: 0f78 a030 b020 bd2f fda6 0830 2f73 9131
00000360: 2f73 9131 2c2d d530 d898 6430 82b0 f330
00000370: d55e 0a31 d55e 0a31 8de5 b330 45bc 872f
00000380: 7376 b12f 638b d230 638b d230 718a 1331
00000390: 67d5 9030 1844 4330 33b6 ea30 33b6 ea30
000003a0: f5f8 8b31 c852 7230 b5d7 7630 5800 2031
000003b0: 5800 2031 a21d ea30 b747 9830 9396 9430
000003c0: 7d4d 1030 7d4d 1030 43c1 2331 6cff 622f
000003d0: e4ba 462f 5a20 0231 5a20 0231 2824 1231
000003e0: 459b 6e30 37ce 4730 4c61 0731 4c61 0731
000003f0: 74c2 0831 87a1 792f 6f85 7e2f c2ed 3d31

exp_avg f4 [256, 64]
0.0 0.0 0.0 0.0 0.0 0.0 0.0 0.0
0.0 0.0 0.0 0.0 0.0 0.0 0.0 0.0
0.0 0.0 0.0 0.0 0.0 0.0 0.0 0.0
0.0 0.0 0.0 0.0 0.0 0.0 0.0 0.0
0.0 0.0 0.0 0.0 0.0 0.0 0.0 0.0
0.0 0.0 0.0 0.0 0.0 0.0 0.0 0.0
0.0 0.0 0.0 0.0 0.0 0.0 0.0 0.0
0.0 0.0 0.0 0.0 0.0 0.0 0.0 0.0
0.0 0.0 0.0 0.0 0.0 0.0 0.0 0.0
0.0 0.0 0.0 0.0 0.0 0.0 0.0 0.0
0.0 0.0 0.0 0.0 0.0 0.0 0.0 0.0
0.0 0.0 0.0 0.0 0.0 0.0 0.0 0.0
0.0 0.0 0.0 0.0 0.0 0.0 0.0 0.0
0.0 0.0 0.0 0.0 0.0 0.0 0.0 0.0
0.0 0.0 0.0 0.0 0.0 0.0 0.0 0.0
0.0 0.0 0.0 0.0 0.0 0.0 0.0 0.0
0.0 0.0 0.0 0.0 0.0 0.0 0.0 0.0
0.0 0.0 0.0 0.0 0.0 0.0 0.0 0.0
0.0 0.0 0.0 0.0 0.0 0.0 0.0 0.0
0.0 0.0 0.0 0.0 0.0 0.0 0.0 0.0
0.0 0.0 0.0 0.0 0.0 0.0 0.0 0.0
0.0 0.0 0.0 0.0 0.0 0.0 0.0 0.0
0.0 0.0 0.0 0.0 0.0 0.0 0.0 0.0
0.0 0.0 0.0 0.0 0.0 0.0 0.0 0.0
0.0 0.0 0.0 0.0 0.0 0.0 0.0 0.0
0.0 0.0 0.0 0.0 0.0 0.0 0.0 0.0
0.0 0.0 0.0 0.0 0.0 0.0 0.0 0.0
0.0 0.0 0.0 0.0 0.0 0.0 0.0 0.0
0.0 0.0 0.0 0.0 0.0 0.0 0.0 0.0
0.0 0.0 0.0 0.0 0.0 0.0 0.0 0.0
0.0 0.0 0.0 0.0 0.0 0.0 0.0 0.0
0.0 0.0 0.0 0.0 0.0 0.0 0.0 0.0
00000000: 0000 0000 0000 0000 0000 0000 0000 0000
00000010: 0000 0000 0000 0000 0000 0000 0000 0000
00000020: 0000 0000 0000 0000 0000 0000 0000 0000
00000030: 0000 0000 0000 0000 0000 0000 0000 0000
00000040: 0000 0000 0000 0000 0000 0000 0000 0000
00000050: 0000 0000 0000 0000 0000 0000 0000 0000
00000060: 0000 0000 0000 0000 0000 0000 0000 0000
00000070: 0000 0000 0000 0000 0000 0000 0000 0000
00000080: 0000 0000 0000 0000 0000 0000 0000 0000
00000090: 0000 0000 0000 0000 0000 0000 0000 0000
000000a0: 0000 0000 0000 0000 0000 0000 0000 0000
000000b0: 0000 0000 0000 0000 0000 0000 0000 0000
000000c0: 0000 0000 0000 0000 0000 0000 0000 0000
000000d0: 0000 0000 0000 0000 0000 0000 0000 0000
000000e0: 0000 0000 0000 0000 0000 0000 0000 0000
000000f0: 0000 0000 0000 0000 0000 0000 0000 0000
00000100: 0000 0000 0000 0000 0000 0000 0000 0000
00000110: 0000 0000 0000 0000 0000 0000 0000 0000
00000120: 0000 0000 0000 0000 0000 0000 0000 0000
00000130: 0000 0000 0000 0000 0000 0000 0000 0000
00000140: 0000 0000 0000 0000 0000 0000 0000 0000
00000150: 0000 0000 0000 0000 0000 0000 0000 0000
00000160: 0000 0000 0000 0000 0000 0000 0000 0000
00000170: 0000 0000 0000 0000 0000 0000 0000 0000
00000180: 0000 0000 0000 0000 0000 0000 0000 0000
00000190: 0000 0000 0000 0000 0000 0000 0000 0000
000001a0: 0000 0000 0000 0000 0000 0000 0000 0000
000001b0: 0000 0000 0000 0000 0000 0000 0000 0000
000001c0: 0000 0000 0000 0000 0000 0000 0000 0000
000001d0: 0000 0000 0000 0000 0000 0000 0000 0000
000001e0: 0000 0000 0000 0000 0000 0000 0000 0000
000001f0: 0000 0000 0000 0000 0000 0000 0000 0000
00000200: 0000 0000 0000 0000 0000 0000 0000 0000
00000210: 0000 0000 0000 0000 0000 0000 0000 0000
00000220: 0000 0000 0000 0000 0000 0000 0000 0000
00000230: 0000 0000 0000 0000 0000 0000 0000 0000
00000240: 0000 0000 0000 0000 0000 0000 0000 0000
00000250: 0000 0000 0000 0000 0000 0000 0000 0000
00000260: 0000 0000 0000 0000 0000 0000 0000 0000
00000270: 0000 0000 0000 0000 0000 0000 0000 0000
00000280: 0000 0000 0000 0000 0000 0000 0000 0000
00000290: 0000 0000 0000 0000 0000 0000 0000 0000
000002a0: 0000 0000 0000 0000 0000 0000 0000 0000
000002b0: 0000 0000 0000 0000 0000 0000 0000 0000
000002c0: 0000 0000 0000 0000 0000 0000 0000 0000
000002d0: 0000 0000 0000 0000 0000 0000 0000 0000
000002e0: 0000 0000 0000 0000 0000 0000 0000 0000
000002f0: 0000 0000 0000 0000 0000 0000 0000 0000
00000300: 0000 0000 0000 0000 0000 0000 0000 0000
00000310: 0000 0000 0000 0000 0000 0000 0000 0000
00000320: 0000 0000 0000 0000 0000 0000 0000 0000
00000330: 0000 0000 0000 0000 0000 0000 0000 0000
00000340: 0000 0000 0000 0000 0000 0000 0000 0000
00000350: 0000 0000 0000 0000 0000 0000 0000 0000
00000360: 0000 0000 0000 0000 0000 0000 0000 0000
00000370: 0000 0000 0000 0000 0000 0000 0000 0000
00000380: 0000 0000 0000 0000 0000 0000 0000 0000
00000390: 0000 0000 0000 0000 0000 0000 0000 0000
000003a0: 0000 0000 0000 0000 0000 0000 0000 0000
000003b0: 0000 0000 0000 0000 0000 0000 0000 0000
000003c0: 0000 0000 0000 0000 0000 0000 0000 0000
000003d0: 0000 0000 0000 0000 0000 0000 0000 0000
000003e0: 0000 0000 0000 0000 0000 0000 0000 0000
000003f0: 0000 0000 0000 0000 0000 0000 0000 0000

exp_avg_sq f4 [256, 64]
0.0 0.0 0.0 0.0 0.0 0.0 0.0 0.0
0.0 0.0 0.0 0.0 0.0 0.0 0.0 0.0
0.0 0.0 0.0 0.0 0.0 0.0 0.0 0.0
0.0 0.0 0.0 0.0 0.0 0.0 0.0 0.0
0.0 0.0 0.0 0.0 0.0 0.0 0.0 0.0
0.0 0.0 0.0 0.0 0.0 0.0 0.0 0.0
0.0 0.0 0.0 0.0 0.0 0.0 0.0 0.0
0.0 0.0 0.0 0.0 0.0 0.0 0.0 0.0
0.0 0.0 0.0 0.0 0.0 0.0 0.0 0.0
0.0 0.0 0.0 0.0 0.0 0.0 0.0 0.0
0.0 0.0 0.0 0.0 0.0 0.0 0.0 0.0
0.0 0.0 0.0 0.0 0.0 0.0 0.0 0.0
0.0 0.0 0.0 0.0 0.0 0.0 0.0 0.0
0.0 0.0 0.0 0.0 0.0 0.0 0.0 0.0
0.0 0.0 0.0 0.0 0.0 0.0 0.0 0.0
0.0 0.0 0.0 0.0 0.0 0.0 0.0 0.0
0.0 0.0 0.0 0.0 0.0 0.0 0.0 0.0
0.0 0.0 0.0 0.0 0.0 0.0 0.0 0.0
0.0 0.0 0.0 0.0 0.0 0.0 0.0 0.0
0.0 0.0 0.0 0.0 0.0 0.0 0.0 0.0
0.0 0.0 0.0 0.0 0.0 0.0 0.0 0.0
0.0 0.0 0.0 0.0 0.0 0.0 0.0 0.0
0.0 0.0 0.0 0.0 0.0 0.0 0.0 0.0
0.0 0.0 0.0 0.0 0.0 0.0 0.0 0.0
0.0 0.0 0.0 0.0 0.0 0.0 0.0 0.0
0.0 0.0 0.0 0.0 0.0 0.0 0.0 0.0
0.0 0.0 0.0 0.0 0.0 0.0 0.0 0.0
0.0 0.0 0.0 0.0 0.0 0.0 0.0 0.0
0.0 0.0 0.0 0.0 0.0 0.0 0.0 0.0
0.0 0.0 0.0 0.0 0.0 0.0 0.0 0.0
0.0 0.0 0.0 0.0 0.0 0.0 0.0 0.0
0.0 0.0 0.0 0.0 0.0 0.0 0.0 0.0
00000000: 0000 0000 0000 0000 0000 0000 0000 0000
00000010: 0000 0000 0000 0000 0000 0000 0000 0000
00000020: 0000 0000 0000 0000 0000 0000 0000 0000
00000030: 0000 0000 0000 0000 0000 0000 0000 0000
00000040: 0000 0000 0000 0000 0000 0000 0000 0000
00000050: 0000 0000 0000 0000 0000 0000 0000 0000
00000060: 0000 0000 0000 0000 0000 0000 0000 0000
00000070: 0000 0000 0000 0000 0000 0000 0000 0000
00000080: 0000 0000 0000 0000 0000 0000 0000 0000
00000090: 0000 0000 0000 0000 0000 0000 0000 0000
000000a0: 0000 0000 0000 0000 0000 0000 0000 0000
000000b0: 0000 0000 0000 0000 0000 0000 0000 0000
000000c0: 0000 0000 0000 0000 0000 0000 0000 0000
000000d0: 0000 0000 0000 0000 0000 0000 0000 0000
000000e0: 0000 0000 0000 0000 0000 0000 0000 0000
000000f0: 0000 0000 0000 0000 0000 0000 0000 0000
00000100: 0000 0000 0000 0000 0000 0000 0000 0000
00000110: 0000 0000 0000 0000 0000 0000 0000 0000
00000120: 0000 0000 0000 0000 0000 0000 0000 0000
00000130: 0000 0000 0000 0000 0000 0000 0000 0000
00000140: 0000 0000 0000 0000 0000 0000 0000 0000
00000150: 0000 0000 0000 0000 0000 0000 0000 0000
00000160: 0000 0000 0000 0000 0000 0000 0000 0000
00000170: 0000 0000 0000 0000 0000 0000 0000 0000
00000180: 0000 0000 0000 0000 0000 0000 0000 0000
00000190: 0000 0000 0000 0000 0000 0000 0000 0000
000001a0: 0000 0000 0000 0000 0000 0000 0000 0000
000001b0: 0000 0000 0000 0000 0000 0000 0000 0000
000001c0: 0000 0000 0000 0000 0000 0000 0000 0000
000001d0: 0000 0000 0000 0000 0000 0000 0000 0000
000001e0: 0000 0000 0000 0000 0000 0000 0000 0000
000001f0: 0000 0000 0000 0000 0000 0000 0000 0000
00000200: 0000 0000 0000 0000 0000 0000 0000 0000
00000210: 0000 0000 0000 0000 0000 0000 0000 0000
00000220: 0000 0000 0000 0000 0000 0000 0000 0000
00000230: 0000 0000 0000 0000 0000 0000 0000 0000
00000240: 0000 0000 0000 0000 0000 0000 0000 0000
00000250: 0000 0000 0000 0000 0000 0000 0000 0000
00000260: 0000 0000 0000 0000 0000 0000 0000 0000
00000270: 0000 0000 0000 0000 0000 0000 0000 0000
00000280: 0000 0000 0000 0000 0000 0000 0000 0000
00000290: 0000 0000 0000 0000 0000 0000 0000 0000
000002a0: 0000 0000 0000 0000 0000 0000 0000 0000
000002b0: 0000 0000 0000 0000 0000 0000 0000 0000
000002c0: 0000 0000 0000 0000 0000 0000 0000 0000
000002d0: 0000 0000 0000 0000 0000 0000 0000 0000
000002e0: 0000 0000 0000 0000 0000 0000 0000 0000
000002f0: 0000 0000 0000 0000 0000 0000 0000 0000
00000300: 0000 0000 0000 0000 0000 0000 0000 0000
00000310: 0000 0000 0000 0000 0000 0000 0000 0000
00000320: 0000 0000 0000 0000 0000 0000 0000 0000
00000330: 0000 0000 0000 0000 0000 0000 0000 0000
00000340: 0000 0000 0000 0000 0000 0000 0000 0000
00000350: 0000 0000 0000 0000 0000 0000 0000 0000
00000360: 0000 0000 0000 0000 0000 0000 0000 0000
00000370: 0000 0000 0000 0000 0000 0000 0000 0000
00000380: 0000 0000 0000 0000 0000 0000 0000 0000
00000390: 0000 0000 0000 0000 0000 0000 0000 0000
000003a0: 0000 0000 0000 0000 0000 0000 0000 0000
000003b0: 0000 0000 0000 0000 0000 0000 0000 0000
000003c0: 0000 0000 0000 0000 0000 0000 0000 0000
000003d0: 0000 0000 0000 0000 0000 0000 0000 0000
000003e0: 0000 0000 0000 0000 0000 0000 0000 0000
000003f0: 0000 0000 0000 0000 0000 0000 0000 0000
