lightning_logs/version_6/checkpoints/epoch=4-step=130.ckpt (torch, 227860 bytes, 15 tensors)

lstm.weight_ih_l0 f4 [256, 5]
-0.20825316 0.030141309 -0.20840333 -0.025123436 0.24240273 0.1727376 -0.12454526 -0.08381894
-0.17033884 0.15879071 0.109530896 -0.080406666 -0.0573329 -0.09817225 -0.06280167 0.022042582
-0.24215522 -0.03314326 0.15721506 -0.07061998 0.16150357 -0.21219596 0.17877486 0.19414823
-0.0571942 -0.15722741 0.23162296 -0.028931314 0.04509706 0.044880673 -0.17557374 -0.006291652
-0.17085224 -0.045254014 -0.01966159 0.20260775 -0.16605346 0.020754065 0.02449926 -0.21992223
0.15452038 -0.20436354 -0.07871191 -0.00506871 -0.16570805 0.2038067 -0.0045755683 0.024547225
-0.005030451 -0.2266272 0.041752204 0.182114 0.039464332 0.0061514513 -0.0985142 -0.067475274
0.17225596 -0.028652957 0.1614694 -0.082737915 -0.13144584 0.06925393 -0.09842413 -0.030230628
0.1460514 -0.1373794 0.08382265 0.12275354 -0.10099866 0.14576654 0.23629096 -0.2183262
0.03958812 -0.036491405 -0.12625048 0.114964075 -0.057136834 0.016271254 -0.0156577 -0.17394438
0.14379458 -0.19921082 -0.037477802 0.14725359 -0.17326169 -0.2248902 0.18178456 -0.0039675217
-0.045090858 0.17195837 -0.21526194 0.14992203 -0.18774821 -0.15900515 -0.030996593 -0.17124486
0.108318835 -0.08908876 0.045554165 0.030582326 -0.13288519 0.08396387 -0.17387787 -0.24297027
0.28564748 0.23895569 -0.19756469 0.078652546 0.05988414 -0.124484465 0.032041766 -0.049508214
-0.12918982 0.15772274 -0.009143469 -0.0041386536 0.11879911 0.0015817865 0.1807423 -0.2145534
-0.08425857 -0.026309473 -0.13147888 0.11794747 -0.1843101 0.18455766 -0.23838247 -0.0015556454
0.16837846 -0.060278267 -0.013180455 0.10111724 0.04020647 0.18885058 -0.018892702 -0.07737775
0.17137462 -0.17805864 0.044052508 0.048354868 -0.014090238 0.10428607 0.039075322 0.042897616
0.10299855 -0.20736434 0.086551405 0.085679084 -0.21297075 0.24554896 -0.09914949 0.16372117
-0.089906015 -0.045334615 -0.08644827 -0.006759035 0.06067653 -0.19394697 0.00051009463 0.22075905
-0.16963027 0.043450445 -0.25895563 -0.07836217 0.23368281 -0.12006564 -0.058052704 0.013693023
0.045848556 0.09395725 0.029472914 -0.04684987 0.098962694 0.13348491 -0.0091582555 -0.17639047
0.13102579 0.06630699 0.11052186 0.10772092 -0.17897002 0.13860396 -0.20889808 0.18365908
-0.12294635 0.08950396 0.054179613 -0.085096546 -0.08222376 0.17093623 0.121023566 -0.14221075
0.007781501 0.13442683 -0.0706407 -0.1309522 -0.0067813587 -0.017693311 -0.06505816 0.16514668
0.25311744 -0.27732542 0.09147239 0.072860956 -0.121279635 -0.08162552 0.02559463 -0.17442688
0.04697347 0.1993149 -0.047109008 0.15766414 -0.055557158 0.1556751 -0.08884632 0.18804039
-0.13482451 0.054479383 0.022307288 -0.029303608 -0.09562875 0.18264574 0.0093287835 0.06826492
-0.08154852 -0.08548195 0.088969775 -0.14023945 -0.10863234 0.25633994 -0.0937246 -0.080536954
-0.009377886 -0.009702634 -0.11959773 -0.21918415 0.021652058 -0.23119201 0.084183544 -0.11098594
0.017454738 0.0940836 -0.11202005 0.045010347 -0.12776244 -0.15523349 0.24028502 0.065726876
-0.048605774 -0.07642382 -0.10668643 0.029749481 -0.00072873605 -0.0012846382 -0.050886847 -0.013685542
00000000: 5140 55be e8ea f63c af67 55be aacf cdbc
00000010: 6c38 783e 20e2 303e 9611 ffbd 44a9 abbd
00000020: 4e6d 2ebe 089a 223e bc51 e03d 40ac a4bd
00000030: e7d5 6abd 880e c9bd 299e 80bd a592 b43c
00000040: 8af7 77be 3ac1 07bd fcfc 203e 35a1 90bd
00000050: 3161 253e e649 59be c210 373e cbce 463e
00000060: 7744 6abd 3900 21be 922e 6d3e 5d01 edbc
00000070: b2b7 383d ccd4 373d 9ac9 33be 342a cebb
00000080: e4f3 2ebe 465c 39bd 5811 a1bc 6878 4f3e
00000090: eb09 2abe 6e04 aa3c acb2 c83c 4b33 61be
000000a0: 973a 1e3e ad44 51be b633 a1bd 6c17 a6bb
000000b0: 5faf 29be b4b2 503e a6ee 95bb 4317 c93c
000000c0: 7bd6 a4bb f610 68be 5c04 2b3d 187c 3a3e
000000d0: 5aa5 213d 1d92 c93b d0c1 c9bd 7a30 8abd
000000e0: de63 303e 9bb9 eabc 3c58 253e 7f72 a9bd
000000f0: bd99 06be 01d5 8d3d 9792 c9bd 39a6 f7bc
00000100: 808e 153e 2fad 0cbe 36ab ab3d 3566 fb3d
00000110: 63d8 cebd d343 153e 42f6 713e e790 5fbe
00000120: 2727 223d 0378 15bd ce47 01be 4972 eb3d
00000130: 5008 6abd 4b4b 853c 9444 80bc 7a1e 32be
00000140: e33e 133e ecfd 4bbe 5382 19bd a5c9 163e
00000150: 836b 31be 9e49 66be bb25 3a3e fc01 82bb
00000160: 31b1 38bd db15 303e a06d 5cbe 2985 193e
00000170: 1141 40be 3fd2 22be 91ec fdbc d05a 2fbe
00000180: 44d6 dd3d 2b74 b6bd 0197 3a3d c987 fa3c
00000190: 0e13 08be 40f5 ab3d 0a0d 32be 33cd 78be
000001a0: 6340 923e cdb0 743e 664e 4abe 9614 a13d
000001b0: 1249 753d b6f1 febd 3a3e 033d 20c9 4abd
000001c0: 564a 04be 1282 213e 7dce 15bc 8b9d 87bb
000001d0: f34c f33d f353 cf3a 8214 393e e3b3 5bbe
000001e0: c28f acbd f786 d7bc 66a2 06be 718e f13d
000001f0: c9bb 3cbe affc 3c3e 891a 74be cce6 cbba
00000200: 676b 2c3e 58e6 76bd d6f2 57bc 8e16 cf3d
00000210: 8aaf 243d 0c62 413e dec4 9abc 3a78 9ebd
00000220: d47c 2f3e 0155 36be 6770 343d c10f 463d
00000230: beda 66bc ef93 d53d 720d 203d 69b5 2f3d
00000240: e7f0 d23d 5157 54be dd41 b13d 8478 af3d
00000250: 0115 5abe 3071 7b3e e30e cbbd 86a6 273e
00000260: a520 b8bd cab0 39bd ca0b b1bd e57a ddbb
00000270: f487 783d 099a 46be dfb7 053a a90e 623e
00000280: 8fb3 2dbe 18f9 313d d595 84be 587c a0bd
00000290: 8c4a 6f3e f9e4 f5bd acc8 6dbd b358 603c
000002a0: b2cb 3b3d a96c c03d 2e71 f13c a6e5 3fbd
000002b0: f4ac ca3d 45b0 083e 820c 16bc b49f 34be
000002c0: a02b 063e f6cb 873d 4959 e23d c99c dc3d
000002d0: eb43 37be 32ee 0d3e 61e9 55be 2011 3c3e
000002e0: 4ccb fbbd da4d b73d 71eb 5d3d 1947 aebd
000002f0: ee64 a8bd e809 2f3e 34db f73d b29f 11be
00000300: f6fb fe3b 30a7 093e 12ac 90bd 5518 06be
00000310: 2936 debb 90f1 90bc 363d 85bd 361c 293e
00000320: 9c98 813e 99fd 8dbe e055 bb3d 2038 953d
00000330: 7561 f8bd 482b a7bd d4ab d13c f69c 32be
00000340: 4167 403d 3519 4c3e 60f5 40bd b572 213e
00000350: e78f 63bd 4b69 1f3e 0ff5 b5bd a98d 403e
00000360: 700f 0abe c625 5f3d c6bd b63c 1f0e f0bc
00000370: 02d9 c3bd 7c07 3b3e c1d7 183c 7ace 8b3d
00000380: e902 a7bd 2911 afbd c935 b63d ee9a 0fbe
00000390: a27a debd fd3e 833e aff2 bfbd 8ff0 a4bd
000003a0: b4a5 19bc ccf7 1ebc a8ef f4bd cf71 60be
000003b0: a85f b13c 99bd 6cbe 6c68 ac3d 994c e3bd
000003c0: 3dfd 8e3c e7ae c03d c56a e5bd c55c 383d
000003d0: 28d4 02be 87f5 1ebe 470d 763e d09b 863d
000003e0: d916 47bd 1784 9cbd 6a7e dabd 2fb5 f33c
000003f0: a608 3fba 4e61 a8ba ba6e 50bd 5339 60bc

lstm.weight_hh_l0 f4 [256, 64]
0.0119237155 -0.11306131 -0.08700681 -0.06324476 -0.09231752 0.088899225 0.088121995 0.002950415
0.0002976656 0.034222692 0.01972121 0.117529884 -0.03103374 -0.0076044947 -0.03695889 0.051557958
-0.09870292 0.09761648 0.036069423 0.08001661 -0.09310512 -0.090554744 -0.09617147 -0.07345167
-0.11420253 0.023838982 -0.11384027 -0.040436298 0.016663298 -0.034101337 0.10865986 0.01755476
0.004667312 -0.025274545 -0.07550675 0.033161208 -0.06671603 -0.12442167 0.0069155693 -0.0029010624
-0.11759642 0.107261956 0.099571615 -0.054770008 -0.08727488 0.032678634 -0.02088432 -0.08225745
-0.045003206 0.017625436 0.12291455 -0.09670861 0.07721493 0.0033783615 -0.021343887 -0.10974762
-0.008085027 -0.08130555 -0.03287874 0.09800045 -0.084006086 0.08808181 -0.09670809 -0.058140293
-0.03893192 0.008660167 -0.06943601 -0.021231502 0.03203769 -0.035723224 0.0706725 0.099947646
-0.062042564 0.09463455 0.12265743 0.08471516 0.09306531 -0.063111305 0.02695556 -0.04428625
-0.0742131 0.043655902 0.00037293136 0.08373082 -0.09956245 0.06617147 0.041046545 -0.036207408
-0.043558493 -0.030078351 0.122859076 -0.051224053 0.10055655 -0.054253146 0.03184925 0.048515573
0.016416743 0.035058424 -0.07280856 0.014601186 -0.039627418 0.03354256 -0.069896564 -0.100840345
-0.041012943 0.1058667 0.039860383 0.038918838 -0.061505884 0.08048712 0.02898994 -0.053436607
-0.0062175244 0.1194257 0.010431558 -0.0109411925 -0.048812494 -0.04276219 0.07236478 0.09183268
0.024829715 -0.01894261 -0.08043972 -0.057943076 -0.1131175 0.0920261 -0.027474314 -0.034432083
-0.06288828 0.06500362 -0.092573 -0.09688078 -0.103823915 0.063139126 -0.106188744 0.124660164
-0.06809053 0.088713914 0.04675412 -0.07620096 0.0020485073 0.00020603836 0.09764989 -0.10073826
0.06319329 -0.07458 0.10547224 0.08274795 -0.12163095 0.035062954 -0.0034347475 0.09249158
-0.09840232 0.016990945 -0.0009610951 -0.049241602 0.05049695 0.043959096 -0.03665255 -0.0063581467
0.048473075 0.059867695 0.010344982 -0.08138582 -0.034217983 -0.03297858 0.08212434 0.028577149
0.111353934 0.10276154 -0.0781575 -0.04684083 -0.00565733 0.10422234 0.04417345 -0.092424124
0.020283788 0.066157 0.060263544 -0.12050322 0.080877855 -0.05371906 0.035621673 -0.03213419
-0.098677024 0.1223215 0.010670796 -0.0795258 -0.074075446 0.07386379 -0.0086079985 0.007703483
-0.038731188 0.01773052 0.09062067 -0.059455782 -0.061480343 0.10283987 0.06668256 -0.035055637
-0.022542045 0.054327637 -0.060342953 -0.003704846 4.8160553e-05 -0.098167896 -0.0895817 -0.02755186
-0.014072359 -0.08027865 -0.08902477 0.08791584 -0.011007085 -0.018328592 0.10065064 -0.030548751
-0.107361495 -0.03921111 -0.086229086 -0.091912165 0.04371929 0.06922671 0.071282715 0.07802422
-0.116184756 -0.090907216 -0.114791736 0.0071106553 0.0669647 -0.04112725 0.064517245 -0.07983726
-0.0018000007 -0.025862306 -0.073430315 -0.05441518 -0.052670732 0.07819235 -0.11723359 -0.044155583
0.0026839077 0.11987461 0.11538017 -0.045526132 0.03973268 -0.050243586 -0.06981379 0.08158472
-0.064753115 0.12318052 0.0828796 -0.040329024 -0.02016443 -0.11087713 -0.0041145235 -0.119604066
00000000: b05b 433c b08c e7bd a030 b2bd 7886 81bd
00000010: f810 bdbd cc10 b63d 4e79 b43d c05b 413b
00000020: 0010 9c39 182d 0c3d 608e a13c 82b3 f03d
00000030: 783a febc 202f f9bb 3462 17bd 702e 533d
00000040: c224 cabd 26eb c73d 88bd 133d c0df a33d
00000050: e6ad bebd c474 b9bd 8cf5 c4bd d46d 96bd
00000060: 04e3 e9bd f849 c33c 1625 e9bd 88a0 25bd
00000070: 7881 883c d8ad 0bbd 1089 de3d 00cf 8f3c
00000080: 40f0 983b 900c cfbc 48a3 9abd 0cd4 073d
00000090: 6aa2 88bd cad0 febd 009c e23b c01f 3ebb
000000a0: 64d6 f0bd 28ac db3d 34ec cb3d 8456 60bd
000000b0: 2cbd b2bd 08da 053d 9815 abbc 9876 a8bd
000000c0: 4855 38bd 3863 903c a0ba fb3d 2a0f c6bd
000000d0: dc22 9e3d 8067 5d3b 60d9 aebc 5cc3 e0bd
000000e0: 1077 04bc 8683 a6bd dcab 06bd 76b4 c83d
000000f0: 620b acbd 3c64 b43d e40e c6bd 8424 6ebd
00000100: 1477 1fbd 60e3 0d3c 7834 8ebd b0ed adbc
00000110: f439 033d 8452 12bd bebc 903d 5ab1 cc3d
00000120: 5820 7ebd c2cf c13d d233 fb3d 247f ad3d
00000130: 0699 be3d 8040 81bd e8d1 dc3c 8065 35bd
00000140: 0afd 97bd 88d0 323d 0086 c339 107b ab3d
00000150: 66e7 cbbd e884 873d 6c20 283d 384e 14bd
00000160: 646a 32bd e066 f6bc 8a9d fb3d 50d0 51bd
00000170: 98f0 cd3d 8c38 5ebd 5c74 023d 44b8 463d
00000180: 687c 863c 6c99 0f3d a81c 95bd d039 6f3c
00000190: 5c50 22bd ec63 093d ee25 8fbd 6285 cebd
000001a0: 30fd 27bd a4d0 d83d a444 233d 5c69 1f3d
000001b0: 98ed 7bbd 6ed6 a43d 507c ed3c 58e0 5abd
000001c0: 60bc cbbb 7695 f43d 20e9 2a3c b042 33bc
000001d0: 9cef 47bd 6827 2fbd fc33 943d c612 bc3d
000001e0: b067 cb3c 882d 9bbc 94bd a4bd b855 6dbd
000001f0: 26aa e7bd 2e78 bc3d d011 e1bc a808 0dbd
00000200: 92cb 80bd 9e20 853d ea96 bdbd 6e69 c6bd
00000210: a2a1 d4bd 164f 813d 7c79 d9bd d44d ff3d
00000220: 0c73 8bbd a4af b53d 4081 3f3d 400f 9cbd
00000230: 4040 063b 000c 5839 aafc c73d dc4f cebd
00000240: 7c6b 813d 66bd 98bd d401 d83d c277 a93d
00000250: a619 f9bd 2c9e 0f3d 8019 61bb 3a6c bd3d
00000260: 2887 c9bd 9830 8b3c 00f2 7bba 90b1 49bd
00000270: e4d5 4e3d 740e 343d fc20 16bd 0058 d0bb
00000280: b48b 463d d437 753d 007e 293c 9cad a6bd
00000290: 2828 0cbd 8c14 07bd ce30 a83d a01a ea3c
000002a0: 880d e43d a474 d23d 0a11 a0bd 2cdc 3fbd
000002b0: 2061 b9bb 8672 d53d 38ef 343d dc48 bdbd
000002c0: 302a a63c 527d 873d e8d6 763d 64ca f6bd
000002d0: 4aa3 a53d 8408 5cbd 08e8 113d 249f 03bd
000002e0: 2e17 cabd b283 fa3d 90d4 2e3c 6cde a2bd
000002f0: deb4 97bd e645 973d 9008 0dbc 806d fc3b
00000300: 98a4 1ebd 983f 913c 5497 b93d e887 73bd
00000310: d0d2 7bbd b69d d23d de90 883d 8096 0fbd
00000320: 18aa b8bc a886 5e3d 2c2a 77bd 00cd 72bb
00000330: 0000 4a38 400c c9bd 9c76 b7bd 70b4 e1bc
00000340: c08f 66bc 2269 a4bd 9e52 b6bd 380d b43d
00000350: 1057 34bc d825 96bc ec21 ce3d 6041 fabc
00000360: 58e0 dbbd d49b 20bd e098 b0bd 723c bcbd
00000370: 0013 333d bcc6 8d3d acfc 913d 2acb 9f3d
00000380: 46f2 edbd 902d babd ee17 ebbd 8000 e93b
00000390: ca24 893d 0c75 28bd 9e21 843d b881 a3bd
000003a0: 00ee ebba 30dd d3bc a262 96bd 74e2 5ebd
000003b0: 44bd 57bd 5023 a03d 2a18 f0bd 7cdc 34bd
000003c0: 80e4 2f3b d280 f53d 704c ec3d 9c79 3abd
000003d0: bcbe 223d 38cc 4dbd 88fa 8ebd e415 a73d
000003e0: 489d 84bd 1246 fc3d c8bc a93d 0c30 25bd
000003f0: e02f a5bc 8c13 e3bd 20d3 86bb faf2 f4bd

lstm.bias_ih_l0 f4 [256]
0.15068012 -0.065531954 0.105615124 0.058778003 0.18591337 0.1988792 0.13622077 0.08494362
0.0743956 0.16917287 0.18548608 0.18603094 0.14673561 0.0842734 0.023884574 0.08894262
0.16279572 0.09604599 -0.016442558 0.010114547 0.25796512 0.11620199 0.16914824 0.15822396
0.07157818 -0.024904143 -0.061847046 0.26352033 0.06464232 0.25236213 -0.10782456 0.021697847
0.05638701 0.1256201 0.11160051 0.10605734 -0.042332012 -0.0018216546 0.22112855 0.18377535
0.04512919 0.08080598 0.06096812 0.16218552 0.21156152 0.07034327 0.015676346 0.12264562
0.26609212 0.17289184 0.006674677 -0.023910383 0.059132744 0.2293502 0.120544955 0.061420396
0.13274598 0.075118385 0.15935805 0.14733352 -0.03865897 -0.017841326 0.16754444 0.1523606
-0.023072943 -0.034114078 -0.09271689 -0.06579436 0.119332954 -0.09911844 0.09325202 0.10630734
-0.09928799 -0.10126354 0.10477714 -0.10865179 0.101313025 -0.10947731 -0.11941415 -0.11868432
-0.10582709 0.028453335 0.12176083 -0.068867385 -0.02272427 0.0682224 -0.065838635 -0.048701867
-0.05400251 0.09123246 0.0741293 -0.11894223 0.007142186 0.004901424 -0.05659902 0.09898169
-0.016150296 0.058535695 0.018190801 0.08461779 -0.04808709 -0.027319506 0.05529809 0.08098799
-0.05196753 0.029211566 0.018128335 -0.029458538 -0.024864167 0.014390424 -0.06356332 -0.07490517
0.0020790547 0.045272365 -0.01657334 0.048804685 0.05456738 0.057661057 -0.049033478 0.008596733
0.116994336 -0.06872754 -0.03031376 0.012718201 -0.08432531 0.043698937 0.01790665 -0.09379119
0.09841567 -0.009745672 -0.030112047 0.15666512 0.16275722 -0.16147114 0.034692455 -0.025990048
-0.18966603 -0.1055147 -0.01943272 0.10617027 0.05719352 -0.043176133 -0.027328731 -0.0135786235
-0.053706884 -0.16273253 -0.12993272 -0.031083345 -0.0014314913 -0.06252469 -0.0016661766 0.04819646
-0.0279236 0.06778086 0.15444602 -0.019709012 -0.11221884 -0.06762845 -0.07033086 0.0110935895
0.04386577 0.004985578 0.061279807 0.1275151 0.040900886 -0.007656435 -0.024587033 0.15021089
-0.14801227 -0.12076542 -0.13954318 0.17847891 -0.115481175 -0.059036847 -0.057976216 0.10185614
0.033431806 -0.14254776 -0.008111836 0.0069081243 0.012313577 0.068830095 -0.047430266 -0.05405953
0.0014371799 0.19531167 -0.11722709 0.18071967 -0.13414298 -0.03727409 0.20500302 0.053786706
0.079584055 -0.10428584 0.10716161 0.07405141 0.15457478 0.23192005 0.078632765 0.04706195
0.22055992 0.21375348 0.15692553 0.089672424 0.2469041 0.0008498229 0.15062313 0.19929689
0.08309968 0.1002951 -0.066306785 0.0039119576 0.19075894 0.18930194 0.12728184 0.02034948
0.007410444 0.061309136 0.06496856 0.24464883 0.033938352 0.070724815 -0.02011613 -0.0026881646
0.22219734 0.022364171 0.0337374 0.15757291 0.14810008 0.019596769 0.019070182 0.027684603
0.2379909 0.19150831 0.13166048 0.13343595 0.13884856 -0.014329701 0.13198759 0.25403646
0.16913876 0.1232616 0.106568925 0.13507485 -0.011244828 0.035666827 0.21934986 -0.039554823
0.0004569185 0.2482483 0.054227367 0.20825692 0.00065809523 0.08395689 0.15397508 0.29326665
00000000: e44b 1a3e 9e35 86bd be4c d83d 34c1 703d
00000010: 1360 3e3e fda6 4b3e 757d 0b3e ecf6 ad3d
00000020: b85c 983d a73b 2d3e 10f0 3d3e e57e 3e3e
00000030: dc41 163e 8897 ac3d 95a9 c33c 8c27 b63d
00000040: ecb3 263e c3b3 c43d 8bb2 86bc 7cb7 253c
00000050: 0114 843e 4ffb ed3d 3235 2d3e 7605 223e
00000060: 9597 923d c603 ccbc 5453 7dbd 23ec 863e
00000070: 3163 843d 9c35 813e 1fd3 dcbd afbf b13c
00000080: 11f6 663d 8ea2 003e cf8e e43d 9734 d93d
00000090: 5564 2dbd 96c4 eeba 866f 623e 9b2f 3c3e
000000a0: 63d9 383d 9b7d a53d b5b9 793d f613 263e
000000b0: 95a3 583e 2210 903d ae6b 803c a02d fb3d
000000c0: 3a3d 883e 8f0a 313e 40b7 da3b b5df c3bc
000000d0: 2d35 723d c7da 6a3e 46e0 f63d f493 7b3d
000000e0: 90ee 073e abd7 993d c22e 233e 99de 163e
000000f0: de58 1ebd f927 92bc c590 2b3e 6b04 1c3e
00000100: 7803 bdbc 34bb 0bbd 5ae2 bdbd 32bf 86bd
00000110: d664 f43d 9cfe cabd eafa be3d aab7 d93d
00000120: 8057 cbbd 4263 cfbd 6695 d63d d484 debd
00000130: 347d cf3d a435 e0bd 688f f4bd c410 f3bd
00000140: e0bb d8bd f816 e93c be5d f93d 580a 8dbd
00000150: 4028 babc 30b8 8b3d 68d6 86bd 9c7b 47bd
00000160: bc31 5dbd 16d8 ba3d 1ad1 973d fc97 f3bd
00000170: 0009 ea3b 209c a03b 60d4 67bd eab6 ca3d
00000180: a04d 84bc 20c3 6f3d e004 953c 184c ad3d
00000190: f8f6 44bd 28cd dfbc 4080 623d 08dd a53d
000001a0: e8db 54bd 184d ef3c e081 943c 0853 f1bc
000001b0: f0af cbbc d0c5 6b3c 7c2d 82bd e267 99bd
000001c0: c040 083b 846f 393d d0c4 87bc 6ce7 473d
000001d0: 0c82 5f3d 002e 6c3d 54d7 48bd 50d9 0c3c
000001e0: ba9a ef3d 06c1 8cbd 9054 f8bc 0060 503c
000001f0: c0b2 acbd a8fd 323d f8b0 923c 9815 c0bd
00000200: 288e c93d 50ac 1fbc 8aad f6bc d26c 203e
00000210: d4a9 263e b158 25be ad19 0e3d 15e9 d4bc
00000220: d037 42be 1718 d8bd 5e31 9fbc cc6f d93d
00000230: c143 6a3d 75d9 30bd 81e0 dfbc e078 5ebc
00000240: c0fb 5bbd 5ba3 26be 150d 05be 80a2 febc
00000250: e1a0 bbba f20c 80bd 9c63 daba a769 453d
00000260: 09c0 e4bc b1d0 8a3d 1927 1e3e cb74 a1bc
00000270: fed2 e5bd c980 8abd a009 90bd e3c1 353c
00000280: 98ac 333d 0f5e a33b 8900 7b3d 5293 023e
00000290: b087 273d d5e2 fabb bf6a c9bc e2d0 193e
000002a0: 8790 17be dc53 f7bd 68e4 0ebe 2dc3 363e
000002b0: 6581 ecbd 9fd0 71bd 7878 6dbd f499 d03d
000002c0: caef 083d 0af8 11be 82e7 04bc 8c5d e23b
000002d0: e3be 493c cbf6 8c3d 3d46 42bd 876d 5dbd
000002e0: c15f bc3a c8ff 473e c214 f0bd 940e 393e
000002f0: c75c 09be b7ac 18bd 50ec 513e 734f 5c3d
00000300: f7fc a23d d193 d5bd 8c77 db3d 44a8 973d
00000310: da48 1e3e 737c 6d3e 370a a13d 08c4 403d
00000320: 76da 613e 31e2 5a3e 16b1 203e 2da6 b73d
00000330: 6ed4 7c3e a6c6 5e3a f33c 1a3e 7c14 4c3e
00000340: 2a30 aa3d 8467 cd3d dacb 87bd e12f 803b
00000350: 5056 433e 5ed8 413e 2c56 023e f4b3 a63c
00000360: 4fd3 f23b 4a1f 7b3d 3d0e 853d 3985 7a3e
00000370: f102 0b3d 2cd8 903d 95ca a4bc eb2b 30bb
00000380: b387 633e 1135 b73c 3a30 0a3d cb5a 213e
00000390: 8ca7 173e 6789 a03c 1239 9c3c d2ca e23c
000003a0: e3b3 733e c11a 443e 01d2 063e 6fa3 083e
000003b0: 512e 0e3e 1fc7 6abc c127 073e 1111 823e
000003c0: b632 2d3e 9470 fc3d cf40 da3d 1051 0a3e
000003d0: 3a3c 38bc 6117 123d 409d 603e 3d04 22bd
000003e0: 908e ef39 cd34 7e3e 841d 5e3d 4d41 553e
000003f0: 0684 2c3a 97f1 ab3d a5ab 1d3e 0c27 963e

lstm.bias_hh_l0 f4 [256]
0.14830808 0.011076034 0.029393973 0.053802382 0.090354376 0.21605752 0.1388799 0.089548185
0.25010052 0.25672367 0.23966332 0.14936292 0.12312438 0.22974011 0.21244706 0.0659811
0.2952474 0.13443522 -0.032389224 0.07585182 0.15321857 0.21601385 0.14069445 -0.0070206504
0.07624529 0.17216852 0.15776303 0.023378583 -0.01714344 0.027541202 -0.0793215 0.008706344
0.21185121 -0.0026803538 0.17964412 0.09779627 0.13629466 0.0823355 0.030375842 0.26096633
0.15855123 0.115527846 0.21788758 0.2910084 0.172642 0.06783126 0.16419505 0.16261674
0.057331197 0.00091641495 0.017438307 0.20512258 0.100706555 0.24269293 0.22235723 0.053317286
-0.005096585 0.11779797 0.074652955 0.1558431 0.0108162025 0.057143874 0.23216245 0.11242735
-0.05299385 -0.104876965 -0.041398093 0.06299962 -0.119305775 0.11977443 0.052609786 0.10226315
0.076441765 0.038813487 0.061044738 -0.09480359 -0.042306125 -0.11035551 -0.06073752 0.08036232
0.06604701 -0.01687783 -0.07060532 0.0643449 0.092787534 -0.11125566 -0.10692203 0.11574191
-0.10155952 0.054631516 0.11545873 0.055356115 0.0826637 0.06203878 0.049621 0.020965517
-0.06613402 -0.037702188 -0.075500265 0.083768874 0.043822408 0.10891034 0.06393193 -0.008012012
-0.049491838 0.12411092 -0.009803817 -0.07138389 0.05274284 -0.053983092 -0.067263156 0.055889517
-0.026077628 -0.10429767 0.095211074 -0.012028262 0.11762717 -0.11393142 -0.038064674 -0.11280757
0.08570564 0.05283071 0.034186274 -0.10636784 -0.05066976 -0.027036905 0.0260019 -0.07127859
0.066208035 -0.0762259 -0.036676798 -0.0014702576 0.12317132 -0.039785177 0.0140318265 -0.04947785
-0.011037849 -0.15388502 -0.19836509 0.09579504 0.20062117 -0.109869674 0.07464529 0.13748673
-0.107497275 -0.047796432 0.015527869 -0.11502726 -0.20101717 -0.11664463 -0.18595384 -0.19194107
-0.070097394 -0.018295819 0.08309154 0.15444998 -0.16434544 -0.12636985 0.059363134 -0.10949743
0.00074347964 0.066331066 0.120891936 0.18854402 -0.010713858 0.03233615 0.1009612 0.0051046573
-0.11227829 -0.06667588 -0.18802045 0.0042795157 -0.11775914 -0.01219436 -0.11301818 0.08787243
0.1601116 -0.17626913 0.07583479 -0.057772227 0.027485782 0.13090557 -0.0824133 -0.07504442
-0.099147186 0.08084605 0.01522976 0.19780454 0.03392334 -0.0011004438 0.062515035 0.12387403
0.22661643 -0.009900755 -0.07178195 0.075088486 0.25957313 0.039519668 0.032192934 0.09518865
0.28039476 0.0983003 0.19811998 0.10238784 0.25644258 0.19432269 0.17227063 0.21075925
0.25762498 -0.02597578 -0.043154195 0.16754927 0.1722804 0.19467142 0.2577971 0.1717594
0.22710633 0.032254312 0.17799619 0.17332612 0.04231516 0.17593752 -0.10657804 0.13659231
0.081786536 0.21902241 0.056063235 0.065128595 0.12437801 0.006841209 0.1534212 0.12118028
0.055800516 0.15308367 0.07388764 0.13414688 0.1177586 0.13142088 -0.050946735 0.24664274
0.10731966 0.08849778 0.16445102 0.061320033 0.057813708 0.11604405 0.24845037 -0.06900875
0.0382591 0.091621175 0.18259107 0.100113526 -0.05822232 -0.035964373 0.067593664 0.25738704
00000000: 13de 173e 4178 353c a1cb f03c e35f 5c3d
00000010: b70b b93d 2f3e 5d3e 8836 0e3e 0a65 b73d
00000020: 2d0d 803e 4971 833e 4d6a 753e 98f2 183e
00000030: a328 fc3d fe40 6b3e b98b 593e 1921 873d
00000040: ab2a 973e 63a9 093e 90aa 04bd 3358 9b3d
00000050: 54e5 1c3e bc32 5d3e 3512 103e 7c0d e6bb
00000060: 7e26 9c3d f24c 303e a28c 213e 7184 bf3c
00000070: 6670 8cbc 169e e13c 5073 a2bd 0ea5 0e3c
00000080: 86ef 583e e0a8 2fbb a1f4 373e 6949 c83d
00000090: d490 0b3e 849f a83d c2d6 f83c 619d 853e
000000a0: 415b 223e dd99 ec3d ec1d 5f3e 0eff 943e
000000b0: 10c9 303e 1eeb 8a3d bf22 283e 0185 263e
000000c0: 1ed4 6a3d 913b 703a c8da 8e3c a70b 523e
000000d0: 3d3f ce3d 7f84 783e 9db1 633e 3a63 5a3d
000000e0: 4101 a7bb 1040 f13d a6e3 983d 5595 1f3e
000000f0: 7136 313c b20f 6a3d febb 6d3e 4f40 e63d
00000100: 1410 59bd bcc9 d6bd 0c91 29bd f205 813d
00000110: 9656 f4bd 4c4c f53d 5c7d 573d 586f d13d
00000120: 808d 9c3d e4fa 1e3d 0c0a 7a3d 6228 c2bd
00000130: 3049 2dbd 1202 e2bd e8c7 78bd 0095 a43d
00000140: a843 873d 6043 8abc 8699 90bd 42c7 833d
00000150: 6407 be3d 02da e3bd f0f9 dabd 180a ed3d
00000160: 70fe cfbd 4cc5 5f3d a075 ec3d 18bd 623d
00000170: 964b a93d 601c 7e3d 643f 4b3d e0bf ab3c
00000180: 4671 87bd 9c6d 1abd e29f 9abd 048f ab3d
00000190: 207f 333d 620c df3d beee 823d d044 03bc
000001a0: f4b7 4abd de2d fe3d 30a0 20bc b831 92bd
000001b0: e008 583d 601d 5dbd 44c1 89bd 68ec 643d
000001c0: c0a0 d5bc 049a d5bd 06fe c23d 3012 45bc
000001d0: 84e6 f03d e054 e9bd b4e9 1bbd a807 e7bd
000001e0: 7086 af3d 0465 583d e806 0c3d 62d7 d9bd
000001f0: 188b 4fbd 807c ddbc f001 d53c 82fa 91bd
00000200: 1498 873d 531c 9cbd 693a 16bd a9b5 c0ba
00000210: 3f41 fc3d c8f5 22bd bfe5 653c 49a9 4abd
00000220: 18d8 34bc 0994 1dbe 3820 4bbe 3130 c43d
00000230: a36f 4d3e 5a03 e1bd a1df 983d 52c9 0c3e
00000240: 8827 dcbd 31c6 43bd 9a68 7e3c 6993 ebbd
00000250: 72d7 4dbe 61e3 eebd af6a 3ebe 338c 44be
00000260: 398f 8fbd 1de1 95bc e62b aa3d 2328 1e3e
00000270: 2c4a 28be 1967 01be c226 733d 3040 e0bd
00000280: 13e6 423a 95d8 873d 3196 f73d af11 413e
00000290: 2d89 2fbc e972 043d bfc4 ce3d f844 a73b
000002a0: 29f2 e5bd 5d8d 88bd 6f88 40be 2e3b 8c3b
000002b0: b42b f1bd daca 47bc 1376 e7bd 76f6 b33d
000002c0: 4cf4 233e e57f 34be 454f 9b3d 92a2 6cbd
000002d0: dd29 e13c 1c0c 063e 4ec8 a8bd e4b0 99bd
000002e0: ae0d cbbd 9d92 a53d 3e86 793c 468d 4a3e
000002f0: 33f3 0a3d c43c 90ba e207 803d abb1 fd3d
00000300: 230e 683e c736 22bc 6a02 93bd fec7 993d
00000310: c5e6 843e 60df 213d bddc 033d 44f2 c23d
00000320: e78f 8f3e ab51 c93d f7df 4a3e b7b0 d13d
00000330: 714c 833e 87fc 463e b667 303e 46d1 573e
00000340: 6ce7 833e 29cb d4bc 74c2 30bd 0992 2b3e
00000350: 466a 303e f257 473e fbfd 833e b2e1 2f3e
00000360: 908e 683e 191d 043d a244 363e 677c 313e
00000370: a952 2d3d f728 343e 9645 dabd dbde 0b3e
00000380: b37f a73d 6947 603e 90a2 653d 2462 853d
00000390: e6b9 fe3d 382c e03b 721a 1d3e 5e2d f83d
000003a0: 158f 643d f7c1 1c3e 6752 973d cd5d 093e
000003b0: 6c2b f13d 3293 063e 86ad 50bd ea8f 7c3e
000003c0: 69ca db3d 533e b53d d965 283e b72a 7b3d
000003d0: 11ce 6c3d 81a8 ed3d c669 7e3e 7654 8dbd
000003e0: 93b5 1c3d e2a3 bb3d 27f9 3a3e 5208 cd3d
000003f0: 877a 6ebd 614f 13bd 8c6e 8a3d 3cc8 833e

fc.weight f4 [1, 64]
-0.15059914 -0.02011697 -0.038245436 -0.17802948 -0.15756965 0.22925463 -0.16514818 0.12964958
0.22238617 0.2542367 0.23214996 -0.19275533 -0.14124756 0.1309043 -0.13104156 -0.17164391
0.24503735 0.21434139 0.0956045 0.12470513 0.1666758 0.16175346 0.2372887 0.11027879
0.20874442 -0.16036175 -0.10953059 -0.2101657 0.19995026 0.23646688 0.00025521396 0.1875644
-0.109316684 -0.15651657 -0.17130852 -0.14311858 -0.16502286 0.065863095 -0.10806227 -0.11637325
0.17666467 0.2606598 0.17230357 -0.2811289 0.20498388 0.20306386 0.078907706 -0.16753687
-0.19302842 0.085560665 -0.19593555 0.15473786 0.12546402 -0.24474305 0.2160402 -0.00041780758
0.16833566 -0.17413402 0.15916592 -0.21105003 0.10264909 -0.13973978 -0.19513886 -0.20826696
00000000: a936 1abe 58cc a4bc 3fa7 1cbd 5c4d 36be
00000010: f059 21be bac1 6a3e 9b1c 29be dcc2 043e
00000020: 33b9 633e 502b 823e b8b8 6d3e a761 45be
00000030: 33a3 10be c70b 063e c22f 06be 6cc3 2fbe
00000040: 12eb 7a3e 4f7c 5b3e 4bcc c33d 6765 ff3d
00000050: 10ad 2a3e b3a2 253e cffb 723e d9d9 e13d
00000060: 19c1 553e df35 24be 9351 e0bd ad35 57be
00000070: c3bf 4c3e 6024 723e 3dce 8539 e210 403e
00000080: 6de1 dfbd e145 20be 806b 2fbe ad8d 12be
00000090: c1fb 28be 3be3 863d c04f ddbd 1955 eebd
000000a0: 95e7 343e 3475 853e 5970 303e 21f0 8fbe
000000b0: 4be7 513e f9ef 4f3e 5d9a a13d c98e 2bbe
000000c0: 3ea9 45be 6e3a af3d 54a3 48be 9a73 1e3e
000000d0: a479 003e ec9d 7abe a439 5d3e 2f0d dbb9
000000e0: 2f60 2c3e 3050 32be 64fc 223e 801d 58be
000000f0: b039 d23d f217 0fbe 7bd2 47be ef43 55be

exp_avg f4 [256, 5]
0.0011571654 -0.0011571654 0.0009443484 -0.00021766721 -0.00020765944 -8.9382996e-07 8.9382996e-07 4.894882e-05
1.4514717e-08 3.039704e-07 1.5562307e-05 -1.5562307e-05 0.00013322209 -1.5749081e-05 9.190291e-06 -0.0005688497
0.0005688497 -0.00021294909 -0.00097359397 0.0011119938 -0.0005585774 0.0005585774 -0.0007261129 -0.00024802043
0.0004302336 0.00092775084 -0.00092775084 0.0004794683 -0.00065504224 0.00028260564 0.00091300363 -0.00091300363
0.0010937891 -0.0008583591 0.0004778617 -0.00028756994 0.00028756994 1.794298e-05 -0.000549751 0.0006159501
-0.00042921604 0.00042921604 -0.0004979783 -0.00027948697 0.0004136855 -0.0017721402 0.0017721402 -0.0020324423
9.884546e-06 0.00062032277 0.00051830936 -0.00051830936 0.0002625836 -0.0004815707 0.0002659375 0.000968437
-0.000968437 0.0009433839 -0.001321887 0.00089137536 0.0005781909 -0.0005781909 0.00012436602 0.00020950526
-0.0004012056 0.00016586535 -0.00016586535 -0.00012253232 0.00041971088 -0.0004511803 -0.0009879482 0.0009879482
-0.00057228375 -0.000119823504 0.00046295833 9.977524e-05 -9.977524e-05 0.00048101248 -0.0012583672 0.0011406067
-0.0010272716 0.0010272716 -0.0007080325 -0.0006994825 0.0010186695 0.0012389129 -0.0012389129 0.00032180315
0.00039029616 -0.0008048948 0.000458969 -0.000458969 0.00020808038 2.898479e-05 -0.0001901396 0.0006643084
-0.0006643084 0.000335652 -0.00024865734 -3.6068661e-06 0.00033407053 -0.00033407053 -3.876751e-05 0.0002796665
-0.00038005246 -0.0009014727 0.0009014727 -0.000938551 -0.00032021134 0.00061951735 5.2840027e-05 -5.2840027e-05
0.00030106076 -0.0007390951 0.0006719762 5.4992244e-05 -5.4992244e-05 -9.52831e-05 -0.00033937092 0.00029763507
0.00057083974 -0.00057083974 0.0009167953 -0.00085940544 0.0006003949 -0.0009050504 0.0009050504 -0.00033170165
-0.00035156135 0.00065008755 -5.1613428e-05 5.1613428e-05 -0.00043028817 -0.00044126704 0.00043073783 0.0008527951
-0.0008527951 0.0011403327 -0.00024047859 -7.821134e-05 0.00057454914 -0.00057454914 -0.0004711507 -9.3106624e-05
-0.000117095035 0.00041696287 -0.00041696287 -0.0003072412 0.0005949083 -0.0007041209 3.355499e-06 -3.355499e-06
3.0613462e-06 -3.4086859e-06 1.9936545e-06 0.00086416566 -0.00086416566 0.0006127054 0.00037403006 -0.000656562
0.00054363784 -0.00054363784 0.0007507433 8.390769e-05 -0.00027154875 0.00029625703 -0.00029625703 0.00061262696
-0.00018184823 6.470615e-05 -0.0003751146 0.0003751146 -0.0006582193 -0.0006470825 0.0007380154 0.0006925569
-0.0006925569 3.4982688e-05 -0.00024292596 -1.8998746e-05 0.0010135344 -0.0010135344 0.0012473841 -0.0009870519
0.0005624221 0.00010635432 -0.00010635432 0.00019532285 0.00012396845 -0.00015364202 -0.00040025913 0.00040025913
-0.0001319874 -0.0003398416 0.00045980507 0.0001852677 -0.0001852677 0.00017795543 0.00012986203 -0.00018718441
-0.0007499155 0.0007499155 -0.0010720999 -0.00010190671 0.00036165144 0.0013059146 -0.0013059146 0.0011062421
-0.00031709747 -0.00016757715 0.0007691456 -0.0007691456 0.00031089515 -0.0004111536 0.00011101595 -0.0006354339
0.0006354339 -0.0008407005 -6.626104e-05 0.00028766738 0.0007453776 -0.0007453776 0.0006750836 -0.0009419635
0.00061554706 0.0013517068 -0.0013517068 0.0013064983 -8.380134e-05 -0.00040188036 0.00014531804 -0.00014531804
8.844907e-05 -0.00011001595 5.119448e-05 0.00094192516 -0.00094192516 0.0010127991 -0.001023159 0.000621607
0.00044188727 -0.00044188727 0.00071560615 -0.0012518194 0.0010129504 0.00040463725 -0.00040463725 -0.0001526083
-8.606151e-05 -6.331729e-05 0.0006600021 -0.0006600021 0.0010558483 -0.00057165214 0.00029978933 -0.000322674
00000000: 07ac 973a 07ac 97ba 268e 773a 993d 64b9
00000010: 28bf 59b9 87ef 6fb5 87ef 6f35 654e 4d38
00000020: 675c 7932 6031 a334 cd8b 8237 cd8b 82b7
00000030: 88b1 0b39 e51c 84b7 0030 1a37 db1e 15ba
00000040: db1e 153a 164b 5fb9 c938 7fba 52c0 913a
00000050: 7f6d 12ba 7f6d 123a 9d58 3eba bd08 82b9
00000060: fa90 e139 4e34 733a 4e34 73ba 2561 fb39
00000070: 24b7 2bba b02a 9439 a356 6f3a a356 6fba
00000080: 795d 8f3a 8103 61ba 8389 fa39 fcc4 96b9
00000090: fcc4 9639 4284 9637 2a1d 10ba b677 213a
000000a0: 6708 e1b9 6708 e139 c28a 02ba 1b88 92b9
000000b0: eee3 d839 2847 e8ba 2847 e83a b932 05bb
000000c0: cdd5 2537 289d 223a 27df 073a 27df 07ba
000000d0: 60ab 8939 537b fcb9 876d 8b39 b5de 7d3a
000000e0: b5de 7dba 6c4d 773a 2b43 adba 30ab 693a
000000f0: bc91 173a bc91 17ba 4068 0239 a4ae 5b39
00000100: e758 d2b9 24ec 2d39 24ec 2db9 057c 00b9
00000110: a40c dc39 658c ecb9 0a7e 81ba 0a7e 813a
00000120: 5005 16ba c149 fbb8 37b9 f239 6d3e d138
00000130: 6d3e d1b8 6730 fc39 ccef a4ba 6980 953a
00000140: 84a5 86ba 84a5 863a 429b 39ba 7a5d 37ba
00000150: e084 853a 0563 a23a 0563 a2ba b0b7 a839
00000160: aaa0 cc39 93ff 52ba c7a1 f039 c7a1 f0b9
00000170: 2730 5a39 5d24 f337 3660 47b9 fb24 2e3a
00000180: fb24 2eba 73fa af39 395e 82b9 7d0d 72b6
00000190: 3026 af39 3026 afb9 4c9a 22b8 34a0 9239
000001a0: c741 c7b9 cf50 6cba cf50 6c3a 1709 76ba
000001b0: 0ae2 a7b9 1b67 223a 8ca0 5d38 8ca0 5db8
000001c0: b1d7 9d39 d5bf 41ba 8f27 303a 79a7 6638
000001d0: 79a7 66b8 bad2 c7b8 98ed b1b9 e70b 9c39
000001e0: 68a4 153a 68a4 15ba 1755 703a b949 61ba
000001f0: d263 1d3a e740 6dba e740 6d3a 3ee8 adb9
00000200: c451 b8b9 a36a 2a3a 7f7b 58b8 7f7b 5838
00000210: 4d98 e1b9 dc59 e7b9 a7d4 e139 1c8e 5f3a
00000220: 1c8e 5fba 3777 953a fb28 7cb9 6505 a4b8
00000230: 579d 163a 579d 16ba c704 f7b9 3d42 c3b8
00000240: eb90 f5b8 cf9b da39 cf9b dab9 3715 a1b9
00000250: 9ff3 1b3a c194 38ba 092f 6136 092f 61b6
00000260: 8771 4d36 c7c0 64b6 b9ca 0536 2d89 623a
00000270: 2d89 62ba f79d 203a 7719 c439 211d 2cba
00000280: eb82 0e3a eb82 0eba 88cd 443a 99f7 af38
00000290: a85e 8eb9 f252 9b39 f252 9bb9 b398 203a
000002a0: 83ae 3eb9 dab2 8738 08ab c4b9 08ab c439
000002b0: 598c 2cba f9a0 29ba 6077 413a b58c 353a
000002c0: b58c 35ba 60ba 1238 f1b9 7eb9 7f5f 9fb7
000002d0: 92d8 843a 92d8 84ba 447f a33a f75f 81ba
000002e0: 826f 133a 8a0a df38 8a0a dfb8 94cf 4c39
000002f0: 87fd 0139 f71a 21b9 dfd9 d1b9 dfd9 d139
00000300: 1966 0ab9 c42c b2b9 fe11 f139 6b44 4239
00000310: 6b44 42b9 8c99 3a39 932b 0839 ef46 44b9
00000320: fa95 44ba fa95 443a b485 8cba c0b6 d5b8
00000330: 099c bd39 392b ab3a 392b abba 53ff 903a
00000340: 1a40 a6b9 a6b7 2fb9 7da0 493a 7da0 49ba
00000350: a4ff a239 1a90 d7b9 3cd1 e838 3f93 26ba
00000360: 3f93 263a 7562 5cba a0f5 8ab8 10d2 9639
00000370: 7265 433a 7265 43ba 18f8 303a 1aee 76ba
00000380: aa5c 213a c12b b13a c12b b1ba cf3e ab3a
00000390: 80be afb8 78b3 d2b9 8460 1839 8460 18b9
000003a0: bc7d b938 5db8 e6b8 a8b9 5638 87eb 763a
000003b0: 87eb 76ba e6bf 843a 851b 86ba 57f3 223a
000003c0: 1bad e739 1bad e7b9 8497 3b3a 1714 a4ba
000003d0: fac4 843a 7e25 d439 7e25 d4b9 7b05 20b9
000003e0: ec7b b4b8 36c9 84b8 fe03 2d3a fe03 2dba
000003f0: 6464 8a3a edda 15ba 0b2d 9d39 922c a9b9

exp_avg_sq f4 [256, 5]
1.0762414e-07 1.0762414e-07 6.036148e-08 1.1177605e-08 1.034721e-08 4.976616e-10 4.976616e-10 3.604476e-09
3.197835e-09 2.065184e-09 1.605326e-09 1.605326e-09 9.55688e-09 4.100171e-09 2.1437492e-09 5.921144e-08
5.921144e-08 1.3711804e-07 1.8159899e-07 1.973661e-07 1.4403537e-08 1.4403537e-08 7.3459184e-08 4.3924384e-08
4.282623e-08 1.10305386e-07 1.10305386e-07 4.6309147e-08 5.34438e-08 1.3697474e-08 9.3270735e-08 9.3270735e-08
1.5626985e-07 1.4157607e-07 6.0903474e-08 1.1330351e-08 1.1330351e-08 3.8379255e-08 4.175878e-08 3.860665e-08
3.3711434e-08 3.3711434e-08 2.153082e-07 1.08791056e-07 7.739629e-08 4.147485e-07 4.147485e-07 6.1731254e-07
1.2220015e-07 2.7715674e-07 8.32459e-08 8.32459e-08 2.0941621e-07 1.3829924e-07 6.101952e-08 1.2236083e-07
1.2236083e-07 1.3301404e-07 2.1214196e-07 9.489732e-08 3.4394933e-08 3.4394933e-08 2.1783848e-08 8.551579e-09
1.0247434e-08 2.0959312e-09 2.0959312e-09 5.0694187e-09 6.604199e-09 6.8834454e-09 6.1346896e-08 6.1346896e-08
1.0207146e-07 3.74784e-08 4.2588415e-08 2.530098e-08 2.530098e-08 1.19203044e-07 2.428778e-07 1.9516573e-07
1.4219482e-07 1.4219482e-07 1.8004104e-07 2.0469358e-07 2.8177345e-07 2.9785724e-07 2.9785724e-07 7.427049e-08
3.546866e-08 1.2384781e-07 9.250659e-09 9.250659e-09 2.9237444e-09 1.0296586e-09 2.815666e-09 6.064596e-08
6.064596e-08 2.9616206e-08 8.0715905e-09 1.0324508e-08 1.4324899e-08 1.4324899e-08 1.8367901e-08 7.576992e-09
7.081201e-09 4.420482e-08 4.420482e-08 6.099528e-08 1.8217083e-08 3.6308432e-08 1.0361016e-07 1.0361016e-07
5.5593716e-07 3.9844252e-07 2.510006e-07 1.2408297e-09 1.2408297e-09 5.4590474e-09 8.951369e-09 6.7897727e-09
8.113729e-08 8.113729e-08 2.9024616e-07 2.1094633e-07 1.0972588e-07 1.00288766e-07 1.00288766e-07 1.3030267e-07
7.100458e-08 9.227937e-08 5.114748e-09 5.114748e-09 3.1830606e-08 2.3166143e-08 2.0975241e-08 2.1465083e-07
2.1465083e-07 4.7955496e-07 1.865476e-07 8.1951576e-08 4.7902727e-08 4.7902727e-08 4.978266e-08 2.0749718e-08
1.7644359e-08 1.9183341e-08 1.9183341e-08 2.1845892e-08 1.7506492e-08 2.3296247e-08 2.5210314e-10 2.5210314e-10
7.6812184e-10 2.50239e-10 1.0467151e-10 7.093136e-08 7.093136e-08 5.631694e-08 3.2862395e-08 5.044617e-08
4.3291916e-08 4.3291916e-08 9.665397e-08 2.9589073e-08 1.6589794e-08 4.0221334e-08 4.0221334e-08 1.6856947e-07
7.232728e-08 3.2894267e-08 4.8206143e-08 4.8206143e-08 8.025893e-08 6.850262e-08 9.347399e-08 5.2846335e-08
5.2846335e-08 4.720013e-09 6.5288934e-09 2.188943e-09 1.1284011e-07 1.1284011e-07 1.9752959e-07 1.4586077e-07
5.75644e-08 2.6952e-09 2.6952e-09 1.0377141e-08 5.2134093e-09 3.2892828e-09 1.0048441e-08 1.0048441e-08
3.256857e-08 2.3312198e-08 2.1609713e-08 9.116354e-09 9.116354e-09 3.2041015e-08 1.2117413e-08 5.9246283e-09
2.5488397e-08 2.5488397e-08 8.338555e-08 1.7449155e-08 2.6555409e-08 4.56943e-07 4.56943e-07 5.2690365e-07
2.1818643e-07 8.55853e-08 9.791896e-08 9.791896e-08 8.405441e-08 7.233306e-08 2.2657407e-08 2.834476e-08
2.834476e-08 1.7304038e-07 5.318886e-08 3.6759793e-08 9.327721e-08 9.327721e-08 1.6584642e-07 2.1783147e-07
1.0893681e-07 2.0891194e-07 2.0891194e-07 1.8858354e-07 4.001414e-08 3.257646e-08 4.0503365e-09 4.0503365e-09
9.3038315e-09 5.0260005e-09 2.0474498e-09 1.3577598e-07 1.3577598e-07 2.0941746e-07 1.9189035e-07 7.872965e-08
9.5010016e-08 9.5010016e-08 3.7149732e-07 4.4768942e-07 2.7957054e-07 1.4527934e-08 1.4527934e-08 1.2810564e-08
5.166209e-09 3.85637e-09 1.0380531e-07 1.0380531e-07 3.6020148e-07 1.8941739e-07 8.6969024e-08 2.2278488e-08
00000000: ff1e e733 ff1e e733 13a0 8133 a007 4032
00000010: 83c3 3132 d2cb 0830 d2cb 0830 9db2 7731
00000020: e9c0 5b31 1aeb 0d31 63a2 dc30 63a2 dc30
00000030: 9a2f 2432 7ce1 8c31 3c51 1331 ab4f 7e33
00000040: ab4f 7e33 b83a 1334 8dfd 4234 95eb 5334
00000050: 6d73 7732 6d73 7732 9dc0 9d33 5fa7 3c33
00000060: f0ef 3733 07e1 ec33 07e1 ec33 72e5 4633
00000070: 148a 6533 2152 6b32 214c c833 214c c833
00000080: 21cb 2734 2204 1834 0aca 8233 69a7 4232
00000090: 69a7 4232 70d6 2433 445a 3333 76d0 2533
000000a0: 1dca 1033 1dca 1033 782f 6734 84a0 e933
000000b0: 0f35 a633 9aaa de34 9aaa de34 65b5 2535
000000c0: 1f36 0334 22cc 9434 ebc4 b233 ebc4 b233
000000d0: e4db 6034 687f 1434 d609 8333 4a62 0334
000000e0: 4a62 0334 9fd2 0e34 23c9 6334 5aca cb33
000000f0: a1b9 1333 a1b9 1333 301f bb32 3eea 1232
00000100: b10c 3032 0308 1031 0308 1031 142f ae31
00000110: 26eb e231 6d83 ec31 d0bd 8333 d0bd 8333
00000120: 6132 db33 f0f7 2033 75ea 3633 7255 d932
00000130: 7255 d932 91fc ff33 df64 8234 bf8e 5134
00000140: 37ae 1834 37ae 1834 4e51 4134 bec9 5b34
00000150: a646 9734 30e9 9f34 30e9 9f34 a27e 9f33
00000160: 3456 1833 07fb 0434 d4ec 1e32 d4ec 1e32
00000170: 0eeb 4831 e483 8d30 b87d 4131 783c 8233
00000180: 783c 8233 ba66 fe32 3bab 0a32 ab5f 3132
00000190: 9219 7632 9219 7632 71c7 9d32 f72b 0232
000001a0: e74e f331 b7db 3d33 b7db 3d33 83fc 8233
000001b0: ca7b 9c32 8bf1 1b33 4a80 de33 4a80 de33
000001c0: b63b 1535 86e9 d534 43c1 8634 d089 aa30
000001d0: d089 aa30 4a92 bb31 8ac8 1932 794b e931
000001e0: b23d ae33 b23d ae33 21d3 9b34 7c80 6234
000001f0: 71a2 eb33 555e d733 555e d733 53e9 0b34
00000200: 2e7b 9833 1f2b c633 cdbd af31 cdbd af31
00000210: 1fb6 0833 e3fe c632 0b2d b432 c57a 6634
00000220: c57a 6634 c4ba 0035 d04d 4834 5bfd af33
00000230: 9bbd 4d33 9bbd 4d33 9dd0 5533 1d3d b232
00000240: 5b90 9732 9dc8 a432 9dc8 a432 a0a7 bb32
00000250: 2f61 9632 fd1c c832 5d98 8a2f 5d98 8a2f
00000260: c523 5330 0292 892f d22c e62e ed52 9833
00000270: ed52 9833 21e1 7133 9624 0d33 27aa 5833
00000280: f7ef 3933 f7ef 3933 1590 cf33 0f2b fe32
00000290: 5881 8e32 d3bf 2c33 d3bf 2c33 0600 3534
000002a0: 5852 9b33 a147 0d33 370b 4f33 370b 4f33
000002b0: d05a ac33 b71b 9333 dfbb c833 29f9 6233
000002c0: 29f9 6233 ac2d a231 c154 e031 4b6c 1631
000002d0: 8252 f233 8252 f233 8518 5434 e79d 1c34
000002e0: ba3c 7733 7636 3931 7636 3931 2647 3232
000002f0: a221 b331 ad09 6231 83a1 2c32 83a1 2c32
00000300: 85e1 0b33 1140 c832 43a0 b932 269e 1c32
00000310: 269e 1c32 789d 0933 f22c 5032 9591 cb31
00000320: 94f1 da32 94f1 da32 b111 b333 19e3 9532
00000330: f61b e432 c551 f534 c551 f534 8b70 0d35
00000340: a146 6a34 04cb b733 8447 d233 8447 d233
00000350: 6781 b433 8555 9b33 2aa0 c232 c97a f332
00000360: c97a f332 facc 3934 c571 6433 d2e1 1d33
00000370: b04f c833 b04f c833 8413 3234 0fe5 6934
00000380: a5f0 e933 4751 6034 4751 6034 737d 4a34
00000390: 03dc 2b33 32ea 0b33 232b 8b31 232b 8b31
000003a0: afd6 1f32 2bb1 ac31 1eb3 0c31 d1c9 1134
000003b0: d1c9 1134 3cdc 6034 6b0a 4e34 1512 a933
000003c0: 4f08 cc33 4f08 cc33 3472 c734 f759 f034
000003d0: e217 9634 8896 7932 8896 7932 7515 5c32
000003e0: 7482 b131 fd80 8431 93eb de33 93eb de33
000003f0: b761 c134 a862 4b34 bac3 ba33 ea5e bf32

exp_avg f4 [256, 64]
0.0 0.0 0.0 0.0 0.0 0.0 0.0 0.0
0.0 0.0 0.0 0.0 0.0 0.0 0.0 0.0
0.0 0.0 0.0 0.0 0.0 0.0 0.0 0.0
0.0 0.0 0.0 0.0 0.0 0.0 0.0 0.0
0.0 0.0 0.0 0.0 0.0 0.0 0.0 0.0
0.0 0.0 0.0 0.0 0.0 0.0 0.0 0.0
0.0 0.0 0.0 0.0 0.0 0.0 0.0 0.0
0.0 0.0 0.0 0.0 0.0 0.0 0.0 0.0
0.0 0.0 0.0 0.0 0.0 0.0 0.0 0.0
0.0 0.0 0.0 0.0 0.0 0.0 0.0 0.0
0.0 0.0 0.0 0.0 0.0 0.0 0.0 0.0
0.0 0.0 0.0 0.0 0.0 0.0 0.0 0.0
0.0 0.0 0.0 0.0 0.0 0.0 0.0 0.0
0.0 0.0 0.0 0.0 0.0 0.0 0.0 0.0
0.0 0.0 0.0 0.0 0.0 0.0 0.0 0.0
0.0 0.0 0.0 0.0 0.0 0.0 0.0 0.0
0.0 0.0 0.0 0.0 0.0 0.0 0.0 0.0
0.0 0.0 0.0 0.0 0.0 0.0 0.0 0.0
0.0 0.0 0.0 0.0 0.0 0.0 0.0 0.0
0.0 0.0 0.0 0.0 0.0 0.0 0.0 0.0
0.0 0.0 0.0 0.0 0.0 0.0 0.0 0.0
0.0 0.0 0.0 0.0 0.0 0.0 0.0 0.0
0.0 0.0 0.0 0.0 0.0 0.0 0.0 0.0
0.0 0.0 0.0 0.0 0.0 0.0 0.0 0.0
0.0 0.0 0.0 0.0 0.0 0.0 0.0 0.0
0.0 0.0 0.0 0.0 0.0 0.0 0.0 0.0
0.0 0.0 0.0 0.0 0.0 0.0 0.0 0.0
0.0 0.0 0.0 0.0 0.0 0.0 0.0 0.0
0.0 0.0 0.0 0.0 0.0 0.0 0.0 0.0
0.0 0.0 0.0 0.0 0.0 0.0 0.0 0.0
0.0 0.0 0.0 0.0 0.0 0.0 0.0 0.0
0.0 0.0 0.0 0.0 0.0 0.0 0.0 0.0
00000000: 0000 0000 0000 0000 0000 0000 0000 0000
00000010: 0000 0000 0000 0000 0000 0000 0000 0000
00000020: 0000 0000 0000 0000 0000 0000 0000 0000
00000030: 0000 0000 0000 0000 0000 0000 0000 0000
00000040: 0000 0000 0000 0000 0000 0000 0000 0000
00000050: 0000 0000 0000 0000 0000 0000 0000 0000
00000060: 0000 0000 0000 0000 0000 0000 0000 0000
00000070: 0000 0000 0000 0000 0000 0000 0000 0000
00000080: 0000 0000 0000 0000 0000 0000 0000 0000
00000090: 0000 0000 0000 0000 0000 0000 0000 0000
000000a0: 0000 0000 0000 0000 0000 0000 0000 0000
000000b0: 0000 0000 0000 0000 0000 0000 0000 0000
000000c0: 0000 0000 0000 0000 0000 0000 0000 0000
000000d0: 0000 0000 0000 0000 0000 0000 0000 0000
000000e0: 0000 0000 0000 0000 0000 0000 0000 0000
000000f0: 0000 0000 0000 0000 0000 0000 0000 0000
00000100: 0000 0000 0000 0000 0000 0000 0000 0000
00000110: 0000 0000 0000 0000 0000 0000 0000 0000
00000120: 0000 0000 0000 0000 0000 0000 0000 0000
00000130: 0000 0000 0000 0000 0000 0000 0000 0000
00000140: 0000 0000 0000 0000 0000 0000 0000 0000
00000150: 0000 0000 0000 0000 0000 0000 0000 0000
00000160: 0000 0000 0000 0000 0000 0000 0000 0000
00000170: 0000 0000 0000 0000 0000 0000 0000 0000
00000180: 0000 0000 0000 0000 0000 0000 0000 0000
00000190: 0000 0000 0000 0000 0000 0000 0000 0000
000001a0: 0000 0000 0000 0000 0000 0000 0000 0000
000001b0: 0000 0000 0000 0000 0000 0000 0000 0000
000001c0: 0000 0000 0000 0000 0000 0000 0000 0000
000001d0: 0000 0000 0000 0000 0000 0000 0000 0000
000001e0: 0000 0000 0000 0000 0000 0000 0000 0000
000001f0: 0000 0000 0000 0000 0000 0000 0000 0000
00000200: 0000 0000 0000 0000 0000 0000 0000 0000
00000210: 0000 0000 0000 0000 0000 0000 0000 0000
00000220: 0000 0000 0000 0000 0000 0000 0000 0000
00000230: 0000 0000 0000 0000 0000 0000 0000 0000
00000240: 0000 0000 0000 0000 0000 0000 0000 0000
00000250: 0000 0000 0000 0000 0000 0000 0000 0000
00000260: 0000 0000 0000 0000 0000 0000 0000 0000
00000270: 0000 0000 0000 0000 0000 0000 0000 0000
00000280: 0000 0000 0000 0000 0000 0000 0000 0000
00000290: 0000 0000 0000 0000 0000 0000 0000 0000
000002a0: 0000 0000 0000 0000 0000 0000 0000 0000
000002b0: 0000 0000 0000 0000 0000 0000 0000 0000
000002c0: 0000 0000 0000 0000 0000 0000 0000 0000
000002d0: 0000 0000 0000 0000 0000 0000 0000 0000
000002e0: 0000 0000 0000 0000 0000 0000 0000 0000
000002f0: 0000 0000 0000 0000 0000 0000 0000 0000
00000300: 0000 0000 0000 0000 0000 0000 0000 0000
00000310: 0000 0000 0000 0000 0000 0000 0000 0000
00000320: 0000 0000 0000 0000 0000 0000 0000 0000
00000330: 0000 0000 0000 0000 0000 0000 0000 0000
00000340: 0000 0000 0000 0000 0000 0000 0000 0000
00000350: 0000 0000 0000 0000 0000 0000 0000 0000
00000360: 0000 0000 0000 0000 0000 0000 0000 0000
00000370: 0000 0000 0000 0000 0000 0000 0000 0000
00000380: 0000 0000 0000 0000 0000 0000 0000 0000
00000390: 0000 0000 0000 0000 0000 0000 0000 0000
000003a0: 0000 0000 0000 0000 0000 0000 0000 0000
000003b0: 0000 0000 0000 0000 0000 0000 0000 0000
000003c0: 0000 0000 0000 0000 0000 0000 0000 0000
000003d0: 0000 0000 0000 0000 0000 0000 0000 0000
000003e0: 0000 0000 0000 0000 0000 0000 0000 0000
000003f0: 0000 0000 0000 0000 0000 0000 0000 0000

exp_avg_sq f4 [256, 64]
0.0 0.0 0.0 0.0 0.0 0.0 0.0 0.0
0.0 0.0 0.0 0.0 0.0 0.0 0.0 0.0
0.0 0.0 0.0 0.0 0.0 0.0 0.0 0.0
0.0 0.0 0.0 0.0 0.0 0.0 0.0 0.0
0.0 0.0 0.0 0.0 0.0 0.0 0.0 0.0
0.0 0.0 0.0 0.0 0.0 0.0 0.0 0.0
0.0 0.0 0.0 0.0 0.0 0.0 0.0 0.0
0.0 0.0 0.0 0.0 0.0 0.0 0.0 0.0
0.0 0.0 0.0 0.0 0.0 0.0 0.0 0.0
0.0 0.0 0.0 0.0 0.0 0.0 0.0 0.0
0.0 0.0 0.0 0.0 0.0 0.0 0.0 0.0
0.0 0.0 0.0 0.0 0.0 0.0 0.0 0.0
0.0 0.0 0.0 0.0 0.0 0.0 0.0 0.0
0.0 0.0 0.0 0.0 0.0 0.0 0.0 0.0
0.0 0.0 0.0 0.0 0.0 0.0 0.0 0.0
0.0 0.0 0.0 0.0 0.0 0.0 0.0 0.0
0.0 0.0 0.0 0.0 0.0 0.0 0.0 0.0
0.0 0.0 0.0 0.0 0.0 0.0 0.0 0.0
0.0 0.0 0.0 0.0 0.0 0.0 0.0 0.0
0.0 0.0 0.0 0.0 0.0 0.0 0.0 0.0
0.0 0.0 0.0 0.0 0.0 0.0 0.0 0.0
0.0 0.0 0.0 0.0 0.0 0.0 0.0 0.0
0.0 0.0 0.0 0.0 0.0 0.0 0.0 0.0
0.0 0.0 0.0 0.0 0.0 0.0 0.0 0.0
0.0 0.0 0.0 0.0 0.0 0.0 0.0 0.0
0.0 0.0 0.0 0.0 0.0 0.0 0.0 0.0
0.0 0.0 0.0 0.0 0.0 0.0 0.0 0.0
0.0 0.0 0.0 0.0 0.0 0.0 0.0 0.0
0.0 0.0 0.0 0.0 0.0 0.0 0.0 0.0
0.0 0.0 0.0 0.0 0.0 0.0 0.0 0.0
0.0 0.0 0.0 0.0 0.0 0.0 0.0 0.0
0.0 0.0 0.0 0.0 0.0 0.0 0.0 0.0
00000000: 0000 0000 0000 0000 0000 0000 0000 0000
00000010: 0000 0000 0000 0000 0000 0000 0000 0000
00000020: 0000 0000 0000 0000 0000 0000 0000 0000
00000030: 0000 0000 0000 0000 0000 0000 0000 0000
00000040: 0000 0000 0000 0000 0000 0000 0000 0000
00000050: 0000 0000 0000 0000 0000 0000 0000 0000
00000060: 0000 0000 0000 0000 0000 0000 0000 0000
00000070: 0000 0000 0000 0000 0000 0000 0000 0000
00000080: 0000 0000 0000 0000 0000 0000 0000 0000
00000090: 0000 0000 0000 0000 0000 0000 0000 0000
000000a0: 0000 0000 0000 0000 0000 0000 0000 0000
000000b0: 0000 0000 0000 0000 0000 0000 0000 0000
000000c0: 0000 0000 0000 0000 0000 0000 0000 0000
000000d0: 0000 0000 0000 0000 0000 0000 0000 0000
000000e0: 0000 0000 0000 0000 0000 0000 0000 0000
000000f0: 0000 0000 0000 0000 0000 0000 0000 0000
00000100: 0000 0000 0000 0000 0000 0000 0000 0000
00000110: 0000 0000 0000 0000 0000 0000 0000 0000
00000120: 0000 0000 0000 0000 0000 0000 0000 0000
00000130: 0000 0000 0000 0000 0000 0000 0000 0000
00000140: 0000 0000 0000 0000 0000 0000 0000 0000
00000150: 0000 0000 0000 0000 0000 0000 0000 0000
00000160: 0000 0000 0000 0000 0000 0000 0000 0000
00000170: 0000 0000 0000 0000 0000 0000 0000 0000
00000180: 0000 0000 0000 0000 0000 0000 0000 0000
00000190: 0000 0000 0000 0000 0000 0000 0000 0000
000001a0: 0000 0000 0000 0000 0000 0000 0000 0000
000001b0: 0000 0000 0000 0000 0000 0000 0000 0000
000001c0: 0000 0000 0000 0000 0000 0000 0000 0000
000001d0: 0000 0000 0000 0000 0000 0000 0000 0000
000001e0: 0000 0000 0000 0000 0000 0000 0000 0000
000001f0: 0000 0000 0000 0000 0000 0000 0000 0000
00000200: 0000 0000 0000 0000 0000 0000 0000 0000
00000210: 0000 0000 0000 0000 0000 0000 0000 0000
00000220: 0000 0000 0000 0000 0000 0000 0000 0000
00000230: 0000 0000 0000 0000 0000 0000 0000 0000
00000240: 0000 0000 0000 0000 0000 0000 0000 0000
00000250: 0000 0000 0000 0000 0000 0000 0000 0000
00000260: 0000 0000 0000 0000 0000 0000 0000 0000
00000270: 0000 0000 0000 0000 0000 0000 0000 0000
00000280: 0000 0000 0000 0000 0000 0000 0000 0000
00000290: 0000 0000 0000 0000 0000 0000 0000 0000
000002a0: 0000 0000 0000 0000 0000 0000 0000 0000
000002b0: 0000 0000 0000 0000 0000 0000 0000 0000
000002c0: 0000 0000 0000 0000 0000 0000 0000 0000
000002d0: 0000 0000 0000 0000 0000 0000 0000 0000
000002e0: 0000 0000 0000 0000 0000 0000 0000 0000
000002f0: 0000 0000 0000 0000 0000 0000 0000 0000
00000300: 0000 0000 0000 0000 0000 0000 0000 0000
00000310: 0000 0000 0000 0000 0000 0000 0000 0000
00000320: 0000 0000 0000 0000 0000 0000 0000 0000
00000330: 0000 0000 0000 0000 0000 0000 0000 0000
00000340: 0000 0000 0000 0000 0000 0000 0000 0000
00000350: 0000 0000 0000 0000 0000 0000 0000 0000
00000360: 0000 0000 0000 0000 0000 0000 0000 0000
00000370: 0000 0000 0000 0000 0000 0000 0000 0000
00000380: 0000 0000 0000 0000 0000 0000 0000 0000
00000390: 0000 0000 0000 0000 0000 0000 0000 0000
000003a0: 0000 0000 0000 0000 0000 0000 0000 0000
000003b0: 0000 0000 0000 0000 0000 0000 0000 0000
000003c0: 0000 0000 0000 0000 0000 0000 0000 0000
000003d0: 0000 0000 0000 0000 0000 0000 0000 0000
000003e0: 0000 0000 0000 0000 0000 0000 0000 0000
000003f0: 0000 0000 0000 0000 0000 0000 0000 0000
