lightning_logs/version_23/checkpoints/epoch=4-step=130.ckpt (torch, 227860 bytes, 15 tensors)

lstm.weight_ih_l0 f4 [256, 5]
0	0xbdfc2ada	-0.12312861
1	0xbd93eb0e	-0.072225675
2	0xbd839d42	-0.06426479
3	0x3dd66312	0.10468115
4	0xbd7381a8	-0.05944982
5	0xbd9d5276	-0.07681744
6	0x3bee9d40	0.0072819293
7	0xbc68fe40	-0.014220774
8	0x3dc86ac2	0.097859874
9	0xbdba777a	-0.091048196
10	0xbdbd839a	-0.09253617
11	0x3cb36718	0.021899745
12	0x3d2a4054	0.041565254
13	0x3d3b9338	0.045794696
14	0xbcdaaad8	-0.026692793
15	0xbd14409c	-0.03619443
16	0x3c5f3880	0.0136243105
17	0xbc93a8f8	-0.018024907
18	0x3d95c462	0.07312848
19	0xbdcd1bb8	-0.100150526
20	0x3df38f9a	0.11892624
21	0x3dcb6d30	0.09932935
22	0xbc8f5330	-0.017495722
23	0x3daca87c	0.08430573
24	0xbde84cee	-0.11342798
25	0xbda3980c	-0.07987985
26	0xbce0d968	-0.027447417
27	0x3c784280	0.015152574
28	0x3d6d4b1c	0.057932958
29	0xbc955898	-0.018230721
30	0x3df1a5d2	0.11799206
31	0xbdc47ca0	-0.09594083
32	0xbcae24d0	-0.021257788
33	0xbde7a2a2	-0.113103166
34	0x3deaebb6	0.114707395
35	0xbbf456e0	-0.0074566454
36	0xbdec8068	-0.11547929
37	0x3d12ed1c	0.035870656
38	0xbc2b8c00	-0.01047039
39	0xbda36436	-0.07978098
40	0xbdcc8492	-0.09986223
41	0xbda54b6a	-0.08071025
42	0xbd0a2b18	-0.033732504
43	0x3cfd0fa0	0.03089124
44	0xbd256700	-0.04038143
45	0xbd644320	-0.055728078
46	0xbda28266	-0.07935028
47	0xbda49b68	-0.08037454
48	0x39d44e00	0.00040493906
49	0x3d47efe4	0.048812762
50	0xbdf4092a	-0.119158104
51	0xbdff4b5e	-0.12465547
52	0x3dfe2066	0.12408523
53	0xbdbf4a5e	-0.09340356
54	0x3dd2ee62	0.10299374
55	0x3cda3668	0.026637271
56	0xbd2f579c	-0.04280816
57	0x3dbec46a	0.09314807
58	0x3c224b40	0.009905636
59	0x3db68772	0.08912553
60	0x3d40f600	0.047109604
61	0xbd43f84c	-0.047844216
62	0xbd0577fc	-0.03258513
63	0xbdad4456	-0.084603
64	0x3dbdb2a2	0.09262587
65	0x3dda3cd6	0.10656135
66	0xbdc2e9a0	-0.09517217
67	0xbda8c9f8	-0.082416475
68	0xbdd51eba	-0.10406251
69	0x3da25760	0.07926822
70	0xbdbd9c40	-0.09258318
71	0x3d8c1598	0.06840056
72	0xbdec0de6	-0.115260884
73	0x3c7630b0	0.015026256
74	0x3c8202a8	0.015870407
75	0xbddbe9a4	-0.10737923
76	0xbb8f6f00	-0.004377246
77	0x3d072e74	0.033003286
78	0x3dd89a4a	0.10576303
79	0x3dc2405e	0.09484933
80	0x3dbf459c	0.09339449
81	0x3def2434	0.11676827
82	0x3d7f1ed8	0.062285274
83	0x3dcc7374	0.099829584
84	0x3d8d89fe	0.069110855
85	0xbdb29762	-0.0872028
86	0x3dfba566	0.122874066
87	0xbc1c70a0	-0.009548336
88	0x3d17c838	0.037056178
89	0xbdfa36da	-0.12217493
90	0x3ddabacc	0.1068016
91	0xbddeaa86	-0.108723685
92	0xbd667560	-0.05626428
93	0x3de2acc8	0.11068112
94	0xbdbca140	-0.092104435
95	0xbd21a950	-0.03946811
96	0xbac93a00	-0.0015352368
97	0x3d1b2ca0	0.037884355
98	0xbdc42878	-0.09578031
99	0xbdffdf5c	-0.12493774
100	0x3da7d2e8	0.08194524
101	0x3dc62bf0	0.09676349
102	0xbb57da80	-0.0032936633
103	0xbca08fe8	-0.01959987
104	0xbdd3eec6	-0.10348277
105	0x3c9acc68	0.018896297
106	0xbdc1c2f6	-0.09461014
107	0x3cc92e90	0.024558336
108	0x3df4b188	0.11947924
109	0x3d28fd48	0.041257173
110	0xbdc860f8	-0.0978412
111	0x3d91b7d4	0.071151406
112	0xbd9b688a	-0.075882986
113	0x3d91b462	0.071144834
114	0x3d56aaa8	0.052408844
115	0x3d2118e4	0.03933038
116	0xbdd2ba40	-0.102894306
117	0x3daf2e3e	0.08553742
118	0xbd822a70	-0.063557506
119	0xbda65088	-0.08120829
120	0x3dd74afa	0.105123475
121	0xbbc5b9a0	-0.006034091
122	0xbd94331c	-0.07236311
123	0xbb79cf40	-0.0038117915
124	0x3d790ee0	0.0608052
125	0x3da5fe42	0.081051365
126	0xbd581f14	-0.052764013
127	0x3ccfc6b8	0.025363311
128	0x3d18b8c8	0.037285596
129	0x3db95d74	0.09051028
130	0xbd9acb06	-0.07558255
131	0xbd8d6a94	-0.06905094
132	0xbdc9cdd2	-0.0985371
133	0xbdf68020	-0.12036157
134	0xbbd8f240	-0.0066206753
135	0x3d6f1bcc	0.05837612
136	0x3c28f3e0	0.010312051
137	0x3a0e2900	0.00054229796
138	0x39a38600	0.0003118962
139	0xbd901efa	-0.07037158
140	0x3cf290f0	0.029610127
141	0x3d3d52b8	0.046221465
142	0xbd067e08	-0.032835037
143	0xbde73774	-0.11289874
144	0x3dc16882	0.094437614
145	0x3d093c9c	0.033505067
146	0x3df6f326	0.12058096
147	0x3df22760	0.118239164
148	0x3d671240	0.05641389
149	0xbbcedda0	-0.006313041
150	0xbd3ee4bc	-0.046604857
151	0x3d30dec0	0.04318118
152	0x3d67667c	0.05649422
153	0xbdb247e0	-0.08705115
154	0xbb101ec0	-0.0021990985
155	0x3d2f6e2c	0.042829677
156	0x3dbfe698	0.09370154
157	0x3dfc6b66	0.12325172
158	0x3caac040	0.020843625
159	0x3de8c134	0.113649756
160	0xbd680574	-0.056645826
161	0xbcc2e838	-0.023792371
162	0xbc31ecc0	-0.010859668
163	0xbdce102c	-0.10061678
164	0x3d31cce8	0.043408304
165	0xbd0c8de4	-0.034315005
166	0x3d508418	0.050907224
167	0xbc4ff1a0	-0.012691885
168	0xbddec304	-0.1087704
169	0xbd424340	-0.047427416
170	0x3d8be8ac	0.06831488
171	0xbd3b6228	-0.045747906
172	0xbd34b278	-0.044115514
173	0x3db22bfe	0.08699797
174	0x3dfa3470	0.12217033
175	0x3ddeb2e2	0.10873963
176	0x3c994c88	0.01871325
177	0xbd1dc114	-0.03851421
178	0x3d3ca698	0.046057314
179	0xbc975c88	-0.01847674
180	0x3be3dd60	0.00695388
181	0x3d44ed48	0.04807785
182	0xbcd06e58	-0.025443241
183	0xbd8294b8	-0.06376022
184	0x3de5d174	0.11221591
185	0xbde925ec	-0.11384186
186	0x3dd9f750	0.10642874
187	0x3dd4483c	0.1036534
188	0x3ddd6b76	0.10811512
189	0x3dad38e0	0.08458114
190	0xbdf99e7a	-0.1218843
191	0xbc5bbf10	-0.013412252
192	0x3dd5182e	0.104050025
193	0x3dd6e886	0.10493569
194	0xbd1f2ef8	-0.038863152
195	0xbd386cfc	-0.04502581
196	0xbd808cd0	-0.06276858
197	0x3cf9ef10	0.030509502
198	0xbdaee770	-0.08540237
199	0x3db6df72	0.089293376
200	0xbd8e4f68	-0.06948739
201	0x3de09fec	0.10968003
202	0x3dd498bc	0.10380694
203	0xbd6d585c	-0.057945594
204	0x3df271fe	0.118381485
205	0xbc019d30	-0.007911012
206	0xbd05065c	-0.032476768
207	0x3d2248d0	0.03962022
208	0xbde7fa82	-0.113270774
209	0xbd69473c	-0.0569527
210	0xbde75a08	-0.11296469
211	0x3da750fe	0.08169745
212	0x3d4519c8	0.04812029
213	0xbd5e2878	-0.054237813
214	0xbd1cfe20	-0.03832829
215	0x3c525df0	0.012839779
216	0xbc29b150	-0.010357216
217	0x3bc4a560	0.0060011595
218	0xbd0d9610	-0.03456694
219	0xbdba9d6c	-0.09112057
220	0xbbf20e00	-0.007386923
221	0x3d9d6726	0.0768569
222	0xbc248860	-0.01004228
223	0x3d554ae8	0.05207339
224	0xbd86948e	-0.06571303
225	0xbda8e8d8	-0.082475364
226	0xbd26afb0	-0.040694892
227	0x3d3e6de4	0.04649152
228	0xbc8340c0	-0.016022086
229	0x3d62c104	0.055359855
230	0x3accd380	0.0015626997
231	0x3da689fc	0.08131787
232	0x3dda8e42	0.10671665
233	0xbd943e42	-0.07238437
234	0x3dfc7c68	0.12328416
235	0xbd948200	-0.07251358
236	0x3cd7b2b0	0.026330322
237	0xbd1fe2c0	-0.039034605
238	0xbdf9e7d6	-0.12202422
239	0xbdeb2504	-0.114816695
240	0x3d922782	0.07136442
241	0xbddd8e64	-0.108181745
242	0x3d9770b0	0.0739454
243	0xbc068510	-0.0082104355
244	0x3df10450	0.11768401
245	0xbd534970	-0.051583707
246	0xbdff1ee2	-0.12457062
247	0x39a74a00	0.00031907856
248	0xbdc9f324	-0.098608285
249	0x3dc3874a	0.09547289
250	0x3d927930	0.07152021
251	0xbd5c7604	-0.053823486
252	0xbdfb399a	-0.12266846
253	0x3ab9f500	0.0014187396
254	0xbdf9bbdc	-0.121940345
255	0xbdbec720	-0.09315324

lstm.weight_hh_l0 f4 [256, 64]
0	0x3dc8344a	0.09775598
1	0x3c6656c0	0.014058769
2	0x3ddf2ad6	0.10896842
3	0xbc862d88	-0.016379133
4	0x3dcd3c72	0.10021295
5	0xbdbe66be	-0.0929694
6	0xbc1c1760	-0.009527057
7	0x3dab2964	0.08357504
8	0xbd109890	-0.035301745
9	0x3c9e1d90	0.019301206
10	0x3c4d7300	0.012539625
11	0x3de5fd90	0.11230004
12	0x3d9bc792	0.076064244
13	0xbcd59890	-0.026073724
14	0xbdf01782	-0.11723234
15	0x3d437480	0.047718525
16	0x3d4dc090	0.05023247
17	0xbbb7cf20	-0.005609408
18	0xbdfbb15e	-0.122896895
19	0xbd5c4fb0	-0.053786933
20	0x3dd2a208	0.10284811
21	0xbdb9e5cc	-0.090770334
22	0xbd969714	-0.073530346
23	0xbd149e20	-0.036283612
24	0xbdb5df60	-0.08880496
25	0x3dc44932	0.095842734
26	0xbddc8bf4	-0.107688814
27	0x3db5f3ea	0.088844135
28	0xbdc553a6	-0.09635095
29	0xbd3b7730	-0.045767963
30	0x3dae7dd8	0.085200965
31	0xbc5f52c0	-0.013630569
32	0xbcd433f0	-0.025903672
33	0x3dad0e8a	0.08450039
34	0xbdfc5166	-0.12320213
35	0x3cd7e760	0.026355445
36	0xbdb77596	-0.089579746
37	0xbb9bc900	-0.0047541857
38	0x3d1d178c	0.038352534
39	0xbbce8dc0	-0.006303519
40	0xbd675724	-0.05647959
41	0xbbbfea80	-0.005856812
42	0x3bb8b7e0	0.005637154
43	0xbb414040	-0.002948776
44	0xbdc377e4	-0.09544352
45	0x3db7ce88	0.089749396
46	0xbcc51950	-0.024059922
47	0x3d929240	0.07156801
48	0xbb8cba40	-0.0042946637
49	0xbca74068	-0.020416453
50	0x3ddf5d56	0.10906474
51	0xbde8a1e4	-0.11359003
52	0xbd599680	-0.053122044
53	0x3c290fe0	0.010318726
54	0xbd8216f0	-0.06352031
55	0xbd879f6a	-0.06622203
56	0xbd4da1f4	-0.05020328
57	0xbbf1ce80	-0.007379353
58	0xbd12a5c8	-0.035802633
59	0x3cf48300	0.029847622
60	0x3dd3f4a2	0.103493944
61	0x3dc1effc	0.094696015
62	0x3df13ec2	0.11779548
63	0xbc5200e0	-0.012817591
64	0x3df0cf0c	0.11758241
65	0x3dd48396	0.103766605
66	0xbdcc48ac	-0.099747986
67	0xbc847588	-0.016169325
68	0xbddc7bdc	-0.10765812
69	0x3dde81d4	0.108646065
70	0xbdad53e6	-0.08463268
71	0xbd6fddb0	-0.058561027
72	0x3d82b23c	0.06381652
73	0x3d8baa7c	0.06819627
74	0xbd81eb28	-0.063436806
75	0xbdcc1bf2	-0.09966268
76	0x3db91432	0.09037055
77	0xbd5e3ed4	-0.054259136
78	0xbd885cb8	-0.0665831
79	0xbdf324ea	-0.11872275
80	0xbd9197cc	-0.07109031
81	0x3dc583c8	0.09644276
82	0x3c327c20	0.0108938515
83	0x3dc94aac	0.09828696
84	0xbc89bee0	-0.01681465
85	0x3dbdb264	0.09262541
86	0xbcb4d480	-0.022073984
87	0xbda5eb12	-0.08101477
88	0xbde89c14	-0.113578945
89	0x3d07c1f0	0.033143938
90	0xbcf36e78	-0.029715762
91	0x3df6cb1e	0.1205046
92	0xbcea40c0	-0.028595328
93	0xbb9541c0	-0.004554957
94	0x3db6be4a	0.089230135
95	0x3d71338c	0.05888705
96	0xbdd09bc4	-0.1018596
97	0xb89cd000	-7.477403e-05
98	0xbdc6e45a	-0.09711523
99	0x3dffaaa0	0.12483716
100	0x3d5bc718	0.053656667
101	0x3db40c1e	0.08791374
102	0xbd668e2c	-0.05628793
103	0x3d984b04	0.07436183
104	0xbdadfd50	-0.08495581
105	0x3dca3ba8	0.0987466
106	0xbd77d194	-0.060502604
107	0xbbb261e0	-0.0054437965
108	0xbd346b30	-0.044047534
109	0xbd85bad6	-0.06529777
110	0x3c5fbdd0	0.013656095
111	0x3d618288	0.055056125
112	0xbcdcf550	-0.026972443
113	0xbca79b58	-0.020459816
114	0xbdaf65d2	-0.085643426
115	0xbd651318	-0.055926412
116	0x3d78c418	0.060733885
117	0xbc36b490	-0.011151448
118	0xbdd881e2	-0.10571648
119	0x3d3e2a28	0.046426922
120	0xbcc8ed48	-0.024527207
121	0xbd769e84	-0.060209766
122	0xbd8fb81c	-0.07017538
123	0x3dbef474	0.093239695
124	0x3de07416	0.10959642
125	0x3d4da49c	0.05020581
126	0xbd259934	-0.04042931
127	0x3dcc69a6	0.09981088
128	0x3db90dc8	0.09035832
129	0x3d71a1e8	0.058992296
130	0x3d3db038	0.046310633
131	0x3df22e00	0.1182518
132	0x3b647100	0.0034857392
133	0xbdb1682a	-0.08662446
134	0x3c503de0	0.012710065
135	0xbb80d2e0	-0.0039313883
136	0x3cd130c0	0.025535941
137	0xbddb9732	-0.107221976
138	0xbdd14d1a	-0.10219784
139	0x3dcbb778	0.09947103
140	0x3d9e10be	0.07718037
141	0x3d669bdc	0.056300983
142	0xbdc8bb66	-0.098013684
143	0x3d049428	0.032367855
144	0xbd212e64	-0.039350882
145	0x3d82258c	0.06354818
146	0xbd6e9fb4	-0.058257774
147	0xbd8e6da2	-0.069545045
148	0x3cd14c80	0.025549173
149	0x3c216250	0.0098501
150	0x3c964938	0.01834546
151	0x3c9cbf80	0.019134283
152	0xbdb2c82c	-0.08729586
153	0x3cdc5f50	0.026900917
154	0xbd86f446	-0.0658956
155	0xbdc6de3c	-0.097103566
156	0xbc9ff878	-0.019527659
157	0x3c331000	0.010929108
158	0x3df2474c	0.11830005
159	0xbbd6a280	-0.006550133
160	0x3de9043a	0.11377759
161	0xbdc4acd0	-0.09603274
162	0xbd251840	-0.04030633
163	0x3d961dbe	0.073298916
164	0x3c4699d0	0.012121633
165	0xbd2c1248	-0.04200962
166	0x3de02ee4	0.10946444
167	0x3d90c130	0.070680976
168	0xbdd6b1fc	-0.104831666
169	0xbd6195a0	-0.055074334
170	0xbde5e5ca	-0.112254694
171	0x3d83c880	0.06434727
172	0x3dc29b46	0.09502272
173	0xbdf34738	-0.11878818
174	0x3df72038	0.12066692
175	0x3da8c932	0.082415
176	0x3d9fd38e	0.07804023
177	0x3c187ac0	0.00930661
178	0xbdf1f614	-0.11814514
179	0x3db11c8e	0.086480245
180	0x3bd843e0	0.006599888
181	0x3da0c2de	0.07849668
182	0x3de3d7ce	0.11125146
183	0xbd1eaa34	-0.038736537
184	0x3d693a88	0.056940585
185	0x3d064bf4	0.03278728
186	0x3da0af8a	0.078459814
187	0x3cb9c740	0.022678018
188	0x3cf9a220	0.030472815
189	0xbca98618	-0.020693824
190	0xbda7d220	-0.08194375
191	0xbd1154e4	-0.03548135
192	0x3aef3380	0.0018249601
193	0xbd7d6b38	-0.06186983
194	0x3dd2a138	0.10284656
195	0xbdb100bc	-0.08642718
196	0xbd1f3b3c	-0.03887485
197	0xbdfcde0e	-0.12347041
198	0xbdb637d6	-0.088973686
199	0x3d52b0cc	0.051438138
200	0x3d239644	0.039938226
201	0xbd9515f8	-0.07279581
202	0x3db32e5c	0.08749077
203	0xbd89e674	-0.067334086
204	0x3dc7befe	0.09753226
205	0xbdf9762c	-0.121807426
206	0x3dea8bf6	0.11452477
207	0x3d2af228	0.041734844
208	0xbc59b210	-0.013287082
209	0x3dccf1cc	0.100070566
210	0xbdcbcf1e	-0.09951614
211	0x3d064798	0.03278312
212	0x3df39086	0.118928
213	0x3cfceb60	0.030873954
214	0x3d92dba8	0.07170802
215	0xbd5154ac	-0.05110614
216	0x3d8ff26c	0.0702866
217	0xbdec25ca	-0.11530645
218	0xbc698010	-0.014251724
219	0x3dfcb0d6	0.12338416
220	0xbd873562	-0.06601979
221	0xbcf62398	-0.03004627
222	0xbda2f608	-0.07957083
223	0x3dfa319c	0.122164935
224	0x3ccfd350	0.025369316
225	0xbb16cdc0	-0.002301082
226	0xbde9afda	-0.11410494
227	0xbdb99c4e	-0.09063016
228	0xbc62d2c0	-0.013844192
229	0x3ddab48c	0.10678968
230	0xbd909f50	-0.070616364
231	0x3decd8b2	0.11564769
232	0xbcbe5e10	-0.023238212
233	0xbc4499b0	-0.011999533
234	0x3d22bc80	0.03973055
235	0x3dc37060	0.09542918
236	0xbcbd0f28	-0.023078516
237	0x3de1885c	0.110123366
238	0x3d12b668	0.035818487
239	0xbcee5ff0	-0.029098481
240	0x3d822afc	0.06355855
241	0xbd2eff78	-0.042724103
242	0xba4efb00	-0.0007895678
243	0x3c07cb50	0.00828822
244	0x3d76b678	0.06023261
245	0xbdbbd008	-0.09170538
246	0xbdbeb4ac	-0.09311804
247	0xbc3a7690	-0.011380807
248	0x3def69b6	0.11690085
249	0x3d0168d0	0.031594098
250	0xbde739e6	-0.1129034
251	0x3cecb230	0.02889356
252	0x3de59736	0.11210482
253	0x3d76f588	0.06029275
254	0x3dd03f76	0.10168354
255	0xbd8cf8b2	-0.06883372

lstm.bias_ih_l0 f4 [256]
0	0x3cde8980	0.027165174
1	0x3c0e01e0	0.008667439
2	0xbd5657a8	-0.05232969
3	0xbccf9940	-0.02534163
4	0xbc994920	-0.018711627
5	0xbdc1f2fc	-0.09470174
6	0x3d1199e0	0.035547137
7	0xbde90862	-0.11378552
8	0xbd9f506e	-0.077790126
9	0xbd474b28	-0.04865566
10	0xbd50a930	-0.0509426
11	0x3de8cc9a	0.1136715
12	0x3df78234	0.12085381
13	0x3dbbd3f4	0.09171286
14	0xbdbcfc1e	-0.09227775
15	0x3bb5af40	0.005544573
16	0xbdbaade4	-0.09115198
17	0x3dc2120e	0.094761
18	0x3d1feba8	0.0390431
19	0x3db8edb0	0.0902971
20	0xbdd20624	-0.102550775
21	0xbd7cf514	-0.061757162
22	0x3d4bfa34	0.04979916
23	0x3dc1c482	0.09461309
24	0x3da89070	0.08230674
25	0xbdd56828	-0.10420257
26	0x3d9ec00c	0.07751474
27	0x3c369af0	0.011145338
28	0xbd7b2974	-0.06131883
29	0x3d26b3d8	0.040698856
30	0x3da662da	0.08124323
31	0xbcf73530	-0.030176729
32	0xbdb40986	-0.08790879
33	0xbdd875ec	-0.10569367
34	0x3de2b046	0.11068778
35	0xbdb5f948	-0.08885437
36	0xbca04ab8	-0.019566879
37	0xbdb4a1d6	-0.0881993
38	0x3c8e3570	0.017359465
39	0xbcf4eb20	-0.029897273
40	0x3df45ade	0.11931394
41	0x3cc56d50	0.024099976
42	0x3c2816c0	0.01025933
43	0x3dff4e0a	0.12466057
44	0x3d8bb532	0.0682167
45	0xbd7bf674	-0.061514333
46	0x3d8b4aea	0.06801398
47	0xbd0a5274	-0.03377004
48	0xbb8f8280	-0.0043795705
49	0xbb12bb40	-0.0022389442
50	0xbcd8f858	-0.026485607
51	0xbd941ec6	-0.07232432
52	0xbd2ae14c	-0.041718766
53	0x3d12f024	0.035873547
54	0x3dceb0e0	0.1009233
55	0x3d4ae920	0.04953873
56	0x3df4fc28	0.119621575
57	0x3d203a3c	0.039118037
58	0xbd8270c8	-0.063691676
59	0xbc547d90	-0.01296939
60	0x3b9d0c40	0.00479272
61	0x3bf453c0	0.007456273
62	0x3d593724	0.0530311
63	0x3d6f2ca8	0.058392197
64	0x3b8343a0	0.0040058643
65	0xbbb02480	-0.005375445
66	0x3de5755e	0.11204027
67	0x3db0cb36	0.086325094
68	0x3d83c654	0.064343125
69	0xbbe74ce0	-0.0070587248
70	0x3dded46e	0.108803615
71	0x3da9b6f6	0.0828685
72	0xbdc21ca4	-0.09478119
73	0x3dae02fa	0.084966615
74	0x3dcae1e6	0.09906368
75	0x3dc87a2c	0.097889274
76	0xbddea626	-0.10871534
77	0x3cb99bc8	0.02265729
78	0x3d735e54	0.05941613
79	0xbc928950	-0.017887741
80	0xbd90a7be	-0.07063244
81	0xbd765874	-0.06014295
82	0xbd938062	-0.072022215
83	0x3dd9e6fc	0.1063976
84	0x3dd5a16c	0.104311794
85	0xbd1a8278	-0.03772208
86	0xbd09fe9c	-0.03369008
87	0xbc140b90	-0.00903596
88	0x3b1dfc00	0.0024106503
89	0x3de8f0c0	0.113740444
90	0xbdfeba04	-0.124378234
91	0xbd3d6908	-0.046242744
92	0x3d2c8830	0.042122066
93	0xbdcf889a	-0.101334766
94	0xbd9aef42	-0.07565166
95	0x3ca5dd50	0.020247132
96	0x3d7b1028	0.061294705
97	0xbdc39460	-0.09549785
98	0x3d8d6706	0.06904416
99	0xbdd66f3c	-0.10470435
100	0x3d44de18	0.048063368
101	0x3b2b7d80	0.0026167333
102	0xbda4be02	-0.080440536
103	0x3de14e74	0.11001292
104	0xbc876b28	-0.016530588
105	0xbd1b7bec	-0.037959978
106	0xbdbf1afa	-0.09331317
107	0x3ded9822	0.11601283
108	0x3ce24ec8	0.027625456
109	0x3cd011d0	0.025399119
110	0xbdc57d24	-0.09643009
111	0x3c9cb020	0.019126952
112	0x3c363440	0.011120856
113	0xbd9a424a	-0.07532175
114	0x3c1f4a30	0.0097222775
115	0xbdc3ba24	-0.09556988
116	0x3dfa0faa	0.12210019
117	0x3d44e758	0.04807219
118	0x3d5498c8	0.051903516
119	0x3d120dd8	0.035657734
120	0x3da2f532	0.079569235
121	0xbd1aecfc	-0.037823662
122	0x3d996dda	0.07491656
123	0xbdd104cc	-0.10205993
124	0x3ae18000	0.0017204285
125	0x3c791a60	0.015204042
126	0xbbc45060	-0.0059910268
127	0xbc3d2f50	-0.011546925
128	0xbd7a2450	-0.061069787
129	0x3d9033a8	0.07041103
130	0xbc5f4c80	-0.013629079
131	0x3c9faa80	0.01949048
132	0xbdbeda66	-0.09319
133	0xbc259760	-0.010106891
134	0xbda9ab22	-0.08284594
135	0x3da39322	0.07987048
136	0x3d252470	0.040317953
137	0x3cf86f90	0.030326635
138	0xbddd4f94	-0.10806194
139	0xbd95a8a6	-0.07307558
140	0xbd1c9090	-0.038223803
141	0x3d84ad82	0.064784065
142	0xbd7d6028	-0.06185928
143	0xbd330768	-0.043708235
144	0xbd35117c	-0.044206128
145	0xbdc4592a	-0.09587319
146	0x3b6d6c00	0.0036227703
147	0xbd702d1c	-0.05863677
148	0xbdd24e84	-0.10268882
149	0x3b9b9560	0.0047480315
150	0xbdd09a9c	-0.101857394
151	0x3ddfd47c	0.109292
152	0xbdb84702	-0.08997919
153	0x3daa833e	0.08325814
154	0x3da54a30	0.08070791
155	0x3cd71798	0.026256368
156	0xbd83bb36	-0.06432192
157	0x3be36800	0.006939888
158	0x3de1003e	0.10986374
159	0xbd9b264a	-0.075756624
160	0x3dbc73c0	0.09201765
161	0xbda68c70	-0.08132255
162	0x3daf1bfe	0.08550261
163	0xbc80daa0	-0.015729249
164	0xbc73cec0	-0.014880836
165	0xbc4feab0	-0.012690231
166	0x3dda3506	0.10654645
167	0xbd67fb48	-0.056636125
168	0xbce6c278	-0.028168902
169	0xbdf6584c	-0.1202856
170	0xbcf8e8c0	-0.030384421
171	0xbd6f8000	-0.05847168
172	0xbdc55f7a	-0.09637351
173	0xbd78a1d4	-0.060701206
174	0xbd9e99b8	-0.07744163
175	0x3d256f68	0.04038945
176	0x3d230130	0.039796054
177	0x3d93c230	0.07214773
178	0x3d8ee658	0.06977528
179	0x3cf19c80	0.02949357
180	0xbd9cd594	-0.07657924
181	0xbdd2b286	-0.10287957
182	0xbdfd1bb6	-0.12358801
183	0x3de055ae	0.10953842
184	0x3dc7e220	0.09759927
185	0x3d0e7e24	0.034788266
186	0xbda3d3e6	-0.07999401
187	0x3d45efcc	0.04832439
188	0x3c9eff88	0.019408956
189	0x3db8bfae	0.09020935
190	0x3bb4eba0	0.0055212528
191	0xbdb5a726	-0.08869772
192	0x3dcd2768	0.10017282
193	0xbd997d82	-0.07494642
194	0xbdb787c4	-0.08961442
195	0xbd68b7c4	-0.056815878
196	0x3d14b2fc	0.036303505
197	0xbdd8758c	-0.10569295
198	0x3db41d80	0.08794689
199	0x3d09d7dc	0.033653125
200	0xbda8efb8	-0.08248848
201	0xbd7eeb24	-0.062235966
202	0xbdf37438	-0.11887401
203	0x3c2d4e50	0.010577753
204	0xbdb19808	-0.08671576
205	0x3cd53e28	0.026030615
206	0x3ded4f9a	0.115874484
207	0x3d521ca0	0.05129683
208	0x3c7e06b0	0.015504524
209	0x3cd10d10	0.025518924
210	0x3dc80ca6	0.097680375
211	0xbcdffc18	-0.027341887
212	0xbd373804	-0.044731155
213	0x3da09c62	0.07842328
214	0xbdce580c	-0.10075387
215	0xbdbb69a6	-0.0915101
216	0x3d8e4dbe	0.06948422
217	0xbd7806f8	-0.06055352
218	0x3dcdd8e2	0.10051133
219	0xbdb3db66	-0.08782081
220	0xbdbf0036	-0.09326212
221	0xbd3cf998	-0.04613647
222	0x3d64ae08	0.05583003
223	0x3dbbb8ae	0.09166084
224	0xbba7c760	-0.005120203
225	0xbd9c1ede	-0.07623075
226	0xbbca6100	-0.006176114
227	0x3d8592a8	0.06522113
228	0xbdc7a96e	-0.09749113
229	0xbc20ff40	-0.009826481
230	0x3d3e72b8	0.046496123
231	0x3b991180	0.0046712756
232	0x3db642fe	0.088994965
233	0x3ca0bd48	0.019621506
234	0xbd2bd0c4	-0.04194714
235	0x3db41948	0.087938845
236	0xbdbfd4b4	-0.09366742
237	0xbd5414fc	-0.051777825
238	0xbcd2e4e0	-0.025743902
239	0xbce58a38	-0.02802001
240	0xbcb1ef18	-0.021720454
241	0xbc19d2f0	-0.00938867
242	0x3da558b4	0.080735594
243	0x3db598f4	0.08867064
244	0x3d017ea8	0.03161493
245	0xbd249f3c	-0.04019092
246	0xbdb35c3a	-0.08757825
247	0xbdebe70c	-0.11518678
248	0x3da44a42	0.08021976
249	0x3d18ea74	0.037332967
250	0xbd959b44	-0.07305005
251	0xbd7b5940	-0.061364412
252	0xbd6396fc	-0.05556391
253	0x3dea65ea	0.1144522
254	0xbb471fc0	-0.0030383915
255	0x3d3087cc	0.043098256

lstm.bias_hh_l0 f4 [256]
0	0x3d8d635a	0.069037154
1	0x3df34b80	0.11879635
2	0xbc57af50	-0.013164356
3	0x3d3b811c	0.045777425
4	0xbde266de	-0.110547766
5	0x3df6fe5c	0.12060234
6	0xbdb76440	-0.08954668
7	0x3dbeeb9e	0.09322284
8	0xbc2a99b0	-0.0104126185
9	0x3dcc0d60	0.099634886
10	0x3dfbeaee	0.12300669
11	0xbd451ac4	-0.04812123
12	0x3cab4398	0.020906255
13	0xbc357890	-0.011076108
14	0xbd80bd54	-0.062861115
15	0xbcdbadb8	-0.026816234
16	0xbdec9e94	-0.11553684
17	0x3d4d0a3c	0.05005859
18	0x3da638da	0.08116312
19	0x3d5df4b4	0.054188445
20	0xbcd28cc0	-0.02570188
21	0xbd725c98	-0.059170336
22	0xbdcb47d0	-0.099258065
23	0x3d5fa8a8	0.054604203
24	0x3d294c1c	0.04133235
25	0xbcdab520	-0.026697695
26	0x3d6e21a0	0.058137536
27	0x3c913e78	0.017729983
28	0xbce1fbd0	-0.027585894
29	0x3dfff278	0.12497419
30	0x3dd13652	0.10215439
31	0x3dbb5154	0.091463715
32	0xbd7ce34c	-0.061740205
33	0xbdaef486	-0.08542733
34	0x3cf2df00	0.02964735
35	0x3df268f2	0.11836423
36	0x3ddd75c8	0.108134806
37	0xbdbd788c	-0.09251508
38	0xbd93b39c	-0.07211992
39	0x3d85f444	0.065407306
40	0xbd9680ea	-0.07348807
41	0xbd39a1d0	-0.045320332
42	0x3d06a178	0.032868832
43	0xbda88b1a	-0.082296565
44	0x3da11d4e	0.078669176
45	0xbdb86f2a	-0.09005578
46	0xbdf8b74c	-0.12144336
47	0xbdaefb82	-0.08544065
48	0xbdf8ef32	-0.12154998
49	0x3d79de08	0.06100276
50	0xbd469848	-0.04848507
51	0xbdabde96	-0.08392064
52	0x3d9a182a	0.0752414
53	0xbdd4c0d2	-0.1038834
54	0x3d1905bc	0.037358984
55	0x3cab2b78	0.020894751
56	0xbdc3dd66	-0.09563713
57	0xbdb32fb6	-0.087493345
58	0x3d226668	0.039648443
59	0xbdc86cfe	-0.097864136
60	0x3c8e77c0	0.017391086
61	0x3dce8940	0.10084772
62	0x3d02b200	0.031908035
63	0xbd4ce7a8	-0.050025612
64	0xbcd90680	-0.026492357
65	0x3d0f8924	0.035042897
66	0x3d918a00	0.071063995
67	0x3dfed7e2	0.1244352
68	0x3df9bd90	0.12194359
69	0xbda317cc	-0.07963523
70	0x3dbbb772	0.09165849
71	0x3d8139fc	0.06309888
72	0xbda578a2	-0.080796495
73	0xbc87ffb8	-0.016601428
74	0x3d1b14e0	0.037861705
75	0x3cc64968	0.024204925
76	0xbd8db826	-0.06919889
77	0x3d1f2828	0.038856655
78	0xbded48ca	-0.11586149
79	0x3d7b5760	0.061362624
80	0x3dc7cb7e	0.0975561
81	0x3be96360	0.007122442
82	0x3c90faf8	0.017697796
83	0x3a50be00	0.00079628825
84	0xbca57f90	-0.020202428
85	0xbb401c40	-0.0029313713
86	0xbd8a1b50	-0.06743491
87	0xbd82092e	-0.06349407
88	0x3dfd8afe	0.12380026
89	0xbded0310	-0.1157285
90	0xbdbf06c8	-0.09327465
91	0xbd8087d4	-0.06275907
92	0x3bb5a700	0.0055435896
93	0x3dfc431e	0.12317489
94	0x3bc1e2e0	0.005916938
95	0xbd4309f8	-0.04761693
96	0x3ca66ad0	0.020314604
97	0x3d88f8ac	0.066880554
98	0xbd732bf0	-0.059368074
99	0xbd5322fc	-0.051547036
100	0xbd9a4cec	-0.07534203
101	0x3df078fe	0.117418274
102	0xbc8df1e8	-0.017327264
103	0x3debdaae	0.11516319
104	0xbcc7b6c8	-0.02437915
105	0xbdde45b4	-0.108531386
106	0x3d556448	0.05209759
107	0xbcae9bd0	-0.021314532
108	0xbdf4b636	-0.119488165
109	0x3dc94c14	0.09828964
110	0xbde98b7c	-0.11403558
111	0xbd3f2ba4	-0.04667248
112	0xbdbf0612	-0.0932733
113	0x3df1934c	0.11795673
114	0x3db22358	0.086981475
115	0x3c968178	0.018372282
116	0xb9eac800	-0.0004478097
117	0x3d8ed9ac	0.06975111
118	0x3d55a304	0.052157417
119	0x3cb844b8	0.022493705
120	0xbd8b3d8a	-0.06798847
121	0x3cb95c28	0.022626951
122	0x3bef9280	0.0073111653
123	0xbdc14d30	-0.094385505
124	0xbd96c5f6	-0.07361977
125	0xbd531130	-0.051530063
126	0x3dbcb528	0.0921424
127	0x3dcd3658	0.10020131
128	0x3de7409e	0.112916216
129	0xbddba622	-0.10725047
130	0x3c49e2a0	0.012322098
131	0xbd5c9d3c	-0.053860888
132	0xbd95f044	-0.07321218
133	0xbdf93400	-0.12168121
134	0x3db14a60	0.08656764
135	0x3dab01a4	0.08349922
136	0xbcf6bd90	-0.030119687
137	0xbcd5d6c0	-0.026103377
138	0xbd4d3140	-0.050095797
139	0x3dadd636	0.08488123
140	0x3dd03612	0.10166563
141	0x3d8d0c7c	0.06887147
142	0xbce43860	-0.027858913
143	0x3dcb555e	0.09928392
144	0x3d8af31c	0.06784651
145	0xbde1f1b4	-0.11032429
146	0x3db6fd76	0.089350626
147	0xbde7cf82	-0.11318876
148	0xbd17986c	-0.037010595
149	0xbc86cd00	-0.016455173
150	0xbd9ffd14	-0.07811943
151	0x3d96d686	0.07365136
152	0x3d9b48ea	0.07582267
153	0xbd943730	-0.07237089
154	0xbd835516	-0.06412713
155	0xbd04322c	-0.03227441
156	0xbdc7cc96	-0.097558185
157	0xbde8bc38	-0.11364025
158	0xbdd3d334	-0.10343018
159	0xbdb749d8	-0.089496315
160	0x3daf4584	0.08558181
161	0xbd5aae1c	-0.0533887
162	0x3de1b108	0.11020094
163	0x3dbd99d6	0.092578575
164	0xbd93638e	-0.07196723
165	0x3bcbca20	0.0062191635
166	0x3ded0146	0.115725085
167	0x3db99d4c	0.09063205
168	0xbd6258a0	-0.0552603
169	0x3c91d770	0.017802924
170	0x3d8e6062	0.06951977
171	0x3d8ad8f6	0.06779663
172	0xbd3ac998	-0.04560241
173	0xbdbd744a	-0.09250696
174	0x3dca9bfa	0.098930314
175	0xbd8cfb96	-0.06883924
176	0x3d8a2dd2	0.06747021
177	0xbd02b88c	-0.03191428
178	0xbd976f94	-0.07394329
179	0x3dc5acdc	0.09652111
180	0xbddc5620	-0.107586145
181	0x3d9a3fb4	0.07531682
182	0xbcda38a0	-0.026638329
183	0xbc9272a8	-0.017876938
184	0xbcb06c18	-0.021535918
185	0x3d1d2258	0.03836283
186	0x3cad8490	0.021181375
187	0xbd2a332c	-0.041552708
188	0x3c173cf0	0.009230837
189	0x3d8b3bd2	0.06798519
190	0x3c01e8b0	0.007929012
191	0x3cf1c4c0	0.029512763
192	0xbdddbf6a	-0.10827525
193	0x3d39c02c	0.045349285
194	0xbcc77248	-0.024346486
195	0xbd96b278	-0.07358259
196	0xbd286c24	-0.041118756
197	0x3db265e4	0.0871084
198	0x3d0cb958	0.034356445
199	0xbda29f44	-0.07940534
200	0xbbd58260	-0.006515786
201	0x3c9e0808	0.019290939
202	0x3c7dfb00	0.015501738
203	0x3d25b528	0.040455967
204	0x3c8a0268	0.01684685
205	0xbd695804	-0.056968704
206	0xbde2067a	-0.110363916
207	0xbd929180	-0.07156658
208	0xbd625cac	-0.05526416
209	0x3dc78c96	0.097436115
210	0x3db5a206	0.08868794
211	0x3ce4d9f0	0.027935952
212	0xbde96686	-0.11396508
213	0x3d497d8c	0.049191996
214	0x3d41e220	0.04733479
215	0x3d3c88b4	0.046028808
216	0x3dbd5898	0.092454135
217	0xbd8da74e	-0.069166765
218	0x3da54a56	0.08070819
219	0x3df1c7f8	0.11805719
220	0x3defcc66	0.11708908
221	0xbda74e20	-0.08169198
222	0xbd8360e0	-0.06414962
223	0xbdf3dfb0	-0.119078994
224	0xbdc5a9fe	-0.09651564
225	0xbd92965e	-0.071575865
226	0x3b3e7ac0	0.0029064864
227	0xbcdcef00	-0.026969433
228	0x3cdf8508	0.027285114
229	0xbda63424	-0.08115414
230	0x3df65232	0.12027396
231	0x3dbfb1ea	0.09360106
232	0x3cc3e470	0.023912638
233	0x3ca6bae0	0.02035278
234	0xbc7d0e80	-0.015445352
235	0x3c69ecc0	0.014277637
236	0x3d8eb3b6	0.06967871
237	0x3be30a60	0.006928727
238	0x3d32ec50	0.043682396
239	0xbdd6ed1a	-0.10494442
240	0xbdd59df8	-0.10430521
241	0x3d2d0484	0.042240635
242	0xbd173670	-0.03691715
243	0xbdd784f6	-0.10523407
244	0xbde154c8	-0.11002499
245	0x3dc3b564	0.09556082
246	0xbc705560	-0.0146687925
247	0x3c325dc0	0.01088661
248	0x3dd6cffc	0.104888886
249	0x3d637850	0.05553466
250	0x3d789e54	0.06069787
251	0x3ded1dc2	0.115779415
252	0xbd993918	-0.07481593
253	0xbd9c03b6	-0.07617895
254	0x3d0b4e04	0.03400995
255	0xbc020940	-0.007936776

fc.weight f4 [1, 64]
0	0x3d0dde04	0.03463556
1	0x3b4fa6b2	0.0031685052
2	0x3b22889f	0.002480067
3	0x3cf3a831	0.029743286
4	0xbda35656	-0.07975452
5	0xbd675fe4	-0.056487933
6	0x3d627cc4	0.055294767
7	0xbcce496c	-0.025181495
8	0xbbd03658	-0.0063541345
9	0xbdaa9b72	-0.0833043
10	0x3c7d26c5	0.015451138
11	0x3d067730	0.03282851
12	0x3dfe4fd2	0.12417568
13	0x3a344400	0.0006876588
14	0x3d5e49d0	0.05426961
15	0x3d4ed3f5	0.050495107
16	0xbd134e97	-0.03596362
17	0x3c53d900	0.012930155
18	0x3dc56a56	0.096394226
19	0xbdb12f3c	-0.08651587
20	0xbc5c1350	-0.013432339
21	0x3cdc6c18	0.026907012
22	0x3d838be3	0.06423166
23	0x3df2fcba	0.1186461
24	0x3d47e16c	0.048798963
25	0x3daab682	0.08335592
26	0xbdf38938	-0.11891407
27	0xbca2c503	-0.019869333
28	0x3d8519e6	0.0649908
29	0xbdbff3d0	-0.093726754
30	0x3df4bca8	0.11950046
31	0x3d3c9e44	0.04604937
32	0xbdd942d4	-0.106084496
33	0x3ddf1776	0.10893147
34	0xbd0d31e6	-0.034471415
35	0xbc3fa030	-0.0116959065
36	0xbdd9b9d0	-0.10631144
37	0x3cdbbbf8	0.026823029
38	0xbe16a5bd	-0.14711662
39	0xbc2b13b0	-0.010441706
40	0x3d4dd81c	0.050254926
41	0x3df77a18	0.120838344
42	0xbd7dd1b0	-0.06196755
43	0xbdc9fa7c	-0.09862229
44	0xbd6ff2b8	-0.058581084
45	0xbe0d2c83	-0.13786511
46	0xbd931b6c	-0.07182965
47	0x3dc53cec	0.096307606
48	0xbc630314	-0.013855714
49	0xbd39b9a0	-0.04534304
50	0xbd905526	-0.07047491
51	0x3dc9a4e2	0.09845902
52	0x3db21cf6	0.0869693
53	0xbd916ddb	-0.071010314
54	0xbdca8d0a	-0.09890182
55	0xbe005f92	-0.12536457
56	0xbd252124	-0.04031481
57	0xbd6dfb7c	-0.058101162
58	0x3cb779a8	0.022396877
59	0x3d60f720	0.054923177
60	0xbddffc94	-0.10936847
61	0xbc9c2c98	-0.019064233
62	0xbcd5d257	-0.026101274
63	0x3de48324	0.111578256

exp_avg f4 [256, 5]
0	0x00000000	0.0
1	0x00000000	0.0
2	0x00000000	0.0
3	0x00000000	0.0
4	0x00000000	0.0
5	0x00000000	0.0
6	0x00000000	0.0
7	0x00000000	0.0
8	0x00000000	0.0
9	0x00000000	0.0
10	0x00000000	0.0
11	0x00000000	0.0
12	0x00000000	0.0
13	0x00000000	0.0
14	0x00000000	0.0
15	0x00000000	0.0
16	0x00000000	0.0
17	0x00000000	0.0
18	0x00000000	0.0
19	0x00000000	0.0
20	0x00000000	0.0
21	0x00000000	0.0
22	0x00000000	0.0
23	0x00000000	0.0
24	0x00000000	0.0
25	0x00000000	0.0
26	0x00000000	0.0
27	0x00000000	0.0
28	0x00000000	0.0
29	0x00000000	0.0
30	0x00000000	0.0
31	0x00000000	0.0
32	0x00000000	0.0
33	0x00000000	0.0
34	0x00000000	0.0
35	0x00000000	0.0
36	0x00000000	0.0
37	0x00000000	0.0
38	0x00000000	0.0
39	0x00000000	0.0
40	0x00000000	0.0
41	0x00000000	0.0
42	0x00000000	0.0
43	0x00000000	0.0
44	0x00000000	0.0
45	0x00000000	0.0
46	0x00000000	0.0
47	0x00000000	0.0
48	0x00000000	0.0
49	0x00000000	0.0
50	0x00000000	0.0
51	0x00000000	0.0
52	0x00000000	0.0
53	0x00000000	0.0
54	0x00000000	0.0
55	0x00000000	0.0
56	0x00000000	0.0
57	0x00000000	0.0
58	0x00000000	0.0
59	0x00000000	0.0
60	0x00000000	0.0
61	0x00000000	0.0
62	0x00000000	0.0
63	0x00000000	0.0
64	0x00000000	0.0
65	0x00000000	0.0
66	0x00000000	0.0
67	0x00000000	0.0
68	0x00000000	0.0
69	0x00000000	0.0
70	0x00000000	0.0
71	0x00000000	0.0
72	0x00000000	0.0
73	0x00000000	0.0
74	0x00000000	0.0
75	0x00000000	0.0
76	0x00000000	0.0
77	0x00000000	0.0
78	0x00000000	0.0
79	0x00000000	0.0
80	0x00000000	0.0
81	0x00000000	0.0
82	0x00000000	0.0
83	0x00000000	0.0
84	0x00000000	0.0
85	0x00000000	0.0
86	0x00000000	0.0
87	0x00000000	0.0
88	0x00000000	0.0
89	0x00000000	0.0
90	0x00000000	0.0
91	0x00000000	0.0
92	0x00000000	0.0
93	0x00000000	0.0
94	0x00000000	0.0
95	0x00000000	0.0
96	0x00000000	0.0
97	0x00000000	0.0
98	0x00000000	0.0
99	0x00000000	0.0
100	0x00000000	0.0
101	0x00000000	0.0
102	0x00000000	0.0
103	0x00000000	0.0
104	0x00000000	0.0
105	0x00000000	0.0
106	0x00000000	0.0
107	0x00000000	0.0
108	0x00000000	0.0
109	0x00000000	0.0
110	0x00000000	0.0
111	0x00000000	0.0
112	0x00000000	0.0
113	0x00000000	0.0
114	0x00000000	0.0
115	0x00000000	0.0
116	0x00000000	0.0
117	0x00000000	0.0
118	0x00000000	0.0
119	0x00000000	0.0
120	0x00000000	0.0
121	0x00000000	0.0
122	0x00000000	0.0
123	0x00000000	0.0
124	0x00000000	0.0
125	0x00000000	0.0
126	0x00000000	0.0
127	0x00000000	0.0
128	0x00000000	0.0
129	0x00000000	0.0
130	0x00000000	0.0
131	0x00000000	0.0
132	0x00000000	0.0
133	0x00000000	0.0
134	0x00000000	0.0
135	0x00000000	0.0
136	0x00000000	0.0
137	0x00000000	0.0
138	0x00000000	0.0
139	0x00000000	0.0
140	0x00000000	0.0
141	0x00000000	0.0
142	0x00000000	0.0
143	0x00000000	0.0
144	0x00000000	0.0
145	0x00000000	0.0
146	0x00000000	0.0
147	0x00000000	0.0
148	0x00000000	0.0
149	0x00000000	0.0
150	0x00000000	0.0
151	0x00000000	0.0
152	0x00000000	0.0
153	0x00000000	0.0
154	0x00000000	0.0
155	0x00000000	0.0
156	0x00000000	0.0
157	0x00000000	0.0
158	0x00000000	0.0
159	0x00000000	0.0
160	0x00000000	0.0
161	0x00000000	0.0
162	0x00000000	0.0
163	0x00000000	0.0
164	0x00000000	0.0
165	0x00000000	0.0
166	0x00000000	0.0
167	0x00000000	0.0
168	0x00000000	0.0
169	0x00000000	0.0
170	0x00000000	0.0
171	0x00000000	0.0
172	0x00000000	0.0
173	0x00000000	0.0
174	0x00000000	0.0
175	0x00000000	0.0
176	0x00000000	0.0
177	0x00000000	0.0
178	0x00000000	0.0
179	0x00000000	0.0
180	0x00000000	0.0
181	0x00000000	0.0
182	0x00000000	0.0
183	0x00000000	0.0
184	0x00000000	0.0
185	0x00000000	0.0
186	0x00000000	0.0
187	0x00000000	0.0
188	0x00000000	0.0
189	0x00000000	0.0
190	0x00000000	0.0
191	0x00000000	0.0
192	0x00000000	0.0
193	0x00000000	0.0
194	0x00000000	0.0
195	0x00000000	0.0
196	0x00000000	0.0
197	0x00000000	0.0
198	0x00000000	0.0
199	0x00000000	0.0
200	0x00000000	0.0
201	0x00000000	0.0
202	0x00000000	0.0
203	0x00000000	0.0
204	0x00000000	0.0
205	0x00000000	0.0
206	0x00000000	0.0
207	0x00000000	0.0
208	0x00000000	0.0
209	0x00000000	0.0
210	0x00000000	0.0
211	0x00000000	0.0
212	0x00000000	0.0
213	0x00000000	0.0
214	0x00000000	0.0
215	0x00000000	0.0
216	0x00000000	0.0
217	0x00000000	0.0
218	0x00000000	0.0
219	0x00000000	0.0
220	0x00000000	0.0
221	0x00000000	0.0
222	0x00000000	0.0
223	0x00000000	0.0
224	0x00000000	0.0
225	0x00000000	0.0
226	0x00000000	0.0
227	0x00000000	0.0
228	0x00000000	0.0
229	0x00000000	0.0
230	0x00000000	0.0
231	0x00000000	0.0
232	0x00000000	0.0
233	0x00000000	0.0
234	0x00000000	0.0
235	0x00000000	0.0
236	0x00000000	0.0
237	0x00000000	0.0
238	0x00000000	0.0
239	0x00000000	0.0
240	0x00000000	0.0
241	0x00000000	0.0
242	0x00000000	0.0
243	0x00000000	0.0
244	0x00000000	0.0
245	0x00000000	0.0
246	0x00000000	0.0
247	0x00000000	0.0
248	0x00000000	0.0
249	0x00000000	0.0
250	0x00000000	0.0
251	0x00000000	0.0
252	0x00000000	0.0
253	0x00000000	0.0
254	0x00000000	0.0
255	0x00000000	0.0

exp_avg_sq f4 [256, 5]
0	0x00000000	0.0
1	0x00000000	0.0
2	0x00000000	0.0
3	0x00000000	0.0
4	0x00000000	0.0
5	0x00000000	0.0
6	0x00000000	0.0
7	0x00000000	0.0
8	0x00000000	0.0
9	0x00000000	0.0
10	0x00000000	0.0
11	0x00000000	0.0
12	0x00000000	0.0
13	0x00000000	0.0
14	0x00000000	0.0
15	0x00000000	0.0
16	0x00000000	0.0
17	0x00000000	0.0
18	0x00000000	0.0
19	0x00000000	0.0
20	0x00000000	0.0
21	0x00000000	0.0
22	0x00000000	0.0
23	0x00000000	0.0
24	0x00000000	0.0
25	0x00000000	0.0
26	0x00000000	0.0
27	0x00000000	0.0
28	0x00000000	0.0
29	0x00000000	0.0
30	0x00000000	0.0
31	0x00000000	0.0
32	0x00000000	0.0
33	0x00000000	0.0
34	0x00000000	0.0
35	0x00000000	0.0
36	0x00000000	0.0
37	0x00000000	0.0
38	0x00000000	0.0
39	0x00000000	0.0
40	0x00000000	0.0
41	0x00000000	0.0
42	0x00000000	0.0
43	0x00000000	0.0
44	0x00000000	0.0
45	0x00000000	0.0
46	0x00000000	0.0
47	0x00000000	0.0
48	0x00000000	0.0
49	0x00000000	0.0
50	0x00000000	0.0
51	0x00000000	0.0
52	0x00000000	0.0
53	0x00000000	0.0
54	0x00000000	0.0
55	0x00000000	0.0
56	0x00000000	0.0
57	0x00000000	0.0
58	0x00000000	0.0
59	0x00000000	0.0
60	0x00000000	0.0
61	0x00000000	0.0
62	0x00000000	0.0
63	0x00000000	0.0
64	0x00000000	0.0
65	0x00000000	0.0
66	0x00000000	0.0
67	0x00000000	0.0
68	0x00000000	0.0
69	0x00000000	0.0
70	0x00000000	0.0
71	0x00000000	0.0
72	0x00000000	0.0
73	0x00000000	0.0
74	0x00000000	0.0
75	0x00000000	0.0
76	0x00000000	0.0
77	0x00000000	0.0
78	0x00000000	0.0
79	0x00000000	0.0
80	0x00000000	0.0
81	0x00000000	0.0
82	0x00000000	0.0
83	0x00000000	0.0
84	0x00000000	0.0
85	0x00000000	0.0
86	0x00000000	0.0
87	0x00000000	0.0
88	0x00000000	0.0
89	0x00000000	0.0
90	0x00000000	0.0
91	0x00000000	0.0
92	0x00000000	0.0
93	0x00000000	0.0
94	0x00000000	0.0
95	0x00000000	0.0
96	0x00000000	0.0
97	0x00000000	0.0
98	0x00000000	0.0
99	0x00000000	0.0
100	0x00000000	0.0
101	0x00000000	0.0
102	0x00000000	0.0
103	0x00000000	0.0
104	0x00000000	0.0
105	0x00000000	0.0
106	0x00000000	0.0
107	0x00000000	0.0
108	0x00000000	0.0
109	0x00000000	0.0
110	0x00000000	0.0
111	0x00000000	0.0
112	0x00000000	0.0
113	0x00000000	0.0
114	0x00000000	0.0
115	0x00000000	0.0
116	0x00000000	0.0
117	0x00000000	0.0
118	0x00000000	0.0
119	0x00000000	0.0
120	0x00000000	0.0
121	0x00000000	0.0
122	0x00000000	0.0
123	0x00000000	0.0
124	0x00000000	0.0
125	0x00000000	0.0
126	0x00000000	0.0
127	0x00000000	0.0
128	0x00000000	0.0
129	0x00000000	0.0
130	0x00000000	0.0
131	0x00000000	0.0
132	0x00000000	0.0
133	0x00000000	0.0
134	0x00000000	0.0
135	0x00000000	0.0
136	0x00000000	0.0
137	0x00000000	0.0
138	0x00000000	0.0
139	0x00000000	0.0
140	0x00000000	0.0
141	0x00000000	0.0
142	0x00000000	0.0
143	0x00000000	0.0
144	0x00000000	0.0
145	0x00000000	0.0
146	0x00000000	0.0
147	0x00000000	0.0
148	0x00000000	0.0
149	0x00000000	0.0
150	0x00000000	0.0
151	0x00000000	0.0
152	0x00000000	0.0
153	0x00000000	0.0
154	0x00000000	0.0
155	0x00000000	0.0
156	0x00000000	0.0
157	0x00000000	0.0
158	0x00000000	0.0
159	0x00000000	0.0
160	0x00000000	0.0
161	0x00000000	0.0
162	0x00000000	0.0
163	0x00000000	0.0
164	0x00000000	0.0
165	0x00000000	0.0
166	0x00000000	0.0
167	0x00000000	0.0
168	0x00000000	0.0
169	0x00000000	0.0
170	0x00000000	0.0
171	0x00000000	0.0
172	0x00000000	0.0
173	0x00000000	0.0
174	0x00000000	0.0
175	0x00000000	0.0
176	0x00000000	0.0
177	0x00000000	0.0
178	0x00000000	0.0
179	0x00000000	0.0
180	0x00000000	0.0
181	0x00000000	0.0
182	0x00000000	0.0
183	0x00000000	0.0
184	0x00000000	0.0
185	0x00000000	0.0
186	0x00000000	0.0
187	0x00000000	0.0
188	0x00000000	0.0
189	0x00000000	0.0
190	0x00000000	0.0
191	0x00000000	0.0
192	0x00000000	0.0
193	0x00000000	0.0
194	0x00000000	0.0
195	0x00000000	0.0
196	0x00000000	0.0
197	0x00000000	0.0
198	0x00000000	0.0
199	0x00000000	0.0
200	0x00000000	0.0
201	0x00000000	0.0
202	0x00000000	0.0
203	0x00000000	0.0
204	0x00000000	0.0
205	0x00000000	0.0
206	0x00000000	0.0
207	0x00000000	0.0
208	0x00000000	0.0
209	0x00000000	0.0
210	0x00000000	0.0
211	0x00000000	0.0
212	0x00000000	0.0
213	0x00000000	0.0
214	0x00000000	0.0
215	0x00000000	0.0
216	0x00000000	0.0
217	0x00000000	0.0
218	0x00000000	0.0
219	0x00000000	0.0
220	0x00000000	0.0
221	0x00000000	0.0
222	0x00000000	0.0
223	0x00000000	0.0
224	0x00000000	0.0
225	0x00000000	0.0
226	0x00000000	0.0
227	0x00000000	0.0
228	0x00000000	0.0
229	0x00000000	0.0
230	0x00000000	0.0
231	0x00000000	0.0
232	0x00000000	0.0
233	0x00000000	0.0
234	0x00000000	0.0
235	0x00000000	0.0
236	0x00000000	0.0
237	0x00000000	0.0
238	0x00000000	0.0
239	0x00000000	0.0
240	0x00000000	0.0
241	0x00000000	0.0
242	0x00000000	0.0
243	0x00000000	0.0
244	0x00000000	0.0
245	0x00000000	0.0
246	0x00000000	0.0
247	0x00000000	0.0
248	0x00000000	0.0
249	0x00000000	0.0
250	0x00000000	0.0
251	0x00000000	0.0
252	0x00000000	0.0
253	0x00000000	0.0
254	0x00000000	0.0
255	0x00000000	0.0

exp_avg f4 [256, 64]
0	0x00000000	0.0
1	0x00000000	0.0
2	0x00000000	0.0
3	0x00000000	0.0
4	0x00000000	0.0
5	0x00000000	0.0
6	0x00000000	0.0
7	0x00000000	0.0
8	0x00000000	0.0
9	0x00000000	0.0
10	0x00000000	0.0
11	0x00000000	0.0
12	0x00000000	0.0
13	0x00000000	0.0
14	0x00000000	0.0
15	0x00000000	0.0
16	0x00000000	0.0
17	0x00000000	0.0
18	0x00000000	0.0
19	0x00000000	0.0
20	0x00000000	0.0
21	0x00000000	0.0
22	0x00000000	0.0
23	0x00000000	0.0
24	0x00000000	0.0
25	0x00000000	0.0
26	0x00000000	0.0
27	0x00000000	0.0
28	0x00000000	0.0
29	0x00000000	0.0
30	0x00000000	0.0
31	0x00000000	0.0
32	0x00000000	0.0
33	0x00000000	0.0
34	0x00000000	0.0
35	0x00000000	0.0
36	0x00000000	0.0
37	0x00000000	0.0
38	0x00000000	0.0
39	0x00000000	0.0
40	0x00000000	0.0
41	0x00000000	0.0
42	0x00000000	0.0
43	0x00000000	0.0
44	0x00000000	0.0
45	0x00000000	0.0
46	0x00000000	0.0
47	0x00000000	0.0
48	0x00000000	0.0
49	0x00000000	0.0
50	0x00000000	0.0
51	0x00000000	0.0
52	0x00000000	0.0
53	0x00000000	0.0
54	0x00000000	0.0
55	0x00000000	0.0
56	0x00000000	0.0
57	0x00000000	0.0
58	0x00000000	0.0
59	0x00000000	0.0
60	0x00000000	0.0
61	0x00000000	0.0
62	0x00000000	0.0
63	0x00000000	0.0
64	0x00000000	0.0
65	0x00000000	0.0
66	0x00000000	0.0
67	0x00000000	0.0
68	0x00000000	0.0
69	0x00000000	0.0
70	0x00000000	0.0
71	0x00000000	0.0
72	0x00000000	0.0
73	0x00000000	0.0
74	0x00000000	0.0
75	0x00000000	0.0
76	0x00000000	0.0
77	0x00000000	0.0
78	0x00000000	0.0
79	0x00000000	0.0
80	0x00000000	0.0
81	0x00000000	0.0
82	0x00000000	0.0
83	0x00000000	0.0
84	0x00000000	0.0
85	0x00000000	0.0
86	0x00000000	0.0
87	0x00000000	0.0
88	0x00000000	0.0
89	0x00000000	0.0
90	0x00000000	0.0
91	0x00000000	0.0
92	0x00000000	0.0
93	0x00000000	0.0
94	0x00000000	0.0
95	0x00000000	0.0
96	0x00000000	0.0
97	0x00000000	0.0
98	0x00000000	0.0
99	0x00000000	0.0
100	0x00000000	0.0
101	0x00000000	0.0
102	0x00000000	0.0
103	0x00000000	0.0
104	0x00000000	0.0
105	0x00000000	0.0
106	0x00000000	0.0
107	0x00000000	0.0
108	0x00000000	0.0
109	0x00000000	0.0
110	0x00000000	0.0
111	0x00000000	0.0
112	0x00000000	0.0
113	0x00000000	0.0
114	0x00000000	0.0
115	0x00000000	0.0
116	0x00000000	0.0
117	0x00000000	0.0
118	0x00000000	0.0
119	0x00000000	0.0
120	0x00000000	0.0
121	0x00000000	0.0
122	0x00000000	0.0
123	0x00000000	0.0
124	0x00000000	0.0
125	0x00000000	0.0
126	0x00000000	0.0
127	0x00000000	0.0
128	0x00000000	0.0
129	0x00000000	0.0
130	0x00000000	0.0
131	0x00000000	0.0
132	0x00000000	0.0
133	0x00000000	0.0
134	0x00000000	0.0
135	0x00000000	0.0
136	0x00000000	0.0
137	0x00000000	0.0
138	0x00000000	0.0
139	0x00000000	0.0
140	0x00000000	0.0
141	0x00000000	0.0
142	0x00000000	0.0
143	0x00000000	0.0
144	0x00000000	0.0
145	0x00000000	0.0
146	0x00000000	0.0
147	0x00000000	0.0
148	0x00000000	0.0
149	0x00000000	0.0
150	0x00000000	0.0
151	0x00000000	0.0
152	0x00000000	0.0
153	0x00000000	0.0
154	0x00000000	0.0
155	0x00000000	0.0
156	0x00000000	0.0
157	0x00000000	0.0
158	0x00000000	0.0
159	0x00000000	0.0
160	0x00000000	0.0
161	0x00000000	0.0
162	0x00000000	0.0
163	0x00000000	0.0
164	0x00000000	0.0
165	0x00000000	0.0
166	0x00000000	0.0
167	0x00000000	0.0
168	0x00000000	0.0
169	0x00000000	0.0
170	0x00000000	0.0
171	0x00000000	0.0
172	0x00000000	0.0
173	0x00000000	0.0
174	0x00000000	0.0
175	0x00000000	0.0
176	0x00000000	0.0
177	0x00000000	0.0
178	0x00000000	0.0
179	0x00000000	0.0
180	0x00000000	0.0
181	0x00000000	0.0
182	0x00000000	0.0
183	0x00000000	0.0
184	0x00000000	0.0
185	0x00000000	0.0
186	0x00000000	0.0
187	0x00000000	0.0
188	0x00000000	0.0
189	0x00000000	0.0
190	0x00000000	0.0
191	0x00000000	0.0
192	0x00000000	0.0
193	0x00000000	0.0
194	0x00000000	0.0
195	0x00000000	0.0
196	0x00000000	0.0
197	0x00000000	0.0
198	0x00000000	0.0
199	0x00000000	0.0
200	0x00000000	0.0
201	0x00000000	0.0
202	0x00000000	0.0
203	0x00000000	0.0
204	0x00000000	0.0
205	0x00000000	0.0
206	0x00000000	0.0
207	0x00000000	0.0
208	0x00000000	0.0
209	0x00000000	0.0
210	0x00000000	0.0
211	0x00000000	0.0
212	0x00000000	0.0
213	0x00000000	0.0
214	0x00000000	0.0
215	0x00000000	0.0
216	0x00000000	0.0
217	0x00000000	0.0
218	0x00000000	0.0
219	0x00000000	0.0
220	0x00000000	0.0
221	0x00000000	0.0
222	0x00000000	0.0
223	0x00000000	0.0
224	0x00000000	0.0
225	0x00000000	0.0
226	0x00000000	0.0
227	0x00000000	0.0
228	0x00000000	0.0
229	0x00000000	0.0
230	0x00000000	0.0
231	0x00000000	0.0
232	0x00000000	0.0
233	0x00000000	0.0
234	0x00000000	0.0
235	0x00000000	0.0
236	0x00000000	0.0
237	0x00000000	0.0
238	0x00000000	0.0
239	0x00000000	0.0
240	0x00000000	0.0
241	0x00000000	0.0
242	0x00000000	0.0
243	0x00000000	0.0
244	0x00000000	0.0
245	0x00000000	0.0
246	0x00000000	0.0
247	0x00000000	0.0
248	0x00000000	0.0
249	0x00000000	0.0
250	0x00000000	0.0
251	0x00000000	0.0
252	0x00000000	0.0
253	0x00000000	0.0
254	0x00000000	0.0
255	0x00000000	0.0

exp_avg_sq f4 [256, 64]
0	0x00000000	0.0
1	0x00000000	0.0
2	0x00000000	0.0
3	0x00000000	0.0
4	0x00000000	0.0
5	0x00000000	0.0
6	0x00000000	0.0
7	0x00000000	0.0
8	0x00000000	0.0
9	0x00000000	0.0
10	0x00000000	0.0
11	0x00000000	0.0
12	0x00000000	0.0
13	0x00000000	0.0
14	0x00000000	0.0
15	0x00000000	0.0
16	0x00000000	0.0
17	0x00000000	0.0
18	0x00000000	0.0
19	0x00000000	0.0
20	0x00000000	0.0
21	0x00000000	0.0
22	0x00000000	0.0
23	0x00000000	0.0
24	0x00000000	0.0
25	0x00000000	0.0
26	0x00000000	0.0
27	0x00000000	0.0
28	0x00000000	0.0
29	0x00000000	0.0
30	0x00000000	0.0
31	0x00000000	0.0
32	0x00000000	0.0
33	0x00000000	0.0
34	0x00000000	0.0
35	0x00000000	0.0
36	0x00000000	0.0
37	0x00000000	0.0
38	0x00000000	0.0
39	0x00000000	0.0
40	0x00000000	0.0
41	0x00000000	0.0
42	0x00000000	0.0
43	0x00000000	0.0
44	0x00000000	0.0
45	0x00000000	0.0
46	0x00000000	0.0
47	0x00000000	0.0
48	0x00000000	0.0
49	0x00000000	0.0
50	0x00000000	0.0
51	0x00000000	0.0
52	0x00000000	0.0
53	0x00000000	0.0
54	0x00000000	0.0
55	0x00000000	0.0
56	0x00000000	0.0
57	0x00000000	0.0
58	0x00000000	0.0
59	0x00000000	0.0
60	0x00000000	0.0
61	0x00000000	0.0
62	0x00000000	0.0
63	0x00000000	0.0
64	0x00000000	0.0
65	0x00000000	0.0
66	0x00000000	0.0
67	0x00000000	0.0
68	0x00000000	0.0
69	0x00000000	0.0
70	0x00000000	0.0
71	0x00000000	0.0
72	0x00000000	0.0
73	0x00000000	0.0
74	0x00000000	0.0
75	0x00000000	0.0
76	0x00000000	0.0
77	0x00000000	0.0
78	0x00000000	0.0
79	0x00000000	0.0
80	0x00000000	0.0
81	0x00000000	0.0
82	0x00000000	0.0
83	0x00000000	0.0
84	0x00000000	0.0
85	0x00000000	0.0
86	0x00000000	0.0
87	0x00000000	0.0
88	0x00000000	0.0
89	0x00000000	0.0
90	0x00000000	0.0
91	0x00000000	0.0
92	0x00000000	0.0
93	0x00000000	0.0
94	0x00000000	0.0
95	0x00000000	0.0
96	0x00000000	0.0
97	0x00000000	0.0
98	0x00000000	0.0
99	0x00000000	0.0
100	0x00000000	0.0
101	0x00000000	0.0
102	0x00000000	0.0
103	0x00000000	0.0
104	0x00000000	0.0
105	0x00000000	0.0
106	0x00000000	0.0
107	0x00000000	0.0
108	0x00000000	0.0
109	0x00000000	0.0
110	0x00000000	0.0
111	0x00000000	0.0
112	0x00000000	0.0
113	0x00000000	0.0
114	0x00000000	0.0
115	0x00000000	0.0
116	0x00000000	0.0
117	0x00000000	0.0
118	0x00000000	0.0
119	0x00000000	0.0
120	0x00000000	0.0
121	0x00000000	0.0
122	0x00000000	0.0
123	0x00000000	0.0
124	0x00000000	0.0
125	0x00000000	0.0
126	0x00000000	0.0
127	0x00000000	0.0
128	0x00000000	0.0
129	0x00000000	0.0
130	0x00000000	0.0
131	0x00000000	0.0
132	0x00000000	0.0
133	0x00000000	0.0
134	0x00000000	0.0
135	0x00000000	0.0
136	0x00000000	0.0
137	0x00000000	0.0
138	0x00000000	0.0
139	0x00000000	0.0
140	0x00000000	0.0
141	0x00000000	0.0
142	0x00000000	0.0
143	0x00000000	0.0
144	0x00000000	0.0
145	0x00000000	0.0
146	0x00000000	0.0
147	0x00000000	0.0
148	0x00000000	0.0
149	0x00000000	0.0
150	0x00000000	0.0
151	0x00000000	0.0
152	0x00000000	0.0
153	0x00000000	0.0
154	0x00000000	0.0
155	0x00000000	0.0
156	0x00000000	0.0
157	0x00000000	0.0
158	0x00000000	0.0
159	0x00000000	0.0
160	0x00000000	0.0
161	0x00000000	0.0
162	0x00000000	0.0
163	0x00000000	0.0
164	0x00000000	0.0
165	0x00000000	0.0
166	0x00000000	0.0
167	0x00000000	0.0
168	0x00000000	0.0
169	0x00000000	0.0
170	0x00000000	0.0
171	0x00000000	0.0
172	0x00000000	0.0
173	0x00000000	0.0
174	0x00000000	0.0
175	0x00000000	0.0
176	0x00000000	0.0
177	0x00000000	0.0
178	0x00000000	0.0
179	0x00000000	0.0
180	0x00000000	0.0
181	0x00000000	0.0
182	0x00000000	0.0
183	0x00000000	0.0
184	0x00000000	0.0
185	0x00000000	0.0
186	0x00000000	0.0
187	0x00000000	0.0
188	0x00000000	0.0
189	0x00000000	0.0
190	0x00000000	0.0
191	0x00000000	0.0
192	0x00000000	0.0
193	0x00000000	0.0
194	0x00000000	0.0
195	0x00000000	0.0
196	0x00000000	0.0
197	0x00000000	0.0
198	0x00000000	0.0
199	0x00000000	0.0
200	0x00000000	0.0
201	0x00000000	0.0
202	0x00000000	0.0
203	0x00000000	0.0
204	0x00000000	0.0
205	0x00000000	0.0
206	0x00000000	0.0
207	0x00000000	0.0
208	0x00000000	0.0
209	0x00000000	0.0
210	0x00000000	0.0
211	0x00000000	0.0
212	0x00000000	0.0
213	0x00000000	0.0
214	0x00000000	0.0
215	0x00000000	0.0
216	0x00000000	0.0
217	0x00000000	0.0
218	0x00000000	0.0
219	0x00000000	0.0
220	0x00000000	0.0
221	0x00000000	0.0
222	0x00000000	0.0
223	0x00000000	0.0
224	0x00000000	0.0
225	0x00000000	0.0
226	0x00000000	0.0
227	0x00000000	0.0
228	0x00000000	0.0
229	0x00000000	0.0
230	0x00000000	0.0
231	0x00000000	0.0
232	0x00000000	0.0
233	0x00000000	0.0
234	0x00000000	0.0
235	0x00000000	0.0
236	0x00000000	0.0
237	0x00000000	0.0
238	0x00000000	0.0
239	0x00000000	0.0
240	0x00000000	0.0
241	0x00000000	0.0
242	0x00000000	0.0
243	0x00000000	0.0
244	0x00000000	0.0
245	0x00000000	0.0
246	0x00000000	0.0
247	0x00000000	0.0
248	0x00000000	0.0
249	0x00000000	0.0
250	0x00000000	0.0
251	0x00000000	0.0
252	0x00000000	0.0
253	0x00000000	0.0
254	0x00000000	0.0
255	0x00000000	0.0
