ml_models/LSTM_Large_model.pt (torch, 75682 bytes, 5 tensors)

lstm.weight_ih_l0 f4 [256, 5]
-0.4704435 0.57502884 -1.8252332 0.48272836 -0.005639187 -0.93188846 0.84299904 -1.4963924
0.32268807 0.6883745 -0.507559 0.40871778 -1.4333612 0.53695524 0.18829618 -0.13821769
0.70896775 1.0607047 0.40908828 0.19266376 -0.2743572 0.8306444 1.4245149 0.6322585
1.0484403 0.04264863 -0.58618146 -1.3492956 -0.36392897 0.27546063 -0.34564486 0.72489786
2.6769023 1.0747377 1.3376067 -0.19128367 -0.6453945 -1.5684437 -0.37069473 0.2704705
-0.6529021 0.5727355 -1.333658 1.0540724 0.42196205 -0.1936808 0.42623776 -1.0129472
0.27985495 -0.1992021 -0.38310012 0.66816545 1.1132793 0.57015413 0.4674818 -0.30211547
0.6886555 1.8905989 1.0381624 0.69778174 -0.15526408 0.18374859 0.76175714 0.6894034
0.32912827 -0.9791839 0.79533476 -1.4022653 0.19712898 0.8797783 0.3346842 -0.30666685
1.1747007 0.61286694 0.021019688 -0.6512671 0.8335402 -0.2416668 0.8962935 0.5458202
-0.28910327 0.8206855 1.4188604 0.59915364 0.6570303 -0.05016577 0.45746082 0.76745105
0.28094673 -0.14876458 -0.45075652 0.8718142 1.533083 0.4802521 0.60059553 0.43941426
-0.40178865 -0.4837173 0.2263693 0.0045956387 -0.2982991 0.69980025 1.0342441 0.79830706
0.28712463 0.48924625 -0.8347136 1.8261201 0.9293296 0.15624042 -0.35553983 0.818112
1.8441124 0.6196676 1.5432469 -0.14161173 0.6637865 1.4036392 0.9578405 0.6023921
-0.94365054 0.6817747 -1.9643422 0.38662028 0.20997562 -0.2586156 0.59411985 1.4138536
1.0768725 0.76338506 -0.29611132 0.66740733 1.8526387 1.0550469 0.80385506 -0.0814231
-0.31730422 -1.5669996 -0.10840457 0.06807513 0.45733854 -0.76694256 1.597027 1.0167917
0.04492562 0.19969322 -0.6748853 1.6482985 0.4566949 0.39237016 -0.24977976 0.6825423
1.3936334 0.75087154 0.4256375 -0.8755697 0.691733 -1.796717 0.44858688 0.6072645
-0.40719268 0.63868016 1.131494 0.50880575 0.6759479 -0.2518209 0.8420605 2.5776925
1.0475004 0.9293996 -0.76208866 0.9730264 0.46236542 1.1620677 0.10224923 -0.2917301
0.576703 0.8129481 0.23343726 -0.122113824 0.46981007 -0.827542 1.9151409 0.7655408
0.26900592 -0.12915266 -0.6961618 -1.5313096 -0.29269353 0.051547047 -0.14445706 0.74556744
0.96416193 0.6538174 1.022283 0.061248135 -0.14733402 -0.86194783 -0.030164963 -0.05950281
-0.3734743 0.7256256 1.0851123 0.60550976 0.7126954 -0.4377298 0.16844493 0.7142685
0.6885022 0.22177584 -0.467475 0.55284524 -1.1086326 0.14577907 0.12697482 -0.18915527
0.7198978 3.338181 0.98415697 1.3298936 -0.257137 0.6678139 2.6027048 1.0776803
1.6305362 -0.42270634 0.5159175 -2.0850787 0.30838582 -0.059679393 0.011802602 -0.22492395
-0.98182094 0.0676753 -0.40476483 -0.48009005 0.70166326 1.6173838 1.086733 0.9172478
0.19972515 -0.540699 1.129296 0.48435956 0.104632325 0.31320393 -0.5926908 1.6001487
0.45413542 0.27534673 0.1883173 -0.5272467 1.1230968 0.39089307 -0.03376979 -0.15407474
00000000: f8dd f0be 1735 133f 3ea1 e9bf 2c28 f73e
00000010: eec8 b8bb 3e90 6ebf c9ce 573f c989 bfbf
00000020: 5f37 a53e 5039 303f 63ef 01bf 7543 d13e
00000030: 6178 b7bf e675 093f b7d0 403e f088 0dbe
00000040: e97e 353f 2cc5 873f 0574 d13e a649 453e
00000050: 8c78 8cbe 1da5 543f 8156 b63f b1db 213f
00000060: 4b33 863f 54b0 2e3d fd0f 16bf b8b5 acbf
00000070: e654 babe 2d09 8d3e 5df8 b0be e892 393f
00000080: 5e52 2b40 0191 893f b236 ab3f dedf 43be
00000090: 9338 25bf c3c2 c8bf b3cb bdbe 1c7b 8a3e
000000a0: 9824 27bf cb9e 123f 4eb5 aabf d8eb 863f
000000b0: 690b d83e 4254 46be d63b da3e 41a8 81bf
000000c0: 2649 8f3e a3fb 4bbe b325 c4be e40c 2b3f
000000d0: f07f 8e3f 9ff5 113f c659 ef3e e1ae 9abe
000000e0: ba4b 303f 25ff f13f 81e2 843f d3a1 323f
000000f0: 8cfd 1ebe 9728 3c3e 8402 433f be7c 303f
00000100: 8083 a83e ccab 7abf 0f9b 4b3f 6e7d b3bf
00000110: 2edc 493e 2739 613f ba5b ab3e 7003 9dbe
00000120: 985c 963f d9e4 1c3f 7b31 ac3c 71b9 26bf
00000130: e462 553f 8077 77be 7e73 653f dfba 0b3f
00000140: 5805 94be 7218 523f 389d b53f 2262 193f
00000150: 2333 283f 9f7a 4dbd 4e38 ea3e ac77 443f
00000160: 40d8 8f3e be55 18be 8fc9 e6be 372f 5f3f
00000170: 103c c43f 9ae3 f53e a1c0 193f e8fa e03e
00000180: 3eb7 cdbe cba9 f7be 5bcd 673e 0397 963b
00000190: a9ba 98be 1c26 333f 1c62 843f da5d 4c3f
000001a0: 0002 933e 7c7e fa3e caaf 55bf 4ebe e93f
000001b0: 8be8 6d3f 7dfd 1f3e 5109 b6be ca6f 513f
000001c0: e00b ec3f 89a2 1e3f 1d89 c53f aa02 11be
000001d0: e9ed 293f 73aa b33f 0935 753f 5e36 1a3f
000001e0: 1593 71bf c988 2e3f 916f fbbf 18f3 c53e
000001f0: d903 573e 4469 84be 3d18 183f 28f9 b43f
00000200: f5d6 893f 346d 433f e79b 97be 35db 2a3f
00000210: 4423 ed3f c70b 873f 72c9 4d3f 27c1 a6bd
00000220: b375 a2be 7193 c8bf 3703 debd f96a 8b3d
00000230: 4728 ea3e 5956 44bf 616b cc3f 3b26 823f
00000240: ed03 383d 617c 4c3e 48c5 2cbf 72fb d23f
00000250: ead3 e93e bee4 c83e 44c6 7fbe 18bb 2e3f
00000260: 9462 b23f 1e39 403f 29ed d93e 5625 60bf
00000270: 6a15 313f d3fa e5bf 2ead e53e b075 1b3f
00000280: 8f7b d0be 8b80 233f ccd4 903f 1841 023f
00000290: ec0a 2d3f abee 80be 4791 573f eaf8 2440
000002a0: 7e14 863f 22ed 6d3f 3e18 43bf 4218 793f
000002b0: 29bb ec3e a2be 943f 0b68 d13d a65d 95be
000002c0: cfa2 133f 5e1d 503f 2d0a 6f3e d016 fabd
000002d0: f28a f03e cbd9 53bf 5623 f53f 7bfa 433f
000002e0: 25bb 893e 9840 04be a937 32bf f401 c4bf
000002f0: eddb 95be ff22 533d 8dec 13be 82dd 3e3f
00000300: 51d3 763f 9460 273f 2bda 823f 53df 7a3d
00000310: bbde 16be 9da8 5cbf 831c f7bc 38b9 73bd
00000320: 0638 bfbe 99c2 393f f6e4 8a3f b002 1b3f
00000330: 3573 363f 1f1e e0be d47c 2c3e 4dda 363f
00000340: ae41 303f 3519 633e e258 efbe 4487 0d3f
00000350: ace7 8dbf 1c47 153e b005 023e ebb1 41be
00000360: 394b 383f c2a4 5540 b6f1 7b3f f439 aa3f
00000370: 76a7 83be daf5 2a3f b792 2640 6ef1 893f
00000380: 69b5 d03f f76c d8be 2b13 043f ee71 05c0
00000390: bfe4 9d3e 6172 74bd b35f 413c 7752 66be
000003a0: 9e58 7bbf 5999 8a3d 563d cfbe 5dce f5be
000003b0: 34a0 333f 6f06 cf3f 111a 8b3f c0d0 6a3f
000003c0: c084 4c3e 406b 0abf c58c 903f fafd f73e
000003d0: 7949 d63d 445c a03e 96ba 17bf acd1 cc3f
000003e0: 7084 e83e 3ffa 8c3e 40d6 403e a4f9 06bf
000003f0: a3c1 8f3f 2323 c83e 3152 0abd c5c5 1dbe

lstm.weight_hh_l0 f4 [256, 64]
-0.10161923 -0.042416126 -0.025186226 0.050765976 -0.007983178 -0.05587618 0.046559557 -0.081989035
0.054165974 0.097963974 -0.048074365 -0.044269875 0.017181933 -0.092447534 -0.05601442 0.055604234
-0.041607887 0.03910148 0.054672167 0.110189766 -0.067276895 -0.054563314 -0.10322873 -0.061482027
-0.0988995 0.03797628 -0.08175844 -0.040087298 0.09137976 0.09730895 0.057828605 -0.02330795
0.06827809 0.051974535 -0.08588831 0.0060247183 0.015438378 0.10127285 0.11768672 -0.10287531
-0.0033032447 -0.0049234927 -0.034245178 0.02192171 0.10398398 -0.017267779 0.04035023 0.103923514
0.115324855 -0.014735952 0.07256043 -0.022562027 0.045478404 -0.12471503 -0.063519076 0.11514376
0.039942443 -0.04313816 -0.042138115 -0.06827009 -0.060157478 0.053306475 0.02780442 0.023266166
0.08761707 0.10676004 -0.0794898 -0.09916471 -0.038483575 0.09139386 -0.07392652 0.0042757243
-0.0254578 0.071032286 0.10128489 -0.026404351 0.023393169 -0.056433097 -0.04539132 -0.039498657
-0.06924677 0.07228629 0.056616694 -0.03421691 0.019932747 0.02827254 0.029562995 -0.050976053
0.06868437 0.11698569 -0.09309326 -0.047196016 0.026181638 0.058057338 0.065588176 -0.04112695
0.030010357 -0.06570023 0.027773276 0.008883074 -0.042321637 0.09786248 -0.062156305 -0.096642226
-0.042611524 0.081920624 -0.0017920882 -0.008679867 0.03933823 -0.016934648 -0.09719068 -0.0107334405
-0.11791222 -0.055178344 0.083257735 0.072543144 -0.07271962 -0.107982054 0.11875725 0.043092698
-0.066569135 0.06685975 -0.09111732 0.07876471 -0.04322733 -0.100477904 -0.016474038 -0.02074702
0.012085229 -0.057108 -0.07449217 0.020167619 -0.009530216 -0.08889721 0.07022485 0.100424185
-0.006950289 0.054865137 -0.049960256 0.02289106 -0.07785663 0.067959204 -0.0030433536 -0.053324565
-0.06523386 0.06293823 0.055643722 -0.12178303 0.07393858 -0.023169309 0.09162462 -0.11944209
0.09840849 -0.037155792 0.072323784 -0.036757782 -0.01864241 0.06105131 0.058396026 -0.09908308
-0.05315672 0.002147898 -0.06498656 -0.03832552 -0.10523164 0.008424073 0.10382815 -0.017001554
0.050436407 0.019091442 0.03708656 0.083877414 0.09110537 -0.040727273 0.08067022 0.05849436
0.1065858 -0.09920032 0.03130676 -0.09247036 -0.12240332 0.10800628 0.062034205 0.013030365
-0.03763464 -0.0043923855 0.023027629 0.045780882 0.07752031 0.055455446 -0.029265493 0.12231527
0.043308645 0.11352281 -0.002971068 -0.07531151 0.10542646 0.059028953 -0.05654469 0.028771043
0.110421926 -0.07706417 -0.09880814 -0.06587647 -0.06994201 -0.0982444 -0.053550333 -0.08116275
0.017969757 0.037341133 -0.096503034 -0.024182767 0.072134644 0.0120690465 -0.06008877 0.013509393
-0.039233863 0.0888163 -0.08663276 -0.0045333207 0.034455165 -0.016271517 -0.04437761 0.011900842
-0.032734588 0.06095615 -0.030877173 0.098241925 0.010994464 0.04469654 0.10802004 0.10688609
0.0330303 -0.055140078 -0.027548641 -0.023008838 -0.08148597 0.12036814 0.1056371 -0.013776153
-0.04459998 0.06846017 0.005626753 -0.120582625 0.029218078 -0.008958384 -0.0004246682 -0.024799421
-0.12479246 -0.12458639 0.1110993 -0.07930212 -0.056314886 -0.08565502 0.026594535 0.025885269
00000000: be1d d0bd 88bc 2dbd 5853 cebc fcef 4f3d
00000010: e0cb 02bc 6cde 64bd 3cb5 3e3d dee9 a7bd
00000020: 24dd 5d3d 56a1 c83d a0e9 44bd 5454 35bd
00000030: 20c1 8c3c 2255 bdbd 606f 65bd 44c1 633d
00000040: 086d 2abd e028 203d ecef 5f3d 2cab e13d
00000050: 78c8 89bd c87d 5fbd 9669 d3bd 94d4 7bbd
00000060: d28b cabd 048d 1b3d f870 a7bd 9432 24bd
00000070: 5025 bb3d ea49 c73d b0dd 6c3d 50f0 bebc
00000080: 62d5 8b3d 40e3 543d 36e6 afbd 006b c53b
00000090: 40f1 7c3c 2468 cf3d bc05 f13d 4ab0 d2bd
000000a0: 407b 58bb 4055 a1bb ac44 0cbd 2895 b33c
000000b0: 8ef5 d43d 2875 8dbc 4846 253d dad5 d43d
000000c0: 702f ec3d 106f 71bc 909a 943d 00d4 b8bc
000000d0: 9047 3a3d 986a ffbd 4a16 82bd 7ed0 eb3d
000000e0: b09a 233d a4b1 30bd 0499 2cbd 30d1 8bbd
000000f0: b067 76bd e457 5a3d 18c6 e33c b098 be3c
00000100: 9470 b33d 02a5 da3d 8ccb a2bd de16 cbbd
00000110: f4a0 1dbd b42c bb3d ca66 97bd 601b 8c3b
00000120: e08c d0bc 6079 913d 746e cf3d f04d d8bc
00000130: 08a3 bf3c 6426 67bd 40ec 39bd 58c9 21bd
00000140: 40d1 8dbd d60a 943d e8e6 673d 0827 0cbd
00000150: 004a a33c d09b e73c 182e f23c 44cc 50bd
00000160: 64aa 8c3d 3296 ef3d aea7 bebd 9c50 41bd
00000170: e07a d63c 88cd 6d3d 1853 863d bc74 28bd
00000180: 48d8 f53c d88d 86bd c884 e33c 508a 113c
00000190: 7459 2dbd 206c c83d 9c97 7ebd 5cec c5bd
000001a0: 6c89 2ebd 00c6 a73d 80e4 eaba 0036 0ebc
000001b0: 2021 213d 88ba 8abc e80b c7bd 50db 2fbc
000001c0: f67b f1bd b002 62bd 0883 aa3d 8091 943d
000001d0: 06ee 94bd b225 ddbd 0037 f33d f881 303d
000001e0: 6655 88bd c4ed 883d b89b babd 644f a13d
000001f0: 240f 31bd 5cc7 cdbd 90f4 86bc a8f5 a9bc
00000200: 2001 463c 14ea 69bd 5a8f 98bd 9036 a53c
00000210: a024 1cbc be0f b6bd 0cd2 8f3d 32ab cd3d
00000220: 40bf e3bb 44ba 603d 20a3 4cbd 0886 bb3c
00000230: 4c73 9fbd 322e 8b3d 0073 47bb dc6a 5abd
00000240: 5499 85bd c2e5 803d acea 633d 6269 f9bd
00000250: 1c6d 973d 90cd bdbc b0a5 bb3d 0e9e f4bd
00000260: 648a c93d ac30 18bd 7e1e 943d 548f 16bd
00000270: f8b7 98bc f010 7a3d ac30 6f3d 12ec cabd
00000280: dcba 59bd c0c3 0c3b ac17 85bd 38fb 1cbd
00000290: b083 d7bd 2005 0a3c daa3 d43d d846 8bbc
000002a0: 6896 4e3d a865 9c3c 14e8 173d ecc7 ab3d
000002b0: 7495 ba3d a4d1 26bd 6e36 a53d c897 6f3d
000002c0: a849 da3d 8a29 cbbd 843b 003d 1a61 bdbd
000002d0: 98ae fabd 6632 dd3d 9417 7e3d 507d 553c
000002e0: c826 1abd 00ee 8fbb 70a4 bc3c bc84 3b3d
000002f0: f8c2 9e3d 4025 633d 30be efbc 6e80 fa3d
00000300: 6864 313d a67e e83d 40b6 42bb ec3c 9abd
00000310: d4e9 d73d 58c8 713d 689b 67bd 40b1 eb3c
00000320: e424 e23d d2d3 9dbd ec5b cabd 3eea 86bd
00000330: c23d 8fbd 5c34 c9bd 9857 5bbd a838 a6bd
00000340: 5035 933c 04f3 183d 62a3 c5bd f01a c6bc
00000350: 54bb 933d 40bd 453c a41f 76bd 8056 5d3c
00000360: b0b3 20bd 52e5 b53d 846c b1bd 408c 94bb
00000370: dc20 0d3d d84b 85bc 4cc5 35bd c0fb 423c
00000380: b414 06bd 28ad 793d 20f2 fcbc 1033 c93d
00000390: 2022 343c b813 373d 9c39 dd3d 18e7 da3d
000003a0: c84a 073d 90da 61bd b0ad e1bc 087d bcbc
000003b0: 1ee2 a6bd 9283 f63d 4458 d83d 60b5 61bc
000003c0: 78ae 36bd d834 8c3d a060 b83b 06f4 f6bd
000003d0: c05a ef3c 30c6 12bc 00a6 deb9 2828 cbbc
000003e0: 3093 ffbd 2627 ffbd 0888 e33d 2669 a2bd
000003f0: 70aa 66bd e66b afbd c8dc d93c 580d d43c

lstm.bias_ih_l0 f4 [256]
0.5352243 0.978552 0.8117708 0.7548035 1.2332025 0.48100156 1.3459489 0.48256257
0.9630925 0.47230065 0.86677873 1.4441783 0.9911632 1.1205362 0.56966394 0.55664915
0.9619686 0.4046517 1.3080466 0.89114213 0.7593726 0.6855665 1.4873801 1.1451795
1.06745 1.5518924 1.2508419 0.5881595 0.74394083 0.686571 1.0962824 0.8997246
1.1923981 1.3347039 0.7782261 0.6104013 0.8426109 0.7499553 1.2500327 0.26756543
1.1278243 0.82478833 0.9191899 1.6247529 1.5875459 0.5009403 0.21134159 0.9263501
0.6819466 0.6813151 0.687216 0.53208256 0.65475076 0.7685937 1.342919 0.7740265
0.4313323 0.7183046 0.6178038 0.9225146 0.8345749 0.6568194 0.51001096 0.42585582
0.025806278 -0.11097513 0.056603715 -0.040356666 -0.070454225 0.08957608 0.010620743 0.08026737
0.108957425 -0.11785844 0.028666392 0.04770507 -0.102378294 0.040195823 -0.05283612 -0.0062416345
-0.099304855 -0.032179877 -0.0089494735 0.03919348 -0.06885806 0.02418746 0.08765893 0.014266893
0.033181638 0.11938079 -0.048643798 0.05830039 -0.005412221 0.017913505 -0.00811784 -0.113896444
-0.012452453 0.0009751767 0.01850532 0.022597656 -0.017944545 -0.036483377 -0.014720112 -0.029014528
-0.042190567 -0.025818512 -0.12256375 0.09394865 0.009637773 0.10844095 0.07015516 0.008369952
-0.09479265 -0.044878334 -0.06632994 -0.056582496 0.1147244 0.10006632 -0.033013403 0.07612479
0.03588125 -0.053303495 -0.077675104 -0.047932 -0.111933514 0.10173498 -0.07938494 -0.02499482
0.061350483 -0.29930425 -0.08949068 0.011180734 0.13161692 -0.84122175 -0.19765842 -1.0020523
-0.14559034 -0.09741315 0.026392538 -0.06003796 -0.047983445 -0.1635606 -0.057878755 -0.13197596
0.0017898147 -0.018877765 -0.123685345 -0.121553354 0.05853816 0.17752378 0.1753138 -0.08924213
-0.13380118 0.11859739 -0.06933266 -1.0667509 0.10485755 -0.16325401 0.061682116 -0.13982217
0.079990335 -0.050088137 -0.13094027 0.07000915 0.13074763 -1.0207208 0.24850188 -0.060354885
-0.04257823 0.04975225 -0.082647406 -0.17383851 0.15267386 -0.016024023 -0.17699604 0.090200216
0.0724273 -0.11696875 -0.13870458 0.8638484 0.16503765 -0.116146706 -0.24074124 0.17814793
0.045815885 0.10250199 -0.05563853 -0.20918046 0.1320863 0.007391637 -0.5402156 -0.02303646
0.5191783 0.9760785 0.7367541 0.8299247 1.2236414 0.5488239 1.2491142 0.7397954
0.9288863 0.39965424 0.7705742 1.5124725 1.0460099 0.72664005 0.49898916 0.5698721
0.8982377 0.227147 1.2921768 0.88454354 0.8409003 0.9485362 1.5332223 0.90971035
1.0378069 1.3610113 1.1594291 0.6696819 0.8960142 0.68352014 0.93373144 0.84817666
1.019659 1.3770157 0.53279763 0.50974876 0.7168933 0.7058341 1.1715875 0.33911103
1.1829584 0.9006676 0.6087569 1.5557846 1.4573087 0.6432414 0.41656983 0.9688455
0.68355083 0.615491 0.69664556 0.6013479 0.6819835 0.6018776 1.4102515 0.70519793
0.4561179 0.653206 0.7175572 0.83381987 0.84138227 0.5252597 0.50317705 0.4800715
00000000: 7604 093f 6282 7a3f 36d0 4f3f cd3a 413f
00000010: 94d9 9d3f d645 f63e 0e48 ac3f 7112 f73e
00000020: 3b8d 763f 64d1 f13e 36e5 5d3f d6da b83f
00000030: dfbc 7d3f bb6d 8f3f 7fd5 113f 8f80 0e3f
00000040: 9343 763f 822e cf3e 126e a73f e421 643f
00000050: 3e66 423f 4981 2f3f 7962 be3f 3e95 923f
00000060: 34a2 883f 69a4 c63f 961b a03f 9f91 163f
00000070: e872 3e3f 1ec3 2f3f fb52 8c3f 5a54 663f
00000080: 80a0 983f 94d7 aa3f d339 473f 4243 1c3f
00000090: 59b5 573f 12fd 3f3f 1201 a03f 56fe 883e
000000a0: 8c5c 903f 5425 533f 0750 6b3f e7f7 cf3f
000000b0: b434 cb3f a03d 003f ee69 583e 4825 6d3f
000000c0: 0d94 2e3f ab6a 2e3f 63ed 2f3f 9036 083f
000000d0: bf9d 273f 8fc2 443f c5e4 ab3f 9a26 463f
000000e0: 96d7 dc3e cfe2 373f 6428 1e3f eb29 6c3f
000000f0: b3a6 553f 5125 283f 1490 023f c609 da3e
00000100: b067 d33c ee46 e3bd 4cd9 673d 084d 25bd
00000110: 4e4a 90bd aa73 b73d a002 2e3c 3863 a43d
00000120: 1225 df3d c45f f1bd c8d5 ea3c 6466 433d
00000130: b6ab d1bd 60a4 243d b06a 58bd a086 ccbb
00000140: 5860 cbbd 0ccf 03bd d0a0 12bc 5889 203d
00000150: 7405 8dbd c824 c63c 8686 b33d b0bf 693c
00000160: 78e9 073d ea7d f43d b83e 47bd 64cc 6e3d
00000170: 0059 b1bb 58bf 923c b000 05bc 8a42 e9bd
00000180: 6005 4cbc 00a3 7f3a 7898 973c b81e b93c
00000190: 7000 93bc 986f 15bd a02c 71bc e0af edbc
000001a0: 04d0 2cbd 5881 d3bc b402 fbbd 2668 c03d
000001b0: c0e7 1d3c 4a16 de3d 82ad 8f3d 2022 093c
000001c0: a622 c2bd 58d2 37bd fed7 87bd 0cc3 67bd
000001d0: a0f4 ea3d 92ef cc3d 1039 07bd 50e7 9b3d
000001e0: 38f8 123d c454 5abd 2014 9fbd 5854 44bd
000001f0: 663d e5bd 6e5a d03d 9294 a2bd f0c1 ccbc
00000200: a54a 7b3d 683e 99be e446 b7bd 662f 373c
00000210: 96c6 063e 4f5a 57bf f866 4abe 4043 80bf
00000220: a215 15be 8c80 c7bd 2a35 d83c 5dea 75bd
00000230: 4a8a 44bd 6e7c 27be 4612 6dbd b524 07be
00000240: 3798 ea3a 8ba5 9abc be4e fdbd f7f0 f8bd
00000250: b6c5 6f3d cbc8 353e 7685 333e 94c4 b6bd
00000260: 2d03 09be 30e3 f23d 48fe 8dbd 4b8b 88bf
00000270: 8ebf d63d 0f2c 27be 63a6 7c3d 8b2d 0fbe
00000280: f9d1 a33d 3829 4dbd 3515 06be f560 8f3d
00000290: b5e2 053e fba6 82bf 4777 7e3e af36 77bd
000002a0: 8366 2ebd 04c9 4b3d 0b43 a9bd b902 32be
000002b0: 8956 1c3e d044 83bc 733e 35be e4ba b83d
000002c0: c454 943d 508d efbd 9308 0ebe 2b25 5d3f
000002d0: a1ff 283e 53de edbd df84 76be 696c 363e
000002e0: 70a9 3b3d 90ec d13d 3ae5 63bd 6733 56be
000002f0: a241 073e 8c35 f23b 924b 0abf f5b6 bcbc
00000300: dee8 043f 48e0 793f eb9b 3c3f f275 543f
00000310: 48a0 9c3f b97f 0c3f f9e2 9f3f 3b63 3d3f
00000320: 7ecb 6d3f 7b9f cc3e 5a44 453f b398 c13f
00000330: a7e3 853f 1505 3a3f 827b ff3e 23e3 113f
00000340: e8f2 653f 3999 683e 0d66 a53f 7271 623f
00000350: 3e45 573f 45d3 723f a140 c43f c7e2 683f
00000360: dbd6 843f 9e35 ae3f 2c68 943f 4670 2b3f
00000370: 3061 653f 2dfb 2e3f 0609 6f3f 1b22 593f
00000380: 3084 823f 0d42 b03f 6d65 083f e57e 023f
00000390: 5286 373f 8bb1 343f 94f6 953f f69f ad3e
000003a0: 2e6b 973f 2792 663f 7ed7 1b3f f323 c73f
000003b0: 1789 ba3f 78ab 243f a448 d53e 4206 783f
000003c0: 30fd 2e3f d190 1d3f 5d57 323f f0f1 193f
000003d0: 7896 2e3f a714 1a3f 1f83 b43f da87 343f
000003e0: 4988 e93e 8238 273f d4b1 373f 3875 553f
000003f0: d464 573f 6b77 063f 36d0 003f efcb f53e

lstm.bias_hh_l0 f4 [256]
0.63326395 1.1775002 0.73003244 0.92456555 1.3654425 0.63449204 1.3684148 0.6225216
1.1693976 0.3751883 0.855087 1.451086 0.8958094 1.1940925 0.57730156 0.54480976
1.0697672 0.28875834 1.3214005 0.72851574 0.9293896 0.8037529 1.4648554 1.0839772
1.1268963 1.3746861 1.3670452 0.5927021 0.87014794 0.6991618 1.0246768 1.0207924
1.1094363 1.4052194 0.8461472 0.628384 0.66999185 0.59556097 1.211883 0.23091555
1.273028 0.8725013 0.7231117 1.6404972 1.5680625 0.49634084 0.22501543 1.0230312
0.7084934 0.68181854 0.69163734 0.58107924 0.70896214 0.7313723 1.2358105 0.8496723
0.65688246 0.8258725 0.6878349 0.96950835 0.84930146 0.5806551 0.4984289 0.4960869
0.020750597 -0.009423748 0.03264247 -0.09613103 0.12023018 0.096338615 -0.06383778 0.05693668
0.089814395 0.025511757 0.093177274 -0.056295633 -0.051757768 0.06809907 -0.11227891 -0.06610724
0.05120869 -0.08506884 0.024390772 0.12019639 -0.039517775 0.086812064 -0.05807115 0.015067115
-0.023283288 -0.116950095 -0.0046182126 0.07009822 0.11775243 -0.018229932 0.04596418 -0.05425495
0.02005501 -0.009578586 -0.10094878 0.10116774 -0.090330675 -0.019557312 0.1041286 0.063620344
-0.054690093 -0.078660175 -0.060165346 0.118337065 -0.006456226 -0.013157308 -0.0372843 -0.113912374
-0.103507295 0.08547938 0.09784566 -0.01907295 -0.116680756 -0.11569902 -0.11921623 0.06502105
-0.033411145 -0.026931152 0.10255054 0.0139862 -0.10431744 0.06621109 0.00045233965 0.09038125
2.6753494e-05 -0.12204735 -0.10363791 0.049854912 0.11344304 -0.8664847 -0.057271887 -0.9982501
-0.16965544 0.00592535 0.0684569 -0.08543937 -0.015311345 -0.2544395 0.04324889 0.0317774
-0.063074015 -0.11712163 -0.034523465 -0.067087054 0.0090034865 0.013658062 0.17873946 -0.082256235
-0.21377951 0.027806621 -0.14342085 -1.0837208 0.021765258 -0.1936478 0.08119979 -0.26853332
0.13325529 -0.089211434 0.028567493 -0.06877675 0.138929 -0.98350346 0.083692126 0.024565237
-0.14500043 -0.00943185 -0.09972897 -0.08247363 0.13539228 -0.056111623 -0.14057826 0.104748584
0.15420245 -0.15814187 0.0015869186 0.7438055 0.30842483 -0.1544589 -0.25196183 0.12381652
0.014693157 0.2556454 -0.061769728 -0.29208317 0.08004136 -0.05052792 -0.40369296 0.1430584
0.6903545 0.8738297 0.77874136 0.6662124 1.1688123 0.60905325 1.1861982 0.56003356
0.92710704 0.38996503 0.7247287 1.4176269 1.0065193 0.76867396 0.5301644 0.6253471
0.9050487 0.4357575 1.3959607 0.8327087 0.80892974 0.91577876 1.3803488 1.0717057
1.054204 1.5303357 1.1956267 0.6175455 0.7286555 0.6460626 0.9437275 0.82784235
1.1296022 1.281595 0.7629475 0.57843274 0.87753725 0.74007094 1.3023189 0.14755082
1.127389 0.90482825 0.57333726 1.4391769 1.6058509 0.55666023 0.45389938 1.0301679
0.6321955 0.71573794 0.73163974 0.4974081 0.74935734 0.8057614 1.2849253 0.69404685
0.6169928 0.63212866 0.69805896 0.8996302 0.7572186 0.4883796 0.42696133 0.48725706
00000000: 961d 223f 54b8 963f 68e3 3a3f 54b0 6c3f
00000010: d2c6 ae3f 126e 223f 3728 af3f 935d 1f3f
00000020: d2ae 953f ae18 c03e fbe6 5a3f 30bd b93f
00000030: c453 653f 06d8 983f 09ca 133f a778 0b3f
00000040: 22ee 883f 22d8 933e a723 a93f 0280 3a3f
00000050: 7aec 6d3f c0c2 4d3f 6280 bb3f c4bf 8a3f
00000060: 233e 903f b7f5 af3f 56fb ae3f 53bb 173f
00000070: 04c2 5e3f 45fc 323f 9c28 833f 53a9 823f
00000080: 0202 8e3f 3bde b33f 1a9d 583f c6dd 203f
00000090: 9684 2b3f af76 183f fb1e 9b3f 2075 6c3e
000000a0: 95f2 a23f 3f5c 5f3f d91d 393f d0fb d13f
000000b0: 46b6 c83f 6320 fe3e 726a 663e b0f2 823f
000000c0: d35f 353f a98b 2e3f 250f 313f 9cc1 143f
000000d0: 8b7e 353f 373b 3b3f 0a2f 9e3f 2084 593f
000000e0: 7329 283f 616c 533f f315 303f b331 783f
000000f0: d26b 593f d0a5 143f 1332 ff3e 1aff fd3e
00000100: 28fd a93c 1066 1abc 1cb4 053d 58e0 c4bd
00000110: 3e3b f63d 2e4d c53d 62bd 82bd 7036 693d
00000120: 9cf0 b73d 08fe d03c bad3 be3d 4096 66bd
00000130: f4ff 53bd 8677 8b3d 7cf2 e5bd 3c63 87bd
00000140: 34c0 513d 9238 aebd 28cf c73c 8629 f63d
00000150: 64dd 21bd 86ca b13d 04dc 6dbd 10dc 763c
00000160: 98bc bebc 8883 efbd 6054 97bb a88f 8f3d
00000170: 3028 f13d f056 95bc f044 3c3d 703a 5ebd
00000180: 684a a43c 80ef 1cbc 3cbe cebd 0831 cf3d
00000190: 4aff b8bd a836 a0bc 6041 d53d 624b 823d
000001a0: b802 60bd 9618 a1bd f06f 76bd b45a f23d
000001b0: c08e d3bb c091 57bc 6cb7 18bd e44a e9bd
000001c0: a2fb d3bd d00f af3d 4e63 c83d e03e 9cbc
000001d0: 52f6 eebd 9cf3 ecbd a427 f4bd c229 853d
000001e0: 20da 08bd b89e dcbc 0406 d23d 6026 653c
000001f0: 62a4 d5bd ae99 873d 0028 ed39 ce19 b93d
00000200: b16c e037 f6f3 f9bd 1d40 d4bd aa34 4c3d
00000210: d354 e83d f1d1 5dbf ed95 6abd 528d 7fbf
00000220: 28ba 2dbe 7029 c23b 2233 8c3d d6fa aebd
00000230: 70dc 7abc e545 82be c025 313d 0529 023d
00000240: f32c 81bd 77dd efbd 7a68 0dbd f064 89bd
00000250: 5c83 133c 10c6 5f3c 7a07 373e f575 a8bd
00000260: 04e9 5abe b6ca e33c eadc 12be 5db7 8abf
00000270: 0e4d b23c 9c4b 46be 134c a63d 337d 89be
00000280: 1374 083e 7cb4 b6bd 6006 ea3c d3da 8cbd
00000290: 6743 0e3e e2c6 7bbf c766 ab3d 093d c93c
000002a0: fe7a 14be 0c88 1abc b43e ccbd efe7 a8bd
000002b0: 46a4 0a3e 4dd5 65bd bff3 0fbe 6d86 d63d
000002c0: 3fe7 1d3e f1ef 21be 2700 d03a 0a6a 3e3f
000002d0: dce9 9d3e 792a 1ebe 2401 81be 8493 fd3d
000002e0: 91bb 703c f4e3 823e 4102 7dbd ed8b 95be
000002f0: b9ec a33d 5df6 4ebd d8b0 cebe e77d 123e
00000300: 13bb 303f 4eb3 5f3f 985b 473f e58c 2a3f
00000310: a49b 953f eaea 1b3f 58d5 973f 5c5e 0f3f
00000320: e356 6d3f 7fa9 c73e d287 393f cc74 b53f
00000330: a0d5 803f d1c7 443f dbb8 073f bf16 203f
00000340: 46b1 673f 9b1b df3e d7ae b23f 662c 553f
00000350: 0516 4f3f 7a70 6a3f 45af b03f a72d 893f
00000360: 28f0 863f 0ae2 c33f 4c0a 993f 7617 1e3f
00000370: 2b89 3a3f 5c64 253f 2098 713f 7aed 533f
00000380: ce96 903f 4e0b a43f 8750 433f 2b14 143f
00000390: 48a6 603f 4a75 3d3f 63b2 a63f 9017 173e
000003a0: 484e 903f d3a2 673f 3bc6 123f f336 b83f
000003b0: 868c cd3f 4981 0e3f 8065 e83e 8bdc 833f
000003c0: 90d7 213f 9a3a 373f be4c 3b3f 46ac fe3e
000003d0: e2d5 3f3f 6146 4e3f 6f78 a43f 0ead 313f
000003e0: 3df3 1d3f 2fd3 213f feb3 323f 2a4e 663f
000003f0: 14d9 413f e40c fa3e ad9a da3e c279 f93e

fc.weight f4 [1, 64]
0.71643686 -1.3900304 -1.011091 0.76477796 1.2830377 -1.5325649 -1.1250362 -1.6324826
-1.2298771 0.5225948 0.8642896 -1.3559945 -1.3363051 -1.4720452 0.8499313 -1.0801082
-0.9705616 0.52457726 -0.996235 0.89538115 0.80834484 1.4446752 1.6077248 -1.0717324
-1.4716432 1.2929841 -1.4313531 -1.6099557 1.5200449 -1.5259346 1.0617183 -1.3657278
1.1101315 -1.1135172 -1.517279 -0.47835666 1.5581366 -1.7916919 1.2945203 0.6067291
-1.2226628 0.9685784 -0.9971798 -1.3401444 1.2833891 -0.8652862 -0.8393566 0.98897344
1.3110343 -1.3016143 -1.1048911 1.5560693 1.669905 -1.1521055 -1.4443287 1.2199175
-0.7208785 1.6149659 -0.65234655 -1.3332067 1.3731923 0.58983797 -1.0292486 0.79684263
00000000: 6868 373f 84ec b1bf 6e6b 81bf 7dc8 433f
00000010: 943a a43f 162b c4bf 3001 90bf 31f5 d0bf
00000020: 9d6c 9dbf c6c8 053f 1542 5d3f 3a91 adbf
00000030: 0c0c abbf fa6b bcbf 1995 593f fc40 8abf
00000040: ba76 78bf b24a 063f 4209 7fbf b337 653f
00000050: b0ef 4e3f 1eeb b83f edc9 cd3f 872e 89bf
00000060: ce5e bcbf 8180 a53f 9436 b7bf 0713 cebf
00000070: d590 c23f d351 c3bf 63e6 873f 2bd0 aebf
00000080: ca18 8e3f bb87 8ebf 3336 c2bf 2aeb f4be
00000090: 0571 c73f 2956 e5bf d7b2 a53f 9952 1b3f
000000a0: 3780 9cbf c1f4 773f 2d47 7fbf da89 abbf
000000b0: 1846 a43f 6583 5dbf 13e0 56bf 5d2d 7d3f
000000c0: f9cf a73f 4c9b a6bf 126d 8dbf 472d c73f
000000d0: 72bf d53f 3178 93bf c3df b8bf 4226 9c3f
000000e0: 7e8b 38bf 34b7 ce3f 2f00 27bf 84a6 aabf
000000f0: c4c4 af3f 9fff 163f 6bbe 83bf e1fd 4b3f
