ml_models/LSTM_model.pt (torch, 75622 bytes, 5 tensors)

lstm.weight_ih_l0 f4 [256, 5]
-0.17447257 0.12223233 -0.2505177 -0.16202348 0.1442542 -0.16560757 0.25366178 0.25726858
-0.09467945 0.13342093 -0.24764343 0.17721224 -0.39110175 -0.046401825 0.27356583 -0.27405846
0.375828 -0.34803772 -0.01540549 0.21351163 -0.005233438 0.11621042 0.04955135 -0.10823248
0.12259725 -0.30610353 0.29423892 -0.45679197 -0.43740243 0.76152945 -0.19629736 0.25052428
-0.48517326 0.10218143 0.28312483 -0.23029824 0.26065978 -0.590358 0.13475977 0.20251673
-0.3698218 0.37515795 0.41551128 0.10626256 0.26283687 -0.40114173 0.2775942 -0.4540174
-0.104202144 0.33528987 -0.27907246 0.1304503 0.03767015 0.0021267019 0.26523983 -0.25058272
0.16335504 -0.100402 -0.149922 0.16733143 -0.31282586 0.3972404 -0.39908493 0.047620032
0.124241464 -0.29202405 0.42170766 0.07353394 0.10295944 0.25265163 -0.34143975 0.4139313
0.26295495 -0.084322736 0.317114 -0.4209386 0.39082244 0.37717193 0.011597046 -0.01601297
-0.18954211 0.31704864 0.346678 0.09421087 -0.013661299 -0.32376805 0.2316575 -0.2640097
-0.026344283 0.0837849 -0.16936071 0.34232402 0.61961156 0.09561509 -0.08400528 -0.27130762
0.38876668 -0.43733603 -0.200528 0.41738454 -0.21500874 0.25614282 -0.3660909 -0.09904763
0.11933147 -0.2855666 0.3963928 -0.39265814 0.09874612 0.07122371 -0.3104907 0.1753219
-0.55025196 -0.37151545 0.6303367 -0.0720624 0.14102739 0.00469646 0.07324365 0.14513394
-0.25868997 0.06104042 0.2937487 0.086339906 0.15316206 -0.37216493 0.24190836 -0.30268383
0.26369467 0.07162004 -0.16464539 0.2610312 -0.24846095 -0.33923948 0.61019117 -0.2333449
0.22904174 0.56097263 -0.04868224 0.19018108 -0.27122757 0.16053921 -0.5391035 0.11193073
0.103073634 -0.565389 0.6282188 -0.4358697 -0.1204204 0.20633115 -0.2445067 0.2823249
-0.15835457 -0.28183636 0.43209842 -0.23172818 0.2486529 -0.49086744 -0.20615898 0.40190366
-0.37465498 0.29539546 -0.31482536 -0.23315342 0.50733596 -0.39071915 0.35164103 -0.2096414
-0.44925678 0.63067293 -0.31100515 0.27405617 -0.15924354 -0.040448114 0.18230438 -0.31166577
0.34243837 -0.4410069 0.35887167 0.08095548 -0.35443747 0.22418492 -0.33486155 0.04091635
0.3568742 -0.3687925 0.43165836 -0.4923979 -0.46556965 0.43072683 -0.42507496 0.45481846
-0.4294913 -0.51439023 0.67851686 -0.2069721 0.21361797 -0.2930788 -0.17395794 0.29167664
-0.35436603 0.3751422 -0.33601537 -0.19802259 0.42790237 -0.45810407 0.4345784 -0.36198032
0.41364825 -0.14415516 -0.22412775 0.32754195 -0.2137584 0.12807694 -0.20261338 -0.25031653
0.20405887 -0.5311433 0.03807593 0.14907984 -0.32171386 0.37518966 -0.24931812 -0.21327612
0.47121203 -0.46084654 0.53643554 -0.4423823 -0.2916252 0.6211143 -0.30496234 0.28621963
-0.43070582 0.10286402 0.19755791 -0.26788086 0.22728314 -0.37013176 -0.109281816 0.47733262
-0.44072655 0.4256167 0.04608192 0.3532542 0.3756265 -0.2329636 0.31243408 -0.023078924
-0.099905364 0.27538386 -0.19254735 0.2380868 0.038842287 -0.08132615 0.1165164 -0.35441124
00000000: f0a8 32be f254 fa3d db43 80be 7ce9 25be
00000010: 5fb7 133e 0895 29be f5df 813e b5b8 833e
00000020: 4de7 c1bd 7f9f 083e 3d96 7dbe 2077 353e
00000030: 7d3e c8be d70f 3ebd d210 8c3e 6451 8cbe
00000040: 876c c03e 0032 b2be 4f67 7cbc cba2 5a3e
00000050: 437d abbb bbff ed3d 5bf6 4a3d fea8 ddbd
00000060: 4414 fb3d 9ab9 9cbe 7ca6 963e a3e0 e9be
00000070: 36f3 dfbe 98f3 423f 2d02 49be b844 803e
00000080: a168 f8be 7f44 d13d bdf5 903e 4dd3 6bbe
00000090: 3375 853e b421 17bf 77fe 093e 8c60 4f3e
000000a0: 4859 bdbe b414 c03e e5bd d43e 2fa0 d93d
000000b0: 8e92 863e 7362 cdbe d420 8e3e f874 e8be
000000c0: ef67 d5bd 1dab ab3e 96e2 8ebe c394 053e
000000d0: 044c 1a3d 2360 0b3b 84cd 873e 614c 80be
000000e0: 8b46 273e 909f cdbd 2785 19be ee58 2b3e
000000f0: b62a a0be 1863 cb3e dc54 ccbe 390d 433d
00000100: 4f72 fe3d 2d84 95be 11ea d73e f698 963d
00000110: 66dc d23d 8e5b 813e 31d1 aebe ceee d33e
00000120: 08a2 863e 66b1 acbd c45c a23e 4485 d7be
00000130: e119 c83e ae1c c13e 8901 3e3c a22d 83bc
00000140: 5417 42be 3354 a23e c77f b13e a1f1 c03d
00000150: a4d3 5fbc edc4 a5be a037 6d3e 482c 87be
00000160: f7cf d7bc 6b97 ab3d e56c 2dbe 1845 af3e
00000170: dd9e 1e3f d8d1 c33d f60a acbd d5e8 8abe
00000180: 6d0c c73e 82ea dfbe 3657 4dbe 6db3 d53e
00000190: 402b 5cbe 2725 833e 4470 bbbe 7cd9 cabd
000001a0: 0f64 f43d c935 92be fff3 ca3e 7d0a c9be
000001b0: 683b ca3d bddd 913d a3f8 9ebe 9687 333e
000001c0: 50dd 0cbf 4637 bebe bf5d 213f 7495 93bd
000001d0: 7c69 103e c3e4 993b c400 963d fe9d 143e
000001e0: 0373 84be 8505 7a3d 3b66 963e fad2 b03d
000001f0: 84d6 1c3e 678c bebe d3b6 773e 60f9 9abe
00000200: fd02 873e 87ad 923d cd98 28be e2a5 853e
00000210: 8c6c 7ebe ccb0 adbe 7d35 1c3f f7f1 6ebe
00000220: eb89 6a3e e79b 0f3f 0767 47bd d4be 423e
00000230: 57de 8abe 6464 243e b002 0abf f03b e53d
00000240: 4518 d33d 55bd 10bf f3d2 203f 502a dfbe
00000250: f89e f6bd 7948 533e f75f 7abe e48c 903e
00000260: b327 22be db4c 90be 013c dd3e 274a 6dbe
00000270: de9e 7e3e fa52 fbbe 571b 53be 51c6 cd3e
00000280: c7d2 bfbe 133e 973e ca30 a1be c5bf 6ebe
00000290: c5e0 013f 570c c8be 4b0a b43e 3cac 56be
000002a0: fc04 e6be c873 213f 113c 9fbe 1751 8c3e
000002b0: bd10 23be ecac 25bd 00ae 3a3e a892 9fbe
000002c0: 1554 af3e a8cb e1be 07be b73e fdcb a53d
000002d0: d478 b5be bb90 653e f972 abbe e797 273d
000002e0: 37b8 b63e 5fd2 bcbe 5302 dd3e 941b fcbe
000002f0: 255f eebe 3a88 dc3e 6da3 d9be f7dd e83e
00000300: 49e6 dbbe 14af 03bf 48b3 2d3f 7ff0 53be
00000310: abbe 5a3e 6d0e 96be 0822 32be a456 953e
00000320: 776f b5be a312 c03e 350a acbe 6fc6 4abe
00000330: 0516 db3e 9e8c eabe 0f81 de3e 7c55 b9be
00000340: b4c9 d33e 699d 13be bf81 65be 94b3 a73e
00000350: 7be3 5abe 9a26 033e e279 4fbe 7d29 80be
00000360: cff4 503e 02f9 07bf 82f5 1b3d 63a8 183e
00000370: aeb7 a4be dc18 c03e 404d 7fbe 0e65 5abe
00000380: b442 f13e 14f4 ebbe d753 093f ef7f e2be
00000390: e64f 95be 5901 1f3f 0624 9cbe 618b 923e
000003a0: 7985 dcbe 5faa d23d 9f4c 4a3e ae27 89be
000003b0: e9bc 683e e981 bdbe 25cf dfbd f164 f43e
000003c0: e9a6 e1be 6fea d93e 65c0 3c3d bcdd b43e
000003d0: 1e52 c03e 038e 6ebe 5cf7 9f3e 0310 bdbc
000003e0: 2f9b ccbd 1dff 8c3e 222b 45be 07cd 733e
000003f0: 1719 1f3d 538e a6bd 26a0 ee3d 6475 b5be

lstm.weight_hh_l0 f4 [256, 64]
-0.0061029196 -0.11175671 0.0008389354 -0.102175325 0.1195623 0.015065789 0.11334832 -0.004562661
0.09389737 -0.08936854 0.09345281 -0.097111374 0.020691618 0.051623642 -0.10518703 -0.017457321
0.074844405 0.014743954 0.0235776 0.09792268 -0.1130953 0.011564508 -0.066830024 0.0060831755
0.10260415 0.09965089 0.0667637 0.071235746 0.05353169 0.0952006 0.11527072 -0.06754336
0.041120127 0.008489758 0.10241318 0.10034877 0.012052804 0.032490984 -0.09039974 -0.033836246
-0.09226811 -0.045442134 0.05867578 0.0013088435 0.0147667825 -0.030958474 0.056567565 -0.032653168
-0.04553248 0.09827426 -0.005372569 -0.06948024 -0.022320315 0.09317079 0.004936293 0.051210016
0.0572951 -0.049057007 0.05827236 0.043079272 -0.00053836405 -0.056419507 -0.0758152 -0.083215564
-0.12328699 0.1218788 0.09298445 0.10742092 -0.037557334 0.07657798 -0.0014960021 -0.06211564
0.117791414 0.11851902 -0.06369084 0.07529108 0.0827883 0.0002977103 0.01639758 -0.010314807
-0.02329205 -0.12330036 -0.08888437 -0.06465207 0.08882654 -0.08384293 -0.010780215 0.036932707
0.060428828 0.01572463 0.08594681 0.020139903 0.007970482 -0.114830926 -0.11773273 -0.08282779
0.09431872 0.061312348 0.11420055 -0.05188942 0.057966113 0.020753473 0.0089072585 -0.0500793
-0.078219324 0.111021966 0.00071661174 -0.11268298 -0.08960785 0.0075299293 -0.057489306 -0.08141485
0.07308096 -0.013838932 0.026487201 -0.07672644 -0.11814062 -0.10534361 0.003233105 -0.09348558
-0.06801462 -0.034367666 0.07767627 0.059454337 0.0743072 -0.0038891435 -0.020216018 -0.056272373
0.09986089 -0.043026283 -0.10272591 -0.0577659 -0.03510672 -0.06988184 -0.10076302 -0.06829804
-0.016727298 0.060247883 0.0016600043 -0.09004106 0.0870551 -0.019218162 -0.085899964 -0.05153331
-0.016525224 0.0065056086 0.12356123 -0.03472005 0.0538716 0.07616703 -0.085373074 0.068908095
0.12489186 -0.096547425 -0.009758502 0.123931006 0.07744722 -0.08047786 -0.047979012 0.11454588
0.004485905 0.03408073 0.038619056 -0.09206943 -0.11353895 -0.0038722157 -0.0011072159 -0.015993074
-0.057279587 -0.109812126 -0.105497405 0.12394039 -0.09219243 -0.0802135 -0.008980587 0.09312406
-0.060043454 -0.1176718 -0.112103894 -0.033111855 -0.12411784 0.024361491 0.023760915 0.1058031
-0.02446182 0.06018737 0.07358281 -0.11784001 -0.07710734 -0.019563198 -0.11677401 0.027271986
-0.05603762 0.02123025 -0.02099736 -0.02287051 0.054617986 -0.04574287 -0.12186152 0.050956488
0.09343666 0.09928191 -0.07430729 0.023650646 -0.06481105 0.115787566 0.030976102 0.06713523
-0.02234228 0.12140107 0.016409472 -0.05886072 0.0842011 -0.061468065 -0.048614264 -0.05715029
0.10121231 0.024738833 -0.060124606 0.030370682 0.020445123 -0.08206116 0.08231276 0.1236155
0.06856148 0.049853668 -0.05054906 0.042114362 -0.097587526 0.0077294856 -0.12404682 -0.039558575
-0.09170267 0.01589866 0.06823073 0.040080607 -0.12313299 -0.0104186535 0.039558306 -0.05490461
0.11291006 0.028305188 0.099570826 -0.058422044 0.110396996 0.061075225 0.08425386 0.09008466
-0.018682748 -0.0798946 -0.085101545 -0.035603777 -0.08304493 0.055878475 0.10776247 0.06986494
00000000: 00fb c7bb b4e0 e4bd 00ec 5b3a 4c41 d1bd
00000010: 14dd f43d 80d6 763c 2a23 e83d 6082 95bb
00000020: 444d c03d da06 b7bd 3064 bf3d 54e2 c6bd
00000030: 7881 a93c 5073 533d 4c6c d7bd a802 8fbc
00000040: 0648 993d a090 713c d025 c13c b08b c83d
00000050: 829e e7bd 1079 3d3c 2ede 88bd 6055 c73b
00000060: 2022 d23d c415 cc3d 68bb 883d 0ce4 913d
00000070: 0c44 5b3d 88f8 c23d 0e13 ec3d 2c54 8abd
00000080: 946d 283d a018 0b3c 00be d13d a883 cd3d
00000090: 2079 453c 4415 053d 8023 b9bd e097 0abd
000000a0: 10f7 bcbd 8821 3abd 0456 703d 808d ab3a
000000b0: 60f0 713c a09c fdbc 64b3 673d 54bf 05bd
000000c0: 4480 3abd 0444 c93d 600c b0bb a84b 8ebd
000000d0: 18d9 b6bc 54d0 be3d a0c0 a13b 98c1 513d
000000e0: 44ae 6a3d 00f0 48bd 00af 6e3d e473 303d
000000f0: 0021 0dba 2418 67bd 0045 9bbd ec6c aabd
00000100: e47d fcbd 989b f93d a26e be3d 80ff db3d
00000110: b8d5 19bd ead4 9c3d 8015 c4ba f86c 7ebd
00000120: a03c f13d 1aba f23d 5870 82bd 3632 9a3d
00000130: ea8c a93d 0016 9c39 3854 863c 70ff 28bc
00000140: f8ce bebc e684 fcbd 0209 b6bd 4e68 84bd
00000150: b0ea b53d d8b5 abbd 809f 30bc c046 173d
00000160: 3884 773d f0d0 803c e204 b03d 70fc a43c
00000170: a096 023c 7a2c ebbd dc1d f1bd 9ea1 a9bd
00000180: 2c2a c13d a822 7b3d fae1 e93d 008a 54bd
00000190: e06d 6d3d 3003 aa3c c0ef 113c f41f 4dbd
000001a0: 7431 a0bd 7c5f e33d 00db 3b3a 56c6 e6bd
000001b0: 5284 b7bd a0bd f63b e879 6bbd d4bc a6bd
000001c0: 78ab 953d b0bc 62bc b0fb d83c c022 9dbd
000001d0: b6f3 f1bd 64be d7bd 80e2 533b 5e75 bfbd
000001e0: 404b 8bbd 1cc5 0cbd bc14 9f3d 6486 733d
000001f0: 602e 983d 00e1 7ebb 109c a5bc dc7d 66bd
00000200: de83 cc3d 543c 30bd f661 d2bd f09b 6cbd
00000210: 10cc 0fbd 361e 8fbd d85c cebd d8df 8bbd
00000220: b007 89bc 7cc6 763d 8094 d93a 7267 b8bd
00000230: f249 b23d 686f 9dbc 52ec afbd 9814 53bd
00000240: e85f 87bc 002d d53b ac0d fd3d 9c36 0ebd
00000250: 78a8 5c3d 76fd 9b3d 14d8 aebd b01f 8d3d
00000260: 4ec7 ff3d a8ba c5bd 20e2 1fbc 8acf fd3d
00000270: a69c 9e3d 94d1 a4bd a485 44bd 0897 ea3d
00000280: 80fe 923b 3c98 0b3d 042f 1e3d e68e bcbd
00000290: 1c87 e8bd 00c5 7dbb 0020 91ba e803 83bc
000002a0: 009e 6abd 2ee5 e0bd 060f d8bd 76d4 fd3d
000002b0: 62cf bcbd fa46 a4bd 5023 13bc d4b7 be3d
000002c0: 20f0 75bd eafd f0bd ba96 e5bd 4ca0 07bd
000002d0: 7e31 febd c091 c73c 40a6 c23c 4caf d83d
000002e0: 2864 c8bc 0887 763d 96b2 963d 1a56 f1bd
000002f0: 74ea 9dbd 0043 a0bc 3627 efbd 8069 df3c
00000300: b487 65bd 10eb ad3c a802 acbc f05a bbbc
00000310: 1cb7 5f3d e05c 3bbd 8892 f9bd c0b7 503d
00000320: b85b bf3d 5054 cb3d 6c2e 98bd 00bf c13c
00000330: a8bb 84bd 0822 ed3d 98c1 fd3c 327e 893d
00000340: 2807 b7bc 20a1 f83d 286d 863c f017 71bd
00000350: a071 ac3d f0c5 7bbd c01f 47bd 6c16 6abd
00000360: 6648 cf3d 18a9 ca3c 3845 76bd f0cb f83c
00000370: 887c a73c ae0f a8bd 9893 a83d 202a fd3d
00000380: f669 8c3d 5c33 4c3d 880c 4fbd 1c80 2c3d
00000390: f8db c7bd a047 fd3b 420c febd 2c08 22bd
000003a0: 9cce bbbd e83d 823c 8ebc 8b3d 902b 243d
000003b0: 262d fcbd 00b3 2abc e407 223d a8e3 60bd
000003c0: 643d e73d 48e0 e73c caeb cb3d f44b 6fbd
000003d0: d217 e23d 042a 7a3d 4a8d ac3d 4e7e b83d
000003e0: 900c 99bc c89f a3bd b849 aebd 44d5 11bd
000003f0: 7613 aabd d4e0 643d 92b2 dc3d 5a15 8f3d

lstm.bias_ih_l0 f4 [256]
0.6117726 0.63940805 0.58295447 0.5728615 0.4362144 0.7837424 0.6304951 0.98494667
0.67013556 0.6028614 0.49135596 0.7465805 0.5929462 0.75115216 0.5985001 0.8871246
0.4786341 0.51123846 0.6289002 0.45126924 0.53878707 0.49468043 0.6375762 0.5451537
0.6909588 0.5157883 0.5989971 0.5160536 1.0013397 0.021726789 0.5020502 0.53900397
0.5717458 0.6709327 0.6111824 0.6128073 0.75967014 0.64453053 0.47992685 0.35180974
0.7779784 0.58197594 0.65563655 0.8138149 0.48917708 0.7152768 0.63712215 0.45578337
1.4252213 0.7759375 0.4957196 0.6295405 0.6164976 0.41854578 0.42440587 0.6246278
0.71084183 0.5035782 0.63098264 0.43215978 0.7983346 0.60934454 0.7740769 0.62666875
-0.039132223 0.0134604275 -0.06607275 -0.021161214 0.055012703 -0.020742416 -0.010415003 0.071340606
0.11023648 -0.11029118 -0.034833744 0.11131327 0.105134785 -0.051530734 -0.019981697 0.08053908
0.11091891 0.046668068 0.04953049 -0.099313304 0.08106364 0.10516806 0.08352649 0.014615744
-0.1244394 -0.07627253 0.111667335 -0.0009522587 -0.048875198 0.11220965 0.060685843 0.061070815
-0.014335021 -0.018198743 0.055156514 -0.046695665 -0.1192912 -0.040873125 0.018617421 -0.10817006
-0.028186247 0.094817 -0.03406194 0.0022687018 -0.10248272 0.022920385 -0.102332056 0.04150234
0.044028446 0.1224034 0.117961526 0.060311094 0.094645396 -0.0017318875 0.057774797 -0.11997473
-0.0728381 -0.050082818 0.022223175 0.09119733 0.035276815 0.088385984 0.0264806 -0.080570385
-0.22493118 0.2003923 -0.27335292 -0.15117787 0.2842766 -0.109061025 -0.23600292 0.21021399
-0.24427332 0.1518308 -0.24639599 -0.1862815 0.19800003 -0.27601293 -0.29260692 0.26952085
-0.22279255 0.04419253 0.35857785 0.028284458 -0.07895783 -0.20887043 0.14573571 0.2544793
-0.2543186 0.08867348 -0.29015335 0.28911367 0.1614162 -0.015232021 0.17827977 0.19065239
0.09513285 0.15091223 -0.16503642 0.0014867834 0.21123935 -0.09849414 -0.11614644 -0.1654409
0.25417128 -0.040612258 0.13590936 0.110649794 -0.23006684 -0.15756094 0.079847805 -0.12223376
-0.29011852 -0.29544973 0.2595193 -0.23288254 -0.35388258 0.2970971 0.2660005 0.22679466
-0.1717948 -0.1472169 0.08102846 -0.1930874 -0.34338695 0.19303979 -0.25276083 -0.15944403
0.632096 0.568273 0.5138555 0.66901594 0.43623435 0.9015223 0.69174784 0.88288283
0.77457714 0.55906665 0.43672886 0.60001045 0.63891 0.66220534 0.68095833 0.9042016
0.44032508 0.42444286 0.591029 0.52312124 0.49385884 0.4086712 0.67530555 0.5978454
0.7626025 0.45804986 0.55803084 0.50272274 1.0337801 0.23363222 0.4498526 0.7348935
0.6530133 0.6324718 0.5879356 0.51533496 0.65136683 0.5551881 0.6566683 0.44570145
0.8079428 0.7883869 0.6655819 0.83380705 0.5817027 0.747802 0.56854594 0.5490515
1.4026575 0.73646134 0.5315563 0.66315484 0.6274633 0.47999072 0.44502828 0.5321395
0.7363162 0.58662313 0.53991723 0.5057837 0.6890879 0.5676425 0.7251871 0.5295327
00000000: 219d 1c3f 3fb0 233f 813c 153f 0da7 123f
00000010: 7e57 df3e 58a3 483f 2068 213f 7725 7c3f
00000020: 018e 2b3f 2055 1a3f 0293 fb3e e61f 3f3f
00000030: 52cb 173f 824b 403f 4d37 193f 991a 633f
00000040: 870f f53e 86e0 023f 9aff 203f c30c e73e
00000050: f3ed 093f c146 fd3e 3238 233f 318f 0b3f
00000060: ade2 303f b40a 043f e057 193f 171c 043f
00000070: e62b 803f 61fc b13c 5d86 003f 2afc 093f
00000080: ef5d 123f 3fc2 2b3f 7376 1c3f f0e0 1c3f
00000090: be79 423f f4ff 243f f9b8 f53e 6820 b43e
000000a0: 9829 473f 60fc 143f ccd7 273f 2c56 503f
000000b0: 6b75 fa3e 611c 373f 701a 233f 705c e93e
000000c0: a76d b63f d7a3 463f f6ce fd3e 9129 213f
000000d0: c9d2 1d3f a24b d63e ba4b d93e 9ce7 1f3f
000000e0: bbf9 353f 80ea 003f 1488 213f 0c44 dd3e
000000f0: a85f 4c3f 01fe 1b3f e729 463f 5d6d 203f
00000100: 1c49 20bd 2089 5c3c 2651 87bd 485a adbc
00000110: 0055 613d 00ec a9bc b0a3 2abc 061b 923d
00000120: aac3 e13d 58e0 e1bd d4ad 0ebd 36f8 e33d
00000130: e850 d73d e411 53bd a8b0 a3bc acf1 a43d
00000140: 7429 e33d 0427 3f3d 7ce0 4a3d c664 cbbd
00000150: b204 a63d 5a62 d73d f00f ab3d e076 6f3c
00000160: 16da febd c634 9cbd d8b1 e43d 00a1 79ba
00000170: 5c31 48bd 2cce e53d b891 783d 6425 7a3d
00000180: 70dd 6abc 8815 95bc cceb 613d f443 3fbd
00000190: f24e f4bd 946a 27bd 9083 983c 4488 ddbd
000001a0: d8e6 e6bc 6a2f c23d 8884 0bbd 80ae 143b
000001b0: 76e2 d1bd 88c3 bb3c 7893 d1bd 5cfe 293d
000001c0: 2c57 343d a2ae fa3d d095 f13d c408 773d
000001d0: 72d5 c13d 8000 e3ba 44a5 6c3d 50b5 f5bd
000001e0: 242c 95bd a423 4dbd 600d b63c aac5 ba3d
000001f0: 6c7e 103d b603 b53d d8ed d83c 1602 a5bd
00000200: 5c54 66be a433 4d3e eaf4 8bbe 5fce 1abe
00000210: b48c 913e 635b dfbd c0aa 71be 5642 573e
00000220: c922 7abe 8979 1b3e 3b4f 7cbe 94c0 3ebe
00000230: 85c0 4a3e 9151 8dbe 93d0 95be a3fe 893e
00000240: bb23 64be 3a03 353d 8497 b73e cfb4 e73c
00000250: a5b4 a1bd 21e2 55be be3b 153e 1c4b 823e
00000260: 0c36 82be 719a b53d fb8e 94be b506 943e
00000270: 4a4a 253e ba8f 79bc f98e 363e 613a 433e
00000280: 03d5 c23d bc88 1a3e 4fff 28be 2ce0 c23a
00000290: 214f 583e 4cb7 c9bd 2fde edbd 5769 29be
000002a0: bd22 823e 0a59 26bd d32b 0b3e 5c9c e23d
000002b0: a496 6bbe a857 21be 3f87 a33d b255 fabd
000002c0: 6a8a 94be 3045 97be b7df 843e c378 6ebe
000002d0: 1930 b5be 1c1d 983e 3831 883e dc3c 683e
000002e0: faea 2fbe 07c0 16be 40f2 a53d b4b8 45be
000002f0: 6ad0 afbe 39ac 453e de69 81be 4c45 23be
00000300: 0bd1 213f 577a 113f 098c 033f a144 2b3f
00000310: 1c5a df3e 2aca 663f 6316 313f 9c04 623f
00000320: b04a 463f fe1e 0f3f ed9a df3e 499a 193f
00000330: 9b8f 233f 4a86 293f 4953 2e3f c279 673f
00000340: 4a72 e13e 9350 d93e ad4d 173f 46eb 053f
00000350: 11db fc3e 5a3d d13e d3e0 2c3f 650c 193f
00000360: eb39 433f 8385 ea3e 1cdb 0e3f 70b2 003f
00000370: e852 843f 493d 6f3e 1453 e63e fb21 3c3f
00000380: e12b 273f ace9 213f f382 163f feec 033f
00000390: fabf 263f cf20 0e3f 6a1b 283f fb32 e43e
000003a0: 57d5 4e3f b9d3 493f 9363 2a3f 6174 553f
000003b0: 78ea 143f f46f 3f3f 3a8c 113f a48e 0c3f
000003c0: 488a b33f bb88 3c3f 1314 083f 84c4 293f
000003d0: 6fa1 203f 58c1 f53e bfda e33e 4b3a 083f
000003e0: 387f 3c3f ef2c 163f 0438 0a3f 0a7b 013f
000003f0: 1168 303f 0551 113f dda5 393f 748f 073f

lstm.bias_hh_l0 f4 [256]
0.62084764 0.4595831 0.5107604 0.631384 0.43163761 0.89691734 0.7508291 0.9420947
0.7367687 0.6036011 0.53687143 0.6960074 0.46372217 0.798697 0.55508906 0.8630222
0.50284433 0.46095473 0.55589527 0.47703913 0.46378645 0.56819063 0.75224763 0.44963783
0.59734356 0.5018024 0.51795304 0.540591 0.8315534 0.20052871 0.53364664 0.59349036
0.44714275 0.62530065 0.65483093 0.6972325 0.6496481 0.5212516 0.54047817 0.48650992
0.6211287 0.72181594 0.65064496 0.657912 0.39930534 0.69212645 0.704447 0.56460553
1.3974609 0.78167415 0.49264783 0.62647927 0.65710527 0.4854798 0.4999847 0.6642334
0.82062817 0.50726086 0.395749 0.38896435 0.58978385 0.72662145 0.8296415 0.4421305
-0.101797566 -0.08651814 -0.0866054 0.114388525 -0.024603412 0.100859776 -0.05293107 -0.011197865
-0.09935102 -0.084218726 0.06842254 -0.0072466284 0.0056149215 -0.07211462 0.08760774 -0.074143946
-0.014194638 0.11739956 -0.05940616 -0.10780239 0.10470903 0.036423117 0.02343978 0.048694417
-0.0065327287 0.053929865 -0.11985563 0.09082574 0.08456296 0.020173073 -0.062383533 0.118725985
0.012731448 0.02006784 -0.055925965 -0.035583735 -0.089539304 -0.039393127 0.08237089 0.089994535
0.041478887 0.10068925 -0.07219058 -0.103504494 0.038537383 0.011629164 0.06960297 0.10510114
-0.08902584 -0.054418802 -0.04245004 0.057555124 0.11545913 0.10602403 -0.08597158 0.02455473
-0.028496206 -0.12483689 -0.07324915 0.11352846 0.036878407 0.09006135 0.09986818 -0.050554454
-0.25125793 0.3084304 -0.1255745 -0.26072147 0.2639558 -0.29902756 -0.21050543 0.17673244
-0.2538259 0.10524881 -0.23446092 -0.27889922 0.13913545 -0.17029966 -0.27313697 0.24526134
-0.29682368 0.22297867 0.35102582 0.04233797 -0.2759601 0.009626171 0.1674316 0.2748496
-0.32142398 0.114678524 -0.07355811 0.31433532 0.30580744 0.06702223 0.06002531 0.31165403
0.19973879 0.115110084 -0.32212177 0.16542877 0.30377892 -0.12771747 -0.15663064 -0.12376727
0.17984262 -0.19403109 0.11825065 0.25165567 -0.041804906 -0.08529252 0.22792384 -0.13151728
-0.3652611 -0.21145242 0.25706923 -0.059662845 -0.30302048 0.2570405 0.3042834 0.26140854
-0.31356752 -0.10017479 0.14560738 -0.22263068 -0.43494943 0.065970294 -0.08522028 -0.28891206
0.67413384 0.4864015 0.52047825 0.74992126 0.5451315 0.8265051 0.80477536 0.86737406
0.76470315 0.46599236 0.36908537 0.6293598 0.5176097 0.77658856 0.670436 0.809084
0.58012164 0.51353914 0.5835706 0.6140506 0.62463284 0.5520721 0.68935096 0.6163253
0.71505934 0.502853 0.48567903 0.5866753 0.8446945 0.23575324 0.51662093 0.6116984
0.60556746 0.5475051 0.5045453 0.5468472 0.68057775 0.5692523 0.6206577 0.5372299
0.7941 0.5873842 0.66219693 0.67416537 0.4588583 0.88804245 0.6105227 0.430034
1.346561 0.81782496 0.41491836 0.68549496 0.5034566 0.49461326 0.4572094 0.627885
0.6408714 0.61111206 0.6106176 0.46991155 0.69694126 0.67637247 0.8782972 0.63222426
00000000: dfef 1e3f 7a4e eb3e 32c1 023f 62a2 213f
00000010: 9bff dc3e 609c 653f 5636 403f 1e2d 713f
00000020: e09c 3c3f 9a85 1a3f 6870 093f 8a2d 323f
00000030: fe6c ed3e 6877 4c3f 511a 0e3f 06ef 5c3f
00000040: 68ba 003f 4202 ec3e 274f 0e3f 793e f43e
00000050: 6b75 ed3e f174 113f 4d93 403f ee36 e63e
00000060: 82eb 183f 1f76 003f 9298 043f 2c64 0a3f
00000070: afe0 543f 6657 4d3e 119d 083f fcee 173f
00000080: e5ef e43e b413 203f 00a3 273f d47d 323f
00000090: 564f 263f bf70 053f c75c 0a3f d417 f93e
000000a0: 4a02 1f3f eec8 383f ab90 263f ec6c 283f
000000b0: c071 cc3e 332f 313f a356 343f fd89 103f
000000c0: 00e0 b23f cc1b 483f 563c fc3e f260 203f
000000d0: 0d38 283f cf90 f83e fffd ff3e 330b 2a3f
000000e0: b014 523f d9db 013f 9d9f ca3e 5626 c73e
000000f0: 13fc 163f dd03 3a3f 6363 543f ee5e e23e
00000100: 3e7b d0bd 6c30 b1bd 2c5e b1bd 8844 ea3d
00000110: 188d c9bc 928f ce3d 40ce 58bd 4077 37bc
00000120: 8c78 cbbd de7a acbd 1e21 8c3d 2075 edbb
00000130: 60fd b73b d4b0 93bd b06b b33d c8d8 97bd
00000140: a090 68bc 2e6f f03d e053 73bd 80c7 dcbd
00000150: b071 d63d 6830 153d c804 c03c cc73 473d
00000160: 8010 d6bb 90e5 5c3d de76 f5bd d802 ba3d
00000170: 582f ad3d 0042 a53c e085 7fbd 9c26 f33d
00000180: 9097 503c 5065 a43c a012 65bd 40c0 11bd
00000190: 6260 b7bd b05a 21bd 12b2 a83d 0e4f b83d
000001a0: c4e5 293d 2a36 ce3d a8d8 93bd 2afa d3bd
000001b0: 60d9 1d3d 4088 3e3c 008c 8e3d 443f d73d
000001c0: 2e53 b6bd 40e6 5ebd 18e0 2dbd ecbe 6b3d
000001d0: d675 ec3d 2023 d93d de11 b0bd 0027 c93c
000001e0: e070 e9bc 7caa ffbd a603 96bd 9c81 e83d
000001f0: d00d 173d 1672 b83d b087 cc3d 3012 4fbd
00000200: e1a4 80be 97ea 9d3e 9a96 00be 497d 85be
00000210: 3725 873e 241a 99be bc8e 57be 59f9 343e
00000220: 78f5 81be b08c d73d 8616 70be e1cb 8ebe
00000230: 8679 0e3e 0963 2ebe 9cd8 8bbe ca25 7b3e
00000240: 46f9 97be 8554 643e a8b9 b33e 946a 2d3d
00000250: a44a 8dbe 16b7 1d3c 3073 2b3e 16b9 8c3e
00000260: af91 a4be 93dc ea3d a2a5 96bd 8ff0 a03e
00000270: cb92 9c3e f342 893d 19dd 753d 1e91 9f3e
00000280: 5388 4c3e d6be eb3d 25ed a4be 2966 293e
00000290: e988 9b3e 5ec8 02be c863 20be b279 fdbd
000002a0: aa28 383e 16b0 46be 662d f23d 03d9 803e
000002b0: 9f3b 2bbd d8ad aebd de64 693e 77ac 06be
000002c0: 8103 bbbe fc86 58be 949e 833e 0761 74bd
000002d0: 8025 9bbe d09a 833e 09cb 9b3e 57d7 853e
000002e0: ec8b a0be 7128 cdbd 1a1a 153e 4cf9 63be
000002f0: b1b1 debe 6f1b 873d f887 aebd 48ec 93be
00000300: 0994 2c3f 9e09 f93e 103e 053f d7fa 3f3f
00000310: bd8d 0b3f d795 533f c205 4e3f 3a0c 5e3f
00000320: 96c3 433f 8d96 ee3e c2f8 bc3e b91d 213f
00000330: 1282 043f 82ce 463f b2a1 2b3f 2120 4f3f
00000340: da82 143f 4d77 033f e264 153f 6c32 1d3f
00000350: f0e7 1f3f 9954 0d3f 4e79 303f 7fc7 1d3f
00000360: 210e 373f f9ba 003f ecaa f83e 5a30 163f
00000370: e63d 583f 4c69 713e 4541 043f 4498 1c3f
00000380: 7806 1b3f 4b29 0c3f e129 013f 2efe 0b3f
00000390: 583a 2e3f 85ba 113f 6ce3 1e3f e687 093f
000003a0: 234a 4b3f d05e 163f bd85 293f 1a96 2c3f
000003b0: 7aef ea3e c056 633f 374b 1c3f 6b2d dc3e
000003c0: 1c5c ac3f fa5c 513f 2e70 d43e 997c 2f3f
000003d0: 88e2 003f f33d fd3e 5a17 ea3e 12bd 203f
000003e0: 2610 243f d771 1c3f 6f51 1c3f 3f98 f03e
000003f0: be6a 323f bf26 2d3f 16d8 603f 73d9 213f

fc.weight f4 [1, 64]
0.44192818 -0.5746265 0.44486323 0.5994427 -0.43446654 0.69768053 0.5581833 -0.76263016
0.71014535 -0.5142061 0.47637865 0.62459105 -0.5454708 0.57336056 0.40491816 -0.75604457
0.5755015 -0.4558322 -0.44703677 -0.6149205 0.5922804 0.50680834 -0.71211463 -0.479606
0.5944902 -0.4294069 0.5803385 -0.47719097 -0.72011995 -0.23392098 -0.5265802 -0.475046
-0.59819335 -0.52786815 0.46586776 -0.60558945 -0.55028045 0.6659536 0.56135446 0.49543968
-0.59254605 0.63024354 -0.5793914 -0.7552627 0.5263073 0.8399093 -0.74189746 0.4854245
1.1981939 0.56342924 -0.42671114 0.43224505 0.6184385 -0.57544947 -0.42906982 -0.5304525
0.5380186 0.50606275 -0.5763661 0.45439 0.5301851 -0.6577728 0.80975676 0.59008837
00000000: 6944 e23e b91a 13bf 1dc5 e33e 1475 193f
00000010: 6672 debe 319b 323f 1ae5 0e3f bb3b 43bf
00000020: 16cc 353f 03a3 03bf e7e7 f33e 33e5 1f3f
00000030: f9a3 0bbf c2c7 123f 6f51 cf3e 238c 41bf
00000040: 1154 133f d762 e9be 01e2 e4be 6e6b 1dbf
00000050: b09f 173f 31be 013f 254d 36bf eb8e f5be
00000060: 8230 183f 39db dbbe 1091 143f 6052 f4be
00000070: c859 38bf fb88 6fbe f6cd 06bf 3b39 f3be
00000080: 3323 19bf 5e22 07bf 3886 ee3e e907 1bbf
00000090: 2edf 0cbf ef7b 2a3f edb4 0f3f 45aa fd3e
000000a0: 19b1 17bf a457 213f ff52 14bf e558 41bf
000000b0: 13bc 063f 4c04 573f feec 3dbf 8f89 f83e
000000c0: 6b5e 993f e63c 103f e279 dabe 394f dd3e
000000d0: fc51 1e3f a850 13bf 0aaf dbbe bccb 07bf
000000e0: 96bb 093f 548d 013f bb8c 13bf cea5 e83e
000000f0: 36ba 073f cc63 28bf 384c 4f3f 0810 173f
