ml_models/LSTM_model.pt (torch, 75622 bytes, 5 tensors)

lstm.weight_ih_l0 f4 [256, 5]
-0.48991582 0.33434582 -0.37879586 0.22856343 -0.12856723 -0.3859655 0.30213708 -0.34507665
-0.24113958 0.52061886 -0.32094824 0.33331135 -0.3975223 0.16107433 0.035606656 -0.25529206
0.4548985 -0.46301848 -0.1384745 0.20319198 -0.26288003 0.37688974 0.20162177 0.06327221
0.2399625 -0.14403853 0.29705065 -0.40802965 -0.160273 0.60965794 -0.2999242 0.097449675
-0.3268405 -0.15837356 0.3402433 -0.3934994 0.30170384 -0.59539175 -0.51930445 0.78380495
-0.43746203 0.27786517 -0.38521323 -0.1452992 0.22444923 -0.31483302 0.45368755 -0.3470037
-0.25972855 0.34931806 0.0024376193 0.030822037 0.033682417 -0.017818706 0.07249664 -0.09377825
0.0074720797 0.23193207 0.038921807 0.050941218 -0.4910607 0.3068298 -0.34345475 -0.30777344
0.6336404 -0.24973014 0.43669182 -0.39544275 -0.13147381 0.44898197 -0.3118713 0.2949256
-0.1428873 -0.008481077 0.297815 -0.59549487 0.51376605 -0.28268316 0.10847825 0.24964689
-0.20352915 0.21158105 0.46575993 0.11848472 -0.04799713 -0.24006459 0.2535966 0.5455764
0.12602048 -0.026546273 -0.35600105 0.28206313 -0.39296174 -0.074207135 0.2570322 -0.37400627
0.43878257 -0.46716386 -0.54323417 0.48004696 -0.35284898 0.30400315 0.39684984 0.027369197
-0.04722593 -0.25148395 0.23008819 -0.32198814 -0.15236357 0.38783288 -0.26206163 0.1872484
0.30184594 0.009952713 -0.035948142 -0.20606738 0.41236788 -0.34955344 0.30534145 -0.03828406
-0.2267835 0.3703137 -0.16739425 0.10845643 0.12698469 -0.33593494 0.2565274 -0.6735478
-0.2639115 0.5134762 0.049201358 0.01380385 -0.53381276 0.11310481 0.10321232 -0.34295076
0.16364533 -0.029441213 -0.05697528 0.22838356 -0.26121798 0.29703045 0.029147414 0.03175704
0.33392993 -0.14139697 0.27280244 -0.63520586 -0.24920893 0.63910675 -0.049276676 0.041818146
-0.3003481 -0.0074716187 0.23308212 -0.2536488 0.3681771 -0.22086129 -0.17667124 0.54106104
-0.30616888 0.22746034 0.3601099 0.17164299 0.0806735 -0.20236415 0.42028037 -0.18748695
0.29825503 -0.08979875 -0.3022016 0.3612679 0.2323132 0.0062046214 0.15334727 -0.18610103
0.3327933 -0.5006376 0.097768106 -0.0867502 -0.3833949 0.35134354 -0.43098176 -0.24223405
0.6099947 -0.32784912 0.21803635 -0.09885663 0.21311738 0.16703652 -0.6914643 0.7829808
-0.29248726 -0.055004343 0.16349724 0.01280548 0.045042347 -0.34525803 -0.119540446 0.1363372
-0.38252008 0.36057243 -0.49279845 -0.018801529 0.2054922 -0.41608864 0.41327512 -0.41283038
-0.29848537 0.6220794 -0.23407814 0.28419575 0.254269 0.19243726 0.047429435 -0.35552
0.2341648 0.2447708 0.00784319 0.3366358 -0.35233617 0.24070343 0.4093835 0.17045051
0.15588258 -0.33751824 0.16483672 -0.023402113 0.01611493 0.18743703 -0.15002623 0.1656187
-0.04316437 -0.19584316 0.3784694 -0.21284473 0.10945469 0.43858624 0.017463075 0.027543595
-0.415267 0.23803338 0.5355944 0.17114066 0.16502559 -0.41255757 0.45072144 -0.39485037
0.03073548 0.30334952 0.11470864 -0.11321619 0.029466996 0.028418554 -0.08639573 -0.32752216
00000000: 3fd6 fabe 602f ab3e 88f1 c1be 880c 6a3e
00000010: 21a7 03be 459d c5be b6b1 9a3e e3ad b0be
00000020: 4bed 76be 4747 053f 5453 a4be c9a7 aa3e
00000030: 0b88 cbbe abf0 243e 49d8 113d a4b5 82be
00000040: 75e8 e83e c210 edbe 42cc 0dbe 8f11 503e
00000050: 3698 86be b1f7 c03e f075 4e3e dc94 813d
00000060: bbb8 753e d67e 13be 0617 983e 43e9 d0be
00000070: 9b1e 24be 8b12 1c3f aa8f 99be b293 c73d
00000080: a357 a7be ae2c 22be 5f34 ae3e c178 c9be
00000090: ed78 9a3e 986b 18bf 23f1 04bf 71a7 483f
000000a0: 06fb dfbe 5844 8e3e ab3a c5be 50c9 14be
000000b0: 05d6 653e cb31 a1be bc49 e83e 78aa b1be
000000c0: 24fb 84be d1d9 b23e 77c0 1f3b 7f7e fc3c
000000d0: 93f6 093d 89f8 91bc 1e79 943d d00e c0bd
000000e0: 59d8 f43b 9a7f 6d3e 796c 1f3d bda7 503d
000000f0: 4f6c fbbe cc18 9d3e 4dd9 afbe 7b94 9dbe
00000100: 4236 223f 42b9 7fbe 1296 df3e 7977 cabe
00000110: 12a1 06be f7e0 e53e 98ad 9fbe 7d00 973e
00000120: 0c51 12be 37f4 0abc 357b 983e 5a72 18bf
00000130: 2c86 033f d9bb 90be d829 de3d 6fa3 7f3e
00000140: f269 50be b4a8 583e 1678 ee3e 1ea8 f23d
00000150: a398 44bd 7ed3 75be 6ad7 813e e5aa 0b3f
00000160: 830b 013e 9277 d9bc c545 b6be 946a 903e
00000170: 4832 c9be e9f9 97bd b999 833e c07d bfbe
00000180: 1ca8 e03e 1a30 efbe 6511 0bbf b7c8 f53e
00000190: 9fa8 b4be 4da6 9b3e e72f cb3e 5e35 e03c
000001a0: fa6f 41bd 81c2 80be 3d9c 6b3e a1db a4be
000001b0: 3205 1cbe 0892 c63e f12c 86be 0bbe 3f3e
000001c0: 8d8b 9a3e b410 233c 5c3e 13bd 5403 53be
000001d0: e221 d33e abf8 b2be b755 9c3e bfcf 1cbd
000001e0: ef39 68be c299 bd3e 6669 2bbe 681e de3d
000001f0: 4608 023e aaff abbe 8f57 833e a16d 2cbf
00000200: 681f 87be 2d73 033f 5d87 493d 8b29 623c
00000210: f4a7 08bf 7fa3 e73d fb60 d33d 3e97 afbe
00000220: a492 273e b32e f1bc e95e 69bd 61dd 693e
00000230: 5dbe 85be 6014 983e 8fc6 ee3c ac13 023d
00000240: ddf8 aa3e 5eca 10be c3ac 8b3e da9c 22bf
00000250: a030 7fbe 809c 233f 57d6 49bd 8149 2b3d
00000260: 3ac7 99be 7bd4 f4bb 14ad 6e3e 41de 81be
00000270: b581 bc3e 7629 62be 4ee9 34be fa82 0a3f
00000280: 2bc2 9cbe 5deb 683e 5360 b83e 2ec3 2f3e
00000290: 2638 a53d 8c38 4fbe fd2e d73e 94fc 3fbe
000002a0: e2b4 983e 68e8 b7bd 2bba 9abe 1bf8 b83e
000002b0: 83e3 6d3e 2350 cb3b 1107 1d3e 4591 3ebe
000002c0: e263 aa3e c929 00bf a53a c83d 17aa b1bd
000002d0: 564c c4be 4de3 b33e a4a9 dcbe 340c 78be
000002e0: 9d28 1c3f d7db a7be ec44 5f3e 5875 cabd
000002f0: 713b 5a3e 9f0b 2b3e ce03 31bf 6e71 483f
00000300: e4c0 95be 3c4c 61bd d26b 273e 13ce 513c
00000310: 537e 383d a9c5 b0be 9fd1 f4bd fb9b 0b3e
00000320: acd9 c3be f39c b83e 1450 fcbe aa05 9abc
00000330: 8c6c 523e 9209 d5be cc98 d33e 815e d3be
00000340: 13d3 98be 9840 1f3f 2eb2 6fbe 1b82 913e
00000350: 8c2f 823e 460e 453e 5e45 423d b806 b6be
00000360: e6c8 6f3e 32a5 7a3e b980 003c 875b ac3e
00000370: 6865 b4be f67a 763e b79a d13e 948a 2e3e
00000380: af9f 1f3e 31cf acbe f5ca 283e cab5 bfbc
00000390: 7503 843c 7eef 3f3e 7aa0 19be f397 293e
000003a0: 1fcd 30bd 1c8b 48be bec6 c13e f8f3 59be
000003b0: c829 e03d 608e e03e b90e 8f3c 1ba3 e13c
000003c0: e09d d4be 06bf 733e b71c 093f 7f3f 2f3e
000003d0: 78fc 283e bf3a d3be f6c4 e63e d429 cabe
000003e0: f9c8 fb3c a150 9b3e 5dec ea3d e4dd e7bd
000003f0: c564 f13c 07ce e83c 3ff0 b0bd fcb0 a7be

lstm.weight_hh_l0 f4 [256, 64]
0.05908346 -0.04803519 -0.122146204 -0.10158469 -0.106088355 -0.109240055 0.109287575 -0.017829582
0.020076364 0.019742072 -0.0026589036 -0.07869388 0.09109251 0.11617984 -0.095714316 0.03875059
-0.12130883 0.094662935 -0.08377278 0.007805988 -0.03862065 -0.061745986 -0.09192984 0.06673376
0.02448371 0.08920981 -0.11566846 -0.0604634 0.0041049123 -0.08900705 0.089284554 -0.10704942
0.066192105 -0.0317332 0.014375463 0.057921723 -0.0046132654 -0.0987294 0.065197065 -0.07132122
0.12036866 -0.042826608 -0.06974833 0.054506406 -0.120569006 0.012113899 0.051414773 -0.060480654
0.0765719 -0.07072428 0.060901746 0.03100951 -0.034005076 -0.11151153 -0.050996214 0.05890934
-0.0063550025 0.08224222 0.06970169 -0.014794752 0.10387318 -0.061028063 -0.015317634 -0.02580902
-0.071737945 0.015932113 0.04662998 0.056306794 0.018731058 0.090489104 0.053302854 0.07307552
0.042557642 0.09603794 0.11209199 0.02173613 0.091015995 0.09782 -0.09238604 0.072277844
-0.06207837 -0.07016468 0.053497598 0.0853523 0.008244708 0.012679443 0.082612485 0.063456684
-0.094080195 0.089767694 0.06819162 -0.029892817 0.12091997 -0.031337604 0.037938684 0.123674616
0.051598176 -0.10419081 0.1201465 -0.045061663 0.108317554 -0.12340197 -0.027571172 -0.021113768
-0.029138565 0.060409203 -0.079741 -0.018346742 0.024838373 0.08967842 -0.0071646124 0.021282107
-0.027710259 -0.05067496 0.10719065 -0.08262998 0.018984213 -0.050584525 -0.06916696 -0.029718935
0.109598234 0.03880255 0.0061403215 0.065739185 -0.03437324 -0.058026806 -0.081569284 0.053940505
-0.054766566 0.012234598 -0.06999944 -0.06721389 -0.01949066 0.11101496 -0.080708236 -0.115600005
0.08958717 -0.009835035 -0.12425278 0.111817315 -0.10129364 0.083011776 0.07167272 -0.03472306
-0.026957825 -0.06676048 0.0694896 -0.027710661 0.006962642 0.0140167475 0.040653363 -0.07703686
0.04180631 0.049107447 -0.080859005 -0.06641598 0.009934843 0.020669028 -0.036754742 -0.061741963
0.05536878 -0.111480415 0.11813179 -0.121513814 -0.018084973 -0.08211766 -0.110672444 0.08771397
-0.07102768 -0.07030107 -0.012094319 0.008763045 -0.09065236 -0.003438294 0.07181127 -0.07373242
-0.098315656 -0.011646882 0.017752275 -0.04006751 -0.07203521 0.05931683 -0.038706794 0.0052127987
0.062464416 -0.019242302 -0.016819015 0.08804308 -0.013213769 -0.030420393 0.07563448 -0.119488716
-0.099944666 -0.016889215 -0.040416032 -0.06617622 -0.10965274 -0.0617446 0.08662811 0.08758469
-0.073019445 -0.06396873 0.0155902505 -0.034488335 0.11271529 -0.07832919 0.12164749 -0.051841527
0.07038647 0.0075798035 0.08120261 -0.100533396 0.043676063 -0.10165107 -0.10321838 -0.055385232
-0.0061380267 0.025736704 -0.0020156503 0.09926076 0.022203818 -0.08204554 0.059769407 0.0070750713
-0.046207383 0.08668019 0.085177004 0.08478038 0.04417488 0.037638873 0.101713434 0.09946978
-0.08005378 -0.008277625 0.021966532 -0.08741842 -0.082776114 -0.10664654 0.11095008 -0.015365422
-0.08169776 0.09288348 -0.004031837 -0.078155205 -0.121552974 0.027577281 -0.06318742 -0.09728028
-0.034549028 -0.10488279 0.07244532 0.007699907 0.019153908 0.004079014 -0.08100954 -0.0876123
00000000: 8001 723d 8cc0 44bd ca27 fabd a20b d0bd
00000010: da44 d9bd 40b9 dfbd 2ad2 df3d 580f 92bc
00000020: 3077 a43c 20ba a13c 0041 2ebb 422a a1bd
00000030: b68e ba3d b2ef ed3d de05 c4bd f0b8 1e3d
00000040: c470 f8bd a4de c13d 1091 abbd 60c9 ff3b
00000050: b030 1ebd 5ce9 7cbd b645 bcbd b6ab 883d
00000060: 1092 c83c a2b3 b63d 96e3 ecbd 78a8 77bd
00000070: 8082 863b 5449 b6bd d2da b63d ba3c dbbd
00000080: ba8f 873d acfa 01bd 1087 6b3c 543f 6d3d
00000090: e02a 97bb a432 cabd 0a86 853d dc10 92bd
000000a0: d883 f63d f46a 2fbd 36d8 8ebd 1c42 5f3d
000000b0: e2ec f6bd 6079 463c 4c98 523d 90ba 77bd
000000c0: bad1 9c3d e4d7 90bd 1c74 793d a807 fe3c
000000d0: e848 0bbd 2860 e4bd 68e1 50bd ec4a 713d
000000e0: a03d d0bb 9c6e a83d c2bf 8e3d b065 72bc
000000f0: 76bb d43d 90f8 79bd d0f6 7abc 706d d3bc
00000100: 58eb 92bd 1084 823c 14ff 3e3d f4a1 663d
00000110: e071 993c 5a52 b93d 1854 5a3d 9ea8 953d
00000120: ec50 2e3d 8aaf c43d 7c90 e53d f80f b23c
00000130: 9866 ba3d da55 c83d e434 bdbd 6806 943d
00000140: e445 7ebd 80b2 8fbd 4c20 5b3d 30cd ae3d
00000150: d014 073c 70bd 4f3c bc30 a93d 94f5 813d
00000160: 1ead c0bd 20d8 b73d 0ca8 8b3d c8e1 f4bc
00000170: e4a4 f73d dc5b 00bd 9865 1b3d 1e49 fd3d
00000180: 9c58 533d fe61 d5bd 5e0f f63d 9492 38bd
00000190: 98d5 dd3d 2cba fcbd f0dc e1bc c8f6 acbc
000001a0: 00b4 eebc a46f 773d 404f a3bd e84b 96bc
000001b0: d879 cb3c 52a9 b73d 20c5 eabb d057 ae3c
000001c0: a000 e3bc 8c90 4fbd c686 db3d e839 a9bd
000001d0: c884 9b3c b831 4fbd 68a7 8dbd 2075 f3bc
000001e0: 0a75 e03d 6cef 1e3d c034 c93b 44a2 863d
000001f0: f4ca 0cbd 84ad 6dbd cc0d a7bd b8f0 5c3d
00000200: e852 60bd a073 483c de5b 8fbd 70a7 89bd
00000210: e0aa 9fbc d05b e33d 5c4a a5bd b2bf ecbd
00000220: 7a79 b73d 2023 21bc 3e78 febd 7a00 e53d
00000230: 0a73 cfbd 1402 aa3d 26c9 923d c439 0ebd
00000240: a8d6 dcbc b8b9 88bd 9050 8e3d 7801 e3bc
00000250: e026 e43b 80a6 653c 2484 263d 80c5 9dbd
00000260: 183d 2b3d e424 493d 6899 a5bd 1a05 88bd
00000270: c0c5 223c 1852 a93c 248c 16bd 24e5 7cbd
00000280: 60ca 623d d84f e4bd 14ef f13d 3cdc f8bd
00000290: f026 94bc 4e2d a8bd 3ca8 e2bd 62a3 b33d
000002a0: f676 91bd 02fa 8fbd 4027 46bc e092 0f3c
000002b0: f2a7 b9bd 0055 61bb ca11 933d 0601 97bd
000002c0: b859 c9bd 90d2 3ebc 386d 913c d41d 24bd
000002d0: 3287 93bd 34f6 723d 048b 1ebd 20d0 aa3b
000002e0: b0da 7f3d 08a2 9dbc 08c8 89bc ee4f b43d
000002f0: 907e 58bc 3034 f9bc 40e6 9a3d 80b6 f4bd
00000300: caaf ccbd 405b 8abc 488b 25bd 6687 87bd
00000310: 9e91 e0bd e8e7 7cbd 146a b13d 9a5f b33d
00000320: 388b 95bd 0a02 83bd 406e 7f3c a443 0dbd
00000330: 46d7 e63d 0e6b a0bd 5222 f93d c857 54bd
00000340: c826 903d 0060 f83b 8e4d a63d 74e4 cdbd
00000350: ace5 323d 702e d0bd 2864 d3bd a0db 62bd
00000360: 8021 c9bb c8d5 d23c 0019 04bb 3a49 cb3d
00000370: c8e4 b53c 7e07 a8bd c4d0 743d 00d6 e73b
00000380: f443 3dbd 6285 b13d 4871 ae3d 56a1 ad3d
00000390: b8f0 343d 382b 1a3d 224f d03d d0b6 cb3d
000003a0: 3cf3 a3bd e09e 07bc 28f3 b33c 6e08 b3bd
000003b0: 8686 a9bd 8069 dabd cc39 e33d 40bf 7bbc
000003c0: 2851 a7bd b239 be3d 801d 84bb d60f a0bd
000003d0: c4f0 f8bd c0e9 e13c 6868 81bd e23a c7bd
000003e0: 4883 0dbd cacc d6bd 365e 943d 804f fc3b
000003f0: a8e8 9c3c 40a9 853b 54e8 a5bd 146e b3bd

lstm.bias_ih_l0 f4 [256]
0.5379084 0.5316704 0.6161616 0.51303613 0.7021778 0.5784019 0.8289822 0.7205756
0.5124418 0.36733857 0.5141836 0.539121 0.64654213 0.76032716 0.73611265 0.038921405
0.98008263 0.70202863 0.6681714 0.61853015 0.22483532 0.5277597 0.59702426 0.51590717
0.6379626 0.8543422 0.6360457 0.71830636 0.80668455 1.0534362 0.76756316 0.4340989
0.7612789 0.38384208 0.53016806 0.64700556 0.574613 0.5257794 0.18282725 0.6849092
0.5920799 0.6928298 0.57751834 0.65730417 0.7119669 0.44761485 0.7542429 0.47648588
0.59725916 0.7271531 0.6495767 0.4604635 0.52041334 0.5838585 0.49041864 0.63297576
0.5605434 0.69609207 0.5610332 0.92406386 0.39784032 0.59417844 1.0179752 0.51062316
-0.016943127 -0.05364257 0.07076909 0.037268892 0.09912233 0.06470272 -0.08218339 -0.05724959
0.05274491 -0.115482 -0.09090757 -0.1220026 0.03362444 -0.058739945 0.123508036 -0.059478164
0.0009456426 0.10449621 -0.022902265 0.01605989 0.05533907 -0.0947763 0.11109975 -0.009556279
0.10568395 -0.05939868 -0.116955355 -0.054288357 -0.09324464 -0.06742364 0.03768857 -0.018893436
0.08043538 -0.0047394335 0.020155564 0.039188266 0.10581319 0.07359466 0.004947722 0.051599264
0.051839232 -0.09914377 -0.097466275 0.09558113 -0.06799978 -0.054080844 -0.005676508 -0.08839488
0.0027061403 -0.052284688 -0.114828825 -0.0043955743 0.08799265 0.017869726 0.060493946 0.046096116
-0.0251759 -0.016535625 -0.08340491 0.0055164844 0.12077826 -0.016592696 0.020683914 -0.09161444
0.21736677 0.10599024 -0.091332 0.16579823 0.18377109 0.16104192 0.20051676 -0.11918138
-0.06517264 0.17883615 -0.20312065 -0.2966577 0.097365916 -0.1914744 -0.18321344 0.045353
0.43226746 -0.33050427 0.20199803 -0.04550466 0.26886922 -0.0859886 -0.22816819 -0.05241654
0.14469801 -0.15619448 -0.16277947 -0.23817092 -0.328434 -0.18208027 -0.22862688 -0.18144578
-0.29751775 -0.028827354 0.29717323 0.20939644 0.15376721 0.23138598 0.056144096 0.1463669
-0.01368482 0.112594925 0.28375518 0.30304706 -0.34865782 0.3206137 0.30428562 -0.34438938
0.34857997 -0.14230223 -0.31292024 -0.21855238 0.35594177 0.11687057 -0.15151787 -0.18183279
0.2974444 -0.29451913 0.03290285 0.086741395 0.2572155 0.1942323 -0.24271029 -0.056958098
0.64274985 0.5334897 0.47006255 0.69300836 0.5583075 0.6366192 0.7876089 0.6884279
0.5292271 0.53813034 0.63558066 0.5092654 0.551361 0.8000289 0.90393144 0.1764888
0.9822663 0.6440458 0.48253718 0.62843966 0.30086416 0.6026215 0.5175284 0.6318049
0.7262095 0.9006163 0.6263303 0.666388 0.9149349 1.0879812 0.8032391 0.5551705
0.5995269 0.6210068 0.705413 0.78058404 0.5436614 0.3990484 0.21413344 0.5989908
0.53077453 0.7336675 0.54949105 0.5908024 0.71570635 0.5567131 0.6576019 0.5906652
0.579932 0.83871335 0.6897313 0.5552844 0.38666746 0.43682542 0.45184562 0.5791248
0.5893762 0.63851255 0.48504692 0.92336535 0.4070325 0.6159916 0.9524599 0.502515
00000000: 5db4 093f 8d1b 083f c4bc 1d3f 5656 033f
00000010: edc1 333f 2612 143f 2d38 543f a477 383f
00000020: 632f 033f cd13 bc3e 89a1 033f d503 0a3f
00000030: c983 253f cda4 423f e171 3c3f 0d6c 1f3d
00000040: b2e6 7a3f 26b8 333f 480d 2b3f fe57 1e3f
00000050: 3b3b 663e 421b 073f 95d6 183f 7e12 043f
00000060: 8451 233f 2cb6 5a3f e4d3 223f ede2 373f
00000070: e182 4e3f ffd6 863f 057f 443f 3642 de3e
00000080: 2de3 423f f386 c43e 18b9 073f 28a2 253f
00000090: d619 133f 7b99 063f 1137 3b3e 3656 2f3f
000000a0: 8c92 173f 4b5d 313f 3ed8 133f 1645 283f
000000b0: 7643 363f c62d e53e 1016 413f f5f5 f33e
000000c0: fae5 183f b526 3a3f a94a 263f dfc1 eb3e
000000d0: cf39 053f c077 153f 2718 fb3e b30a 223f
000000e0: c67f 0f3f 1733 323f df9f 0f3f 738f 6c3f
000000f0: bab1 cb3e 141c 183f 034d 823f 33b8 023f
00000100: 50cc 8abc 50b8 5bbd 62ef 903d 44a7 183d
00000110: a600 cb3d dc82 843d c44f a8bd 8c7e 6abd
00000120: 0c0b 583d d481 ecbd c02d babd 80dc f9bd
00000130: c8b9 093d 4c99 70bd c8f1 fc3d 609f 73bd
00000140: 00e5 773a 1c02 d63d 889d bbbc 0890 833c
00000150: 38ab 623d 141a c2bd 4488 e33d f091 1cbc
00000160: d470 d83d 084c 73bd 4a86 efbd 785d 5ebd
00000170: 0cf7 bebd 6815 8abd 545f 1a3d 68c6 9abc
00000180: 4ebb a43d 404d 9bbb 481d a53c e083 203d
00000190: 96b4 d83d ccb8 963d 8020 a23b c059 533d
000001a0: 6055 543d e40b cbbd 669c c7bd 0ac0 c33d
000001b0: 7843 8bbd e083 5dbd 0002 babb 6008 b5bd
000001c0: 8059 313b 7828 56bd 602b ebbd c008 90bb
000001d0: 7e35 b43d 8863 923c 80c8 773d 48cf 3c3d
000001e0: b03d cebc b875 87bc 32d0 aabd a0c3 b43b
000001f0: 985a f73d 68ed 87bc 5071 a93c 5aa0 bbbd
00000200: 6595 5e3e 6911 d93d 460c bbbd 03c7 293e
00000210: 7d2e 3c3e 2ce8 243e 4454 4d3e 5e15 f4bd
00000220: 3c79 85bd d320 373e dcfe 4fbe 85e3 97be
00000230: c867 c73d dd11 44be 4e9c 3bbe 11c4 393d
00000240: 2952 dd3e db37 a9be 92d8 4e3e 1863 3abd
00000250: 3aa9 893e cb1a b0bd eca4 69be bab2 56bd
00000260: b72b 143e 72f1 1fbe a9af 26be 14e3 73be
00000270: 8028 a8be 4073 3abe 2a1d 6abe eccc 39be
00000280: 3f54 98be 5827 ecbc 1727 983e 056c 563e
00000290: 2775 1d3e 72f0 6c3e 5af7 653d 34e1 153e
000002a0: 4c36 60bc 2b98 e63d 5c48 913e fc28 9b3e
000002b0: 4783 b2be 7b27 a43e 53cb 9b3e ce53 b0be
000002c0: 1379 b23e adb7 11be 1537 a0be 32cc 5fbe
000002d0: 003e b63e d659 ef3d 8027 1bbe 6032 3abe
000002e0: a24a 983e 36cb 96be 24c5 063d 79a5 b13d
000002f0: c0b1 833e d5e4 463e 0c89 78be e54c 69bd
00000300: 418b 243f c892 083f 0aac f03e ff68 313f
00000310: 3eed 0e3f 7af9 223f bda0 493f d03c 303f
00000320: 6d7b 073f e9c2 093f 6ab5 223f 385f 023f
00000330: ff25 0d3f b2ce 4c3f 0d68 673f 7bb9 343e
00000340: ce75 7b3f 30e0 243f 1d0f f73e 6ce1 203f
00000350: de0a 9a3e 6745 1a3f be7c 043f f7bd 213f
00000360: dee8 393f ca8e 663f 2f57 203f 6798 2a3f
00000370: 2c39 6a3f f842 8b3f 14a1 4d3f a71f 0e3f
00000380: 987a 193f 4dfa 1e3f f295 343f 5bd4 473f
00000390: 652d 0b3f 1250 cc3e cc45 5b3e 7657 193f
000003a0: d7e0 073f a2d1 3b3f 72ab 0c3f d33e 173f
000003b0: 8838 373f c084 0e3f 9958 283f d635 173f
000003c0: 6c76 143f ebb5 563f 3b92 303f 1e27 0e3f
000003d0: 47f9 c53e 95a7 df3e 4f58 e73e 8641 143f
000003e0: 5ce1 163f 8f75 233f 1258 f83e ac61 6c3f
000003f0: 9066 d03e a0b1 1d3f 69d4 733f d3a4 003f

lstm.bias_hh_l0 f4 [256]
0.6933785 0.7088941 0.5450154 0.71724707 0.5258234 0.7533849 0.7020428 0.75091195
0.5963957 0.40945423 0.55136645 0.54133296 0.7234356 0.83200514 0.89384246 0.11210791
1.019552 0.49783242 0.6759047 0.6667857 0.19771734 0.66200703 0.49991333 0.5784649
0.5738629 0.9956348 0.7065654 0.6463162 0.8354445 0.9209344 0.6704195 0.55026996
0.6065245 0.43203735 0.6856785 0.8431633 0.55993557 0.35937417 0.35373685 0.68042105
0.5095817 0.52997726 0.51434815 0.5729219 0.73520714 0.6446189 0.6651189 0.47388133
0.69753015 0.76363695 0.55746055 0.6329023 0.42146045 0.46065465 0.4566853 0.5537603
0.5869836 0.5551003 0.58098793 0.74584 0.58636695 0.6622627 0.9976964 0.43836504
-0.059933186 -0.090478346 0.12007137 0.08327635 -0.1082899 0.11189623 0.07281041 -0.11455952
0.0075152516 0.017540574 0.052828193 -0.03985308 -0.005724445 0.025339022 -0.053772658 -0.012953386
0.07759437 0.11448546 0.025627986 0.047582805 -0.050064772 0.1177931 -0.0367333 -0.02402322
-0.047889918 -0.044742048 0.06167434 0.08692543 0.015523195 -0.060987577 0.048225656 0.11553094
0.040981814 0.06475124 0.06682913 0.11237909 -0.1201662 0.0051697046 -0.0015091747 0.033014193
0.054571435 0.023421317 -0.11031808 0.04366024 0.0057903677 0.049308017 -0.06137474 -0.01351276
0.11894643 -0.099233106 -0.03060323 -0.105311304 0.07697335 -0.03564997 -0.07770991 -0.02462712
-0.11071393 -0.114524916 -0.119493395 0.09507841 0.09822208 0.010767773 -0.124608815 -0.07471384
0.0897058 0.17830388 -0.16760659 0.179847 0.30667305 0.13226567 0.2795113 -0.2577613
-0.2077505 0.046078265 -0.27627727 -0.28058088 0.16570994 -0.16138317 -0.32917437 0.0046491735
0.27184248 -0.26416883 0.06303826 -0.15569599 0.16158089 -0.2668638 -0.29940766 -0.110111035
0.2613092 -0.16260065 -0.22367997 -0.30542892 -0.19739446 -0.22147839 -0.22701421 -0.09830383
-0.34501255 -0.21240793 0.23404692 0.23057006 0.13733424 0.12943394 0.04304083 0.21277171
-0.17530572 0.16524673 0.2418164 0.19358498 -0.23365554 0.1524474 0.13633657 -0.32223126
0.32739758 -0.05544563 -0.1609893 -0.04273304 0.35203746 0.10575558 -0.080162086 -0.22218384
0.2846559 -0.19601943 0.14468789 0.095106 0.29253966 0.2519453 -0.25731856 -0.13683037
0.6740595 0.5579018 0.60837954 0.6367606 0.67246145 0.60876757 0.7691338 0.72345346
0.41025254 0.55220664 0.58276296 0.62643903 0.5297697 0.7746234 0.8293905 0.27399975
1.0455261 0.64887804 0.44167614 0.47976884 0.2887104 0.43939692 0.5322429 0.6799177
0.69469935 0.96721673 0.7338215 0.7905601 0.8445901 0.9242934 0.7856426 0.3929577
0.74349 0.4476295 0.495475 0.78147995 0.43177542 0.44347227 0.26358142 0.6257164
0.674656 0.6684064 0.73393226 0.6157368 0.7424146 0.6873072 0.6973637 0.4838701
0.5877491 0.7133684 0.6587929 0.62253946 0.44947398 0.6329461 0.42627117 0.6357681
0.5943792 0.5371183 0.57474166 0.94210726 0.53178793 0.5364846 0.8376415 0.5709138
00000000: 4181 313f 157a 353f 2186 0b3f 819d 373f
00000010: 5d9c 063f d5dd 403f 14b9 333f c43b 403f
00000020: 63ad 183f fca3 d13e 5a26 0d3f cc94 0a3f
00000030: 1333 393f 4afe 543f dcd2 643f d598 e53d
00000040: ae80 823f e4e3 fe3e 1708 2d3f 78b2 2a3f
00000050: 6a76 4a3e 4b79 293f a4f4 ff3e 4716 143f
00000060: aee8 123f ece1 7e3f 78e1 343f fa74 253f
00000070: b1df 553f 5bc2 6b3f 9da0 2b3f 7ede 0c3f
00000080: 3145 1b3f 0034 dd3e a088 2f3f 8dd9 573f
00000090: f057 0f3f e4ff b73e ff1c b53e 1330 2e3f
000000a0: f273 023f 97ac 073f 52ac 033f 02ab 123f
000000b0: 8936 3c3f bf05 253f 3b45 2a3f 93a0 f23e
000000c0: 5691 323f b67d 433f bcb5 0e3f e305 223f
000000d0: aac9 d73e edda eb3e a8d2 e93e 3cc3 0d3f
000000e0: 8f44 163f 0e1b 0e3f a0bb 143f 5fef 3e3f
000000f0: 251c 163f 0c8a 293f 0869 7f3f 6271 e03e
00000100: 807c 75bd b64c b9bd fae7 f53d ca8c aa3d
00000110: 18c7 ddbd da29 e53d a01d 953d 2e9e eabd
00000120: 8042 f63b 40b1 8f3c 6062 583d fc3c 23bd
00000130: 2094 bbbb c893 cf3c b840 5cbd 703a 54bc
00000140: cce9 9e3d 5a77 ea3d c8f1 d13c 30e6 423d
00000150: b810 4dbd 823d f13d a875 16bd 58cc c4bc
00000160: 3828 44bd 7043 37bd 3c9e 7c3d f605 b23d
00000170: 0055 7e3c 1cce 79bd 4488 453d 7c9b ec3d
00000180: 8cdc 273d 4c9c 843d b6dd 883d 0227 e63d
00000190: b219 f6bd a066 a93b 80cf c5ba e439 073d
000001a0: 4c86 5f3d 10de bf3c 72ee e1bd 14d5 323d
000001b0: 20bd bd3b 34f7 493d 1464 7bbd a064 5dbc
000001c0: 309a f33d ba3a cbbd a0b3 fabc 74ad d7bd
000001d0: 34a4 9d3d b405 12bd 6026 9fbd d0be c9bc
000001e0: fcbd e2bd 0a8c eabd f4b8 f4bd 78b8 c23d
000001f0: a828 c93d 506b 303c e832 ffbd 9203 99bd
00000200: adb7 b73d 4b95 363e 10a1 2bbe d029 383e
00000210: 4004 9d3e a770 073e 1b1c 8f3e 4af9 83be
00000220: 8cbc 54be 90bc 3c3d 3774 8dbe 4ca8 8fbe
00000230: deaf 293e a141 25be 8b89 a8be 1858 983b
00000240: f02e 8b3e 2341 87be 341a 813d c56e 1fbe
00000250: 7675 253e 5fa2 88be f64b 99be e581 e1bd
00000260: 52ca 853e c980 26be 5d0c 65be 2e61 9cbe
00000270: c621 4abe 3bcb 62be 6a76 68be 8553 c9bd
00000280: 7ca5 b0be 7781 59be ffa9 6f3e 8f1a 6c3e
00000290: 59a1 0c3e 558a 043e 954b 303d d4e0 593e
000002a0: 5883 33be 7036 293e b89e 773e 243b 463e
000002b0: 6643 6fbe 2c1b 1c3e d09b 0b3e 7ffb a4be
000002c0: a8a0 a73e f51a 63bd 61da 24be d708 2fbd
000002d0: 413e b43e 6296 d83d 052c a4bd 2984 63be
000002e0: 6bbe 913e 51b9 48be 1029 143e efc6 c23d
000002f0: c2c7 953e f9fe 803e 42bf 83be 431d 0cbe
00000300: 2a8f 2c3f a7d2 0e3f c3be 1b3f be02 233f
00000310: 6f26 2c3f 31d8 1b3f f4e5 443f 3f34 393f
00000320: 9f0c d23e 6a5d 0d3f f42f 153f 4f5e 203f
00000330: fd9e 073f b84d 463f f052 543f b249 8c3e
00000340: cdd3 853f df1c 263f 6023 e23e 43a4 f53e
00000350: d9d1 933e a2f8 e03e 1241 083f 160f 2e3f
00000360: d1d7 313f 849b 773f badb 3b3f 2662 4a3f
00000370: 0f37 583f 7e9e 6c3f e01f 493f c031 c93e
00000380: 5c55 3e3f b22f e53e e6ae fd3e 120f 483f
00000390: ab11 dd3e cc0e e33e 25f4 863e f32e 203f
000003a0: 41b6 2c3f af1c 2b3f fce2 3b3f eda0 1d3f
000003b0: e20e 3e3f 5df3 2f3f 6d86 323f d2bd f73e
000003c0: ba76 163f 509f 363f a7a6 283f bf5e 1f3f
000003d0: 7421 e63e c108 223f 3740 da3e b3c1 223f
000003e0: 3c29 183f 9680 093f 4522 133f f12d 713f
000003f0: 4123 083f 0e57 093f ac6f 563f 6827 123f

fc.weight f4 [1, 64]
-0.6093656 -0.5835668 0.5210763 -0.5584434 -0.48206192 -0.68191516 -0.639761 0.6847921
0.58160394 -0.59155446 0.51089984 0.4383817 -0.6172102 0.80908763 0.6726171 -0.29548213
-0.6053154 0.685524 -0.5019106 0.54063594 -0.28757063 0.58437485 0.523401 0.45555288
-0.5968855 0.8025403 0.60230374 0.4888444 0.6110003 0.79961777 0.5831956 0.5977538
0.5992826 0.5523021 -0.40771115 -0.53779507 -0.5064333 -0.48317108 -0.42785645 -0.5565035
0.56055385 -0.5807122 -0.52545255 -0.59909844 0.4712977 -0.4917319 -0.541076 0.4076684
-0.57021815 0.8170318 0.52947617 0.6506676 -0.52524525 -0.6462598 0.64311355 0.6282768
-0.405519 0.5275193 -0.5728803 -0.72890395 -0.5345659 -0.54679304 0.7617153 0.579864
00000000: 62ff 1bbf a264 15bf 4265 053f 26f6 0ebf
00000010: d2d0 f6be fe91 2ebf 60c7 23bf 894e 2f3f
00000020: ffe3 143f 1d70 17bf 55ca 023f 9173 e03e
00000030: 7d01 1ebf 5e20 4f3f a230 2c3f 6f49 97be
00000040: f3f5 1abf 807e 2f3f 377d 00bf 1e67 0a3f
00000050: 753c 93be 9799 153f 9cfd 053f 3a3e e93e
00000060: 7dcd 18bf 4873 4d3f 9430 1a3f d049 fa3e
00000070: 846a 1c3f c0b3 4c3f 4f4c 153f 6506 193f
00000080: 966a 193f ac63 0d3f 84bf d0be f0ac 09bf
00000090: 9da5 01bf 3362 f7be 0010 dbbe 0377 0ebf
000000a0: 7580 0f3f 8ea9 14bf 0f84 06bf 845e 19bf
000000b0: ef4d f13e 49c4 fbbe f583 0abf eab9 d03e
000000c0: d1f9 11bf ff28 513f c08b 073f 2792 263f
000000d0: 7976 06bf 4871 25bf 17a3 243f c0d6 203f
000000e0: 30a0 cfbe 810b 073f 49a8 12bf 7399 3abf
000000f0: 50d9 08bf a1fa 0bbf c6ff 423f f871 143f
