lightning_logs/version_27/checkpoints/epoch=4-step=130.ckpt (torch, 227860 bytes, 15 tensors)

lstm.weight_ih_l0 f4 [256, 5]
0	0xbd29d777	-0.04146525
1	0x3c637e88	0.013885148
2	0xbddd621c	-0.108097285
3	0x3e23ab17	0.15983234
4	0xbe09d9f3	-0.13462047
5	0xbe291bd9	-0.1651453
6	0x3da43fd7	0.08019989
7	0x3d86a818	0.0657503
8	0x3e7ac3b8	0.24488723
9	0xbe049050	-0.12945676
10	0x3d873a1f	0.066028826
11	0xbe0f0336	-0.13966069
12	0xbd900655	-0.07032458
13	0xbe46ef13	-0.19427137
14	0x3e062637	0.13100515
15	0xbd4f5636	-0.050619327
16	0x3b42c903	0.0029721863
17	0xbe2300bd	-0.1591825
18	0xbd67274e	-0.05643397
19	0x3dadf3e2	0.084937826
20	0xbb9feb35	-0.004880334
21	0x3e4cba24	0.19992882
22	0xbc1db355	-0.009625276
23	0x3db67b61	0.089102514
24	0x3df89d1b	0.121393405
25	0xbe635e41	-0.22203924
26	0x3e1c2213	0.15247373
27	0xbe08c38a	-0.13355842
28	0xbd1e10fa	-0.03859041
29	0x3dc579fb	0.096424066
30	0xbd135fe5	-0.035980124
31	0x3e48eeb6	0.19622311
32	0xbdaa54e4	-0.08316973
33	0x3dddbbc8	0.10826832
34	0xbc18e682	-0.009332301
35	0xbd856a7a	-0.065144494
36	0x3e45e529	0.19325699
37	0xbc7c4beb	-0.01539896
38	0x3e7a8a7b	0.24466889
39	0xbdb3be23	-0.087765
40	0xbe528b7a	-0.20561019
41	0x3ddb07fd	0.10694883
42	0xbd8558d1	-0.06511081
43	0x3d52fc43	0.051510107
44	0x3daa3339	0.08310551
45	0xbe0a2d5a	-0.13493863
46	0x3d3cbe05	0.046079654
47	0x3dc9d342	0.09854747
48	0x3dc74596	0.09730069
49	0xbe03486e	-0.12820598
50	0xbe149c2d	-0.14512701
51	0x3df2aa94	0.118489414
52	0xbe8176af	-0.2528586
53	0x3d9c1d31	0.07622755
54	0xbd2a0f15	-0.04151829
55	0x3e097a84	0.13425642
56	0xbdd1b394	-0.1023933
57	0x3de4bc51	0.11168731
58	0x3d7abe62	0.06121672
59	0xbe351c1e	-0.17686507
60	0xbdaf2137	-0.08551257
61	0x3e848e84	0.2588998
62	0x3d97b6f8	0.074079454
63	0x3e13d642	0.14437202
64	0xbe47e3f6	-0.19520554
65	0x3dd212e4	0.10257509
66	0xbdbf246f	-0.09333121
67	0x3c9f194a	0.019421238
68	0x3c811fc2	0.015762214
69	0xbdf71a6b	-0.12065586
70	0xbe434051	-0.19067504
71	0xbcfebbcb	-0.031095406
72	0x3c3f79ec	0.011686783
73	0x3e7697e9	0.24081387
74	0xbd2bde20	-0.04195988
75	0x3d24a820	0.0401994
76	0xbe4cfb4a	-0.20017734
77	0xbd5e9f52	-0.05435116
78	0xbe542196	-0.20715937
79	0x3d8084e9	0.062753506
80	0xbe1a62c3	-0.15076737
81	0x3ccdc19b	0.025116732
82	0xbd11b245	-0.0355704
83	0xbdcf6d33	-0.1012825
84	0x3d28f243	0.041246664
85	0xbe078859	-0.13235606
86	0x3d2ab0ac	0.041672394
87	0x3d0c22e3	0.034212958
88	0x3de5722f	0.112034194
89	0xbe0ea3cc	-0.13929671
90	0x3dd0f1d8	0.10202378
91	0xbdf08854	-0.117447525
92	0xbdd19013	-0.10232558
93	0xbcdc30cb	-0.026878735
94	0xbd5ec0e1	-0.054383162
95	0xbe321927	-0.17392407
96	0x3dd5396a	0.104113415
97	0xbcc2b0ea	-0.023766
98	0x3d96c9da	0.07362719
99	0xbdbce2a3	-0.09222915
100	0xbad7e49c	-0.0016471329
101	0x3cf36781	0.02971244
102	0xbb0f0d67	-0.0021828057
103	0xbe0ff382	-0.14057735
104	0xbcf2cc5e	-0.029638465
105	0xbe3ea046	-0.18615827
106	0x3e69ce8e	0.228327
107	0xbe4f8243	-0.20264535
108	0x3daa7623	0.08323314
109	0xbcdaa0bf	-0.026687978
110	0x3e82399c	0.25434577
111	0xbd46062b	-0.048345726
112	0xbc93a30b	-0.01802208
113	0x3d6bba84	0.057550922
114	0xbe8473b2	-0.2586952
115	0xbe003f18	-0.12524068
116	0xbd745ae9	-0.05965701
117	0xbe17d140	-0.14825916
118	0x3e30b7c5	0.17257603
119	0xbd15f391	-0.036609236
120	0xbe631d71	-0.221792
121	0x3e02c9dc	0.12772316
122	0xbd8b891a	-0.068132594
123	0x3da1ef0a	0.07906921
124	0xbd995925	-0.07487706
125	0x3e4001e7	0.18750726
126	0xbe1b3a07	-0.15158854
127	0x3e2a0d7c	0.16606706
128	0x3e778a9a	0.24173966
129	0xbe27b2f5	-0.1637686
130	0x3e6f8bc5	0.23393162
131	0xbe720470	-0.23634505
132	0xbd83f09c	-0.06442377
133	0xbdcbd8ff	-0.09953498
134	0xbd4b7271	-0.049669687
135	0x3d88c333	0.06677856
136	0x3dc65bcb	0.09685477
137	0xbe2028c0	-0.15640545
138	0xbd3b4ed2	-0.045729466
139	0xbcfc99fe	-0.030835148
140	0xbe6948d4	-0.22781688
141	0x3e4a26fc	0.19741434
142	0xbd518a13	-0.05115707
143	0x3c6357db	0.013875927
144	0x3e2d450d	0.16920872
145	0xbdce677d	-0.100783326
146	0x3d9309d1	0.07179607
147	0xbe59524e	-0.21222803
148	0x3df79cf7	0.120904855
149	0x3e3a783d	0.1820993
150	0xbe1cb923	-0.15304999
151	0x3e4d9ef2	0.20080164
152	0xbe76ea0d	-0.24112721
153	0xbc87ef3b	-0.016593566
154	0x3c921310	0.017831355
155	0x3d131253	0.035906147
156	0xbbd77900	-0.0065757036
157	0xbd2c2377	-0.04202601
158	0x3e426eaf	0.18987535
159	0xbe29ee25	-0.16594751
160	0xbe84f3a9	-0.25967148
161	0x3e8430b8	0.2581842
162	0xbd1b2859	-0.037880275
163	0x3deda750	0.11604178
164	0x3d45a9e5	0.048257727
165	0x3e013504	0.1261788
166	0xbe33bc83	-0.1755238
167	0x3e41e7cc	0.1893608
168	0x3d7c9328	0.061663777
169	0xbc870459	-0.016481565
170	0xbd9c1a02	-0.07622148
171	0x3d996107	0.074892096
172	0xbd09da00	-0.033655167
173	0xbd02cfc9	-0.03193644
174	0x39a0f28d	0.00030698293
175	0xbe321f07	-0.17394648
176	0x3e1b08e7	0.15140115
177	0xbe2425e7	-0.16030084
178	0x3ce0bccb	0.027433774
179	0x3e1d178b	0.15341012
180	0x3e3170fc	0.17328256
181	0xbd065212	-0.032793112
182	0x3d97dbe2	0.07414986
183	0x3e16c3df	0.14723156
184	0xbdcf58eb	-0.10124382
185	0x3e2ad0c4	0.166812
186	0xbe2ab079	-0.16668881
187	0x3d1b5af7	0.037928548
188	0x3e05ddd4	0.13072902
189	0xbe2664ec	-0.16249436
190	0xbd609dd3	-0.054838013
191	0xbc81f077	-0.015861733
192	0xbde68109	-0.1125508
193	0xbc886d42	-0.01665366
194	0xbe315534	-0.17317659
195	0x3de546a7	0.111951165
196	0xbe18be19	-0.14916267
197	0x3cd4c577	0.025973065
198	0x3cfa4e1b	0.030554822
199	0x3da39eaf	0.07989251
200	0xbd2b389c	-0.041802034
201	0x3e7039f1	0.23459603
202	0xbdc31aba	-0.09526582
203	0x3cd26c78	0.025686488
204	0xbe4cf509	-0.20015348
205	0x3e47c727	0.19509564
206	0xbe382378	-0.1798228
207	0xbd0d3356	-0.034472786
208	0x3e29f93c	0.16598982
209	0xbe6cf76a	-0.23141256
210	0xbe365a5a	-0.17807904
211	0x3e2861d2	0.16443565
212	0xbe8f95fa	-0.2804411
213	0x3e137d1e	0.14403197
214	0xbdf25479	-0.11832518
215	0xbdf7d48e	-0.121010885
216	0x39ebab87	0.0004495049
217	0x3c8a4fec	0.016883813
218	0x3db45759	0.08805723
219	0x3cdcd585	0.026957283
220	0x3e5e38c4	0.21701342
221	0xbe5cc329	-0.21558823
222	0x3e43c9c5	0.19119938
223	0x3d9daa22	0.07698466
224	0xbdb5e5d3	-0.08881726
225	0xbe74c114	-0.23901778
226	0x3d7c9463	0.06166495
227	0xbe7f812e	-0.24951622
228	0x3d8d1fec	0.06890854
229	0x3e84e69c	0.2595719
230	0xbe89b345	-0.26894584
231	0x3e6bc27d	0.2302341
232	0x3da38be0	0.079856634
233	0xbd68c52e	-0.05682867
234	0xbcc8d1b3	-0.024514055
235	0xbe269fcb	-0.16271894
236	0x3c411ad5	0.011786182
237	0xbe2bb634	-0.16768724
238	0xbdd67993	-0.10472407
239	0x3daec096	0.085328266
240	0x3d72723d	0.059190977
241	0x3bf26e42	0.0073983977
242	0xbc3699f5	-0.011145105
243	0x3e4cd2a5	0.2000223
244	0xbe2c3da2	-0.16820386
245	0x3e425cc2	0.18980697
246	0xbe4ca802	-0.19985965
247	0x3e40efbc	0.18841451
248	0x3e6be4e6	0.23036537
249	0xbd260156	-0.040528618
250	0xbdcc62b1	-0.099797614
251	0x3ddaf25c	0.10690758
252	0x3cc7aef6	0.02437542
253	0xbcc0ba93	-0.023526466
254	0xbe11eb96	-0.14250025
255	0xbd84a406	-0.064765975

lstm.weight_hh_l0 f4 [256, 64]
0	0x3dee5a44	0.116383106
1	0x3dd0d494	0.10196796
2	0x3debd324	0.11514881
3	0xbdc961a0	-0.098330736
4	0xbc351420	-0.011052161
5	0x3d7fe9a0	0.06247866
6	0x3d28d1d4	0.041215733
7	0x3df39258	0.11893147
8	0x3db8ce14	0.09023681
9	0xbd5cdd50	-0.053921998
10	0xbc6caa90	-0.014444962
11	0x3d37a9e8	0.04483977
12	0x3d168a18	0.03675279
13	0x3c1fb7c0	0.009748399
14	0x3d9d9e26	0.0769618
15	0x3cf75988	0.030194059
16	0x3d1c0eb0	0.038099945
17	0x3dc2a754	0.095045716
18	0xbd7e1194	-0.062028483
19	0xbd80f788	-0.06297213
20	0x3d715744	0.058921114
21	0x3d9bae72	0.07601632
22	0xbdf53a4e	-0.11974011
23	0xbde8390a	-0.11339004
24	0xbd5ecaf8	-0.054392785
25	0xbc860288	-0.016358629
26	0xbd49389c	-0.049126253
27	0xbdbebc1c	-0.09313223
28	0xbde7865c	-0.11304924
29	0xbd35c4fc	-0.044377312
30	0x3dd5bc32	0.10436286
31	0xbd9645dc	-0.07337543
32	0x3db747c4	0.08949235
33	0xbcd67e40	-0.026183248
34	0xbd17cd7c	-0.0370612
35	0xbd80f4e0	-0.06296706
36	0xbdf21aae	-0.11821495
37	0xbd99c68c	-0.07508573
38	0xbdd7d892	-0.105393544
39	0x3dc2d2ea	0.09512885
40	0xbd9dca6e	-0.07704626
41	0x3ce62f30	0.028098673
42	0x3d548b80	0.05189085
43	0xbd40936c	-0.047015592
44	0x3926d800	0.0001591146
45	0x3dbf52e0	0.09341979
46	0x3cfcb560	0.030848205
47	0x3dbc75b8	0.092021406
48	0x3cd41b80	0.02589202
49	0xbbaa3520	-0.0051943213
50	0xbd7bd3a0	-0.06148112
51	0xbdea929a	-0.11453743
52	0xbd19bf2c	-0.03753583
53	0x3d915850	0.070969224
54	0xbdaeb836	-0.08531229
55	0x3b5a2940	0.0033288747
56	0xbd0c0bc4	-0.034190908
57	0x3d2a1cf8	0.041531533
58	0x3d87764a	0.06614359
59	0xbdf3ce02	-0.11904527
60	0xbb8c5280	-0.0042822957
61	0xbddde132	-0.10833968
62	0xbd20654c	-0.039159104
63	0xbde3e39a	-0.11127396
64	0x3dd00e40	0.10158968
65	0xbdd671a2	-0.104708925
66	0xbcf58398	-0.029969975
67	0x3dc9dd72	0.098566905
68	0xbd826f9a	-0.063689426
69	0x3dfaf38c	0.12253484
70	0x3df7aed4	0.12093893
71	0x3dc4b158	0.09604138
72	0x3c5ba0b0	0.01340501
73	0x3dff6a72	0.12471475
74	0xbd205a44	-0.039148584
75	0x3d0357d4	0.03206618
76	0x3dfe7550	0.12424719
77	0xbd9dec9e	-0.07711147
78	0x3d085c18	0.033290952
79	0xbd1c0f4c	-0.038100526
80	0xbdbea06c	-0.09307942
81	0xbd9e938a	-0.077429846
82	0x3d4a8100	0.04943943
83	0xbd070194	-0.03296049
84	0xbd498d54	-0.049207047
85	0xbc3ac530	-0.011399552
86	0xbd756a3c	-0.059915766
87	0xbda0fadc	-0.07860348
88	0x3daced40	0.08443689
89	0xbda0739a	-0.07834549
90	0x3d9d7f64	0.076903135
91	0xbd90f4a4	-0.070779115
92	0xbdf8c5f6	-0.12147133
93	0x3c41f210	0.011837497
94	0x3ce21c48	0.027601376
95	0xbdee279a	-0.11628647
96	0xbdf6361a	-0.12022038
97	0xbc54d570	-0.012990341
98	0x3d0d7b84	0.03454162
99	0x3df14bc6	0.11782031
100	0x3d545b3c	0.05184482
101	0x3de5c9e2	0.11220147
102	0xbd1e7bb8	-0.038692206
103	0x3c214fa0	0.009845644
104	0x3b85c260	0.004082009
105	0xbda4a3c2	-0.08039047
106	0xbd2a6928	-0.04160419
107	0x3d86d026	0.0658267
108	0x3dcc2e7a	0.09969802
109	0xbdd53bb0	-0.10411775
110	0x3ce83058	0.028343365
111	0x3d5d3e08	0.054014236
112	0xbc7db2e0	-0.015484542
113	0xbd25cc38	-0.04047796
114	0x3de4a9e8	0.111652195
115	0x3de114e4	0.10990313
116	0xbd73c260	-0.059511542
117	0xbdd552b0	-0.10416162
118	0xbd967a68	-0.07347566
119	0xbd9f2f32	-0.07772674
120	0xbd36a820	-0.04459393
121	0x3de96cc2	0.11397697
122	0xbdf7dd5c	-0.12102768
123	0xbd81e9b6	-0.06343405
124	0x3df94812	0.121719494
125	0x3d810fc6	0.06301837
126	0x3cbbdd98	0.022932813
127	0xbde05538	-0.10953754
128	0xbd37c9b8	-0.04487011
129	0xbc5677b0	-0.013090059
130	0xbdabbba6	-0.083854005
131	0x3bc77940	0.006087452
132	0xbdc6b4e4	-0.09702471
133	0x3bf202c0	0.0073855817
134	0x3d017484	0.03160526
135	0xbd614fc4	-0.05500771
136	0x3d97ca74	0.07411662
137	0x3cbdda20	0.0231753
138	0x3cedede0	0.029044092
139	0x3dd0193c	0.10161063
140	0xbd5f1514	-0.05446346
141	0xbdadc2fe	-0.084844574
142	0xbaf09180	-0.0018353909
143	0xbdd61580	-0.104533195
144	0x3cf7c328	0.030244425
145	0x3d482300	0.048861504
146	0xbdc9521c	-0.09830114
147	0x3de208e2	0.110368505
148	0x3d80bb56	0.062857315
149	0x3d8ee1f2	0.069766894
150	0xbd24834c	-0.040164277
151	0x3dd4dc84	0.103936225
152	0x3c4e6aa0	0.012598664
153	0x3dbfb908	0.09361464
154	0x3d7ac2ec	0.06122105
155	0xbdf1d326	-0.118078515
156	0x3b948a80	0.004533112
157	0xbbc8fc00	-0.0061335564
158	0xbc027500	-0.007962465
159	0xbd97da2a	-0.07414658
160	0xbcbff4e0	-0.023432195
161	0xbd0f16a0	-0.034933686
162	0xbd182f34	-0.03715439
163	0xbd98d03c	-0.074615926
164	0xbc7d1280	-0.015446305
165	0x3cb4bb38	0.02206193
166	0x3dca6122	0.09881808
167	0xbd186998	-0.037210077
168	0x3ddd6bf8	0.10811609
169	0xbdd19820	-0.10234094
170	0x3bb55d80	0.0055348277
171	0x3d15a808	0.0365372
172	0x3d8a4d96	0.067530796
173	0x3d61e4c4	0.05514981
174	0x3b91fa00	0.004454851
175	0x3def150a	0.11673935
176	0x3ccc5338	0.024942026
177	0xbd423850	-0.047416985
178	0x3d5e4a0c	0.054269835
179	0xbc7c8640	-0.015412867
180	0xbd617b60	-0.0550493
181	0x3c04c7d0	0.00810428
182	0xbdc23d50	-0.09484351
183	0x3d73c064	0.05950965
184	0xbc9efdc0	-0.019408107
185	0xbc7e7110	-0.015529886
186	0xbc7755f0	-0.015096173
187	0x3d21f5dc	0.03954111
188	0x3dc11264	0.09427336
189	0xbde55934	-0.11198655
190	0x3de2aefc	0.11068532
191	0x3d866cdc	0.06563732
192	0xbdc2404a	-0.094849184
193	0x3d927914	0.07152
194	0x3de1ad62	0.11019398
195	0xbced2ab0	-0.028951019
196	0xbde83d7a	-0.11339851
197	0xbd047ee0	-0.03234756
198	0xbd55f8c4	-0.052239195
199	0x3cad2418	0.021135375
200	0x3a9cd080	0.0011963993
201	0xbc9756c8	-0.018473998
202	0x3a820100	0.0009918511
203	0xbb29b240	-0.0025893599
204	0x3dd03a5e	0.10167383
205	0xbd2c59e0	-0.0420779
206	0x3d35df1c	0.044402227
207	0x3bf34040	0.0074234307
208	0x3d6cdb34	0.057826236
209	0xbd622730	-0.055213153
210	0xbd806f1c	-0.062711924
211	0x3cd466e8	0.025927976
212	0x3d970d18	0.07375544
213	0xbd941b1e	-0.07231735
214	0x3b000b80	0.0019538105
215	0xbda67a80	-0.08128834
216	0xbdb4c806	-0.08827214
217	0x3d715f14	0.058928564
218	0xbdc7f1b2	-0.097628966
219	0x3dde6e50	0.10860884
220	0x3cb199b8	0.021679744
221	0x3d7b79b8	0.061395377
222	0x3c129830	0.008947417
223	0x3dc792ea	0.097448185
224	0x3d80b622	0.06284739
225	0xbd071bdc	-0.032985553
226	0x3dc61e04	0.09673694
227	0x3da91546	0.08256011
228	0xbd85140e	-0.06497966
229	0x3d9ba4aa	0.075997666
230	0x3dd81dd0	0.10552561
231	0xbde31ea4	-0.110898286
232	0xbd1f89ac	-0.038949654
233	0x3d9b03fa	0.07569118
234	0x3c3fb9e0	0.011702031
235	0x3cb199c0	0.021679759
236	0xbddfe9d0	-0.10933268
237	0x3de5ee88	0.11227137
238	0xbdc5eb6a	-0.09664042
239	0x3d4e6898	0.050392717
240	0xbd428b00	-0.047495842
241	0xbdd3137e	-0.10306452
242	0x3c28e1c0	0.010307729
243	0x3d7cc088	0.06170705
244	0x3d68317c	0.056687817
245	0xbbda9620	-0.0066707283
246	0xbdbc0634	-0.09180871
247	0x3de7d3c8	0.11319691
248	0x3d7831cc	0.060594365
249	0x3dc8f948	0.098131716
250	0x3ded385e	0.11583017
251	0x3dd3c7fe	0.1034088
252	0xbc2084a0	-0.009797245
253	0xbc954ea0	-0.018225968
254	0xbd435408	-0.04768756
255	0xbd8cb052	-0.06869568

lstm.bias_ih_l0 f4 [256]
0	0x3d5a2cf3	0.053265523
1	0x3e6dd238	0.23224723
2	0x3d8ded1c	0.06929991
3	0xbdcb4f1a	-0.09927197
4	0x3d1252aa	0.035723366
5	0x3e697cb0	0.22801471
6	0x3e873165	0.26404873
7	0x3d92ee92	0.0717441
8	0x3df34637	0.11878627
9	0x3e22bb8e	0.15891859
10	0x3e3cc10a	0.18433014
11	0x3dcfe957	0.10151928
12	0x3e83e232	0.2575851
13	0x3e7e94df	0.24861477
14	0x3e56e6f1	0.20986535
15	0x3dba09dd	0.090839125
16	0xbe0046c4	-0.12526995
17	0x3de20593	0.110362194
18	0x3dab6162	0.08368184
19	0x3e48e231	0.19617535
20	0x3df0a413	0.11750045
21	0x3e097d44	0.13426691
22	0x3e4733af	0.1945331
23	0x3d48f12b	0.04905812
24	0x3dbaea61	0.091267355
25	0xbd88ee14	-0.06686035
26	0x3e5bc787	0.21462832
27	0x3dca2a5d	0.098713614
28	0x3d92c045	0.07165579
29	0x3c42b867	0.011884785
30	0x3d60add0	0.05485326
31	0x3d720e96	0.05909594
32	0x3dd0250d	0.10163317
33	0x3e0182fe	0.12647626
34	0xbdde7661	-0.10862423
35	0x3e26656a	0.16249624
36	0x3b84ced6	0.004052977
37	0x3dc1e3bf	0.09467267
38	0x3d8efbd7	0.069816284
39	0xbd2e5c3d	-0.042568434
40	0x3dce8560	0.10084033
41	0xbb7b9207	-0.00383866
42	0x3df0ff4c	0.11767444
43	0x3de40a7f	0.111348145
44	0x3d743b7b	0.059627037
45	0x3e267b3a	0.16257945
46	0x3cd3cf95	0.025855819
47	0x3e37ed1c	0.17961544
48	0x3d36df26	0.044646405
49	0x3e0f034f	0.13966106
50	0xbd8a380b	-0.067489706
51	0x3c4fb41d	0.01267722
52	0x3e2fe600	0.17177582
53	0x3e500c5a	0.20317212
54	0x3e79d84d	0.24398918
55	0x3e42f7ec	0.19039887
56	0x3bbeefc6	0.005826923
57	0x3e4dabd2	0.20085075
58	0xbdd541d8	-0.10412949
59	0x3dcf68f3	0.10127439
60	0x3c6bf5d2	0.01440187
61	0x3d6e9484	0.058247104
62	0xbd26de4b	-0.04073934
63	0xbd9adc3c	-0.075615376
64	0x3d35da98	0.04439792
65	0xbdfaf606	-0.122539565
66	0xbd309cbc	-0.043118224
67	0xbdd6abdc	-0.10481998
68	0xbdc97836	-0.098373815
69	0x3dfe3b00	0.12413597
70	0x3d96006e	0.07324301
71	0x3cb37680	0.021907091
72	0x3d5d914c	0.054093644
73	0xbdd360e2	-0.10321213
74	0xbc85df30	-0.016341776
75	0xbd6e9a40	-0.058252573
76	0xbd19dd34	-0.03756447
77	0xbcfac030	-0.03060922
78	0x3dd21af4	0.10259047
79	0x3dba8182	0.09106733
80	0xbcbc9dc0	-0.02302444
81	0xbdd1c238	-0.102421224
82	0x3d9052f8	0.07047075
83	0x3db4fa98	0.088368595
84	0x3d42b800	0.047538757
85	0x3d33f2e0	0.043932796
86	0x3cf71300	0.030160427
87	0xbd8c8ea2	-0.068631425
88	0x3d6fb3e8	0.05852118
89	0xbcdefa20	-0.027218878
90	0xbda6687a	-0.08125396
91	0x3d31f11c	0.04344283
92	0x3ccdbc90	0.025114328
93	0x3d507804	0.050895706
94	0xbb7df640	-0.0038751513
95	0xbdc89bae	-0.097953185
96	0xbdf8b340	-0.12143564
97	0xbd66c5b4	-0.05634089
98	0x3d22eb20	0.039775014
99	0x3dc09594	0.0940353
100	0x3df8731c	0.1213133
101	0xbd8af8dc	-0.067857474
102	0x3cb6f168	0.022331908
103	0x3d15919c	0.036515817
104	0xbdf8a4f6	-0.12140839
105	0xbd6005b8	-0.054692954
106	0x3c1ffb70	0.009764537
107	0xbc7b5900	-0.0153410435
108	0xbbe5f4e0	-0.0070177168
109	0x3d4f1908	0.05056098
110	0xbdb1b7cc	-0.086776346
111	0xbde80f34	-0.11331025
112	0x3d76b4d0	0.06023103
113	0x3d25d934	0.040490344
114	0x3c90c538	0.017672166
115	0xbd80ef52	-0.06295647
116	0x3db39152	0.08767952
117	0x3ca231b8	0.019799098
118	0x3bd2e480	0.0064359307
119	0x3c067a70	0.008207902
120	0xbd78f6f4	-0.060782388
121	0x3de74590	0.11292565
122	0xbd94765c	-0.07249138
123	0xbd7fa328	-0.062411457
124	0xbd82d40c	-0.06388101
125	0xbdb8e382	-0.09027769
126	0x3d825b0e	0.063650236
127	0xba40a800	-0.00073492527
128	0xbc0c0e1b	-0.008548285
129	0x3e51e323	0.20496802
130	0xbde71332	-0.11282958
131	0xbcaf49d3	-0.021397507
132	0xbc5241be	-0.012833057
133	0x3cf636cf	0.030055432
134	0x3e368977	0.17825876
135	0xbe778913	-0.24173383
136	0x3e3586d1	0.1772721
137	0x3dd5b32f	0.10434567
138	0xbd11bef7	-0.03558251
139	0x3c98d3af	0.018655626
140	0x3e1bc418	0.15211523
141	0xbd50c320	-0.050967336
142	0xbd70aa06	-0.058755897
143	0xbda79424	-0.081825525
144	0xbd74a785	-0.05973007
145	0xbe036c3d	-0.12834258
146	0xbe1f89f4	-0.15579969
147	0xbd89d3bc	-0.06729838
148	0x3d87cae0	0.06630492
149	0xbdaf43fb	-0.08557888
150	0xbe194f36	-0.14971623
151	0xbe21b1ae	-0.15790436
152	0xbe4d5534	-0.20052034
153	0x3d52d761	0.051474933
154	0x3e124699	0.14284743
155	0x3df2c551	0.11854041
156	0xbdcb6f81	-0.09933377
157	0xbd49dca5	-0.04928269
158	0x3d11af37	0.03556749
159	0x3e37c662	0.17946771
160	0xbe56829c	-0.20948261
161	0xbe35e89e	-0.17764518
162	0x3d47565e	0.04866635
163	0x3c892aa6	0.01674397
164	0xbd325a0b	-0.043542903
165	0x3ca27b6d	0.019834245
166	0x3de1f550	0.11033118
167	0x3d9575d4	0.072978646
168	0x3db9db23	0.09075
169	0x3e0cc68d	0.13747616
170	0x3ca6a2bc	0.02034127
171	0xba6e057e	-0.0009079798
172	0x3d2596c3	0.04042698
173	0xbc9dde16	-0.019270938
174	0xbe30d002	-0.17266849
175	0x3e5174af	0.20454668
176	0x3e5249fa	0.20536032
177	0xbc57853b	-0.013154323
178	0x3c67ddb0	0.0141519755
179	0xbd694486	-0.056950115
180	0x3e1af041	0.15130712
181	0xbdac8aeb	-0.08424934
182	0x3d00a863	0.031410586
183	0x3e4b3d4e	0.19847605
184	0x3cb01206	0.02149297
185	0x3e11c7e3	0.14236407
186	0x3cb25fa0	0.021774113
187	0xbdc96357	-0.09833401
188	0x3e2907cb	0.16506879
189	0xbe166d3c	-0.14690107
190	0xbe187c3e	-0.14891145
191	0x3dd50d54	0.10402933
192	0x3d3ff86f	0.046867784
193	0x3dd96c52	0.106163636
194	0x3d8eccbe	0.06972645
195	0x3c104551	0.008805589
196	0x3c744426	0.014908826
197	0x3e762ed8	0.24041307
198	0x3e761877	0.2403277
199	0x3e2b4b77	0.16728006
200	0xbc99abc5	-0.018758664
201	0x3db2e91f	0.087358706
202	0x3ddde4b3	0.108346365
203	0x3e148023	0.14502005
204	0x3e91a766	0.28448027
205	0x3e5bfae7	0.2148243
206	0x3e395c7a	0.18101683
207	0x3c0fc9e6	0.008776164
208	0xbe0d2b16	-0.13785967
209	0xbd9eae2f	-0.07748067
210	0x3e0601c5	0.13086613
211	0x3cb01b09	0.021497266
212	0xbc37caa0	-0.011217743
213	0x3de4c955	0.111712135
214	0x3e8f8e96	0.28038472
215	0x3d625c48	0.055263788
216	0x3e52365e	0.20528552
217	0x3d1ed697	0.038778868
218	0x3d1d9e03	0.03848077
219	0x3e3c72f2	0.18403223
220	0x3dfab7b9	0.122420736
221	0x3d3f5887	0.046715286
222	0x3dfd76a1	0.12376142
223	0x3e783546	0.24239072
224	0x3e2a8a59	0.16654338
225	0x3df06230	0.11737478
226	0xbe1222ba	-0.1427106
227	0xbca1e9f0	-0.01976487
228	0xbd62849b	-0.055302244
229	0x3db1ae75	0.08675853
230	0x3e66299a	0.22476807
231	0xbda6c592	-0.08143152
232	0x3e5de447	0.21669112
233	0x3e48bf55	0.19604237
234	0x3e1c15e2	0.15242723
235	0x3dc7005d	0.09716866
236	0x3d1517bc	0.036399588
237	0x3d9d564b	0.07682475
238	0x3cdbc471	0.026827069
239	0x3e27fee7	0.16405831
240	0x3e0202da	0.126964
241	0x3e8ffe90	0.28123903
242	0x3d5cb0e9	0.053879652
243	0xbe0a8694	-0.135279
244	0x3e2e2123	0.17004828
245	0x3e19ee3b	0.15032284
246	0x3d2f6457	0.0428203
247	0x3e2efa4d	0.1708767
248	0x3d3348d7	0.043770637
249	0x3e5b8875	0.21438773
250	0xbde86573	-0.11347475
251	0x3e436086	0.1907979
252	0x3e835cf1	0.25656846
253	0x3e8eac6e	0.27865928
254	0x3dbc3f15	0.091917194
255	0x3dcbdfa0	0.099547625

lstm.bias_hh_l0 f4 [256]
0	0xbc740d33	-0.014895725
1	0x3e5f2da8	0.2179476
2	0x3de60ea5	0.11233262
3	0xbe2b30e1	-0.16717865
4	0x3d5269d2	0.05137045
5	0x3d17ccb6	0.037060462
6	0x3e93977e	0.28826517
7	0x3e92b97c	0.28657138
8	0x3e1cefe4	0.15325886
9	0x3e1f8624	0.15578514
10	0x3e8a4fcb	0.27014002
11	0x3c82756e	0.015925135
12	0x3dd915ce	0.10599862
13	0x3e47964c	0.19490927
14	0x3e1d2377	0.1534556
15	0x3d0fbcbc	0.0350921
16	0x3d230f2c	0.03980939
17	0xbd963a7d	-0.073353745
18	0x3d35c15e	0.044373862
19	0x3d791f68	0.060820967
20	0x3ded4989	0.11586291
21	0x3e8d1cfb	0.27561173
22	0x3d887693	0.06663241
23	0x3e23cd51	0.1599629
24	0x3e2ec817	0.17068516
25	0xbc4a916b	-0.012363772
26	0x3e253421	0.16133167
27	0x3e2e0900	0.1699562
28	0x3e5b3a3e	0.21408936
29	0x3e00811f	0.12549256
30	0x3e19f696	0.15035471
31	0x3e3c7e3d	0.18407531
32	0x3dc80942	0.09767391
33	0x3e3f993c	0.18710798
34	0x3d9ae1d1	0.07562602
35	0xbc25aa66	-0.010111427
36	0xbca1ba78	-0.019742236
37	0x3e857c8a	0.26071578
38	0x3e19abf7	0.15007006
39	0xbdea4194	-0.11438289
40	0x3e5833df	0.21113537
41	0x3e2a7e69	0.16649784
42	0x3e8f02b7	0.2793176
43	0x3d61d9c5	0.05513932
44	0x3c6823f0	0.014168724
45	0x3e05ed0b	0.13078706
46	0x3dd1f454	0.1025168
47	0x3e1b83b4	0.1518696
48	0x3e3e52e2	0.18586305
49	0x3de71c60	0.11284709
50	0xbda53f48	-0.080687106
51	0x3d0c32fc	0.03422831
52	0x3dabdb2c	0.08391413
53	0x3dda0c4e	0.10646878
54	0x3e02bd6c	0.12767571
55	0x3e18ceb5	0.14922602
56	0x3dc08e88	0.09402186
57	0x3d067fdd	0.032836784
58	0xbc612a5e	-0.013743011
59	0x3e415a20	0.18882036
60	0x3e1023f8	0.14076221
61	0x3e871d41	0.26389506
62	0x3bf44f20	0.0074557215
63	0xbda146a9	-0.078748055
64	0x3d690450	0.05688888
65	0x3d92664e	0.07148419
66	0xbd8e99d6	-0.069629356
67	0x3c16e6f0	0.009210333
68	0xbcb616f0	-0.022227734
69	0x3cbcb8d0	0.023037344
70	0x3cb20068	0.02172871
71	0x3d802f22	0.0625899
72	0x3dc0723e	0.0939679
73	0xbd7da400	-0.06192398
74	0x3d4d6f9c	0.050155267
75	0x3ddaf590	0.106913686
76	0xbde44090	-0.11145127
77	0x39811c00	0.0002462566
78	0x3dc0bb42	0.094107166
79	0x3dc14ebe	0.09438847
80	0xbdbd9f24	-0.09258869
81	0xbd083520	-0.03325379
82	0x3c6fd620	0.014638454
83	0xbd3119dc	-0.043237552
84	0x3d5bfe5c	0.053709373
85	0x3de05578	0.10953802
86	0xbbb47560	-0.0055071563
87	0xbd296184	-0.041352764
88	0x3c025b50	0.007956341
89	0xbdd33516	-0.1031286
90	0x3d161b6c	0.036647245
91	0x3d0faf78	0.03507945
92	0xbddfd7b4	-0.10929814
93	0x3bc9cf60	0.006158754
94	0x3dff9b16	0.12480752
95	0x3c6ba240	0.014381945
96	0xbd915c28	-0.070976555
97	0x3c14f590	0.00909175
98	0xbda5fbba	-0.08104654
99	0xbda977c4	-0.082747966
100	0xbc95fe08	-0.018309608
101	0x3de1b7e4	0.110214025
102	0x3da6fe64	0.0815399
103	0x3dbfd05c	0.09365913
104	0x3c6198f0	0.013769373
105	0xbd339614	-0.043844298
106	0xbda33f44	-0.07971051
107	0xbd6bd164	-0.057572737
108	0x3b78bfc0	0.0037956089
109	0xbd4357e4	-0.04769124
110	0xbddfc004	-0.10925296
111	0xbd969d74	-0.073542506
112	0x3da7eb64	0.08199194
113	0xbda39956	-0.07988231
114	0x3dd0917c	0.10183999
115	0xbd023324	-0.031787053
116	0x3c622670	0.0138031095
117	0x3dd12196	0.10211484
118	0xbda6db22	-0.08147265
119	0x3d52b418	0.051441282
120	0xbde2dc1c	-0.11077139
121	0x3d19918c	0.03749232
122	0xbdc74dea	-0.09731658
123	0xbbbcd460	-0.0057626218
124	0x3de6c82a	0.11268647
125	0x3dcc76fa	0.099836305
126	0xbc391380	-0.011296153
127	0xbc92dda0	-0.017927945
128	0x3d22e361	0.039767627
129	0x3e20257c	0.15639299
130	0xbccab9ed	-0.02474686
131	0xbd84a39b	-0.06476518
132	0xbbbb79a5	-0.0057212883
133	0x3e0eb1f6	0.13935074
134	0x3e344a43	0.17606454
135	0xbd2ecb1f	-0.04267418
136	0x3d1d35b3	0.03838129
137	0x3e5d211e	0.21594664
138	0x3e422ffd	0.18963619
139	0x3e114d38	0.14189613
140	0x3e22ee59	0.15911235
141	0xbe07703c	-0.13226408
142	0xbe582d04	-0.21110922
143	0xbbf7ebb1	-0.0075659384
144	0x3db84b99	0.08998794
145	0xbdc93b54	-0.09825769
146	0xbd3b41c3	-0.045717012
147	0xbe187fc0	-0.14892483
148	0xbd6172e8	-0.055041224
149	0xbdf36220	-0.1188395
150	0xbcf8db94	-0.03037814
151	0x3cb9db34	0.022687532
152	0xbdf60bfa	-0.12014003
153	0x3d0936eb	0.03349964
154	0xbd01ea79	-0.03171775
155	0xbcb8748c	-0.022516511
156	0xbdc602ed	-0.09668527
157	0xbda30f93	-0.07961955
158	0xbe3d0664	-0.18459469
159	0xbbc15f03	-0.005901219
160	0xbc23b6ce	-0.0099923145
161	0xbe09e52c	-0.13466328
162	0xbceb53d6	-0.0287265
163	0x3cfa1e38	0.030531988
164	0x3d02375e	0.031791084
165	0x3dc19af6	0.094533846
166	0x3df31e8f	0.11871063
167	0xbd907725	-0.07053975
168	0x3e28b606	0.16475686
169	0xbccfd156	-0.025368374
170	0x3e543f39	0.20727243
171	0x3e416ffb	0.18890373
172	0x3e5b18c7	0.2139617
173	0x3e3e70b4	0.1859768
174	0xbc12b558	-0.0089543685
175	0x3c1bd74f	0.009511783
176	0x3c89d25f	0.016823946
177	0x3e502055	0.20324834
178	0x3cc9c8ca	0.024631876
179	0x3d5375f5	0.051626164
180	0x3b511bca	0.0031907433
181	0xbe058f93	-0.1304305
182	0x3e0576bc	0.13033575
183	0x3df8d41e	0.12149833
184	0xbd4b1e08	-0.049589187
185	0x3e2241f9	0.15845479
186	0x3d3f0fc0	0.04664588
187	0xbd62831b	-0.055300813
188	0x3e1a86d7	0.150905
189	0xbdd18557	-0.10230511
190	0xbbfd5e57	-0.0077321935
191	0xbd3b969b	-0.045797925
192	0xbcd7b905	-0.026333341
193	0x3d29820a	0.04138378
194	0x3e98914f	0.29798362
195	0xbe3d2fe8	-0.18475306
196	0xbe090ef9	-0.13384618
197	0x3d5daa03	0.054117214
198	0x3e48f946	0.1962634
199	0x3e218bab	0.15775935
200	0x3b43d822	0.0029883464
201	0x3e4a0e2a	0.19731966
202	0x3e168ac6	0.14701375
203	0x3d468a5c	0.048471794
204	0x3d6723ee	0.05643075
205	0x3d54a2c2	0.05191303
206	0x3e8f3951	0.27973416
207	0x3e42113f	0.18951891
208	0x3b2e3348	0.002658086
209	0xbd299a65	-0.041407008
210	0x3e3b3ac8	0.18284142
211	0x3d52b52e	0.051442318
212	0x3d744c81	0.059643272
213	0x3d8b0375	0.06787769
214	0x3e341359	0.17585506
215	0x3e4d6881	0.20059396
216	0x3dc3302f	0.09530675
217	0xbbdfd8ea	-0.006831278
218	0x3e37c8b0	0.1794765
219	0x3df153f9	0.11783595
220	0x3e543406	0.2072297
221	0x3e536c90	0.20646882
222	0x3d2a8faf	0.041640934
223	0x3e0a3f2c	0.1350066
224	0x3e8b3bd8	0.27194095
225	0x3c2f4f67	0.010700083
226	0xbdc1ce9e	-0.09463237
227	0x3df4c4f9	0.11951632
228	0xbdfa9ab2	-0.12236537
229	0x3e745e5d	0.23864122
230	0x3e36ffe9	0.1787106
231	0x3c79e7cb	0.015253018
232	0x3e640ec7	0.22271262
233	0x3d318e59	0.043348644
234	0x3dc3e7e7	0.09565716
235	0x3e18e3ac	0.149306
236	0x3d247fde	0.040161006
237	0x3e8743a4	0.26418793
238	0x3dd810be	0.10550068
239	0x3e81c87d	0.25348273
240	0x3e0f3c07	0.13987742
241	0x3e276e17	0.1635059
242	0xbe0e8439	-0.13917626
243	0xbe25c1bd	-0.16187187
244	0x3e0999eb	0.13437621
245	0x3e5f6418	0.21815526
246	0x3e74cbb3	0.2390583
247	0x3d6e54be	0.058186285
248	0xbd960060	-0.0732429
249	0x3e268c2f	0.16264413
250	0x3ca6a4dc	0.020342283
251	0x3d8d546c	0.06900868
252	0x3e470101	0.19433977
253	0x3e8b7bdf	0.27242944
254	0x3d3ea617	0.046545114
255	0x3ca3919b	0.019966891

fc.weight f4 [1, 64]
0	0xbe1a784e	-0.15084955
1	0xbe5fea2b	-0.21866672
2	0x3e866968	0.26252294
3	0xbd30b0bb	-0.043137293
4	0x3d9b752c	0.07590708
5	0xbe085cee	-0.133167
6	0xbe18d962	-0.14926675
7	0x3e195d40	0.14976978
8	0xbe202e9c	-0.1564278
9	0xbe145691	-0.14486147
10	0xbe7221c6	-0.23645696
11	0xbe307d8c	-0.17235392
12	0xbe1992d8	-0.14997423
13	0x3e129465	0.1431442
14	0x3e268729	0.16262497
15	0x3e09dd37	0.13463293
16	0xbd6c33da	-0.057666637
17	0x3def6d57	0.11690777
18	0x3e5832b3	0.2111309
19	0x3dba02ad	0.090825416
20	0x3cc9d6c4	0.024638541
21	0x3e8532de	0.2601537
22	0x3e3c2dc6	0.18376836
23	0x3e4f8e3e	0.20269105
24	0x3e27de5e	0.1639342
25	0xbe08067e	-0.13283727
26	0xbe79df9b	-0.24401705
27	0xbe109119	-0.1411785
28	0x3e7bcace	0.24589083
29	0x3e3330e4	0.17499119
30	0x3e8290d6	0.25501126
31	0xbe62dba8	-0.22154105
32	0x3e3d1dbb	0.18468373
33	0x3dd384b7	0.10328048
34	0x3d6b3063	0.057419192
35	0xbe279361	-0.16364814
36	0xbcd64312	-0.026155028
37	0xbe849821	-0.25897315
38	0xbe567d15	-0.20946153
39	0xbcd1fe16	-0.025633853
40	0xbe486c60	-0.19572592
41	0xbe3e814b	-0.18604009
42	0xbe26b620	-0.16280413
43	0xbdfdc22c	-0.12390551
44	0xbda14e38	-0.07876247
45	0xbe606d5f	-0.21916722
46	0x3deabe85	0.1146212
47	0xbe602f9f	-0.21893166
48	0xbe67f87a	-0.2265338
49	0xbe920b5a	-0.28524286
50	0xbdb502ce	-0.088384256
51	0xbd80bfb9	-0.06286568
52	0xbddb1f0c	-0.10699281
53	0x3e4cbcd4	0.19993907
54	0xbe342a35	-0.17594226
55	0xbe5c3dab	-0.215079
56	0xbdcc7136	-0.09982531
57	0xbe01c409	-0.12672438
58	0x3a16f7d0	0.0005758973
59	0x3e479c95	0.19493325
60	0xbe134baf	-0.1438434
61	0x3e2b17c3	0.16708283
62	0x3e198a7b	0.14994232
63	0xbdc8d421	-0.098060854

exp_avg f4 [256, 5]
0	0x3a243b61	0.00062649517
1	0xba243b61	-0.00062649517
2	0x3a9bb852	0.0011880493
3	0xba87429d	-0.0010319535
4	0x3a427afe	0.000741884
5	0x3a5db33d	0.00084571895
6	0xba5db33d	-0.00084571895
7	0xb9dbf933	-0.00041956603
8	0xba1e66d4	-0.0006042544
9	0x398a8f5d	0.00026428225
10	0xb8a6d394	-7.954906e-05
11	0x38a6d394	7.954906e-05
12	0xb9a4afa5	-0.00031411383
13	0x3a005cd6	0.0004896646
14	0xb9e11d89	-0.0004293735
15	0x39415b10	0.00018439838
16	0xb9415b10	-0.00018439838
17	0x393f5b6b	0.00018249235
18	0x387ce206	6.0291983e-05
19	0xb8ff8d27	-0.00012185639
20	0x39e1e780	0.00043087825
21	0xb9e1e780	-0.00043087825
22	0x39a63c7b	0.0003170705
23	0xb8866fa7	-6.410415e-05
24	0xb8c35f35	-9.316058e-05
25	0x3a359e8e	0.00069282285
26	0xba359e8e	-0.00069282285
27	0x3a1f4ebd	0.00060771016
28	0xb8c62203	-9.447711e-05
29	0xb9257f8e	-0.00015783144
30	0x39da30d8	0.00041616592
31	0xb9da30d8	-0.00041616592
32	0xb982385b	-0.0002483752
33	0xb8390213	-4.410937e-05
34	0xb8df999d	-0.00010662081
35	0x3a6304d7	0.0008660084
36	0xba6304d7	-0.0008660084
37	0x39cc79b3	0.00039000585
38	0xba9b10af	-0.0011830534
39	0x3a5131a8	0.00079801166
40	0x3a392f3c	0.00070642284
41	0xba392f3c	-0.00070642284
42	0x38ac042d	8.202377e-05
43	0xb9be750b	-0.00036326828
44	0x38b9b18a	8.854557e-05
45	0x3a680d34	0.0008852065
46	0xba680d34	-0.0008852065
47	0xb6980bd4	-4.53133e-06
48	0xb9f37124	-0.00046432868
49	0x38fa9225	0.000119481505
50	0x3a93e59f	0.0011283642
51	0xba93e59f	-0.0011283642
52	0x3a531eef	0.00080536207
53	0xba345adc	-0.0006879994
54	0x397de673	0.00024213809
55	0xba316591	-0.0006767149
56	0x3a316591	0.0006767149
57	0xba45c2b1	-0.0007543965
58	0xb96ae4a3	-0.00022401153
59	0x39ebce4e	0.00044976402
60	0x3a40e5b2	0.0007358446
61	0xba40e5b2	-0.0007358446
62	0x39488ce3	0.0001912597
63	0xba6bf051	-0.00090003485
64	0x3a17fa37	0.0005797478
65	0xb923cebe	-0.00015621909
66	0x3923cebe	0.00015621909
67	0xb8a6dc90	-7.95658e-05
68	0xba367657	-0.0006960383
69	0x3a391333	0.0007060051
70	0x3a09e93a	0.0005260889
71	0xba09e93a	-0.0005260889
72	0x394f7aec	0.0001978685
73	0xba8fd4b6	-0.0010973427
74	0x3a5bd9e7	0.0008386657
75	0xb984ae2f	-0.0002530678
76	0x3984ae2f	0.0002530678
77	0xb92d16d7	-0.00016507074
78	0x396fa70e	0.00022855049
79	0xb901b48e	-0.0001236966
80	0x3998ad98	0.00029121037
81	0xb998ad98	-0.00029121037
82	0x3954c2fe	0.00020290536
83	0x367d1aea	3.7715604e-06
84	0xb8e059b7	-0.00010697863
85	0x39340a8c	0.00017170067
86	0xb9340a8c	-0.00017170067
87	0xb9b3b5c0	-0.00034276955
88	0xb948c0bc	-0.00019145285
89	0x38f75219	0.0001179317
90	0xb8d28517	-0.0001003837
91	0x38d28517	0.0001003837
92	0xb963d78c	-0.00021728704
93	0xb9b969f0	-0.0003536488
94	0x39bffb6f	0.00036617692
95	0x39aec774	0.0003333647
96	0xb9aec774	-0.0003333647
97	0x38afb6ad	8.378676e-05
98	0xb9abb69d	-0.0003275172
99	0x3944c797	0.0001876637
100	0xb80ebfe6	-3.4034158e-05
101	0x380ebfe6	3.4034158e-05
102	0x36f61f6a	7.3350284e-06
103	0xb7adcef8	-2.0719584e-05
104	0x3803ee92	3.145502e-05
105	0x3a5d5735	0.0008443476
106	0xba5d5735	-0.0008443476
107	0x399b4556	0.00029615563
108	0xba8c0818	-0.0010683564
109	0x3a371c66	0.00069851277
110	0xba11c36e	-0.00055604323
111	0x3a11c36e	0.00055604323
112	0xb9c889ea	-0.00038249727
113	0xba92d41d	-0.0011202131
114	0x3aa31d90	0.0012444723
115	0x3a2a9ec7	0.0006508645
116	0xba2a9ec7	-0.0006508645
117	0x3a352d8b	0.00069113885
118	0xba946d4b	-0.0011324076
119	0x3a58d265	0.00082710973
120	0x3a5f22bc	0.0008511951
121	0xba5f22bc	-0.0008511951
122	0x391d106d	0.00014978806
123	0xba199c47	-0.0005859774
124	0x398095a1	0.00024525545
125	0xba23254f	-0.0006223516
126	0x3a23254f	0.0006223516
127	0xba0318a3	-0.00050009246
128	0xba088206	-0.0005207363
129	0x3a398960	0.00070776604
130	0xba2ca55a	-0.00065859186
131	0x3a2ca55a	0.00065859186
132	0xba131330	-0.0005610464
133	0x397e636b	0.00024260364
134	0x36f2b9ac	7.233777e-06
135	0x3a05dd03	0.00051064807
136	0xba05dd03	-0.00051064807
137	0x3a3e1797	0.000725144
138	0xb9afb334	-0.00033512118
139	0x390a30fd	0.00013178955
140	0x3abda13d	0.0014467608
141	0xbabda13d	-0.0014467608
142	0x3a56585b	0.0008176618
143	0xb983cf03	-0.00025140503
144	0xb99247e9	-0.00027900867
145	0x3abfd48a	0.0014635485
146	0xbabfd48a	-0.0014635485
147	0x3a8c45f2	0.0010701998
148	0xb9aa777e	-0.00032513955
149	0xb9628e81	-0.00021606126
150	0x3adee268	0.001700473
151	0xbadee268	-0.001700473
152	0x3ad16d5c	0.0015978026
153	0xba2ba382	-0.0006547497
154	0x37032f18	7.819173e-06
155	0xba3c9783	-0.0007194208
156	0x3a3c9783	0.0007194208
157	0xb9ed826b	-0.00045301332
158	0xba9003f4	-0.0010987506
159	0x3aa81809	0.0012824546
160	0x3a3e4652	0.00072584033
161	0xba3e4652	-0.00072584033
162	0x39afcfa2	0.000335333
163	0xba55ea47	-0.0008160215
164	0x3a04537e	0.00050478417
165	0xb9d5a97a	-0.00040752796
166	0x39d5a97a	0.00040752796
167	0xba419360	-0.00073843263
168	0xb820c911	-3.833423e-05
169	0x393d602f	0.00018060276
170	0x39c29478	0.0003711318
171	0xb9c29478	-0.0003711318
172	0x39c69ec2	0.00037883787
173	0xb8dd7355	-0.000105595835
174	0xb80b12fc	-3.3157863e-05
175	0x3a8f8eaa	0.0010952551
176	0xba8f8eaa	-0.0010952551
177	0x3a6a1ded	0.0008930851
178	0x39b24bbb	0.0003400723
179	0xba3950ad	-0.00070692116
180	0xb814be82	-3.5463374e-05
181	0x3814be82	3.5463374e-05
182	0x363ff14b	2.860167e-06
183	0xb85ad3fd	-5.217268e-05
184	0x3880ad87	6.1358376e-05
185	0xbb0236c7	-0.0019869076
186	0x3b0236c7	0.0019869076
187	0xba9ddc12	-0.0012043735
188	0xba40aaf9	-0.00073496957
189	0x3ab68cf1	0.0013927502
190	0x3a01697c	0.0004936678
191	0xba01697c	-0.0004936678
192	0x399ce54f	0.00029925487
193	0xba356019	-0.0006918922
194	0x39f712c6	0.00047125499
195	0xb7d6d712	-2.5610938e-05
196	0x37d6d712	2.5610938e-05
197	0xb71e6ce5	-9.442888e-06
198	0x37a9438b	2.0177822e-05
199	0xb723bcc7	-9.75951e-06
200	0x3a972bd9	0.0011533453
201	0xba972bd9	-0.0011533453
202	0x3a11b7c4	0.0005558694
203	0xbaaea87d	-0.001332536
204	0x3a5b0ebc	0.00083563826
205	0xba8b9462	-0.001064908
206	0x3a8b9462	0.001064908
207	0xba1f63f5	-0.00060802634
208	0xba8eaa0d	-0.0010884419
209	0x3ab6eb17	0.001395556
210	0x3a8c121c	0.0010686549
211	0xba8c121c	-0.0010686549
212	0x3a59af9b	0.00083040603
213	0xba5c3d7b	-0.0008401495
214	0x39d49fab	0.00040554753
215	0x399ae165	0.000295411
216	0xb99ae165	-0.000295411
217	0x39966918	0.0002868853
218	0xba3457f6	-0.0006879562
219	0x3a0d091d	0.0005380081
220	0xb9d84a7e	-0.00041254231
221	0x39d84a7e	0.00041254231
222	0xba2e89c3	-0.00066581013
223	0xb9b98ef5	-0.0003539246
224	0x39fa4238	0.00047733053
225	0x3ab35bb0	0.0013683941
226	0xbab35bb0	-0.0013683941
227	0x3a8dc556	0.0010816257
228	0xb946ceeb	-0.00018959834
229	0xb9a1f82f	-0.00030893224
230	0x3a20f951	0.00061406667
231	0xba20f951	-0.00061406667
232	0x3947f343	0.00019068741
233	0xb8f1292c	-0.000114994444
234	0xb8e81ba7	-0.00011067773
235	0x3a989680	0.0011641532
236	0xba989680	-0.0011641532
237	0x3a026fac	0.0004975747
238	0x3988bfa5	0.00026082728
239	0xba2c5117	-0.00065733626
240	0xb9cc7faf	-0.00039005044
241	0x39cc7faf	0.00039005044
242	0xb9310bd4	-0.00016884442
243	0xba7bb7ba	-0.00096022675
244	0x3a87c9c5	0.0010359815
245	0xbaaf0680	-0.0013353378
246	0x3aaf0680	0.0013353378
247	0xbab3aeaf	-0.0013708676
248	0xba1cf081	-0.00059867656
249	0x3a8783e8	0.0010338994
250	0x398d4d1e	0.00026951073
251	0xb98d4d1e	-0.00026951073
252	0x39719a27	0.00023040977
253	0xb9a00c6d	-0.00030526836
254	0x3946c32e	0.00018955462
255	0x399ef991	0.0003032205

exp_avg_sq f4 [256, 5]
0	0x33bf1c5d	8.89929e-08
1	0x33bf1c5d	8.89929e-08
2	0x34a5cc55	3.0882316e-07
3	0x34849977	2.4698576e-07
4	0x340b6394	1.298161e-07
5	0x340d87d1	1.3181058e-07
6	0x340d87d1	1.3181058e-07
7	0x331302aa	3.4228528e-08
8	0x3383227a	6.106434e-08
9	0x32844cce	1.540175e-08
10	0x3306c8db	3.1381983e-08
11	0x3306c8db	3.1381983e-08
12	0x344157f8	1.8006529e-07
13	0x33975488	7.0468616e-08
14	0x331b4495	3.6151125e-08
15	0x31b95408	5.393762e-09
16	0x31b95408	5.393762e-09
17	0x32afa919	2.0449578e-08
18	0x3302d6d7	3.046338e-08
19	0x33093440	3.194532e-08
20	0x32d37069	2.4614751e-08
21	0x32d37069	2.4614751e-08
22	0x32dd18c8	2.5739055e-08
23	0x325a69c7	1.2713321e-08
24	0x32a2ee81	1.8967741e-08
25	0x333625a4	4.240941e-08
26	0x333625a4	4.240941e-08
27	0x33713197	5.6157287e-08
28	0x32b591d3	2.1137486e-08
29	0x3215d180	8.720576e-09
30	0x333570b3	4.2244846e-08
31	0x333570b3	4.2244846e-08
32	0x32c4bdf3	2.2903782e-08
33	0x322c64b7	1.0034618e-08
34	0x31ac8012	5.0204187e-09
35	0x334d4126	4.7789534e-08
36	0x334d4126	4.7789534e-08
37	0x32b83399	2.1443883e-08
38	0x340151d8	1.2043836e-07
39	0x33847a20	6.1689434e-08
40	0x339292de	6.82537e-08
41	0x339292de	6.82537e-08
42	0x331579ff	3.480272e-08
43	0x32a0fbf4	1.8741027e-08
44	0x3230767e	1.027149e-08
45	0x33a006c7	7.4518134e-08
46	0x33a006c7	7.4518134e-08
47	0x31bf7d3a	5.5730682e-09
48	0x328d28fc	1.6433198e-08
49	0x312cd290	2.5148985e-09
50	0x34092e1d	1.2775895e-07
51	0x34092e1d	1.2775895e-07
52	0x33c991ef	9.386337e-08
53	0x3397f42f	7.075902e-08
54	0x32a7d63b	1.953878e-08
55	0x32aa145b	1.9799861e-08
56	0x32aa145b	1.9799861e-08
57	0x334cfb33	4.7725916e-08
58	0x3262e24a	1.32063835e-08
59	0x328d3e07	1.6442767e-08
60	0x331a34f0	3.5904065e-08
61	0x331a34f0	3.5904065e-08
62	0x326b513b	1.369727e-08
63	0x33ae2a6e	8.110224e-08
64	0x332d95fd	4.0416115e-08
65	0x31e02abc	6.5241164e-09
66	0x31e02abc	6.5241164e-09
67	0x3323b13a	3.811258e-08
68	0x3367845f	5.390427e-08
69	0x333e7240	4.4341732e-08
70	0x32f0b0d1	2.8020084e-08
71	0x32f0b0d1	2.8020084e-08
72	0x337293eb	5.6479546e-08
73	0x34294985	1.5766098e-07
74	0x33d8718f	1.007894e-07
75	0x320a5fef	8.05447e-09
76	0x320a5fef	8.05447e-09
77	0x3339978b	4.3211497e-08
78	0x32936300	1.7158072e-08
79	0x321158bf	8.460289e-09
80	0x3214bead	8.6580885e-09
81	0x3214bead	8.6580885e-09
82	0x31d4fd09	6.198779e-09
83	0x31099e79	2.0026205e-09
84	0x31997963	4.466686e-09
85	0x323cec0c	1.0996711e-08
86	0x323cec0c	1.0996711e-08
87	0x337fcf7b	5.9560517e-08
88	0x32c64458	2.3081313e-08
89	0x3245bae7	1.1509406e-08
90	0x3346b59f	4.626565e-08
91	0x3346b59f	4.626565e-08
92	0x348e5d12	2.651728e-07
93	0x3424152f	1.5281397e-07
94	0x33c0b09e	8.972823e-08
95	0x315eb4ea	3.240809e-09
96	0x315eb4ea	3.240809e-09
97	0x2faf1cb9	3.1852723e-10
98	0x31adf7c6	5.0631312e-09
99	0x31218064	2.3501565e-09
100	0x2f41a0b8	1.7610347e-10
101	0x2f41a0b8	1.7610347e-10
102	0x2fe8ee5f	4.2369927e-10
103	0x2f751244	2.228911e-10
104	0x2f0f3116	1.3023213e-10
105	0x33b8c340	8.6036835e-08
106	0x33b8c340	8.6036835e-08
107	0x331a1466	3.587447e-08
108	0x34060aaa	1.2483602e-07
109	0x335e7aa1	5.1799933e-08
110	0x32eae738	2.7346331e-08
111	0x32eae738	2.7346331e-08
112	0x33b2f0d2	8.332576e-08
113	0x344d2cc9	1.9108406e-07
114	0x3452d7d2	1.9636289e-07
115	0x33533f31	4.9184738e-08
116	0x33533f31	4.9184738e-08
117	0x3403573f	1.2232066e-07
118	0x344aec84	1.889876e-07
119	0x33f10ad2	1.1224405e-07
120	0x33de68d9	1.0356752e-07
121	0x33de68d9	1.0356752e-07
122	0x327591bb	1.4294012e-08
123	0x33180bdf	3.5401055e-08
124	0x31f49ad8	7.1189383e-09
125	0x32ead7be	2.7339293e-08
126	0x32ead7be	2.7339293e-08
127	0x3298df4c	1.7796673e-08
128	0x32b48799	2.101642e-08
129	0x3318e3f6	3.5597587e-08
130	0x3320213c	3.728313e-08
131	0x3320213c	3.728313e-08
132	0x344343f9	1.8185519e-07
133	0x339c91a3	7.290807e-08
134	0x332c5755	4.01263e-08
135	0x33ae8e77	8.1284206e-08
136	0x33ae8e77	8.1284206e-08
137	0x347aea0a	2.3368207e-07
138	0x33e82465	1.0809962e-07
139	0x3344323e	4.56805e-08
140	0x34ca9585	3.7734222e-07
141	0x34ca9585	3.7734222e-07
142	0x34000d2a	1.1925718e-07
143	0x32f67367	2.8690648e-08
144	0x33914218	6.764111e-08
145	0x348390ab	2.450591e-07
146	0x348390ab	2.450591e-07
147	0x33f21461	1.127271e-07
148	0x325ae21a	1.274068e-08
149	0x33145d3c	3.454373e-08
150	0x3505a510	4.978656e-07
151	0x3505a510	4.978656e-07
152	0x34e5cb81	4.2802642e-07
153	0x3432096c	1.658097e-07
154	0x33816662	6.025654e-08
155	0x342276f3	1.5130699e-07
156	0x342276f3	1.5130699e-07
157	0x349b7034	2.8952638e-07
158	0x34b3e6a3	3.3509158e-07
159	0x34d3259d	3.932918e-07
160	0x337c97fa	5.8811544e-08
161	0x337c97fa	5.8811544e-08
162	0x32f6a23f	2.871195e-08
163	0x3367aa93	5.3939015e-08
164	0x32ac6d41	2.0073118e-08
165	0x31c4b06f	5.724409e-09
166	0x31c4b06f	5.724409e-09
167	0x32c83cec	2.3310768e-08
168	0x30960787	1.0916076e-09
169	0x313aca15	2.7181433e-09
170	0x32ecdbe7	2.7574016e-08
171	0x32ecdbe7	2.7574016e-08
172	0x330507b3	3.0973478e-08
173	0x3169a983	3.4002319e-09
174	0x31b95ca1	5.3947393e-09
175	0x340ee7a2	1.3309048e-07
176	0x340ee7a2	1.3309048e-07
177	0x33d321ae	9.8315795e-08
178	0x3377bf1d	5.7682985e-08
179	0x33e24594	1.0536601e-07
180	0x3093abb3	1.0744458e-09
181	0x3093abb3	1.0744458e-09
182	0x2f961e80	2.7306513e-10
183	0x2fd65aa8	3.8990788e-10
184	0x3007842c	4.930054e-10
185	0x350828dc	5.0723406e-07
186	0x350828dc	5.0723406e-07
187	0x350e1ada	5.2938196e-07
188	0x34d9628f	4.049111e-07
189	0x352813e0	6.26138e-07
190	0x33c52b60	9.181417e-08
191	0x33c52b60	9.181417e-08
192	0x34a0749c	2.9887167e-07
193	0x347f117c	2.3755086e-07
194	0x3403e299	1.2282761e-07
195	0x2dff9635	2.9056849e-11
196	0x2dff9635	2.9056849e-11
197	0x2f335c13	1.6312666e-10
198	0x2f7083d3	2.1874706e-10
199	0x2f402862	1.7476645e-10
200	0x341b7168	1.4476757e-07
201	0x341b7168	1.4476757e-07
202	0x3393c88e	6.8817016e-08
203	0x3461de3b	2.1035605e-07
204	0x33bab313	8.693873e-08
205	0x33e3fcce	1.0616496e-07
206	0x33e3fcce	1.0616496e-07
207	0x33d37135	9.8460454e-08
208	0x3446dd07	1.8520596e-07
209	0x3487fac0	2.5328154e-07
210	0x3404e469	1.2376553e-07
211	0x3404e469	1.2376553e-07
212	0x33993a11	7.13518e-08
213	0x33979ec5	7.0603654e-08
214	0x32a05e0e	1.8669223e-08
215	0x328e25c3	1.6548148e-08
216	0x328e25c3	1.6548148e-08
217	0x33719036	5.6243344e-08
218	0x3380f248	6.004535e-08
219	0x33146c0b	3.45572e-08
220	0x3221ef85	9.425894e-09
221	0x3221ef85	9.425894e-09
222	0x32bcbe97	2.197275e-08
223	0x32334e3c	1.043696e-08
224	0x327af1d5	1.46069015e-08
225	0x34862ffd	2.499436e-07
226	0x34862ffd	2.499436e-07
227	0x342625a8	1.5473654e-07
228	0x333c1c6b	4.3798007e-08
229	0x32d74802	2.506204e-08
230	0x32c543a1	2.2964572e-08
231	0x32c543a1	2.2964572e-08
232	0x31e735c2	6.7290964e-09
233	0x311c318c	2.2729152e-09
234	0x3140511a	2.7985778e-09
235	0x3483a1a6	2.4518266e-07
236	0x3483a1a6	2.4518266e-07
237	0x3403a23d	1.2259348e-07
238	0x334badcc	4.7422688e-08
239	0x33aaef62	7.9597854e-08
240	0x33cea1ae	9.622032e-08
241	0x33cea1ae	9.622032e-08
242	0x34bf2874	3.5605956e-07
243	0x34d45dcb	3.955632e-07
244	0x34cb2932	3.784167e-07
245	0x33dd4ebf	1.0305438e-07
246	0x33dd4ebf	1.0305438e-07
247	0x349ed6f4	2.9586192e-07
248	0x3443039a	1.81621e-07
249	0x34687e1e	2.1652565e-07
250	0x320f4e61	8.341517e-09
251	0x320f4e61	8.341517e-09
252	0x326e45ec	1.3869322e-08
253	0x322382b3	9.517566e-09
254	0x31afc943	5.116051e-09
255	0x323f2c93	1.1127798e-08

exp_avg f4 [256, 64]
0	0x00000000	0.0
1	0x00000000	0.0
2	0x00000000	0.0
3	0x00000000	0.0
4	0x00000000	0.0
5	0x00000000	0.0
6	0x00000000	0.0
7	0x00000000	0.0
8	0x00000000	0.0
9	0x00000000	0.0
10	0x00000000	0.0
11	0x00000000	0.0
12	0x00000000	0.0
13	0x00000000	0.0
14	0x00000000	0.0
15	0x00000000	0.0
16	0x00000000	0.0
17	0x00000000	0.0
18	0x00000000	0.0
19	0x00000000	0.0
20	0x00000000	0.0
21	0x00000000	0.0
22	0x00000000	0.0
23	0x00000000	0.0
24	0x00000000	0.0
25	0x00000000	0.0
26	0x00000000	0.0
27	0x00000000	0.0
28	0x00000000	0.0
29	0x00000000	0.0
30	0x00000000	0.0
31	0x00000000	0.0
32	0x00000000	0.0
33	0x00000000	0.0
34	0x00000000	0.0
35	0x00000000	0.0
36	0x00000000	0.0
37	0x00000000	0.0
38	0x00000000	0.0
39	0x00000000	0.0
40	0x00000000	0.0
41	0x00000000	0.0
42	0x00000000	0.0
43	0x00000000	0.0
44	0x00000000	0.0
45	0x00000000	0.0
46	0x00000000	0.0
47	0x00000000	0.0
48	0x00000000	0.0
49	0x00000000	0.0
50	0x00000000	0.0
51	0x00000000	0.0
52	0x00000000	0.0
53	0x00000000	0.0
54	0x00000000	0.0
55	0x00000000	0.0
56	0x00000000	0.0
57	0x00000000	0.0
58	0x00000000	0.0
59	0x00000000	0.0
60	0x00000000	0.0
61	0x00000000	0.0
62	0x00000000	0.0
63	0x00000000	0.0
64	0x00000000	0.0
65	0x00000000	0.0
66	0x00000000	0.0
67	0x00000000	0.0
68	0x00000000	0.0
69	0x00000000	0.0
70	0x00000000	0.0
71	0x00000000	0.0
72	0x00000000	0.0
73	0x00000000	0.0
74	0x00000000	0.0
75	0x00000000	0.0
76	0x00000000	0.0
77	0x00000000	0.0
78	0x00000000	0.0
79	0x00000000	0.0
80	0x00000000	0.0
81	0x00000000	0.0
82	0x00000000	0.0
83	0x00000000	0.0
84	0x00000000	0.0
85	0x00000000	0.0
86	0x00000000	0.0
87	0x00000000	0.0
88	0x00000000	0.0
89	0x00000000	0.0
90	0x00000000	0.0
91	0x00000000	0.0
92	0x00000000	0.0
93	0x00000000	0.0
94	0x00000000	0.0
95	0x00000000	0.0
96	0x00000000	0.0
97	0x00000000	0.0
98	0x00000000	0.0
99	0x00000000	0.0
100	0x00000000	0.0
101	0x00000000	0.0
102	0x00000000	0.0
103	0x00000000	0.0
104	0x00000000	0.0
105	0x00000000	0.0
106	0x00000000	0.0
107	0x00000000	0.0
108	0x00000000	0.0
109	0x00000000	0.0
110	0x00000000	0.0
111	0x00000000	0.0
112	0x00000000	0.0
113	0x00000000	0.0
114	0x00000000	0.0
115	0x00000000	0.0
116	0x00000000	0.0
117	0x00000000	0.0
118	0x00000000	0.0
119	0x00000000	0.0
120	0x00000000	0.0
121	0x00000000	0.0
122	0x00000000	0.0
123	0x00000000	0.0
124	0x00000000	0.0
125	0x00000000	0.0
126	0x00000000	0.0
127	0x00000000	0.0
128	0x00000000	0.0
129	0x00000000	0.0
130	0x00000000	0.0
131	0x00000000	0.0
132	0x00000000	0.0
133	0x00000000	0.0
134	0x00000000	0.0
135	0x00000000	0.0
136	0x00000000	0.0
137	0x00000000	0.0
138	0x00000000	0.0
139	0x00000000	0.0
140	0x00000000	0.0
141	0x00000000	0.0
142	0x00000000	0.0
143	0x00000000	0.0
144	0x00000000	0.0
145	0x00000000	0.0
146	0x00000000	0.0
147	0x00000000	0.0
148	0x00000000	0.0
149	0x00000000	0.0
150	0x00000000	0.0
151	0x00000000	0.0
152	0x00000000	0.0
153	0x00000000	0.0
154	0x00000000	0.0
155	0x00000000	0.0
156	0x00000000	0.0
157	0x00000000	0.0
158	0x00000000	0.0
159	0x00000000	0.0
160	0x00000000	0.0
161	0x00000000	0.0
162	0x00000000	0.0
163	0x00000000	0.0
164	0x00000000	0.0
165	0x00000000	0.0
166	0x00000000	0.0
167	0x00000000	0.0
168	0x00000000	0.0
169	0x00000000	0.0
170	0x00000000	0.0
171	0x00000000	0.0
172	0x00000000	0.0
173	0x00000000	0.0
174	0x00000000	0.0
175	0x00000000	0.0
176	0x00000000	0.0
177	0x00000000	0.0
178	0x00000000	0.0
179	0x00000000	0.0
180	0x00000000	0.0
181	0x00000000	0.0
182	0x00000000	0.0
183	0x00000000	0.0
184	0x00000000	0.0
185	0x00000000	0.0
186	0x00000000	0.0
187	0x00000000	0.0
188	0x00000000	0.0
189	0x00000000	0.0
190	0x00000000	0.0
191	0x00000000	0.0
192	0x00000000	0.0
193	0x00000000	0.0
194	0x00000000	0.0
195	0x00000000	0.0
196	0x00000000	0.0
197	0x00000000	0.0
198	0x00000000	0.0
199	0x00000000	0.0
200	0x00000000	0.0
201	0x00000000	0.0
202	0x00000000	0.0
203	0x00000000	0.0
204	0x00000000	0.0
205	0x00000000	0.0
206	0x00000000	0.0
207	0x00000000	0.0
208	0x00000000	0.0
209	0x00000000	0.0
210	0x00000000	0.0
211	0x00000000	0.0
212	0x00000000	0.0
213	0x00000000	0.0
214	0x00000000	0.0
215	0x00000000	0.0
216	0x00000000	0.0
217	0x00000000	0.0
218	0x00000000	0.0
219	0x00000000	0.0
220	0x00000000	0.0
221	0x00000000	0.0
222	0x00000000	0.0
223	0x00000000	0.0
224	0x00000000	0.0
225	0x00000000	0.0
226	0x00000000	0.0
227	0x00000000	0.0
228	0x00000000	0.0
229	0x00000000	0.0
230	0x00000000	0.0
231	0x00000000	0.0
232	0x00000000	0.0
233	0x00000000	0.0
234	0x00000000	0.0
235	0x00000000	0.0
236	0x00000000	0.0
237	0x00000000	0.0
238	0x00000000	0.0
239	0x00000000	0.0
240	0x00000000	0.0
241	0x00000000	0.0
242	0x00000000	0.0
243	0x00000000	0.0
244	0x00000000	0.0
245	0x00000000	0.0
246	0x00000000	0.0
247	0x00000000	0.0
248	0x00000000	0.0
249	0x00000000	0.0
250	0x00000000	0.0
251	0x00000000	0.0
252	0x00000000	0.0
253	0x00000000	0.0
254	0x00000000	0.0
255	0x00000000	0.0
