lightning_logs/version_81/checkpoints/epoch=9-step=4350.ckpt (torch, 227924 bytes, 15 tensors)

lstm.weight_ih_l0 f4 [256, 5]
0	0xbe3bb154	-0.18329364
1	0x3e75f92a	0.2402083
2	0x3e86ac57	0.2630336
3	0xbce1a5e0	-0.027544916
4	0x3e089f66	0.13342056
5	0xbeae3508	-0.34024835
6	0x3eb7a691	0.35869268
7	0xbe034a5d	-0.12821336
8	0xbc1238be	-0.008924661
9	0x3ea5b2bd	0.3236293
10	0xbe8ddffa	-0.27709943
11	0x3e99802c	0.299806
12	0xbe543361	-0.20722724
13	0x3e1fdddd	0.15611978
14	0xbd42a0ba	-0.047516562
15	0x3e0b1704	0.13582999
16	0x3d374b73	0.04474969
17	0xbee10c1a	-0.43954545
18	0x3e2c98ab	0.16855113
19	0xbd0d7388	-0.034534007
20	0xb9ebed05	-0.00044999286
21	0x3dcf2040	0.10113573
22	0xbe4041ee	-0.1877515
23	0xbd9568ae	-0.07295357
24	0x3ed2cce5	0.41171947
25	0xbe3b2d96	-0.18279108
26	0x3dbd2faf	0.092376105
27	0xbe68e5d6	-0.22743925
28	0x3e38ea32	0.18058088
29	0x3bf8fa31	0.0075981845
30	0xbe2a0ac2	-0.16605666
31	0x3e743ab2	0.23850515
32	0xbe6256ca	-0.2210342
33	0xbe20dd14	-0.15709335
34	0x3e8b5e7a	0.27220517
35	0xbe3d2e7c	-0.18474764
36	0x3ea97ec1	0.33104518
37	0xbe83364c	-0.25627363
38	0x3e6a47e4	0.22878987
39	0xbe12302c	-0.14276189
40	0xbe8e47e4	-0.27789223
41	0x3dc5badf	0.096547835
42	0x3d816477	0.0631799
43	0x3e136892	0.14395359
44	0xbc9bf794	-0.019038953
45	0xbeba9569	-0.36442116
46	0x3e7783ce	0.24171373
47	0xbe9f4456	-0.31106824
48	0x3e34c01c	0.17651409
49	0xbe3e373b	-0.18575756
50	0x3ddbdeef	0.107358806
51	0xbe4cdffc	-0.20007318
52	0xbec40ef5	-0.3829266
53	0xbe5b48db	-0.21414511
54	0x3e9df713	0.30852565
55	0xbe89dfd4	-0.2692858
56	0x3e20fda5	0.15721758
57	0xbe74a08b	-0.23889367
58	0xbde629f9	-0.112384744
59	0x3e817a0b	0.25288424
60	0xbe92603a	-0.2858904
61	0x3e2afdff	0.16698454
62	0xbed6a3b6	-0.41921777
63	0xbe06372b	-0.13106982
64	0x3eb4fa2d	0.3534712
65	0xbe4570e7	-0.1928135
66	0x3b8f3860	0.004370734
67	0x3ede94c3	0.4347287
68	0xbc098624	-0.008393798
69	0x3e487ca0	0.1957879
70	0x3d4dcd58	0.05024466
71	0xbe06bc74	-0.13157827
72	0x3d915213	0.070957325
73	0xbe01db56	-0.12681326
74	0x3e784af5	0.24247344
75	0xbeee31e2	-0.46522433
76	0x3e90c557	0.28275558
77	0xbd69b018	-0.0570527
78	0xbe6cd9bd	-0.23129936
79	0x3f360969	0.7110811
80	0x3dc26e52	0.09493698
81	0xbdf2dc99	-0.11858482
82	0x3d48b60b	0.049001735
83	0xbd49e640	-0.04929185
84	0x3e9783e5	0.29592815
85	0xbeb7adfc	-0.35874927
86	0x3eb5b491	0.35489324
87	0xbe39f3c9	-0.18159403
88	0xbf08ef32	-0.53489983
89	0x3f5c8249	0.861363
90	0xbe7396fa	-0.23788062
91	0x3e3aaefb	0.18230812
92	0x3ec3a731	0.38213494
93	0xbeaa040c	-0.33206213
94	0x3eb15578	0.3463552
95	0x3c8f8b25	0.017522404
96	0xbd6f7215	-0.058458406
97	0xbeea0e9d	-0.45714274
98	0xbcb17e57	-0.021666689
99	0xbe406335	-0.18787844
100	0xbe425fc4	-0.18981844
101	0x3ea7c742	0.3276921
102	0xbe1f832d	-0.15577383
103	0xbf1d07b0	-0.61339855
104	0x3f0fd06c	0.561774
105	0xbe8c2566	-0.27372283
106	0x3e95369d	0.2914323
107	0xbe4bd9ad	-0.19907255
108	0xbd095d75	-0.033536393
109	0x3e788500	0.24269485
110	0xbeb4b5c6	-0.35294932
111	0x3eb700e9	0.35742882
112	0xbdbb887c	-0.09156892
113	0xbd44f4ab	-0.048084896
114	0x3ef08324	0.46975052
115	0x3dbaf9a0	0.091296434
116	0x3c90bda8	0.01766856
117	0xbead474d	-0.3384346
118	0xbc97bbea	-0.018522222
119	0x3d09cd7b	0.033643227
120	0x3e9926c1	0.2991238
121	0xbe939884	-0.28827298
122	0xbdeb8fa0	-0.11502004
123	0xbb5dcae1	-0.003384285
124	0xbd25f4ef	-0.04051679
125	0xbe1ba2e6	-0.1519886
126	0x3de19eee	0.110166416
127	0xbc35b8a5	-0.011091386
128	0xbdb592b6	-0.088658735
129	0x3e8220d1	0.25415662
130	0xbe0af87b	-0.1357135
131	0x3e13308a	0.14373985
132	0xbe607620	-0.21920061
133	0xbd32d2f2	-0.043658204
134	0x3ed8e7c6	0.4236433
135	0x3eaecbab	0.3413976
136	0xbea7dfe5	-0.32788005
137	0xbc1bd9b2	-0.009512352
138	0xbecbd29c	-0.3980912
139	0xbd93e2e9	-0.07221014
140	0xbea60b58	-0.3243053
141	0x3ea71bce	0.326384
142	0x3e5919c0	0.21201229
143	0xbeba8321	-0.36428168
144	0x3e7659bc	0.24057668
145	0x3e9fd51a	0.3121727
146	0xbe393ceb	-0.18089645
147	0xbeec38df	-0.4613714
148	0x3d853bc1	0.06505538
149	0x3ceeb27c	0.029137842
150	0xbdf41284	-0.11917594
151	0x3e8216f0	0.25408125
152	0xbe1e8d6e	-0.15483639
153	0xbc4f9136	-0.012668898
154	0x3e52c80f	0.20584129
155	0xbe4c7267	-0.19965516
156	0x3c99960f	0.018748311
157	0xbe192f78	-0.14959514
158	0x3d537665	0.05162658
159	0x3e3ca357	0.18421684
160	0xbe378b17	-0.17924152
161	0x3e19ecd6	0.15031752
162	0xbe41e0d7	-0.18933426
163	0xbccc2cdf	-0.02492374
164	0x3e2990d8	0.1655916
165	0xbea6b559	-0.32560232
166	0x3e00abb4	0.125655
167	0xbe51995d	-0.2046866
168	0xbdb24f59	-0.087065406
169	0x3ee9f7eb	0.4569696
170	0xbdcfd94e	-0.101488695
171	0x3e847fec	0.25878847
172	0xbe1610e0	-0.14654875
173	0x3db1da3e	0.086842045
174	0x3e5261c1	0.20545103
175	0xbe85c6b0	-0.2612815
176	0x3e649520	0.22322512
177	0xbedba889	-0.4290202
178	0xbea672d4	-0.32509482
179	0x3f0ca0e7	0.5493302
180	0xbe64a0a0	-0.22326899
181	0x3e13a219	0.14417304
182	0xbebf2dc2	-0.37339598
183	0x3dfa79ac	0.12230238
184	0x3e193f77	0.14965616
185	0xbe1e9b56	-0.15488943
186	0x3e766968	0.24063647
187	0xbd193859	-0.037407253
188	0xbee8e4e7	-0.4548714
189	0x3ed16f30	0.40905142
190	0xbe286ee6	-0.16448554
191	0x3e888f64	0.26671898
192	0x3eb64752	0.35601288
193	0xbe0194a2	-0.12654355
194	0x3eefe8f1	0.46857408
195	0x3d730ca1	0.059338216
196	0xbd2bb159	-0.04191718
197	0xbe776a60	-0.24161673
198	0xbe3e713d	-0.18597884
199	0x3df5b683	0.11997702
200	0xbea1d9c1	-0.31611446
201	0x3e82d527	0.25553247
202	0xbebf6176	-0.37379044
203	0x3e30f19b	0.17279665
204	0xbd7a5477	-0.06111571
205	0xbdf386d7	-0.11890953
206	0x3e7c9a58	0.24668252
207	0x3ecbeb9a	0.39828187
208	0xbdf42d65	-0.11922721
209	0x3dddbe1b	0.10827275
210	0xbe30c171	-0.17261292
211	0x3d731844	0.059349313
212	0x3e2ecdf9	0.1707076
213	0xbd809c7e	-0.062798485
214	0xbcf9c4a2	-0.03048927
215	0xbe08090f	-0.13284706
216	0x3e5908df	0.2119479
217	0xbe80f0d1	-0.25183728
218	0xbd2233e2	-0.03960026
219	0x3e5f988e	0.21835539
220	0xbe4188c1	-0.18899824
221	0x3e7dd511	0.2478831
222	0xbd8ddc85	-0.069268264
223	0xbdef7be3	-0.116935514
224	0x3ea8a485	0.32938018
225	0xbe27414c	-0.16333503
226	0x3e7d3ccc	0.24730223
227	0xbeef1544	-0.46695912
228	0x3d41b185	0.047288436
229	0x3e81f206	0.25379962
230	0xbe051e4d	-0.1299984
231	0x3e06e1f7	0.13172136
232	0xbea5b200	-0.32362366
233	0xbcde15a0	-0.027109921
234	0xbbd4089e	-0.006470754
235	0x3e85bd7c	0.26121128
236	0xbe8cdd7f	-0.27512738
237	0xbe4ee0f7	-0.20203005
238	0xbada3421	-0.0016647616
239	0x3e98721d	0.29774562
240	0xbdb54457	-0.088509254
241	0x3e96e6a8	0.29472852
242	0xbe769812	-0.24081448
243	0xbe5e2887	-0.21695147
244	0x3ed6ffe5	0.41992107
245	0xbe362220	-0.17786455
246	0x3e2c1e1c	0.16808361
247	0x3db815b5	0.08988515
248	0xbc00c45d	-0.007859317
249	0xbbddd1ea	-0.0067694085
250	0x3eb6ff03	0.35741434
251	0xbec63dfa	-0.3871916
252	0xbdecc935	-0.11561815
253	0x3d132374	0.035922483
254	0x3da8c6fa	0.08241077
255	0xbdb633ac	-0.088965744

lstm.weight_hh_l0 f4 [256, 64]
0	0xbdf51340	-0.11966562
1	0xbba37140	-0.0049878657
2	0x3c0594d0	0.008153155
3	0xbcb725e0	-0.022356927
4	0x3db543f6	0.08850853
5	0xbd08bd0c	-0.033383414
6	0x3dc9bcbc	0.09850451
7	0xbded9b60	-0.11601901
8	0xbd9631fa	-0.07333751
9	0x3dee5c6c	0.11638722
10	0x3df89b26	0.12138967
11	0x3db387f2	0.08766164
12	0xbde887ba	-0.11354013
13	0xbdb4924c	-0.088169664
14	0x3c1ee7e0	0.009698838
15	0xbd98a50e	-0.07453357
16	0xbbe05f60	-0.006847307
17	0xbdc7210a	-0.097230986
18	0x3dd99100	0.1062336
19	0x3d1f35d0	0.03886968
20	0x3dfaaa64	0.12239531
21	0xbd86a784	-0.0657492
22	0x3db87a80	0.0900774
23	0x3daf5624	0.08561352
24	0x3d78e630	0.0607664
25	0x3d9f0a9e	0.07765697
26	0x3c9ee348	0.019395486
27	0xbdb4da4c	-0.08830699
28	0xbd1052e0	-0.035235286
29	0xbd84bee4	-0.06481722
30	0xbdd9d7d6	-0.106368706
31	0x3cd8dd50	0.026472718
32	0x3d8a5dd6	0.06756179
33	0x3d8f20fc	0.06988713
34	0x3dd7ea62	0.10542752
35	0x3dfa1376	0.12210743
36	0x3d12f044	0.035873666
37	0xbdf9ff0a	-0.12206848
38	0x3d1a6dd4	0.037702397
39	0x3d358ed8	0.04432568
40	0x3d21723c	0.039415583
41	0xbdebe496	-0.11518209
42	0xbde49c54	-0.1116263
43	0xbdd4ae2a	-0.10384782
44	0x3dcb1316	0.0991575
45	0xbd12b454	-0.035816506
46	0x3c806a30	0.015675634
47	0xbd9e93dc	-0.07743046
48	0x3c17e490	0.009270802
49	0x3bf95e00	0.0076100826
50	0xbd5d9dec	-0.054105684
51	0x3daf2b4e	0.085531816
52	0xbb283180	-0.002566427
53	0xbc9a33b8	-0.01882349
54	0x3d51f670	0.05126041
55	0xbda6c102	-0.08142282
56	0xbc67b910	-0.014143243
57	0x3db612be	0.088902935
58	0xbd503e00	-0.050840378
59	0xbc62add0	-0.013835385
60	0xbccc6100	-0.024948597
61	0xbbd28040	-0.00642398
62	0x3cc61f10	0.024184734
63	0xbca26d80	-0.019827604
64	0xbdfa00ce	-0.12207185
65	0xbcf9b240	-0.030480504
66	0xbd9279cc	-0.07152137
67	0x3db6a2ec	0.08917794
68	0x3de44972	0.11146821
69	0x3cac2428	0.021013334
70	0x3df9829e	0.121831164
71	0x3d875c00	0.066093445
72	0x3c3a79c0	0.0113815665
73	0x3be1c1c0	0.006889552
74	0xbcaf76f8	-0.021419033
75	0x3dd280cc	0.10278472
76	0x3b2f2900	0.0026727319
77	0xbda72c6a	-0.08162768
78	0x3d593f64	0.05303897
79	0x3cdbfd00	0.026854038
80	0xbd1ed7e4	-0.038780108
81	0x3d5118c0	0.051048994
82	0x3cf46cb8	0.029836997
83	0x3db976e6	0.09055881
84	0x3d97297e	0.07380961
85	0x3df055e0	0.11735129
86	0x3c0cac70	0.008586034
87	0x3d1cb650	0.038259804
88	0xbdfcf804	-0.12351993
89	0xbcd63348	-0.0261475
90	0xbda24696	-0.079236194
91	0xbca59790	-0.020213872
92	0x39ca8200	0.000386253
93	0xbdaa7602	-0.083232895
94	0x3de8aa9c	0.11360666
95	0xbd1996f8	-0.03749749
96	0xbd769b44	-0.060206667
97	0xbdef0b9c	-0.11672136
98	0xbd221dcc	-0.039579198
99	0x3dbf9d40	0.09356165
100	0x3daebbe0	0.08531928
101	0xbd372380	-0.04471159
102	0xbc34f500	-0.011044741
103	0x3a605c00	0.0008558631
104	0x3d5b22c0	0.053499937
105	0xbdfc060c	-0.12305841
106	0xbd88225a	-0.06647177
107	0xbcca4048	-0.024688855
108	0xbd37cb18	-0.04487142
109	0xbb793200	-0.0038024187
110	0xbd01b6d0	-0.031668484
111	0x3deb1e0c	0.1148034
112	0xbc668960	-0.014070839
113	0x3cb35458	0.021890804
114	0x3d37c0c4	0.04486157
115	0xbdef70ea	-0.116914585
116	0x3c5fb0a0	0.0136529505
117	0xbdbbf468	-0.09177476
118	0xbd074b24	-0.033030644
119	0xbd7c8828	-0.061653286
120	0x3daf15b4	0.085490614
121	0x3de19fc4	0.11016801
122	0xbd2ad354	-0.041705444
123	0xbb698480	-0.0035631955
124	0x3de7aa8c	0.11311826
125	0x3dacfbb6	0.084464476
126	0x3de3099a	0.11085816
127	0xbd98be3e	-0.07458161
128	0xbcb45018	-0.022010848
129	0xbdd92f88	-0.10604769
130	0xbc9a2dd0	-0.018820673
131	0x3d8bd362	0.068274274
132	0xbda755c8	-0.08170658
133	0xbdded81e	-0.10881065
134	0x3dcf98d0	0.101365685
135	0x3dff2126	0.124574944
136	0xbd070a5c	-0.032968864
137	0x3d05ffc4	0.03271462
138	0x3d128174	0.035767987
139	0x3d4f96f0	0.050681055
140	0xbda9d74e	-0.08293019
141	0xbcb84a10	-0.022496253
142	0x3da4431c	0.080206126
143	0xbdd017be	-0.101607785
144	0x3bc74a60	0.0060818642
145	0x3d64077c	0.0556712
146	0x3d724cbc	0.05915521
147	0x3dfc9864	0.12333754
148	0x3cfb39b0	0.030667156
149	0x3d7328f4	0.059365228
150	0xbd85d14e	-0.06534062
151	0x3b9bc140	0.004753262
152	0x3da7cd2e	0.08193432
153	0xbdf66f38	-0.12032932
154	0x3cfb8d98	0.030707166
155	0x3c5b3c80	0.013381124
156	0x3d1719b0	0.036889732
157	0xbdcad73e	-0.099043354
158	0x3de4ca58	0.111714065
159	0x3dbbffaa	0.091796234
160	0x3ae1df80	0.0017232746
161	0xbddc05e4	-0.10743311
162	0x3cfedd38	0.031111345
163	0x3df10a64	0.1176956
164	0x3db073a8	0.0861581
165	0xbde788ae	-0.113053665
166	0xbbad7440	-0.005293399
167	0x3d819a84	0.063283
168	0xbd69b9f0	-0.05706209
169	0xbdb627f8	-0.08894342
170	0xba73ae00	-0.00092956424
171	0x3c955800	0.018230438
172	0x3db7f78e	0.08982764
173	0x3cee5520	0.029093325
174	0xbda92ba0	-0.08260274
175	0x3da03d3e	0.07824181
176	0x3afcbe00	0.0019282699
177	0xbdfced54	-0.12349954
178	0xbd2cb4b0	-0.042164505
179	0x3de9e774	0.11421099
180	0xbd204df8	-0.039136857
181	0x3ddde1a6	0.10834055
182	0x3de62cb4	0.11238995
183	0x3dca8916	0.09889428
184	0x3cdf8400	0.027284622
185	0x3ca25708	0.01981689
186	0xbc5492e0	-0.012974471
187	0xbcc8ca18	-0.024510428
188	0xbd3424ec	-0.043980524
189	0xbd169370	-0.0367617
190	0xbdf072c8	-0.11740643
191	0xbd568d58	-0.05238089
192	0x3dc32b00	0.09529686
193	0x3dc85ec4	0.097837
194	0x3b8d1b60	0.004306242
195	0x3c11d570	0.008900985
196	0xbd9dbb46	-0.07701735
197	0x3d875894	0.06608692
198	0xbd9ac21a	-0.07556553
199	0x3c6f7fe0	0.01461789
200	0x3def7bfe	0.116935715
201	0x3cafc150	0.021454483
202	0x3d7340e0	0.05938804
203	0xbcbfddb8	-0.023421153
204	0xbdc8559c	-0.09781954
205	0xbca5cb10	-0.02023843
206	0xbdc751de	-0.09732412
207	0xbd9e4c4e	-0.07729398
208	0xbda6e66a	-0.08149417
209	0x3d9f57e8	0.07780439
210	0x3d3031a0	0.043016076
211	0xbdae57e8	-0.085128605
212	0xbd750824	-0.059822217
213	0x3c759ab0	0.014990494
214	0x3df10646	0.11768775
215	0x3d9f26fa	0.07771106
216	0xbdd84700	-0.10560417
217	0x3ce696b8	0.02814804
218	0x3d6834a8	0.056690842
219	0x3df68d4c	0.12038669
220	0x3c5f4090	0.013626233
221	0xba79e700	-0.0009533018
222	0x3df64334	0.12024537
223	0xbda7bd9c	-0.08190462
224	0xbcb5f4e0	-0.022211492
225	0xbc540890	-0.012941495
226	0x3c7c0320	0.015381604
227	0xbdeb149e	-0.11478542
228	0x3d68c3bc	0.05682729
229	0x3d76df40	0.0602715
230	0x3ccaf110	0.02477315
231	0x3b18cb40	0.0023314506
232	0xbdd02fc0	-0.101653576
233	0xbbfe7c80	-0.0077663064
234	0x3cd600b0	0.026123375
235	0xbc1ce9a0	-0.009577185
236	0xbca45808	-0.020061508
237	0xbd860e76	-0.06545727
238	0xbdd187d2	-0.10230984
239	0x3d67f214	0.056627348
240	0xbdaf3e30	-0.08556783
241	0x3de4f994	0.11180416
242	0xbddd9694	-0.10819736
243	0x3c7c8b60	0.015414089
244	0x3d19a858	0.03751406
245	0x3da9aefc	0.08285329
246	0x3c525210	0.012836948
247	0xbca37400	-0.019952774
248	0xbc05df90	-0.008170977
249	0x3df99862	0.12187268
250	0xbd798b80	-0.060924053
251	0x3d29d61c	0.041463956
252	0xbc49d4d0	-0.012318805
253	0xbdad7076	-0.08468716
254	0x3d8f4dde	0.06997274
255	0xbda8fcb4	-0.08251324

lstm.bias_ih_l0 f4 [256]
0	0x3eda9245	0.4268972
1	0x3f643d1f	0.89155763
2	0x3ed0acc5	0.40756813
3	0x3f1c430d	0.6103981
4	0x3f6de705	0.9293063
5	0x3edd5c49	0.4323447
6	0x3f206403	0.62652606
7	0x3eeb46a8	0.45952344
8	0x3ec86d9d	0.39146128
9	0x3ec59e91	0.3859754
10	0x3f2a62d8	0.66557074
11	0x3f361092	0.71119034
12	0x3f120dc0	0.5705223
13	0x3f10cef4	0.56565785
14	0x3f7a0d15	0.9767621
15	0x3f71d73a	0.94469035
16	0x3f3219b9	0.695705
17	0x3efb80e0	0.4912176
18	0x3ec445ba	0.38334447
19	0x3d032308	0.03201583
20	0x3f18a6f7	0.5962977
21	0x3f67ca60	0.90543175
22	0x3f539c8c	0.82660747
23	0x3f325be5	0.6967147
24	0x3ee9a1f2	0.45631367
25	0x3f1aa672	0.60410225
26	0x3f29e24f	0.66360945
27	0x3eaaa055	0.3332545
28	0x3dea4cfe	0.11440466
29	0x3f069bbd	0.5258139
30	0x3f11ab7a	0.5690228
31	0x3f2241cc	0.6338165
32	0x3f1bc056	0.60840356
33	0x3f653e42	0.8954812
34	0x3f0540f3	0.5205223
35	0x3f2af1ce	0.66775215
36	0x3f0822f8	0.5317836
37	0x3eeb277b	0.4592856
38	0x3f5f3b80	0.87200165
39	0xbd66a00e	-0.056304984
40	0x3e7a4852	0.2444165
41	0x3ed00dca	0.4063552
42	0x3f0f6246	0.5600933
43	0x3f238c56	0.6388601
44	0x3f31fdbf	0.6952781
45	0x3f6a4cbc	0.9152334
46	0x3e27d1fe	0.163887
47	0x3f3acebb	0.72971696
48	0x3f0a5241	0.5403176
49	0x3ed9e0cb	0.42554316
50	0x3f338b33	0.70134276
51	0x3f298bc8	0.66228914
52	0x3f43f0bf	0.76539224
53	0x3f60ff96	0.87889993
54	0x3eb90884	0.3613931
55	0x3ee387fe	0.4443969
56	0x3e9f03cd	0.31057587
57	0x3f6668a7	0.90003437
58	0x3ee48ad5	0.4463717
59	0x3bdaff91	0.006683298
60	0x3f1e21fe	0.6177062
61	0x3f65fe0f	0.8984079
62	0x3ef570e9	0.47937706
63	0x3f5174a3	0.818186
64	0x3dd467de	0.103713736
65	0x3da1b28c	0.07895383
66	0x3d9790a8	0.07400638
67	0x3d87b45a	0.06626196
68	0xbdab0fec	-0.08352646
69	0xbdf6e04a	-0.120544985
70	0xbdebe10e	-0.11517535
71	0xbc44df30	-0.012016103
72	0x3c59b4c0	0.013287723
73	0xbdb5a000	-0.08868408
74	0xbdc13e7e	-0.094357476
75	0x3ddd8812	0.10816969
76	0xbdbcc026	-0.09216337
77	0x3dd0a9c0	0.10188627
78	0xbd76b408	-0.060230285
79	0x3dc4e70a	0.0961438
80	0x3bfae8a0	0.0076571256
81	0x3d622770	0.05521339
82	0xbd08925c	-0.033342704
83	0x3d918ba4	0.071067125
84	0x3de8444a	0.1134115
85	0x3dbc9e62	0.092098966
86	0x3dc07478	0.09397215
87	0xbdb0b96c	-0.086291164
88	0x3d926f14	0.07150093
89	0x3cdd2f18	0.026999995
90	0x3d991b2a	0.07475884
91	0x3c873bf8	0.016508088
92	0xbdf83e46	-0.12121253
93	0xbbb5d4a0	-0.0055490285
94	0xbd925968	-0.07145959
95	0x3dad3d70	0.08458984
96	0x3de99e14	0.11407104
97	0xbcff84d0	-0.03119126
98	0xbd3845f8	-0.044988602
99	0x3da44e48	0.080227435
100	0x3de7506a	0.11294635
101	0x3dfb6fd2	0.122771874
102	0x3d648f98	0.055801004
103	0x3ca18760	0.019717872
104	0x3db7750c	0.08957872
105	0xbdaa7e76	-0.08324902
106	0xbcb01140	-0.0214926
107	0x3df8c188	0.12146288
108	0x3d9a8d98	0.07546538
109	0xbda8004e	-0.08203183
110	0x3c58c2a0	0.013229996
111	0x3d8ae472	0.06781854
112	0xbc8dc7f0	-0.017307252
113	0x3d11ebac	0.035625145
114	0x3d8f494c	0.06996402
115	0xbce1dbc0	-0.027570605
116	0x3dc97a58	0.09837788
117	0x3a524d00	0.0008022338
118	0x3d09177c	0.033469662
119	0xbdb9524e	-0.090489015
120	0x3c849100	0.016182423
121	0xbdb834ee	-0.089944705
122	0x3d9599a6	0.07304697
123	0xbdea5e46	-0.114437625
124	0x3c254600	0.01008749
125	0x3d12df58	0.03585753
126	0x3d51b1ac	0.05119483
127	0xbdfc90a8	-0.123322785
128	0x3e881481	0.26578143
129	0xbe50d817	-0.20394932
130	0x3e14a18d	0.14514752
131	0xbd0df8be	-0.034661047
132	0xbe62216e	-0.22083065
133	0x3e1943c0	0.14967251
134	0xbe0b8b40	-0.13627338
135	0xbe2f083c	-0.17092985
136	0xbe22b06f	-0.15887617
137	0xbc99ee92	-0.018790517
138	0x3e0055e8	0.1253277
139	0xbda0f43f	-0.07859086
140	0x3d5f36c2	0.05449558
141	0x3e9893f5	0.29800382
142	0x3e80bef9	0.251457
143	0xbe7212b7	-0.23639952
144	0xbe931088	-0.2872355
145	0xbdb2a424	-0.087227136
146	0x3e5cbf45	0.21557339
147	0xbd745563	-0.059651744
148	0xbdab978f	-0.08378517
149	0xbe1d1d52	-0.15343216
150	0xbe199c0f	-0.15000938
151	0xbe69ea86	-0.2284337
152	0x3dcc7088	0.09982401
153	0x3e46418a	0.19360939
154	0x3dd95838	0.106125295
155	0x3dede7f9	0.11616511
156	0xbca8ab11	-0.020589383
157	0x3e7296e2	0.2369037
158	0xbe1fcbd1	-0.15605094
159	0xbe5c079b	-0.21487276
160	0xbdb221f1	-0.0869788
161	0xbe2265e7	-0.15859185
162	0xbe0f6739	-0.1400422
163	0xbd064da2	-0.03278888
164	0x3e09fa3c	0.13474363
165	0x3e0a4a04	0.13504797
166	0x3e7680f9	0.24072637
167	0xbd247fe5	-0.040161032
168	0xbd029c85	-0.03188755
169	0x3e6c3269	0.23066105
170	0xbe7fe48b	-0.24989526
171	0xbe01f564	-0.12691265
172	0xbd92b78d	-0.07163916
173	0xbe054b70	-0.13017058
174	0x3d0c21c4	0.03421189
175	0x3e6826e2	0.22671083
176	0xbe21316d	-0.1574151
177	0xbe493263	-0.19648127
178	0x3e4d113f	0.2002611
179	0xbeb0c17c	-0.34522617
180	0x3dfe2ace	0.12410508
181	0x3e056c81	0.13029672
182	0xbd69d1ee	-0.05708497
183	0xbe1a8e3b	-0.15093319
184	0x3d060100	0.032715797
185	0xbe5d25ee	-0.215965
186	0xbe99fe8e	-0.30077022
187	0x3dbd4ed1	0.09243549
188	0x3d8b1b20	0.06792283
189	0x3e7f8fe9	0.24957241
190	0x3cfb1844	0.03065122
191	0x3dbeacef	0.09310328
192	0x3f122526	0.57087934
193	0x3f62c5ef	0.8858327
194	0x3ee98cba	0.45615178
195	0x3f1bfbe5	0.60931236
196	0x3f84fd5c	1.0389819
197	0x3f04b271	0.5183478
198	0x3f1cbc75	0.6122506
199	0x3f1f412c	0.6220882
200	0x3ea75c23	0.32687482
201	0x3e9401ef	0.28907725
202	0x3eface31	0.48985437
203	0x3f168a17	0.5880446
204	0x3f2758de	0.65369976
205	0x3f017c32	0.5058013
206	0x3f72272b	0.94591016
207	0x3f839351	1.0279332
208	0x3f464bb2	0.7745925
209	0x3f1883f6	0.59576356
210	0x3f097cce	0.5370606
211	0x3e5d23b3	0.2159565
212	0x3ef444f3	0.47708854
213	0x3f679951	0.9046832
214	0x3f7d617f	0.9897689
215	0x3f35b55e	0.7097987
216	0x3ed96a5c	0.42463958
217	0x3f07131c	0.52763534
218	0x3f3ca89a	0.73694766
219	0x3ecc2290	0.3987012
220	0x3e27c152	0.1638234
221	0x3f0494bc	0.5178945
222	0x3f2431e6	0.6413864
223	0x3f31ab11	0.6940165
224	0x3f3192a3	0.69364375
225	0x3f54630c	0.82963634
226	0x3f11bcef	0.56928915
227	0x3f548d1c	0.83027816
228	0x3ecda8ae	0.40167755
229	0x3f07e17b	0.5307843
230	0x3f43d1ad	0.76491815
231	0x3da2ed79	0.079554506
232	0x3ee5e912	0.4490438
233	0x3ed47165	0.41492763
234	0x3f085963	0.53261393
235	0x3f2179e9	0.63076645
236	0x3f21dbd4	0.63226056
237	0x3f4b1848	0.79333925
238	0x3ea81c01	0.32833865
239	0x3f49edee	0.78878677
240	0x3f362136	0.71144426
241	0x3e91c19a	0.2846802
242	0x3f4dde8d	0.8041771
243	0x3f40a36f	0.7524938
244	0x3f23f925	0.6405204
245	0x3f430d8a	0.76192534
246	0x3ecbd0fb	0.39807877
247	0x3f099784	0.5374682
248	0x3e44b4d2	0.19209602
249	0x3f70ed7f	0.9411239
250	0x3f09e1bf	0.53860086
251	0xbdc369e9	-0.09541685
252	0x3ee96224	0.45582688
253	0x3f5c3af7	0.86027473
254	0x3ee71228	0.4513104
255	0x3f3aaa0d	0.72915727

lstm.bias_hh_l0 f4 [256]
0	0x3eec6144	0.46167958
1	0x3f4b6dd1	0.7946444
2	0x3f0f2ffe	0.55932605
3	0x3f1573e7	0.5837998
4	0x3f83d773	1.0300125
5	0x3f0415c8	0.51595736
6	0x3f134686	0.57529485
7	0x3ebf3175	0.3734242
8	0x3ecc8a9e	0.39949507
9	0x3eaefed4	0.34178793
10	0x3ef81eb4	0.48460925
11	0x3f4356e2	0.7630445
12	0x3efcd4b1	0.4938102
13	0x3f0f3543	0.55940646
14	0x3f4b0f6f	0.79320425
15	0x3f665ab7	0.8998217
16	0x3f68e903	0.9098055
17	0x3f26a310	0.65092564
18	0x3ec03e0b	0.37547335
19	0x3d65b7b1	0.056083385
20	0x3f2a8119	0.6660324
21	0x3f7e8dbd	0.99435025
22	0x3f5eb810	0.8699961
23	0x3f1ae0a2	0.6049901
24	0x3edda7a8	0.43291974
25	0x3f03e23b	0.51517075
26	0x3f29fa74	0.66397786
27	0x3ec03000	0.3753662
28	0x3e9eb532	0.30997616
29	0x3f093cdb	0.53608483
30	0x3f0bb376	0.5457071
31	0x3f33ff6b	0.7031161
32	0x3f2efa51	0.683507
33	0x3f774667	0.965918
34	0x3f3223f1	0.6958609
35	0x3f268483	0.65045947
36	0x3f0474af	0.51740545
37	0x3ef13d1d	0.47116938
38	0x3f4c8045	0.79883224
39	0x3d80441a	0.06262989
40	0x3ec7ca00	0.390213
41	0x3ed4d4c9	0.41568592
42	0x3ee2d189	0.44300488
43	0x3f4c1e56	0.7973379
44	0x3f179d93	0.59224814
45	0x3f3e5ac6	0.7435726
46	0x3e8ed919	0.27900007
47	0x3f53c56a	0.82723105
48	0x3f266ab1	0.6500655
49	0x3ef84b86	0.4849512
50	0x3f4cc63b	0.79989976
51	0x3f2015c5	0.6253322
52	0x3f27d6a0	0.65561867
53	0x3f36a662	0.7134763
54	0x3ec5e32d	0.38649884
55	0x3f1d1eec	0.6137531
56	0x3e982f04	0.2972337
57	0x3f676ca0	0.90400124
58	0x3f11f644	0.57016397
59	0xbda1807f	-0.07885837
60	0x3f0e4274	0.5557015
61	0x3f557821	0.8338643
62	0x3ec592e6	0.38588637
63	0x3f51c934	0.81947637
64	0x3cea8738	0.02862893
65	0xbdd44328	-0.103643715
66	0xbda7edbe	-0.081996426
67	0xbd5c2ca4	-0.05375351
68	0xbdc2de0e	-0.0951501
69	0x3de27988	0.110583365
70	0x3df4bb5e	0.119498
71	0x3d671008	0.056411773
72	0x3d616fec	0.055038378
73	0xbd041a24	-0.032251492
74	0x3c4df5c0	0.012570798
75	0xbdd6002a	-0.1044925
76	0x3d32ac94	0.043621615
77	0x3cf41f48	0.029800072
78	0x3da5f2fe	0.08102988
79	0xbdf47670	-0.11936653
80	0x3dff7e70	0.12475288
81	0x3d50deb4	0.050993636
82	0x3db78872	0.08961572
83	0x3d8ee1e8	0.06976682
84	0xbb6e71c0	-0.0036383718
85	0xbdd2eb24	-0.10298756
86	0x3dce55c6	0.10074954
87	0x3d925b2a	0.071462944
88	0xbcaac620	-0.020846426
89	0x3db4eefe	0.08834647
90	0xbd9f67d6	-0.07783477
91	0xbd88b560	-0.066752195
92	0xbd98f16c	-0.074679226
93	0x3dd789ca	0.10524328
94	0x3de48a0e	0.11159144
95	0x3c96bc08	0.018400207
96	0x3de2c0ce	0.11071931
97	0xbdc0bd74	-0.09411135
98	0x3d4fc86c	0.050728247
99	0xbbc05c60	-0.005870387
100	0x3d1588fc	0.03650759
101	0x3d16ed18	0.036847204
102	0x3cb08d88	0.021551862
103	0xbbc683e0	-0.006058201
104	0x3d6693f0	0.056293428
105	0xbb09f8c0	-0.0021052808
106	0x3d8922fc	0.06696126
107	0xbb12b280	-0.0022384226
108	0x3b152f40	0.002276376
109	0x3d896cd0	0.067102075
110	0x3d31584c	0.043297097
111	0xbdf571ba	-0.11984582
112	0xbb5fe500	-0.0034163594
113	0x3d7b1324	0.06129755
114	0xbcca9778	-0.024730429
115	0x3d130af8	0.035899132
116	0xbc5a4030	-0.013320968
117	0x3dd49c90	0.103814244
118	0x3ce0e508	0.02745296
119	0x3ddb1130	0.10696638
120	0x3df157e0	0.11784339
121	0x3ddbe9fe	0.1073799
122	0xbd986874	-0.07441798
123	0x3d9e34d2	0.077249184
124	0xbd0cd724	-0.03438486
125	0x3d52a26c	0.05142443
126	0x3c048e00	0.008090496
127	0xbc5dfa60	-0.013548464
128	0x3e12f03a	0.14349452
129	0xbe73d613	-0.23812132
130	0x3e34bc50	0.1764996
131	0xbe5bf5fa	-0.21480551
132	0xbe55a210	-0.20862603
133	0xbbf6410d	-0.007515079
134	0xbe056d9e	-0.13030097
135	0xbdd412e6	-0.10355167
136	0xbe4aaea3	-0.19793181
137	0xbe0b242f	-0.13588022
138	0x3dee2537	0.11628192
139	0xbe3ac16e	-0.1823785
140	0x3dc08172	0.0939969
141	0x3e7af2e2	0.24506715
142	0x3e962de4	0.29331887
143	0xbde7f613	-0.11326232
144	0xbe647b4d	-0.2231266
145	0xbccf6809	-0.025318163
146	0x3e168995	0.14700921
147	0xbd7c26f2	-0.06156058
148	0xbd86f36e	-0.06589399
149	0xbe8e4472	-0.27786595
150	0xbe96bc2a	-0.29440433
151	0xbda53d0e	-0.08068286
152	0x3e58952e	0.21150658
153	0x3e532f86	0.20623598
154	0x3e038dc2	0.12847045
155	0x3e223365	0.15839918
156	0xbe538f26	-0.20660076
157	0x3dc9133d	0.098181225
158	0xbd82cde0	-0.06386924
159	0xbdf3d8d1	-0.11906589
160	0xbe668fda	-0.22515813
161	0xbe5efcfd	-0.21776195
162	0xbe476856	-0.19473395
163	0xbe19d629	-0.15023102
164	0x3d0a1c1e	0.03371822
165	0x3d7b06aa	0.061285652
166	0x3e468e7e	0.19390294
167	0xbd5e25d9	-0.054235313
168	0xbd62fb24	-0.055415288
169	0x3e661e59	0.22472514
170	0xbe4939c1	-0.19650938
171	0xbe2569bf	-0.1615362
172	0xbe79d353	-0.2439702
173	0xbdf505ab	-0.11963972
174	0x3abe8052	0.0014534092
175	0x3e763724	0.24044472
176	0xbd812c07	-0.06307226
177	0xbe11bd4e	-0.1423237
178	0x3e406725	0.18789347
179	0xbe6c690b	-0.23086946
180	0x3da5afaf	0.080901496
181	0x3e849731	0.258966
182	0xbd916d22	-0.071008936
183	0xbd4748f0	-0.048653543
184	0xbd8a2b3c	-0.067465276
185	0xbe813860	-0.25238323
186	0xbe9c12cc	-0.3048309
187	0xbd1462c2	-0.036226995
188	0x3e264763	0.1623817
189	0x3e4286a6	0.18996677
190	0xbe017ddb	-0.12645666
191	0x3e693b82	0.22776607
192	0x3efe3252	0.49647766
193	0x3f6b4984	0.9190905
194	0x3f018889	0.5059896
195	0x3f195fdd	0.599119
196	0x3f8256f4	1.0182786
197	0x3eff569b	0.49870762
198	0x3f3b47ed	0.73156625
199	0x3ef0034e	0.4687752
200	0x3ec4b2fd	0.38417807
201	0x3ee8757e	0.4540214
202	0x3ef65855	0.48114267
203	0x3f40d327	0.7532219
204	0x3f23d05a	0.63989794
205	0x3efb396a	0.4906724
206	0x3f5ddd0e	0.8666543
207	0x3f83244a	1.024545
208	0x3f532f39	0.8249393
209	0x3f33c664	0.70224595
210	0x3f08f9cc	0.5350616
211	0x3dd1112e	0.10208355
212	0x3f2836a6	0.65708387
213	0x3f7d8807	0.99035686
214	0x3f812c17	1.009158
215	0x3f1a5cd0	0.6029787
216	0x3efae456	0.49002331
217	0x3f42153b	0.75813645
218	0x3f27280c	0.6529548
219	0x3ee15f9b	0.44018254
220	0x3e3a0226	0.18164882
221	0x3f0c3ace	0.5477723
222	0x3f2802b5	0.6562913
223	0x3f063102	0.5241853
224	0x3f102712	0.56309617
225	0x3f79c68f	0.975686
226	0x3f0732ba	0.5281178
227	0x3f4c1cd9	0.7973152
228	0x3eec35f1	0.46134904
229	0x3f08669f	0.5328159
230	0x3f69649d	0.9116915
231	0x3d851b9c	0.06499407
232	0x3ed24139	0.41065386
233	0x3ec81d55	0.3908488
234	0x3f145afb	0.57951325
235	0x3f268c2d	0.6505764
236	0x3f2ff216	0.6872877
237	0x3f6cd777	0.92516273
238	0x3e09f1d0	0.1347115
239	0x3f4c7c75	0.79877406
240	0x3f39884c	0.724736
241	0x3ef2dfcb	0.47436365
242	0x3f176102	0.591324
243	0x3f431809	0.7620855
244	0x3f18f882	0.5975419
245	0x3f3c058d	0.7344597
246	0x3ecc5849	0.39911106
247	0x3f15ab97	0.5846495
248	0x3e6cd562	0.23128274
249	0x3f5094c2	0.81476986
250	0x3f02b11f	0.51051515
251	0x3d90d5eb	0.070720516
252	0x3f2d5058	0.6770072
253	0x3f70a50e	0.94001853
254	0x3edb3f11	0.42821553
255	0x3f582c26	0.84442365

fc.weight f4 [1, 64]
0	0xbf13e222	-0.57766926
1	0x3f4cd833	0.80017394
2	0xbe90eb23	-0.28304395
3	0x3f184b51	0.59489924
4	0x3f57968e	0.84214103
5	0xbec10df0	-0.37705946
6	0x3f0a319f	0.53981966
7	0x3ea6e872	0.32599217
8	0x3ec47dad	0.38377133
9	0x3ed36e7f	0.4129524
10	0xbee6647c	-0.44998538
11	0x3f2c4f2d	0.6730831
12	0xbec9913d	-0.3936862
13	0xbf0a4abc	-0.54020286
14	0xbf3e7c4a	-0.744084
15	0x3f8d7be5	1.1053435
16	0x3f1ff27f	0.62479395
17	0x3f19893d	0.59975034
18	0xbef26ffa	-0.47351056
19	0xbe7460c5	-0.2386504
20	0x3ee398fe	0.4445266
21	0x3f6977e3	0.9119856
22	0x3f5125af	0.81698126
23	0x3f2f7f1b	0.6855332
24	0xbf0a55d1	-0.54037195
25	0xbf0a884a	-0.5411421
26	0xbf0b3cba	-0.54389536
27	0xbee6bfd9	-0.45068243
28	0x3ead1512	0.33805138
29	0xbf01d6ab	-0.5071818
30	0x3f24c966	0.6436981
31	0x3f1dcac4	0.6163752
32	0x3eea9060	0.45813274
33	0x3f5d906c	0.86548495
34	0x3ed8a9df	0.423171
35	0x3f4afadf	0.7928905
36	0xbebaf8fa	-0.3651808
37	0xbecea46f	-0.40359828
38	0xbf396ae6	-0.7242874
39	0xbde3bd0f	-0.111200444
40	0x3e9aa28e	0.30202144
41	0xbeaff7b0	-0.34368658
42	0x3f0816d1	0.53159815
43	0x3f240064	0.64063096
44	0x3f0c87df	0.5489482
45	0x3f2abaf8	0.6669154
46	0xbeac8a22	-0.33699137
47	0xbf4ff970	-0.81239986
48	0x3f054c3d	0.52069455
49	0x3ebbf731	0.3671203
50	0xbf3f19cc	-0.7464874
51	0x3f1417ef	0.5784902
52	0xbf17f178	-0.5935283
53	0xbf6462b8	-0.8921313
54	0x3edf2ae3	0.43587407
55	0x3ef9a4cc	0.48758543
56	0x3ead054d	0.33793107
57	0x3f5247f1	0.82141024
58	0x3efbebcd	0.4920334
59	0xbd84c73f	-0.06483316
60	0xbeda03e3	-0.4258109
61	0xbf2ccbf8	-0.6749873
62	0x3ee8ec6c	0.45492876
63	0xbf59e174	-0.8510964

exp_avg f4 [256, 5]
0	0x36c09329	5.7391776e-06
1	0xb6c09329	-5.7391776e-06
2	0x35d7f5ef	1.6090324e-06
3	0xb560f120	-8.3797386e-07
4	0xb5a8b76a	-1.2570356e-06
5	0x35be52da	1.4180216e-06
6	0xb5be52da	-1.4180216e-06
7	0xb46b4b5f	-2.19135e-07
8	0xb59fc20c	-1.1902898e-06
9	0x3525c5f2	6.175534e-07
10	0x361d76d9	2.3464002e-06
11	0xb61d76d9	-2.3464002e-06
12	0x352f52b5	6.5312935e-07
13	0xb4f112c2	-4.4903396e-07
14	0xb4df15cd	-4.155285e-07
15	0x35c56e87	1.4709811e-06
16	0xb5c56e87	-1.4709811e-06
17	0x340b4c41	1.2973125e-07
18	0xb529d3e4	-6.326575e-07
19	0x33a1495f	7.510493e-08
20	0x365cc451	3.2896826e-06
21	0xb65cc451	-3.2896826e-06
22	0x35152831	5.556531e-07
23	0xb59cc002	-1.1678787e-06
24	0xb3951b23	-6.943289e-08
25	0x3630871a	2.6304683e-06
26	0xb630871a	-2.6304683e-06
27	0x35417fd4	7.208412e-07
28	0xb51632e2	-5.59534e-07
29	0xb4dc838f	-4.1073915e-07
30	0x363131c0	2.6404014e-06
31	0xb63131c0	-2.6404014e-06
32	0x3509bace	5.1308314e-07
33	0xb54f5a8f	-7.724529e-07
34	0xb4619d98	-2.101209e-07
35	0x365868b7	3.224746e-06
36	0xb65868b7	-3.224746e-06
37	0x35808149	9.57437e-07
38	0xb509801a	-5.122289e-07
39	0xb533f6e4	-6.704197e-07
40	0x36907554	4.305193e-06
41	0xb6907554	-4.305193e-06
42	0x35b030fc	1.3127278e-06
43	0xb50d25e4	-5.258173e-07
44	0xb58bc71f	-1.0414259e-06
45	0x3679f2c0	3.724519e-06
46	0xb679f2c0	-3.724519e-06
47	0x3594eb8c	1.1095412e-06
48	0xb53ea112	-7.1014904e-07
49	0xb531ef30	-6.62857e-07
50	0x35f62de2	1.8341782e-06
51	0xb5f62de2	-1.8341782e-06
52	0x34c9e3a4	3.7604798e-07
53	0xb4ed5e8e	-4.4213488e-07
54	0xb4804c3e	-2.389733e-07
55	0x361421f0	2.2073473e-06
56	0xb61421f0	-2.2073473e-06
57	0x348dcd8a	2.6412846e-07
58	0xb5792274	-9.2809864e-07
59	0x33c27943	9.055886e-08
60	0x36150257	2.2204092e-06
61	0xb6150257	-2.2204092e-06
62	0x3517017c	5.6254044e-07
63	0xb4ef8315	-4.4612594e-07
64	0xb4c59ba4	-3.6807353e-07
65	0x36d5d3a7	6.3725342e-06
66	0xb6d5d3a7	-6.3725342e-06
67	0x3601eb13	1.935933e-06
68	0xb5431583	-7.2674464e-07
69	0xb5d54174	-1.5888786e-06
70	0x36f1b1da	7.2030643e-06
71	0xb6f1b1da	-7.2030643e-06
72	0x3610273f	2.1480516e-06
73	0xb582e135	-9.751299e-07
74	0xb5dd62c1	-1.6494524e-06
75	0x3597378b	1.1266542e-06
76	0xb597378b	-1.1266542e-06
77	0xb4caa3aa	-3.7744513e-07
78	0xb5b14803	-1.3208486e-06
79	0x3563999b	8.4787615e-07
80	0x36d3fc5b	6.317668e-06
81	0xb6d3fc5b	-6.317668e-06
82	0x35fb647d	1.8730203e-06
83	0xb566c60f	-8.596989e-07
84	0xb5c17ac4	-1.441535e-06
85	0x35adcd63	1.294928e-06
86	0xb5adcd63	-1.294928e-06
87	0x34d41371	3.9502223e-07
88	0x33ee9510	1.1109853e-07
89	0xb51a3387	-5.744445e-07
90	0x36bb2c3a	5.578183e-06
91	0xb6bb2c3a	-5.578183e-06
92	0x35ee1b07	1.7740248e-06
93	0xb4f5dfc3	-4.5797614e-07
94	0xb5d16515	-1.5601132e-06
95	0xb55ecde2	-8.3001044e-07
96	0x355ecde2	8.3001044e-07
97	0xb4dd8316	-4.1259835e-07
98	0xb4b489de	-3.3627924e-07
99	0x352630c9	6.191081e-07
100	0x360e6513	2.1218482e-06
101	0xb60e6513	-2.1218482e-06
102	0x3539380a	6.899942e-07
103	0xb3a0e7a5	-7.4927165e-08
104	0xb537ebaf	-6.851578e-07
105	0x35cf57a6	1.5448211e-06
106	0xb5cf57a6	-1.5448211e-06
107	0xb444823f	-1.8301306e-07
108	0xb5a363f7	-1.217354e-06
109	0x35207e5e	5.9788533e-07
110	0x35ba3171	1.3872469e-06
111	0xb5ba3171	-1.3872469e-06
112	0xb4a3a48d	-3.0480842e-07
113	0xb5b5cee2	-1.3545762e-06
114	0x3552bf88	7.850981e-07
115	0x364c4946	3.044102e-06
116	0xb64c4946	-3.044102e-06
117	0x351921f8	5.704637e-07
118	0xb56cca58	-8.82113e-07
119	0xb4867a5b	-2.504847e-07
120	0x3484b72d	2.4720194e-07
121	0xb484b72d	-2.4720194e-07
122	0xb499f7b0	-2.8678687e-07
123	0xb5108969	-5.384414e-07
124	0x34e38d1c	4.2384715e-07
125	0x36900120	4.2916654e-06
126	0xb6900120	-4.2916654e-06
127	0x35903682	1.07447e-06
128	0xb56b214f	-8.759279e-07
129	0xb53c6fb7	-7.0198024e-07
130	0x3637b85b	2.7376434e-06
131	0xb637b85b	-2.7376434e-06
132	0x351d002c	5.848731e-07
133	0xb5435b3d	-7.277593e-07
134	0xb4998155	-2.8592572e-07
135	0xb49ea586	-2.9550228e-07
136	0x349ea586	2.9550228e-07
137	0xb4eb2145	-4.3796368e-07
138	0xb4fb5d8d	-4.682046e-07
139	0x3512b417	5.4651304e-07
140	0x36717be2	3.5983908e-06
141	0xb6717be2	-3.5983908e-06
142	0x35a50f8c	1.2297983e-06
143	0xb3ae4ad9	-8.116121e-08
144	0xb5a26d27	-1.2101708e-06
145	0x3561fe86	8.418941e-07
146	0xb561fe86	-8.418941e-07
147	0xb3f5565a	-1.1424409e-07
148	0xb52d91de	-6.4659787e-07
149	0x34a9b3ba	3.160947e-07
150	0x36742bdf	3.638437e-06
151	0xb6742bdf	-3.638437e-06
152	0x355e616a	8.28432e-07
153	0xb5702040	-8.9453897e-07
154	0xb4f29512	-4.5184476e-07
155	0x364b74f5	3.0317435e-06
156	0xb64b74f5	-3.0317435e-06
157	0x352580b9	6.1654606e-07
158	0xb56e8085	-8.884893e-07
159	0xb481231e	-2.4053674e-07
160	0x3644dc96	2.9334674e-06
161	0xb644dc96	-2.9334674e-06
162	0x35371f10	6.8218014e-07
163	0xb53c8018	-7.022186e-07
164	0xb4cdb257	-3.8313985e-07
165	0x35eb58bc	1.753469e-06
166	0xb5eb58bc	-1.753469e-06
167	0xb3b6848f	-8.499148e-08
168	0xb5a59151	-1.2335751e-06
169	0x351110f3	5.4041374e-07
170	0x363bce89	2.798539e-06
171	0xb63bce89	-2.798539e-06
172	0x3539d8d1	6.923338e-07
173	0xb519238b	-5.7048663e-07
174	0xb4f6de1b	-4.5982674e-07
175	0x360a53fe	2.0612492e-06
176	0xb60a53fe	-2.0612492e-06
177	0x34dba8fc	4.091488e-07
178	0xb4ad68d6	-3.230004e-07
179	0xb4e693d1	-4.294839e-07
180	0x362004bc	2.3844614e-06
181	0xb62004bc	-2.3844614e-06
182	0x35278467	6.240502e-07
183	0xb504d2ea	-4.948075e-07
184	0xb4ce3799	-3.8410943e-07
185	0x3656877d	3.196735e-06
186	0xb656877d	-3.196735e-06
187	0x35895d25	1.0234404e-06
188	0xb454c0e3	-1.981421e-07
189	0xb5800350	-9.537707e-07
190	0x36624842	3.3718684e-06
191	0xb6624842	-3.3718684e-06
192	0x354d8b56	7.657121e-07
193	0xb56b5d87	-8.768042e-07
194	0xb4c932af	-3.7476045e-07
195	0xb4ab8a4f	-3.1951865e-07
196	0x34ab8a4f	3.1951865e-07
197	0xb40b266e	-1.2959364e-07
198	0xb3317236	-4.1314898e-08
199	0x3425c59c	1.5438712e-07
200	0x362299d5	2.4229423e-06
201	0xb62299d5	-2.4229423e-06
202	0x353d9667	7.062685e-07
203	0xb506746d	-5.008831e-07
204	0xb4d3696c	-3.9378517e-07
205	0x369b8716	4.635086e-06
206	0xb69b8716	-4.635086e-06
207	0x35bf1375	1.4236272e-06
208	0xb50491a4	-4.9385767e-07
209	0xb59f9e09	-1.1892417e-06
210	0x36c54452	5.879011e-06
211	0xb6c54452	-5.879011e-06
212	0x35e54d97	1.7084411e-06
213	0xb54d698b	-7.6522036e-07
214	0xb5b8bb1b	-1.3763523e-06
215	0x362a6044	2.5388008e-06
216	0xb62a6044	-2.5388008e-06
217	0x34e49f1f	4.2584085e-07
218	0xb562ea45	-8.453247e-07
219	0xb3e4d1cf	-1.0655241e-07
220	0x36442d81	2.9232763e-06
221	0xb6442d81	-2.9232763e-06
222	0x3536d93f	6.811642e-07
223	0xb5292d41	-6.302326e-07
224	0xb4ef3f48	-4.4563262e-07
225	0x35b627b5	1.3571613e-06
226	0xb5b627b5	-1.3571613e-06
227	0xb3838dad	-6.1259335e-08
228	0xb572ea7a	-9.0493234e-07
229	0x34c6e136	3.7044236e-07
230	0x34f13085	4.492505e-07
231	0xb4f13085	-4.492505e-07
232	0x32910b0b	1.6885243e-08
233	0xb4b02279	-3.2807637e-07
234	0x342383e0	1.5228534e-07
235	0x36e8a8b1	6.933777e-06
236	0xb6e8a8b1	-6.933777e-06
237	0x360306a6	1.952439e-06
238	0xb59002bd	-1.0729633e-06
239	0xb5c4118b	-1.4608244e-06
240	0x363711d3	2.72795e-06
241	0xb63711d3	-2.72795e-06
242	0x3525f826	6.1828393e-07
243	0xb52b8dc1	-6.3908743e-07
244	0xb4c3e15f	-3.648556e-07
245	0x3682d5f7	3.8992107e-06
246	0xb682d5f7	-3.8992107e-06
247	0x359e5e1b	1.1799306e-06
248	0xb5078adb	-5.049348e-07
249	0xb575bcd0	-9.154437e-07
250	0x36676d97	3.4485472e-06
251	0xb6676d97	-3.4485472e-06
252	0x35699628	8.701777e-07
253	0xb52e2b9b	-6.4883506e-07
254	0xb524c06e	-6.1374783e-07
255	0x36c71ffa	5.9343847e-06

exp_avg_sq f4 [256, 5]
0	0x3484bcee	2.472438e-07
1	0x3484bcee	2.472438e-07
2	0x341f7347	1.4849967e-07
3	0x3133ef97	2.618412e-09
4	0x33001706	2.9823262e-08
5	0x32597e98	1.26598465e-08
6	0x32597e98	1.26598465e-08
7	0x3281e91e	1.5123586e-08
8	0x31a307f8	4.7448303e-09
9	0x31961821	4.3683177e-09
10	0x33ae513e	8.117284e-08
11	0x33ae513e	8.117284e-08
12	0x334ee412	4.817054e-08
13	0x30ebc9b4	1.7155828e-09
14	0x3226661b	9.685688e-09
15	0x33d84987	1.0071658e-07
16	0x33d84987	1.0071658e-07
17	0x338e7bfd	6.6349436e-08
18	0x31dba9a6	6.3930257e-09
19	0x32973bb3	1.7605862e-08
20	0x3401297d	1.2029155e-07
21	0x3401297d	1.2029155e-07
22	0x33a5d24a	7.7216626e-08
23	0x30f0061c	1.7464035e-09
24	0x327e437b	1.4800089e-08
25	0x33bb5f4e	8.725202e-08
26	0x33bb5f4e	8.725202e-08
27	0x3379792f	5.8085046e-08
28	0x31d80137	6.2865655e-09
29	0x32547091	1.2365619e-08
30	0x33b612f7	8.478485e-08
31	0x33b612f7	8.478485e-08
32	0x3379e603	5.8184025e-08
33	0x31d3fe72	6.1698353e-09
34	0x3252d0c9	1.2271081e-08
35	0x34232c51	1.519668e-07
36	0x34232c51	1.519668e-07
37	0x33bfc858	8.930573e-08
38	0x30bf1503	1.3903051e-09
39	0x32968e1b	1.752692e-08
40	0x3486abbf	2.5084407e-07
41	0x3486abbf	2.5084407e-07
42	0x341f357a	1.4827484e-07
43	0x314c296d	2.9709455e-09
44	0x32fdef5c	2.9561924e-08
45	0x345e48d4	2.0701856e-07
46	0x345e48d4	2.0701856e-07
47	0x3404a919	1.2354975e-07
48	0x31a61f9d	4.83483e-09
49	0x32d3ea04	2.4670051e-08
50	0x33a7d3c4	7.8150634e-08
51	0x33a7d3c4	7.8150634e-08
52	0x334fdc48	4.8396288e-08
53	0x2fcdb1e2	3.7415676e-10
54	0x321f505a	9.273288e-09
55	0x33382438	4.287378e-08
56	0x33382438	4.287378e-08
57	0x33081dc4	3.169204e-08
58	0x31bd4917	5.5089333e-09
59	0x320534af	7.753598e-09
60	0x33a9b18a	7.90197e-08
61	0x33a9b18a	7.90197e-08
62	0x3350fc95	4.8658496e-08
63	0x310b2b7a	2.0251876e-09
64	0x3223f599	9.543691e-09
65	0x33f30509	1.1316485e-07
66	0x33f30509	1.1316485e-07
67	0x33914f3c	6.766501e-08
68	0x304fd0dd	7.5602974e-10
69	0x326bbb36	1.3721367e-08
70	0x33052989	3.100425e-08
71	0x33052989	3.100425e-08
72	0x32b1083d	2.0609258e-08
73	0x3057b96d	7.848005e-10
74	0x31844fcb	3.850777e-09
75	0x3289a6dd	1.602478e-08
76	0x3289a6dd	1.602478e-08
77	0x32687366	1.3530416e-08
78	0x30eb5fe3	1.7125753e-09
79	0x3124bc71	2.3972258e-09
80	0x32f5066d	2.8524676e-08
81	0x32f5066d	2.8524676e-08
82	0x32c36467	2.2746645e-08
83	0x311103b6	2.1102387e-09
84	0x31a2d4ed	4.7390274e-09
85	0x318b1915	4.048284e-09
86	0x318b1915	4.048284e-09
87	0x3122cc35	2.369018e-09
88	0x2f829f79	2.3760174e-10
89	0x301d1c21	5.715624e-10
90	0x34a6c5a1	3.1063703e-07
91	0x34a6c5a1	3.1063703e-07
92	0x34459ef9	1.8404889e-07
93	0x30ac16a1	1.2521079e-09
94	0x331f6d98	3.7119747e-08
95	0x329986c4	1.7872829e-08
96	0x329986c4	1.7872829e-08
97	0x32920054	1.6996786e-08
98	0x319ba928	4.5303246e-09
99	0x31966c5e	4.3778945e-09
100	0x339a8e71	7.197094e-08
101	0x339a8e71	7.197094e-08
102	0x33384a0b	4.290818e-08
103	0x306b67e1	8.564012e-10
104	0x3216e60c	8.783456e-09
105	0x32194492	8.921363e-09
106	0x32194492	8.921363e-09
107	0x320c0546	8.150272e-09
108	0x3146f675	2.8952887e-09
109	0x3152be96	3.0667358e-09
110	0x32b87a30	2.1475984e-08
111	0x32b87a30	2.1475984e-08
112	0x32ac9fb4	2.009606e-08
113	0x3187af9c	3.9489816e-09
114	0x31ab7ab1	4.9907034e-09
115	0x33f8233e	1.15548104e-07
116	0x33f8233e	1.15548104e-07
117	0x33a22470	7.550341e-08
118	0x318d75fc	4.1170534e-09
119	0x328c4a47	1.6331922e-08
120	0x348c953f	2.6185623e-07
121	0x348c953f	2.6185623e-07
122	0x342f1a14	1.6307632e-07
123	0x31aa4bcc	4.9562683e-09
124	0x3317d574	3.535156e-08
125	0x3410aed4	1.3474647e-07
126	0x3410aed4	1.3474647e-07
127	0x33af17a3	8.153372e-08
128	0x314ec821	3.0090705e-09
129	0x328fda8c	1.6746775e-08
130	0x33a1367a	7.507056e-08
131	0x33a1367a	7.507056e-08
132	0x335f5dcc	5.200654e-08
133	0x31ce3135	6.0009833e-09
134	0x32388b82	1.074193e-08
135	0x34b0cb57	3.2930504e-07
136	0x34b0cb57	3.2930504e-07
137	0x34551a55	1.984675e-07
138	0x30869071	9.790836e-10
139	0x33264434	3.8711917e-08
140	0x342b9c12	1.5982394e-07
141	0x342b9c12	1.5982394e-07
142	0x33cd231b	9.552442e-08
143	0x304e2b8e	7.500426e-10
144	0x32a88483	1.9618033e-08
145	0x3447ffee	1.8626426e-07
146	0x3447ffee	1.8626426e-07
147	0x33f6e33e	1.1496603e-07
148	0x309bbb90	1.1331043e-09
149	0x32c0a641	2.2427345e-08
150	0x3423dfdc	1.5261998e-07
151	0x3423dfdc	1.5261998e-07
152	0x33e9053c	1.085086e-07
153	0x32616b13	1.312107e-08
154	0x32c094c1	2.2419387e-08
155	0x338bba8a	6.506623e-08
156	0x338bba8a	6.506623e-08
157	0x334801cd	4.6567767e-08
158	0x323f5f9d	1.1139403e-08
159	0x3284dd48	1.546745e-08
160	0x340ae927	1.2937072e-07
161	0x340ae927	1.2937072e-07
162	0x33a56fda	7.703757e-08
163	0x313d4ed0	2.754792e-09
164	0x32856558	1.5529324e-08
165	0x330d1a1f	3.2852878e-08
166	0x330d1a1f	3.2852878e-08
167	0x32fae252	2.9206749e-08
168	0x318b7ef8	4.059867e-09
169	0x31d2bdf4	6.1333996e-09
170	0x33f28dfd	1.1294831e-07
171	0x33f28dfd	1.1294831e-07
172	0x339216ef	6.8028264e-08
173	0x3117f1bf	2.2110809e-09
174	0x326925d7	1.3570989e-08
175	0x333db18e	4.4166477e-08
176	0x333db18e	4.4166477e-08
177	0x332882c2	3.923447e-08
178	0x31e430fc	6.6412422e-09
179	0x320d1fb3	8.214488e-09
180	0x33b422f2	8.38826e-08
181	0x33b422f2	8.38826e-08
182	0x3365ba8d	5.3487884e-08
183	0x31924fbe	4.258225e-09
184	0x3234d88d	1.0526617e-08
185	0x340dced9	1.3206899e-07
186	0x340dced9	1.3206899e-07
187	0x33a63706	7.739986e-08
188	0x3070438d	8.7407487e-10
189	0x328d8855	1.6476557e-08
190	0x32b2a684	2.079765e-08
191	0x32b2a684	2.079765e-08
192	0x325367f7	1.2305455e-08
193	0x3028e5e0	6.1444716e-10
194	0x313db238	2.7604425e-09
195	0x314fd25c	3.024204e-09
196	0x314fd25c	3.024204e-09
197	0x311c9334	2.2784663e-09
198	0x2f933b47	2.6781263e-10
199	0x2ff2aee9	4.4143825e-10
200	0x33bfb0ce	8.926291e-08
201	0x33bfb0ce	8.926291e-08
202	0x33701c35	5.590501e-08
203	0x314dfe6f	2.9976055e-09
204	0x323d0bb6	1.1003911e-08
205	0x346d3d9d	2.209476e-07
206	0x346d3d9d	2.209476e-07
207	0x340d91ef	1.3184739e-07
208	0x2fe17c0f	4.101541e-10
209	0x32dd320c	2.5750545e-08
210	0x345144a1	1.9489609e-07
211	0x345144a1	1.9489609e-07
212	0x33fe7419	1.1848915e-07
213	0x31a4dc6f	4.7980886e-09
214	0x32de96e8	2.5912826e-08
215	0x3384cc00	6.1838364e-08
216	0x3384cc00	6.1838364e-08
217	0x333dcffe	4.419416e-08
218	0x31b91ba5	5.3873515e-09
219	0x3223f769	9.544103e-09
220	0x33ea2f5e	1.090509e-07
221	0x33ea2f5e	1.090509e-07
222	0x338e218b	6.618492e-08
223	0x311afc1a	2.2553253e-09
224	0x32670738	1.3447611e-08
225	0x32c3de4a	2.2802073e-08
226	0x32c3de4a	2.2802073e-08
227	0x3290ebb3	1.687099e-08
228	0x30f42db6	1.7766328e-09
229	0x3176bb17	3.590406e-09
230	0x32dde607	2.583239e-08
231	0x32dde607	2.583239e-08
232	0x32a0a424	1.8701094e-08
233	0x3103b0d6	1.9163529e-09
234	0x319509d6	4.337589e-09
235	0x348f6e56	2.6716106e-07
236	0x348f6e56	2.6716106e-07
237	0x34327f5e	1.6623878e-07
238	0x30c589c6	1.4372794e-09
239	0x33087992	3.1775535e-08
240	0x33db1e77	1.0203524e-07
241	0x33db1e77	1.0203524e-07
242	0x33888fa5	6.359122e-08
243	0x315c304b	3.2041665e-09
244	0x325bde6a	1.2798049e-08
245	0x346beff9	2.1973382e-07
246	0x346beff9	2.1973382e-07
247	0x340b2a6a	1.2960814e-07
248	0x3102a85a	1.9013187e-09
249	0x32d96834	2.5309511e-08
250	0x33dff023	1.0427927e-07
251	0x33dff023	1.0427927e-07
252	0x3394241b	6.8983546e-08
253	0x31eb513c	6.8486354e-09
254	0x3298fbcf	1.7809638e-08
255	0x3318c4c7	3.5569226e-08

exp_avg f4 [256, 64]
0	0x00000000	0.0
1	0x00000000	0.0
2	0x00000000	0.0
3	0x00000000	0.0
4	0x00000000	0.0
5	0x00000000	0.0
6	0x00000000	0.0
7	0x00000000	0.0
8	0x00000000	0.0
9	0x00000000	0.0
10	0x00000000	0.0
11	0x00000000	0.0
12	0x00000000	0.0
13	0x00000000	0.0
14	0x00000000	0.0
15	0x00000000	0.0
16	0x00000000	0.0
17	0x00000000	0.0
18	0x00000000	0.0
19	0x00000000	0.0
20	0x00000000	0.0
21	0x00000000	0.0
22	0x00000000	0.0
23	0x00000000	0.0
24	0x00000000	0.0
25	0x00000000	0.0
26	0x00000000	0.0
27	0x00000000	0.0
28	0x00000000	0.0
29	0x00000000	0.0
30	0x00000000	0.0
31	0x00000000	0.0
32	0x00000000	0.0
33	0x00000000	0.0
34	0x00000000	0.0
35	0x00000000	0.0
36	0x00000000	0.0
37	0x00000000	0.0
38	0x00000000	0.0
39	0x00000000	0.0
40	0x00000000	0.0
41	0x00000000	0.0
42	0x00000000	0.0
43	0x00000000	0.0
44	0x00000000	0.0
45	0x00000000	0.0
46	0x00000000	0.0
47	0x00000000	0.0
48	0x00000000	0.0
49	0x00000000	0.0
50	0x00000000	0.0
51	0x00000000	0.0
52	0x00000000	0.0
53	0x00000000	0.0
54	0x00000000	0.0
55	0x00000000	0.0
56	0x00000000	0.0
57	0x00000000	0.0
58	0x00000000	0.0
59	0x00000000	0.0
60	0x00000000	0.0
61	0x00000000	0.0
62	0x00000000	0.0
63	0x00000000	0.0
64	0x00000000	0.0
65	0x00000000	0.0
66	0x00000000	0.0
67	0x00000000	0.0
68	0x00000000	0.0
69	0x00000000	0.0
70	0x00000000	0.0
71	0x00000000	0.0
72	0x00000000	0.0
73	0x00000000	0.0
74	0x00000000	0.0
75	0x00000000	0.0
76	0x00000000	0.0
77	0x00000000	0.0
78	0x00000000	0.0
79	0x00000000	0.0
80	0x00000000	0.0
81	0x00000000	0.0
82	0x00000000	0.0
83	0x00000000	0.0
84	0x00000000	0.0
85	0x00000000	0.0
86	0x00000000	0.0
87	0x00000000	0.0
88	0x00000000	0.0
89	0x00000000	0.0
90	0x00000000	0.0
91	0x00000000	0.0
92	0x00000000	0.0
93	0x00000000	0.0
94	0x00000000	0.0
95	0x00000000	0.0
96	0x00000000	0.0
97	0x00000000	0.0
98	0x00000000	0.0
99	0x00000000	0.0
100	0x00000000	0.0
101	0x00000000	0.0
102	0x00000000	0.0
103	0x00000000	0.0
104	0x00000000	0.0
105	0x00000000	0.0
106	0x00000000	0.0
107	0x00000000	0.0
108	0x00000000	0.0
109	0x00000000	0.0
110	0x00000000	0.0
111	0x00000000	0.0
112	0x00000000	0.0
113	0x00000000	0.0
114	0x00000000	0.0
115	0x00000000	0.0
116	0x00000000	0.0
117	0x00000000	0.0
118	0x00000000	0.0
119	0x00000000	0.0
120	0x00000000	0.0
121	0x00000000	0.0
122	0x00000000	0.0
123	0x00000000	0.0
124	0x00000000	0.0
125	0x00000000	0.0
126	0x00000000	0.0
127	0x00000000	0.0
128	0x00000000	0.0
129	0x00000000	0.0
130	0x00000000	0.0
131	0x00000000	0.0
132	0x00000000	0.0
133	0x00000000	0.0
134	0x00000000	0.0
135	0x00000000	0.0
136	0x00000000	0.0
137	0x00000000	0.0
138	0x00000000	0.0
139	0x00000000	0.0
140	0x00000000	0.0
141	0x00000000	0.0
142	0x00000000	0.0
143	0x00000000	0.0
144	0x00000000	0.0
145	0x00000000	0.0
146	0x00000000	0.0
147	0x00000000	0.0
148	0x00000000	0.0
149	0x00000000	0.0
150	0x00000000	0.0
151	0x00000000	0.0
152	0x00000000	0.0
153	0x00000000	0.0
154	0x00000000	0.0
155	0x00000000	0.0
156	0x00000000	0.0
157	0x00000000	0.0
158	0x00000000	0.0
159	0x00000000	0.0
160	0x00000000	0.0
161	0x00000000	0.0
162	0x00000000	0.0
163	0x00000000	0.0
164	0x00000000	0.0
165	0x00000000	0.0
166	0x00000000	0.0
167	0x00000000	0.0
168	0x00000000	0.0
169	0x00000000	0.0
170	0x00000000	0.0
171	0x00000000	0.0
172	0x00000000	0.0
173	0x00000000	0.0
174	0x00000000	0.0
175	0x00000000	0.0
176	0x00000000	0.0
177	0x00000000	0.0
178	0x00000000	0.0
179	0x00000000	0.0
180	0x00000000	0.0
181	0x00000000	0.0
182	0x00000000	0.0
183	0x00000000	0.0
184	0x00000000	0.0
185	0x00000000	0.0
186	0x00000000	0.0
187	0x00000000	0.0
188	0x00000000	0.0
189	0x00000000	0.0
190	0x00000000	0.0
191	0x00000000	0.0
192	0x00000000	0.0
193	0x00000000	0.0
194	0x00000000	0.0
195	0x00000000	0.0
196	0x00000000	0.0
197	0x00000000	0.0
198	0x00000000	0.0
199	0x00000000	0.0
200	0x00000000	0.0
201	0x00000000	0.0
202	0x00000000	0.0
203	0x00000000	0.0
204	0x00000000	0.0
205	0x00000000	0.0
206	0x00000000	0.0
207	0x00000000	0.0
208	0x00000000	0.0
209	0x00000000	0.0
210	0x00000000	0.0
211	0x00000000	0.0
212	0x00000000	0.0
213	0x00000000	0.0
214	0x00000000	0.0
215	0x00000000	0.0
216	0x00000000	0.0
217	0x00000000	0.0
218	0x00000000	0.0
219	0x00000000	0.0
220	0x00000000	0.0
221	0x00000000	0.0
222	0x00000000	0.0
223	0x00000000	0.0
224	0x00000000	0.0
225	0x00000000	0.0
226	0x00000000	0.0
227	0x00000000	0.0
228	0x00000000	0.0
229	0x00000000	0.0
230	0x00000000	0.0
231	0x00000000	0.0
232	0x00000000	0.0
233	0x00000000	0.0
234	0x00000000	0.0
235	0x00000000	0.0
236	0x00000000	0.0
237	0x00000000	0.0
238	0x00000000	0.0
239	0x00000000	0.0
240	0x00000000	0.0
241	0x00000000	0.0
242	0x00000000	0.0
243	0x00000000	0.0
244	0x00000000	0.0
245	0x00000000	0.0
246	0x00000000	0.0
247	0x00000000	0.0
248	0x00000000	0.0
249	0x00000000	0.0
250	0x00000000	0.0
251	0x00000000	0.0
252	0x00000000	0.0
253	0x00000000	0.0
254	0x00000000	0.0
255	0x00000000	0.0
