webapp/models/LSTM_Large_!random_model.pt (torch, 75826 bytes, 5 tensors)

lstm.weight_ih_l0 f4 [256, 5]
0.76341414 -0.7704527 1.5003419 0.108091444 -0.47440735 0.719807 -0.8257609 1.417925
0.26794085 -0.08589976 0.42776906 -0.45508146 1.0656664 0.31317773 -0.35810924 -0.15519446
0.19509093 1.655562 0.6049959 0.8212597 -0.06614819 0.11384235 0.80195946 0.34613892
-0.30910763 0.23232071 -0.252856 -1.0807384 -0.33241382 -0.6807384 0.8222845 -0.72801137
1.4526029 0.25126794 -0.5304818 -0.1826185 0.07490762 0.91883695 0.55327404 -0.2127543
0.11319427 0.018559959 -0.016294979 0.26998752 -0.6330157 0.33161625 -0.42291364 -1.7865802
-0.5451348 0.1626487 0.31393686 -0.6232921 -1.9565734 -0.4512654 0.17116377 0.03357536
-0.073225796 1.4212701 0.4885708 0.20961057 0.44816107 -0.4666823 0.99021405 0.003112442
-0.77020156 -0.094581045 0.17347047 0.52723294 0.3507615 -0.5407746 -0.17963848 0.16720827
1.459523 0.46332583 0.7060913 0.9083715 -0.8697245 1.901469 0.38857058 0.0062674955
0.64982563 -0.78391594 1.0888704 0.044951018 -0.54421777 0.36953738 -0.43842447 -1.7324792
-0.30894566 0.17283721 -0.21731342 0.030971216 0.7391141 0.49782923 -0.39950523 0.9108414
-0.8686689 1.7696068 0.2698565 -0.3202922 -0.02107703 0.16355468 1.218032 0.7394578
0.6051373 0.12398953 -0.38327956 -1.3501284 -0.35240003 0.07519556 -0.067410536 0.067635275
1.500911 0.5003521 0.25562337 0.20921274 -0.21660331 -1.2662888 -0.19085346 -0.6106414
0.2703033 -0.45282826 -1.6500968 -0.48599106 0.18141025 0.9148619 -0.97092414 1.7257063
0.4035852 0.006157646 0.7104844 -0.7569932 1.5472348 0.22263734 -0.19257306 0.55975103
-0.86545557 1.2962742 0.13784689 -0.45041424 0.13258415 0.035093274 0.50104934 0.63203216
-0.031625044 0.6842366 -0.7407438 1.3101155 -0.0102835195 -0.5500104 0.29026675 -0.37866554
-1.5711887 -0.3783543 0.32794854 0.7449006 -0.8361805 1.3600236 0.25106335 -0.2219702
-0.05047068 0.20042229 0.9966316 0.37992224 -0.3483598 0.7660033 -0.789874 1.3481432
0.17546508 -0.36607292 0.19109297 -0.34856433 -1.5988549 -0.44880384 -0.13179167 -0.09427435
0.12833011 0.7955812 0.2930363 -0.4307805 0.24735872 -0.36258385 0.8260111 0.37934992
-0.45616293 -0.0040773577 0.12473882 0.70939875 0.31674305 -0.11247949 -0.15309812 0.13916416
1.1650211 0.28226337 -0.19302197 -0.019898275 0.19883849 1.6542534 0.3323874 0.5586749
-0.29612884 0.0795812 0.43064156 0.59098625 -0.65083 0.87220746 -0.98603165 1.4385939
0.55517596 -0.33869776 0.32536098 -0.48105586 -1.6050582 -0.3260974 0.25525203 -0.003129289
0.19206937 1.4334735 0.37567636 0.27134517 0.6873477 -0.77718216 1.5273098 0.19651778
-0.52574396 0.16060486 -0.1823708 0.22883193 0.6564859 -0.11654424 -0.17611746 0.12545757
0.89026 0.21001396 0.2520359 0.030341694 -0.05976922 0.6231992 0.3719368 -0.4380095
-0.1707805 0.25651202 1.8112367 0.49700382 1.1278858 0.16073114 -0.31100616 -1.7432817
-0.63009906 -0.47291723 -0.05958974 0.038452175 1.6525078 0.41930723 0.3167562 0.6084086
00000000: 1c6f 433f 633c 45bf 340b c03f 0c5f dd3d
00000010: 85e5 f2be 4645 383f 1165 53bf 917e b53f
00000020: 8b2f 893e 37ec afbd 8c04 db3e 7000 e9be
00000030: c267 883f d558 a03e 185a b7be 4ceb 1ebe
00000040: ebc5 473e 75e9 d33f 03e1 1a3f 133e 523f
00000050: b478 87bd 2e26 e93d 374d 4d3f 1f39 b13e
00000060: 5b43 9ebe 7be5 6d3e 5776 81be a355 8abf
00000070: 2532 aabe df44 2ebf 3d81 523f f45e 3abf
00000080: e4ee b93f 31a6 803e a8cd 07bf 5800 3bbe
00000090: 2b69 993d e638 6b3f 5ea3 0d3f 43dc 59be
000000a0: 66d2 e73d 0e0b 983c 0c7d 85bc ce3b 8a3e
000000b0: 510d 22bf 9bc9 a93e 2388 d8be a9ae e4bf
000000c0: f48d 0bbf 618d 263e 55bc a03e 1290 1fbf
000000d0: ff70 fabf 420c e7be 8e45 2f3e 5186 093d
000000e0: 68f7 95bd 2eec b53f f425 fa3e 27a4 563e
000000f0: 5e75 e53e fcf0 eebe ab7e 7d3f 1dfa 4b3b
00000100: ee2b 45bf b5b3 c1bd 3ea2 313e bdf8 063f
00000110: 0397 b33e 3470 0abf 26f3 37be a538 2b3e
00000120: a6d1 ba3f 0b39 ed3e 66c2 343f 098b 683f
00000130: 44a6 5ebf 5663 f33f b9f2 c63e 905f cd3b
00000140: f95a 263f b7ae 48bf 1b60 8b3f 8f1e 383d
00000150: db51 0bbf 0134 bd3e 2c79 e0be e1c1 ddbf
00000160: 202e 9ebe 3dfc 303e 6987 5ebe 59b7 fd3c
00000170: 9536 3d3f 79e3 fe3e f38b ccbe e72c 693f
00000180: 1661 5ebf 7a82 e23f a22a 8a3e 57fd a3be
00000190: bca9 acbc e17a 273e 79e8 9b3f 1b4d 3d3f
000001a0: 47ea 1a3f 39ee fd3d 383d c4be 02d1 acbf
000001b0: c76d b4be 2100 9a3d 890e 8abd 5d84 8a3d
000001c0: da1d c03f 1317 003f 11e1 823e dd3b 563e
000001d0: 42cd 5dbe c015 a2bf 176f 43be ff52 1cbf
000001e0: 3265 8a3e 1bd9 e7be 5f36 d3bf d2d3 f8be
000001f0: 9cc3 393e 6434 6a3f 7c8e 78bf f2e3 dc3f
00000200: b8a2 ce3e 14c6 c93b 4ee2 353f 4eca 41bf
00000210: ca0b c63f 0bfb 633e df31 45be d84b 0f3f
00000220: 7f8e 5dbf 50ec a53f bc27 0d3e b29c e6be
00000230: 24c4 073e f7bd 0f3d c544 003f dccc 213f
00000240: 4389 01bd 212a 2f3f 63a1 3dbf ddb1 a73f
00000250: 357c 28bc 7bcd 0cbf d89d 943e 73e0 c1be
00000260: b61c c9bf a8b7 c1be dfe8 a73e ceb1 3e3f
00000270: ed0f 56bf 4115 ae3f 608b 803e 284c 63be
00000280: 58ba 4ebd 803b 4d3e 4023 7f3f 2b85 c23e
00000290: 375c b2be cb18 443f 2f35 4abf f58f ac3f
000002a0: 1ead 333e e96d bbbe e0ad 433e 0677 b2be
000002b0: 47a7 ccbf 9ec9 e5be 65f4 06be e912 c1bd
000002c0: f868 033e 36ab 4b3f db08 963e 438f dcbe
000002d0: 9b4b 7d3e 97a4 b9be 7775 533f 273a c23e
000002e0: 308e e9be 5b9b 85bb 1177 ff3d 289b 353f
000002f0: 252c a23e a65b e6bd c1c5 1cbe 0d81 0e3e
00000300: 691f 953f d384 903e 8da7 45be b501 a3bc
00000310: 519c 4b3e 93be d33f ae2e aa3e 5105 0f3f
00000320: 339e 97be 78fb a23d 0d7d dc3e e04a 173f
00000330: cb9c 26bf fd48 5f3f 926c 7cbf d823 b83f
00000340: 0320 0e3f cb69 adbe b795 a63e f44c f6be
00000350: 8c72 cdbf 3df6 a6be 65b0 823e c214 4dbb
00000360: d5ad 443e 0f7c b73f a758 c03e c1ed 8a3e
00000370: 05f6 2f3f 69f5 46bf e37e c33f f53b 493e
00000380: 2897 06bf 9a75 243e 69bf 3abe eb52 6a3e
00000390: 760f 283f bfae eebd 2358 34be f377 003e
000003a0: 14e8 633f e60d 573e d90a 813e 258f f83c
000003b0: 92d0 74bd fc89 1f3f 806e be3e c842 e0be
000003c0: 15e1 2ebe 8b55 833e 9bd6 e73f 4977 fe3e
000003d0: 905e 903f b496 243e 333c 9fbe db23 dfbf
000003e0: 2c4e 21bf 3522 f2be 5f14 74bd 0780 1d3d
000003f0: 6085 d33f 70af d63e de2d a23e aac0 1b3f

lstm.weight_hh_l0 f4 [256, 64]
0.047625214 0.0059551597 0.061148122 0.016447917 -0.10968673 -0.098524466 -0.1189685 0.029439643
0.052765146 -0.026569232 0.09715822 0.031058356 0.10792911 0.02002281 -0.038582116 0.04651311
-0.11587946 -0.0968491 -0.09828687 0.01560235 0.08982563 -0.01599203 0.013790965 0.0661571
0.10223025 -0.027305275 -0.018111676 0.08072284 -0.019439682 0.041480273 -0.12459402 -0.035346642
0.12313324 0.0809502 0.043043673 0.023945153 -0.108864605 -0.11085267 -0.082192406 0.08041179
-0.01244092 -0.044925988 -0.10394727 -0.05085537 -0.103900075 -0.10736805 -0.084797636 0.11426701
0.079778895 0.110125095 -0.051678628 0.022897065 0.06995247 0.028639823 0.019522518 -0.12100409
0.07166521 0.11502573 0.12296809 -0.10589445 0.11971675 0.05745019 -0.02977328 -0.1104559
-0.01678145 -0.052381337 0.010711908 -0.11819519 0.03943664 0.114583135 -0.052571937 0.05119407
-0.116423875 -0.044864774 -0.11143696 0.11655535 0.038885236 0.09754947 -0.07807365 -0.0013208389
-0.1118062 0.08535726 0.10853474 0.06378266 -0.053217217 0.087959215 0.03306347 0.09018862
-0.029304594 0.026046634 -0.016044572 -0.048645884 -0.104920626 -0.096331775 -0.10023406 -0.029693216
0.073001415 -0.07877664 0.039888203 0.019147813 -0.122629106 0.10210016 -0.016317591 -0.067405045
0.10182512 0.0075936317 -0.059110776 0.05783914 0.12045106 -0.038385585 -0.05804871 0.107210755
-0.05263497 -0.08249518 0.109327614 0.079171345 0.057969183 -0.018868282 -0.10082181 -0.10561615
0.079581514 0.05053109 0.041181996 -0.0865577 0.018563181 -0.08035743 -0.029713824 0.025299683
0.03203255 -0.06763089 -0.060803145 0.08187674 -0.043935582 0.107632324 -0.110657945 0.066494495
-0.039594933 0.002674505 -0.102439955 0.053146765 -0.041823104 0.12026556 0.08629371 -0.104314
-0.0066009015 0.111538276 -0.10301486 -0.08095001 0.04676546 -0.051587805 -0.08695082 0.105819464
0.07023227 0.081698954 0.039066315 0.047067776 0.050698727 -0.027647853 0.11226727 0.057533056
0.038577527 0.07300243 0.0041419268 -0.11532013 0.02509147 0.10684879 0.1056284 -0.10709879
-0.00659132 0.05673386 -0.04029122 0.07669102 -0.053357348 0.015174136 -0.08386113 0.026144803
0.12020646 -0.026018381 0.019106701 -0.04231292 -0.043887466 0.08057578 -0.068567544 -0.079929784
0.04035279 0.090590015 -0.050575092 0.067635566 0.0045740157 0.090038404 0.10670611 0.05772133
0.10430166 -0.06709072 0.0075540245 -0.08182326 0.033331588 0.11932707 -0.0822335 -0.02311264
0.063579634 -0.052695274 0.10479258 -0.09262404 0.11528881 -0.118254274 0.020415083 0.011818618
0.017657012 -0.07218331 -0.07743035 -0.06997588 0.029191345 -0.059171215 0.07825895 -0.12217611
0.022523925 0.092681736 0.11614402 -0.058357716 0.0818184 -0.060539916 -0.07017586 -0.080808595
-0.10954417 0.024968922 0.0023462325 0.013083518 -0.10049027 0.07938214 0.082393825 0.058102056
0.06348714 0.051176444 0.07664274 0.059424922 0.067762405 -0.018280923 -0.05890104 0.07778573
0.04715261 0.055707395 0.042435765 0.0421087 -0.10288037 0.10284202 0.087412775 0.033195764
-0.06854342 -0.073556066 0.025247663 -0.04335411 -0.034313142 0.0048532933 0.08867133 0.014087632
00000000: a812 433d 8023 c33b 7476 7a3d c8bd 863c
00000010: 70a3 e0bd 32c7 c9bd c2a5 f3bd 682b f13c
00000020: 4420 583d b8a7 d9bc e4fa c63d 186e fe3c
00000030: f009 dd3d e006 a43c 4808 1ebd 8884 3e3d
00000040: 3652 edbd d258 c6bd a04a c9bd 00a1 7f3c
00000050: 80f6 b73d b801 83bc 80f3 613c 607d 873d
00000060: 185e d13d 50af dfbc f05e 94bc 0452 a53d
00000070: f83f 9fbc 38e7 293d 262b ffbd a4c7 10bd
00000080: 482d fc3d 38c9 a53d 904e 303d a028 c43c
00000090: 68f4 debd ba06 e3bd 7e54 a8bd f0ae a43d
000000a0: 00d5 4bbc 5004 38bd 4ee2 d4bd b84d 50bd
000000b0: 90c9 d4bd c8e3 dbbd 62aa adbd d204 ea3d
000000c0: 1e63 a33d 4489 e13d f8ac 53bd a092 bb3c
000000d0: 3e43 8f3d 109e ea3c b0ed 9f3c fed0 f7bd
000000e0: 36c5 923d 9c92 eb3d b2d6 fb3d 30df d8bd
000000f0: 0e2e f53d e450 6b3d 18e7 f3bc b436 e2bd
00000100: 4079 89bc d08d 56bd 0081 2f3c 5210 f2bd
00000110: 5088 213d 90aa ea3d ac55 57bd e0b0 513d
00000120: a46f eebd 20c4 37bd 1039 e4bd 92b4 ee3d
00000130: 2046 1f3d 04c8 c73d 14e5 9fbd 0020 adba
00000140: a6fa e4bd cacf ae3d 7647 de3d 7ca0 823d
00000150: 4cfa 59bd f623 b43d 906d 073d d0b4 b83d
00000160: 3010 f0bc c05f d53c e86f 83bc e840 47bd
00000170: a0e0 d6bd 9849 c5bd 8447 cdbd 303f f3bc
00000180: c481 953d a655 a1bd d061 233d e0db 9c3c
00000190: f824 fbbd e419 d13d 78ac 85bc a80b 8abd
000001a0: b089 d03d 00d4 f83b 241e 72bd bce8 6c3d
000001b0: 0caf f63d 343a 1dbd 7cc4 6dbd 5091 db3d
000001c0: c497 57bd 3cf3 a8bd 28e7 df3d 9624 a23d
000001d0: 1871 6d3d a891 9abc aa7b cebd 484d d8bd
000001e0: a2fb a23d b0f9 4e3d 74ae 283d 2a45 b1bd
000001f0: d011 983c 7092 a4bd 686a f3bc 4841 cf3c
00000200: 9034 033d 1082 8abd b80c 79bd feae a73d
00000210: ccf5 33bd 566e dc3d a2a0 e2bd 442e 883d
00000220: 4c2e 22bd c046 2f3b 0acc d1bd 6cb0 593d
00000230: b44e 2bbd ca4d f63d c2ba b03d 94a2 d5bd
00000240: 604c d8bb 2e6e e43d 74f9 d2bd 1ec9 a5bd
00000250: 248d 3f3d bc4d 53bd 4613 b2bd e0b7 d83d
00000260: f0d5 8f3d c851 a73d 0004 203d 24ca 403d
00000270: 78a9 4f3d c07d e2bc 62ec e53d c8a7 6b3d
00000280: 7803 1e3d 4c82 953d 00b9 873b f62c ecbd
00000290: a08c cd3c 8ad3 da3d b453 d83d 9c56 dbbd
000002a0: 00fc d7bb c461 683d 6808 25bd 2e10 9d3d
000002b0: 3c8d 5abd f09c 783c 62bf abbd a02d d63c
000002c0: ce2e f63d 8024 d5bc a885 9c3c 5050 2dbd
000002d0: 58c3 33bd ea04 a53d 246d 8cbd 3ab2 a3bd
000002e0: f848 253d 4287 b93d d427 4fbd 8484 8a3d
000002f0: a0e1 953b 0e66 b83d bc88 da3d 346d 6c3d
00000300: 1c9c d53d dc66 89bd c087 f73b f492 a7bd
00000310: b486 083d c061 f43d 0a6a a8bd b856 bdbc
00000320: 0a36 823d 00d7 57bd 7e9d d63d acb1 bdbd
00000330: 8a1c ec3d 4c2f f2bd 883d a73c e0a2 413c
00000340: 70a5 903c d8d4 93bd ce93 9ebd 844f 8fbd
00000350: b022 ef3c 845d 72bd 3a46 a03d 7837 fabd
00000360: 1884 b83c eccf bd3d eadc ed3d 8008 6fbd
00000370: 6890 a73d b4f8 77bd 5cb8 8fbd fa7e a5bd
00000380: b258 e0bd a08b cc3c 40c3 193b 405c 563c
00000390: d8cd cdbd 1a93 a23d 18be a83d 6cfc 6d3d
000003a0: 8c05 823d 649e 513d def6 9c3d 8c67 733d
000003b0: 04c7 8a3d e0c1 95bc 3842 71bd 204e 9f3d
000003c0: 1823 413d 702d 643d 20d1 2d3d 2c7a 2c3d
000003d0: f2b2 d2bd d69e d23d 7805 b33d 48f8 073d
000003e0: 7e60 8cbd 90a4 96bd 30d4 ce3c 1494 31bd
000003f0: f08b 0cbd 6008 9f3b 5099 b53d d0cf 663c

lstm.bias_ih_l0 f4 [256]
0.19234288 0.3058412 0.38759428 0.8574931 0.30566284 0.038692743 0.28697032 0.50761044
-0.076254085 0.4160267 0.40304682 0.7151629 0.13580272 0.15860204 0.6164599 0.5144448
0.05896676 0.2734657 0.5666275 0.4083326 0.3702426 0.22463813 0.81256646 0.09984346
0.2907976 0.43304244 0.26538756 0.19908354 0.06655919 0.08752988 0.10762989 0.35754782
0.37480092 0.3752364 0.19756861 0.15056193 0.39905372 0.1305754 0.56312966 0.81314456
0.3555084 0.5054877 0.08443922 0.5947952 0.34386596 -0.107871175 0.2790562 0.03692264
0.74699 0.36334345 0.7357687 0.17776361 0.33682483 0.34555906 0.19925354 0.39108887
0.11100378 0.10191261 0.664395 0.4308982 0.74285287 0.1479888 0.76653993 0.67003787
0.017073736 0.0845318 -0.0014568269 -0.06083758 -0.07728107 -0.031337544 -0.084588036 -0.040903702
0.053143784 0.09044051 -0.04574725 0.032730132 -0.11117765 -0.034651756 -0.031658888 0.011417478
-0.007669449 -0.05507207 -0.073818326 0.06029375 0.048599258 0.11019021 -0.07337557 -0.0012856722
0.121163204 -0.098654285 0.048462972 -0.11696124 -0.01812993 -0.0926211 0.025311023 -0.00030000508
-0.0007959306 -0.0029212087 -0.00019738078 0.11616695 0.002161175 -0.090282366 0.037552416 -0.10608257
-0.017318562 0.038175896 0.04150796 0.009457901 -0.025487497 0.038502812 0.07514414 -0.11040494
0.040662587 -0.07856962 -0.052639246 0.1018386 0.11708084 0.04985456 -0.05957675 -0.053371847
0.037691608 0.026237056 -0.030286238 -0.10463834 -0.10753268 0.02714181 0.024490595 -0.044780746
-0.046330918 0.19713902 0.06395649 -0.052072614 -0.15762044 0.117155254 0.09543722 -0.1032129
-0.08861485 0.47029382 -0.5317166 0.0956177 -0.009124196 0.072468586 -0.14030471 -0.09599577
-0.008040282 0.3670017 -0.12834707 0.15607832 0.09748557 -0.25252855 0.13800403 0.012645106
0.5160996 -0.17131212 0.09961948 -0.07422083 -0.064966485 -0.05981122 0.33603472 -0.13162683
0.16961579 0.11183751 0.32672608 0.12283069 -0.043851122 0.10177424 0.1486391 0.07356019
-0.02427346 -0.09861565 0.21643637 -0.009251243 0.07595258 -0.037604526 -0.12684394 -0.09087059
0.090087004 0.19375394 0.07277784 -0.06322578 0.15668622 -0.030382449 -0.18567872 -0.342452
0.08718162 0.02937621 0.04131814 -0.08888755 0.056198675 -0.10343399 -0.04041317 0.030571539
0.24805531 0.28202972 0.24855132 0.80164194 0.17008005 0.0517354 0.36694574 0.5426414
-0.025417464 0.41889122 0.3441334 0.70213175 0.054084163 0.13154562 0.6383075 0.382093
0.222391 0.35497388 0.50284666 0.5052792 0.41172165 -0.023670357 0.68697417 0.26905504
0.2681983 0.44429365 0.39667073 0.2787298 0.13445112 0.11354966 0.14313063 0.39219776
0.39402 0.34957865 0.39494935 0.22662376 0.36222786 0.049251795 0.70952505 0.76116645
0.38171384 0.4435037 0.23300454 0.58979654 0.35771406 -0.0029065006 0.19521666 0.13865818
0.827012 0.19709393 0.65842295 0.20044275 0.28603354 0.4250776 0.20411351 0.37398574
0.089019015 0.26207092 0.6764883 0.33692667 0.90674436 -0.01277381 0.65707827 0.75307024
00000000: 88f5 443e 3897 9c3e c272 c63e ab84 5b3f
00000010: d77f 9c3e 487c 1e3d c6ed 923e c2f2 013f
00000020: 1a2b 9cbd 7401 d53e 275c ce3e ea14 373f
00000030: de0f 0b3e 9368 223e 51d0 1d3f a8b2 033f
00000040: 2187 713d b203 8c3e 800e 113f f810 d13e
00000050: 7090 bd3e 8a07 663e 5b04 503f ba7a cc3d
00000060: 6ce3 943e bdb7 dd3e e1e0 873e 8edc 4b3e
00000070: 2f50 883d de42 b33d 0f6d dc3d 8210 b73e
00000080: e8e5 bf3e fc1e c03e 6d4f 4a3e e82c 1a3e
00000090: c550 cc3e 8fb5 053e 4429 103f 3e2a 503f
000000a0: 3205 b63e a467 013f 78ee ac3d 8044 183f
000000b0: 330f b03e 90eb dcbd 74e0 8e3e 323c 173d
000000c0: bd3a 3f3f 2708 ba3e 565b 3c3f aa07 363e
000000d0: 4e74 ac3e 1eed b03e 1f09 4c3e cd3c c83e
000000e0: f355 e33d 8fb7 d03d ca15 2a3f b09e dc3e
000000f0: 9b2b 3e3f 608a 173e f63b 443f 9a87 2b3f
00000100: 38de 8b3c 021f ad3d 00f3 beba d430 79bd
00000110: 8a45 9ebd cc5b 00bd 7e3c adbd a48a 27bd
00000120: 4cad 593d e038 b93d 7861 3bbd 0810 063d
00000130: 1cb1 e3bd 00ef 0dbd c0ac 01bd 6010 3b3c
00000140: 0050 fbbb 4093 61bd 102e 97bd 94f6 763d
00000150: 0410 473d 68ab e13d ee45 96bd 0084 a8ba
00000160: 6a24 f83d 420b cabd 1c81 463d 6089 efbd
00000170: 3885 94bc 22b0 bdbd 1059 cf3c 004a 9db9
00000180: 00a6 50ba c071 3fbb 00f8 4eb9 f0e8 ed3d
00000190: 80a2 0d3b f6e5 b8bd 90d0 193d d241 d9bd
000001a0: a8df 8dbc 545e 1c3d 4004 2a3d 50f5 1a3c
000001b0: 28cb d0bc 20b5 1d3d 2ce5 993d fc1b e2bd
000001c0: d08d 263d 1ce9 a0bd 409c 57bd c290 d03d
000001d0: 14c8 ef3d 4c34 4c3d c006 74bd 709c 5abd
000001e0: 8462 1a3d 18ef d63c d81a f8bc a04c d6bd
000001f0: 183a dcbd 8058 de3c 80a0 c83c 046c 37bd
00000200: 7dc5 3dbd d0de 493e 9ffb 823d 184a 55bd
00000210: 4167 21be 18ef ef3d 9774 c33d 4961 d3bd
00000220: b47b b5bd 5aca f03e 941e 08bf 36d3 c33d
00000230: a77d 15bc 696a 943d 0aac 0fbe 6e99 c4bd
00000240: 63bb 03bc a6e7 bb3e 6a6d 03be ffd2 1f3e
00000250: 84a6 c73d 6c4b 81be ee50 0d3e 6b2d 4f3c
00000260: 1a1f 043f 726c 2fbe 4c05 cc3d 1701 98bd
00000270: 260d 85bd 9cfc 74bd be0c ac3e 2fc9 06be
00000280: c3af 2d3e 100b e53d a448 a73e a88e fb3d
00000290: 3c9d 33bd 036f d03d d934 183e baa6 963d
000002a0: 23d9 c6bc 00f7 c9bd 7fa1 5d3e 8792 17bc
000002b0: 078d 9b3d 3407 1abd 61e3 01be 5c1a babd
000002c0: 897f b83d 6f67 463e 8c0c 953d 857c 81bd
000002d0: 5a72 203e 9de4 f8bc 9022 3ebe de55 afbe
000002e0: 478c b23d 61a6 f03c 363d 293d ad0a b6bd
000002f0: 9530 663d 33d5 d3bd 4888 25bd 2a71 fa3c
00000300: 3602 7e3e 3366 903e 3d84 7e3e 6838 4d3f
00000310: 7729 2e3e 80e8 533d 50e0 bb3e 8cea 0a3f
00000320: 4938 d0bc e978 d63e 4132 b03e e8be 333f
00000330: 5b87 5d3d e5b3 063e 1f68 233f b2a1 c33e
00000340: 77ba 633e 23bf b53e 8fba 003f fa59 013f
00000350: 2ecd d23e 56e8 c1bc 8add 2f3f 95c1 893e
00000360: 4a51 893e 757a e33e 6d18 cb3e acb5 8e3e
00000370: 8ead 093e b98c e83d d690 123e 25ce c83e
00000380: fdbc c93e f9fb b23e cd36 ca3e 0f10 683e
00000390: ee75 b93e 40bc 493d 6fa3 353f cedb 423f
000003a0: ff6f c33e eb12 e33e be98 6e3e e8fc 163f
000003b0: 4c26 b73e fd7a 3ebb e0e6 473e 69fc 0d3e
000003c0: 0fb7 533f fed2 493e 688e 283f dd40 4d3e
000003d0: fd72 923e c5a3 d93e 2203 513e 0f7b bf3e
000003e0: 9a4f b63d 292e 863e 562e 2d3f a781 ac3e
000003f0: 6620 683f 3e49 51bc 4836 283f 36c9 403f

lstm.bias_hh_l0 f4 [256]
0.292 0.19540495 0.36314383 0.85135 0.12713477 0.018504359 0.2856488 0.570929
0.035558995 0.38463992 0.34135577 0.7137077 0.23190007 0.38458952 0.60563755 0.51472497
0.08694316 0.25068623 0.41568068 0.4298992 0.45191267 0.019078823 0.7361176 0.042178262
0.44490877 0.4057596 0.44175905 0.2645493 0.14653395 0.13992435 0.16472915 0.18022509
0.40445343 0.2387777 0.3306175 0.1780172 0.26437014 0.0931692 0.7361688 0.669347
0.29409024 0.4298277 0.24272771 0.7521414 0.24357833 -0.20064503 0.20037888 0.07128293
0.76615036 0.17035498 0.79153097 0.10501723 0.11595765 0.3332135 0.22427607 0.393469
0.088458955 0.17428981 0.7835985 0.22561301 0.7460582 0.13975365 0.73595697 0.76623523
-0.059614018 -0.023760408 0.010623097 -0.024158597 0.08341873 0.0482326 0.07553713 -0.029661745
0.03535837 -0.079347566 -0.07719205 -0.11891717 0.03772749 0.113116756 -0.025865972 -0.08759619
-0.08995569 0.052799314 -0.12416576 -0.018107891 -0.11790919 0.049082384 -0.096192926 0.10477951
-0.0605987 -0.0018624216 0.00028207898 -0.0970436 -0.111912414 -0.06697418 -0.07404108 0.022356004
-0.0632115 -0.030850202 -0.083148494 0.0043499917 -0.016831413 0.11584537 -0.10869977 -0.08162229
0.090066776 -0.02169332 -0.12172525 -0.057042003 0.057062954 0.102784425 -0.09559469 -0.060508683
-0.04962623 -0.00139229 0.021757692 -0.022624522 -0.045079783 -0.07431851 -0.07399359 0.10196875
-0.08618604 -0.06790443 0.08846186 0.05758962 -0.055301428 0.01792498 -0.05037661 -0.06915185
-0.12307877 0.055251177 -0.024450818 0.1754252 -0.027589722 0.11816111 0.011960072 -0.06624266
0.01251812 0.43411434 -0.3526769 -0.11591553 0.078015596 0.08864392 0.07976647 -0.32074288
-0.018071268 0.3637848 -0.08867901 0.08245386 -0.11746794 -0.05750283 -0.07115361 -0.056954343
0.33666348 -0.114049785 0.22107813 -0.097538255 0.08319977 0.15682292 0.4324987 -0.09586485
0.096025705 0.061007243 0.20142594 0.14287347 -0.048354857 0.023311011 0.039563853 -0.17151959
-0.059950043 -0.14195596 0.22491732 0.077286415 0.10403794 -0.12960668 0.024247535 -0.091253474
0.16485675 0.24710621 -0.07447446 -0.089742325 0.021959547 -0.08345764 0.0468805 -0.48758978
0.016701976 -0.049562488 -0.01661605 -0.18891361 0.05268619 -0.00072426465 -0.1262733 0.033121888
0.28945073 0.3128719 0.45131478 0.8313948 0.07040136 0.060325857 0.31836683 0.47899804
-0.111861624 0.43467817 0.46789593 0.78486437 0.08522132 0.3241924 0.57276946 0.5549228
0.0940308 0.36500937 0.50142145 0.45229766 0.33537555 0.08934957 0.7169526 0.07841042
0.3227409 0.39318976 0.35406354 0.2791869 0.046508618 0.20770109 0.32208183 0.26729342
0.5045243 0.21190016 0.3435642 0.1676061 0.37042713 -0.061360553 0.6323905 0.8397965
0.3274713 0.59210604 0.18087173 0.68816185 0.29365206 -0.06345649 0.29822308 0.15328127
0.8271655 0.1783097 0.7917804 0.22175172 0.1377937 0.28373602 0.17583771 0.34605408
0.06836676 0.17227736 0.65191257 0.2429834 0.81470835 0.063897684 0.79338765 0.7810455
00000000: 0681 953e 3c18 483e fded b93e 13f2 593f
00000010: 9e2f 023e 7496 973c 8f40 923e 6728 123f
00000020: 4fa6 113d 86ef c43e 2fc6 ae3e 8cb5 363f
00000030: 3677 6d3e ebe8 c43e 100b 1b3f 04c5 033f
00000040: 410f b23d f259 803e 19d4 d43e bf1b dc3e
00000050: 1961 e73e 314b 9c3c 3472 3c3f 1dc3 2c3d
00000060: 15cb e33e b9bf cf3e 3e2e e23e 0173 873e
00000070: ff0c 163e 5448 0f3e c2ae 283e ed8c 383e
00000080: 8514 cf3e 2482 743e b246 a93e 244a 363e
00000090: 865b 873e 7ecf be3d 8f75 3c3f 535a 2b3f
000000a0: ff92 963e 6012 dc3e 9d8d 783e 578c 403f
000000b0: 996c 793e e475 4dbe 1f30 4d3e c9fc 913d
000000c0: 6e22 443f 8971 2e3e c6a1 4a3f 4613 d73d
000000d0: 347b ed3d f69a aa3e a0a8 653e c574 c93e
000000e0: f829 b53d 0779 323e e999 483f 1907 673e
000000f0: acfd 3e3f 951b 0f3e ad67 3c3f fe27 443f
00000100: d42d 74bd 30a5 c2bc 800c 2e3c 40e8 c5bc
00000110: 70d7 aa3d 8c8f 453d 36b3 9a3d 30fd f2bc
00000120: f0d3 103d fa80 a2bd de16 9ebd d88a f3bd
00000130: 2488 1a3d c2a9 e73d e0e4 d3bc a265 b3bd
00000140: b03a b8bd 1844 583d 9e4a febd 0057 94bc
00000150: 607a f1bd 9c0a 493d cc00 c5bd a496 d63d
00000160: 5836 78bd 801c f4ba 00e4 9339 ccbe c6bd
00000170: 5632 e5bd c229 89bd daa2 97bd f023 b73c
00000180: 0875 81bd 90b9 fcbc c249 aabd 608a 8e3b
00000190: 08e2 89bc 5640 ed3d fc9d debd 9629 a7bd
000001a0: ee74 b83d 30b6 b1bc 164b f9bd e0a4 69bd
000001b0: d8ba 693d a480 d23d 26c7 c3bd f4d7 77bd
000001c0: e044 4bbd 807d b6ba 303d b23c 1057 b9bc
000001d0: 94a5 38bd 4e34 98bd f489 97bd fed4 d03d
000001e0: 4e82 b0bd 7a11 8bbd 7e2b b53d 18e3 6b3d
000001f0: c083 62bd 68d7 923c b457 4ebd 7c9f 8dbd
00000200: b910 fcbd 0f4f 623d 154d c8bc aaa2 333e
00000210: d703 e2bc 74fe f13d 2ef4 433c 3baa 87bd
00000220: cd18 4d3c 3c44 de3e 1192 b4be 1f65 edbd
00000230: a4c6 9f3d f28a b53d 9a5c a33d 6938 a4be
00000240: 320a 94bc 0042 ba3e 579d b5bd 92dd a83d
00000250: 0893 f0bd 1688 6bbd fcb8 91bd f548 69bd
00000260: 285f ac3e ef92 e9bd 4e62 623e 23c2 c7bd
00000270: a464 aa3d 3096 203e 7870 dd3e ca54 c4bd
00000280: 20a9 c43d bbe2 793d 9a42 4e3e 6c4d 123e
00000290: be0f 46bd bcf6 be3c b50d 223d d5a2 2fbe
000002a0: 2d8e 75bd e75c 11be ba50 663e 5748 9e3d
000002b0: d811 d53d 9db7 04be c4a2 c63c 1ae3 babd
000002c0: 35d0 283e 6909 7d3e 1186 98bd d3ca b7bd
000002d0: 82e4 b33c d7eb aabd c405 403d 5ea5 f9be
000002e0: 95d2 883c 0902 4bbd 621e 88bc 9272 41be
000002f0: 79cd 573d 94dc 3dba ca4d 01be d1aa 073d
00000300: e332 943e bf30 a03e bb12 e73e 4ad6 543f
00000310: 972e 903d 3f18 773d fa00 a33e 3b3f f53e
00000320: b517 e5bd 238e de3e 0e90 ef3e dfec 483f
00000330: 8488 ae3d 8cfc a53e 05a1 123f 6c0f 0e3f
00000340: 3893 c03d 82e2 ba3e 285d 003f 8f93 e73e
00000350: 58b6 ab3e e8fc b63d 358a 373f a495 a03d
00000360: 4c3e a53e 2b50 c93e d147 b53e 96f1 8e3e
00000370: d27f 3e3d 98af 543e e9e7 a43e afda 883e
00000380: 8128 013f 5bfc 583e a6e7 af3e efa0 2b3e
00000390: a0a8 bd3e 3455 7bbd 58e4 213f e7fc 563f
000003a0: 51aa a73e 4394 173f 7036 393e 602b 303f
000003b0: 9059 963e 7af5 81bd b2b0 983e c4f5 1c3e
000003c0: 1ec1 533f d196 363e 1fb2 4a3f e212 633e
000003d0: cb19 0d3e d945 913e cd0e 343e 002e b13e
000003e0: df03 8c3d 7a69 303e bee3 263f a4d0 783e
000003f0: ba90 503f cadc 823d 741b 4b3f 99f2 473f

fc.weight f4 [1, 64]
-1.0835459 1.2847357 0.8260897 0.78340524 0.23192321 -0.2918277 1.1014793 0.46684965
0.008802552 1.639144 -1.8123438 0.8337287 -0.4119299 -0.23665687 -0.6042791 -1.9573609
-0.76747006 1.4475756 0.3039025 1.8339742 -0.3581692 -0.7664176 -0.78309983 0.5670218
1.4932246 -1.7199981 1.5668154 -0.88656044 -0.16416596 0.924093 1.2673423 -1.1448147
-0.28906003 0.98054355 1.2450199 -0.21414895 0.563245 -0.15664503 -0.48108867 -0.8845033
0.34306395 -1.6981287 1.1477464 -0.65095305 1.3216323 0.00794891 0.32576853 0.08208258
0.9224297 1.4506273 -0.80446786 -0.8986913 -0.18284436 -1.3935446 -0.90126216 -1.5959287
-0.08268323 0.4739042 -0.7769422 -1.546695 -0.8999637 -0.58691794 -0.9126686 0.93865
00000000: a2b1 8abf 3872 a43f 9d7a 533f 3f8d 483f
00000010: 477d 6d3e 716a 95be 46fd 8c3f eb06 ef3e
00000020: 9438 103c 78cf d13f e2fa e7bf 3e6f 553f
00000030: 7ae8 d2be 2e56 72be 09b2 1abf cd8a fabf
00000040: eb78 44bf 284a b93f 1c99 9b3e abbf ea3f
00000050: f461 b7be f233 44bf 3b79 48bf 5728 113f
00000060: fc21 bf3f e628 dcbf 688d c83f a0f5 62bf
00000070: 1f1b 28be 5c91 6c3f 4638 a23f 4a89 92bf
00000080: adff 93be e704 7b3f d05c 9f3f dd49 5bbe
00000090: d330 103f 8e67 20be 4151 f6be cf6e 62bf
000000a0: 14a6 af3e 485c d9bf 5be9 923f dca4 26bf
000000b0: 3f2b a93f 253c 023c 22cb a63e e91a a83d
000000c0: 5a24 6c3f 28ae b93f 9bf1 4dbf a210 66bf
000000d0: 8d3b 3bbe ab5f b2bf 1eb9 66bf 6447 ccbf
000000e0: d355 a9bd 92a3 f23e afe5 46bf 1afa c5bf
000000f0: 0564 66bf 4140 16bf a6a4 69bf 5e4b 703f
