webapp/models/LSTM_model.pt (torch, 75622 bytes, 5 tensors)

lstm.weight_ih_l0 f4 [256, 5]
-0.18197928 0.3041394 0.15883729 -0.035176374 0.07715293 -0.33694327 0.26576883 0.02194845
0.026324024 0.15387815 -0.14310585 0.24959844 0.28066128 -0.12220994 0.14557728 -0.48408082
0.47126415 -0.4403746 0.2716206 0.2930106 -0.38866913 0.47112414 0.3220857 0.0431963
0.24742013 -0.5464236 0.46238488 -0.6172809 -0.06772646 0.4195087 -0.15201077 0.1379981
-0.074464835 -0.17439507 0.18992612 -0.24001409 0.41454828 0.028370176 0.22467841 -0.083266936
-0.31987292 0.35478032 -0.3842544 0.15655147 0.0074577415 -0.20875077 0.31693998 -0.4227897
0.1785865 0.28596726 -0.4594958 0.39758882 0.2572077 -0.43638408 0.5091082 -0.34599015
0.26186833 -0.4369807 0.119913556 -0.15556376 -0.11467472 0.13449259 -0.26243895 0.0018759577
0.21963558 -0.38688174 0.35369164 -0.31025583 -0.09146518 0.26769564 -0.3432763 0.37541822
0.4941145 0.08498816 0.02809865 -0.37099102 0.372491 -0.21754931 -0.33771428 0.40888426
-0.09415873 0.27858892 0.59461415 0.19899584 0.15347226 -0.3896532 0.2397075 0.12755133
0.10023562 -0.051621865 -0.48466834 0.42597705 -0.45699003 -0.42398864 0.7451457 -0.3086561
0.26100317 0.46541846 -0.10920449 0.3167845 -0.29689986 0.39105928 0.1143243 -0.21682556
0.37357223 -0.41665024 0.44817328 -0.6362204 -0.5636675 0.9201135 -0.19301845 0.06988616
0.10358477 -0.06153346 -0.027980527 0.1834987 -0.27295262 0.3801506 0.027041469 -0.0994863
-0.16728172 0.24230416 -0.3595861 0.15086615 0.0538652 -0.21002232 0.24535067 -0.45510238
-0.4591358 0.520576 -0.5227681 0.33406338 -0.48885322 0.109287836 0.31638622 -0.33272853
0.30507636 -0.24501441 -0.30123994 0.4717562 -0.27668646 0.14046839 -0.27307153 0.24335274
0.26909316 -0.26292452 0.25620818 0.25919232 0.11294463 0.08005099 -0.4206644 0.40713534
0.6756667 0.22803263 -0.03971751 -0.58887213 0.77852756 -0.59897494 -0.100099534 0.09057928
-0.2591519 0.057854205 -0.51695114 -0.033544824 0.11899159 0.044400074 -0.043922756 -0.54267704
-0.20974322 0.5913877 -0.37949333 0.37052947 0.3723763 0.044116862 0.1320085 -0.39986348
0.3296311 -0.5224568 0.00905785 0.30398393 -0.56053233 0.46937075 -0.59874856 -0.39532095
0.5966751 -0.3030267 0.3652784 -0.3678645 -0.24106963 0.44939527 -0.16311081 0.3266505
-0.416108 0.14433007 0.18718396 -0.14605366 0.12024316 -0.45788527 -0.13085943 0.19869678
-0.3064288 0.31906408 0.028739419 -0.17628522 0.51779354 -0.32922366 0.4350274 0.14849593
-0.3659118 0.50200945 -0.19963805 0.3671307 0.30215174 0.017886786 0.3027618 -0.26133806
0.25013387 -0.33870274 -0.039256018 0.077584766 -0.33494157 0.28905028 -0.50938326 -0.10911548
0.47872508 -0.1459825 0.10673666 -0.47264314 -0.21849036 0.113848135 -0.23194563 0.24241216
0.10960445 -0.07695668 0.026513724 -0.1576343 0.19743562 0.22254705 -0.031303965 0.28063998
-0.3514057 0.31554994 0.48694116 0.15970008 0.045773428 -0.45391908 0.41310892 -0.61601233
-0.17991497 0.59433216 -0.18645173 0.18102448 0.17916073 -0.019389022 0.20783721 -0.28748932
00000000: c758 3abe 29b8 9b3e 3ea6 223e 1a15 10bd
00000010: 5b02 9e3d d483 acbe da12 883e 3ccd b33c
00000020: 7ba5 d73c 3c92 1d3e 578a 12be bc96 7f3e
00000030: d6b2 8f3e 3449 fabd 3612 153e 71d9 f7be
00000040: 8949 f13e c878 e1be db11 8b3e 7c05 963e
00000050: a4ff c6be 2f37 f13e 6be8 a43e 9aee 303d
00000060: b45b 7d3e 6be2 0bbf b6bd ec3e 1f06 1ebf
00000070: 2cb4 8abd d8c9 d63e b6a8 1bbe 604f 0d3e
00000080: 0581 98bd 9f94 32be fe7b 423e 41c6 75be
00000090: ac3f d43e 9268 e83c 1912 663e db87 aabd
000000a0: 62c6 a3be c4a5 b53e febc c4be 074f 203e
000000b0: 1260 f43b c3c2 55be f545 a23e e477 d8be
000000c0: 61df 363e 4d6a 923e 0943 ebbe c390 cb3e
000000d0: bab0 833e bc6d dfbe ea54 023f 9f25 b1be
000000e0: 9b13 863e efbb dfbe 3d95 f53d 1b4c 1fbe
000000f0: 94da eabd 6db8 093e 665e 86be b2e2 f53a
00000100: 26e8 603e 5d15 c6be 1217 b53e dad9 9ebe
00000110: 1952 bbbd 670f 893e e9c1 afbe d136 c03e
00000120: 93fc fc3e 460e ae3d 242f e63c 89f2 bdbe
00000130: 24b7 be3e 3fc5 5ebe e3e8 acbe 4759 d13e
00000140: 4bd6 c0bd 35a3 8e3e a238 183f 91c5 4b3e
00000150: d527 1d3e a080 c7be e275 753e d19c 023e
00000160: 5548 cd3d 7371 53bd 7326 f8be aa19 da3e
00000170: 99fa e9be 0a15 d9be dec1 3e3f 2c08 9ebe
00000180: 35a2 853e 544b ee3e 9ba6 dfbd 9431 a23e
00000190: 4203 98be ec38 c83e dc22 ea3d 8507 5ebe
000001a0: dc44 bf3e 2e53 d5be f876 e53e 57df 22bf
000001b0: 834c 10bf 8f8c 6b3f a1a6 45be 7a20 8f3d
000001c0: 4024 d43d 820a 7cbd 6b37 e5bc 15e7 3b3e
000001d0: 72c0 8bbe 19a3 c23e 1286 dd3c 79bf cbbd
000001e0: e64b 2bbe 951e 783e ab1b b8be a87c 1a3e
000001f0: c2a1 5c3d 1710 57be 353d 7b3e 2e03 e9be
00000200: d913 ebbe 7844 053f 21d4 05bf 5b0a ab3e
00000210: f84a fabe 4dd2 df3d 60fd a13e 655b aabe
00000220: f832 9c3e 0fe5 7abe 1f3c 9abe 078a f13e
00000230: d9a9 8dbe f2d6 0f3e 08d0 8bbe 7631 793e
00000240: 94c6 893e 0b9e 86be b82d 833e dbb4 843e
00000250: 844f e73d c6f1 a33d 5361 d7be 0b74 d03e
00000260: 7ef8 2c3f 6381 693e d4ae 22bd 53c0 16bf
00000270: 954d 473f 6c56 19bf fc00 cdbd a181 b93d
00000280: 8faf 84be 88f8 6c3d e956 04bf 4c66 09bd
00000290: ddb1 f33d dadc 353d 59e8 33bd e2ec 0abf
000002a0: edc6 56be 2f65 173f f34c c2be 0ab6 bd3e
000002b0: 1ba8 be3e e2b3 343d 3c2d 073e e8ba ccbe
000002c0: 68c5 a83e bbbf 05bf 6067 143c c8a3 9b3e
000002d0: 0c7f 0fbf 5d51 f03e 9647 19bf 8267 cabe
000002e0: b3bf 183f 5126 9bbe c505 bb3e bc58 bcbe
000002f0: f5da 76be 2317 e63e 8506 27be bc3e a73e
00000300: 1c0c d5be 43cb 133e 27ad 3f3e 178f 15be
00000310: 0c42 f63d f06f eabe 0400 06be 2b77 4b3e
00000320: 3ce4 9cbe 5e5c a33e ee6e eb3c 1d84 34be
00000330: 1e8e 043f 0190 a8be e9bb de3e 510f 183e
00000340: cb58 bbbe b183 003f eb6d 4cbe 8ef8 bb3e
00000350: a2b3 9a3e 4f87 923c 9803 9b3e 1ace 85be
00000360: 8c11 803e 726a adbe ebca 20bd c3e4 9e3d
00000370: 767d abbe 66fe 933e f166 02bf f077 dfbd
00000380: 741b f53e 707c 15be c098 da3d 48fe f1be
00000390: f0bb 5fbe 3629 e93d 2883 6dbe e53a 783e
000003a0: 4c78 e03d 779b 9dbd 4f33 d93c e36a 21be
000003b0: 902c 4a3e 60e3 633e 9638 00bd 0bb0 8f3e
000003c0: 73eb b3be c38f a13e 5a50 f93e 6b88 233e
000003d0: eb7c 3b3d 1568 e8be 0383 d33e fcb2 1dbf
000003e0: a13b 38be 2726 183f 34ed 3ebe 7b5e 393e
000003f0: e975 373e bad5 9ebc 47d3 543e cd31 93be

lstm.weight_hh_l0 f4 [256, 64]
0.112563804 0.03568089 -0.03481771 0.098636255 -0.01793614 -0.0054023266 0.0004220158 -0.016965896
0.09187324 -0.03389597 -0.032855198 0.079143286 0.024882257 -0.0003748387 -0.084461704 -0.05790314
0.03316553 -0.0016826093 0.021648452 -0.038157746 0.079188704 0.1148947 -0.07024035 -0.0007800162
-0.018390954 0.018968433 -0.07254489 0.094809175 0.10575861 0.016607553 -0.04002148 0.046953276
-0.10280882 -0.08532719 -0.02358526 0.03523934 -0.066691235 -0.108320415 0.12202738 -0.009700462
0.054286912 0.040661156 -0.052844763 0.04825157 0.06938659 -0.12348126 0.10044226 -0.08781618
-0.00777933 0.11732307 0.05128573 -0.07939048 -0.11190319 0.08245559 0.09506969 -0.03666936
0.095919624 0.10759218 -0.080485165 0.08247925 -0.04174757 0.09064767 0.08074203 -0.112291336
0.07196711 0.028373107 0.077684596 0.04940045 -0.06576021 0.006141633 -0.016098559 0.03330803
0.016491339 0.10077837 -0.09301007 -0.080497 -0.04149942 0.07138114 -0.02420643 0.10201275
0.051473096 -0.029108018 0.075644165 -0.11955693 0.11066079 0.076471776 -0.042968765 0.11430058
0.01004298 -0.08219954 0.082326636 0.022719935 -0.08422503 -0.09951128 0.03997065 -0.040885404
-0.050551385 0.0067934096 -0.018543914 0.01379323 -0.1135104 0.042649418 0.030017734 -0.0707427
-0.060773596 -0.06480569 0.053917482 0.12108645 -0.049286038 -0.011318505 0.03585854 -0.07168268
0.11301932 0.09589332 -0.050818726 0.06681003 0.07146403 -0.013124168 0.12092535 0.089433014
-0.10498676 -0.07971698 -0.028033555 -0.042791143 -0.019836709 -0.06727283 0.11004785 0.12150614
-0.08782007 0.009105891 -0.11775434 -0.06284164 -0.091216326 0.09687926 -0.028606594 0.07582657
-0.013870224 0.12411806 0.11817698 0.023778304 -0.042450964 -0.091778696 0.086637974 -0.02890496
0.1141192 0.052625313 -0.012687981 -0.1004723 0.097069606 -0.11909053 0.0005914569 -0.0056563765
-0.03583595 0.0034902543 -0.0049304664 -0.062149644 -0.10645954 0.028496653 0.037427947 0.09036675
-0.025048852 -0.05969213 -0.03204976 -0.12010224 -0.09927386 0.038138375 0.08611949 0.05472727
0.11255993 -0.09382455 0.04126641 -0.018033504 0.032039195 -0.11939365 0.028054178 0.030081853
0.10725553 -0.10261528 -0.08843188 -0.030828387 -0.037035868 -0.052274913 0.042740613 0.014070556
-0.040216297 -0.076817185 0.03735037 -0.08951305 0.06787585 -0.037976727 0.059037015 0.07898857
-0.09145461 0.035575256 -0.036821052 0.042557284 0.09140508 -0.016550958 0.013487175 -0.070347115
-0.10975668 0.0324782 -0.045811385 0.0014105588 -0.084720835 -0.04388784 0.0481198 -0.014002562
-0.05627249 -0.12354635 -0.06762014 0.12379262 0.0722702 0.022615373 0.03075619 0.076508075
-0.10619843 0.022417396 -0.10869025 -0.0008401871 0.052539438 0.0136547685 -0.0070136935 -0.099022135
0.111193344 -0.062331945 -0.05765444 -0.09070139 -0.080825165 0.09384519 -0.07324417 -0.042023942
-0.098047525 0.036515653 -0.11327335 0.02501072 0.017796397 0.07891448 -0.06360009 0.025889814
-0.10226512 0.12420601 -0.09202263 -0.054663673 -0.09235375 -0.004967466 -0.058165357 -0.014261141
0.06572257 0.10897274 -0.095865756 -0.10297276 0.07634254 0.11606102 -0.012355134 -0.031997412
00000000: da87 e63d 2026 123d 049d 0ebd ce01 ca3d
00000010: d0ee 92bc 0006 b1bb 0042 dd39 10fc 8abc
00000020: 0a28 bc3d 80d6 0abd 2c93 06bd e015 a23d
00000030: e0d5 cb3c 0086 c4b9 42fa acbd d82b 6dbd
00000040: 94d8 073d 008b dcba 1858 b13c 4c4b 1cbd
00000050: b02d a23d ea4d eb3d 2cda 8fbd 007a 4cba
00000060: a0a8 96bc b063 9b3c 6a92 94bd 502b c23d
00000070: f897 d83d 900c 883c 90ed 23bd 1452 403d
00000080: 6e8d d2bd 06c0 aebd e035 c1bc 2057 103d
00000090: 6a95 88bd 18d7 ddbd 7ee9 f93d b0ee 1ebc
000000a0: f45b 5e3d 508c 263d c073 58bd 70a3 453d
000000b0: 8e1a 8e3d bee3 fcbd acb4 cd3d f8d8 b3bd
000000c0: c0e9 febb 1447 f03d fc10 523d 7a97 a2bd
000000d0: 802d e5bd 7ade a83d e6b3 c23d 9c32 16bd
000000e0: 8271 c43d 4a59 dc3d 68d5 a4bd e2ea a83d
000000f0: 80ff 2abd 7ca5 b93d 145c a53d 00f9 e5bd
00000100: 7e63 933d b86e e83c 1a19 9f3d 2058 4a3d
00000110: 4aad 86bd c03f c93b 20e1 83bc 006e 083d
00000120: d818 873c e464 ce3d 107c bebd 9cdb a4bd
00000130: 4cfb 29bd 4630 923d 904c c6bc 10ec d03d
00000140: 74d5 523d f073 eebc 54eb 9a3d 44da f4bd
00000150: 20a2 e23d 3c9d 9c3d 0400 30bd 6c16 ea3d
00000160: 508b 243c 3c58 a8bd de9a a83d 281f ba3c
00000170: 2c7e acbd 92cc cbbd 44b8 233d 7477 27bd
00000180: f80e 4fbd 409b de3b 68e9 97bc 00fd 613c
00000190: 2478 e8bd 28b1 2e3d c0e7 f53c 8ce1 90bd
000001a0: bced 78bd d8b8 84bd 94d8 5c3d 2cfc f73d
000001b0: 28e0 49bd 4071 39bc 68e0 123d 5ece 92bd
000001c0: ac76 e73d b863 c43d 4c27 50bd b2d3 883d
000001d0: bc5b 923d c006 57bc b6a7 f73d a828 b73d
000001e0: 4c03 d7bd a842 a3bd a0a6 e5bc c445 2fbd
000001f0: 9880 a2bc 56c6 89bd c460 e13d 36d8 f83d
00000200: 02db b3bd e030 153c 3029 f1bd 1eb3 80bd
00000210: a0cf babd a268 c63d 6058 eabc f64a 9b3d
00000220: f03f 63bc 9c31 fe3d c606 f23d b8ca c23c
00000230: 10e1 2dbd 78f6 bbbd 406f b13d 18ca ecbc
00000240: 54b7 e93d a48d 573d 40e1 4fbc 6cc4 cdbd
00000250: 6ecc c63d bce5 f3bd 000c 1b3a 2059 b9bb
00000260: b8c8 12bd c0bc 643b c08f a1bb a090 7ebd
00000270: 7607 dabd d071 e93c 0c4e 193d 3412 b93d
00000280: 4033 cdbc bc7f 74bd 9c46 03bd 2af8 f5bd
00000290: 1850 cbbd fc36 1c3d 6a5f b03d b429 603d
000002a0: d285 e63d 1627 c0bd f806 293d 00bb 93bc
000002b0: 883b 033d a884 f4bd e0d1 e53c 386e f63c
000002c0: caa8 db3d f627 d2bd c61b b5bd d08b fcbc
000002d0: ecb2 17bd 381e 56bd c810 2f3d 3088 663c
000002e0: d8b9 24bd 5452 9dbd b4fc 183d 9e52 b7bd
000002f0: 7e02 8b3d 7c8d 1bbd ccd0 713d c2c4 a13d
00000300: 8e4c bbbd 5cb7 113d acd1 16bd 8c50 2e3d
00000310: 9632 bb3d e095 87bc 50f9 5c3c 2612 90bd
00000320: 1cc8 e0bd dc07 053d b8a4 3bbd 80e2 b83a
00000330: 1e82 adbd bcc3 33bd 4419 453d 006b 65bc
00000340: fc7d 66bd de05 fdbd 6e7c 8abd fc86 fd3d
00000350: 6602 943d e043 b93c 68f4 fb3c 44b0 9c3d
00000360: 907e d9bd b0a4 b73c fe98 debd 0040 5cba
00000370: 9833 573d 40b8 5f3c 20d3 e5bb 1ecc cabd
00000380: 56b9 e33d c84f 7fbd 1027 6cbd a6c1 b9bd
00000390: aa87 a5bd e831 c03d 0a01 96bd 4c21 2cbd
000003a0: 24cd c8bd 7091 153d dcfb e7bd 48e3 cc3c
000003b0: c0c9 913c ea9d a13d c440 82bd e016 d43c
000003c0: 6070 d1bd b85f fe3d 5c76 bcbd 04e7 5fbd
000003d0: f623 bdbd 20c6 a2bb cc3e 6ebd 90a7 69bc
000003e0: 8e99 863d 1a2d df3d 4455 c4bd 62e3 d2bd
000003f0: 7a59 9c3d 66b1 ed3d 306d 4abc b80f 03bd

lstm.bias_ih_l0 f4 [256]
0.51321435 0.6863686 0.7405107 1.1568121 0.71266335 0.51841605 0.5959306 0.57380736
0.5571923 0.8430287 0.57510203 0.5201668 0.79988426 0.5685975 0.59105146 0.50540906
0.5041419 0.71690226 0.7296785 0.4771835 0.8636992 0.852686 0.65676177 0.64220846
0.70698136 0.486592 0.9859193 0.55515736 0.5141866 0.41667634 0.6642922 0.42866406
0.6220252 0.78861004 0.47263297 0.44339854 0.48843125 0.6043954 0.8869222 0.76366025
0.5796225 0.61431617 0.49410763 0.7585452 0.66579354 0.49300084 0.6738029 0.7790907
0.63018566 0.5927032 0.5765861 0.63269335 0.6886766 0.40434873 0.6892666 0.622811
0.7649178 0.32635114 0.4654647 0.71891123 0.3631406 0.6093888 0.5215719 0.61046773
-0.012283906 -0.047615543 0.09950943 0.08834663 -0.024044484 0.11964063 -0.11903982 0.080126554
0.11892398 -0.01981838 0.06688815 0.02604726 0.048335522 -0.11661139 0.09418532 -0.1067833
0.052438542 0.019717172 -0.0417659 -0.10674465 -0.062035248 0.013800055 -0.09959443 -0.01824081
-0.027264714 0.014677092 0.06147623 0.023650736 -0.024978176 0.03639491 -0.04425004 0.10359895
0.027983919 0.098194 -0.05891186 0.07432574 -0.026936904 0.0027148277 -0.06863648 -0.05903782
-0.063728124 0.1154782 0.10273583 -0.05477196 -0.021304399 0.07927048 0.06508796 0.048901677
0.061360434 0.098572075 -0.11816512 -0.07063097 0.1068445 0.12470475 -0.045864552 -0.08827637
-0.040152416 0.010826439 0.016167998 -0.101408064 -0.049842447 0.09214915 0.029391795 -0.012699142
-0.26207584 -0.30701336 0.23474236 0.07515484 -0.16782032 -0.026349055 0.26552674 0.23607995
-0.05688501 -0.18399432 -0.26172242 -0.12274742 0.3024544 -0.15059489 0.33361056 -0.18634376
0.3264947 0.14649631 0.19898853 -0.24998805 -0.24184617 -0.20246263 0.19677696 -0.35127985
0.26403055 0.0714903 0.18279982 0.24474467 -0.13565864 0.28075492 0.39003986 -0.035123363
-0.26539645 -0.14565031 -0.2946655 -0.044702295 0.02473146 0.1573027 -0.154709 0.2500384
0.2521478 0.23355776 -0.2863365 0.29171833 0.08831548 0.18593086 -0.31009346 0.3284808
-0.3370667 0.09914549 0.2755963 -0.008702833 -0.24937071 0.07463848 -0.2626489 0.2832307
-0.28549445 0.34434503 -0.005923279 0.27200055 -0.14695203 -0.21693163 0.119091704 0.1253959
0.4120229 0.6894003 0.63055974 1.3253412 0.6785829 0.55178106 0.58470637 0.40772015
0.46792194 0.7631432 0.5698643 0.3981544 0.79266447 0.58583355 0.5477645 0.58857566
0.65430284 0.72695875 0.732104 0.5292389 0.72246814 0.81653154 0.7304601 0.5258245
0.5949497 0.58266234 1.0082622 0.52688086 0.59122276 0.58631945 0.6621745 0.24583653
0.50123125 0.7608718 0.5408392 0.53346443 0.6552503 0.5794195 0.8828879 0.7113078
0.528279 0.65221643 0.55756265 0.80148685 0.47957262 0.7270455 0.63359445 0.6730465
0.5251072 0.65049523 0.5782837 0.5477264 0.768461 0.5136658 0.7847183 0.5441739
0.5900208 0.5488999 0.5311031 0.5245989 0.5255763 0.66850424 0.40725207 0.6140374
00000000: 0462 033f dab5 2f3f 1c92 3d3f 6b12 943f
00000010: 1b71 363f eab6 043f e88e 183f 0ae5 123f
00000020: 28a4 0e3f bbd0 573f e339 133f a729 053f
00000030: 37c5 4c3f 9b8f 113f 264f 173f 7d62 013f
00000040: 720f 013f e886 373f 36cc 3a3f 6551 f43e
00000050: 641b 5d3f a149 5a3f 8a21 283f c667 243f
00000060: bbfc 343f 9622 f93e 3565 7c3f cb1e 0e3f
00000070: bca1 033f 9a56 d53e 0e0f 2a3f db79 db3e
00000080: 0b3d 1f3f 59e2 493f f3fc f13e 2205 e33e
00000090: a913 fa3e a8b9 1a3f 550d 633f 3d7f 433f
000000a0: 2462 143f d343 1d3f adfb fc3e 0530 423f
000000b0: 7271 2a3f 9b6a fc3e 597e 2c3f 7d72 473f
000000c0: d953 213f 66bb 173f 269b 133f 31f8 213f
000000d0: 1c4d 303f cc06 cf3e c773 303f 8b70 1f3f
000000e0: a7d1 433f 7f17 a73e 6451 ee3e 910a 383f
000000f0: 91ed b93e e800 1c3f bc85 053f 9d47 1c3f
00000100: 7042 49bc 8408 43bd 9acb cb3d 14ef b43d
00000110: f0f8 c4bc 2606 f53d 26cb f3bd 6419 a43d
00000120: 6a8e f33d 285a a2bc a8fc 883d 1061 d53c
00000130: 78fb 453d f4d1 eebd 3ce4 c03d 34b1 dabd
00000140: ccc9 563d e885 a13c b812 2bbd f09c dabd
00000150: ac18 7ebd a019 623c 2af8 cbbd c06d 95bc
00000160: 405a dfbc 3078 703c 80ce 7b3d 30bf c13c
00000170: 089f ccbc d412 153d 883f 35bd b02b d43d
00000180: 883e e53c f019 c93d 904d 71bd 1838 983d
00000190: c8aa dcbc 40eb 313b 4891 8cbd a4d1 71bd
000001a0: e483 82bd d67f ec3d 2a67 d23d 9058 60bd
000001b0: 9086 aebc 9058 a23d d64c 853d 204d 483d
000001c0: 1455 7b3d 28e0 c93d 8e00 f2bd f8a6 90bd
000001d0: 4ad1 da3d 3465 ff3d 78dc 3bbd 3eca b4bd
000001e0: dc76 24bd 6061 313c c072 843c 08af cfbd
000001f0: 9827 4cbd b2b8 bc3d 10c7 f03c 1010 50bc
00000200: ce2e 86be db30 9dbe 4d60 703e c8ea 993d
00000210: 17d9 2bbe f9d9 d7bc 1ff3 873e f1be 713e
00000220: 4200 69bd 0269 3cbe 7b00 86be 0063 fbbd
00000230: 4edb 9a3e 8c35 1abe 01cf aa3e e6d0 3ebe
00000240: 502a a73e 2103 163e a6c3 4b3e defc 7fbe
00000250: 86a6 77be 5d52 4fbe e67f 493e f4da b3be
00000260: 032f 873e 8269 923d e02f 3b3e 599e 7a3e
00000270: 19ea 0abe 1cbf 8f3e 4eb3 c73e 84dd 0fbd
00000280: 0be2 87be 5b25 15be 65de 96be c119 37bd
00000290: a199 ca3c f613 213e 096c 1ebe 0805 803e
000002a0: 8419 813e c429 6f3e b39a 92be 1b5c 953e
000002b0: bfde b43d a964 3e3e 92c4 9ebe a32e a83e
000002c0: 0294 acbe ca0c cb3d f51a 8d3e 5496 0ebc
000002d0: 095b 7fbe 0fdc 983d eb79 86be 9d03 913e
000002e0: 542c 92be fe4d b03e 1118 c2bb a843 8b3e
000002f0: 987a 16be 5323 5ebe 5ae6 f33d c867 003e
00000300: aaf4 d23e 8a7c 303f 5d6c 213f c8a4 a93f
00000310: 9cb7 2d3f 8641 0d3f 51af 153f b2c0 d03e
00000320: 7793 ef3e 5a5d 433f a0e2 113f e5da cb3e
00000330: 0fec 4a3f 30f9 153f 4b3a 0c3f e5ac 163f
00000340: 6480 273f f819 3a3f 2b6b 3b3f 337c 073f
00000350: acf3 383f 3608 513f 6fff 3a3f 6f9c 063f
00000360: a04e 183f 5c29 153f bc0e 813f aae1 063f
00000370: 605a 173f 0819 163f 4584 293f 92bc 7b3e
00000380: b150 003f 7fc8 423f 7074 0a3f 2091 083f
00000390: 7cbe 273f d654 143f f104 623f 4518 363f
000003a0: 4b3d 073f a8f7 263f 6dbc 0e3f 3e2e 4d3f
000003b0: 8b8a f53e a71f 3a3f 3f33 223f c74c 2c3f
000003c0: 6d6d 063f db86 263f 670a 143f cc37 0c3f
000003d0: dcb9 443f 9a7f 033f 4ce3 483f fb4e 0b3f
000003e0: 9a0b 173f b484 0c3f 5ff6 073f 1d4c 063f
000003f0: 2b8c 063f 1823 2b3f 5883 d03e 8e31 1d3f

lstm.bias_hh_l0 f4 [256]
0.55798167 0.5755191 0.6123792 1.2357347 0.72300863 0.54781497 0.65518546 0.3798898
0.51672494 0.9041549 0.6314667 0.46386337 0.65012085 0.6642467 0.67804044 0.51711124
0.62613356 0.65993416 0.5741742 0.54087985 0.6594267 0.6837405 0.6548622 0.4328258
0.6162942 0.52874017 1.0147085 0.38765308 0.58616406 0.44704008 0.81258035 0.4091792
0.6750539 0.5880177 0.70704716 0.48629037 0.5422798 0.6385074 0.7875481 0.5807807
0.55592537 0.67187583 0.6306452 0.703982 0.7197948 0.59162265 0.79182774 0.8181124
0.5270333 0.58288026 0.7108839 0.60771674 0.56689656 0.56062484 0.6838866 0.6030729
0.6500833 0.5469546 0.30498618 0.6760128 0.3958541 0.74007547 0.56742775 0.62119895
-0.08970429 -0.010466427 -0.04659152 0.032236084 -0.0657496 0.10881384 0.035160825 0.116935536
-0.030446231 0.07867254 0.07785396 0.115457475 -0.059550464 -0.033739462 -0.050548136 0.08230266
-0.082130775 -0.051383615 0.008641228 -0.062815025 -0.043585822 -0.11156556 0.047621474 -0.071783066
0.033957377 -0.10106975 0.098242775 -0.021583945 -0.123636395 -0.041999146 -0.09054549 -0.04112266
0.088600114 -0.12174021 -0.06593852 0.089144096 -0.10205351 0.11975311 -0.09894998 0.09760955
-0.02273795 -0.07660565 -0.117088586 0.112056315 -0.04560636 0.09561649 -0.11526145 0.1248295
0.085357234 -0.104836166 0.055048287 0.12185566 -0.065835774 -0.008757338 0.06094095 -0.018954277
0.014886543 0.11639501 -0.034638613 0.00094905496 0.12416473 -0.07660082 -0.019300729 -0.050357565
-0.26547858 -0.1251014 0.32432142 0.21222521 -0.28333429 -0.05286986 0.27214634 0.19504145
-0.0977101 -0.26950356 -0.18174827 -0.13075629 0.18495739 -0.044996317 0.29109582 -0.071753114
0.2717881 0.36761037 0.06700663 -0.2509277 -0.26648298 -0.1324827 0.28062487 -0.19340624
0.10400354 0.2233246 0.12802185 0.042791303 -0.12802821 0.26184464 0.19407342 -0.10606426
-0.13203551 -0.21045081 -0.2615007 -0.14018475 0.021533055 0.08653728 -0.20159341 0.18361577
0.1932118 0.22383714 -0.23600134 0.26194176 0.15847363 0.20556775 -0.26192483 0.24749373
-0.3344857 0.052734584 0.2254204 0.15130502 -0.037524544 0.21937592 -0.35712478 0.30901793
-0.3025624 0.35133046 -0.0671053 0.05109756 -0.198974 -0.17361943 0.09479683 0.24320592
0.3844043 0.6769539 0.6320696 1.3325899 0.5882274 0.49896336 0.79552364 0.4323445
0.43803722 0.9228733 0.6078991 0.6280203 0.7521105 0.4718321 0.55046684 0.586985
0.55618846 0.7514748 0.7405864 0.542674 0.7243948 0.7345889 0.58489263 0.5435001
0.6625232 0.43226725 1.1374476 0.57177436 0.63208103 0.4895617 0.6263168 0.32863897
0.67377615 0.76629925 0.5493858 0.5623967 0.5158193 0.5782492 0.8979325 0.6814953
0.6378515 0.6610841 0.6626271 0.75058156 0.71475405 0.7026529 0.59715724 0.6338812
0.498081 0.5284646 0.7522053 0.5260129 0.6224221 0.5399184 0.63537794 0.64088434
0.6438421 0.45130444 0.5402724 0.493928 0.4322625 0.7513813 0.53396046 0.50078297
00000000: e3d7 0e3f 3855 133f e2c4 1c3f 8e2c 9e3f
00000010: 1817 393f 9a3d 0c3f 3cba 273f ea80 c23e
00000020: 1648 043f b276 673f cda7 213f 807f ed3e
00000030: 526e 263f 120c 2a3f 0f94 2d3f 6761 043f
00000040: 4a4a 203f 72f1 283f 15fd 123f 1a77 0a3f
00000050: 30d0 283f 9e09 2f3f 0da5 273f 589b dd3e
00000060: 75c5 1d3f 845b 073f f8e1 813f 777a c63e
00000070: d90e 163f 70e2 e43e 4405 503f f07f d13e
00000080: 55d0 2c3f 5488 163f 0b01 353f 0dfb f83e
00000090: d9d2 0a3f 3975 233f c19c 493f 0bae 143f
000000a0: 2051 0e3f 0e00 2c3f f771 213f 2a38 343f
000000b0: 7944 383f 9574 173f 39b5 4a3f d06f 513f
000000c0: a8eb 063f a437 153f 7dfc 353f 5393 1b3f
000000d0: 2220 113f 1c85 0f3f 3113 2f3f fc62 1a3f
000000e0: dc6b 263f 3705 0c3f 2627 9c3e 2d0f 2d3f
000000f0: 63ad ca3e 9675 3d3f f242 113f e506 1f3f
00000100: e2b6 b7bd 607b 2bbc c0d6 3ebd fc09 043d
00000110: baa7 86bd cad9 de3d cc04 103d e67b ef3d
00000120: 606a f9bc 121f a13d e671 9f3d f874 ec3d
00000130: 30eb 73bd 6432 0abd 900b 4fbd 4c8e a83d
00000140: 2e34 a8bd a077 52bd f093 0d3c 2aa5 80bd
00000150: 0c87 32bd 7c7c e4bd bc0e 433d 0003 93bd
00000160: e416 0b3d a8fd cebd 8233 c93d d0d0 b0bc
00000170: 1435 fdbd 4c07 2cbd ea6f b9bd 3c70 28bd
00000180: fa73 b53d ee52 f9bd c60a 87bd 2e91 b63d
00000190: 6e01 d1bd 1e41 f53d 4aa6 cabd 84e7 c73d
000001a0: f044 babc 6ce3 9cbd 24cc efbd c87d e53d
000001b0: bccd 3abd 94d2 c33d 320e ecbd 9ca6 ff3d
000001c0: c6cf ae3d 58b4 d6bd 507a 613d 768f f93d
000001d0: e8d4 86bd f07a 0fbc 389d 793d 0046 9bbc
000001e0: b0e6 733c 8260 ee3d 38e1 0dbd 00ca 783a
000001f0: 144a fe3d e4e0 9cbd 901c 9ebc bc43 4ebd
00000200: cfec 87be 951a 00be 750d a63e 9151 593e
00000210: 3111 91be 118e 58bd c456 8b3e f2b8 473e
00000220: 3c1c c8bd 5ffc 89be 381c 3abe fae4 05be
00000230: 7865 3d3e 0f4e 38bd 830a 953e 4cf3 92bd
00000240: cf27 8b3e 6d37 bc3e c63a 893d 9879 80be
00000250: 7570 88be 8ba9 07be 10ae 8f3e 490c 46be
00000260: cfff d43d 34af 643e 2918 033e ef45 2f3d
00000270: d419 03be 8010 863e 2fbb 463e 3838 d9bd
00000280: 5134 07be 6b80 57be 6be3 85be 978c 0fbe
00000290: 1766 b03c 753a b13d 816e 4ebe c605 3c3e
000002a0: 50d9 453e 9035 653e 56aa 71be 3b1d 863e
000002b0: e946 223e 5a80 523e 031b 86be ff6e 7d3e
000002c0: b641 abbe 3800 583d 9bd4 663e b4ef 1a3e
000002d0: 56b3 19bd 15a4 603e 0fd9 b6be 9937 9e3e
000002e0: 75e9 9abe 96e1 b33e 816e 89bd ad4b 513d
000002f0: d7bf 4bbe 4bc9 31be d724 c23d f90a 793e
00000300: a4d0 c43e da4c 2d3f 50cf 213f 4e92 aa3f
00000310: 1296 163f 2078 ff3e 70a7 4b3f 425c dd3e
00000320: 6a46 e03e 6d41 6c3f 479f 1b3f f0c5 203f
00000330: 508a 403f fa93 f13e 65eb 0c3f a644 163f
00000340: 5e62 0e3f a760 403f 1297 3d3f afec 0a3f
00000350: f071 393f 050e 3c3f 86bb 153f d322 0b3f
00000360: 1f9b 293f 2252 dd3e e297 913f ce5f 123f
00000370: 10d0 213f d5a7 fa3e 4c56 203f 5e43 a83e
00000380: 987c 2c3f 302c 443f 8ca4 0c3f 3bf9 0f3f
00000390: bc0c 043f 2408 143f e8de 653f 7a76 2e3f
000003a0: 3c4a 233f cf3c 293f eea1 293f 1d26 403f
000003b0: 1ffa 363f 0fe1 333f 4cdf 183f 0a46 223f
000003c0: 7904 ff3e 7549 073f 8790 403f c8a8 063f
000003d0: 0e57 1f3f 1838 0a3f 21a8 223f ff10 243f
000003e0: d6d2 243f 6011 e73e 4b4f 0a3f 21e4 fc3e
000003f0: 8351 dd3e 865a 403f a2b1 083f 5033 003f

fc.weight f4 [1, 64]
0.4058954 0.52250195 -0.57469493 -0.8902885 0.47784793 0.6937143 -0.49348468 -0.45787624
0.5705665 0.5932066 0.65626764 0.50575304 -0.52828723 0.59325796 -0.59866786 0.6386449
-0.53160405 -0.71042883 -0.700889 0.58201915 0.64108294 0.7879516 -0.55865604 0.4974784
-0.5040595 -0.576367 -0.9408589 -0.5977887 0.4659413 -0.54053044 -0.77193904 0.4247877
0.51149094 0.6170693 0.5322778 0.5035464 -0.6223319 -0.58348286 0.71922356 -0.5099446
-0.531873 -0.5943045 0.459213 -0.573151 -0.5082493 -0.54498386 0.526119 -0.4619183
0.46538478 -0.79675585 -0.5750116 -0.4956974 0.67289376 -0.5221255 0.5795969 -0.743668
0.53741443 -0.4384631 0.63207185 -0.5026693 0.43946955 0.5646713 -0.46781802 -0.59311014
00000000: 86d1 cf3e b0c2 053f 351f 13bf f2e9 63bf
00000010: 7ca8 f43e 4397 313f 06aa fcbe c16e eabe
00000020: a510 123f 63dc 173f 2801 283f 0879 013f
00000030: d53d 07bf c1df 173f 4c42 19bf 3b7e 233f
00000040: 3417 08bf aade 35bf 766d 33bf 35ff 143f
00000050: 031e 243f 32b7 493f 1504 0fbf 7db5 fe3e
00000060: 0b0a 01bf ca8c 13bf 21dc 70bf ae08 19bf
00000070: dc8f ee3e 3460 0abf cc9d 45bf c67d d93e
00000080: 12f1 023f 41f8 1d3f 5c43 083f 6be8 003f
00000090: 2551 1fbf 225f 15bf 091f 383f bb8b 02bf
000000a0: d428 08bf 5724 18bf f71d eb3e 06ba 12bf
000000b0: a01c 02bf 1084 0bbf bcaf 063f 8e80 ecbe
000000c0: ea46 ee3e 31f8 4bbf f633 13bf 0dcc fdbe
000000d0: c442 2c3f 04aa 05bf 7660 143f 0761 3ebf
000000e0: fe93 093f 3c7e e0be 76cf 213f efae 00bf
000000f0: 2702 e13e 4c8e 103f d885 efbe 11d6 17bf
