lightning_logs/version_73/checkpoints/epoch=9-step=4350.ckpt (torch, 227924 bytes, 15 tensors)

lstm.weight_ih_l0 f4 [256, 5]
-0.4616815 0.2619206 0.21136609 -0.13470636 0.15511623 -0.44207835 0.3709356 0.001140688
-0.339211 0.50791806 -0.24985257 0.24082163 -0.47700602 -0.29625407 0.2992072 -0.09021849
0.17063898 -0.46398306 -0.19092345 0.27232024 -0.26364228 0.3365077 0.40732673 0.15203606
0.023871088 -0.3510683 0.33021042 -0.39948916 -0.054424774 0.48377597 -0.26005185 0.34075487
0.08112864 0.04701652 0.14253877 -0.23492965 0.13414809 -0.44024327 0.18436553 0.031085944
-0.47205955 0.28141516 -0.43043002 -0.13289186 0.5859946 -0.2830365 0.23963591 0.6027257
0.17960419 0.029461956 -0.15508302 0.3948871 0.20914046 0.15125743 -0.052593604 -0.44955432
0.3516317 0.2123509 0.19236298 0.085052975 0.49926737 -0.52492046 0.6104817 0.22378764
-0.38347873 -0.27314085 0.2182622 0.56168646 0.06123622 -0.14235152 -0.24242802 0.2859205
0.11023216 -0.015304733 0.14001702 -0.3347372 0.32087207 0.29918006 -0.28270847 0.5291561
-0.34512118 0.3236464 0.15983374 0.048927154 0.10226833 -0.31540835 0.23695612 0.5194986
0.2285619 0.001685552 -0.35968593 0.4000545 -0.33648756 -0.060140926 0.20227575 -0.3211841
0.3422754 0.583096 0.115411244 0.08566979 -0.4074315 0.3891988 -0.36161512 -0.43800223
0.47519782 -0.36843616 0.37452877 -0.4110392 -0.09248907 0.44265735 -0.41792434 0.40894368
-0.5314089 -0.20103535 0.4431809 -0.33290368 0.41428858 0.36902016 0.115769014 0.39945927
-0.20533815 0.19332877 -0.41859677 0.0015347627 0.24401994 -0.46676028 0.26906624 -0.5134756
-0.43683565 0.7493695 -0.28861704 0.26019695 -0.25606716 -0.41533837 0.4515848 -0.16554214
0.1754588 0.6258434 0.07079308 -0.13509062 -0.3414956 0.19230635 -0.49304172 0.0056969454
0.33269995 -0.4499461 0.50355375 0.28804508 0.095514715 0.15957737 -0.2651541 0.25865376
-0.49805832 0.29478183 0.10927889 -0.3100665 0.17380744 -0.514288 0.10800122 0.5526801
-0.03579227 -0.018972257 -0.41134188 -0.26950306 0.18751255 -0.3702298 0.19550984 0.4536316
0.052993197 0.11758492 -0.33004025 0.44192198 -0.5162771 -0.34446144 0.5458199 -0.3759284
0.40670538 -0.35090566 0.090677984 0.10768262 -0.23002875 0.2855493 0.25934413 0.03671723
0.17952617 -0.35677287 0.21962272 -0.31480062 -0.15874654 0.37580818 -0.29780555 0.2371387
0.0875993 -0.19400264 0.64218116 0.0683787 -0.12902784 0.052854184 0.072599895 -0.0203603
-0.17330864 0.12885472 0.33825502 0.1471346 -0.09461534 -0.35934326 0.36171362 -0.28087106
-0.4438437 0.8829476 -0.2932469 0.18868037 0.10351534 0.057670403 0.24642049 -0.25377512
0.052070394 -0.5246893 0.3590145 -0.09280147 -0.25471702 0.37455443 -0.41193637 0.21687318
0.17053466 -0.33038276 0.29439312 0.6626263 0.10236519 0.02035394 -0.36164078 0.26244077
0.38116604 -0.018775644 0.06666506 -0.42756698 0.29426432 -0.35317677 -0.41313896 0.6262572
-0.30399176 0.35316837 0.27088526 -0.18784018 0.5586319 -0.054313783 -0.07525438 0.10994924
-0.07839862 -0.051817562 -0.3734392 0.38300058 -0.5340003 -0.28573936 0.5205628 -0.34610483
00000000: 8461 ecbe 751a 863e 5a70 583e 77f0 09be
00000010: cad6 1e3e 1858 e2be 45eb bd3e 2383 953a
00000020: 10ad adbe eb06 023f 5ad9 7fbe f299 763e
00000030: 223a f4be 9dae 97be b031 993e 79c4 b8bd
00000040: fcbb 2e3e 308f edbe 7081 43be 8f6d 8b3e
00000050: 1ffc 86be bd4a ac3e 218d d03e 57af 1b3e
00000060: 4d8d c33c 39bf b3be 5711 a93e d889 ccbe
00000070: 83ec 5ebd 7cb1 f73e 8425 85be 6c77 ae3e
00000080: c626 a63d 6594 403d aff5 113e 6691 70be
00000090: 1e5e 093e 9167 e1be 51ca 3c3e f3a7 fe3c
000000a0: cab1 f1be a615 903e 5361 dcbe ce14 08be
000000b0: be03 163f 29ea 90be 1e63 753e 3b4c 1a3f
000000c0: 29ea 373e 335a f13c 15ce 1ebe a42e ca3e
000000d0: eb28 563e 3ae3 1a3e 646c 57bd fc2b e6be
000000e0: 1209 b43e 8472 593e cdfa 443e 4130 ae3d
000000f0: f99f ff3e 3061 06bf 8748 1c3f 9628 653e
00000100: 5357 c4be 1ed9 8bbe 2080 5f3e afca 0f3f
00000110: d5d2 7a3d 99c4 11be 0d3f 78be 2c64 923e
00000120: 66c1 e13d b4c0 7abc 9f60 0f3e ad62 abbe
00000130: 5849 a43e 212e 993e 2abf 90be c676 073f
00000140: b9b3 b0be fbb4 a53e 75ab 233e d767 483d
00000150: 0f72 d13d 347d a1be a0a4 723e dcfd 043f
00000160: 210c 6a3e bded dc3a c128 b8be f2d3 cc3e
00000170: 1948 acbe 5556 76bd 6021 4f3e 3e72 a4be
00000180: b93e af3e c845 153f bb5c ec3d a573 af3d
00000190: dd9a d0be 1145 c73e 9e25 b9be d441 e0be
000001a0: 214d f33e aaa3 bcbe 3cc2 bf3e bb73 d2be
000001b0: e96a bdbd fca3 e23e 2efa d5be 1161 d13e
000001c0: 6a0a 08bf 36dc 4dbe 9be8 e23e 5a72 aabe
000001d0: a21d d43e 36f0 bc3e 4e18 ed3d ed85 cc3e
000001e0: 2a44 52be faf7 453e 5152 d6be 172a c93a
000001f0: 5de0 793e 34fb eebe 0dc3 893e 2373 03bf
00000200: eca8 dfbe aed6 3f3f 9dc5 93be 8938 853e
00000210: 3c1b 83be 3ba7 d4be 1f36 e73e e183 29be
00000220: 79ab 333e 4637 203f f6fb 903d 3255 0abe
00000230: 83d8 aebe f5eb 443e f76f fcbe 71ad ba3b
00000240: a657 aa3e 565f e6be e6e8 003f a57a 933e
00000250: 389d c33d 4068 233e 47c2 87be 446e 843e
00000260: 8001 ffbe a5ed 963e 9ccd df3d 09c1 9ebe
00000270: 94fa 313e 61a8 03bf be2f dd3d 717c 0d3f
00000280: ea9a 12bd b56b 9bbc 679b d2be 4efc 89be
00000290: 4a03 403e c38e bdbe bb33 483e 6742 e83e
000002a0: 650f 593d 5dd0 f03d 09fb a8be 9943 e23e
000002b0: bc2a 04bf 405d b0be daba 0b3f b079 c0be
000002c0: b03b d03e e8a9 b3be 61b5 b93d b588 dc3d
000002d0: a88c 6bbe 8533 923e c1c8 843e ce64 163d
000002e0: b5d5 373e efaa b6be c7e4 603e 8c2d a1be
000002f0: 748e 22be ee69 c03e f879 98be 7dd4 723e
00000300: 4367 b33d a1a8 46be fc65 243f 220a 8c3d
00000310: e01f 04be a17d 583d 41af 943d a5ca a6bc
00000320: d277 31be 7ef2 033e c32f ad3e 74aa 163e
00000330: b0c5 c1bd d7fb b7be 8732 b93e 55ce 8fbe
00000340: 7b3f e3be db08 623f 7524 96be 6d35 413e
00000350: daff d33d cd37 6c3d a755 7c3e d0ee 81be
00000360: c447 553d 0a52 06bf c0d0 b73e b20e bebd
00000370: 456a 82be 99c5 bf3e 53e9 d2be 0114 5e3e
00000380: a3a0 2e3e ee27 a9be b2ba 963e e1a1 293f
00000390: d7a4 d13d 4ebd a63c fb28 b9be a35e 863e
000003a0: 3228 c33e 61cf 99bc b187 883d 0fea dabe
000003b0: d0a9 963e 96d3 b4be f386 d3be 6452 203f
000003c0: cfa4 9bbe 7cd2 b43e 79b1 8a3e 2d59 40be
000003d0: 8002 0f3f 2178 5ebd f81e 9abd 112d e13d
000003e0: 758f a0bd a73e 54bd 6c33 bfbe a718 c43e
000003f0: 3eb4 08bf 6e4c 92be 9b43 053f a734 b1be

lstm.weight_hh_l0 f4 [256, 64]
-0.06302151 -0.055166766 0.12036243 0.101011544 0.09103033 -0.03212142 0.02860798 -0.114738286
0.007190183 0.09588526 -0.076660454 -0.10813308 -0.055324733 0.080057964 0.0334111 -0.05583757
0.0044041127 0.053259417 -0.026464269 0.0061617047 -0.04624583 0.11117658 0.057848275 -0.031017065
-0.12120156 -0.1149271 -0.0651135 -0.095868185 0.09547064 0.013311431 -0.11767529 0.057544783
-0.06806201 -0.08754733 0.025558427 -0.023205772 -0.0857095 0.018877342 0.054021657 0.048996985
0.073008075 -0.0112745315 -0.0014555454 0.0771648 0.06591196 0.039414853 -0.0061994344 0.057068482
-0.1079981 0.04051678 0.055948436 0.073853016 0.093278915 0.11513284 -0.103129655 0.056137815
0.1194891 -0.050630987 -0.023973525 0.043250233 0.08598243 0.004340172 0.048897013 -0.10012591
0.08269003 0.007700458 0.08426188 -0.036080047 -0.049263895 -0.015440062 0.058651164 0.05063778
-0.079758614 0.009548709 -0.018182501 -0.0045265406 -0.07744452 -0.060379192 -0.09579231 0.10076024
0.055842787 -0.023619637 -0.11611605 0.019883826 -0.059062913 0.032323435 -0.0036246479 0.09303467
0.02873692 -0.07893166 0.0846636 -0.03023915 -0.04111749 -0.0051847994 -0.018157437 0.10534944
-0.06473878 0.07561454 -0.10340209 -0.07982764 0.005457729 -0.03765115 -0.10250011 -0.087684706
0.07693778 0.051820368 0.064131334 0.060966164 0.006304428 -0.07090062 0.06658238 0.02460064
-0.048372656 0.09229189 0.0591975 0.031771764 -0.1105092 0.08204296 -0.092129976 0.012355089
0.090088636 0.008515567 0.027047068 -0.07857303 -0.12230815 -0.10908124 -0.076408416 0.062649235
0.11277054 0.12031801 -0.11790754 0.08020711 -0.042009845 0.09842341 -0.027556702 -0.050660715
-0.042337805 -0.046458498 -0.048092157 0.06827955 0.012127817 -0.0018368065 0.10309687 -0.027610764
0.012729093 0.076671034 -0.060325786 -0.091049775 0.081065804 -0.0773662 -0.036409214 0.08870123
-0.09196609 -0.10251464 0.059147105 -0.0412073 -0.023632452 0.10139273 -0.031799003 0.05897829
0.012940943 0.055312708 0.11034873 0.012064084 0.030384779 0.032611713 -0.058202162 0.01736717
-0.043127313 -0.019386888 0.09193568 -0.024027213 -0.05317235 0.09005974 0.015360922 -0.014815539
0.092631966 0.051163346 -0.041484922 0.10603495 -0.10419941 -0.10436162 -0.07625884 0.10487081
-0.033637404 0.124450356 0.054117322 -0.017863408 -0.0744106 0.06672749 -0.014155105 -0.03361158
0.03966354 0.010394275 -0.0011354983 0.103432626 0.10965805 -0.05715625 0.10175395 0.075158805
0.11329138 -0.058049724 0.017186329 0.09746282 0.12114243 0.011349186 0.09858513 0.04909028
0.08753611 -0.09933832 -0.11151518 -0.11142546 -0.083911076 -0.070627615 -0.096387014 -0.068902835
-0.0053434223 0.053395063 0.06489736 -0.008012816 -0.114366576 -0.058025792 -0.027222127 -0.09708637
0.02397792 -0.060059205 -0.06632185 -0.001117751 -0.094873026 0.06631766 -0.039591864 -0.0674786
-0.049213305 0.026357919 -0.10634893 -0.06961495 -0.08228043 -0.007204056 -0.02362886 -0.022182137
0.02635312 0.0072015226 0.09459631 0.010565132 -0.01770845 -0.011363804 0.0014223456 -0.0014995486
0.0473309 0.016135588 -0.1203382 0.041037485 -0.019226953 -0.07556158 -0.06152232 -0.11521207
00000000: 6c11 81bd 8cf6 61bd 9480 f63d 24df ce3d
00000010: 1c6e ba3d c091 03bd 485b ea3c e8fb eabd
00000020: a09b eb3b 7e5f c43d 2800 9dbd e074 ddbd
00000030: 309c 62bd 6ef5 a33d 14da 083d f0b5 64bd
00000040: 6050 903b 8c26 5a3d 98cb d8bc 20e8 c93b
00000050: 446c 3dbd 8cb0 e33d 50f2 6c3d 8017 febc
00000060: 8638 f8bd e65e ebbd 3a5a 85bd 8a56 c4bd
00000070: 1c86 c33d 3018 5a3c beff f0bd 14b4 6b3d
00000080: 1864 8bbd 044c b3bd e85f d13c 081a bebc
00000090: 7688 afbd a8a4 9a3c d045 5d3d 10b1 483d
000000a0: 4285 953d d0b8 38bc 00c8 beba 9408 9e3d
000000b0: dafc 863d 7871 213d a024 cbbb a4c0 693d
000000c0: 1c2e ddbd ecf4 253d 302a 653d 4040 973d
000000d0: 0409 bf3d c4ca eb3d a435 d3bd c4f0 653d
000000e0: b4b6 f43d 7062 4fbd 2064 c4bc 2827 313d
000000f0: 8e17 b03d 0038 8e3b 3c48 483d d00e cdbd
00000100: 6459 a93d 2054 fc3b 7e91 ac3d acc8 13bd
00000110: f0c8 49bd 50f8 7cbc 343c 703d 9069 4f3d
00000120: 7c58 a3bd 3072 1c3c 78f3 94bc 6053 94bb
00000130: 3c9b 9ebd 2c50 77bd c22e c4bd 625b ce3d
00000140: 68bb 643d f87d c1bc 40ce edbd 68e3 a23c
00000150: f4eb 71bd 9465 043d 808b 6dbb f688 be3d
00000160: b069 eb3c eca6 a1bd 1c64 ad3d 18b8 f7bc
00000170: d06a 28bd 40e5 a9bb e8be 94bc 72c1 d73d
00000180: c495 84bd ccdb 9a3d 7ac4 d3bd ac7c a3bd
00000190: c0d6 b23b 1838 1abd 94eb d1bd 0a94 b3bd
000001a0: 8e91 9d3d 9841 543d 4a57 833d a8b7 793d
000001b0: 6095 ce3b 5834 91bd 585c 883d 4887 c93c
000001c0: 6822 46bd 8803 bd3d 1479 723d 1c23 023d
000001d0: a652 e2bd 2406 a83d a4ae bcbd 006d 4a3c
000001e0: 6480 b83d e084 0b3c d091 dd3c e6ea a0bd
000001f0: b27c fabd fc65 dfbd 047c 9cbd 3e4e 803d
00000200: 3ef4 e63d 4a69 f63d 8279 f1bd a043 a43d
00000210: 8412 2cbd 3692 c93d 98be e1bc 9c81 4fbd
00000220: 686a 2dbd 444b 3ebd 48fc 44bd 26d6 8b3d
00000230: c0b3 463c 00c1 f0ba 7424 d33d f82f e2bc
00000240: b08d 503c b405 9d3d 2c18 77bd 4e78 babd
00000250: d405 a63d 2c72 9ebd d421 15bd fea8 b53d
00000260: b858 bcbd 32f3 d1bd 3c44 723d fcc8 28bd
00000270: d898 c1bc fea6 cf3d ac3f 02bd 3893 713d
00000280: 4006 543c 948f 623d 84fe e13d 70a8 453c
00000290: 80e9 f83c dc93 053d 6465 6ebd 9845 8e3c
000002a0: 44a6 30bd 40d1 9ebc c648 bc3d b8d4 c4bc
000002b0: 40cb 59bd 3e71 b83d 60ac 7b3c e0bc 72bc
000002c0: d4b5 bd3d a890 513d 18ec 29bd da28 d93d
000002d0: 8066 d5bd 8cbb d5bd 982d 9cbd 82c6 d63d
000002e0: 60c7 09bd d4df fe3d 20aa 5d3d 4856 92bc
000002f0: 9664 98bd 6ca8 883d d0ea 67bc 4cac 09bd
00000300: 3c76 223d c04c 2a3c 00d5 94ba 7cd4 d33d
00000310: 6694 e03d ac1c 6abd 6064 d03d dcec 993d
00000320: 5005 e83d 8cc5 6dbd 58ca 8c3c 969a c73d
00000330: 8619 f83d f0f1 393c 00e7 c93d e412 493d
00000340: 2246 b33d e471 cbbd 1262 e4bd 0833 e4bd
00000350: 92d9 abbd 36a5 90bd 8e66 c5bd ee1c 8dbd
00000360: e017 afbb c8b4 5a3d e8e8 843d 3048 03bc
00000370: 0639 eabd 74ac 6dbd f000 dfbc 38d5 c6bd
00000380: 586d c43c a400 76bd c0d3 87bd 8081 92ba
00000390: ca4c c2bd 8ed1 873d 142b 22bd 3832 8abd
000003a0: e493 49bd 90ec d73c 78cd d9bd 4892 8ebd
000003b0: a482 a8bd 0010 ecbb 5091 c1bc 50b7 b5bc
000003c0: 80e2 d73c c0fa eb3b b6bb c13d 6019 2d3c
000003d0: 5011 91bc 402f 3abc 006e ba3a 808c c4ba
000003e0: 0cde 413d c82e 843c e073 f6bd ec16 283d
000003f0: d881 9dbc 08c0 9abd d4fe 7bbd 4ef4 ebbd

lstm.bias_ih_l0 f4 [256]
0.68338895 0.8859955 0.55555403 0.6704849 0.4273435 0.46068844 0.74913895 0.56294566
0.7625932 0.55181724 0.38781077 0.7730636 0.18072803 0.45312005 0.5028129 0.6851625
0.49423483 0.53878564 0.674225 0.64303315 0.34377065 0.40721804 0.57205427 0.82303405
0.65685713 0.75530726 0.40606606 0.47923902 0.8132485 0.786257 0.46326536 1.1853137
0.5327032 0.5049333 0.7964226 0.51126057 0.631019 0.6395507 0.66899604 0.6076154
0.34572324 0.9258569 0.5971698 0.2944838 0.5462551 0.47587228 0.5968092 0.4994432
0.5782494 0.54063356 0.61631244 0.6471879 0.65271467 0.43685806 -0.06246106 0.5931348
0.55959517 0.48810738 0.7525959 0.7658548 0.6094641 0.68724006 0.7591206 0.6185458
-0.041991413 -0.121567875 -0.057565793 0.09840426 -0.07910678 -0.091983914 -0.052601114 -0.111941084
0.10185954 -0.03714098 -0.10047361 0.059081405 -0.06931496 0.09636809 -0.0659952 -0.00543876
0.068215966 0.009897113 -0.06951104 0.03523338 -0.07045813 0.0018471181 -0.032958224 0.06437351
-0.1210482 0.08397573 -0.07957478 -0.051013514 0.010950774 0.025694683 0.11482185 0.054043576
-0.08147627 0.09264645 -0.03870961 0.057786375 0.06068982 -0.065502256 -0.0041102767 -0.019854113
-0.113065094 -0.047351047 0.017173246 0.09190813 0.0761666 0.046346605 0.11525446 -0.09263058
0.11822559 0.117405266 -0.08497788 0.05009322 -0.006010458 0.111180395 0.044190034 0.113753274
-0.121535644 0.07749407 0.07824576 -0.008205116 -0.053578123 0.015628472 0.10429168 -0.05067049
0.27501592 -0.27673614 0.2269846 -0.24727568 -0.34013608 0.13515566 0.13219103 -0.17352822
-0.1339597 0.31960773 0.18664737 -0.26802364 -0.1558929 -0.33469042 -0.16728187 0.24017118
0.2913246 0.35562894 0.18409275 -0.27854005 0.05335509 -0.11708769 0.20041026 -0.35321105
-0.2664882 0.10263755 0.17002296 0.25910422 -0.19982938 0.17720413 -0.040079027 -0.17971255
-0.1172119 -0.30693844 0.21178728 0.15065108 0.3610596 -0.06077743 0.2760143 0.28320986
-0.3135879 0.25846276 -0.2693211 -0.05648087 0.22679739 -0.26377946 0.18778151 0.045177434
-0.19512379 0.27673376 0.22258082 0.07789864 -0.18769959 0.216665 -0.034413405 -0.1517609
0.21158905 -0.06713911 -0.26339325 0.24895266 -0.100148804 -0.18033563 -0.0368885 0.22207882
0.728053 0.7548324 0.54072416 0.62538594 0.4341103 0.6592348 0.6980505 0.6035709
0.54633427 0.4400588 0.5248788 0.93265367 0.23356575 0.5722376 0.54308796 0.7692653
0.7065639 0.46813834 0.6917727 0.6243211 0.4794707 0.47401625 0.5813372 0.7242108
0.58606327 0.8142684 0.39533675 0.5001836 0.8616636 0.9411662 0.51440793 1.1055199
0.57434815 0.6502324 0.6689266 0.62972265 0.733817 0.55166614 0.69082564 0.49020272
0.5248979 0.9255895 0.4697861 0.29869753 0.5690214 0.54319954 0.732235 0.5319799
0.6216321 0.5611564 0.70013183 0.48604855 0.49482396 0.57011515 -0.0024082786 0.61557716
0.6481951 0.34766766 0.6635205 0.8220678 0.5793503 0.6290233 0.59760463 0.5121341
00000000: 94f2 2e3f 9ad0 623f ca38 0e3f e6a4 2b3f
00000010: c4cc da3e 5bdf eb3e 92c7 3f3f 351d 103f
00000020: 4f39 433f e543 0d3f 228f c63e 7fe7 453f
00000030: c510 393e 5aff e73e 59b8 003f cf66 2f3f
00000040: 590c fd3e dbed 093f 029a 2c3f d29d 243f
00000050: b502 b03e e27e d03e 2672 123f 5cb2 523f
00000060: ca27 283f d15b 413f e4e7 cf3e d15e f53e
00000070: 0e31 503f 2448 493f 1e31 ed3e 5cb8 973f
00000080: 3d5f 083f 4f43 013f 5ae2 4b3f f9e1 023f
00000090: 768a 213f 98b9 233f 5343 2b3f af8c 1b3f
000000a0: a302 b13e f504 6d3f 1fe0 183f 95c6 963e
000000b0: 60d7 0b3f 88a5 f33e 7dc8 183f 05b7 ff3e
000000c0: 2708 143f f666 0a3f a7c6 1d3f 1bae 253f
000000d0: 4f18 273f dcab df3e 2bd7 7fbd afd7 173f
000000e0: a141 0f3f 36e9 f93e 20aa 403f 0f0f 443f
000000f0: d705 1c3f f7ee 2f3f ba55 423f 0459 1e3f
00000100: 30ff 2bbd 94f8 f8bd 1cca 6bbd 2c88 c93d
00000110: bc02 a2bd 1062 bcbd 4474 57bd 5e41 e5bd
00000120: bc9b d03d 2421 18bd 1cc5 cdbd 58ff 713d
00000130: 00f5 8dbd a25c c53d 7e28 87bd a037 b2bb
00000140: d0b4 8b3d 8027 223c ce5b 8ebd e050 103d
00000150: 5a4c 90bd 001b f23a 34ff 06bd 42d6 833d
00000160: 1ee8 f7bd 78fb ab3d 1af8 a2bd 8cf3 50bd
00000170: e06a 333c a87d d23c b827 eb3d cc5c 5d3d
00000180: 08dd a6bd 6cbd bd3d f88d 1ebd 68b1 6c3d
00000190: e495 783d 0c26 86bd 80af 86bb 18a5 a2bc
000001a0: ac8e e7bd 2cf3 41bd e8ae 8c3c 543a bc3d
000001b0: 3cfd 9b3d f0d5 3d3d 880a ec3d 1ab5 bdbd
000001c0: 4220 f23d 2c72 f03d e208 aebd 8c2e 4d3d
000001d0: 60f3 c4bb 8cb2 e33d 9c00 353d 7af7 e83d
000001e0: aee7 f8bd 36b5 9e3d 503f a03d c06e 06bc
000001f0: bc74 5bbd 4807 803c e096 d53d dc8b 4fbd
00000200: e3ce 8c3e 5cb0 8dbe a76e 683e d635 7dbe
00000210: 5126 aebe 3f66 0a3e 165d 073e 62b1 31be
00000220: bb2c 09be a0a3 a33e 7d20 3f3e 653a 89be
00000230: 63a2 1fbe 8b5c abbe f04b 2bbe 6fef 753e
00000240: 7f28 953e ff14 b63e cf82 3c3e cd9c 8ebe
00000250: de8a 5a3d accb efbd 5938 4d3e 14d8 b4be
00000260: 2471 88be a333 d23d 801a 2e3e 4fa9 843e
00000270: 13a0 4cbe 0075 353e e829 24bd 9106 38be
00000280: cb0c f0bd 0927 9dbe c4de 583e 4744 1a3e
00000290: cedc b83e c1f1 78bd bf51 8d3e e200 913e
000002a0: 988e a0be 3b55 843e 75e4 89be 7c58 67bd
000002b0: 933d 683e 1a0e 87be cc49 403e f90b 393d
000002c0: 88ce 47be 0cb0 8d3e 3aec 633e 5289 9f3d
000002d0: 5234 40be 6edd 5d3e 12f5 0cbd 3667 1bbe
000002e0: cdaa 583e 3b80 89bd 7bdb 86be 72ed 7e3e
000002f0: d11a cdbd e7a9 38be 6518 17bd a168 633e
00000300: ae61 3a3f b23c 413f e66c 0a3f 4b19 203f
00000310: b543 de3e 9dc3 283f 70b3 323f 9f83 1a3f
00000320: 90dc 0b3f 634f e13e 755e 063f 64c2 6e3f
00000330: dc2b 6f3e 2a7e 123f d007 0b3f 92ee 443f
00000340: 5fe1 343f d4af ef3e 0418 313f 82d3 1f3f
00000350: 2f7d f53e 42b2 f23e 84d2 143f e165 393f
00000360: 3e08 163f e573 503f 9469 ca3e 080c 003f
00000370: fc95 5c3f 45f0 703f 3db0 033f ad81 8d3f
00000380: 7b08 133f a175 263f c63e 2b3f 8135 213f
00000390: 6edb 3b3f fe39 0d3f f3d9 303f dafb fa3e
000003a0: b55f 063f 6ff3 6c3f ce87 f03e e2ee 983e
000003b0: 63ab 113f 200f 0b3f c173 3b3f d62f 083f
000003c0: 4823 1f3f f2a7 0f3f d73b 333f 5bdb f83e
000003d0: 9159 fd3e 11f3 113f 36d4 1dbb 7796 1d3f
000003e0: 1df0 253f 7f01 b23e 7bdc 293f 0973 523f
000003f0: 4d50 143f ac07 213f 9efc 183f 381b 033f

lstm.bias_hh_l0 f4 [256]
0.59597075 0.71669906 0.55129963 0.76624256 0.5160073 0.570004 0.7261336 0.540154
0.5830455 0.5634764 0.57361066 0.87309414 0.031823553 0.5333614 0.69828105 0.63383985
0.5014003 0.44118497 0.7247192 0.52660054 0.36257958 0.49667487 0.5265733 0.9176862
0.6565211 0.6604801 0.5727932 0.4522144 0.7759501 0.9423888 0.47527593 1.0588679
0.61058205 0.6521891 0.58089364 0.4793443 0.7782964 0.42417666 0.55562997 0.43042225
0.45188686 0.9009316 0.54617584 0.24373634 0.5680842 0.46934095 0.6433169 0.45298618
0.64499074 0.5484162 0.76914656 0.45464045 0.5186556 0.5292395 0.049814288 0.7019663
0.6419336 0.45664492 0.74970317 0.9199273 0.61737937 0.582101 0.7169557 0.59057343
0.093776 0.11661363 0.004917398 0.03157544 -0.05311422 -0.015487 -0.037162125 0.11068955
0.02934204 0.060175985 -0.0903423 0.017594218 -0.05177678 -0.101528406 -0.0896744 0.065084875
0.0690922 0.060985282 -0.015589595 -0.11167985 0.027127713 0.046223164 0.02563934 -0.048001006
-0.018488362 0.12008689 0.009673342 0.09960148 -0.049365893 -0.045921415 0.10279982 -0.09894602
-0.026735872 -0.014814764 0.07745013 -0.0053642094 0.022219017 -0.0050211847 -0.03176199 -0.08127326
-0.069405034 0.042189017 -0.10664129 0.013860837 -0.112987846 0.042628065 0.049813807 -0.07225028
0.08888769 0.041171864 -0.06388244 0.03986454 -0.017413542 -0.045442417 0.05586396 0.07949576
-0.0045479834 0.07151236 0.0024020076 -0.0038428754 0.08480412 -0.11342329 0.103622675 0.06450634
0.25706726 -0.13825175 0.13269612 -0.1620278 -0.28179106 0.22103082 0.27483812 -0.10699037
-0.095472306 0.26976085 0.25573462 -0.32027248 -0.15576059 -0.3735597 -0.3094014 0.2385796
0.222363 0.3241876 0.11403175 -0.35228884 0.16500638 -0.229808 0.0627105 -0.1050963
-0.231163 0.24665485 0.08355796 0.38452408 -0.29859838 0.3150838 0.057977185 -0.19097994
-0.16528553 -0.29945 0.10906414 0.13023786 0.21029289 -0.22330473 0.1742638 0.18467072
-0.23392273 0.19584672 -0.1716948 -0.0134635605 0.05422621 -0.37713042 0.324614 0.21592833
-0.23839508 0.20687494 0.09017002 0.115584195 -0.30272862 0.2676274 0.035863917 -0.15367742
0.25008225 -0.13956788 -0.1401251 0.27628744 -0.2531602 -0.07186826 -0.17343673 0.13920291
0.6318159 0.79164165 0.58845466 0.8138875 0.66813266 0.48066828 0.530693 0.48203465
0.5817197 0.6290807 0.43236968 0.9429156 0.2834317 0.5211053 0.56358814 0.6868754
0.47253546 0.64660466 0.68048286 0.57681406 0.4699278 0.5226638 0.71337444 0.9191796
0.70383996 0.77416223 0.5773984 0.47121286 0.82710207 0.81060493 0.5430463 1.206174
0.68498456 0.611765 0.6986906 0.68752545 0.8278124 0.6399752 0.6517809 0.42040077
0.54414606 0.9668961 0.5645368 0.25436336 0.45862105 0.68714446 0.66121197 0.520864
0.6656542 0.6118454 0.75187296 0.56015044 0.63654566 0.5624702 -0.10920055 0.6154665
0.51899 0.51752996 0.83998585 0.9565018 0.66625017 0.6780782 0.6744878 0.5174069
00000000: 8a91 183f 9779 373f f921 0d3f 7928 443f
00000010: 0e19 043f c8eb 113f e4e3 393f 8847 0a3f
00000020: 7842 153f fd3f 103f 26d8 123f 1983 5f3f
00000030: 6a59 023d 5f8a 083f 8cc2 323f 5443 223f
00000040: c55b 003f ffe2 e13e 3387 393f 4bcf 063f
00000050: 08a4 b93e 2b4c fe3e 82cd 063f 7ced 6a3f
00000060: c411 283f 3915 293f 93a2 123f a588 e73e
00000070: aaa4 463f 6440 713f 5e57 f33e fc88 873f
00000080: 1b4f 1c3f ddf5 263f 72b5 143f 9e6c f53e
00000090: 6f3e 473f af2d d93e c43d 0e3f 4e60 dc3e
000000a0: b75d e73e 74a3 663f 2ed2 0b3f 0596 793e
000000b0: f76d 113f 754d f03e 6bb0 243f ceed e73e
000000c0: 1d1e 253f 0165 0c3f cae6 443f a2c6 e83e
000000d0: 9dc6 043f 3d7c 073f 110a 4c3d 10b4 333f
000000e0: c355 243f 5dcd e93e 8cec 3f3f 5b80 6b3f
000000f0: 930c 1e3f 9204 153f 698a 373f d22f 173f
00000100: a20d c03d 20d3 ee3d 2022 a13b 4055 013d
00000110: 4c8e 59bd 30bd 7dbc 5037 18bd 34b1 e23d
00000120: b85e f03c 187b 763d 6205 b9bd c021 903c
00000130: e413 54bd 20ee cfbd 36a7 b7bd 384b 853d
00000140: 3680 8d3d b4cb 793d 806b 7fbc 68b8 e4bd
00000150: f03a de3c 8054 3d3d 9809 d23c b49c 44bd
00000160: e874 97bc 1ef0 f53d f07c 1e3c dcfb cb3d
00000170: e433 4abd 1818 3cbd b688 d23d 36a4 cabd
00000180: 3005 dbbc a0b9 72bc 2c9e 9e3d 40c6 afbb
00000190: a804 b63c c088 a4bb dc18 02bd 9872 a6bd
000001a0: 3a24 8ebd 64ce 2c3d c066 dabd 9018 633c
000001b0: 2c66 e7bd c49a 2e3d 9009 4c3d f4f7 93bd
000001c0: c00a b63d d4a3 283d ccd4 82bd 0049 233d
000001d0: d8a6 8ebc d421 3abd 9cd1 643d acce a23d
000001e0: 4007 95bb 1275 923d 006b 1d3b c0d8 7bbb
000001f0: c8ad ad3d 784a e8bd 2038 d43d e61b 843d
00000200: 529e 833e de91 0dbe 7ee1 073e 9eea 25be
00000210: eb46 90be e755 623e 95b7 8c3e c41d dbbd
00000220: fc86 c3bd 181e 8a3e a6ef 823e c1fa a3be
00000230: b47f 1fbe 3843 bfbe dc69 9ebe 364e 743e
00000240: 20b3 633e ebfb a53e 7a89 e93d 345f b4be
00000250: 6ff7 283e ca52 6bbe 5d6e 803d bb3c d7bd
00000260: feb5 6cbe 1793 7c3e 7020 ab3d 57e0 c43e
00000270: e3e1 98be aa52 a13e 7c79 6d3d 3f90 43be
00000280: 9c40 29be 8351 99be 055d df3d 135d 053e
00000290: 0557 573e ffa9 64be 3672 323e 521a 3d3e
000002a0: 7189 6fbe 0b8c 483e c3d0 2fbe 4496 5cbc
000002b0: 4d1c 5e3d 3d17 c1be ce33 a63e 511c 5d3e
000002c0: d71d 74be 06d7 533e 0fab b83d 68b7 ec3d
000002d0: 3fff 9abe 7506 893e 0be6 123d 9d5d 1dbe
000002e0: c80a 803e e2ea 0ebe f47c 0fbe 8c75 8d3e
000002f0: 379e 81be ab2f 93bd 6699 31be 358b 0e3e
00000300: b0be 213f 07a9 4a3f f7a4 163f ee5a 503f
00000310: be0a 2b3f 271a f63e 7fdb 073f 3fcd f63e
00000320: 95eb 143f 6f0b 213f 8f5f dd3e eb62 713f
00000330: f61d 913e 2867 053f 5047 103f 11d7 2f3f
00000340: 2bf0 f13e e287 253f 2034 2e3f 16aa 133f
00000350: 609a f03e 4bcd 053f b59f 363f 5b4f 6b3f
00000360: db2e 343f 7f2f 463f 62d0 133f d042 f13e
00000370: f6bc 533f ce83 4f3f 1505 0b3f e963 9a3f
00000380: 265b 2f3f a29c 1c3f 63dd 323f ab01 303f
00000390: 83eb 533f 6ad5 233f 1ddb 263f c53e d73e
000003a0: 284d 0b3f 8186 773f 7c85 103f ea3b 823e
000003b0: 61d0 ea3e b3e8 2f3f 3045 293f 5857 053f
000003c0: 5068 2a3f e6a1 1c3f bf7a 403f 0566 0f3f
000003d0: a8f4 223f 0cfe 0f3f 8aa4 dfbd 368f 1d3f
000003e0: 87dc 043f d87c 043f 5009 573f 4ddd 743f
000003f0: 5f8f 2a3f 8896 2d3f 3cab 2c3f c774 043f

fc.weight f4 [1, 64]
-0.4854496 0.7336443 -0.581713 0.5574533 0.47908273 -0.41456032 -0.56007963 0.56953484
0.7610831 -0.5109129 -0.5657668 0.7151584 0.40134507 0.4207058 0.55910826 -0.49997267
-0.45823547 -0.489452 -0.5108782 0.56347334 -0.58032584 0.49021178 -0.69081813 0.7818995
0.47591352 -0.67274815 -0.51093775 -0.5242686 0.54989386 -0.85462964 -0.55510026 0.9301879
0.61240995 0.39150628 -0.64655477 -0.47001752 -0.5462695 0.585698 -0.5356433 -0.4681461
0.41947895 -0.8801603 0.5050128 0.28983667 -0.47072676 0.4698678 -0.62571025 -0.5958183
0.6689366 -0.4922453 -0.636623 -0.6125183 0.458198 -0.55858433 0.06024276 0.6983504
-0.4919928 0.46065244 0.6068081 -0.6758269 0.49040464 0.70905966 0.65058136 -0.5274734
00000000: da8c f8be 1dd0 3b3f 25eb 14bf 42b5 0e3f
00000010: 554a f53e 4041 d4be 6161 0fbf 09cd 113f
00000020: 58d6 423f 30cb 02bf 18d6 10bf 9f14 373f
00000030: 1a7d cd3e c066 d73e b821 0f3f 6bfc ffbe
00000040: d79d eabe 7499 fabe eac8 02bf ca3f 103f
00000050: 3c90 14bf 0afd fa3e 75d9 30bf 912a 483f
00000060: f0aa f33e 3939 2cbf d1cc 02bf 7836 06bf
00000070: d8c5 0c3f 02c9 5abf 0d1b 0ebf cb20 6e3f
00000080: e6c6 1c3f 8373 c83e 9d84 25bf 23a6 f0be
00000090: 51d8 0bbf 4ef0 153f eb1f 09bf d8b0 efbe
000000a0: f2c5 d63e 2f52 61bf 8548 013f 7965 943e
000000b0: 1903 f1be 8392 f03e 8c2e 20bf 8c87 18bf
000000c0: 6e3f 2b3f 9307 fcbe baf9 22bf 00ce 1cbf
000000d0: ee98 ea3e 62ff 0ebf 1dc1 763d 18c7 323f
000000e0: 7be6 fbbe a3da eb3e c757 1b3f fe02 2dbf
000000f0: 5116 fb3e ef84 353f 808c 263f 7f08 07bf

exp_avg f4 [256, 5]
1.2503689e-06 -1.2503689e-06 3.439751e-07 -3.9999517e-07 -7.1655144e-08 9.391897e-07 -9.391897e-07 2.0825946e-07
-3.9752894e-07 3.745119e-08 1.2619968e-06 -1.2619968e-06 3.7894105e-07 -2.3118068e-07 -2.3455213e-07 1.3762025e-06
-1.3762025e-06 3.767633e-07 -4.0852996e-07 -1.086885e-07 2.012489e-06 -2.012489e-06 4.5053062e-07 -3.1256744e-07
-4.2676328e-07 7.658414e-07 -7.658414e-07 2.1672913e-07 -1.7829815e-07 -1.06605036e-07 1.0915049e-06 -1.0915049e-06
2.7555717e-07 -3.60596e-07 -5.181265e-08 1.1178936e-06 -1.1178936e-06 3.3443678e-07 -4.8031717e-07 5.131084e-08
7.637056e-07 -7.637056e-07 1.925465e-07 -1.3966712e-07 -1.4217012e-07 2.0292262e-06 -2.0292262e-06 3.3526777e-07
-2.2971747e-07 -5.106539e-07 1.9852907e-06 -1.9852907e-06 4.2386483e-07 -3.5698122e-07 -3.752632e-07 1.1098064e-06
-1.1098064e-06 2.9728616e-07 -3.1384127e-07 -1.0233904e-07 -5.067862e-07 5.067862e-07 -2.8245358e-07 -5.4501534e-08
2.327074e-07 2.0750351e-06 -2.0750351e-06 2.8961958e-07 -2.1321497e-07 -5.4257254e-07 1.6237753e-06 -1.6237753e-06
4.6423634e-07 -4.1392744e-07 -1.9226734e-07 1.3651514e-06 -1.3651514e-06 4.7487845e-07 -3.5673574e-07 -1.5342951e-07
1.4984639e-06 -1.4984639e-06 4.352611e-07 -3.787255e-07 -1.8049397e-07 2.2238016e-06 -2.2238016e-06 4.2831908e-07
-2.5515163e-07 -5.5641556e-07 6.1195476e-07 -6.1195476e-07 6.2718215e-08 -4.0616575e-07 1.6275582e-07 1.9763304e-06
-1.9763304e-06 4.2051877e-07 -3.183725e-07 -4.0835704e-07 1.2655979e-06 -1.2655979e-06 5.182038e-07 3.0488728e-08
-4.818824e-07 9.596166e-07 -9.596166e-07 3.2663704e-07 -1.3524685e-07 -2.164757e-07 8.173814e-07 -8.173814e-07
1.836346e-07 -1.9893972e-07 -1.0566034e-07 1.157349e-06 -1.157349e-06 2.927024e-07 -4.7552584e-07 3.2668765e-08
1.16776e-06 -1.16776e-06 2.9001137e-07 -3.9452055e-07 -4.7221448e-08 7.143371e-07 -7.143371e-07 1.54794e-07
-8.210347e-08 -1.7861692e-07 1.3778745e-06 -1.3778745e-06 5.74363e-07 -2.7670966e-08 -4.6739487e-07 3.0348376e-06
-3.0348376e-06 1.9546289e-07 -2.664265e-07 -8.3623e-07 7.2131525e-07 -7.2131525e-07 1.8958655e-08 -4.5671658e-07
1.7112197e-07 9.005582e-07 -9.005582e-07 1.4231446e-07 -4.5636924e-07 1.0660159e-07 1.1133385e-06 -1.1133385e-06
4.0897083e-07 -4.7244728e-07 4.5552046e-08 6.1093897e-07 -6.1093897e-07 -1.8723391e-07 -7.301821e-07 4.6777288e-07
2.0548025e-06 -2.0548025e-06 7.771552e-07 -4.886666e-07 -2.7633465e-07 1.5560133e-06 -1.5560133e-06 4.6930168e-07
-2.628761e-07 -3.100248e-07 7.59581e-07 -7.59581e-07 1.7706101e-07 -6.784664e-08 -2.0822512e-07 8.6737083e-07
-8.6737083e-07 2.0771544e-07 -4.3264043e-07 9.618832e-08 1.6291942e-06 -1.6291942e-06 4.785057e-07 -3.7928604e-07
-2.2677898e-07 1.1617234e-06 -1.1617234e-06 3.3876788e-07 -3.4774482e-07 -8.904201e-08 1.4151234e-06 -1.4151234e-06
4.654415e-07 -3.345195e-07 -1.9221491e-07 2.2447157e-06 -2.2447157e-06 6.445579e-07 -2.774911e-07 -5.42897e-07
2.4768544e-06 -2.4768544e-06 3.708261e-07 -2.6058612e-07 -6.419171e-07 8.1140655e-07 -8.1140655e-07 1.7929692e-07
-2.4210024e-07 -6.2933395e-08 1.5476719e-06 -1.5476719e-06 4.333062e-07 -3.6811386e-07 -2.0809063e-07 1.6269819e-07
-1.6269819e-07 1.9342406e-07 -2.0181135e-07 1.3149172e-07 8.277876e-07 -8.277876e-07 2.1917752e-07 -3.5198755e-07
3.4530004e-08 2.2499062e-06 -2.2499062e-06 5.1991344e-07 -2.811635e-07 -5.4130453e-07 1.9219478e-06 -1.9219478e-06
5.1444175e-07 -4.2184476e-07 -2.9159588e-07 1.0973458e-06 -1.0973458e-06 4.0946802e-07 -2.0923852e-09 -3.9099754e-07
1.568686e-06 -1.568686e-06 4.43238e-07 -4.525233e-07 -1.362524e-07 2.4733934e-06 -2.4733934e-06 6.712349e-07
-3.3538956e-07 -5.7034424e-07 6.652521e-07 -6.652521e-07 1.1141258e-07 -1.5546905e-07 -9.205724e-08 8.3812245e-07
00000000: 59d2 a735 59d2 a7b5 94ab b834 ebbe d6b4
00000010: d5e0 99b3 a01c 7c35 a01c 7cb5 ed9d 5f34
00000020: f66b d5b4 05da 2033 e161 a935 e161 a9b5
00000030: 4371 cb34 763a 78b4 33d9 7bb4 f5b5 b835
00000040: f5b5 b8b5 f445 ca34 ee53 dbb4 2368 e9b3
00000050: 4c0e 0736 4c0e 07b6 75e0 f134 f1ce a7b4
00000060: e61d e5b4 3894 4d35 3894 4db5 0db6 6834
00000070: 3972 3fb4 bdee e4b3 d37f 9235 d37f 92b5
00000080: 4af0 9334 f097 c1b4 9c88 5eb3 880a 9635
00000090: 880a 96b5 a48c b334 25ef 00b5 dd60 5c33
000000a0: 7301 4d35 7301 4db5 c7be 4e34 68f7 15b4
000000b0: 6da7 18b4 d72d 0836 d72d 08b6 dafe b334
000000c0: 42a8 76b4 de13 09b5 093b 0536 093b 05b6
000000d0: 8a8f e334 20a7 bfb4 c877 c9b4 a8f4 9435
000000e0: a8f4 94b5 b39a 9f34 047e a8b4 7bc5 dbb3
000000f0: 150a 08b5 150a 0835 20a4 97b4 1215 6ab3
00000100: 1fde 7934 d540 0b36 d540 0bb6 037d 9b34
00000110: 16f0 64b4 4da5 11b5 7ff0 d935 7ff0 d9b5
00000120: 283c f934 c139 deb4 0b72 4eb4 3f3a b735
00000130: 3f3a b7b5 ccf2 fe34 6385 bfb4 62be 24b4
00000140: d41e c935 d41e c9b5 d4ad e934 a353 cbb4
00000150: cecd 41b4 9f3c 1536 9f3c 15b6 baf3 e534
00000160: c6fb 88b4 965c 15b5 3645 2435 3645 24b5
00000170: b4af 8633 ff0e dab4 fbc1 2e34 19a1 0436
00000180: 19a1 04b6 a9c3 e134 c9ec aab4 2a3c dbb4
00000190: 9ddd a935 9ddd a9b5 b21a 0b35 b6f2 0233
000001a0: b55a 01b5 2dcc 8035 2dcc 80b5 a75c af34
000001b0: 5f38 11b4 6370 68b4 066a 5b35 066a 5bb5
000001c0: 182d 4534 229c 55b4 63e7 e2b3 3556 9b35
000001d0: 3556 9bb5 b624 9d34 c64b ffb4 b04f 0c33
000001e0: eebb 9c35 eebb 9cb5 dcb2 9b34 7ece d3b4
000001f0: 88d0 4ab3 dfc0 3f35 dfc0 3fb5 7335 2634
00000200: dc50 b0b3 d8c9 3fb4 68ef b835 68ef b8b5
00000210: ed2d 1a35 19b1 edb2 43ee fab4 1daa 4b36
00000220: 1daa 4bb6 6ee0 5134 6109 8fb4 4a79 60b5
00000230: 68a0 4135 68a0 41b5 86da a232 a632 f5b4
00000240: a6bd 3734 e3bd 7135 e3bd 71b5 1acf 1834
00000250: e902 f5b4 d8ec e433 056e 9535 056e 95b5
00000260: 8690 db34 a9a4 fdb4 01a5 4333 68ff 2335
00000270: 68ff 23b5 770a 49b4 bb01 44b5 3722 fb34
00000280: 3de5 0936 3de5 09b6 b39d 5035 ea2c 03b5
00000290: 255b 94b4 36d8 d035 36d8 d0b5 55f4 fb34
000002a0: 6b21 8db4 7c71 a6b4 02e6 4b35 02e6 4bb5
000002b0: 291e 3e34 16b3 91b3 7c94 5fb4 45d5 6835
000002c0: 45d5 68b5 6308 5f34 a645 e8b4 1790 ce33
000002d0: b0aa da35 b0aa dab5 a972 0035 ada0 cbb4
000002e0: 8880 73b4 83ec 9b35 83ec 9bb5 e7df b534
000002f0: afb1 bab4 5d37 bfb3 45ef bd35 45ef bdb5
00000300: cbe1 f934 0398 b3b4 a263 4eb4 eca3 1636
00000310: eca3 16b6 ae05 2d35 16fa 94b4 99bb 11b5
00000320: 0938 2636 0938 26b6 f315 c734 afe6 8bb4
00000330: 3550 2cb5 6fcf 5935 6fcf 59b5 c384 4034
00000340: 01fa 81b4 0026 87b3 9ab9 cf35 9ab9 cfb5
00000350: 27a1 e834 2fa1 c5b4 846f 5fb4 23b2 2e34
00000360: 23b2 2eb4 00b0 4f34 7bb1 58b4 2b30 0d34
00000370: 2135 5e35 2135 5eb5 0f57 6b34 cdf8 bcb4
00000380: 244e 1433 18fd 1636 18fd 16b6 2e90 0b35
00000390: d1f2 96b4 2a4e 11b5 d0fa 0036 d0fa 00b6
000003a0: 2b18 0a35 e779 e2b4 a28c 9cb4 8448 9335
000003b0: 8448 93b5 dbd4 db34 a1c9 0fb1 4bea d1b4
000003c0: a48b d235 a48b d2b5 2bf6 ed34 54f2 f2b4
000003d0: c64c 12b4 93fc 2536 93fc 25b6 e92e 3435
000003e0: 970f b4b4 c219 19b5 c793 3235 c793 32b5
000003f0: b741 ef33 02ef 26b4 01b1 c5b3 56fb 6035

exp_avg_sq f4 [256, 5]
1.5187267e-09 1.5187267e-09 1.2019163e-09 6.538911e-10 5.126436e-10 1.4913759e-09 1.4913759e-09 8.149668e-10
5.001213e-10 5.328589e-10 1.556195e-09 1.556195e-09 8.5604046e-10 1.4199403e-09 8.294733e-10 1.9487023e-09
1.9487023e-09 1.7209238e-09 9.609195e-10 5.874069e-10 3.5192549e-09 3.5192549e-09 4.4727435e-09 6.550586e-10
6.6177375e-10 1.3118922e-09 1.3118922e-09 8.1449053e-10 5.858319e-10 3.9973744e-10 2.2071591e-09 2.2071591e-09
9.769862e-10 2.307348e-10 2.6995348e-10 1.3363122e-09 1.3363122e-09 2.7312417e-09 2.6557827e-09 2.7619498e-09
1.4578674e-09 1.4578674e-09 8.228238e-10 1.8237384e-10 2.546117e-10 3.8985357e-09 3.8985357e-09 3.938279e-09
5.282991e-10 5.6840355e-10 4.417467e-09 4.417467e-09 2.3949087e-09 2.117593e-09 1.5791523e-09 7.110886e-10
7.110886e-10 1.7026518e-09 4.3963388e-10 4.5152226e-10 6.744945e-10 6.744945e-10 3.355466e-10 2.3652005e-10
4.426682e-10 1.8258273e-09 1.8258273e-09 4.4104693e-09 1.0086527e-09 1.0078426e-09 1.2543434e-09 1.2543434e-09
2.147691e-09 1.3216993e-09 1.0982779e-09 2.1119766e-09 2.1119766e-09 1.7421247e-09 6.237801e-10 6.4783423e-10
2.0205684e-09 2.0205684e-09 1.0727207e-09 9.0320623e-10 7.7753015e-10 3.32759e-09 3.32759e-09 4.391712e-09
8.900505e-10 9.435713e-10 9.761675e-10 9.761675e-10 1.7392686e-09 3.1714056e-10 2.2273909e-10 3.3816778e-09
3.3816778e-09 3.3533476e-09 2.3015394e-10 4.3007817e-10 3.4149292e-09 3.4149292e-09 6.0435874e-09 3.2234235e-09
2.6526348e-09 1.5121973e-09 1.5121973e-09 1.7270169e-09 1.3240999e-09 8.645867e-10 1.4821482e-09 1.4821482e-09
1.0572443e-09 3.9642123e-10 3.5842757e-10 1.7137485e-09 1.7137485e-09 1.1356366e-09 7.5958975e-11 2.3315008e-10
1.1964953e-09 1.1964953e-09 4.8488663e-10 9.714594e-10 7.7756895e-10 7.7997075e-10 7.7997075e-10 6.8994543e-10
6.461667e-10 4.5349854e-10 4.0731853e-09 4.0731853e-09 2.8995222e-09 1.8282263e-09 1.9624187e-09 5.6419935e-09
5.6419935e-09 3.4431706e-09 1.279678e-09 1.1833723e-09 6.9057504e-10 6.9057504e-10 3.216741e-10 3.769251e-10
2.5939598e-10 4.765442e-10 4.765442e-10 2.7437877e-10 1.5127782e-10 1.1804373e-10 4.1022665e-09 4.1022665e-09
7.92176e-09 2.9843927e-10 5.0096344e-10 9.713209e-10 9.713209e-10 7.931633e-10 9.600994e-11 1.7853674e-10
6.2943455e-09 6.2943455e-09 7.697702e-09 1.553258e-09 1.2676624e-09 2.073582e-09 2.073582e-09 2.0627289e-09
6.984785e-10 6.572613e-10 1.0729821e-09 1.0729821e-09 6.491049e-10 1.0349771e-09 7.896377e-10 1.614719e-09
1.614719e-09 4.304131e-09 5.522305e-10 3.9289488e-10 6.979631e-10 6.979631e-10 8.833268e-10 5.3132637e-10
3.7782277e-10 1.815517e-09 1.815517e-09 3.402325e-09 1.165688e-09 8.1502366e-10 1.0600297e-09 1.0600297e-09
1.6410215e-09 1.0203469e-09 5.235627e-10 4.1506727e-09 4.1506727e-09 2.32721e-09 2.8686165e-09 3.7607433e-09
6.749154e-09 6.749154e-09 3.0205698e-09 1.0960705e-09 9.49254e-10 9.781123e-10 9.781123e-10 6.3315964e-10
1.9125e-10 2.0513377e-10 2.1944002e-09 2.1944002e-09 1.6204779e-09 1.2050492e-09 8.810303e-10 1.820646e-10
1.820646e-10 1.7086915e-10 1.3636949e-11 2.480246e-11 1.3020162e-09 1.3020162e-09 3.7445065e-09 6.020446e-10
4.2774326e-10 3.2713887e-09 3.2713887e-09 2.5311933e-09 9.321697e-10 9.973272e-10 8.594359e-10 8.594359e-10
1.086626e-09 6.654395e-10 4.919474e-10 1.8944137e-09 1.8944137e-09 4.0965022e-09 1.4523593e-09 1.1327386e-09
3.0234883e-09 3.0234883e-09 2.18545e-09 4.149337e-10 6.0181143e-10 1.7885609e-09 1.7885609e-09 5.8181987e-10
1.6313387e-09 1.6299702e-09 8.417959e-10 8.417959e-10 1.5538049e-09 4.0306777e-10 3.2819267e-10 1.4503692e-09
00000000: 72bb d030 72bb d030 ac30 a530 7fbd 3330
00000010: 16ea 0c30 20f9 cc30 20f9 cc30 3104 6030
00000020: e878 0930 9d78 1230 bee1 d530 bee1 d530
00000030: 7e4e 6b30 b527 c330 ff00 6430 efe9 0531
00000040: efe9 0531 a085 ec30 5911 8430 1677 2130
00000050: 63d7 7131 63d7 7131 abae 9931 a70f 3430
00000060: 30e8 3530 1a4e b430 1a4e b430 ade2 5f30
00000070: 4108 2130 0bc2 db2f c1ac 1731 c1ac 1731
00000080: a546 8630 13b2 7d2f 9368 942f 4ea9 b730
00000090: 4ea9 b730 83b0 3b31 0681 3631 bccc 3d31
000000a0: 265e c830 265e c830 142d 6230 ac85 482f
000000b0: 69f9 8b2f e2f3 8531 e2f3 8531 7851 8731
000000c0: bf37 1130 d83d 1c30 73c8 9731 73c8 9731
000000d0: ae93 2431 1785 1131 7b09 d930 6976 4330
000000e0: 6976 4330 bc02 ea30 f8b0 f12f 1c3a f82f
000000f0: 5567 3930 5567 3930 fc77 b82f 3d07 822f
00000100: 035c f32f 96f0 fa30 96f0 fa30 e68a 9731
00000110: d0a0 8a30 4f84 8a30 4965 ac30 4965 ac30
00000120: 9496 1331 29a7 b530 38f2 9630 4922 1131
00000130: 4922 1131 906f ef30 9f76 2b30 4813 3230
00000140: 37da 0a31 37da 0a31 016f 9330 7d45 7830
00000150: d2b9 5530 95ab 6431 95ab 6431 e8e5 9631
00000160: bca7 7430 f7ae 8130 d729 8630 d729 8630
00000170: 130b ef30 9159 ae2f 7be7 742f 1b63 6831
00000180: 1b63 6831 b770 6631 930e 7d2f 1f70 ec2f
00000190: 12ac 6a31 12ac 6a31 f5a7 cf31 1183 5d31
000001a0: a549 3631 b6d5 cf30 b6d5 cf30 015c ed30
000001b0: a0fb b530 e1a7 6d30 74b4 cb30 74b4 cb30
000001c0: 7a4e 9130 54ef d92f 320c c52f 2a89 eb30
000001d0: 2a89 eb30 a914 9c30 1a09 a72e f52c 802f
000001e0: f071 a430 f071 a430 dd48 0530 3084 8530
000001f0: 8dbc 5530 9065 5630 9065 5630 98a6 3d30
00000200: f09d 3130 3f50 f92f 1ef4 8b31 1ef4 8b31
00000210: ef40 4731 ff44 fb30 3cdb 0631 80db c131
00000220: 80db c131 e69c 6c31 abe0 af30 36a4 a230
00000230: e6d2 3d30 e6d2 3d30 9bd7 b02f 7e37 cf2f
00000240: bd9a 8e2f d1fd 0230 d1fd 0230 61d7 962f
00000250: ec54 262f 5bca 012f ebf3 8c31 ebf3 8c31
00000260: 4518 0832 9811 a42f 2bb4 0930 517f 8530
00000270: 517f 8530 e805 5a30 cb20 d32e a04d 442f
00000280: a645 d831 a645 d831 da3e 0432 687a d530
00000290: e839 ae30 d77e 0e31 d77e 0e31 e9bf 0d31
000002a0: 0eff 3f30 a7aa 3430 3478 9330 3478 9330
000002b0: b26c 3230 053f 8e30 d00d 5930 e0ec dd30
000002c0: e0ec dd30 89e3 9331 c4cb 1730 0aff d72f
000002d0: c9da 3f30 c9da 3f30 99ce 7230 c50c 1230
000002e0: d4b5 cf2f d385 f930 d385 f930 56ce 6931
000002f0: 0036 a030 3108 6030 7bb0 9130 7bb0 9130
00000300: 508a e130 443c 8c30 73ea 0f30 b49d 8e31
00000310: b49d 8e31 b6ec 1f31 3c21 4531 d937 8131
00000320: 30e6 e731 30e6 e731 6d92 4f31 8da4 9630
00000330: e876 8230 446e 8630 446e 8630 a60a 2e30
00000340: 1748 522f 068c 612f 4ccc 1631 4ccc 1631
00000350: 7fb7 de30 e69e a530 ff2c 7230 a12e 482f
00000360: a12e 482f 64df 3b2f 5ce7 6f2d 2d2a da2d
00000370: 9ff2 b230 9ff2 b230 07a9 8031 1f7d 2530
00000380: 8327 eb2f e1ce 6031 e1ce 6031 39f1 2d31
00000390: ce1d 8030 5512 8930 6d3d 6c30 6d3d 6c30
000003a0: 4158 9530 24ea 3630 b939 0730 e12e 0231
000003b0: e12e 0231 37c1 8c31 5a9c c730 b2ae 9b30
000003c0: c5c5 4f31 c5c5 4f31 d82e 1631 ba1c e42f
000003d0: b76c 2530 64d1 f530 64d1 f530 efed 1f30
000003e0: a135 e030 7a05 e030 1f64 6730 1f64 6730
000003f0: a68d d530 bf96 dd2f 036d b42f 5456 c730

exp_avg f4 [256, 64]
0.0 0.0 0.0 0.0 0.0 0.0 0.0 0.0
0.0 0.0 0.0 0.0 0.0 0.0 0.0 0.0
0.0 0.0 0.0 0.0 0.0 0.0 0.0 0.0
0.0 0.0 0.0 0.0 0.0 0.0 0.0 0.0
0.0 0.0 0.0 0.0 0.0 0.0 0.0 0.0
0.0 0.0 0.0 0.0 0.0 0.0 0.0 0.0
0.0 0.0 0.0 0.0 0.0 0.0 0.0 0.0
0.0 0.0 0.0 0.0 0.0 0.0 0.0 0.0
0.0 0.0 0.0 0.0 0.0 0.0 0.0 0.0
0.0 0.0 0.0 0.0 0.0 0.0 0.0 0.0
0.0 0.0 0.0 0.0 0.0 0.0 0.0 0.0
0.0 0.0 0.0 0.0 0.0 0.0 0.0 0.0
0.0 0.0 0.0 0.0 0.0 0.0 0.0 0.0
0.0 0.0 0.0 0.0 0.0 0.0 0.0 0.0
0.0 0.0 0.0 0.0 0.0 0.0 0.0 0.0
0.0 0.0 0.0 0.0 0.0 0.0 0.0 0.0
0.0 0.0 0.0 0.0 0.0 0.0 0.0 0.0
0.0 0.0 0.0 0.0 0.0 0.0 0.0 0.0
0.0 0.0 0.0 0.0 0.0 0.0 0.0 0.0
0.0 0.0 0.0 0.0 0.0 0.0 0.0 0.0
0.0 0.0 0.0 0.0 0.0 0.0 0.0 0.0
0.0 0.0 0.0 0.0 0.0 0.0 0.0 0.0
0.0 0.0 0.0 0.0 0.0 0.0 0.0 0.0
0.0 0.0 0.0 0.0 0.0 0.0 0.0 0.0
0.0 0.0 0.0 0.0 0.0 0.0 0.0 0.0
0.0 0.0 0.0 0.0 0.0 0.0 0.0 0.0
0.0 0.0 0.0 0.0 0.0 0.0 0.0 0.0
0.0 0.0 0.0 0.0 0.0 0.0 0.0 0.0
0.0 0.0 0.0 0.0 0.0 0.0 0.0 0.0
0.0 0.0 0.0 0.0 0.0 0.0 0.0 0.0
0.0 0.0 0.0 0.0 0.0 0.0 0.0 0.0
0.0 0.0 0.0 0.0 0.0 0.0 0.0 0.0
00000000: 0000 0000 0000 0000 0000 0000 0000 0000
00000010: 0000 0000 0000 0000 0000 0000 0000 0000
00000020: 0000 0000 0000 0000 0000 0000 0000 0000
00000030: 0000 0000 0000 0000 0000 0000 0000 0000
00000040: 0000 0000 0000 0000 0000 0000 0000 0000
00000050: 0000 0000 0000 0000 0000 0000 0000 0000
00000060: 0000 0000 0000 0000 0000 0000 0000 0000
00000070: 0000 0000 0000 0000 0000 0000 0000 0000
00000080: 0000 0000 0000 0000 0000 0000 0000 0000
00000090: 0000 0000 0000 0000 0000 0000 0000 0000
000000a0: 0000 0000 0000 0000 0000 0000 0000 0000
000000b0: 0000 0000 0000 0000 0000 0000 0000 0000
000000c0: 0000 0000 0000 0000 0000 0000 0000 0000
000000d0: 0000 0000 0000 0000 0000 0000 0000 0000
000000e0: 0000 0000 0000 0000 0000 0000 0000 0000
000000f0: 0000 0000 0000 0000 0000 0000 0000 0000
00000100: 0000 0000 0000 0000 0000 0000 0000 0000
00000110: 0000 0000 0000 0000 0000 0000 0000 0000
00000120: 0000 0000 0000 0000 0000 0000 0000 0000
00000130: 0000 0000 0000 0000 0000 0000 0000 0000
00000140: 0000 0000 0000 0000 0000 0000 0000 0000
00000150: 0000 0000 0000 0000 0000 0000 0000 0000
00000160: 0000 0000 0000 0000 0000 0000 0000 0000
00000170: 0000 0000 0000 0000 0000 0000 0000 0000
00000180: 0000 0000 0000 0000 0000 0000 0000 0000
00000190: 0000 0000 0000 0000 0000 0000 0000 0000
000001a0: 0000 0000 0000 0000 0000 0000 0000 0000
000001b0: 0000 0000 0000 0000 0000 0000 0000 0000
000001c0: 0000 0000 0000 0000 0000 0000 0000 0000
000001d0: 0000 0000 0000 0000 0000 0000 0000 0000
000001e0: 0000 0000 0000 0000 0000 0000 0000 0000
000001f0: 0000 0000 0000 0000 0000 0000 0000 0000
00000200: 0000 0000 0000 0000 0000 0000 0000 0000
00000210: 0000 0000 0000 0000 0000 0000 0000 0000
00000220: 0000 0000 0000 0000 0000 0000 0000 0000
00000230: 0000 0000 0000 0000 0000 0000 0000 0000
00000240: 0000 0000 0000 0000 0000 0000 0000 0000
00000250: 0000 0000 0000 0000 0000 0000 0000 0000
00000260: 0000 0000 0000 0000 0000 0000 0000 0000
00000270: 0000 0000 0000 0000 0000 0000 0000 0000
00000280: 0000 0000 0000 0000 0000 0000 0000 0000
00000290: 0000 0000 0000 0000 0000 0000 0000 0000
000002a0: 0000 0000 0000 0000 0000 0000 0000 0000
000002b0: 0000 0000 0000 0000 0000 0000 0000 0000
000002c0: 0000 0000 0000 0000 0000 0000 0000 0000
000002d0: 0000 0000 0000 0000 0000 0000 0000 0000
000002e0: 0000 0000 0000 0000 0000 0000 0000 0000
000002f0: 0000 0000 0000 0000 0000 0000 0000 0000
00000300: 0000 0000 0000 0000 0000 0000 0000 0000
00000310: 0000 0000 0000 0000 0000 0000 0000 0000
00000320: 0000 0000 0000 0000 0000 0000 0000 0000
00000330: 0000 0000 0000 0000 0000 0000 0000 0000
00000340: 0000 0000 0000 0000 0000 0000 0000 0000
00000350: 0000 0000 0000 0000 0000 0000 0000 0000
00000360: 0000 0000 0000 0000 0000 0000 0000 0000
00000370: 0000 0000 0000 0000 0000 0000 0000 0000
00000380: 0000 0000 0000 0000 0000 0000 0000 0000
00000390: 0000 0000 0000 0000 0000 0000 0000 0000
000003a0: 0000 0000 0000 0000 0000 0000 0000 0000
000003b0: 0000 0000 0000 0000 0000 0000 0000 0000
000003c0: 0000 0000 0000 0000 0000 0000 0000 0000
000003d0: 0000 0000 0000 0000 0000 0000 0000 0000
000003e0: 0000 0000 0000 0000 0000 0000 0000 0000
000003f0: 0000 0000 0000 0000 0000 0000 0000 0000

exp_avg_sq f4 [256, 64]
0.0 0.0 0.0 0.0 0.0 0.0 0.0 0.0
0.0 0.0 0.0 0.0 0.0 0.0 0.0 0.0
0.0 0.0 0.0 0.0 0.0 0.0 0.0 0.0
0.0 0.0 0.0 0.0 0.0 0.0 0.0 0.0
0.0 0.0 0.0 0.0 0.0 0.0 0.0 0.0
0.0 0.0 0.0 0.0 0.0 0.0 0.0 0.0
0.0 0.0 0.0 0.0 0.0 0.0 0.0 0.0
0.0 0.0 0.0 0.0 0.0 0.0 0.0 0.0
0.0 0.0 0.0 0.0 0.0 0.0 0.0 0.0
0.0 0.0 0.0 0.0 0.0 0.0 0.0 0.0
0.0 0.0 0.0 0.0 0.0 0.0 0.0 0.0
0.0 0.0 0.0 0.0 0.0 0.0 0.0 0.0
0.0 0.0 0.0 0.0 0.0 0.0 0.0 0.0
0.0 0.0 0.0 0.0 0.0 0.0 0.0 0.0
0.0 0.0 0.0 0.0 0.0 0.0 0.0 0.0
0.0 0.0 0.0 0.0 0.0 0.0 0.0 0.0
0.0 0.0 0.0 0.0 0.0 0.0 0.0 0.0
0.0 0.0 0.0 0.0 0.0 0.0 0.0 0.0
0.0 0.0 0.0 0.0 0.0 0.0 0.0 0.0
0.0 0.0 0.0 0.0 0.0 0.0 0.0 0.0
0.0 0.0 0.0 0.0 0.0 0.0 0.0 0.0
0.0 0.0 0.0 0.0 0.0 0.0 0.0 0.0
0.0 0.0 0.0 0.0 0.0 0.0 0.0 0.0
0.0 0.0 0.0 0.0 0.0 0.0 0.0 0.0
0.0 0.0 0.0 0.0 0.0 0.0 0.0 0.0
0.0 0.0 0.0 0.0 0.0 0.0 0.0 0.0
0.0 0.0 0.0 0.0 0.0 0.0 0.0 0.0
0.0 0.0 0.0 0.0 0.0 0.0 0.0 0.0
0.0 0.0 0.0 0.0 0.0 0.0 0.0 0.0
0.0 0.0 0.0 0.0 0.0 0.0 0.0 0.0
0.0 0.0 0.0 0.0 0.0 0.0 0.0 0.0
0.0 0.0 0.0 0.0 0.0 0.0 0.0 0.0
00000000: 0000 0000 0000 0000 0000 0000 0000 0000
00000010: 0000 0000 0000 0000 0000 0000 0000 0000
00000020: 0000 0000 0000 0000 0000 0000 0000 0000
00000030: 0000 0000 0000 0000 0000 0000 0000 0000
00000040: 0000 0000 0000 0000 0000 0000 0000 0000
00000050: 0000 0000 0000 0000 0000 0000 0000 0000
00000060: 0000 0000 0000 0000 0000 0000 0000 0000
00000070: 0000 0000 0000 0000 0000 0000 0000 0000
00000080: 0000 0000 0000 0000 0000 0000 0000 0000
00000090: 0000 0000 0000 0000 0000 0000 0000 0000
000000a0: 0000 0000 0000 0000 0000 0000 0000 0000
000000b0: 0000 0000 0000 0000 0000 0000 0000 0000
000000c0: 0000 0000 0000 0000 0000 0000 0000 0000
000000d0: 0000 0000 0000 0000 0000 0000 0000 0000
000000e0: 0000 0000 0000 0000 0000 0000 0000 0000
000000f0: 0000 0000 0000 0000 0000 0000 0000 0000
00000100: 0000 0000 0000 0000 0000 0000 0000 0000
00000110: 0000 0000 0000 0000 0000 0000 0000 0000
00000120: 0000 0000 0000 0000 0000 0000 0000 0000
00000130: 0000 0000 0000 0000 0000 0000 0000 0000
00000140: 0000 0000 0000 0000 0000 0000 0000 0000
00000150: 0000 0000 0000 0000 0000 0000 0000 0000
00000160: 0000 0000 0000 0000 0000 0000 0000 0000
00000170: 0000 0000 0000 0000 0000 0000 0000 0000
00000180: 0000 0000 0000 0000 0000 0000 0000 0000
00000190: 0000 0000 0000 0000 0000 0000 0000 0000
000001a0: 0000 0000 0000 0000 0000 0000 0000 0000
000001b0: 0000 0000 0000 0000 0000 0000 0000 0000
000001c0: 0000 0000 0000 0000 0000 0000 0000 0000
000001d0: 0000 0000 0000 0000 0000 0000 0000 0000
000001e0: 0000 0000 0000 0000 0000 0000 0000 0000
000001f0: 0000 0000 0000 0000 0000 0000 0000 0000
00000200: 0000 0000 0000 0000 0000 0000 0000 0000
00000210: 0000 0000 0000 0000 0000 0000 0000 0000
00000220: 0000 0000 0000 0000 0000 0000 0000 0000
00000230: 0000 0000 0000 0000 0000 0000 0000 0000
00000240: 0000 0000 0000 0000 0000 0000 0000 0000
00000250: 0000 0000 0000 0000 0000 0000 0000 0000
00000260: 0000 0000 0000 0000 0000 0000 0000 0000
00000270: 0000 0000 0000 0000 0000 0000 0000 0000
00000280: 0000 0000 0000 0000 0000 0000 0000 0000
00000290: 0000 0000 0000 0000 0000 0000 0000 0000
000002a0: 0000 0000 0000 0000 0000 0000 0000 0000
000002b0: 0000 0000 0000 0000 0000 0000 0000 0000
000002c0: 0000 0000 0000 0000 0000 0000 0000 0000
000002d0: 0000 0000 0000 0000 0000 0000 0000 0000
000002e0: 0000 0000 0000 0000 0000 0000 0000 0000
000002f0: 0000 0000 0000 0000 0000 0000 0000 0000
00000300: 0000 0000 0000 0000 0000 0000 0000 0000
00000310: 0000 0000 0000 0000 0000 0000 0000 0000
00000320: 0000 0000 0000 0000 0000 0000 0000 0000
00000330: 0000 0000 0000 0000 0000 0000 0000 0000
00000340: 0000 0000 0000 0000 0000 0000 0000 0000
00000350: 0000 0000 0000 0000 0000 0000 0000 0000
00000360: 0000 0000 0000 0000 0000 0000 0000 0000
00000370: 0000 0000 0000 0000 0000 0000 0000 0000
00000380: 0000 0000 0000 0000 0000 0000 0000 0000
00000390: 0000 0000 0000 0000 0000 0000 0000 0000
000003a0: 0000 0000 0000 0000 0000 0000 0000 0000
000003b0: 0000 0000 0000 0000 0000 0000 0000 0000
000003c0: 0000 0000 0000 0000 0000 0000 0000 0000
000003d0: 0000 0000 0000 0000 0000 0000 0000 0000
000003e0: 0000 0000 0000 0000 0000 0000 0000 0000
000003f0: 0000 0000 0000 0000 0000 0000 0000 0000
