lightning_logs/version_38/checkpoints/epoch=4-step=130.ckpt (torch, 227860 bytes, 15 tensors)

lstm.weight_ih_l0 f4 [256, 5]
000000 ad e1 40 3e f5 a8 24 bd 87 3c e5 3d f3 bf 12 3e
       0.18836088 -0.040200192 0.11193185 0.14331035
000010 cf ee 34 be 8a d2 d5 bc 5d 2b 14 3e 11 93 a3 bd
       -0.17669223 -0.02610137 0.14469667 -0.07987035
000020 b7 98 61 3c 93 83 83 3d cd 8c 49 bd 51 1a 97 bd
       0.01376932 0.0642158 -0.049206544 -0.07378066
000030 91 56 4e 3d 51 b4 31 3e 01 a3 f3 bd f6 a0 48 3e
       0.050375525 0.17353942 -0.11896325 0.19592652
000040 a1 3d 04 be 15 2d 65 bd cf 94 93 3d 96 87 1b be
       -0.12914135 -0.055951197 0.07206117 -0.1518844
000050 94 1c ec bc be 0f 70 3e 7a 4a e5 bd 48 5a d8 3c
       -0.02882222 0.23443505 -0.11195846 0.026410237
000060 f0 cf e9 3d c5 80 f6 bd 2a d3 88 bc b1 87 2f be
       0.11416614 -0.120362796 -0.016702253 -0.17141606
000070 07 7a 8d bd 00 3f c4 3a c8 ed dc bd df b3 45 3e
       -0.069080405 0.0014972389 -0.10787541 0.19306897
000080 d2 22 09 3d b7 49 cb ba b1 5f ac 3d b1 6b fc bd
       0.033480473 -0.001550964 0.08416689 -0.12325228
000090 ac 0f de bd 4b fb 50 be 53 20 2c 3e 15 f6 e0 bd
       -0.10842833 -0.2040836 0.16809206 -0.109844364
0000a0 5e cd 23 3e 72 20 0d bd f8 ce 40 3e e4 63 07 3d
       0.1599631 -0.03445477 0.18828952 0.033054247
0000b0 f0 0e 33 be 59 bc cd bd 01 2a aa 3d f2 8a 9b bd
       -0.17486167 -0.1004569 0.08308793 -0.07594861
0000c0 d7 41 82 bd 50 43 39 3d f8 f8 cd 3d bc a1 b8 bd
       -0.06360214 0.04523021 0.10057253 -0.090152234
0000d0 c2 fe 01 3e 25 b5 38 bb f8 7c ff bd 7f 5a 32 be
       0.12694839 -0.0028184142 -0.12475008 -0.17417334
0000e0 4d b1 26 3e be f8 56 3e 2f f3 cf 3d 73 d4 3d ba
       0.16278572 0.20993325 0.101538055 -0.0007241435
0000f0 fb d5 f1 bd 82 6c 59 3e 09 c7 29 be c9 69 17 3e
       -0.11808392 0.21232799 -0.16579832 0.14786448
000100 75 90 ec bd da 1f aa 3d a8 dd 0f be 7a 04 10 3e
       -0.115509905 0.083068565 -0.14049399 0.14064208
000110 01 d2 47 3e 9d 8d 1f bd 72 aa 9e 3d 58 12 3b be
       0.19513704 -0.038953412 0.077473536 -0.18268716
000120 80 52 3b 3e 14 e8 47 3d ac 16 4f be dc 18 28 3e
       0.1829319 0.04880531 -0.20223492 0.16415733
000130 3e 11 a9 3c c9 70 41 3d 70 0a 0e bc d7 a7 49 be
       0.020638105 0.0472267 -0.008669481 -0.19692932
000140 b3 80 35 be 40 50 65 3d eb 9f 28 be 2b b0 1a be
       -0.17724876 0.055984735 -0.16467254 -0.15106265
000150 a0 4e fd 3c 82 bf 82 bd 80 66 0a 3d b4 94 4e be
       0.03092128 -0.063841835 0.033789158 -0.20173913
000160 37 04 01 be 33 2a 09 3e ea 3a c5 3d c6 c7 13 be
       -0.12599264 0.13395004 0.096303776 -0.14431676
000170 05 1f a3 3c 9a 29 03 3e b5 d6 4d be 40 4c 0a 3e
       0.019912252 0.12808838 -0.20101435 0.1350565
000180 a4 c5 4d be bd 2d 57 3d 04 ab e4 3d 61 7c c4 bb
       -0.20094925 0.052533854 0.11165431 -0.0059962724
000190 37 db 1b be 1f a6 6d 3e 9c b9 09 be be c0 e2 bd
       -0.15220343 0.23207901 -0.1344971 -0.11071919
0001a0 bb 8d 62 3e 11 e1 5a 3d e0 6f bf bd f0 bc 54 3e
       0.22124378 0.053437296 -0.0934751 0.20775199
0001b0 52 5f 60 3e bb 2c 82 be 34 f0 07 be 0e 22 34 3e
       0.21911362 -0.25424752 -0.13275224 0.17591116
0001c0 34 01 2f be 8a b7 a9 3d 9c ea d4 bd e6 95 e0 bd
       -0.17090303 0.082869604 -0.10396311 -0.10966091
0001d0 23 99 91 3d 29 c6 5a 3d 95 a5 69 3d c1 bd 5f bb
       0.07109287 0.053411637 0.057042677 -0.0034140202
0001e0 91 40 71 be 83 24 b0 3d 64 cf 49 be d1 5d f6 bb
       -0.23559786 0.08600714 -0.1970802 -0.007518508
0001f0 a2 d7 96 bd 73 2e 1f bd e5 f0 59 3e ef a7 30 3e
       -0.073653474 -0.038862657 0.212833 0.17251562
000200 57 25 3d 3e cd b2 48 bb 6d 09 42 3e 65 02 df bc
       0.18471275 -0.0030624152 0.18948908 -0.027222821
000210 ea a3 3e 3e ef 29 46 3e 00 79 32 be ee ef 6c 3e
       0.18617216 0.19351934 -0.1742897 0.23138401
000220 ce 67 d9 bd 7c 94 5f bc 68 a9 db bd bb f8 07 3e
       -0.10615502 -0.013646241 -0.10725671 0.13278477
000230 d4 7a 93 3e fa f5 4d be 80 15 45 3c 8e e9 72 3d
       0.28804648 -0.20113364 0.012029052 0.059304766
000240 8f dd 3f be 52 2b d0 bc 9f ba 1c 3d d1 af 0b be
       -0.18736862 -0.025411282 0.038263913 -0.13641287
000250 6b ca e2 bc 41 08 2d 3e e1 8b 9f bc 2d 80 6d 3d
       -0.027684411 0.1689768 -0.01947588 0.057983566
000260 d5 5f f2 3c 19 67 f9 3d fb d9 3b be 02 8d ac 3d
       0.029586712 0.121778674 -0.18344872 0.084253326
000270 2c 36 0e be 55 96 6a bd 1d c9 30 be 47 e4 c8 3d
       -0.13887852 -0.057272274 -0.17264219 0.098091654
000280 3c 72 7d bc 5f 69 c3 3d 2f 1c 35 be c8 96 bc bd
       -0.01546913 0.09541582 -0.17686532 -0.09208447
000290 ec ef e7 3c f9 04 93 3b 76 30 47 bd ab ab 94 3d
       0.028312646 0.004486677 -0.0486302 0.072593056
0002a0 b2 d6 31 3d d3 88 61 bd bc f3 9c bc 1e e9 b2 3d
       0.04341764 -0.055062126 -0.01915919 0.0873587
0002b0 1b f7 31 be ca f5 a7 3d 39 f6 dc 3d 8e 8a f5 3d
       -0.1737942 0.082011774 0.10789151 0.11989318
0002c0 17 8f 32 be 82 89 e2 3d 9c f2 2b 3e ea 0f 06 bc
       -0.17437397 0.11061384 0.16791767 -0.008182505
0002d0 04 7a 50 3d 62 57 13 3e 8a 5a 02 be 5b dc 84 bc
       0.050897613 0.14388803 -0.1272985 -0.016218355
0002e0 5c 0f 9e bd ff 77 03 be 1e 30 90 3d 7f 7b 0b be
       -0.07717773 -0.12838744 0.070404276 -0.13621329
0002f0 0a bb 99 bd 22 51 f6 3d 0b 16 b1 bd 63 54 92 3d
       -0.07506378 0.120271936 -0.086467825 0.07145002
000300 a4 b0 19 be b4 2d 7c 3d 43 71 51 3e 04 21 02 be
       -0.1500879 0.061567023 0.20453362 -0.12707907
000310 b2 ef 8f 3d b4 f6 6c be e5 48 a5 3a 95 9b 81 3d
       0.0702814 -0.23140985 0.0012610225 0.06328503
000320 11 a7 6a be 07 6d 46 3e 5f 3d b1 bd 13 13 06 be
       -0.22915293 0.19377528 -0.08654284 -0.13093214
000330 82 b7 f6 3c 9a ee 29 3e 32 84 ea bd 82 b8 96 3c
       0.0301168 0.16594926 -0.114509955 0.018398527
000340 8c 13 36 bd d3 1f 2c 3b 5f b6 7f 3c 5c 60 a7 bd
       -0.044452235 0.0026264086 0.0156074455 -0.08172676
000350 28 bf 2b bd 25 e6 86 3d 4b d0 da 3d 7a 2d 6c 3d
       -0.041930348 0.06586865 0.1068426 0.057660557
000360 81 90 21 be f5 c9 18 3e 4b e9 23 3e 87 77 1b be
       -0.1577778 0.1492079 0.16006963 -0.15182315
000370 94 96 0c 3c 08 a2 21 3d bb 48 3e be 60 85 39 bc
       0.0085808225 0.039461166 -0.18582432 -0.011323303
000380 a0 8d 0c bd e7 94 01 be 24 3b 1d 3d be 10 77 3d
       -0.03431475 -0.12654458 0.03838648 0.0603187
000390 4e a0 39 3e c2 7d ef bd ac a2 dd bc b1 a3 a2 3c
       0.18127558 -0.11693908 -0.027055107 0.019853445
0003a0 e8 a3 aa bd 72 06 a3 3d e6 49 29 be 45 fc 0d 3e
       -0.08332044 0.07960214 -0.16532096 0.13865764
0003b0 5e df 12 be 6b 8d b5 3d f9 3f 22 3e a0 14 29 be
       -0.1434302 0.08864864 0.15844716 -0.16511774
0003c0 8e 82 cc 3d 5e 4c 49 be af 8d 4d 3e 7d ba 75 b8
       0.09985839 -0.19658038 0.20073579 -5.8586233e-05
0003d0 21 d8 f7 bc bb f6 ea 3d 17 2d 9a bd 22 c0 ae 3c
       -0.030254425 0.11472841 -0.075281315 0.02133185
0003e0 82 68 8c bd 3d 12 12 3e ac 7e 1d be 09 e1 5e 3e
       -0.06855871 0.1426477 -0.15380353 0.21765532
0003f0 2b 47 dc bd be 62 53 3c 7a 3b 04 3e 11 e6 37 be
       -0.10755762 0.01290196 0.12913314 -0.17958857

lstm.weight_hh_l0 f4 [256, 64]
000000 26 81 dc 3d 3a 9d bf bd 86 bd e0 3d 48 10 bf bc
       0.107668206 -0.093561605 0.10973649 -0.023323193
000010 84 90 61 3d c0 27 54 3d 32 4c a4 3d 78 91 b6 3c
       0.05506946 0.05179572 0.080223456 0.022286162
000020 00 14 ff 3d a0 27 3f bd ac ac 64 bd 98 ed d4 3d
       0.124549866 -0.04666865 -0.055828735 0.1039688
000030 70 8e b2 bd 00 ae ce 3c 80 16 53 3b 58 2c f9 bc
       -0.08718574 0.025229454 0.0032209456 -0.030416653
000040 60 53 ce bc 18 35 89 3d 14 32 8e 3d 50 93 8a 3d
       -0.02518624 0.0669958 0.069431454 0.06766379
000050 30 0f 41 bc 84 99 65 3d 2a 7a e6 bd 20 dd 66 bc
       -0.011783406 0.056054607 -0.1125377 -0.014090806
000060 90 41 fe 3d b0 48 e4 bc a6 24 f1 3d f0 08 4c 3c
       0.12414849 -0.027866691 0.11774568 0.012453303
000070 70 22 f5 3d 12 35 a9 bd 06 17 c8 bd 88 d3 15 bd
       0.11969459 -0.082620755 -0.09770016 -0.036578685
000080 b0 cb 70 3d cc df 50 bd 58 3e 3b 3d 40 22 3e 3d
       0.058788 -0.05099468 0.045713753 0.046419382
000090 c0 c5 a8 3c 62 4d dd bd 74 f6 53 3d 54 d2 39 bd
       0.020602107 -0.10805775 0.051748708 -0.0453666
0000a0 c0 5e c7 bc 60 4f 3f bd b4 42 41 bd f0 a8 98 3c
       -0.024337173 -0.046706557 -0.047182754 0.018635243
0000b0 60 56 79 3d c0 f6 ac 3d b6 26 e8 3d 5c b7 2c 3d
       0.06087339 0.08445501 0.113355085 0.042167053
0000c0 6a f5 89 bd 44 86 a9 3d 64 ee 32 bd 0c 2c 91 bd
       -0.06736262 0.08277562 -0.04368438 -0.070884794
0000d0 40 82 4a 3c 90 fc 6b 3d 7a d7 f7 3d fc 00 70 bd
       0.012360156 0.05761391 0.12101646 -0.05859469
0000e0 5a 31 f2 bd f0 ab 70 bd 1c 8b ac bd b8 eb 57 bd
       -0.11825819 -0.058757722 -0.084249705 -0.052715033
0000f0 50 0e 03 bc 6e 5f e0 3d 80 40 ec bd c4 0c 46 bd
       -0.007999018 0.10955702 -0.1153574 -0.048352018
000100 f8 6c 5b bd e8 a3 ee 3d b0 ee 11 bc 38 6f b5 3c
       -0.053570718 0.116523564 -0.008907005 0.02214776
000110 88 35 80 3d ac 86 86 3d 22 51 fa bd 18 6f 67 3d
       0.0626021 0.06568655 -0.12222506 0.05650243
000120 d8 ca f2 3c 78 3b 5a bd d4 8b 7c bd 20 12 68 3d
       0.029637739 -0.05327937 -0.061656788 0.05665791
000130 a8 00 27 bd 82 44 9d 3d fc cf c3 bd 7c b7 a6 bd
       -0.04077211 0.076790825 -0.09561154 -0.081404656
000140 90 83 59 bd 76 22 f2 bd 80 64 95 3d 78 ce f3 3d
       -0.053103983 -0.11822979 0.072945595 0.11904615
000150 c0 b2 77 3b 74 6d 47 3d 2c 4a 7b bd 0a 62 dc 3d
       0.0037795752 0.048688367 -0.061350033 0.10760887
000160 d0 5d ba bc 5a 59 ac 3d e0 66 34 bd 1c 80 63 bd
       -0.022749811 0.0841548 -0.04404342 -0.055542096
000170 a0 44 78 3d aa 58 b6 3d 2c fe 2e 3d a4 33 5c 3d
       0.06061232 0.0890363 0.042722866 0.053760186
000180 fc 71 97 bd 90 6e ae 3c c0 e6 b1 bb 80 c7 db bb
       -0.07394788 0.021292955 -0.005429119 -0.006707132
000190 14 78 4b 3d b8 34 ad bc 74 e0 24 bd fe 20 cd bd
       0.049675062 -0.021143302 -0.040253118 -0.100160584
0001a0 58 24 f1 bc c0 0a 02 3c 8c cc 57 3d 90 ad 12 bd
       -0.029436275 0.007937133 0.052685305 -0.035810053
0001b0 d0 f2 e6 3d 44 bd 9c bd 00 cd c8 3c 2c 0c ab bd
       0.112767816 -0.07653287 0.024511814 -0.08351931
0001c0 c8 c1 14 bd 0a 09 e3 3d de ee ef 3d 60 54 ae 3b
       -0.036317617 0.110857084 0.11715482 0.005320117
0001d0 94 97 aa 3d 9c 2f fc bd 00 b2 6d 3c e0 d1 ef bb
       0.083296925 -0.12313768 0.014507771 -0.00731872
0001e0 e4 79 24 bd 48 a5 a9 bc 74 3e fa bd 3c 0b 7c bd
       -0.040155306 -0.020708695 -0.12218943 -0.06153415
0001f0 44 e9 54 3d 42 22 b7 bd ce c0 ae bd 60 4e 84 bb
       0.051980272 -0.08942081 -0.08532868 -0.0040376633
000200 08 08 d5 3d b0 5d 70 3c 4c f6 96 3d 74 bd 7e bd
       0.104019225 0.014670774 0.07371196 -0.062192395
000210 70 36 c2 3c 9c 8b 6c bd 70 bd 03 bc dc 16 4f 3d
       0.023707598 -0.05775033 -0.008040771 0.05055891
000220 e8 c4 53 3d 20 0e 0f bc a0 c1 d4 3b 74 b1 58 3d
       0.051701456 -0.008731395 0.0064928085 0.052903607
000230 00 20 94 ba 68 b8 0e 3d 00 b4 cd 39 50 4e 30 bc
       -0.0011301041 0.034843832 0.00039234757 -0.010760859
000240 f8 db b1 bd ec 2a 86 3d d0 b5 42 bc 56 d3 c6 3d
       -0.08684534 0.065511554 -0.011884168 0.09708278
000250 00 85 89 ba 88 1e 18 bd 7c e5 4a 3d 18 36 5f 3d
       -0.0010491908 -0.037138492 0.04953526 0.054494947
000260 ea 54 d5 3d a4 d1 1e bd d4 2e 03 bd 62 22 84 bd
       0.10416587 -0.038774148 -0.03202708 -0.064518705
000270 50 cd 58 bd d8 0c 49 3d 96 37 dd 3d 78 18 b9 bc
       -0.052930176 0.049084514 0.10801618 -0.022594675
000280 64 11 8c bd e6 ee a5 bd 40 7a a5 bc 48 de fa bd
       -0.068392545 -0.08102207 -0.020199895 -0.12249428
000290 8c 0c e8 3d 48 bf 60 3d 20 0d bb 3d 24 16 76 bd
       0.11330518 0.05486992 0.09133363 -0.06007971
0002a0 40 e5 4d bc f0 59 16 3c 60 aa 79 3d 62 02 dd bd
       -0.0125668645 0.009176716 0.060953498 -0.1079147
0002b0 e6 bd cb bd 34 ff 3e 3d 3c 18 c4 3d ac 14 48 bd
       -0.0994833 0.0466301 0.09574935 -0.04884784
0002c0 98 39 bb 3d c4 c8 37 3d 00 12 f9 bd 0a 4a af bd
       0.091418445 0.0448692 -0.12161636 -0.08559044
0002d0 8a 1d c2 bd 28 9c 97 3c 88 2c a0 3d 2e 0b c3 bd
       -0.094782904 0.018507078 0.07820994 -0.09523617
0002e0 a0 67 fe 3c b4 ac 7f 3d 78 42 81 bd 38 a3 83 3d
       0.031055272 0.062420562 -0.06311506 0.06427616
0002f0 94 fe 20 bd 14 1f fc 3d 40 6d b0 bd 26 0b c0 3d
       -0.039305285 0.12310615 -0.08614588 0.093771264
000300 e6 22 a2 bd 70 cc 1a 3c 48 82 26 bd 72 52 c8 bd
       -0.079168126 0.009448156 -0.04065159 -0.0978135
000310 be c2 e5 bd e4 cd c6 bd 4c cb b3 bd b0 f2 43 bd
       -0.11218785 -0.09707239 -0.0877901 -0.047838867
000320 68 ef b1 bd ee d6 a1 3d 50 45 50 3c 70 74 d4 bd
       -0.08688241 0.07902323 0.012711838 -0.10373771
000330 9e af 8a 3d 7a 8e b2 3d f4 3d b9 bd 8e d9 e1 3d
       0.067717776 0.087185815 -0.0904502 0.110278234
000340 00 7a fb 3d 26 8c 86 3d b0 40 9d 3d 78 f6 db bc
       0.12279129 0.065697 0.07678354 -0.026850924
000350 58 2e f1 bc 00 a4 52 b9 00 77 8a 3b 34 86 52 3d
       -0.029441044 -0.00020088255 0.0042256117 0.051397517
000360 8c 5b 6f bd 82 0d c9 3d a0 86 fc bb 18 c9 1f 3d
       -0.058436915 0.098170295 -0.0077064782 0.039010137
000370 2e a1 cc 3d f0 01 5e 3d 50 66 e7 bc 14 ff c9 3d
       0.0999168 0.054201066 -0.028247029 0.098631054
000380 ae c3 f2 3d 16 d5 93 3d 44 df f8 bd 04 40 57 bd
       0.11853729 0.07218377 -0.121519595 -0.052551284
000390 20 d3 02 3c 14 0d 71 3d 40 45 ee bd 80 9a cf 3d
       0.007984906 0.058850363 -0.11634302 0.101368904
0003a0 48 b1 a3 bd 80 10 aa bd b0 0b b1 bd 80 37 07 3b
       -0.07992798 -0.083039284 -0.08644807 0.0020632446
0003b0 e0 24 15 3c 66 49 b8 bd 38 24 99 bd c0 6c 20 3d
       0.00910303 -0.08998375 -0.07477611 0.039166212
0003c0 8a 04 c8 bd d8 83 5d 3d c8 b3 97 bc 48 5a d0 bc
       -0.09766491 0.054080814 -0.018518344 -0.025433674
0003d0 dc 5d 18 3d 78 80 02 3d 3e b4 ad bd 30 7c c6 bc
       0.037198886 0.0318608 -0.08481644 -0.02422914
0003e0 8c 03 d6 3d e2 97 b4 3d 00 c7 8b 3a 80 bd 81 bd
       0.10449895 0.08818032 0.0010664165 -0.063349724
0003f0 a0 12 63 bc 12 d8 d7 bd e0 6d a7 3d be b7 f9 3d
       -0.013859421 -0.10539259 0.08175254 0.12193249

lstm.bias_ih_l0 f4 [256]
000000 92 cc 08 3c 3f df fd 3d 2e 32 57 3d 34 26 5c 3e
       0.008349555 0.123960964 0.05253809 0.21498948
000010 07 97 86 bd 38 c9 e4 3d c2 72 7e 3e 5e 8a 14 3e
       -0.06571775 0.11171192 0.24848464 0.14505908
000020 bc 6e b3 3d 57 a4 04 3e 20 a0 2c 3e af 08 65 3e
       0.08761355 0.12953316 0.16857958 0.22366594
000030 19 95 24 3e ab ad 8f 3c 90 43 38 3e 6e a1 2f 3c
       0.16072501 0.017538866 0.17994523 0.01071964
000040 7b 88 c2 3d 86 22 90 3e e5 84 1c 3d 02 26 6b bd
       0.09498688 0.2815134 0.038212676 -0.057409294
000050 98 be 05 3e 8c 82 dd 3a cd 90 f2 bd f7 33 a9 bc
       0.13060987 0.0016899868 -0.11844025 -0.020654662
000060 9b 2d a8 3d b6 ab 64 3e 85 c9 2b 3e 12 31 6a bc
       0.082118236 0.22331128 0.16776092 -0.014293926
000070 5d 96 0b 3e 6f 1f aa 3d a6 08 82 3e d0 ad c6 bb
       0.13631578 0.08306777 0.25397223 -0.0060632005
000080 d5 e7 bd 3d b8 a5 40 3d b1 5c 4c 3e c7 90 c5 3d
       0.09272734 0.04703304 0.19957234 0.09646755
000090 52 98 82 bd b9 8f 85 bd 0d 2d 92 3e 00 cd 3f 3e
       -0.06376709 -0.065215535 0.28549996 0.18730545
0000a0 0c 9a 3d 3e 6e 69 1d 3e 76 b4 60 bb 52 b5 41 3e
       0.18515795 0.1537225 -0.003428725 0.18916824
0000b0 58 92 9a bd cc 5d 10 3e 00 aa ac 3d 67 da f3 3d
       -0.07547444 0.1409828 0.084308624 0.11906891
0000c0 d7 db 0a 3e d0 d1 d6 bd 41 c6 42 3e f7 a4 c9 3d
       0.13560425 -0.10489237 0.1902094 0.09845918
0000d0 31 58 de 3d 3e e1 30 3d 21 b0 51 3e f0 15 0f 3e
       0.10856665 0.043183558 0.20477344 0.13973212
0000e0 be 15 5c 3e d0 82 16 3e af 7f e6 bd bf 27 de 3d
       0.21492669 0.14698339 -0.112548225 0.10847425
0000f0 b0 23 c6 3d 41 86 e4 3d 86 31 41 bb a0 4c b9 3d
       0.096747756 0.111584194 -0.002947898 0.09047818
000100 b8 75 83 3d 9e 97 e8 bd 40 cb a4 bb d0 3a ff 3d
       0.064189374 -0.11357044 -0.005029112 0.124623895
000110 00 ba d1 3c 48 fb 84 3d c0 aa 1b bb cc 14 17 3d
       0.025601387 0.064932406 -0.0023752898 0.036885068
000120 40 4d 14 3d 40 a3 a2 bd de cb f1 3d a8 48 d3 3c
       0.036206484 -0.07941294 0.11806463 0.025791481
000130 42 43 8b bd 92 8a ab bd 2a ec ed bd f6 88 90 3d
       -0.06799938 -0.083760396 -0.1161731 0.07057373
000140 d0 6d 88 3c b0 90 26 bc f0 be 58 bd fc 74 d8 3d
       0.016653925 -0.010166332 -0.052916467 0.10569188
000150 e2 7d bb bd 44 33 fc 3d 2c 96 df bd 74 a3 61 bd
       -0.091548696 0.12314466 -0.10917315 -0.05508752
000160 de db 90 bd 7c 21 c1 3d b0 9a 54 bd 14 a6 d6 3d
       -0.07073186 0.09430215 -0.051905334 0.10480896
000170 d6 6f f4 bd 72 7e ec 3d a8 31 a7 3c be 4b e4 3d
       -0.119353935 0.11547555 0.02040942 0.11147259
000180 bc ea c1 bd ba 49 ba 3d 4e 4d ba 3d 20 04 b5 bc
       -0.094686 0.090960935 0.09096776 -0.022096694
000190 0c 02 e2 3d 44 78 3c bd 98 f1 f2 bc 0e 6d c2 bd
       0.11035547 -0.04601313 -0.029656217 -0.09493457
0001a0 18 b2 b6 bc 40 32 5b bc 80 7f e3 ba e8 63 81 3c
       -0.022301719 -0.01337868 -0.0017356724 0.01579471
0001b0 f0 40 f1 3c 98 0a 9f 3d 64 5f 28 3d ea 2f ba 3d
       0.02944991 0.077656925 0.041106597 0.0909117
0001c0 40 14 25 bc a0 39 39 bd c0 9a 80 bb e6 a3 9e 3d
       -0.010075629 -0.04522097 -0.0039246976 0.07746105
0001d0 c8 2e a8 bd d8 a9 b8 bc 62 3f ea 3d 04 7c 98 3d
       -0.08212048 -0.022541925 0.114378706 0.07445529
0001e0 48 2b d7 3c e0 ba db 3c a8 23 55 3d 88 4e 4d bd
       0.026265755 0.026822507 0.052035958 -0.05012372
0001f0 52 e0 d7 bd a0 15 5c bc c0 c6 b2 bd b0 a4 cc bc
       -0.105408326 -0.01343289 -0.08729315 -0.024980873
000200 56 0e 9a bd 9e ad b9 bd ec e5 2f be eb 6b 9e 3c
       -0.075222656 -0.09066318 -0.17177552 0.019338569
000210 45 93 ea 3b c4 cd 08 be 17 62 5a be 31 41 a6 3c
       0.007158669 -0.13359743 -0.21326481 0.020294758
000220 33 2c 3e 3e 86 08 13 3e b9 15 c1 3c 27 00 68 3e
       0.18571548 0.1435872 0.023569928 0.22656308
000230 ce 20 f6 3c d8 2c f4 bd f4 75 29 3e 36 68 92 bd
       0.03004494 -0.11922616 0.16548902 -0.07148783
000240 d2 c8 ed 3c e0 1a bb 3d 07 3d 35 3e 44 b2 6b bd
       0.029026423 0.091359854 0.17699061 -0.057543054
000250 f4 35 e8 bd e3 8f b9 3d 74 26 18 bd 0b c9 0d be
       -0.11338416 0.09060647 -0.037146047 -0.13846223
000260 a4 35 cc 3b 36 17 3e 3e af 76 07 be 51 ac 80 3d
       0.0062319804 0.18563542 -0.13228868 0.06282867
000270 c3 42 32 3d 47 bc 85 bc e9 b9 23 3e 54 49 4b 3d
       0.0435207 -0.01632513 0.15988888 0.049630478
000280 7d e9 1a 3c ec 09 a2 bd eb 1b 97 3d f4 0a 3f 3e
       0.009455082 -0.07912049 0.07378372 0.18656522
000290 20 c2 31 3d 34 fa 28 bd 42 ee 3d 3e 93 7d ca 3d
       0.043398023 -0.041254237 0.1854792 0.09887233
0002a0 40 42 3b be d9 d8 30 bd bc 00 1b bd 28 da 2d be
       -0.18286991 -0.043175552 -0.037842497 -0.16977751
0002b0 80 4d 55 bd 88 cc 30 be 6d 55 0f bd d6 53 38 be
       -0.052075863 -0.17265522 -0.034993578 -0.18000731
0002c0 99 16 2d be 51 2b a9 bc 18 72 49 3e fc a2 7c 3d
       -0.16903152 -0.020650538 0.1967243 0.06167887
0002d0 31 94 30 3d 29 72 41 3d 6c 2d 82 bb 9c cd d8 bb
       0.043110076 0.047228012 -0.0039727 -0.0066163074
0002e0 74 7e cc 3b ef aa 9f bc cf 1c 18 bc d1 4a 0a 3e
       0.0062406603 -0.019490687 -0.009284212 0.13505103
0002f0 f0 c4 df bd cb f5 49 3e 64 4b 7d bc 7b 21 4e 3d
       -0.10926235 0.19722669 -0.015459869 0.0503249
000300 45 88 9d 3c eb f9 7a 3e 1d c6 52 3e 3f 24 ee 3d
       0.019230017 0.24509399 0.20583387 0.11628007
000310 e1 5e 20 bd ad e5 51 3e f3 62 84 3e 66 20 fd 3d
       -0.039152984 0.2049777 0.25856742 0.12359695
000320 14 b3 0b 3d 45 16 0b 3e 9b c9 cd 3d 49 bc 1a 3e
       0.03410633 0.13582714 0.10048219 0.15110888
000330 ae 53 92 3d 24 fb 7e 3c 6c 0f 7e 3e a1 92 2b bd
       0.07144867 0.015562806 0.2481057 -0.041887883
000340 18 bc 08 3e 14 93 27 3e fe a5 7c 3e 08 39 c2 3d
       0.13353002 0.163647 0.24672696 0.09483534
000350 48 c0 89 3d 15 41 03 3e 89 2b f1 bd 7e f6 ac 3d
       0.06726128 0.12817796 -0.11775882 0.08445452
000360 68 c0 6a bc a2 ff 36 3e a9 c2 5e 3e 5a aa 6c 3c
       -0.0143281 0.17870954 0.21753944 0.014444912
000370 d4 d9 1a 3e e1 82 82 3e 5a ac 27 3e 72 2b bc 3d
       0.15122157 0.25490478 0.1637434 0.09187974
000380 4d 7f d1 3c 29 7a 18 be 79 61 89 3c 7b 80 42 3e
       0.025573397 -0.1489035 0.016770111 0.18994324
000390 54 98 8a bd b3 e6 f5 3c d0 2d 07 3e 18 eb 7c 3e
       -0.067673355 0.030017233 0.1320107 0.24699056
0003a0 5e e0 53 3e 2c 13 df bc da 77 46 bd 03 a8 52 3e
       0.20691058 -0.027230822 -0.048454143 0.20571904
0003b0 2a ce a4 bd 5e 0c 45 3e 2f 1a 09 3e 98 3a 86 3e
       -0.08047135 0.19242999 0.13388894 0.26216578
0003c0 79 0e 53 3e a6 69 e4 bd b4 f3 56 3e 27 9e a6 3c
       0.2061099 -0.11152963 0.20991403 0.020339085
0003d0 1e aa 8a 3d 69 2c 2f 3e 49 82 4f 3e 56 1f cd 3d
       0.067707285 0.17106785 0.20264544 0.100157425
0003e0 5a 16 48 3e 28 1b 40 3e f3 64 ac 3d 99 69 7f 3e
       0.19539776 0.1876036 0.08417692 0.24942626
0003f0 a3 f7 36 3d 04 f4 86 3e 04 aa 36 bd 75 a2 d3 3d
       0.04466976 0.26358044 -0.044595733 0.103337206

lstm.bias_hh_l0 f4 [256]
000000 31 5e 47 3e ac c7 ee 3d fd 5e 6d 3e bc 96 5d 3e
       0.19469525 0.11659178 0.23180766 0.21639532
000010 49 8a f8 bd 6c 64 32 3e dc 49 73 3d 4b c9 1e 3e
       -0.12135751 0.1742112 0.05939661 0.15506475
000020 ad f6 10 3e c5 b8 68 bd 6e 22 03 3e 45 dd 1a 3e
       0.141566 -0.056816835 0.12806103 0.1512347
000030 a2 01 4b 3e 94 7c 7a 3d 90 17 71 3e 25 27 24 3e
       0.19824842 0.061153963 0.23544145 0.16030557
000040 c1 7b 81 3d 77 76 14 3e ba bd 85 3e 03 61 88 3c
       0.06322432 0.14498316 0.26121312 0.016647821
000050 e2 f4 ae 3c 8e 14 b0 bc 2a b4 71 3d 5b bc 15 3e
       0.021357004 -0.021494176 0.05900971 0.14622633
000060 54 a1 38 3c 00 d1 63 3e c2 66 ad 3d d4 69 51 3d
       0.011268932 0.22247696 0.08466865 0.051126316
000070 d6 e5 72 3d fe 82 d5 3d ca 3a 60 3e ff 8a 63 3c
       0.05930122 0.104253754 0.21897426 0.01388812
000080 03 83 8e 3d 3f e2 be bd a2 8c 46 3e bd 0b 4b 3e
       0.06958582 -0.09320497 0.19389585 0.19828697
000090 2c 82 c0 bd 95 10 d3 3c 9a ad c3 3d 37 64 e0 3d
       -0.09399828 0.025764743 0.09554596 0.109566145
0000a0 67 d7 86 3e 65 62 a7 3d 01 23 16 3e 92 6c aa 3d
       0.26336214 0.08173064 0.1466179 0.083214894
0000b0 68 78 c3 bd fd f6 27 3e a1 b7 35 3d 64 8c 75 3e
       -0.0954445 0.16402812 0.044364575 0.23979336
0000c0 be 47 d5 3d 1e de 78 ba db d6 c0 3d 6c d7 5b 3e
       0.10414074 -0.0009493547 0.094159804 0.21468896
0000d0 81 b4 78 3e c1 b5 e5 3c aa 18 90 3d 66 7a 84 3d
       0.24287607 0.028040769 0.07035954 0.06468658
0000e0 30 72 1a 3e 1a 49 29 3e f0 76 de bd d3 91 c5 3d
       0.15082622 0.16531792 -0.10862529 0.096469544
0000f0 2a c7 92 3d 69 3c 2f 3e cd 9d e5 bb 1f a5 fd 3d
       0.07166894 0.17112888 -0.0070073367 0.1238501
000100 c0 f1 88 bc 06 b2 95 3d 14 4f e3 3d 40 12 e2 3b
       -0.016716838 0.07309346 0.11099067 0.006899148
000110 2c ee d8 3d a4 8c 89 3d 3e 42 e2 3d e8 db 11 3d
       0.10592303 0.06716278 0.11047791 0.03561011
000120 60 2b 2e bd f6 8b c6 3d 6e 87 a1 bd 22 9d cb bd
       -0.042521834 0.09694664 -0.07887159 -0.0994208
000130 ec ec 40 3d a2 9f 90 3d b0 4e d0 3d 80 5e de bc
       0.047100946 0.070616975 0.101712584 -0.02714467
000140 cc 90 80 3d b0 eb 5f bc 4e 12 a4 3d cc 50 c7 3d
       0.06277618 -0.013667032 0.08011304 0.09732208
000150 d8 7a ee 3d a0 22 fc bb c4 a5 8f 3d 62 10 9c bd
       0.11644524 -0.0076945573 0.07014039 -0.07620312
000160 cc 25 d7 bd 80 3b b3 ba a0 c5 07 3c f6 5f ad 3d
       -0.10505256 -0.0013674349 0.008286864 0.08465569
000170 fc d4 57 3d 2c 2e fa bd 6a b9 ab 3d 92 49 e5 bd
       0.052693352 -0.12215838 0.08384974 -0.11195673
000180 f4 b3 47 bd 08 0e e4 bd d8 bd c1 bc 1e e3 b8 bd
       -0.0487556 -0.11135489 -0.023650095 -0.09027694
000190 a8 4a de bd 80 92 1f 3c c4 cf b2 bd fe d9 c8 bd
       -0.10854083 0.009739518 -0.087310344 -0.09807204
0001a0 d4 16 32 bd b0 84 de bd 80 b9 fe bb 54 d9 b8 3d
       -0.0434788 -0.10865152 -0.007773578 0.09025827
0001b0 50 ca 65 3d e0 bb e3 bb 40 db 07 bb d6 b0 a2 3d
       0.056101143 -0.0069498867 -0.0020730048 0.07943885
0001c0 a8 4e fb 3d 60 3a 54 3d c0 22 f2 bc e2 16 8c bd
       0.12270862 0.051813483 -0.029557586 -0.06840302
0001d0 a0 ef 3c bd 78 a5 52 3d 1c 7f d8 3d 3e f8 80 bd
       -0.04612696 0.051427335 0.10571119 -0.062973484
0001e0 aa dc ba 3d 04 83 2c 3d 10 de e5 bd 80 52 b0 bd
       0.091241196 0.042117134 -0.11223996 -0.086094856
0001f0 68 e0 db 3c 40 9f a0 bb e2 de e3 3d 6c 7f 5f 3d
       0.026840404 -0.0049017966 0.11126496 0.05456488
000200 d3 cf 1f be b3 42 1d be 3e a5 dd 3c 91 f5 0d 3e
       -0.15606622 -0.15357475 0.027056333 0.13863207
000210 2f 80 a0 bd 57 47 42 bd 93 62 c1 bd c8 6f 89 bd
       -0.07836949 -0.047431316 -0.0944263 -0.06710774
000220 ad d9 05 3e fb 56 37 3d 55 04 23 3e b7 1e 6a 3e
       0.13071318 0.044760685 0.15919621 0.2286328
000230 97 76 4b be 0f 3f c1 bc 23 2a 95 3d 09 8c 02 be
       -0.19869457 -0.023589639 0.072834276 -0.12748732
000240 8c b4 7c 3c e6 39 b9 3d a6 07 2e 3e 43 bd fc 3c
       0.015423905 0.090442464 0.16995105 0.030851966
000250 dd 23 9a bc da ed 6e bc 1a 61 28 3d 44 00 21 bd
       -0.01881593 -0.014583075 0.04110823 -0.039306894
000260 59 aa bd bd d6 3c 58 3e b6 00 a4 bc 60 29 87 bd
       -0.09261007 0.21116957 -0.02001987 -0.065996885
000270 db b4 3e 3e 9c 18 0d be 2e 7a 18 3d 9f 1d 0b bd
       0.18623678 -0.13778919 0.037225895 -0.033963796
000280 9e 5a ae bd 37 0a b3 3d cc 09 46 bd a5 80 14 bd
       -0.085133776 0.08742183 -0.048349187 -0.036255497
000290 9f 4a 89 3d 3e fb 8b 3c 10 03 e2 bc 00 d7 42 bb
       0.06703686 0.017087575 -0.027589351 -0.00297302
0002a0 30 60 a5 3c ec e6 d3 bc 81 23 d8 bb fe 77 3c be
       0.020187467 -0.025866948 -0.0065960293 -0.18405148
0002b0 26 30 01 3d 84 58 3e be 4a bc 26 3c e8 75 ff bd
       0.03154006 -0.18588454 0.010176728 -0.12473661
0002c0 2f e1 ee bb 14 75 84 3d 39 58 1b 3d 74 7c c7 3c
       -0.0072900276 0.064676434 0.037925933 0.024351336
0002d0 8f b4 17 3e 1a 99 54 3e ee a9 4a 3e 76 9c 55 be
       0.14814971 0.20761529 0.19791386 -0.20860466
0002e0 ae 74 3a be a1 9b 01 3e 8b 53 20 3d bc a0 b0 3d
       -0.18208572 0.12657024 0.039142173 0.08624408
0002f0 f1 67 3c bb 7b 9f c4 3c 64 1c cc 3c 3b 72 81 3d
       -0.0028748477 0.024001827 0.024915881 0.06320616
000300 e1 d8 f5 3d 98 8f 63 3e 96 85 4a 3d 25 2f 1e 3e
       0.12004257 0.22222745 0.049443804 0.15447672
000310 e3 0b b6 3d c6 96 50 3d 81 d9 46 3e d6 80 93 3d
       0.08888986 0.05092504 0.19418909 0.07202308
000320 b4 0e 94 3d d5 4d d8 bc 82 39 e5 3d 9e b6 27 3d
       0.07229367 -0.0264043 0.11192609 0.04094564
000330 13 0d 3f 3e bc dc 18 3d 79 0a 8c 3e 14 93 f5 3c
       0.18657331 0.037319884 0.2735174 0.029977359
000340 af 5f ab 3c e7 42 ac 3d 82 58 2b 3d 31 50 01 be
       0.020919649 0.08411198 0.041832455 -0.12628247
000350 e6 76 05 3d 48 7b 21 bd d7 2a 3d 3d 5a ad 66 3d
       0.032584094 -0.03942421 0.046183433 0.056317665
000360 71 4f 09 3d 10 63 22 3e 4c 4a 76 3e 7c 31 ed 3d
       0.033523027 0.15858102 0.2405178 0.11581704
000370 67 9f 91 3e 75 74 19 3e 7f 85 bd 3d b3 19 2f bd
       0.28441927 0.14985831 0.09253978 -0.042749118
000380 e9 fe 69 3c 5d a9 0d be 97 b9 2d 3e 98 4c 95 3d
       0.014281967 -0.13834138 0.16965328 0.0729
000390 e6 56 6b 3d fe b5 18 be 64 c1 92 3d 3e 36 56 3e
       0.05745592 -0.14913175 0.071657926 0.20919129
0003a0 2e d0 83 3d 33 51 c3 3d 2e d6 73 3a a9 f9 60 3e
       0.064361915 0.09536972 0.00093016296 0.21970238
0003b0 cf 19 6b bd e1 d1 4e 3e a8 2b e6 3d af 4e d8 3d
       -0.05739766 0.2019725 0.112387955 0.10561883
0003c0 de 8e 2e 3e 54 92 ec bd a3 43 45 3e 5a c2 f8 3c
       0.17046687 -0.115513474 0.19264083 0.030366112
0003d0 40 e3 74 3e 4c 68 43 3d 58 71 a7 3d d7 10 37 3e
       0.23914814 0.047706887 0.081759155 0.17877518
0003e0 bb ee 6f 3e a6 af 48 3e 46 76 d6 bd d3 89 8e 3e
       0.23430912 0.19598255 -0.104717776 0.27839527
0003f0 b0 99 ee 3c 3f 5d 8e 3d 18 c5 ea 3d 75 de ba b8
       0.029126018 0.06951379 0.11463374 -8.910607e-05

fc.weight f4 [1, 64]
000000 97 b6 30 3e 56 e6 82 3e e5 bf 64 3e ee de 3e be
       0.17257152 0.25566357 0.22338827 -0.18639728
000010 25 bc ba 3d b9 4e 5b 3e bd aa 27 3e 2c 85 38 3e
       0.09117917 0.21416749 0.16373725 0.18019551
000020 db 03 59 be a7 0d dd bd 33 89 62 be 06 a4 02 be
       -0.21192877 -0.107936196 -0.2212265 -0.12757882
000030 6a 11 94 3e ac 33 1f 3e 4c e4 4b be 1d 85 44 3e
       0.28919536 0.15547055 -0.19911307 0.19191404
000040 23 e8 12 3e ec 56 51 be fd 3d 4d be a9 a6 03 be
       0.14346366 -0.20443314 -0.20043178 -0.12856545
000050 79 86 50 3e 50 0b 49 be c5 8d 3e bd e3 99 2f 3e
       0.20363797 -0.19633222 -0.04652192 0.17148547
000060 73 66 62 3e ab a1 42 be 46 1a 4d 3e a9 51 fb 3d
       0.22109394 -0.19006984 0.20029554 0.12271435
000070 8e b6 23 be 14 d5 5c 3e ae 30 26 be 2b 41 f9 bd
       -0.15987608 0.21565658 -0.16229507 -0.12170633
000080 03 4b 26 3e 2d 99 9d bc d1 1b 0a be f5 b4 63 be
       0.16239552 -0.019238079 -0.13487174 -0.22236998
000090 80 66 fd 3c 82 c1 5d bd e4 35 4d be 59 c5 13 be
       0.030932665 -0.05413962 -0.20040089 -0.14430751
0000a0 fb 6a 8a 3e 1d e0 08 3e c9 52 05 be ca d5 33 3e
       0.27034745 0.13366742 -0.13019861 0.17562023
0000b0 4b 46 3b 3d f9 49 2e 3e 8c 62 2f be 2c 82 5c 3e
       0.045721333 0.17020406 -0.17127436 0.21534032
0000c0 66 af 6e 3e 78 42 ee 3c ea 56 2d be ef 24 1b be
       0.23309097 0.02908443 -0.16927686 -0.15150808
0000d0 72 db 86 be b1 a0 0f be 7a 8d 65 be ce cf 05 3e
       -0.26339298 -0.14026143 -0.2241725 0.13067552
0000e0 b3 1a 81 3e a7 91 58 be 93 9f 15 bd be 6e 68 be
       0.25215682 -0.21149312 -0.036529135 -0.22698495
0000f0 71 c2 c5 3d c4 28 2d be 42 63 1e be 20 a0 31 be
       0.096562274 -0.16910082 -0.15467551 -0.17346239

exp_avg f4 [256, 5]
000000 a2 8b d9 b9 a2 8b d9 39 bd 00 42 ba 9f 11 a2 b9
       -0.000414935 0.000414935 -0.00074006227 -0.00030912177
000010 51 c0 e4 39 64 37 d0 3a 64 37 d0 ba b2 12 35 3a
       0.00043630836 0.0015885648 -0.0015885648 0.0006907388
000020 52 51 4b 39 ac 71 43 ba 3b f7 ee 39 3b f7 ee b9
       0.00019389883 -0.0007455598 0.00045579099 -0.00045579099
000030 6e e4 68 3a bf 27 99 ba a2 d3 73 3a 35 fa 59 ba
       0.00088841363 -0.0011684819 0.000930125 -0.0008315177
000040 35 fa 59 3a b4 77 26 ba 00 23 1b b8 9b ff ac 39
       0.0008315177 -0.00063502346 -3.6987476e-05 0.00032996837
000050 b7 11 13 3a b7 11 13 ba 8d 5f a5 39 99 11 0f b9
       0.00056102447 -0.00056102447 0.00031542443 -0.00013644098
000060 4f 8e 96 b8 76 ce 91 3a 76 ce 91 ba a0 c9 85 3a
       -7.1790644e-05 0.0011124152 -0.0011124152 0.0010207184
000070 63 0e cf b9 b2 e8 da b7 58 15 30 3a 58 15 30 ba
       -0.00039492836 -2.6095982e-05 0.00067170477 -0.00067170477
000080 51 df a3 38 07 95 c1 b8 11 c2 1f b9 09 f6 cc 39
       7.8140416e-05 -9.230716e-05 -0.00015235717 0.00039093223
000090 09 f6 cc b9 f1 69 4f 3a 58 ac 71 ba 2e 75 3d 3a
       -0.00039093223 0.000791221 -0.00092191016 0.0007227239
0000a0 df f9 7e ba df f9 7e 3a 0a 48 d5 ba 5d cd 90 b9
       -0.0009726565 0.0009726565 -0.001627208 -0.00027618828
0000b0 18 3f 1e 3a 4a b2 25 3a 4a b2 25 ba 53 f3 d4 38
       0.00060366234 0.00063208176 -0.00063208176 0.000101542704
0000c0 0b 0f 11 b9 84 c6 c7 b8 9a dd 3f b9 9a dd 3f 39
       -0.00013833882 -9.526036e-05 -0.00018297732 0.00018297732
0000d0 a5 e8 04 ba 86 63 f4 b9 d0 3d 03 3a 0f e1 53 39
       -0.0005070067 -0.00046613457 0.0005006464 0.00020206369
0000e0 0f e1 53 b9 00 10 28 ba 3e 88 b9 37 14 e4 c1 b8
       -0.00020206369 -0.00064110756 2.2117161e-05 -9.24544e-05
0000f0 e5 50 e2 3a e5 50 e2 ba ae 8c a9 3a 06 53 8d ba
       0.001726654 -0.001726654 0.0012935603 -0.0010782189
000100 43 b8 ce 39 9e 86 29 ba 9e 86 29 3a 08 f8 47 ba
       0.00039428668 -0.0006466898 0.0006466898 -0.0007628207
000110 20 c8 0c b9 67 3c ba 39 70 6d 8b b9 70 6d 8b 39
       -0.00013425993 0.00035521688 -0.00026593683 0.00026593683
000120 f2 01 1e ba f0 c1 89 b9 4f 47 b2 39 5d 62 05 ba
       -0.00060275116 -0.0002627517 0.00034003935 -0.00050882046
000130 5d 62 05 3a 5e b8 6d ba 6a 6a a5 b9 aa 5d f9 39
       0.00050882046 -0.00090683054 -0.00031550537 0.00047562766
000140 4b a3 31 3a 4b a3 31 ba 09 6b 87 3a 3f 5d 47 39
       0.00067763467 -0.00067763467 0.0010331582 0.00019012856
000150 f4 5f db b9 f1 aa e8 3a f1 aa e8 ba 56 e4 9d 3a
       -0.00041842426 0.001775114 -0.001775114 0.0012046199
000160 7d 2f d5 b8 51 68 0c ba 9c 63 5e b9 9c 63 5e 39
       -0.00010165477 -0.00053561205 -0.00021208677 0.00021208677
000170 d7 14 6e ba ab 5b 2e b8 5c 7c ef 38 dc 89 0c ba
       -0.0009082085 -4.1570205e-05 0.00011419572 -0.0005361119
000180 dc 89 0c 3a 19 8c 03 b9 05 aa bf b9 81 7d 0b 3a
       0.0005361119 -0.00012545324 -0.00036557033 0.0005321131
000190 98 98 b6 3a 98 98 b6 ba 5c db 5f 3a 32 80 9f 39
       0.0013930975 -0.0013930975 0.0008539462 0.00030422356
0001a0 0b 45 4c ba 0f ce a0 ba 0f ce a0 3a af 54 8a ba
       -0.00077922706 -0.0012268441 0.0012268441 -0.0010553802
0001b0 9b 2e f4 b9 a0 5b 64 3a 14 1f 8b 39 14 1f 8b b9
       -0.0004657403 0.0008711163 0.000265353 -0.000265353
0001c0 f6 6e 91 39 8e a0 18 b9 4e 2f 2f 38 7b 99 6d 3a
       0.00027739228 -0.00014555661 4.1767307e-05 0.0009063703
0001d0 7b 99 6d ba 6d 77 a6 39 57 bc 5c b9 34 56 03 b9
       -0.0009063703 0.00031750966 -0.00021050997 -0.00012525247
0001e0 e1 95 b8 3a e1 95 b8 ba b5 d1 a3 3a 63 a9 49 ba
       0.0014082753 -0.0014082753 0.0012498411 -0.0007692782
0001f0 36 48 65 39 16 e2 38 3a 16 e2 38 ba bc f1 cd b9
       0.00021866043 0.00070527324 -0.00070527324 -0.00039280753
000200 ed 98 e5 b9 49 6f 26 39 05 a8 b9 ba 05 a8 b9 3a
       -0.00043792222 0.0001587245 -0.0014164454 0.0014164454
000210 5a 6a 6c ba 68 22 13 b9 b6 49 26 3a 81 9d 45 b9
       -0.0009018533 -0.0001403183 0.0006343381 -0.00018846059
000220 81 9d 45 39 5d d5 de 38 50 6e 7d b8 bd 6a 01 39
       0.00018846059 0.00010625527 -6.0422637e-05 0.00012342162
000230 00 7f 10 ba 00 7f 10 3a 82 50 4d ba 42 5c 89 b8
       -0.00055120885 0.00055120885 -0.0007832126 -6.5498534e-05
000240 72 c2 86 39 61 be 2c 3a 61 be 2c ba da be 57 39
       0.00025703345 0.0006589648 -0.0006589648 0.00020575096
000250 4b a1 ea 38 71 8e b1 b9 51 c1 03 3a 51 c1 03 ba
       0.00011188033 -0.00033866198 0.000502606 -0.000502606
000260 02 f0 0b 3a 36 70 30 ba 2d 2e ec 39 a3 ff b5 b9
       0.0005338193 -0.0006730588 0.0004504783 -0.00034713474
000270 a3 ff b5 39 b6 9c 1b b8 65 39 bf 39 8b 1e 64 b9
       0.00034713474 -3.710083e-05 0.0003647312 -0.00021755153
000280 a4 97 2b 3a a4 97 2b ba 91 5b 41 3a f8 5b 2f b8
       0.00065457285 -0.00065457285 0.000737601 -4.1808904e-05
000290 1b dd 4a b9 fc 44 2f b8 fc 44 2f 38 31 e0 fc b7
       -0.0001934659 -4.1787498e-05 4.1787498e-05 -3.0145138e-05
0002a0 37 b4 b3 b7 5a 3d 12 38 ef 5c a4 3a ef 5c a4 ba
       -2.1422382e-05 3.486625e-05 0.0012539903 -0.0012539903
0002b0 20 4c b6 3a 0c 94 27 ba f5 56 1f 39 9f 89 9a ba
       0.0013908185 -0.0006392605 0.00015195816 -0.0011790282
0002c0 9f 89 9a 3a 69 d5 7c ba a7 e6 58 b9 80 7a 20 3a
       0.0011790282 -0.00096448377 -0.0002068529 0.00061217695
0002d0 c2 8d cf 38 c2 8d cf b8 14 75 60 39 58 31 0d b9
       9.8969336e-05 -9.8969336e-05 0.0002140592 -0.0001346519
0002e0 db 2d be 38 16 f4 c3 39 16 f4 c3 b9 d7 2b 9f 39
       9.068447e-05 0.00037375157 -0.00037375157 0.00030359506
0002f0 64 28 2f 37 3b 75 15 b9 7e e9 b9 3a 7e e9 b9 ba
       1.0440217e-05 -0.00014253419 0.0014183966 -0.0014183966
000300 57 a9 7c 3a e1 f0 a1 37 62 d2 08 ba 72 d9 51 3a
       0.0009638271 1.9304864e-05 -0.0005219338 0.0008005119
000310 72 d9 51 ba 8c fd 72 3a 20 db 84 b9 02 7a 47 b8
       -0.0008005119 0.0009269349 -0.00025340263 -4.7558926e-05
000320 63 59 7d 3a 63 59 7d ba bb 75 06 3a be e2 04 3a
       0.0009664504 -0.0009664504 0.00051292375 0.00050691876
000330 50 32 56 ba 81 78 e2 b9 81 78 e2 39 19 12 2f 35
       -0.00081709493 -0.00043195862 0.00043195862 6.5218916e-07
000340 84 39 15 ba cf b0 33 3a 5d 37 3e b8 5d 37 3e 38
       -0.00056924694 0.00068546546 -4.535109e-05 4.535109e-05
000350 7b ae 1d 3a e7 59 a6 b9 98 ea a3 39 ae c1 bd b9
       0.00060150743 -0.0003172897 0.0003126457 -0.00036193192
000360 ae c1 bd 39 67 a3 b8 ba f4 c9 99 38 50 d6 7b 38
       0.00036193192 -0.0014086784 7.333225e-05 6.0042657e-05
000370 97 ee 4a 39 97 ee 4a b9 9a 43 5c 39 75 91 28 b9
       0.00019353103 -0.00019353103 0.00021006019 -0.00016075915
000380 df e5 aa 38 e9 30 f4 39 e9 30 f4 b9 6f 57 de b9
       8.1490485e-05 0.00046575748 -0.00046575748 -0.00042408283
000390 7d a3 09 b9 84 75 33 b8 8b 20 45 3a 8b 20 45 ba
       -0.00013126242 -4.278637e-05 0.0007519803 -0.0007519803
0003a0 ae 48 d4 3a ad 0b 86 ba 25 86 34 3a 54 69 1d ba
       0.0016195977 -0.0010226868 0.0006886444 -0.000600477
0003b0 54 69 1d 3a ce 41 8d ba a5 b5 81 b9 25 11 e9 39
       0.000600477 -0.0010777058 -0.00024740133 0.00044453997
0003c0 2a eb 28 ba 2a eb 28 3a c6 b3 59 ba b0 d8 8c b9
       -0.00064437336 0.00064437336 -0.00083046814 -0.00026864326
0003d0 ba a6 fb 39 44 bc e0 b8 44 bc e0 38 6c e6 77 b8
       0.00047998672 -0.000107162195 0.000107162195 -5.9103986e-05
0003e0 1e dd 7c 38 f2 4a 99 b7 31 b1 49 3a 31 b1 49 ba
       6.0287413e-05 -1.827392e-05 0.0007693945 -0.0007693945
0003f0 72 cb aa 38 7b 16 da 39 1f 90 2d ba 9c c3 24 3a
       8.144126e-05 0.0004159695 -0.0006620902 0.00062852516

exp_avg_sq f4 [256, 5]
000000 dc f6 13 32 dc f6 13 32 51 88 2f 33 dd 4d 99 32
       8.6126555e-09 8.6126555e-09 4.086934e-08 1.7846952e-08
000010 05 52 c1 32 78 0a f8 34 78 0a f8 34 34 2a 4e 34
       2.2505455e-08 4.6201217e-07 4.6201217e-07 1.9200598e-07
000020 f5 97 8c 33 07 5d c8 33 10 7d bb 33 10 7d bb 33
       6.546899e-08 9.330147e-08 8.730615e-08 8.730615e-08
000030 2e e2 ce 34 da cb e2 34 57 ea 94 34 b7 2d 87 33
       3.8535057e-07 4.2244102e-07 2.7737653e-07 6.294743e-08
000040 b7 2d 87 33 60 4e 0c 34 79 86 26 33 ee ab 37 33
       6.294743e-08 1.3067029e-07 3.877219e-08 4.2764377e-08
000050 93 a2 df 32 93 a2 df 32 03 55 ab 32 ef 20 a4 31
       2.6034547e-08 2.6034547e-08 1.9945679e-08 4.7767723e-09
000060 87 68 8e 31 e0 58 80 34 e0 58 80 34 4d e6 e5 34
       4.1446273e-09 2.3906523e-07 2.3906523e-07 4.282214e-07
000070 55 ca 6e 34 37 46 b3 33 6f ec 80 33 6f ec 80 33
       2.2239085e-07 8.348109e-08 6.0034715e-08 6.0034715e-08
000080 ad 62 73 33 9c e4 00 33 e1 05 32 32 6b 2b 32 33
       5.666759e-08 3.001024e-08 1.03623e-08 4.1483343e-08
000090 6b 2b 32 33 4e d5 36 34 12 32 30 34 df f5 d0 33
       4.1483343e-08 1.702767e-07 1.6409493e-07 9.7304785e-08
0000a0 13 c4 25 34 13 c4 25 34 45 e5 b2 34 29 20 98 33
       1.5438154e-07 1.5438154e-07 3.33219e-07 7.0839015e-08
0000b0 60 38 14 34 cd 5c 27 33 cd 5c 27 33 69 d1 fe 32
       1.3804083e-07 3.896712e-08 3.896712e-08 2.966472e-08
0000c0 e8 c6 47 32 33 1c 16 32 a7 ea a3 31 a7 ea a3 31
       1.1628551e-08 8.737561e-09 4.7706012e-09 4.7706012e-09
0000d0 ee e1 2f 33 e5 dd 07 33 4e 5b e2 32 ad 53 b1 31
       4.0950844e-08 3.163395e-08 2.6351383e-08 5.160891e-09
0000e0 ad 53 b1 31 9b 67 c5 32 f3 49 04 31 05 dd 52 30
       5.160891e-09 2.2980933e-08 1.9250563e-09 7.671164e-10
0000f0 06 71 b9 34 06 71 b9 34 ee d7 68 34 c6 8c 45 34
       3.454117e-07 3.454117e-07 2.1685238e-07 1.8398268e-07
000100 7b 96 45 33 03 9c f2 32 03 9c f2 32 73 cf 15 33
       4.6004498e-08 2.8243454e-08 2.8243454e-08 3.488044e-08
000110 9d 6d 87 31 1d 6d 38 32 bf ed dd 31 bf ed dd 31
       3.9414787e-09 1.0735019e-08 6.458975e-09 6.458975e-09
000120 62 eb 88 33 30 30 27 33 65 eb 11 33 50 65 33 33
       6.3758094e-08 3.8926544e-08 3.3974533e-08 4.176883e-08
000130 50 65 33 33 67 fd ce 33 53 8b dd 32 16 fe 2a 33
       4.176883e-08 9.638716e-08 2.5791143e-08 3.98123e-08
000140 54 85 da 33 54 85 da 33 c3 83 96 34 4f 52 cd 33
       1.0175668e-07 1.0175668e-07 2.8035547e-07 9.561028e-08
000150 2a 7c af 33 82 af cd 34 82 af cd 34 e3 fe 31 34
       8.171658e-08 3.8311924e-07 3.8311924e-07 1.6577137e-07
000160 2f 42 11 33 8b 20 27 33 14 62 0b 32 14 62 0b 32
       3.3820637e-08 3.8912315e-08 8.113165e-09 8.113165e-09
000170 ba b8 17 34 9b d3 3f 33 91 e6 1c 33 d2 15 53 33
       1.4130174e-07 4.4663107e-08 3.653128e-08 4.914711e-08
000180 d2 15 53 33 ec 1e 5a 33 0f 37 14 33 c9 f0 36 33
       4.914711e-08 5.0785204e-08 3.450901e-08 4.259417e-08
000190 fb 13 57 34 fb 13 57 34 fe e5 99 33 5f f2 a8 32
       2.0030704e-07 2.0030704e-07 7.166453e-08 1.9667992e-08
0001a0 2f 0f 99 33 00 50 08 34 00 50 08 34 aa 40 be 33
       7.1273796e-08 1.2695091e-07 1.2695091e-07 8.859327e-08
0001b0 d9 f3 2a 33 57 f8 c1 33 48 3a 85 31 48 3a 85 31
       3.9802988e-08 9.0324356e-08 3.8774353e-09 3.8774353e-09
0001c0 76 68 94 31 a6 3a e8 30 b5 46 c1 2f a7 18 af 33
       4.3192427e-09 1.689689e-09 3.5156736e-10 8.153557e-08
0001d0 a7 18 af 33 96 c4 c2 32 d4 b7 09 32 7c 49 60 32
       8.153557e-08 2.267397e-08 8.016247e-09 1.30552245e-08
0001e0 dc 07 26 34 dc 07 26 34 94 ad 0c 34 2f 0b b7 33
       1.5462814e-07 1.5462814e-07 1.3101663e-07 8.523636e-08
0001f0 7b ad b6 32 01 23 4b 33 01 23 4b 33 4c eb 2b 33
       2.1266478e-08 4.7296457e-08 4.7296457e-08 4.002804e-08
000200 8d 63 af 33 c1 2c 2f 33 fd 9f 62 34 fd 9f 62 34
       8.167181e-08 4.0786066e-08 2.1106094e-07 2.1106094e-07
000210 2c 3c 72 34 fa b9 ad 33 5b 78 14 34 75 ee 32 32
       2.2559897e-07 8.089769e-08 1.3827359e-07 1.04151825e-08
000220 75 ee 32 32 79 93 35 33 19 82 a1 32 c7 9a 35 32
       1.04151825e-08 4.2276472e-08 1.8802028e-08 1.0570779e-08
000230 cd e4 3a 32 cd e4 3a 32 8a 94 4f 33 cf 77 31 32
       1.0878648e-08 1.0878648e-08 4.833104e-08 1.0329997e-08
000240 75 3a 44 32 14 d4 18 33 14 d4 18 33 44 c7 63 33
       1.1421993e-08 3.558314e-08 3.558314e-08 5.3033787e-08
000250 5e eb d5 32 1e 93 8a 32 f9 56 10 33 f9 56 10 33
       2.4903496e-08 1.6132216e-08 3.3606714e-08 3.3606714e-08
000260 91 12 cf 33 3b 7d cb 33 67 12 5c 33 4c c6 ad 32
       9.642566e-08 9.4757034e-08 5.123948e-08 2.0230026e-08
000270 4c c6 ad 32 1b 34 9d 33 1b 18 02 33 ff d0 65 32
       2.0230026e-08 7.32036e-08 3.0289907e-08 1.3377075e-08
000280 af 62 59 33 af 62 59 33 66 2b 08 34 8f d7 4a 33
       5.0614002e-08 5.0614002e-08 1.2681775e-07 4.722784e-08
000290 f2 aa b4 32 88 a8 e6 31 88 a8 e6 31 03 08 49 31
       2.1032495e-08 6.713041e-09 6.713041e-09 2.9253904e-09
0002a0 4a c1 62 30 97 1f 94 30 11 5a 47 34 11 5a 47 34
       8.2493e-10 1.0777396e-09 1.8566085e-07 1.8566085e-07
0002b0 47 74 63 34 c8 cf b3 33 89 b7 bb 32 55 10 fb 33
       2.1183324e-07 8.373132e-08 2.1853127e-08 1.1691069e-07
0002c0 55 10 fb 33 b1 04 46 34 18 5c 81 33 23 2c bc 33
       1.1691069e-07 1.8441894e-07 6.0237824e-08 8.7624606e-08
0002d0 1d cc 53 31 1d cc 53 31 9f 4a c3 32 ac d6 00 32
       3.0820566e-09 3.0820566e-09 2.2734922e-08 7.499391e-09
0002e0 cd d2 81 31 6e 6a 08 33 6e 6a 08 33 9d 26 f0 32
       3.7783594e-09 3.1761765e-08 3.1761765e-08 2.7957237e-08
0002f0 38 a5 19 32 62 e2 b3 32 96 f3 2e 34 96 f3 2e 34
       8.9433385e-09 2.094129e-08 1.6293629e-07 1.6293629e-07
000300 15 fe bd 33 9e aa b5 32 5f c7 af 32 d9 b4 ab 33
       8.8472156e-08 2.1148761e-08 2.0463345e-08 7.995704e-08
000310 d9 b4 ab 33 f5 75 25 34 40 be 82 33 dd 40 cb 32
       7.995704e-08 1.5409735e-07 6.088203e-08 2.3661807e-08
000320 a6 c9 07 34 a6 c9 07 34 0c 7f f5 33 6b 0c 64 33
       1.2646214e-07 1.2646214e-07 1.1431811e-07 5.309668e-08
000330 79 31 86 33 a7 2d 1c 33 a7 2d 1c 33 3a ce f1 33
       6.24886e-08 3.63631e-08 3.63631e-08 1.12599494e-07
000340 0c 88 c9 33 f8 c3 bd 33 ec 17 3c 33 ec 17 3c 33
       9.384539e-08 8.836645e-08 4.3793918e-08 4.3793918e-08
000350 7d 7e 84 34 b0 5f f2 33 1c a3 88 33 db e9 04 33
       2.4678948e-07 1.12864086e-07 6.362663e-08 3.0946335e-08
000360 db e9 04 33 58 c6 7f 34 58 ae 10 33 72 dd c9 32
       3.0946335e-08 2.3820883e-07 3.3686177e-08 2.3500181e-08
000370 78 14 34 31 78 14 34 31 5f 77 7d 31 5e 13 4e 31
       2.6205083e-09 2.6205083e-09 3.68842e-09 2.9987954e-09
000380 9a 69 99 30 ce a5 03 33 ce a5 03 33 8c 96 26 33
       1.1162229e-09 3.0651613e-08 3.0651613e-08 3.878681e-08
000390 52 f1 aa 32 b6 63 de 31 3f ef 3d 34 3f ef 3d 34
       1.9900344e-08 6.472386e-09 1.7689034e-07 1.7689034e-07
0003a0 07 2a 4f 35 4a 18 fd 34 a6 1f 86 34 3f 31 7f 33
       7.7174667e-07 4.7142595e-07 2.4982472e-07 5.9416603e-08
0003b0 3f 31 7f 33 36 ac 58 34 cd c8 e9 33 4f 56 1d 34
       5.9416603e-08 2.0179218e-07 1.08864334e-07 1.4653163e-07
0003c0 34 99 d3 32 34 99 d3 32 df 48 c1 33 32 99 15 33
       2.4633302e-08 2.4633302e-08 9.000518e-08 3.4831096e-08
0003d0 64 c8 22 33 7e 82 cf 31 7e 82 cf 31 36 d8 a1 30
       3.790082e-08 6.039328e-09 6.039328e-09 1.1775743e-09
0003e0 c6 86 53 31 10 c8 2e 30 af b0 76 33 af b0 76 33
       3.078115e-09 6.3585137e-10 5.743703e-08 5.743703e-08
0003f0 e0 70 47 32 30 60 80 32 c4 9e 0d 33 97 3a 2b 33
       1.1608989e-08 1.4944902e-08 3.2973517e-08 3.9867327e-08

exp_avg f4 [256, 64]
000000 00 00 00 00 00 00 00 00 00 00 00 00 00 00 00 00
       0.0 0.0 0.0 0.0
000010 00 00 00 00 00 00 00 00 00 00 00 00 00 00 00 00
       0.0 0.0 0.0 0.0
000020 00 00 00 00 00 00 00 00 00 00 00 00 00 00 00 00
       0.0 0.0 0.0 0.0
000030 00 00 00 00 00 00 00 00 00 00 00 00 00 00 00 00
       0.0 0.0 0.0 0.0
000040 00 00 00 00 00 00 00 00 00 00 00 00 00 00 00 00
       0.0 0.0 0.0 0.0
000050 00 00 00 00 00 00 00 00 00 00 00 00 00 00 00 00
       0.0 0.0 0.0 0.0
000060 00 00 00 00 00 00 00 00 00 00 00 00 00 00 00 00
       0.0 0.0 0.0 0.0
000070 00 00 00 00 00 00 00 00 00 00 00 00 00 00 00 00
       0.0 0.0 0.0 0.0
000080 00 00 00 00 00 00 00 00 00 00 00 00 00 00 00 00
       0.0 0.0 0.0 0.0
000090 00 00 00 00 00 00 00 00 00 00 00 00 00 00 00 00
       0.0 0.0 0.0 0.0
0000a0 00 00 00 00 00 00 00 00 00 00 00 00 00 00 00 00
       0.0 0.0 0.0 0.0
0000b0 00 00 00 00 00 00 00 00 00 00 00 00 00 00 00 00
       0.0 0.0 0.0 0.0
0000c0 00 00 00 00 00 00 00 00 00 00 00 00 00 00 00 00
       0.0 0.0 0.0 0.0
0000d0 00 00 00 00 00 00 00 00 00 00 00 00 00 00 00 00
       0.0 0.0 0.0 0.0
0000e0 00 00 00 00 00 00 00 00 00 00 00 00 00 00 00 00
       0.0 0.0 0.0 0.0
0000f0 00 00 00 00 00 00 00 00 00 00 00 00 00 00 00 00
       0.0 0.0 0.0 0.0
000100 00 00 00 00 00 00 00 00 00 00 00 00 00 00 00 00
       0.0 0.0 0.0 0.0
000110 00 00 00 00 00 00 00 00 00 00 00 00 00 00 00 00
       0.0 0.0 0.0 0.0
000120 00 00 00 00 00 00 00 00 00 00 00 00 00 00 00 00
       0.0 0.0 0.0 0.0
000130 00 00 00 00 00 00 00 00 00 00 00 00 00 00 00 00
       0.0 0.0 0.0 0.0
000140 00 00 00 00 00 00 00 00 00 00 00 00 00 00 00 00
       0.0 0.0 0.0 0.0
000150 00 00 00 00 00 00 00 00 00 00 00 00 00 00 00 00
       0.0 0.0 0.0 0.0
000160 00 00 00 00 00 00 00 00 00 00 00 00 00 00 00 00
       0.0 0.0 0.0 0.0
000170 00 00 00 00 00 00 00 00 00 00 00 00 00 00 00 00
       0.0 0.0 0.0 0.0
000180 00 00 00 00 00 00 00 00 00 00 00 00 00 00 00 00
       0.0 0.0 0.0 0.0
000190 00 00 00 00 00 00 00 00 00 00 00 00 00 00 00 00
       0.0 0.0 0.0 0.0
0001a0 00 00 00 00 00 00 00 00 00 00 00 00 00 00 00 00
       0.0 0.0 0.0 0.0
0001b0 00 00 00 00 00 00 00 00 00 00 00 00 00 00 00 00
       0.0 0.0 0.0 0.0
0001c0 00 00 00 00 00 00 00 00 00 00 00 00 00 00 00 00
       0.0 0.0 0.0 0.0
0001d0 00 00 00 00 00 00 00 00 00 00 00 00 00 00 00 00
       0.0 0.0 0.0 0.0
0001e0 00 00 00 00 00 00 00 00 00 00 00 00 00 00 00 00
       0.0 0.0 0.0 0.0
0001f0 00 00 00 00 00 00 00 00 00 00 00 00 00 00 00 00
       0.0 0.0 0.0 0.0
000200 00 00 00 00 00 00 00 00 00 00 00 00 00 00 00 00
       0.0 0.0 0.0 0.0
000210 00 00 00 00 00 00 00 00 00 00 00 00 00 00 00 00
       0.0 0.0 0.0 0.0
000220 00 00 00 00 00 00 00 00 00 00 00 00 00 00 00 00
       0.0 0.0 0.0 0.0
000230 00 00 00 00 00 00 00 00 00 00 00 00 00 00 00 00
       0.0 0.0 0.0 0.0
000240 00 00 00 00 00 00 00 00 00 00 00 00 00 00 00 00
       0.0 0.0 0.0 0.0
000250 00 00 00 00 00 00 00 00 00 00 00 00 00 00 00 00
       0.0 0.0 0.0 0.0
000260 00 00 00 00 00 00 00 00 00 00 00 00 00 00 00 00
       0.0 0.0 0.0 0.0
000270 00 00 00 00 00 00 00 00 00 00 00 00 00 00 00 00
       0.0 0.0 0.0 0.0
000280 00 00 00 00 00 00 00 00 00 00 00 00 00 00 00 00
       0.0 0.0 0.0 0.0
000290 00 00 00 00 00 00 00 00 00 00 00 00 00 00 00 00
       0.0 0.0 0.0 0.0
0002a0 00 00 00 00 00 00 00 00 00 00 00 00 00 00 00 00
       0.0 0.0 0.0 0.0
0002b0 00 00 00 00 00 00 00 00 00 00 00 00 00 00 00 00
       0.0 0.0 0.0 0.0
0002c0 00 00 00 00 00 00 00 00 00 00 00 00 00 00 00 00
       0.0 0.0 0.0 0.0
0002d0 00 00 00 00 00 00 00 00 00 00 00 00 00 00 00 00
       0.0 0.0 0.0 0.0
0002e0 00 00 00 00 00 00 00 00 00 00 00 00 00 00 00 00
       0.0 0.0 0.0 0.0
0002f0 00 00 00 00 00 00 00 00 00 00 00 00 00 00 00 00
       0.0 0.0 0.0 0.0
000300 00 00 00 00 00 00 00 00 00 00 00 00 00 00 00 00
       0.0 0.0 0.0 0.0
000310 00 00 00 00 00 00 00 00 00 00 00 00 00 00 00 00
       0.0 0.0 0.0 0.0
000320 00 00 00 00 00 00 00 00 00 00 00 00 00 00 00 00
       0.0 0.0 0.0 0.0
000330 00 00 00 00 00 00 00 00 00 00 00 00 00 00 00 00
       0.0 0.0 0.0 0.0
000340 00 00 00 00 00 00 00 00 00 00 00 00 00 00 00 00
       0.0 0.0 0.0 0.0
000350 00 00 00 00 00 00 00 00 00 00 00 00 00 00 00 00
       0.0 0.0 0.0 0.0
000360 00 00 00 00 00 00 00 00 00 00 00 00 00 00 00 00
       0.0 0.0 0.0 0.0
000370 00 00 00 00 00 00 00 00 00 00 00 00 00 00 00 00
       0.0 0.0 0.0 0.0
000380 00 00 00 00 00 00 00 00 00 00 00 00 00 00 00 00
       0.0 0.0 0.0 0.0
000390 00 00 00 00 00 00 00 00 00 00 00 00 00 00 00 00
       0.0 0.0 0.0 0.0
0003a0 00 00 00 00 00 00 00 00 00 00 00 00 00 00 00 00
       0.0 0.0 0.0 0.0
0003b0 00 00 00 00 00 00 00 00 00 00 00 00 00 00 00 00
       0.0 0.0 0.0 0.0
0003c0 00 00 00 00 00 00 00 00 00 00 00 00 00 00 00 00
       0.0 0.0 0.0 0.0
0003d0 00 00 00 00 00 00 00 00 00 00 00 00 00 00 00 00
       0.0 0.0 0.0 0.0
0003e0 00 00 00 00 00 00 00 00 00 00 00 00 00 00 00 00
       0.0 0.0 0.0 0.0
0003f0 00 00 00 00 00 00 00 00 00 00 00 00 00 00 00 00
       0.0 0.0 0.0 0.0
