lightning_logs/version_52/checkpoints/epoch=9-step=810.ckpt (torch, 227860 bytes, 15 tensors)

lstm.weight_ih_l0 f4 [256, 5]
0	0xbe9b74ce	-0.30362552
1	0x3e92c3d3	0.28665027
2	0xbf510ca3	-0.8165991
3	0xbe8b53f9	-0.27212504
4	0xbe2bd8d7	-0.16781937
5	0x3f16b69a	0.5887238
6	0xbeed3583	-0.4632989
7	0x3f6947d9	0.91125256
8	0x3e846bc7	0.25863478
9	0xbdc081a3	-0.09399726
10	0xbe42bbf2	-0.19017008
11	0x3e29a842	0.16568092
12	0xbf638c9a	-0.88886416
13	0xbebed3d5	-0.3727099
14	0xbe942fed	-0.28942814
15	0x3e0be839	0.13662805
16	0xbe0213b9	-0.12702836
17	0x3f6ec2df	0.932661
18	0x3df91503	0.12162211
19	0x3f174ef0	0.59104824
20	0xbea1bf34	-0.3159119
21	0x3e065297	0.13117443
22	0xbefaaf0b	-0.48961672
23	0xbd86dcca	-0.06585081
24	0xbe8e9d4b	-0.2785438
25	0xbe3abee2	-0.18236879
26	0x3e3efeb1	0.18651845
27	0xbf5a8b83	-0.8536913
28	0x3d24b2f5	0.04020973
29	0xbe5a765e	-0.21334216
30	0xbea57f97	-0.32323906
31	0x3e8a8209	0.27052334
32	0xbf4a0679	-0.78916126
33	0xbef7a54d	-0.48368302
34	0x3e8aa904	0.27082074
35	0xbca4be90	-0.020110399
36	0x3e34f52f	0.17671655
37	0x3f20b189	0.627709
38	0x3e44589f	0.19174431
39	0xbe1bdb22	-0.15220311
40	0xbeeb6d57	-0.45981857
41	0x3e088204	0.13330847
42	0xbf468634	-0.7754853
43	0xbeddfbda	-0.4335621
44	0x3d94d24a	0.07266672
45	0xbea8288b	-0.32843432
46	0x3da11fda	0.07867403
47	0xbf15df49	-0.5854383
48	0x3ed422d6	0.41432828
49	0x3e906f4e	0.2820992
50	0x3f163f04	0.58689904
51	0xbeb6aa2b	-0.35676703
52	0x3f5b1b8a	0.85588896
53	0x3e8efee1	0.27928832
54	0x3accf2f3	0.0015636369
55	0xbe0a2921	-0.13492252
56	0xbd7c07db	-0.06153093
57	0xbf82f865	-1.0232054
58	0xbea1543e	-0.31509584
59	0xbd97cb3e	-0.07411812
60	0x3cdd86e3	0.027041858
61	0x3dc841cb	0.09778174
62	0x3f27de70	0.6557379
63	0x3e8c906e	0.2745394
64	0xbe2d6d39	-0.16936196
65	0x3f227e30	0.63473797
66	0xbefdb157	-0.49549362
67	0x3f8485a9	1.035329
68	0x3ed83f51	0.42235807
69	0x3dfb3b88	0.12267214
70	0x3c61a7c5	0.0137729095
71	0x3e6bd06a	0.23028722
72	0x3ecc1609	0.3986056
73	0x3dbf3385	0.093359984
74	0xbea244f9	-0.31693247
75	0x3cb89b6d	0.02253505
76	0xbc80abc5	-0.015706906
77	0x3f381777	0.71910805
78	0x3e9a0ffc	0.3009032
79	0xbdaa0838	-0.08302349
80	0x3eab8bf0	0.335052
81	0xbdbdaf8c	-0.092619985
82	0x3f136c24	0.57586884
83	0x3e95deb3	0.2927147
84	0xbe5f6310	-0.21815133
85	0xbca3d4b2	-0.019998882
86	0xbd99407c	-0.074830025
87	0x3f15b664	0.5848143
88	0x3e8b82d7	0.2724826
89	0xbe3f18ca	-0.186618
90	0x3e911404	0.28335583
91	0xbe86eb13	-0.26351222
92	0x3f1276f8	0.5721278
93	0x3ebd303f	0.3695087
94	0xbd6e7073	-0.05821271
95	0x3e43f2f9	0.19135655
96	0xbe617634	-0.22017747
97	0x3f00fdff	0.5038757
98	0x3e82e7d3	0.25567493
99	0xbea1827c	-0.31544864
100	0xbcf2b753	-0.029628431
101	0xbdb6b6fe	-0.08921622
102	0xbf1aa346	-0.60405385
103	0xbdcb7ec3	-0.09936287
104	0xbe4cd9d5	-0.20004971
105	0x3dcfa5e2	0.101390615
106	0x3ce1f126	0.027580809
107	0x3d19b809	0.037529025
108	0xbe5919e7	-0.21201287
109	0xbeb47937	-0.3524873
110	0xbe8cb4a4	-0.27481568
111	0x3eada785	0.3391687
112	0xbf0f056a	-0.55867636
113	0xbe37f51e	-0.17964599
114	0xbcf25563	-0.029581731
115	0xbe5b520d	-0.21418019
116	0x3e4ed781	0.20199396
117	0xbf6576a4	-0.89634156
118	0x3bea13dc	0.0071434807
119	0xbdea2336	-0.11432497
120	0xbe82ce3f	-0.25547978
121	0x3e8bf9c9	0.27339008
122	0xbf50e9f1	-0.81606966
123	0xbea9f261	-0.33192733
124	0x3d90fd1e	0.07079528
125	0x3eaad113	0.33362636
126	0xbeaf8231	-0.34279016
127	0x3f2c19b9	0.6722675
128	0x3e6e84f7	0.2329291
129	0xbeaf80ae	-0.34277862
130	0xbe0e1bb9	-0.13877763
131	0x3e220806	0.15823373
132	0x3f3f83e0	0.748106
133	0x3e202e74	0.1564272
134	0xbe7de367	-0.24793778
135	0x3e90484c	0.28180158
136	0xbe938c70	-0.28818083
137	0x3f0b0f14	0.5431988
138	0x3e67a029	0.2261969
139	0xbdfb9259	-0.12283773
140	0xbe8d2c17	-0.275727
141	0x3e56ada1	0.20964672
142	0xbf5923c6	-0.8482021
143	0xbea923b6	-0.33035058
144	0x3df9e90a	0.12202652
145	0x3e0ddd3c	0.13853925
146	0xbe7700b1	-0.24121358
147	0x3f241e9f	0.64109224
148	0x3eac09f6	0.3360135
149	0xbbebaf78	-0.0071925484
150	0xbe7ff28e	-0.24994871
151	0x3d0d2d6c	0.034467146
152	0xbf3f3028	-0.74682856
153	0xbe89f470	-0.26944304
154	0x3e5fda8e	0.21860716
155	0xbc06d9cd	-0.008230639
156	0xbe48816c	-0.1958062
157	0xbf7c3a00	-0.98526
158	0xbe0b2313	-0.13587599
159	0xbdc4c223	-0.09607341
160	0xbed8317b	-0.4222525
161	0x3ce94673	0.028475976
162	0xbf76a9ae	-0.9635266
163	0xbebb29ec	-0.3655542
164	0x3e632258	0.2218107
165	0x3eab0d49	0.33408573
166	0xbe8c5ca0	-0.27414417
167	0x3f20310c	0.6257484
168	0x3e910670	0.28325224
169	0xbdc4a616	-0.09601991
170	0xbe9df735	-0.30852666
171	0x3e84bfaf	0.25927493
172	0xbf59d753	-0.85094184
173	0xbeeceb8b	-0.46273455
174	0xbd9d2d96	-0.076747105
175	0xbe87dcc1	-0.2653561
176	0x3dd7676d	0.10517774
177	0xbf772166	-0.96535337
178	0xbe685790	-0.22689652
179	0xbe853fc2	-0.26025206
180	0x3eb3ef90	0.3514371
181	0xbe2cad86	-0.16863069
182	0x3f2a8e79	0.66623646
183	0x3ecce77e	0.40020365
184	0xbe755c8f	-0.2396109
185	0x3f10cc27	0.5656151
186	0xbf162dbb	-0.5866353
187	0x3f4385f3	0.76376265
188	0x3ea7a317	0.32741615
189	0x3c9011b8	0.017586574
190	0x3c309a9b	0.010779048
191	0x3d10e086	0.035370372
192	0x3f6c4998	0.92299795
193	0x3dbf54cb	0.09342345
194	0x3dfc0204	0.12305072
195	0xbe9a66c7	-0.30156538
196	0x3e69e0b6	0.22839627
197	0xbf5cdbaf	-0.8627271
198	0xbe15ba4b	-0.14621846
199	0xbeaff0aa	-0.343633
200	0xbe70cb5c	-0.23515075
201	0x3dcf4c3b	0.10121962
202	0xbf6d5e7d	-0.927223
203	0xbd779420	-0.060443997
204	0xbe313c0c	-0.17308062
205	0xbdac88d5	-0.08424536
206	0x3e4152e6	0.1887928
207	0x3f185393	0.59502524
208	0x3e7682dd	0.24073358
209	0xbe9a2137	-0.30103466
210	0xbeac5d05	-0.33664718
211	0x3e843921	0.25824836
212	0xbe909d9a	-0.2824524
213	0x3ea2482a	0.31695682
214	0xbebaa4f5	-0.36453977
215	0x3d3087b5	0.04309817
216	0xbd282c67	-0.04105797
217	0x3f0bcbeb	0.5460803
218	0x3df1eb55	0.11812464
219	0xbde37061	-0.11105419
220	0xbe61d9b0	-0.22055697
221	0x3dbf5933	0.09343185
222	0xbedda258	-0.4328792
223	0x3e868c0b	0.2627872
224	0xbe579e39	-0.21056451
225	0xbddf4d93	-0.10903468
226	0xbe50aae7	-0.20377694
227	0xbf7b690d	-0.9820717
228	0xbe494305	-0.19654472
229	0x3e37fde5	0.17967947
230	0xbe910687	-0.28325292
231	0x3cc7161a	0.024302531
232	0xbf7a4b41	-0.9777108
233	0xbe210b1a	-0.15726891
234	0x3c661f78	0.014045589
235	0xbea4fba0	-0.32223225
236	0x3dd6b93c	0.104845494
237	0xbf4c8aca	-0.79899275
238	0xbea48462	-0.3213225
239	0x3d297529	0.0413715
240	0xbe7ab798	-0.24484098
241	0x3d84f965	0.06492881
242	0xbf69ed56	-0.9137777
243	0xbedde98d	-0.43342248
244	0x3e844d35	0.25840154
245	0xbe0c47d9	-0.13699283
246	0x3de565ea	0.11201079
247	0xbf73fba4	-0.9530585
248	0xbf06f7c5	-0.52721816
249	0xbe62d77d	-0.22152515
250	0xbdede0b7	-0.116151266
251	0x3dfb22e4	0.12262514
252	0x3efc8bda	0.49325448
253	0x3e8116b2	0.25212628
254	0x3c9c2524	0.019060679
255	0xbd955b17	-0.07292765

lstm.weight_hh_l0 f4 [256, 64]
0	0x3cd9f778	0.02660726
1	0xbda9e636	-0.082958624
2	0xbd3ed110	-0.046586096
3	0x3dc6d68e	0.09708892
4	0xbc5ac470	-0.013352498
5	0xbdbad954	-0.09123483
6	0x3dc5d626	0.09659986
7	0x3d425f00	0.04745388
8	0xbd233124	-0.039841786
9	0x3af91d80	0.0019005984
10	0xbc8f8088	-0.017517343
11	0xbdfbb446	-0.12290244
12	0x3d8d9c8e	0.06914626
13	0xbd00efc8	-0.031478673
14	0xbdd9433c	-0.10608527
15	0xbdc4b59e	-0.09604953
16	0xbd32ed84	-0.043683544
17	0xbdb3edaa	-0.08785565
18	0xbdf3eeb8	-0.11910766
19	0x3d619618	0.05507478
20	0x3cc987b0	0.024600834
21	0xbcf00948	-0.0293013
22	0x3dcc8d54	0.09987894
23	0xbd7584f8	-0.059941262
24	0x3cef5a00	0.02921772
25	0x3dfe5142	0.124178424
26	0xbd4f14e4	-0.050557032
27	0xbd9f64a4	-0.077828676
28	0xbdad5218	-0.08462924
29	0xbca0a810	-0.019611388
30	0xbcef06f0	-0.029178113
31	0x3c473480	0.012158513
32	0xbcec95c0	-0.02888
33	0xbdde80e6	-0.10864429
34	0xbdda5522	-0.10660769
35	0x3d65faa0	0.056147218
36	0xbbc4c6e0	-0.006005153
37	0x3d21f08c	0.039536044
38	0xbd86cd70	-0.06582153
39	0xbcf01138	-0.029305086
40	0x3da41688	0.0801211
41	0xbdb2e880	-0.08735752
42	0x3d5a4854	0.053291634
43	0xbdfa1922	-0.12211825
44	0xbdca0276	-0.09863751
45	0xbdea1406	-0.114296004
46	0x3dc18f20	0.09451127
47	0x3da8148a	0.082070425
48	0x3d83b4f8	0.064310014
49	0x3de0b774	0.10972491
50	0xbdac09ce	-0.084003076
51	0x3d313754	0.043265656
52	0xbd281484	-0.04103519
53	0x3d252b58	0.04032454
54	0xbb9d8380	-0.004806936
55	0x3c338860	0.010957807
56	0x3dc6856e	0.096934184
57	0x3bf8e700	0.0075958967
58	0xbb064fc0	-0.0020494312
59	0xbd382298	-0.044954866
60	0xbb936dc0	-0.004499167
61	0x3d4a7300	0.04942608
62	0xbd101f68	-0.0351862
63	0x3b26ac40	0.002543226
64	0xbdbca748	-0.09211594
65	0x3d252278	0.040316075
66	0xba936d80	-0.0011247844
67	0xbd2e17a4	-0.042503014
68	0xbdcc919c	-0.0998871
69	0x3d36b430	0.044605434
70	0x3cca4ca8	0.024694756
71	0x3d3bcb00	0.045847893
72	0x3ded09b0	0.11574113
73	0x3d0cae34	0.03434582
74	0xbdea13f8	-0.1142959
75	0xbdaf301c	-0.08554098
76	0x3d8d3524	0.068949014
77	0x3d7b2b4c	0.061320588
78	0x3d9ed660	0.077557325
79	0xbd209a40	-0.039209604
80	0xbd43bcfc	-0.04778765
81	0x3d576024	0.05258192
82	0x3d20b85c	0.03923832
83	0x3db4e276	0.088322565
84	0x3cafbf78	0.021453604
85	0x3df23f60	0.11828494
86	0x3dfb3f56	0.1226794
87	0x3d0007c8	0.03125742
88	0xbd3112e0	-0.04323089
89	0xbdf55d74	-0.119807154
90	0xbd1d7568	-0.038442045
91	0xbda4eec6	-0.08053355
92	0xbc6c0ab0	-0.014406845
93	0xbd4a559c	-0.04939805
94	0x3dac00e6	0.08398609
95	0xbda6cc16	-0.08144395
96	0xbcaf27f0	-0.021381348
97	0x3df1ef6a	0.11813243
98	0x3da9acb2	0.08284892
99	0xbc7a1350	-0.0152633935
100	0xbde218ac	-0.11039862
101	0x3da0363a	0.07822843
102	0x3c6a5be0	0.014304131
103	0x3d1dae48	0.038496286
104	0x3c5dfce0	0.01354906
105	0x3c2ce420	0.010552436
106	0x3d8829e6	0.066486165
107	0xbd9fa37e	-0.077948555
108	0xbce91498	-0.028452203
109	0x3c9023c8	0.017595187
110	0x3d6c8320	0.057742238
111	0xbde17766	-0.110091016
112	0xbd11da80	-0.03560877
113	0x3dca86f8	0.098890245
114	0x3d6c4280	0.057680607
115	0x3ab13300	0.0013519228
116	0xbd68ca6c	-0.05683367
117	0x3db5c6c6	0.08875804
118	0xbd31ae6c	-0.043379232
119	0xbccf0060	-0.025268734
120	0x3db81f86	0.089903876
121	0x3cb6ca18	0.022313163
122	0x3da8d7c6	0.082442805
123	0xbd2f689c	-0.042824373
124	0x3c86a3d8	0.016435549
125	0x3d29ba80	0.041437626
126	0x3c5325c0	0.012887418
127	0x3d58b95c	0.052911147
128	0x3df5e31c	0.12006208
129	0x3d3316a8	0.04372278
130	0x3de78e44	0.11306432
131	0x3dcf6ed2	0.10128559
132	0xbdf81db6	-0.12115042
133	0xbcd7da80	-0.026349306
134	0xbde5da66	-0.11223297
135	0xbdef7f2e	-0.116941795
136	0xbde06dfc	-0.10958478
137	0x3de10cf6	0.109888
138	0xbd9ead40	-0.077478886
139	0x3c3a05f0	0.011353955
140	0xbd949eb6	-0.07256834
141	0xbdb6d582	-0.08927442
142	0x3a07cf00	0.0005180687
143	0x3d9e21e0	0.07721305
144	0xbb8763e0	-0.004131779
145	0x3cdd3df0	0.027007073
146	0xbde0de8e	-0.10979949
147	0xbd26963c	-0.04067062
148	0x3cb718a8	0.022350624
149	0xbdc5335a	-0.09628935
150	0x3daaa4b2	0.083321944
151	0x3dbf8330	0.09351194
152	0xbdd06dda	-0.101772025
153	0xbcd15180	-0.025551558
154	0x3d210ad0	0.039316952
155	0xbdef73ea	-0.11692031
156	0xbdeb54ba	-0.1149077
157	0x3df0c71e	0.117567286
158	0x3d94d88a	0.07267864
159	0x3de5a4da	0.112130836
160	0x3d57510c	0.052567527
161	0xbcdf94b0	-0.02729258
162	0xbdd59b28	-0.10429984
163	0x3d388608	0.045049697
164	0xbd623d88	-0.055234462
165	0xbc7b7a50	-0.015348986
166	0xbdd87fba	-0.10571237
167	0x3d363e3c	0.044492945
168	0xbdf3e27a	-0.11908431
169	0xbd84eb4e	-0.06490193
170	0xbd366640	-0.044531107
171	0x3d987ee6	0.07446079
172	0x3d0efef4	0.03491111
173	0x3dfbad0e	0.12288867
174	0x3d80ad50	0.06283057
175	0x3d91d104	0.07119945
176	0x3da47dac	0.080317825
177	0x3d99a0f0	0.075013995
178	0x3d498904	0.049202934
179	0x3debbf0a	0.11511047
180	0xbd80a86a	-0.062821224
181	0x3da744d8	0.08167428
182	0x3c0f9610	0.008763805
183	0x3dd52cd4	0.10408941
184	0x3ab83500	0.0014053881
185	0x3cf55570	0.029947966
186	0x3dbd969e	0.092572436
187	0x3deb140c	0.11478433
188	0x3d8b3a26	0.067982
189	0xbdaced62	-0.08443715
190	0xbd463138	-0.048386782
191	0xbcd06b30	-0.025441736
192	0x3c23dfd0	0.0100020915
193	0x3ddd846c	0.10816273
194	0xbdb12bac	-0.08650908
195	0xbde22b16	-0.11043374
196	0xbdff20cc	-0.124574274
197	0x3b8d4920	0.0043116957
198	0xbc02ff30	-0.007995412
199	0x3cc724f8	0.02430962
200	0x3d995728	0.07487327
201	0xbd7097e0	-0.05873859
202	0xbd9eedd0	-0.07760203
203	0x3d82ae34	0.06380883
204	0xbd07ab8c	-0.033122584
205	0x3d9dd6f4	0.07707015
206	0x3c21daf0	0.009878859
207	0x3ba4e040	0.0050316155
208	0x3d60ca50	0.05488044
209	0x3dbe06aa	0.09278615
210	0xbd7db578	-0.06194064
211	0xbdc674e0	-0.09690261
212	0x3d467304	0.04844953
213	0xbd697e88	-0.057005435
214	0xbda16b8a	-0.078818396
215	0x39e10e00	0.00042925775
216	0xbd864a52	-0.06557144
217	0xbd8e4bd0	-0.06948054
218	0xbce69678	-0.028147921
219	0x3d72ad40	0.059247255
220	0x3d3b095c	0.045663223
221	0xbd6d9394	-0.05800207
222	0x3bbde340	0.0057949126
223	0xbdf4b0a2	-0.119477525
224	0xbcc46360	-0.023973167
225	0x3d8f2260	0.069889784
226	0x3d890a52	0.066914216
227	0x3beb9720	0.0071896464
228	0x3daa0db0	0.08303392
229	0xbd963916	-0.07335107
230	0xbd3a3fd8	-0.045471042
231	0xbd496524	-0.04916872
232	0x3cc20538	0.02368413
233	0x3d8b41d8	0.06799668
234	0x3db6d3ec	0.0892714
235	0x3daa0b2a	0.083029106
236	0xbc93c558	-0.018038437
237	0x3d873728	0.06602317
238	0x3dcca798	0.099929035
239	0xbd278634	-0.04089947
240	0x3d2c0f60	0.04200685
241	0x3d27b63c	0.040945277
242	0x3dda3072	0.106537715
243	0x3df735f2	0.12070836
244	0xbdd08116	-0.10180871
245	0xbd8872fa	-0.06662555
246	0xbd7f8ae8	-0.06238833
247	0x3d70085c	0.058601722
248	0x3db67a38	0.0891003
249	0xbd3c0fc4	-0.045913473
250	0xbda38ac6	-0.07985453
251	0xbd57260c	-0.05252652
252	0xbdd45566	-0.10367851
253	0xbb9b9640	-0.004748136
254	0x3d62d4a4	0.05537857
255	0xbd60919c	-0.054826364

lstm.bias_ih_l0 f4 [256]
0	0x3e4d3794	0.20040733
1	0x3f090dbd	0.5353659
2	0x3edb8db3	0.42881545
3	0x3f1e7a8c	0.6190574
4	0x3e50c09a	0.20385972
5	0x3efb1324	0.4903804
6	0x3e5d2997	0.21597897
7	0x3ea775ab	0.3270696
8	0x3ea9be28	0.3315289
9	0x3f06d2c6	0.52665365
10	0x3f2f6455	0.6851247
11	0xbce20fbe	-0.027595397
12	0x3e60f8fe	0.21969983
13	0x3efd14bf	0.4942989
14	0x3e8e0ceb	0.2774423
15	0x3eb3fdec	0.35154665
16	0x3e959a73	0.29219398
17	0x3edb9348	0.42885804
18	0x3ee67a2c	0.45015085
19	0x3eb3298b	0.34992632
20	0x3e5d375c	0.21603149
21	0x3e52851b	0.20558588
22	0x3e44f2b7	0.19233213
23	0x3efd3fb6	0.4946267
24	0x3e17ff6f	0.14843534
25	0x3e42a112	0.19006756
26	0x3e59752a	0.21236101
27	0x3ef0cde2	0.47032076
28	0x3ecfc5f6	0.4058072
29	0x3f002506	0.50056493
30	0x3edfddb7	0.43723843
31	0x3ee0be21	0.43895057
32	0x3eca4116	0.39502782
33	0x3effb8ff	0.49945828
34	0x3ee31b02	0.44356543
35	0x3f03e30d	0.51518327
36	0x3e8f4916	0.27985448
37	0x3f0d303c	0.55151725
38	0x3f0524b8	0.52009153
39	0x3eab4eaf	0.33458468
40	0x3ea89cba	0.32932073
41	0x3e6589e7	0.22415887
42	0x3ea1fb4d	0.3163704
43	0x3e9f1fa7	0.31078836
44	0x3eb1eea2	0.34752375
45	0x3ea617c0	0.32439995
46	0x3f0e5d1e	0.55610836
47	0x3ebc4a5d	0.36775485
48	0x3eb98db6	0.3624093
49	0x3eb1706d	0.34656087
50	0x3e47bb1d	0.19504972
51	0x3eabb378	0.3353536
52	0x3ed7ea89	0.42171124
53	0x3eb39e3b	0.35081658
54	0x3e962e55	0.29332224
55	0x3ef635cf	0.48087928
56	0x3eaedb01	0.34151462
57	0x3f0963ad	0.5366772
58	0x3e8590da	0.26087075
59	0x3eb2ad3c	0.34897792
60	0x3ece4376	0.40285844
61	0x3ed84312	0.4223867
62	0x3f030567	0.5118012
63	0x3eb267f9	0.3484495
64	0xbd883a04	-0.066516906
65	0x3df827a4	0.12116936
66	0x3d24e040	0.040252924
67	0xbd4bb2e8	-0.049731165
68	0xbd18d304	-0.037310615
69	0x3c7caed0	0.015422538
70	0xbdd70db8	-0.105006635
71	0x3c016400	0.007897377
72	0xbdc15d92	-0.09441675
73	0x3dc740ca	0.097291544
74	0x3d8e9e7c	0.06963822
75	0xbbcf8cc0	-0.0063339174
76	0x3ce82a60	0.028340518
77	0xbd65705c	-0.056015357
78	0x3db46e98	0.088101566
79	0x3d21e6d0	0.03952676
80	0x3d81acf2	0.06331815
81	0x3dad1fe0	0.08453345
82	0xbd0cb338	-0.034350604
83	0x3d9937c0	0.074813366
84	0xbdc33c92	-0.09533037
85	0xbddb715a	-0.107149795
86	0xbde5356e	-0.111918315
87	0x3dddb09e	0.10824703
88	0x3daf864c	0.08570537
89	0x3def91c8	0.116977274
90	0x3dea3f12	0.11437811
91	0x3d40203c	0.04690574
92	0x3d6b33ac	0.057422325
93	0xbd909d5c	-0.07061264
94	0x3cd16398	0.025560185
95	0x3ceaeb60	0.028676689
96	0x3bfbbdc0	0.007682532
97	0xbcd5bbf8	-0.026090607
98	0xbd7409a4	-0.059579507
99	0x3df997c6	0.121871516
100	0x3c75d220	0.015003711
101	0x3df39686	0.118939444
102	0xbd93975c	-0.07206604
103	0x3dad27bc	0.08454844
104	0xbd8e0dec	-0.06936249
105	0x3dd993d0	0.10623896
106	0x3d864838	0.065567434
107	0xbd2285d4	-0.03967841
108	0x3dd59714	0.104292065
109	0xbc813f00	-0.015777111
110	0x3cfcb080	0.03084588
111	0x3d7de2e0	0.061983943
112	0x3d1b1220	0.037859082
113	0xbc7bcdc0	-0.015368879
114	0x3cd0c090	0.025482446
115	0x3de53026	0.11190824
116	0xbde4666a	-0.111523464
117	0xbd9e9f7e	-0.077452645
118	0xbde696ac	-0.11259207
119	0xbbe675c0	-0.00703308
120	0x3c17c470	0.009263143
121	0xbd05218c	-0.032502696
122	0x3dc48e7c	0.09597489
123	0x3d8ccc36	0.06874888
124	0x3de61d48	0.11236054
125	0xbd2ac7f8	-0.04169461
126	0x3deeba90	0.11656678
127	0xbdd981c6	-0.106204554
128	0xbe19be23	-0.15013938
129	0x3d2e14bf	0.042500254
130	0x3d34ab81	0.04410887
131	0xbd1e2352	-0.038607903
132	0x3e43d818	0.19125402
133	0xbdff9b3f	-0.12480783
134	0x3cf348c1	0.029697778
135	0xbe45fef8	-0.19335544
136	0x3dbfcb85	0.0936499
137	0x3cfc4119	0.03079276
138	0xbd820413	-0.06348433
139	0xbcb7f181	-0.022454025
140	0xbe616231	-0.22010113
141	0x3da32131	0.07965315
142	0xbe70e7c0	-0.23525906
143	0xbe12e85c	-0.1434645
144	0xbe16aa6f	-0.14713453
145	0xbde3ad12	-0.11116995
146	0x3e0fdfb8	0.14050186
147	0x3da79bf0	0.081840396
148	0x3ca3f2fc	0.020013325
149	0x3e8ebba1	0.27877524
150	0xbe4836c9	-0.19552149
151	0xbda50226	-0.080570504
152	0xbce3e335	-0.027818302
153	0xbd968a24	-0.07350567
154	0xbe6e5ab6	-0.23276791
155	0xbc20cc09	-0.009814271
156	0xbe191996	-0.14951167
157	0x3d647172	0.055772252
158	0xbd3bec94	-0.045879915
159	0xbe20f0dd	-0.15716882
160	0x3dbc4ffc	0.09194943
161	0xbdde6a1f	-0.10860085
162	0xbd4ed916	-0.050499998
163	0xbd5a3f84	-0.05328323
164	0x3d725c11	0.059169833
165	0xbc8c50ae	-0.017128315
166	0x3c7f397a	0.015577668
167	0xbe09e472	-0.13466051
168	0x3dc9d970	0.09855926
169	0x3e584836	0.21121296
170	0x3e483886	0.19552812
171	0x3ddfc504	0.109262496
172	0xbde72ee3	-0.1128824
173	0xbd9914c6	-0.07474665
174	0xbc79395d	-0.01521143
175	0x3dabdd14	0.08391777
176	0xbe1b36ee	-0.15157673
177	0xbd992625	-0.074779786
178	0x3e1650cc	0.14679259
179	0xbe30440f	-0.17213462
180	0xbe04a523	-0.1295362
181	0x3deb727c	0.114964455
182	0x3d73a837	0.059486594
183	0x3bbeeb28	0.0058263727
184	0xbcb56fef	-0.0221481
185	0x3e2badd7	0.16765533
186	0xbd83adfd	-0.0642967
187	0xbdd97ef2	-0.10619916
188	0xbd0be4ff	-0.034153935
189	0xbda9c96f	-0.082903735
190	0xb99286b0	-0.0002794764
191	0xbd9a4a6f	-0.07533728
192	0x3e4d9a24	0.20078331
193	0x3ee7d89a	0.4528244
194	0x3edc4ef4	0.43028986
195	0x3ee99f30	0.45629263
196	0x3e9de242	0.30836684
197	0x3f0508ce	0.5196656
198	0x3ea24307	0.31691763
199	0x3e9232b1	0.285543
200	0x3e9afcc8	0.30270982
201	0x3edbb6cc	0.429129
202	0x3f0f609c	0.5600679
203	0x3e22953c	0.15877241
204	0x3ecbce12	0.39805657
205	0x3f21ae31	0.6315642
206	0x3df3be9f	0.119015925
207	0x3f01f158	0.50758886
208	0x3e34d5ea	0.17659727
209	0x3ee613c9	0.4493697
210	0x3ebf8566	0.37406462
211	0x3e6d3e69	0.23168339
212	0x3e34639b	0.17616121
213	0x3e86b339	0.2630861
214	0x3daca31a	0.08429547
215	0x3ece99f2	0.40351826
216	0x3e776cc6	0.24162588
217	0x3eb87e79	0.3603399
218	0x3e2ff809	0.17184462
219	0x3eb456c6	0.35222453
220	0x3ea2c0eb	0.3178781
221	0x3ea906f2	0.3301311
222	0x3e8907ab	0.26763663
223	0x3ec5c2d5	0.38625208
224	0x3ee185a6	0.44047278
225	0x3ec8788a	0.39154464
226	0x3ee1d97c	0.4411124
227	0x3ee2d028	0.44299436
228	0x3eb61999	0.35566404
229	0x3ed2a1fd	0.41139212
230	0x3eded68b	0.43523058
231	0x3ec9d314	0.39418852
232	0x3f015603	0.5052187
233	0x3ea8eef9	0.32994822
234	0x3e9c962b	0.3058332
235	0x3edafdec	0.42771852
236	0x3ebc896a	0.3682359
237	0x3e24edce	0.1610634
238	0x3ed0c633	0.40776214
239	0x3ef6f4b2	0.48233563
240	0x3e7f32eb	0.24921767
241	0x3ecb920d	0.39759865
242	0x3e8b0ac6	0.27156657
243	0x3e99191e	0.29901975
244	0x3e85987a	0.26092893
245	0x3ec287e9	0.37994316
246	0x3ed3e988	0.41389108
247	0x3f090c22	0.5353414
248	0x3e03bf5f	0.12865971
249	0x3ec20398	0.37893367
250	0x3ea999ce	0.33125156
251	0x3ee76e63	0.45201406
252	0x3efeafcd	0.497435
253	0x3ec611ca	0.38685447
254	0x3f0e97ee	0.55700576
255	0x3e6bf715	0.23043473

lstm.bias_hh_l0 f4 [256]
0	0x3e3e6de6	0.1859661
1	0x3f236e5b	0.63840264
2	0x3ea9d293	0.33168468
3	0x3f067afa	0.525314
4	0x3e9a70c2	0.30164152
5	0x3e9afe49	0.3027213
6	0x3e3f155e	0.18660495
7	0x3e87116d	0.26380482
8	0x3ee45af0	0.4460063
9	0x3ee445f5	0.44584623
10	0x3f05750d	0.5213173
11	0x3da8c5af	0.0824083
12	0x3ebb60ef	0.36597392
13	0x3f019211	0.50613505
14	0x3ea60836	0.3242814
15	0x3eb7aa60	0.35872173
16	0x3e59ebad	0.2128131
17	0x3ea76222	0.32692057
18	0x3ed76306	0.42067736
19	0x3ee2e540	0.4431553
20	0x3e5587e4	0.2085262
21	0x3e9e5ed0	0.3093171
22	0x3dd238c4	0.102647334
23	0x3ee9b912	0.4564901
24	0x3e889281	0.26674274
25	0x3eb9bc41	0.3627644
26	0x3ebfea98	0.37483668
27	0x3ea62334	0.32448733
28	0x3ece24c7	0.40262434
29	0x3f01d703	0.50718707
30	0x3ea33eab	0.3188375
31	0x3e909228	0.28236508
32	0x3eb70eac	0.3575338
33	0x3e9701e2	0.29493624
34	0x3ed429a3	0.41438016
35	0x3ec639cd	0.38715973
36	0x3ea6f2a2	0.3260699
37	0x3f14d794	0.58141446
38	0x3e923c02	0.28561407
39	0x3e4edb01	0.20200731
40	0x3ef8a7d9	0.48565558
41	0x3ea6a758	0.32549548
42	0x3e988b71	0.29793885
43	0x3e8bd83f	0.2731342
44	0x3e98ec26	0.29867667
45	0x3eadc391	0.33938268
46	0x3f0a996c	0.54140353
47	0x3edabc55	0.4272181
48	0x3e502c98	0.20329511
49	0x3ecbfa79	0.39839533
50	0x3e689913	0.22714643
51	0x3eb9eaef	0.36312053
52	0x3ed3a078	0.41333365
53	0x3ed96e1f	0.42466828
54	0x3ea55efa	0.32299024
55	0x3f10609f	0.5639743
56	0x3e822e5f	0.25426003
57	0x3f14cc54	0.5812428
58	0x3e93c5b3	0.2886177
59	0x3e59540d	0.21223469
60	0x3f050d9d	0.519739
61	0x3e8c28b8	0.27374816
62	0x3ef75b37	0.4831178
63	0x3eead743	0.45867357
64	0x3d8fada8	0.07015544
65	0x3ca826b8	0.020526275
66	0x3dd106de	0.10206388
67	0x3b193240	0.0023375899
68	0xbddb5758	-0.10710019
69	0xbb479080	-0.003045112
70	0x3ad63c00	0.0016344786
71	0x3d3637cc	0.044486806
72	0xbdf7a90a	-0.120927885
73	0xbdb9cf46	-0.090727374
74	0xbd488468	-0.048954397
75	0x3dac1dce	0.08404122
76	0x3ceb41a8	0.02871783
77	0x3cffdc48	0.031232968
78	0xbd0dd990	-0.034631312
79	0x3d7cf818	0.06176004
80	0x3d348da0	0.044080377
81	0x3d05a070	0.03262371
82	0xbd8bec6c	-0.06832203
83	0xbdd1b0bc	-0.102387875
84	0x3de77176	0.11300938
85	0xbdd2468e	-0.102673635
86	0x3d48d604	0.049032226
87	0x3deac65a	0.11463614
88	0xbdbacd3a	-0.09121175
89	0xbd4b6e58	-0.04966578
90	0x3b64f040	0.003493324
91	0xbd8ff2a6	-0.070287034
92	0xbb16b840	-0.0022998005
93	0xbdfc2438	-0.12311596
94	0x3dd4c5da	0.103893
95	0xbd5e6fe0	-0.05430591
96	0x3a8df800	0.0010831356
97	0xbd322e58	-0.043501228
98	0xbdc4af0c	-0.096037
99	0xbd5b7b94	-0.05358465
100	0x3d7e9fa8	0.06216398
101	0xbc1bb1a0	-0.009502798
102	0x3d783ae8	0.060603052
103	0x3995ce00	0.00028572977
104	0xbdf8d80c	-0.12150583
105	0x3d8f7808	0.07005316
106	0xbd4ffe04	-0.050779358
107	0x3ded9b20	0.11601853
108	0xbda481ea	-0.08032592
109	0x3db8f49c	0.090310305
110	0x3ce98918	0.028507754
111	0x3df2558e	0.118327245
112	0x3d078900	0.033089638
113	0x3dac3fbc	0.08410594
114	0xbd28e034	-0.04122944
115	0x3d81fac0	0.06346655
116	0xbd9965b4	-0.074901015
117	0xbde3f36e	-0.11130415
118	0xbd52bb1c	-0.051447973
119	0xbd88edb2	-0.06685962
120	0xbd5cc840	-0.05390191
121	0x3d92fb22	0.07176806
122	0x3db60fb2	0.088897124
123	0x3d8ac342	0.06775524
124	0xbd7e45ac	-0.062078163
125	0xbced3e68	-0.028960422
126	0xbd0f5398	-0.03499183
127	0xbdb31936	-0.08745043
128	0xbda70e36	-0.081570074
129	0xbca29985	-0.019848594
130	0x3d1c5e0e	0.038175635
131	0x3ccfe682	0.02537847
132	0x3db5cfa7	0.08877497
133	0xbe0f5fa1	-0.14001323
134	0x3d86f744	0.06590131
135	0xbe642758	-0.22280633
136	0xbd01beca	-0.03167609
137	0x3d875598	0.066081226
138	0x3b1ac481	0.002361566
139	0xbdc24f44	-0.09487775
140	0xbe2f709c	-0.17132801
141	0x3d2dba46	0.042413972
142	0xbe66c5e8	-0.22536433
143	0xbe1fd843	-0.15609841
144	0xbdea5b37	-0.11443179
145	0xbe6089f1	-0.2192762
146	0x3d6960d0	0.056977093
147	0x3e42210d	0.1895792
148	0x3d19130b	0.037371676
149	0x3e5b878d	0.21438427
150	0xbe0d35eb	-0.137901
151	0xbd804fad	-0.06265197
152	0x3cfeaa9b	0.03108721
153	0xbe10aba6	-0.14127979
154	0xbe6f1fef	-0.23352025
155	0x3ded66ac	0.11591849
156	0x3d8ba7fb	0.06819149
157	0x3e01647b	0.12635987
158	0x3cba2068	0.02272053
159	0xbd15a387	-0.036532905
160	0xbb73e1ec	-0.0037213517
161	0xbd8ef312	-0.06979956
162	0xbcbd5c11	-0.02311519
163	0x3beaafc5	0.0071620666
164	0x3e1b58b6	0.1517056
165	0xbd2bbfbe	-0.041930906
166	0x3e28a87b	0.1647052
167	0xbe0ad5c8	-0.13558114
168	0xbbf51c6e	-0.0074801957
169	0x3e37f0c4	0.17962939
170	0x3d4513f0	0.048114717
171	0x3e1b79c1	0.15183164
172	0xbe300451	-0.17189147
173	0xbe420679	-0.18947782
174	0x3d142f85	0.03617813
175	0xbd7dcb4c	-0.061961457
176	0xbe2486c3	-0.16067033
177	0xbd058c71	-0.03260464
178	0x3e42edd4	0.19036037
179	0xbe29f7c5	-0.16598423
180	0x3c363d32	0.011122989
181	0x3e0f9608	0.14022076
182	0x3e72183f	0.23642062
183	0xbd9671af	-0.07345902
184	0x3c81cbfd	0.01584434
185	0x3cd13da6	0.025542092
186	0xbdec2d52	-0.11532082
187	0xbe718a81	-0.23587991
188	0x3c8f30e3	0.017479366
189	0xbdd3b4f3	-0.10337248
190	0x3e26310f	0.16229652
191	0xbe58fa7e	-0.21189305
192	0x3eb0578f	0.34441802
193	0x3eea1df3	0.45725974
194	0x3ea0f034	0.3143326
195	0x3ef1b29f	0.4720659
196	0x3eac705b	0.3367947
197	0x3ebdc043	0.37060747
198	0x3e749c4e	0.2388775
199	0x3ec0ce0e	0.37657207
200	0x3e76a64e	0.24086878
201	0x3eea51c1	0.45765498
202	0x3eead3ec	0.4586481
203	0x3dc9ee35	0.098598875
204	0x3ee2fa94	0.443318
205	0x3f0d8b9f	0.5529117
206	0x3e97b96a	0.29633647
207	0x3ef52534	0.47879946
208	0x3e1949cb	0.14969556
209	0x3e72f775	0.2372721
210	0x3e902e58	0.28160357
211	0x3eabf3a4	0.3358432
212	0x3e02ba94	0.12766486
213	0x3e0b1b39	0.13584603
214	0x3e9f8ea8	0.31163526
215	0x3eef6e18	0.46763682
216	0x3ebedbf2	0.3727718
217	0x3eb3fab1	0.351522
218	0x3ea0883f	0.31353948
219	0x3ed493b6	0.41518945
220	0x3e9e0b70	0.308681
221	0x3f004948	0.5011182
222	0x3eb72e33	0.35777435
223	0x3eb59c0c	0.35470617
224	0x3ec67664	0.387622
225	0x3eceef6f	0.40417048
226	0x3e962216	0.2932288
227	0x3ee3b733	0.44475707
228	0x3e59826f	0.21241163
229	0x3ec48b22	0.383874
230	0x3ed1457c	0.40873325
231	0x3ec791dd	0.38978472
232	0x3f1632de	0.5867137
233	0x3ecb5058	0.39709735
234	0x3ebfa90b	0.37433657
235	0x3ea30ba0	0.31844807
236	0x3ed9382b	0.42425665
237	0x3ea187c6	0.315489
238	0x3f1981f7	0.59963936
239	0x3ebc4a2c	0.3677534
240	0x3ea658ef	0.32489726
241	0x3edf141a	0.43570024
242	0x3ec34dfb	0.38145432
243	0x3e6c3c7e	0.23069951
244	0x3e8f780c	0.28021276
245	0x3eddc98e	0.43317837
246	0x3ecfe751	0.40606168
247	0x3f1e6667	0.61875004
248	0x3e640dce	0.22270891
249	0x3ed20c43	0.4102498
250	0x3e746263	0.23865657
251	0x3ea00b0b	0.31258425
252	0x3ecdc829	0.40191773
253	0x3e8ff14c	0.28113782
254	0x3edcf33c	0.43154323
255	0x3e8be04a	0.27319556

fc.weight f4 [1, 64]
0	0x3ef4fd46	0.47849482
1	0xbf22b912	-0.63563645
2	0xbf273f4c	-0.6533096
3	0xbf239b63	-0.63908976
4	0xbede5314	-0.4342276
5	0x3ec2d4d7	0.3805301
6	0x3f09d594	0.5384152
7	0x3eb2e465	0.34939876
8	0xbee78ef8	-0.45226264
9	0xbee0a2eb	-0.43874297
10	0x3f499ab9	0.78751713
11	0xbea32346	-0.3186285
12	0x3ea1d166	0.3160507
13	0x3f429caf	0.7602033
14	0x3eac7277	0.3368108
15	0x3ee420eb	0.44556364
16	0x3edeb067	0.4349396
17	0x3ecbdcbc	0.39816844
18	0xbeef9cd5	-0.4679934
19	0xbeea9b09	-0.45821407
20	0x3e8f8c86	0.28036898
21	0xbe825ae7	-0.25459978
22	0x3eadc484	0.33938992
23	0x3eed063e	0.46293825
24	0x3f0e8931	0.5567809
25	0x3ed584cb	0.41702875
26	0x3e97ffc5	0.29687324
27	0xbf07bb2d	-0.5301998
28	0xbf1bbc56	-0.6083425
29	0xbf02069f	-0.50791353
30	0x3f05ad15	0.5221723
31	0xbf1d7f1c	-0.6152208
32	0x3f159bd2	0.5844089
33	0x3f0198b4	0.5062363
34	0x3f0ee888	0.55823565
35	0x3f25ecd5	0.648145
36	0xbee59842	-0.44842726
37	0xbf3befcf	-0.73412794
38	0xbf1a7e2d	-0.6034878
39	0x3ecc1ccd	0.39865723
40	0xbef72c80	-0.48276138
41	0xbecbcb98	-0.39803767
42	0xbe96643d	-0.2937335
43	0xbee73da5	-0.4516422
44	0x3ec6900e	0.3878178
45	0xbf0ed415	-0.5579236
46	0x3f1a8675	0.60361415
47	0x3f0f4b08	0.55973864
48	0xbf0b2bc0	-0.5436363
49	0xbf2f82d6	-0.68559015
50	0xbeabd718	-0.3356254
51	0x3e9d210a	0.3068927
52	0x3f0a5008	0.5402837
53	0xbecea32f	-0.40358874
54	0xbedacef4	-0.42736018
55	0xbf39d20c	-0.7258613
56	0x3ec13b50	0.37740564
57	0x3f1e9e93	0.61960715
58	0x3f0249e4	0.50894
59	0x3ed8211f	0.4221277
60	0xbf2fcc48	-0.68671083
61	0x3f006124	0.50148225
62	0xbf0ee395	-0.5581601
63	0x3ee1c5d3	0.4409624

exp_avg f4 [256, 5]
0	0x39868730	0.00025659194
1	0xb928360e	-0.00016041865
2	0x3a305ada	0.0006727405
3	0x37992b49	1.8259178e-05
4	0x39391ed3	0.00017654458
5	0xb90bc8cf	-0.0001333088
6	0x38cf0940	9.872252e-05
7	0xba4e50f2	-0.0007870338
8	0xb957c1e8	-0.00020576234
9	0xb908aecc	-0.00013035088
10	0x39f62f86	0.00046956184
11	0xb9851ec8	-0.0002539067
12	0x3a8cc34b	0.0010739354
13	0xb7fabba8	-2.9889707e-05
14	0x398d327d	0.00026931232
15	0xb919eb07	-0.00014678772
16	0x38f69578	0.00011758035
17	0xba306ca7	-0.00067300576
18	0xb9310633	-0.00016882345
19	0xb920602f	-0.0001529462
20	0x3958a298	0.00020659936
21	0xb8fa45ba	-0.000119339165
22	0x3a1b9f57	0.0005936524
23	0x374581b7	1.1772317e-05
24	0x390a56a1	0.00013192977
25	0x399a0e84	0.00029383984
26	0xb932afae	-0.00017040849
27	0x3a309d51	0.0006737309
28	0xb849de23	-4.8129015e-05
29	0x393803e8	0.00017549063
30	0x3a24ce48	0.0006286842
31	0xb9c52f30	-0.00037609925
32	0x3aa5f6bf	0.0012662037
33	0xb8c30632	-9.2994786e-05
34	0x39cdda9d	0.00039263527
35	0xb9b7ab4b	-0.00035032103
36	0x398329ef	0.0002501751
37	0xba276640	-0.0006385781
38	0x38446574	4.6824527e-05
39	0xb9857f40	-0.00025462545
40	0x39e7e869	0.00044232912
41	0xb98af3f7	-0.0002650318
42	0x3a6adb59	0.0008959077
43	0xb888a4a7	-6.515654e-05
44	0x3991d26c	0.00027813332
45	0x398afd1e	0.00026509998
46	0xb9216d9f	-0.00015394994
47	0x3a2a4afb	0.00064961583
48	0xb8601279	-5.3422966e-05
49	0x391a9776	0.00014743008
50	0xb94a709a	-0.00019306169
51	0x3920e9eb	0.0001534593
52	0xba4f7759	-0.00079142075
53	0xb92266cb	-0.00015487817
54	0xb94b5fc9	-0.00019395271
55	0x3979674c	0.00023784972
56	0xb904bd20	-0.00012658956
57	0x3a10fc92	0.00055308
58	0xb816db3c	-3.5966965e-05
59	0x39119a2b	0.0001388571
60	0xb98f6f1d	-0.0002735787
61	0x3949dba4	0.00019250676
62	0xba0e6e9d	-0.0005433353
63	0x384713b9	4.7463665e-05
64	0xb95003eb	-0.00019837885
65	0xb918d172	-0.00014573874
66	0x38f28e8a	0.00011566009
67	0xba8f05e6	-0.0010911792
68	0xb9a6504f	-0.00031721822
69	0xb93151ca	-0.00016910504
70	0xb99389f9	-0.00028140823
71	0x3949ad42	0.00019233397
72	0xba05b34e	-0.0005100266
73	0x387f7f8c	6.0915525e-05
74	0xb94803c2	-0.00019074886
75	0xb9b72bcb	-0.00034937108
76	0x39859370	0.00025477586
77	0xba36442e	-0.00069529086
78	0x37b0fce5	2.1098598e-05
79	0xb98a9b49	-0.00026437108
80	0xb9b559d3	-0.00034589935
81	0x397be54d	0.00024022647
82	0xba2c8595	-0.00065811846
83	0x38223c1b	3.8679787e-05
84	0xb96e31bf	-0.0002271598
85	0xb992b14a	-0.0002797938
86	0x3957ddce	0.00020586626
87	0xba20d869	-0.0006135763
88	0x372e6eb4	1.0396983e-05
89	0xb95e4ccf	-0.00021200183
90	0xb9682157	-0.00022137664
91	0x39228746	0.00015499917
92	0xba2629a6	-0.00063386036
93	0xb840affb	-4.594026e-05
94	0xb92a2a70	-0.00016228273
95	0xb997b6f5	-0.00028937278
96	0x39604889	0.00021389326
97	0xba099177	-0.0005247811
98	0xb7d45d29	-2.531575e-05
99	0xb952823c	-0.00020075677
100	0x394405a2	0.00018694115
101	0xb8d9aead	-0.00010379902
102	0x3a029158	0.00049807644
103	0x36a2da6e	4.853405e-06
104	0x390084ce	0.00012256505
105	0xb9802f19	-0.00024449153
106	0x3933cd37	0.00017147219
107	0xb96326a6	-0.00021662805
108	0x390a625c	0.00013197347
109	0xb92991a7	-0.00016171356
110	0x3845a7cb	4.712473e-05
111	0xb7df5d49	-2.662711e-05
112	0x39a497f4	0.00031393731
113	0x38940c8f	7.059529e-05
114	0x3812b181	3.4974426e-05
115	0x39d3e1d3	0.00040413308
116	0xb970c6fc	-0.00022962311
117	0x3a687160	0.0008866992
118	0xb8897f1a	-6.5563436e-05
119	0x3977c603	0.00023629521
120	0x3a0a7334	0.0005281449
121	0xb9a22005	-0.00030922904
122	0x3a98d288	0.0011659423
123	0xb85f15d4	-5.3187672e-05
124	0x39ae5c2a	0.00033256534
125	0xb993fdd4	-0.00028227142
126	0x3955ac05	0.00020377345
127	0xba0e15eb	-0.0005420136
128	0xb628892c	-2.5113795e-06
129	0xb9406e3c	-0.00018351612
130	0xb9a312fb	-0.00031103924
131	0x3959506e	0.00020724695
132	0xba15bf03	-0.0005712362
133	0x38a88252	8.035138e-05
134	0xb95a4b93	-0.00020818254
135	0xb9a8b598	-0.00032178755
136	0x3974af67	0.00023334996
137	0xba620a60	-0.0008622762
138	0xb7f674f4	-2.9379946e-05
139	0xb98810f6	-0.00025952578
140	0x3a192747	0.00058423396
141	0xb9af3ee6	-0.00033425464
142	0x3aa14121	0.0012302735
143	0xb8b7907c	-8.753032e-05
144	0x39bc77c2	0.0003594738
145	0xb961cfce	-0.00021535085
146	0x392706ce	0.00015928896
147	0xba31b4bd	-0.0006778946
148	0xb8997745	-7.317824e-05
149	0xb93b9845	-0.00017890435
150	0x3a06c3b0	0.0005140854
151	0xb99f4f98	-0.00030386145
152	0x3a8bdef1	0.00106713
153	0xb8a455c9	-7.836108e-05
154	0x39aa0df7	0.0003243533
155	0x3a4dcf4a	0.0007851018
156	0xb9f09a59	-0.00045891365
157	0x3acdd811	0.0015704652
158	0xb914ea35	-0.00014201629
159	0x39fe1cc5	0.0004846809
160	0x3a356894	0.00069201854
161	0xb9d31855	-0.00040263185
162	0x3ab10de0	0.0013508163
163	0xb9256eb8	-0.00015776872
164	0x39ddec0b	0.0004232827
165	0xb9a77205	-0.00031937673
166	0x39708082	0.00022936056
167	0xba3c7a6e	-0.00071898743
168	0x37e45210	2.7217931e-05
169	0xb9780f05	-0.00023656718
170	0x39edcb91	0.0004535583
171	0xb986ca8a	-0.00025709375
172	0x3a7ba27e	0.00095991034
173	0xb88ee7ab	-6.814239e-05
174	0x39915141	0.00027717094
175	0x3a315e8b	0.0006766102
176	0xb9cc2547	-0.00038937686
177	0x3ab49581	0.0013777466
178	0xb8f9ff54	-0.00011920804
179	0x39d186b9	0.00039963963
180	0xb9bbbcdb	-0.00035808128
181	0x3987fbae	0.00025936723
182	0xba3f19cc	-0.0007289916
183	0x365d4b58	3.2975422e-06
184	0xb987e99c	-0.0002592326
185	0xb96500e7	-0.00021839478
186	0x393ce143	0.00018012994
187	0xba44e8c2	-0.000751149
188	0xb90a5fae	-0.00013196349
189	0xb95e0e18	-0.0002117682
190	0xb9b2657e	-0.00034026423
191	0x39770580	0.00023557805
192	0xba5df594	-0.0008467075
193	0x37829215	1.5565232e-05
194	0xb98a0d0f	-0.0002633114
195	0x398ba2d0	0.0002663345
196	0xb92cbef6	-0.00016474337
197	0x3a29e5eb	0.0006481099
198	0x3773b311	1.4525621e-05
199	0x393480b9	0.0001721409
200	0x3a2194ca	0.0006163834
201	0xb9c1c244	-0.00036956568
202	0x3aa319d1	0.0012443607
203	0xb8d29979	-0.00010042167
204	0x39c42bc9	0.00037416656
205	0xb9bf0a48	-0.0003643802
206	0x3988ea9d	0.00026114742
207	0xba33ec31	-0.00068635034
208	0x3847c3a3	4.7627498e-05
209	0xb98928fc	-0.00026161212
210	0x39187a4d	0.0001454141
211	0xb8c56522	-9.4125295e-05
212	0x396b3027	0.00022429285
213	0xb88cb800	-6.709993e-05
214	0x38d859c0	0.000103164
215	0xb9ac05ce	-0.0003281072
216	0x3972ea44	0.00023166189
217	0xba41f155	-0.0007398327
218	0x37d3e7ae	2.5261044e-05
219	0xb9808afd	-0.00024517617
220	0x38fcae40	0.00012048753
221	0xb882f944	-6.2453124e-05
222	0x39c00dbc	0.00036631327
223	0xb6cad9a9	-6.045408e-06
224	0x38952439	7.111621e-05
225	0x3a2028c3	0.00061095896
226	0xb9b7ed30	-0.00035081198
227	0x3a9fead0	0.0012200717
228	0xb913e64a	-0.00014104802
229	0x39c6cee8	0.0003791966
230	0x3a3a6b0f	0.000711129
231	0xb9e106c1	-0.00042920376
232	0x3ab3a2dc	0.0013705152
233	0xb9154128	-0.0001423402
234	0x39e4c6d1	0.0004363568
235	0x3a1c9acc	0.0005973994
236	0xb9b3e129	-0.00034309298
237	0x3aa24002	0.0012378695
238	0xb8ea2a99	-0.00011165924
239	0x39bfc1b2	0.00036574673
240	0x3a29f83a	0.0006483827
241	0xb9c1d708	-0.0003697204
242	0x3aae7fec	0.001331327
243	0xb8dd8061	-0.000105620136
244	0x39d2f922	0.0004023994
245	0x3a4a1d1e	0.0007710027
246	0xb9e366e0	-0.00043373462
247	0x3aca203b	0.0015420982
248	0xb9197709	-0.00014635561
249	0x39f068ce	0.00045854453
250	0xb96ffe08	-0.0002288745
251	0x392f3648	0.00016709522
252	0xb9e70f6b	-0.0004407124
253	0x37011545	7.693951e-06
254	0xb93b72b9	-0.00017876447
255	0xb8efe02f	-0.000114381655

exp_avg_sq f4 [256, 5]
0	0x341fca11	1.488154e-07
1	0x340f7bfe	1.3363021e-07
2	0x34b0f844	3.2963192e-07
3	0x33fd5d0f	1.1798158e-07
4	0x338192b9	6.033719e-08
5	0x33e4671f	1.0635835e-07
6	0x33b49bca	8.410241e-08
7	0x35299500	6.317423e-07
8	0x34e69408	4.2948545e-07
9	0x33bf6fda	8.914476e-08
10	0x340a1587	1.2860083e-07
11	0x33df2845	1.0391572e-07
12	0x3506bbb0	5.019201e-07
13	0x33e6f31b	1.075443e-07
14	0x33ede013	1.10769314e-07
15	0x3337c869	4.279028e-08
16	0x33141ae3	3.448339e-08
17	0x3478694f	2.3135111e-07
18	0x340899d5	1.2721951e-07
19	0x33246215	3.827343e-08
20	0x342fc2d8	1.6369029e-07
21	0x34257e88	1.5412854e-07
22	0x34807b45	2.3931548e-07
23	0x335cb93e	5.139122e-08
24	0x33659528	5.3453874e-08
25	0x33868a7d	6.265052e-08
26	0x3367690e	5.3879425e-08
27	0x345507e2	1.9840039e-07
28	0x3382bb83	6.087705e-08
29	0x33885cec	6.349896e-08
30	0x349bcf08	2.9021635e-07
31	0x34653a40	2.1348478e-07
32	0x354d88aa	7.6567324e-07
33	0x339dabfd	7.342167e-08
34	0x3454179b	1.9752626e-07
35	0x33d3c36a	9.860999e-08
36	0x33991dc8	7.130035e-08
37	0x347fd87f	2.3827486e-07
38	0x32dc5e8a	2.5654362e-08
39	0x33a9249f	7.876337e-08
40	0x34217a30	1.5038745e-07
41	0x33f429d2	1.13697425e-07
42	0x34d4395b	3.952981e-07
43	0x332a17fd	3.9603027e-08
44	0x33bfc886	8.9306056e-08
45	0x331a0e05	3.586867e-08
46	0x3301d50d	3.022892e-08
47	0x33bb6091	8.7254314e-08
48	0x32b180e7	2.066413e-08
49	0x3304710c	3.083646e-08
50	0x33fb0589	1.1689105e-07
51	0x33b448fb	8.395178e-08
52	0x351b4088	5.7835905e-07
53	0x349bf9e0	2.9052808e-07
54	0x33d2ae11	9.8105495e-08
55	0x3241b1a1	1.1274467e-08
56	0x32189e7e	8.883601e-09
57	0x330cf061	3.2814913e-08
58	0x3203f41b	7.680707e-09
59	0x32167508	8.757759e-09
60	0x33c51832	9.1779285e-08
61	0x33abd8ca	8.002242e-08
62	0x344b7f72	1.8952213e-07
63	0x3397ccd0	7.0687406e-08
64	0x3396f63f	7.029711e-08
65	0x34422542	1.8081212e-07
66	0x3420ca0c	1.4974665e-07
67	0x359021f7	1.0738721e-06
68	0x354901e5	7.488109e-07
69	0x34225473	1.5118148e-07
70	0x3441e2a0	1.8056971e-07
71	0x3436df96	1.7031411e-07
72	0x345dc226	2.065286e-07
73	0x33aae90a	7.9586314e-08
74	0x340862de	1.2701955e-07
75	0x340591fc	1.2439699e-07
76	0x33c12df4	8.995622e-08
77	0x34b28c1d	3.325703e-07
78	0x33a1b449	7.5299404e-08
79	0x340b527a	1.2975389e-07
80	0x33e55cc2	1.0680516e-07
81	0x33b3a9cc	8.366223e-08
82	0x348f6974	2.6712553e-07
83	0x33ba99d5	8.689282e-08
84	0x3460da23	2.0940983e-07
85	0x33e0c0e1	1.0465897e-07
86	0x33c18b20	9.0125695e-08
87	0x34a5aac0	3.0857882e-07
88	0x3467377d	2.1533738e-07
89	0x340f2ce3	1.3334243e-07
90	0x3394a60e	6.921992e-08
91	0x336fba05	5.5815708e-08
92	0x34e55f07	4.2723715e-07
93	0x34a75029	3.1164498e-07
94	0x342b4c4d	1.5953374e-07
95	0x339e07b3	7.358849e-08
96	0x3369bf36	5.4423445e-08
97	0x341b01be	1.4436134e-07
98	0x33a17a6c	7.519415e-08
99	0x34444d90	1.828214e-07
100	0x331b8655	3.6210924e-08
101	0x330b682e	3.245821e-08
102	0x338f1ddc	6.664388e-08
103	0x32170450	8.790337e-09
104	0x32cf67cf	2.4145178e-08
105	0x33ace30e	8.050675e-08
106	0x338ac80c	6.462514e-08
107	0x340d73a5	1.317372e-07
108	0x33c0351d	8.950358e-08
109	0x33a54c1b	7.697255e-08
110	0x33ba2833	8.668612e-08
111	0x33ba3c37	8.672253e-08
112	0x341a72e2	1.4384162e-07
113	0x3404ef61	1.2380544e-07
114	0x3307ea13	3.1645026e-08
115	0x33e079cd	1.0452968e-07
116	0x33bbf2bf	8.752021e-08
117	0x34b1c8f3	3.311503e-07
118	0x3387167d	6.290518e-08
119	0x33be142f	8.851236e-08
120	0x34584be0	2.0144171e-07
121	0x34288681	1.5695151e-07
122	0x353955a6	6.9042505e-07
123	0x3424f2e9	1.536206e-07
124	0x340f3731	1.3337991e-07
125	0x335543bf	4.9654542e-08
126	0x3326c7b4	3.8831516e-08
127	0x33ea39a1	1.0906957e-07
128	0x333e558f	4.4315637e-08
129	0x33ebd671	1.0982047e-07
130	0x33d2f2a3	9.8230224e-08
131	0x33a2b3d0	7.5764206e-08
132	0x3479f479	2.3278871e-07
133	0x32ec596f	2.7514686e-08
134	0x33b27371	8.3097696e-08
135	0x3414bfa0	1.3853287e-07
136	0x33dd9e73	1.0319936e-07
137	0x35502e18	7.7553113e-07
138	0x34acc495	3.218053e-07
139	0x340d29e5	1.314689e-07
140	0x3480565b	2.390469e-07
141	0x344dc244	1.9162786e-07
142	0x354953c7	7.5000247e-07
143	0x340560f0	1.2421856e-07
144	0x3434e335	1.6846464e-07
145	0x33ba602a	8.678792e-08
146	0x33948e14	6.917631e-08
147	0x35098b6f	5.123938e-07
148	0x34d9b6f0	4.0552504e-07
149	0x342eab35	1.6267298e-07
150	0x3490f6b4	2.700159e-07
151	0x346bc31a	2.1957058e-07
152	0x353d5cab	7.0542836e-07
153	0x33b1a6d4	8.2725506e-08
154	0x3425d632	1.5444746e-07
155	0x34c2479f	3.6187427e-07
156	0x349b95b9	2.8979937e-07
157	0x35809ff1	9.583292e-07
158	0x33a39412	7.617213e-08
159	0x349a7dd0	2.8776276e-07
160	0x34b4711c	3.360991e-07
161	0x348f3f27	2.6681775e-07
162	0x357079e3	8.9584336e-07
163	0x33cc5162	9.514294e-08
164	0x34834707	2.445233e-07
165	0x340698a8	1.2535259e-07
166	0x33c02b20	8.948541e-08
167	0x34f7f9bd	4.6189044e-07
168	0x344f701c	1.9319162e-07
169	0x3439bf8d	1.7299153e-07
170	0x34020af9	1.2111185e-07
171	0x33cab82c	9.439859e-08
172	0x34d23772	3.915589e-07
173	0x3379a8d9	5.8128396e-08
174	0x33b5337c	8.437834e-08
175	0x34967eb8	2.8031877e-07
176	0x346ca084	2.2037608e-07
177	0x3564d219	8.524235e-07
178	0x33d76a98	1.0031107e-07
179	0x34726ab5	2.2576826e-07
180	0x34355a89	1.6889875e-07
181	0x33f6bb02	1.1489284e-07
182	0x350266f4	4.857859e-07
183	0x33c52443	9.180123e-08
184	0x344acc05	1.8886938e-07
185	0x33ed3f20	1.1047655e-07
186	0x33a369d4	7.609529e-08
187	0x35006092	4.7824244e-07
188	0x342dc2b8	1.6182719e-07
189	0x33a9b813	7.903159e-08
190	0x342b9d40	1.5982823e-07
191	0x340be5b6	1.3028952e-07
192	0x34f85bf7	4.6260513e-07
193	0x3439cd76	1.7304214e-07
194	0x33ca5eb4	9.4235844e-08
195	0x34052a85	1.2402059e-07
196	0x33e47878	1.06389905e-07
197	0x346f4960	2.2285303e-07
198	0x3359f489	5.0746653e-08
199	0x33b0829f	8.2193985e-08
200	0x34931510	2.739621e-07
201	0x34625e54	2.1082207e-07
202	0x354aa9c8	7.549793e-07
203	0x338cb5a0	6.5522954e-08
204	0x3450de18	1.9452307e-07
205	0x342ecaf9	1.6278854e-07
206	0x34155d25	1.3910592e-07
207	0x34b1a6b5	3.3090114e-07
208	0x341aafef	1.4406372e-07
209	0x34371370	1.7050274e-07
210	0x32ecee3c	2.7582352e-08
211	0x32bb07c9	2.1773205e-08
212	0x3327c431	3.9061153e-08
213	0x3319077d	3.56299e-08
214	0x335a4ecc	5.0828746e-08
215	0x33df1562	1.0388136e-07
216	0x33bb5918	8.724072e-08
217	0x34ffd0c9	4.7649363e-07
218	0x34973d0b	2.8170356e-07
219	0x343cbf37	1.7578428e-07
220	0x333c432b	4.383325e-08
221	0x333768bc	4.2703263e-08
222	0x33932add	6.853018e-08
223	0x32f33e1d	2.8317169e-08
224	0x3386621e	6.257709e-08
225	0x34478035	1.857996e-07
226	0x341fe4f2	1.4891319e-07
227	0x34faf4d1	4.6744256e-07
228	0x332fe6ac	4.0955157e-08
229	0x341db1ec	1.4686492e-07
230	0x34a4e226	3.0711925e-07
231	0x347d8fc3	2.3614761e-07
232	0x355b8a50	8.178513e-07
233	0x33860380	6.240498e-08
234	0x34786a96	2.3135576e-07
235	0x348163f6	2.4100854e-07
236	0x34522fab	1.9575116e-07
237	0x3542e539	7.2604195e-07
238	0x33dae4ea	1.0193055e-07
239	0x343ccd28	1.75835e-07
240	0x345dfd5c	2.06744e-07
241	0x34346340	1.6799913e-07
242	0x35163461	5.5955576e-07
243	0x3387d428	6.3250184e-08
244	0x34376439	1.7079664e-07
245	0x34d07329	3.882681e-07
246	0x34a5e3e3	3.0899454e-07
247	0x359cb2f7	1.1674991e-06
248	0x341ef9e6	1.4805809e-07
249	0x34a244bb	3.022486e-07
250	0x341804a5	1.4157793e-07
251	0x34166e3d	1.4009943e-07
252	0x33a6db01	7.769814e-08
253	0x3288d55b	1.5929507e-08
254	0x32eb7de4	2.7414849e-08
255	0x339d3a6c	7.321509e-08

exp_avg f4 [256, 64]
0	0x00000000	0.0
1	0x00000000	0.0
2	0x00000000	0.0
3	0x00000000	0.0
4	0x00000000	0.0
5	0x00000000	0.0
6	0x00000000	0.0
7	0x00000000	0.0
8	0x00000000	0.0
9	0x00000000	0.0
10	0x00000000	0.0
11	0x00000000	0.0
12	0x00000000	0.0
13	0x00000000	0.0
14	0x00000000	0.0
15	0x00000000	0.0
16	0x00000000	0.0
17	0x00000000	0.0
18	0x00000000	0.0
19	0x00000000	0.0
20	0x00000000	0.0
21	0x00000000	0.0
22	0x00000000	0.0
23	0x00000000	0.0
24	0x00000000	0.0
25	0x00000000	0.0
26	0x00000000	0.0
27	0x00000000	0.0
28	0x00000000	0.0
29	0x00000000	0.0
30	0x00000000	0.0
31	0x00000000	0.0
32	0x00000000	0.0
33	0x00000000	0.0
34	0x00000000	0.0
35	0x00000000	0.0
36	0x00000000	0.0
37	0x00000000	0.0
38	0x00000000	0.0
39	0x00000000	0.0
40	0x00000000	0.0
41	0x00000000	0.0
42	0x00000000	0.0
43	0x00000000	0.0
44	0x00000000	0.0
45	0x00000000	0.0
46	0x00000000	0.0
47	0x00000000	0.0
48	0x00000000	0.0
49	0x00000000	0.0
50	0x00000000	0.0
51	0x00000000	0.0
52	0x00000000	0.0
53	0x00000000	0.0
54	0x00000000	0.0
55	0x00000000	0.0
56	0x00000000	0.0
57	0x00000000	0.0
58	0x00000000	0.0
59	0x00000000	0.0
60	0x00000000	0.0
61	0x00000000	0.0
62	0x00000000	0.0
63	0x00000000	0.0
64	0x00000000	0.0
65	0x00000000	0.0
66	0x00000000	0.0
67	0x00000000	0.0
68	0x00000000	0.0
69	0x00000000	0.0
70	0x00000000	0.0
71	0x00000000	0.0
72	0x00000000	0.0
73	0x00000000	0.0
74	0x00000000	0.0
75	0x00000000	0.0
76	0x00000000	0.0
77	0x00000000	0.0
78	0x00000000	0.0
79	0x00000000	0.0
80	0x00000000	0.0
81	0x00000000	0.0
82	0x00000000	0.0
83	0x00000000	0.0
84	0x00000000	0.0
85	0x00000000	0.0
86	0x00000000	0.0
87	0x00000000	0.0
88	0x00000000	0.0
89	0x00000000	0.0
90	0x00000000	0.0
91	0x00000000	0.0
92	0x00000000	0.0
93	0x00000000	0.0
94	0x00000000	0.0
95	0x00000000	0.0
96	0x00000000	0.0
97	0x00000000	0.0
98	0x00000000	0.0
99	0x00000000	0.0
100	0x00000000	0.0
101	0x00000000	0.0
102	0x00000000	0.0
103	0x00000000	0.0
104	0x00000000	0.0
105	0x00000000	0.0
106	0x00000000	0.0
107	0x00000000	0.0
108	0x00000000	0.0
109	0x00000000	0.0
110	0x00000000	0.0
111	0x00000000	0.0
112	0x00000000	0.0
113	0x00000000	0.0
114	0x00000000	0.0
115	0x00000000	0.0
116	0x00000000	0.0
117	0x00000000	0.0
118	0x00000000	0.0
119	0x00000000	0.0
120	0x00000000	0.0
121	0x00000000	0.0
122	0x00000000	0.0
123	0x00000000	0.0
124	0x00000000	0.0
125	0x00000000	0.0
126	0x00000000	0.0
127	0x00000000	0.0
128	0x00000000	0.0
129	0x00000000	0.0
130	0x00000000	0.0
131	0x00000000	0.0
132	0x00000000	0.0
133	0x00000000	0.0
134	0x00000000	0.0
135	0x00000000	0.0
136	0x00000000	0.0
137	0x00000000	0.0
138	0x00000000	0.0
139	0x00000000	0.0
140	0x00000000	0.0
141	0x00000000	0.0
142	0x00000000	0.0
143	0x00000000	0.0
144	0x00000000	0.0
145	0x00000000	0.0
146	0x00000000	0.0
147	0x00000000	0.0
148	0x00000000	0.0
149	0x00000000	0.0
150	0x00000000	0.0
151	0x00000000	0.0
152	0x00000000	0.0
153	0x00000000	0.0
154	0x00000000	0.0
155	0x00000000	0.0
156	0x00000000	0.0
157	0x00000000	0.0
158	0x00000000	0.0
159	0x00000000	0.0
160	0x00000000	0.0
161	0x00000000	0.0
162	0x00000000	0.0
163	0x00000000	0.0
164	0x00000000	0.0
165	0x00000000	0.0
166	0x00000000	0.0
167	0x00000000	0.0
168	0x00000000	0.0
169	0x00000000	0.0
170	0x00000000	0.0
171	0x00000000	0.0
172	0x00000000	0.0
173	0x00000000	0.0
174	0x00000000	0.0
175	0x00000000	0.0
176	0x00000000	0.0
177	0x00000000	0.0
178	0x00000000	0.0
179	0x00000000	0.0
180	0x00000000	0.0
181	0x00000000	0.0
182	0x00000000	0.0
183	0x00000000	0.0
184	0x00000000	0.0
185	0x00000000	0.0
186	0x00000000	0.0
187	0x00000000	0.0
188	0x00000000	0.0
189	0x00000000	0.0
190	0x00000000	0.0
191	0x00000000	0.0
192	0x00000000	0.0
193	0x00000000	0.0
194	0x00000000	0.0
195	0x00000000	0.0
196	0x00000000	0.0
197	0x00000000	0.0
198	0x00000000	0.0
199	0x00000000	0.0
200	0x00000000	0.0
201	0x00000000	0.0
202	0x00000000	0.0
203	0x00000000	0.0
204	0x00000000	0.0
205	0x00000000	0.0
206	0x00000000	0.0
207	0x00000000	0.0
208	0x00000000	0.0
209	0x00000000	0.0
210	0x00000000	0.0
211	0x00000000	0.0
212	0x00000000	0.0
213	0x00000000	0.0
214	0x00000000	0.0
215	0x00000000	0.0
216	0x00000000	0.0
217	0x00000000	0.0
218	0x00000000	0.0
219	0x00000000	0.0
220	0x00000000	0.0
221	0x00000000	0.0
222	0x00000000	0.0
223	0x00000000	0.0
224	0x00000000	0.0
225	0x00000000	0.0
226	0x00000000	0.0
227	0x00000000	0.0
228	0x00000000	0.0
229	0x00000000	0.0
230	0x00000000	0.0
231	0x00000000	0.0
232	0x00000000	0.0
233	0x00000000	0.0
234	0x00000000	0.0
235	0x00000000	0.0
236	0x00000000	0.0
237	0x00000000	0.0
238	0x00000000	0.0
239	0x00000000	0.0
240	0x00000000	0.0
241	0x00000000	0.0
242	0x00000000	0.0
243	0x00000000	0.0
244	0x00000000	0.0
245	0x00000000	0.0
246	0x00000000	0.0
247	0x00000000	0.0
248	0x00000000	0.0
249	0x00000000	0.0
250	0x00000000	0.0
251	0x00000000	0.0
252	0x00000000	0.0
253	0x00000000	0.0
254	0x00000000	0.0
255	0x00000000	0.0
