lightning_logs/version_5/checkpoints/epoch=4-step=130.ckpt (torch, 227860 bytes, 15 tensors)

lstm.weight_ih_l0 f4 [256, 5]
000000 46 b9 af bd 28 f7 23 3b f8 24 b9 3d 8a 81 30 3e
       -0.0858026 0.0025019143 0.09040254 0.17236915
000010 22 ce 1a be 4c 2f 72 be f7 14 e3 3d 1c e6 33 be
       -0.15117696 -0.23650855 0.11087983 -0.17568249
000020 63 6e 8c 3d f6 ca 45 3d d7 f8 94 3d fd 50 81 be
       0.06856992 0.04828926 0.07274025 -0.25257102
000030 9d cd d0 3d df 8c fa 3d cc cb 74 bc 78 fb ad bc
       0.101954676 0.122339 -0.014941167 -0.021238074
000040 3d e1 1e 3e 63 58 c3 bc a6 fc 6b 3d a4 4a 16 bd
       0.15515609 -0.023845857 0.05761399 -0.036692277
000050 ef 9b ba bc 30 0d ab 3d a3 ed 17 be c7 88 4a 3d
       -0.022779433 0.08352125 -0.14836745 0.049446847
000060 9f a6 73 bd 26 7e 59 bc 39 f9 1e 3e f9 39 84 bc
       -0.059485074 -0.013274705 0.15524758 -0.016140925
000070 c5 8c c4 3c b5 c1 72 be 54 f4 5e be cc ad 64 3e
       0.023992905 -0.23706706 -0.21772891 0.22331923
000080 a2 ad 2e 3c 36 7b 96 3d 97 74 22 be f1 df 39 be
       0.0106615145 0.07347719 -0.15864788 -0.18151833
000090 d5 86 14 3e cc d3 36 bd 54 fe 80 3e b1 b3 68 be
       0.1450456 -0.04463558 0.25194037 -0.22724797
0000a0 90 bd 15 be 5f a4 41 3e 4a 07 27 be 60 8b 81 bd
       -0.14623094 0.18910359 -0.16311374 -0.06325412
0000b0 97 88 8e 3d 74 35 15 3e 09 52 6f be 99 ad 00 3e
       0.06959646 0.14571172 -0.23371138 0.12566222
0000c0 14 43 35 3c 8f 18 99 bd f2 15 de bd ec 14 d9 bd
       0.011063356 -0.07475387 -0.108440295 -0.10599694
0000d0 74 17 de bc b7 a2 42 3d 10 f3 d6 bd c7 09 fc bd
       -0.027110793 0.04751846 -0.10495579 -0.123065524
0000e0 11 ac 22 3e 36 10 4a be 6c 18 ec 3d 30 2b 81 bd
       0.1588595 -0.19732746 0.115280956 -0.063070655
0000f0 cb 05 5d 3e ab 52 3f be 4d 6b 2f 3e 28 12 c2 3d
       0.21584241 -0.18683879 0.17130776 0.09476119
000100 1b 9a 02 be cb f9 32 be 70 d5 48 3e 34 3e 2a 3e
       -0.12754099 -0.17478101 0.1961267 0.16625291
000110 e6 95 84 bd 40 6e dc 3d 95 14 06 be 0d f9 1a 3e
       -0.06473903 0.10763216 -0.13093789 0.15134068
000120 82 29 59 be 88 85 24 3e 5e b0 81 3d 54 de 8e bd
       -0.2120724 0.16066563 0.063324675 -0.069759995
000130 01 d6 ff 39 50 cb af 3d a9 5f 8d 3d ca 2e 81 3b
       0.00048796835 0.08583701 0.06903011 0.0039423453
000140 5b 47 73 bc 9f 25 0d 3e ba 6f 1e be 71 79 a6 3c
       -0.014848555 0.13783883 -0.15472308 0.02032158
000150 41 e0 4a bd 9e 8b 70 be 0b e5 3e 3e da 74 4c 3d
       -0.04953027 -0.2349076 0.1864206 0.049916126
000160 89 84 e1 bc f0 8e 55 3e 53 28 0e 3d 4a f2 c7 3d
       -0.027529018 0.20855308 0.034706425 0.0976301
000170 86 a7 06 be f9 a8 a0 bc dd ec 75 bd 70 ea 38 be
       -0.13149843 -0.019611822 -0.060040344 -0.18058181
000180 2b 94 4f 3e 2d 1d 42 be 51 10 4c 3e fb e4 18 bc
       0.20271365 -0.18956442 0.19928099 -0.009331937
000190 74 45 89 3e e6 59 21 be 08 e0 49 3c 26 9f 21 bd
       0.268108 -0.1575695 0.01232148 -0.039458416
0001a0 87 4a 3a be 45 17 41 bc 2f f2 ab bb d7 a7 81 be
       -0.18192492 -0.011785333 -0.0052473764 -0.25323364
0001b0 dc 2e 8c bc 32 f7 c4 bd f0 ca 73 bd 37 1c 41 ba
       -0.017112188 -0.09617461 -0.05951971 -0.000736657
0001c0 54 41 6f be 42 71 76 be d7 0e 67 3d c2 4b 80 3d
       -0.23364764 -0.24066642 0.056410637 0.0626445
0001d0 fa 14 12 be f2 59 f5 3d 8f ac 06 3e 17 7e 2e be
       -0.14265814 0.11980046 0.13151763 -0.17040287
0001e0 19 b1 29 be 0e e0 4d 3e ee d5 b4 3c be 5c 14 3e
       -0.16571464 0.20105001 0.022074666 0.14488503
0001f0 ab c7 a4 bd 8f 27 4c 3e 5a 5b e5 bd 2d 10 23 be
       -0.08045896 0.19936965 -0.111990646 -0.1592414
000200 64 9d 67 bc bb 51 c6 3d df 09 59 be c0 e0 06 3e
       -0.014136646 0.096835576 -0.21195172 0.13171673
000210 ba 31 87 be 8b c0 0b 3d 14 a0 04 3e d9 b8 39 3d
       -0.26405126 0.03411917 0.1295169 0.0453423
000220 0a 21 01 bd 49 1f 3a bd 30 01 c3 3d 04 4f b3 bc
       -0.03152565 -0.045439992 0.09521711 -0.021888264
000230 54 68 2e be dc f5 ba 3d 21 cb 93 3c 11 d8 0c be
       -0.17031986 0.09128925 0.018041195 -0.13754298
000240 e9 4a dd 3d f2 97 cf 3d d0 d5 8b be cb 4e d2 3d
       0.108053036 0.10136403 -0.27311563 0.10268935
000250 e1 75 28 3e 48 dc 64 be 8a 52 01 be 8c 74 29 3d
       0.16451217 -0.22349656 -0.12629142 0.041370913
000260 5e d6 a4 bd 11 a6 3d 3d c8 f3 32 3e 9f b6 d2 bd
       -0.080487 0.04630095 0.17475808 -0.102887385
000270 04 04 03 be d8 45 59 be 7e 94 d8 3c 27 b8 07 be
       -0.127945 -0.2121805 0.026437994 -0.13253842
000280 b7 6d bc 3d f9 ca 72 3c 3b ed 17 3d 70 05 38 3e
       0.09200614 0.0148189 0.037091475 0.17970824
000290 2e ea 35 3d 13 97 1a 3d c9 d7 27 be 4c 28 26 be
       0.044412784 0.03774173 -0.16390909 -0.1622631
0002a0 e4 0c 78 bc 4d d0 ac b9 6e cd c3 3d aa 28 8c 39
       -0.015139792 -0.00032961593 0.09560667 0.00026733178
0002b0 9a 5e 76 bd 17 64 72 3d 35 54 ab bd 0e bf 0b 3e
       -0.060148813 0.059177484 -0.083656706 0.136471
0002c0 58 fc 35 be a6 d4 f7 3b 73 3e 0c 3e d4 be d1 bd
       -0.17772043 0.0075631915 0.13695697 -0.10241476
0002d0 ce 8d 4f 3d 6d a5 54 bd 11 44 34 be d3 6a 33 bd
       0.050672345 -0.051915575 -0.1760409 -0.043803047
0002e0 b7 4f e4 3d a8 bd 30 be ea 3d 5c 3e 20 0d f2 bd
       0.11148017 -0.17259848 0.21507993 -0.1181891
0002f0 24 1b 7c be e3 14 44 3e 9d 3b 22 be ea 05 28 3e
       -0.24619728 0.19148593 -0.15843053 0.16408506
000300 c3 9a 25 be e3 98 25 3e dd f5 ce 3c df 04 15 3d
       -0.16172318 0.16171603 0.025263721 0.0363816
000310 92 35 f0 3a 4f 93 f2 bd 7c 5a a6 bd 23 a8 f1 3c
       0.0018326512 -0.11844503 -0.08122727 0.02949912
000320 ad ba a0 bc 89 81 01 be d4 72 11 3e 11 a5 a1 3c
       -0.019620264 -0.1264707 0.1420396 0.01973203
000330 cb cc 69 bd a8 ea d6 bd 4a 75 38 3d 61 cc 15 be
       -0.05708007 -0.10493976 0.04503373 -0.14628746
000340 7c 19 30 3e 2c 37 46 bd af f5 81 bd c0 dd 5c 3d
       0.17197222 -0.04839246 -0.063456886 0.053922415
000350 64 99 76 be c2 16 cd 3b 44 b3 fa bc d2 c5 83 3b
       -0.24081951 0.0062588165 -0.030603059 0.0040213848
000360 5c 9a 17 3d 83 ba b2 bc b8 35 c5 bd 4d 29 41 bd
       0.037012443 -0.021817451 -0.09629387 -0.047158528
000370 72 69 2c 3e b8 5c 8a be e6 1f fa 3d 93 92 89 bc
       0.16837099 -0.27023864 0.122131154 -0.016793525
000380 75 70 0c be 02 88 ca 3c f3 67 6d be 8b f1 e9 bb
       -0.13714774 0.024723057 -0.23184185 -0.00713939
000390 05 2c 02 be 80 05 55 bb da e8 07 bd fe 5a 59 bd
       -0.12712105 -0.00325045 -0.03318105 -0.053065293
0003a0 55 14 bc bc 75 ed 32 3d 72 33 2c bc 38 07 cc bd
       -0.022958914 0.043683488 -0.010510312 -0.09962314
0003b0 a4 8e 05 3d 1a d1 84 3c 23 79 37 3e d5 c1 a5 bd
       0.032606736 0.016212989 0.17917304 -0.08093611
0003c0 0c 94 6d 3c 92 c6 3d 3e a0 ed 4c be a8 8c 0b 3d
       0.014500629 0.1853278 -0.20012522 0.034069687
0003d0 9e 33 03 be 6f d3 06 3e 41 41 10 bd 09 f2 c0 bd
       -0.12812659 0.13166593 -0.03521848 -0.094211645
0003e0 6a a0 2b 3e d4 49 4d be 33 5c 43 3e bc 8f 58 be
       0.16760412 -0.20047694 0.1907814 -0.2114858
0003f0 12 26 a0 3d 4e d1 13 bd 60 7e bd bd e6 b9 be bd
       0.07819761 -0.03608828 -0.0925262 -0.09312801

lstm.weight_hh_l0 f4 [256, 64]
000000 a8 d0 c4 bd a8 95 b5 3d d2 67 98 bd 46 e1 aa 3d
       -0.096101105 0.08866435 -0.07441677 0.08343749
000010 88 3d c4 bd 90 3e c5 3d 8c 0f 27 bd 3c 86 71 3d
       -0.09582049 0.096310735 -0.04078631 0.058965907
000020 80 91 ad 3d 50 d8 92 3c 98 f4 35 bd 70 d7 d4 bd
       0.084750175 0.017925411 -0.044422716 -0.10392654
000030 9e 19 b7 3d a4 2f d9 bd 44 31 dc 3d 24 6e 0b 3d
       0.08940433 -0.1060479 0.10751584 0.034040585
000040 04 53 c5 3d 18 7e 05 3d 88 02 a9 bd 80 57 4c bd
       0.096349746 0.032590955 -0.08252436 -0.049888134
000050 d4 5e 2b 3d de b2 c7 3d 50 47 74 3d a8 fa 89 bd
       0.041838482 0.09750913 0.05963832 -0.06737262
000060 dc f2 02 3d 30 19 93 bd 34 c7 32 bd 24 65 f7 3d
       0.03196989 -0.071825385 -0.043647006 0.12079838
000070 e0 e6 27 3d 70 3d 6d 3c e8 6a 60 bd e6 16 a1 3d
       0.040991664 0.01447998 -0.054789454 0.07865696
000080 24 6d 3b bd ec 8a c5 bd ea ea f8 3d d8 73 02 3d
       -0.04575838 -0.09645638 0.12154181 0.03184876
000090 20 79 62 bc 8a ed bb bd a0 34 31 3d 38 d7 e3 bc
       -0.013822824 -0.09176166 0.043263078 -0.027812585
0000a0 b8 fe f9 bc 64 51 42 bd aa 61 d0 bd f0 ad 6a bd
       -0.030516967 -0.0474409 -0.10174878 -0.057294786
0000b0 1c 4a 44 3d 38 c7 14 bd d4 18 d9 bd 20 c3 21 3d
       0.04792224 -0.036322802 -0.10600439 0.039492726
0000c0 c4 b4 19 3d 20 2a 55 bd 04 f7 4f 3d 44 91 1c 3d
       0.037525907 -0.052042127 0.05077268 0.038224474
0000d0 0c b1 5f bd 66 17 f3 3d d8 40 c6 3d e0 9e 1a bd
       -0.054612204 0.11869697 0.09680337 -0.03774917
0000e0 a0 35 61 bc 64 dc f9 3d 80 f3 e8 bc 7c 32 72 bd
       -0.013745695 0.12200239 -0.028436422 -0.059130177
0000f0 58 0b a1 bd 0c 6c ba bd 40 b0 17 3c dc 63 5f 3d
       -0.07863492 -0.091026396 0.00925833 0.054538593
000100 30 e4 0a 3c f8 11 f9 3c 1c 2f ad bd ac 80 70 bd
       0.008477256 0.030404076 -0.08456251 -0.05871646
000110 18 85 f0 3d 4c 85 f0 3d fa 5d d8 3d 86 ee 89 3d
       0.117441356 0.11744174 0.105647996 0.06734948
000120 78 53 be bc 08 33 1d bd 24 c5 a6 bd 40 2c 33 3d
       -0.02323316 -0.038378745 -0.0814307 0.043743372
000130 c8 7d 98 bd f2 fd af 3d e0 3a 34 bd c2 20 d9 3d
       -0.07445866 0.08593358 -0.04400146 0.10601951
000140 a0 68 55 bc 28 00 69 bd 16 1c fc 3d 04 e8 2c bd
       -0.013025433 -0.056884915 0.123100445 -0.042213455
000150 38 df ae bc b4 a3 a9 3d 38 39 a2 bc 9a a3 8e bd
       -0.021346673 0.08283177 -0.019802675 -0.06964798
000160 2e b3 9e 3d 74 34 7e bd 58 cb 10 3d 0a 40 92 3d
       0.077490196 -0.062061742 0.035350174 0.07141121
000170 be cd 8b 3d 5a 47 fa bd f2 b1 fc 3d 04 65 c6 bd
       0.068263516 -0.122206405 0.12338628 -0.09687236
000180 88 07 03 bd a0 9c 84 bb ac c2 f4 3d bc ad 15 3d
       -0.031989604 -0.0040469915 0.11951193 0.03654264
000190 84 ea 49 3d 84 a2 54 3d 30 78 7c 3c b2 ce b9 3d
       0.049295917 0.0519128 0.015409514 0.09072627
0001a0 40 9a 5e 3c 70 eb b2 bc 76 25 c2 3d ce 21 94 3d
       0.013586581 -0.021840781 0.09479801 0.0723301
0001b0 78 88 d6 bd 0c 2e e5 3d c0 d1 e9 bb 16 80 9b 3d
       -0.10475248 0.11190423 -0.0071356 0.0759279
0001c0 c2 bf b1 3d ee fe e3 3d 58 a6 71 3d a0 79 a7 3b
       0.08679153 0.11132608 0.05899653 0.0051109344
0001d0 80 62 18 3c 30 83 6b bc c0 ac e3 3b 80 b2 07 bb
       0.009300828 -0.014374539 0.0069480836 -0.002070576
0001e0 d0 6c f5 bd f0 69 6b 3c 42 e2 d0 bd c0 ed 74 bb
       -0.11983645 0.014368519 -0.10199405 -0.0037373155
0001f0 c8 ca 86 bc de 4a c7 bd 08 b6 e7 bc 30 6a c6 bd
       -0.016454116 -0.09731077 -0.028285041 -0.096882224
000200 d0 a8 69 bd 88 1a 52 3d 12 57 89 bd 20 d6 bf 3d
       -0.057045758 0.051294833 -0.067060605 0.09367013
000210 d8 08 b2 3c a8 c7 86 3d 68 b8 99 bd 80 34 9d 3a
       0.021732733 0.0658105 -0.07505876 0.0011993796
000220 c4 24 72 3d f0 a8 04 bd 8c bd 2f 3d 1c fa bb 3d
       0.059117094 -0.032387674 0.042905375 0.09178564
000230 58 1b 32 3d 88 80 93 bc 9e 35 d0 3d ba 95 9a bd
       0.04348311 -0.018005624 0.10166477 -0.07548089
000240 28 b6 aa bc 44 78 46 bd 2c 01 d0 3d 1e 80 c6 3d
       -0.020838812 -0.048454538 0.101564735 0.09692405
000250 4e b9 97 bd 0c e0 24 bd e8 63 f9 3d 00 1b bf 3c
       -0.07408391 -0.04025273 0.12177259 0.023328304
000260 b6 4b f7 3d 9c c7 d9 bd d6 b1 d8 3d f0 b5 9e bd
       0.120749876 -0.106337756 0.105807945 -0.077495456
000270 28 f6 f6 3d c0 24 44 3b a2 82 dd 3d 20 a3 97 bb
       0.12058669 0.0029929131 0.10815932 -0.0046276003
000280 00 e8 97 3c 0c 7d fa bd 58 bf c0 3c 30 0e 18 3c
       0.018543243 -0.12230882 0.02352874 0.009280726
000290 9e f4 d2 3d 02 fe df 3d 96 6b c2 bd 74 0b 92 bd
       0.10300563 0.1093712 -0.09493177 -0.07131091
0002a0 84 98 eb 3d 74 f6 13 bd 76 48 ea bd 46 c7 d3 bd
       0.115036994 -0.036123708 -0.11439602 -0.10340743
0002b0 5a e1 d6 bd 26 d0 b2 bd 90 36 e5 3d 18 a2 b7 3d
       -0.10492201 -0.087311074 0.111920476 0.08966464
0002c0 be 8e e4 3d 24 51 97 3d 9e 18 fd 3d 12 f6 a9 bd
       0.111600384 0.07388523 0.12358211 -0.08298887
0002d0 68 c4 90 3d 80 4c 64 bc b0 22 b0 bd ae 36 ad 3d
       0.070687115 -0.013934255 -0.08600366 0.08457695
0002e0 a0 11 3b bc 30 ce 00 3d be d3 9b 3d ee 35 dc bd
       -0.011417776 0.031446636 0.07608746 -0.10752474
0002f0 da 72 e1 bd 0c 40 48 3d 94 8a 9f bd 10 ca 80 bc
       -0.11008234 0.048889205 -0.077901036 -0.01572135
000300 00 3e ac 3b 48 13 e6 bd 62 13 85 bd 68 c6 73 3d
       0.0052564144 -0.11234146 -0.064978376 0.059515387
000310 e6 d2 bb bd 14 79 ff 3d 80 97 fa 3c 7a e2 dd bd
       -0.09171085 0.12474266 0.030589819 -0.108342126
000320 68 0e 5f 3d f8 69 91 3d 24 1c a6 3d 9e 02 c8 bd
       0.0544571 0.0710029 0.08110836 -0.09766124
000330 4e 59 ba 3d d8 8d ca bc c0 69 3b bc 34 35 59 bd
       0.09099065 -0.02472584 -0.011438787 -0.053029254
000340 ca 97 d7 3d da 09 bf 3d 00 4a cd ba ec af 98 bd
       0.10526998 0.09328051 -0.0015662313 -0.074554294
000350 8c 37 07 bd 74 77 91 bd 10 02 5c 3d c0 b8 d8 3c
       -0.033011958 -0.07102862 0.053712904 0.026455283
000360 42 e7 8f bd f6 81 c2 3d 60 c4 fd 3c 14 9e de bd
       -0.07026531 0.09497444 0.030977428 -0.10869995
000370 3a 20 ee bd 80 3c cf bd d6 50 c1 3d 60 f7 7f 3d
       -0.116272405 -0.10118961 0.09439246 0.062491775
000380 6c 9a 03 3d 14 c2 9f bd a8 4f bd 3c d0 ed 80 3d
       0.03212969 -0.07800689 0.023109272 0.06295359
000390 9a d5 f7 bd b0 f4 1a 3c f0 47 fa bc dc e9 a5 bd
       -0.12101288 0.009457752 -0.03055188 -0.08101246
0003a0 40 c6 ec bc 1c 04 5c 3d 48 a2 49 bd 9c 71 5e 3d
       -0.028903127 0.053714857 -0.04922703 0.054307565
0003b0 36 f3 e5 bd 88 47 7b 3d 18 0a db bc 66 65 cf 3d
       -0.112280294 0.061347514 -0.026738212 0.10126762
0003c0 b4 9a 44 3d 62 d6 b3 bd bc de 19 3d 02 2a bb 3d
       0.0479991 -0.08781125 0.03756593 0.09138872
0003d0 76 6e 9a bd 0c 34 de 3d a0 c0 55 bd 36 a8 ce bd
       -0.075406 0.10849771 -0.052185655 -0.100906774
0003e0 84 4a 8a 3d 00 54 15 bd ec 88 ba bd 10 5c 8b bc
       0.06752494 -0.03645706 -0.09108147 -0.017011672
0003f0 c2 89 aa bd 6a ad c6 bd 44 55 f9 3d 70 29 ce bd
       -0.083270565 -0.09701045 0.12174466 -0.10066497

lstm.bias_ih_l0 f4 [256]
000000 81 a8 83 3e ee d5 8e 3e 71 0d 03 3c da 11 e7 3d
       0.25714496 0.2789759 0.00799881 0.11282702
000010 32 4f 8e 3c 79 71 15 3e 22 4c b7 3d 61 ec fc 3d
       0.017371748 0.14594068 0.08950068 0.12349773
000020 49 15 75 bd 64 2b 8b 3e f0 a0 2a 3e c3 1f 0d 3e
       -0.059834752 0.27181542 0.16662955 0.13781647
000030 b1 ce 87 3e 80 ba 13 3c 39 d6 87 3e 5f 13 2d 3d
       0.2652488 0.009016633 0.26530626 0.0422548
000040 a4 2f 8c 3e d9 5d 24 3e bd 86 d8 3d 80 33 12 3e
       0.27380097 0.16051425 0.10572574 0.14277458
000050 9a 72 68 3e c1 21 3f 3d 0f b0 00 3e 46 72 13 3d
       0.22699967 0.04666305 0.12567161 0.03599765
000060 63 37 39 3e 72 fa e2 bd 40 91 8e 3e 80 29 66 3d
       0.18087535 -0.11082925 0.27845192 0.05619192
000070 b4 9f dd 3d 91 f9 14 3e 33 23 01 3e e6 76 01 3e
       0.108214766 0.14548327 0.12611084 0.12643012
000080 40 7b fb 3d 58 e2 db 3d 09 7c 61 3e 15 e7 43 3e
       0.122793674 0.10736531 0.22019972 0.1913112
000090 22 c0 71 3d 9e a4 56 3e 6e d4 43 3d b8 20 c4 bb
       0.059021123 0.20961234 0.04781001 -0.0059853457
0000a0 7d 36 4a 3e 1b cf 80 3e 77 25 94 3d 33 a3 32 3d
       0.19747348 0.2515801 0.07233708 0.04361267
0000b0 1b 92 23 3d d1 e1 37 bb 91 d7 e8 bd e6 49 4b 3e
       0.03993426 -0.002805818 -0.11369241 0.19852409
0000c0 f1 c2 0a 3e db 75 11 3c 6c ae 83 3e 2d 49 5a 3e
       0.13550927 0.008878197 0.2571901 0.21316977
0000d0 fc 95 ad bb 3d 9a 75 3e b9 6d 41 3e 76 57 17 3e
       -0.0052974205 0.23984618 0.18889512 0.14779457
0000e0 30 c6 bf 3d b1 0d 97 3d 4d 6a e5 3d 3e 01 a0 3d
       0.09363973 0.07375658 0.11201916 0.07812737
0000f0 67 94 06 3e 9c 7b 1e 3e 12 14 59 3d fd 26 4a 3d
       0.13142549 0.1547684 0.052997656 0.04935359
000100 4c 18 61 3d b0 20 7c 3c 94 2e 1f bd 84 b2 cf bd
       0.054954812 0.015388653 -0.03886278 -0.10141471
000110 2c cb f7 bd 66 19 87 3d 60 97 08 bd 80 a3 ce ba
       -0.12099299 0.06596641 -0.033347487 -0.001576528
000120 70 c4 9c bd 28 0b c2 bc 28 6f 96 bd fc 06 42 3d
       -0.07654655 -0.02368696 -0.0734542 0.047369942
000130 3c d5 77 bd e2 4d 89 bd 94 8b 7a bd 10 35 25 3c
       -0.06050609 -0.06704308 -0.06116827 0.010083452
000140 f2 3f df 3d ac 98 94 bd 46 48 e4 3d 00 7c 2e 3a
       0.109008685 -0.07255682 0.111465976 0.00066560507
000150 58 4f be 3c 8c a0 ce bd 78 9e 3c bd ce 8d e2 3d
       0.023231193 -0.10089216 -0.046049565 0.11062203
000160 08 7d e2 3c c2 8a cf 3d 82 f0 b3 bd 5e b5 fd 3d
       0.02764751 0.10133888 -0.087861076 0.12388109
000170 3e 00 c0 bd 70 10 a3 bc ea 14 aa 3d b0 d3 e5 3d
       -0.09375046 -0.019905299 0.0830477 0.11222017
000180 36 07 84 3d e2 bc b5 3d b8 28 26 3d f0 30 0c bd
       0.06446688 0.08873917 0.040566176 -0.034226358
000190 b4 c9 03 bd 40 29 26 bb 10 9b c8 bd a2 db c1 3d
       -0.03217478 -0.0025354177 -0.09795201 0.0946572
0001a0 e0 92 7d 3c a4 80 1d 3d 00 e4 4a bb 58 61 2e bd
       0.015476912 0.03845276 -0.0030958652 -0.042573303
0001b0 d8 20 93 3c 60 80 6c bd 70 83 22 3c 60 bd 84 3b
       0.017959997 -0.057739615 0.009919032 0.0040508956
0001c0 b0 6c c1 bd e4 73 bb 3d 24 97 82 bd f0 72 55 bd
       -0.094445586 0.09152964 -0.06376484 -0.052111566
0001d0 90 45 5e bc f0 1d 4b 3d 6c e0 0a bd 7c 80 32 bd
       -0.01356639 0.049589097 -0.03390543 -0.043579563
0001e0 f6 9a e9 3d 84 af 8b bd 60 fc 42 3c 7c ac dc 3d
       0.114065096 -0.06820586 0.011900991 0.10775086
0001f0 28 53 b3 3d 3a 12 bd 3d 88 dc 4d 3d fe e7 aa bd
       0.08756095 0.09231992 0.050259143 -0.0834503
000200 33 1c 47 be c4 2e 14 3e 4b f2 ab 3d fc 25 0a 3e
       -0.19444351 0.14470965 0.08395823 0.13491052
000210 9e b8 14 bc f1 c2 26 be 70 36 01 be 99 c5 46 be
       -0.009077219 -0.16285302 -0.12618423 -0.19411315
000220 29 1b 8f 3c 7e c2 17 3e ab 06 1f bb a5 c1 cb bd
       0.017469006 0.14820287 -0.002426545 -0.09949044
000230 68 9e 0f 3e f1 4f 30 3e 04 93 4d bc 77 24 44 be
       0.14025271 0.17217995 -0.012547258 -0.19154535
000240 6a 2b 30 be 22 f3 f3 bd ac 31 06 3d 27 20 a8 bd
       -0.17204061 -0.11911608 0.032762215 -0.082092576
000250 79 85 01 be c9 4f f0 3d 83 f6 25 3e 69 64 c6 3d
       -0.12648572 0.11733968 0.16207318 0.096871205
000260 e7 d1 87 3d ed 63 96 3d 34 2c ec 3d cf ab 95 bd
       0.066318326 0.07343278 0.115318686 -0.073081605
000270 42 be c2 bd 9d 3a 10 be 06 ca b8 3c b4 cb a3 bd
       -0.09508945 -0.14084859 0.02255727 -0.07997838
000280 36 1b 67 3d c6 1a c9 3c e3 31 05 be 81 ea 3f bd
       0.056422435 0.0245489 -0.13007312 -0.0468545
000290 55 df c1 3c bb 2c 7e 3d 0f f7 fa ba 95 1e 40 ba
       0.023666063 0.062054377 -0.0019147116 -0.0007328776
0002a0 4d 72 41 3e d8 e1 1d 3e 28 e8 20 bd cd a9 17 3e
       0.18891259 0.15418184 -0.0392839 0.14810868
0002b0 62 e6 2b 3e 0f b6 ed bc 76 fb 5a 3d 7e de 13 3e
       0.16787103 -0.029017476 0.053462468 0.14440343
0002c0 92 87 f8 3d 4b 66 26 3c 5a 6d be bc ca 68 0f 3e
       0.12135233 0.0101562245 -0.023245502 0.14004818
0002d0 8e 75 3f be 01 02 c0 bc 73 a7 b5 3d 09 b9 25 be
       -0.18697187 -0.023438456 0.08869829 -0.16183867
0002e0 cf d8 34 3e 25 a2 da 3c 34 aa 0e be 06 80 46 bd
       0.17660831 0.026688645 -0.13932115 -0.048461936
0002f0 60 62 09 be aa a8 85 3d bc 69 09 bd ee 29 40 be
       -0.13416433 0.06526311 -0.0335481 -0.18765995
000300 bb 23 74 3e ea e4 7a 3e 23 68 17 3e 54 12 ce 3d
       0.23841755 0.24501386 0.14785819 0.100620896
000310 12 d1 c3 3d 7b b8 5a 3d 46 e4 11 3e 99 b6 49 3e
       0.09561361 0.05339859 0.14247236 0.19698562
000320 27 58 e6 3d 4d ac 54 3e 7e 8e 04 bd 22 7c 7d 3e
       0.112472825 0.20768853 -0.032362454 0.24754384
000330 3a d6 03 3e 55 f7 41 3e f4 96 06 3e 2b ea 1e 3e
       0.1287469 0.18942006 0.13143522 0.15519015
000340 cf dd 7c 3e db fb 1f 3e 52 7a 07 3e 8c fb a5 3d
       0.24693988 0.15623419 0.13230255 0.081046194
000350 03 17 46 3e c1 cb 7f 3d 8e a9 2f 3d 95 d8 c9 3d
       0.19344716 0.062450174 0.04288631 0.09855763
000360 6f d7 f6 3c af 4b 68 bd 24 2c 9d 3d 3a c8 80 3d
       0.030132024 -0.056712802 0.07674435 0.0628819
000370 f3 2a ea bc 91 a7 62 3d e0 46 ba 3c 30 4e 16 bd
       -0.028584933 0.055335585 0.022738874 -0.03669566
000380 b2 95 86 3d 11 1c 27 3e 61 ef 00 3e 76 cd 38 3e
       0.06571521 0.163193 0.12591316 0.18047127
000390 95 1c 30 3e 44 70 00 3e f0 5b 99 bc d5 55 39 3e
       0.17198403 0.12542826 -0.018720597 0.18099149
0003a0 0e ee 39 3e 73 37 3e 3e a7 a2 3f bb 8b b2 94 bd
       0.18157217 0.1857584 -0.0029241235 -0.07260617
0003b0 7c c2 76 3e 16 72 f8 3c 30 0f b3 bd 21 37 29 3e
       0.24097627 0.030327838 -0.08743131 0.16524936
0003c0 c5 d1 8f 3d 8e 4d a9 3d e2 8c 60 3e dc 9c 6b 3d
       0.07022432 0.082667455 0.21928743 0.05752264
0003d0 e8 26 4b bc a0 f6 8e 3d ae da 22 3e 85 c8 cb 3d
       -0.012399413 0.06980634 0.15903732 0.099503554
0003e0 11 3c 3d 3e a9 d6 1b 3d 1e d0 01 3d 1f fb 3c bc
       0.18479945 0.038046513 0.031692617 -0.011534481
0003f0 25 90 8f 3e 08 d4 3c 3e 50 e2 4c bd 05 22 6c 3d
       0.2803966 0.18440259 -0.050020516 0.05764963

lstm.bias_hh_l0 f4 [256]
000000 45 5c 42 3e 1c 22 4c 3e 3b 1f 57 3e 83 1f 76 3d
       0.1898051 0.19934887 0.21008007 0.060088646
000010 da 9b b7 3d 9b 0e 51 3e b0 40 e0 3d 1b 78 b5 3c
       0.08965273 0.20415728 0.10949838 0.022151997
000020 ab 9e 57 3d b8 9e 76 3e fe 1c 31 bc 1e 65 38 3e
       0.052641552 0.24083984 -0.010810135 0.18007323
000030 bf 84 76 3e 40 94 43 3e 22 d5 70 3d 3d 10 43 3e
       0.24074076 0.19099522 0.05879701 0.19049163
000040 84 24 6b 3e 9e 00 07 3e bc 66 20 3e ba 1c 5d 3e
       0.22963148 0.13183829 0.1566419 0.2159299
000050 3b d8 70 3d 98 8c a9 3d dd bb 82 3e d7 be 2a 3e
       0.058799963 0.08278769 0.25533953 0.16674362
000060 57 dc 62 3e 44 0b 57 3d 31 a4 c4 3d 72 ae 82 3d
       0.22154365 0.052500978 0.096016295 0.06380929
000070 77 07 20 3c 14 20 26 3d 3f ea 93 3d 34 bf 0f 3d
       0.009767405 0.040557936 0.07222413 0.035094455
000080 c9 b3 b3 3d 73 70 25 3e 37 a5 9d 3d e9 e7 78 3e
       0.08774526 0.16156177 0.07697528 0.24307217
000090 da 89 44 3e 55 1d 8c 3e ab 62 90 bc 93 ac 14 3e
       0.19193211 0.2736613 -0.017625174 0.14518957
0000a0 c4 0f 56 3e 96 2a 6a 3e e3 9a ec 3b f3 e8 64 bc
       0.20904452 0.22867808 0.0072206124 -0.013971555
0000b0 d0 88 06 3e ec f7 b5 3d 11 f7 aa 3d b6 40 81 3e
       0.13138127 0.08885178 0.083479054 0.25244683
0000c0 95 79 35 3d 42 ca 84 bd a2 49 53 3e 75 3b 60 3d
       0.044305403 -0.0648389 0.20633557 0.054744203
0000d0 a0 06 20 3e 21 5b 63 3e a3 89 2a 3e 15 14 90 3d
       0.15627527 0.22202732 0.16654067 0.0703508
0000e0 b3 e8 7d 3e ec a9 ba 3d 8e cb 0f 3d 3f 06 ca 3d
       0.24795799 0.09114441 0.035106234 0.098644726
0000f0 5a 11 7e 3e fe be 76 3e 25 03 1b be b8 2a c1 3d
       0.24811307 0.24096295 -0.15137918 0.09431976
000100 60 3c ce bc a0 db 86 bd ce d2 f2 3d e0 af aa 3c
       -0.025175273 -0.06584859 0.11856614 0.020835817
000110 1a 6d e5 3d 58 88 cf 3d 3e c3 df bd 9a 15 e1 3d
       0.1120245 0.101334274 -0.10925911 0.10990448
000120 78 89 cd 3d 38 c3 9c 3d 10 44 3d bd e0 05 3a 3c
       0.10035986 0.076544225 -0.046207488 0.01135394
000130 c0 cd 5e bd 84 42 74 3d 50 84 df bd 2c e5 42 bd
       -0.054395437 0.059633747 -0.109139085 -0.047581837
000140 3c 56 e3 3d 9a 00 fe bd 00 06 22 3c 0e ea ad bd
       0.11100432 -0.124024585 0.009889126 -0.08491908
000150 10 05 56 3d c8 a9 a3 3d b0 55 80 bc f4 ff 5e bd
       0.05225092 0.079913676 -0.015665859 -0.054443315
000160 dc ca 5d 3d 40 ef 66 bb 10 6e 5a 3c 62 8d 94 bd
       0.05414854 -0.003523782 0.013331905 -0.07253529
000170 f0 13 9b bd 48 03 d5 3c 2c d8 71 3d 6a fd 9c bd
       -0.07572162 0.026002541 0.05904405 -0.076655224
000180 fc df 75 3d 52 bc e9 bd 70 c7 db 3d 68 c7 24 bd
       0.06002806 -0.114128724 0.10731399 -0.04022923
000190 e0 c4 81 bc 6a ee 9e bd a0 e3 e0 3d b8 a0 c4 3d
       -0.015840948 -0.077603176 0.10980916 0.09600967
0001a0 08 b4 a4 3d 08 9e 7f 3d e0 c2 b3 bc 4a b7 cd bd
       0.08042151 0.06240657 -0.02194351 -0.10044725
0001b0 4e a1 95 bd 3c 77 b1 3d c4 cb dc bd 68 84 9e bc
       -0.07306157 0.0866532 -0.10781053 -0.019350246
0001c0 80 07 e5 bb 30 28 d4 bc 2e df 80 bd 08 58 d6 bd
       -0.0069894195 -0.02589807 -0.06292568 -0.104660094
0001d0 80 3e e6 ba 88 52 63 3d a4 97 e9 bd ae 0b 87 bd
       -0.0017566234 0.05549863 -0.11405876 -0.065940246
0001e0 72 11 f2 bd 74 c0 9f 3d 28 9c 6e bd 3e 95 87 3d
       -0.11819734 0.078003794 -0.05825439 0.066202626
0001f0 de 30 b3 bd 88 f2 a1 3c 48 88 e4 3c 48 95 f0 bd
       -0.08749555 0.019768968 0.027897015 -0.11747223
000200 a6 07 fc 3b 57 41 b9 3d af c1 13 3d f3 89 03 3d
       0.0076913415 0.09045666 0.036073383 0.03211398
000210 9f 21 6e bd 4a 2f 26 be a9 13 2c be bf 72 0e be
       -0.058137532 -0.16228977 -0.16804375 -0.1391096
000220 d6 1c 76 3d 17 2c 5f 3d ed 4f 56 3c 21 74 ca bc
       0.060086094 0.054485407 0.013080579 -0.024713578
000230 b6 d4 93 3c d1 35 27 3e 6b 38 06 be b0 31 da bc
       0.018045764 0.16329123 -0.13107459 -0.026635021
000240 d8 2d 7e bd 84 2c b6 bd a7 7d 09 3e 2b b9 00 be
       -0.06205544 -0.088952094 0.13426839 -0.12570636
000250 45 56 6d bd 5f fe d3 b9 48 7e 68 3d e8 bf dd 3d
       -0.0579436 -0.00040434577 0.056761056 0.10827619
000260 25 59 4a 3e 57 40 8c 3d a0 d4 13 3e 5f ed 13 3d
       0.19760568 0.06848209 0.14436579 0.036115047
000270 90 59 b4 bd 89 a0 fc bd f8 b7 73 3d 97 b9 20 3d
       -0.08806145 -0.12335307 0.05950162 0.039239492
000280 da 99 52 3e 67 8f 13 b9 ba 2f e1 bc 00 f0 d6 bd
       0.20566502 -0.00014072434 -0.027488578 -0.10494995
000290 9b bb 17 3e ac 1e 39 3e 25 5b 1a 3d bb 7c 8c bd
       0.1481766 0.18078107 0.03768458 -0.06859728
0002a0 db c9 2a 3e 6d 4d 0d 3d 39 bb 08 bc 8b 8f 03 3e
       0.16678564 0.034497667 -0.008345419 0.12847726
0002b0 2f 84 a0 3d fb 5e fe bb a7 70 0f 3d 52 85 45 3e
       0.07837712 -0.0077627874 0.035019543 0.19289139
0002c0 b3 c1 39 bd 03 d7 33 3d 40 28 1c be b9 32 22 3e
       -0.04535074 0.043906223 -0.15249729 0.15839662
0002d0 76 aa 3e bd ae e1 c7 bd 9f 49 27 3e 1a 1c 19 be
       -0.046549283 -0.09759842 0.16336678 -0.14952126
0002e0 bb 82 94 bc d4 4e 04 3e 8e e1 db bd 36 41 66 3c
       -0.018128743 0.12920696 -0.107363805 0.014053633
0002f0 ea 94 bd bd 68 95 82 3d eb 81 d7 3d 08 80 93 bd
       -0.09256919 0.06376153 0.10522827 -0.072021544
000300 9d 7d 83 3e 49 ee 1c 3e ac 36 35 3e 96 7a 25 3d
       0.25681773 0.15325274 0.17696637 0.04040011
000310 e4 f8 0a 3e 2e e6 d5 bc 1d 98 fd 3d 48 15 02 3e
       0.13571507 -0.026110735 0.12382529 0.1270343
000320 5a fd 08 3e f0 49 ad 3d 1f e1 8a 3d 6f 99 0b 3e
       0.13377896 0.08461368 0.0678122 0.13632749
000330 91 78 b7 3d 37 04 f4 3d d7 ff 05 3e 93 bb 82 3e
       0.08958543 0.119148664 0.13085876 0.25533733
000340 67 b5 0d 3e 76 4c 15 3e 32 93 6c 3e a0 3f 3c 3e
       0.13838731 0.14579949 0.23103026 0.18383646
000350 5b 59 da 3d de f6 56 3d 7e 8f 86 3e 85 1c 4a 3e
       0.106615745 0.052481525 0.2628135 0.19737442
000360 96 d0 fb 3d b4 b1 38 bb fe c1 08 3e d0 7b 69 bd
       0.12295644 -0.0028182091 0.13355252 -0.057002842
000370 03 ca cd 3d 77 e1 47 3e 10 b3 58 3d 25 49 13 3e
       0.10048296 0.19519602 0.052905142 0.14383371
000380 9d 9c c7 3d e3 53 64 3d dc 14 44 3d 1d 50 24 3e
       0.097466685 0.055744063 0.047871456 0.16046186
000390 e4 e5 0f 3e a3 34 1f 3e 03 48 09 3e 0f e2 9e bc
       0.1405254 0.15547423 0.13406377 -0.019394903
0003a0 21 80 44 3e 92 54 72 3e 61 f3 1d 3d 2b c6 26 3d
       0.19189502 0.23665074 0.038562182 0.04071633
0003b0 fe 6f 6f 3e 48 32 52 3d e6 de af bd b9 80 2b 3e
       0.23382565 0.051317483 -0.085874364 0.16748323
0003c0 32 1b cb 3d ab 64 4a 3d da 7a 68 3e 7d bf 56 3e
       0.099172965 0.04941241 0.22703114 0.20971484
0003d0 4b d4 c8 3d 9d b0 31 3e ab 92 26 3e a5 1c 90 3d
       0.09806117 0.17352529 0.16266887 0.070367135
0003e0 aa 22 07 3e f9 aa 54 3d 89 95 17 3e ed 39 66 3c
       0.13196817 0.051920865 0.14803137 0.0140518965
0003f0 0f 3a 9a 3e 28 11 08 3e 4c 62 8a bd 14 da 5e 3e
       0.3012242 0.13287795 -0.0675703 0.21762878

fc.weight f4 [1, 64]
000000 bf ba 87 3e 24 98 38 be 54 48 02 be 3e db 34 be
       0.26509663 -0.18026787 -0.12722903 -0.1766176
000010 e4 64 44 3e 87 af 2b 3e 09 9c 3c 3e 73 5d 60 3e
       0.19179112 0.16766177 0.18418898 0.21910648
000020 42 c0 2f be c4 db 80 be 83 89 01 3e 4e 78 cd 3d
       -0.17163184 -0.25167668 0.12650113 0.10032712
000030 e5 1b 17 be b4 8a 0e be 1a b5 2a 3e f5 7c 86 3e
       -0.14756735 -0.13920099 0.16670647 0.2626721
000040 8f 40 4f 3e 68 67 62 3e 78 01 7c be c4 10 36 3e
       0.20239471 0.22109759 -0.24609935 0.17779833
000050 a1 17 39 3e 7a 4e 6e be 41 8e 50 be c8 62 b2 bd
       0.1807542 -0.23272124 -0.20366766 -0.08710247
000060 c4 62 63 be 78 37 b6 3c 7b 9e 1a be 62 67 23 3e
       -0.22205645 0.022243246 -0.15099518 0.15957406
000070 b8 64 39 3e 3c a3 52 3e 54 d0 3f be c3 98 ad 3d
       0.18104827 0.20570081 -0.18731815 0.084764026
000080 0d 62 3f be 82 3e 82 3d f7 7a 18 3e 67 19 1a 3e
       -0.18689747 0.06359579 0.14890657 0.15048753
000090 ca 2c 64 be f6 cd 2c be 8c 4c d3 bd d2 2b f6 3d
       -0.2228271 -0.16875443 -0.103173345 0.12020077
0000a0 9f 2e 33 be 27 14 49 be 4e be d5 3d b7 fd d9 bd
       -0.17498253 -0.19636594 0.10436688 -0.106440954
0000b0 15 a9 72 be 06 4e ff bd 61 cb 8a bc 65 e3 2c be
       -0.23697312 -0.12466054 -0.016942682 -0.16883619
0000c0 4e f5 6a be e0 0f c2 bd 38 26 75 3e 82 2a 4e be
       -0.22945139 -0.09475684 0.2394036 -0.20133403
0000d0 31 b7 60 3e 62 20 04 3e 30 ad 81 be e3 dc ec 3d
       0.21944882 0.12902978 -0.25327444 0.11565568
0000e0 f8 bb 30 be bd 25 3e bd 80 a7 5c 3e 2b 82 43 3e
       -0.17259204 -0.04642271 0.21548271 0.19092624
0000f0 9d 5d 2b 3e aa c1 71 be 72 a8 6e bd 81 d0 5b 3e
       0.1673493 -0.23609033 -0.05826611 0.21466257

exp_avg f4 [256, 5]
000000 f5 72 b0 39 f5 72 b0 b9 41 4e 77 39 83 b1 7d ba
       0.00033654986 -0.00033654986 0.00023584907 -0.00096776354
000010 93 c1 4d 3a ad 76 5b 3a ad 76 5b ba 23 cd 25 3a
       0.0007848974 0.0008371871 -0.0008371871 0.0006324818
000020 26 22 75 b9 e1 86 a5 b8 9c 4b 18 ba 9c 4b 18 3a
       -0.00023377742 -7.892936e-05 -0.00058096065 0.00058096065
000030 9a d1 a2 b9 31 c0 0e b8 86 c4 79 39 7c 7c f5 39
       -0.00031055213 -3.403443e-05 0.00023819701 0.0004682279
000040 7c 7c f5 b9 db 08 8a 38 bf 91 b7 b9 d1 b3 28 39
       -0.0004682279 6.582002e-05 -0.0003501307 0.00016088715
000050 8a 69 9a 39 8a 69 9a b9 28 bf 3d 3a d6 3e 89 b9
       0.00029451802 -0.00029451802 0.00072382623 -0.00026177493
000060 f7 d2 12 39 1e ae f4 39 1e ae f4 b9 5f 0b bd b9
       0.00014002236 0.00046669034 -0.00046669034 -0.0003605736
000070 18 d2 ec b9 d3 67 86 39 d2 3c 94 39 d2 3c 94 b9
       -0.0004516996 0.00025635827 0.00028274074 -0.00028274074
000080 61 f2 c4 b8 19 21 21 ba 2e 84 f8 39 ee 1c 7b 3a
       -9.391155e-05 -0.00061465945 0.00047400728 0.0009579201
000090 ee 1c 7b ba 96 9e 5c b7 5b 00 72 ba 4b f6 08 3a
       -0.0009579201 -1.31499455e-05 -0.00092316204 0.0005224689
0000a0 30 4f 84 3a 30 4f 84 ba e7 f0 6d 3a 1c fd b3 b9
       0.00100944 -0.00100944 0.000907673 -0.00034330122
0000b0 5f 64 1e b8 87 7a 95 ba 87 7a 95 3a fc 88 83 ba
       -3.7763613e-05 -0.0011404314 0.0011404314 -0.0010035331
0000c0 e0 36 87 38 c7 d1 b4 39 2c fd 8d 39 2c fd 8d b9
       6.447523e-05 0.00034488572 0.00027082243 -0.00027082243
0000d0 0a 9a 3d 3a d9 9b aa b9 42 03 5a 39 4a 6e 18 3a
       0.00072327314 -0.00032541042 0.00020791314 0.0005814774
0000e0 4a 6e 18 ba 40 27 4e 3a 52 a5 2f ba 38 02 dc 39
       -0.0005814774 0.0007864125 -0.0006700355 0.00041963323
0000f0 a7 59 61 ba a7 59 61 3a af e0 25 ba 2e 7f c9 37
       -0.0008596428 0.0008596428 -0.0006327731 2.402029e-05
000100 f6 57 94 39 ff bc a8 39 ff bc a8 b9 fa 60 bb b9
       0.00028294296 0.0003218427 -0.0003218427 -0.00035739673
000110 1c 88 d6 38 a3 23 5c b9 e8 64 82 3a e8 64 82 ba
       0.000102296675 -0.0002099411 0.0009948285 -0.0009948285
000120 5a aa 68 3a bc 0b b4 b9 6b 31 08 b8 87 d4 f6 38
       0.0008875482 -0.00034341018 -3.247095e-05 0.000117697804
000130 87 d4 f6 b8 3d a8 f6 b8 c1 6f 4d 39 84 d7 6b b9
       -0.000117697804 -0.00011761531 0.00019591955 -0.00022491632
000140 9c 58 d7 39 9c 58 d7 b9 13 3e e0 39 19 4f 8b b9
       0.00041074015 -0.00041074015 0.00042770858 -0.00026571078
000150 2c c6 d6 38 d3 2f 34 3a d3 2f 34 ba 91 3b 6a 39
       0.000102412276 0.00068735814 -0.00068735814 0.00022338169
000160 16 f2 c6 b5 9a 98 7e b9 25 2e 37 3a 25 2e 37 ba
       -1.4822606e-06 -0.00024280176 0.0006987772 -0.0006987772
000170 ea 2e 42 3a 04 a4 52 b9 34 c3 7d b8 47 c7 31 3a
       0.00074075034 -0.00020088261 -6.0501698e-05 0.0006781709
000180 47 c7 31 ba 80 a0 2b 3a 5d 78 e6 b9 7e 29 32 39
       -0.0006781709 0.00065470487 -0.00043958696 0.0001699086
000190 f4 6e 32 ba f4 6e 32 3a fb 31 01 ba 52 f0 15 b9
       -0.00068066944 0.00068066944 -0.0004928407 -0.00014299274
0001a0 09 d8 c4 39 73 da b4 3a 73 da b4 ba 86 8f b0 3a
       0.00037544992 0.0013798013 -0.0013798013 0.0013470508
0001b0 64 a3 c2 ba 82 50 6b 3a 5f ea 7e 3a 5f ea 7e ba
       -0.001484972 0.0008976535 0.0009724255 -0.0009724255
0001c0 fa 02 c4 39 1c ea 1c 3a c0 35 6d ba 71 57 02 b9
       0.0003738625 0.0005985813 -0.0009048842 -0.0001243034
0001d0 71 57 02 39 61 d0 8c b9 8d d8 0f b9 a4 bd 34 39
       0.0001243034 -0.00026858135 -0.00013718214 0.00017236784
0001e0 f9 52 3f 3a f9 52 3f ba 12 a9 9c b8 93 92 67 ba
       0.00072984357 -0.00072984357 -7.4701515e-05 -0.0008833792
0001f0 a9 74 14 3a 11 d2 29 b8 11 d2 29 38 53 de 44 38
       0.00056631357 -4.048838e-05 4.048838e-05 4.6937097e-05
000200 29 d6 31 38 83 bf d3 b7 30 63 12 3a 30 63 12 ba
       4.239954e-05 -2.524234e-05 0.0005584238 -0.0005584238
000210 14 61 af 39 60 4f 1a b7 74 01 47 b9 c1 ad f5 38
       0.0003345093 -9.197596e-06 -0.0001897866 0.000117148746
000220 c1 ad f5 b8 fb 55 f0 39 27 7b 4d ba 41 21 35 3a
       -0.000117148746 0.00045840428 -0.00078384805 0.0006909557
000230 47 ef 35 3a 47 ef 35 ba 77 f9 45 37 65 b8 6e 39
       0.0006940257 -0.0006940257 1.1800198e-05 0.00022766141
000240 8b d1 f0 b9 01 93 64 ba 01 93 64 3a 3a bd 74 ba
       -0.0004593249 -0.0008719415 0.0008719415 -0.0009336058
000250 df ff 7e b9 22 c8 0c 3a 6b 26 69 3a 6b 26 69 ba
       -0.00024318647 0.0005370398 0.00088939694 -0.00088939694
000260 ba 11 61 3a ba c0 e2 b8 b5 59 61 b9 a7 13 55 39
       0.00085857103 -0.00010812418 -0.0002149109 0.00020320584
000270 a7 13 55 b9 f3 89 b8 39 5e 6f 17 ba ba 35 f5 39
       -0.00020320584 0.00035197995 -0.0005776788 0.0004677007
000280 0d 70 a5 b8 0d 70 a5 38 32 bd 2d b9 4e e6 61 b9
       -7.888684e-05 7.888684e-05 -0.00016569046 -0.00021543467
000290 45 82 70 39 1b d6 fc b8 1b d6 fc 38 97 7d 25 39
       0.00022936713 -0.00012056177 0.00012056177 0.00015782412
0002a0 5c e5 ed b8 e6 13 1c 39 1a b5 2e 39 1a b5 2e b9
       -0.00011343762 0.00014884732 0.00016661399 -0.00016661399
0002b0 08 9b d8 39 31 d9 31 ba bf b2 16 3a 55 f8 27 ba
       0.00041314238 -0.0006784378 0.0005748681 -0.0006407549
0002c0 55 f8 27 3a 8a 10 65 b9 a8 94 d2 b8 b3 8b a8 39
       0.0006407549 -0.00021845303 -0.0001004127 0.0003214754
0002d0 b5 84 0c 3a b5 84 0c ba e5 02 ef 39 94 22 ba 38
       0.0005360351 -0.0005360351 0.0004558779 8.875612e-05
0002e0 52 54 8f b9 cb 13 c8 39 cb 13 c8 b9 2b 85 17 37
       -0.0002733791 0.0003816172 -0.0003816172 9.031307e-06
0002f0 91 79 1a 3a c4 e8 33 ba 4a d8 b3 39 4a d8 b3 b9
       0.00058927486 -0.0006862993 0.00034302688 -0.00034302688
000300 a4 4c 10 3a 40 40 22 ba 60 62 ef 39 d8 4b cc 39
       0.00055045844 -0.00061893836 0.00045658927 0.0003896642
000310 d8 4b cc b9 7b ef 12 3a 31 70 20 b9 97 3f 99 36
       -0.0003896642 0.00056051434 -0.00015300584 4.567158e-06
000320 5c 10 f0 b9 5c 10 f0 39 78 38 ab ba 41 b9 b3 39
       -0.00045788556 0.00045788556 -0.0013063094 0.00034279565
000330 ea 5d 25 b9 c2 a3 28 3a c2 a3 28 ba af f4 39 3a
       -0.00015770612 0.0006433093 -0.0006433093 0.00070936506
000340 cc f3 65 ba 0f 00 1b 3a 07 78 0e 3a 07 78 0e ba
       -0.00087719853 0.00059127895 0.00054347556 -0.00054347556
000350 b2 b1 20 3a 70 04 47 b9 b0 9d 83 b7 c1 e2 a0 39
       0.0006129994 -0.00018979772 -1.5689846e-05 0.00030686523
000360 c1 e2 a0 b9 eb 86 ba b9 fb da bd b7 31 43 b8 b8
       -0.00030686523 -0.00035577206 -2.2632526e-05 -8.786319e-05
000370 f4 86 5e ba f4 86 5e 3a 86 b0 89 ba 28 3b 95 38
       -0.00084887375 0.00084887375 -0.0010504879 7.1158924e-05
000380 00 7b 76 39 de 24 bf b9 de 24 bf 39 48 a2 84 38
       0.00023506209 -0.00036457827 0.00036457827 6.324478e-05
000390 99 2d 59 39 fc 52 86 b8 16 f7 e4 b7 16 f7 e4 37
       0.00020711719 -6.405075e-05 -2.7294776e-05 2.7294776e-05
0003a0 d2 04 5e b8 79 cf d3 37 73 3a 69 b7 c8 4a 2b 3a
       -5.2933414e-05 2.5249772e-05 -1.3901491e-05 0.00065342756
0003b0 c8 4a 2b ba d3 ed 7e 39 12 50 89 b9 68 08 54 37
       -0.00065342756 0.00024311924 -0.00026190333 1.2638142e-05
0003c0 42 c5 8f 3a 42 c5 8f ba 6e a8 c6 3a b0 20 78 ba
       0.0010968822 -0.0010968822 0.0015156397 -0.000946532
0003d0 13 bf 01 3a cf 8a 73 b9 cf 8a 73 39 66 33 bf 37
       0.0004949432 -0.00023225996 0.00023225996 2.2792909e-05
0003e0 38 5e b3 b9 04 e5 d2 39 68 04 34 ba 68 04 34 3a
       -0.0003421174 0.0004022495 -0.00068671117 0.00068671117
0003f0 7d 3a b0 b9 1f ed 04 ba d7 2e 3c 3a a1 49 0a b7
       -0.00033612913 -0.0005070734 0.00071786105 -8.242584e-06

exp_avg_sq f4 [256, 5]
000000 66 60 f9 32 66 60 f9 32 6c 63 da 33 c1 91 68 34
       2.9031252e-08 2.9031252e-08 1.0169501e-07 2.1659709e-07
000010 90 af 20 34 49 3b 17 34 49 3b 17 34 c1 73 9b 33
       1.496503e-07 1.4084539e-07 1.4084539e-07 7.2388055e-08
000020 58 33 d4 32 84 ca 69 32 93 d8 bf 32 93 d8 bf 32
       2.4703397e-08 1.3608432e-08 2.2333813e-08 2.2333813e-08
000030 55 bc 62 33 ee 32 a2 32 0f 69 91 32 ad ac 6a 32
       5.2791012e-08 1.8882442e-08 1.6927997e-08 1.3659855e-08
000040 ad ac 6a 32 91 cf 9f 31 2b 2a 5d 32 5a 85 96 31
       1.3659855e-08 4.6511066e-09 1.2873481e-08 4.380735e-09
000050 4f 8f 70 33 4f 8f 70 33 ee b7 87 34 9a 89 f7 33
       5.6009693e-08 5.6009693e-08 2.5279536e-07 1.15268634e-07
000060 5a 48 70 33 17 1e e9 32 17 1e e9 32 77 a4 2c 33
       5.5945158e-08 2.7138453e-08 2.7138453e-08 4.019645e-08
000070 fc fa 19 33 08 a0 79 32 24 0e aa 32 24 0e aa 32
       3.5851357e-08 1.45300945e-08 1.9797035e-08 1.9797035e-08
000080 67 df 66 33 c2 ab ab 33 50 59 49 33 e9 9b 17 34
       5.375423e-08 7.9940506e-08 4.688019e-08 1.411969e-07
000090 e9 9b 17 34 de 7a bb 32 46 a8 20 34 4d 91 63 33
       1.411969e-07 2.1825539e-08 1.4962379e-07 5.2984706e-08
0000a0 49 95 07 34 49 95 07 34 4b 72 b8 33 c1 5f 81 32
       1.2627164e-07 1.2627164e-07 8.5889575e-08 1.506112e-08
0000b0 3b 8a ab 32 00 d3 e8 33 00 d3 e8 33 46 d9 be 34
       1.996988e-08 1.08417225e-07 1.08417225e-07 3.5548345e-07
0000c0 89 6b 08 34 e4 71 01 34 d4 40 39 33 d4 40 39 33
       1.2705108e-07 1.2055494e-07 4.313263e-08 4.313263e-08
0000d0 66 6d 58 34 fd a0 c0 33 e8 ce 36 33 3e 3a 03 33
       2.0156367e-07 8.96998e-08 4.2563357e-08 3.0553785e-08
0000e0 3e 3a 03 33 04 43 79 33 de a6 43 33 02 38 a4 32
       3.0553785e-08 5.803578e-08 4.555374e-08 1.9117582e-08
0000f0 6f 89 1a 33 6f 89 1a 33 cb 9d 7d 33 f9 b8 88 32
       3.5980914e-08 3.5980914e-08 5.9049665e-08 1.59166e-08
000100 f9 c9 ad 32 65 79 75 32 65 79 75 32 20 61 31 32
       2.0231697e-08 1.4288479e-08 1.4288479e-08 1.032484e-08
000110 e4 44 08 31 b6 77 56 31 b8 26 a0 33 b8 26 a0 33
       1.9829764e-09 3.1209146e-09 7.4576235e-08 7.4576235e-08
000120 30 5f 81 33 c9 93 d0 32 ea 43 e3 31 c4 d6 9e 33
       6.024345e-08 2.4281592e-08 6.6142904e-09 7.396514e-08
000130 c4 d6 9e 33 46 ad b5 34 ac f6 0e 34 26 ed 83 33
       7.396514e-08 3.383995e-07 1.3314519e-07 6.1433e-08
000140 46 0e cf 33 46 0e cf 33 60 65 9c 34 42 a5 2c 34
       9.641785e-08 9.641785e-08 2.9131024e-07 1.6078869e-07
000150 f2 e0 98 33 ef cb 9e 33 ef cb 9e 33 34 9c ce 32
       7.118969e-08 7.3945436e-08 7.3945436e-08 2.405259e-08
000160 e3 12 37 32 89 90 15 32 82 94 2c 34 82 94 2c 34
       1.0656296e-08 8.705805e-09 1.6072775e-07 1.6072775e-07
000170 cf b9 c3 34 7a 1e 2e 34 49 f5 90 33 7b 2a 8e 33
       3.6456774e-07 1.62161e-07 6.75014e-08 6.6201174e-08
000180 7b 2a 8e 33 b7 ed b3 33 4c 66 64 33 c3 b4 99 32
       6.6201174e-08 8.378577e-08 5.3178425e-08 1.7893745e-08
000190 56 8f 12 33 56 8f 12 33 8a f2 06 34 9f 65 89 33
       3.4123637e-08 3.4123637e-08 1.2567958e-07 6.3980444e-08
0001a0 6d 2e 77 33 b6 d0 91 34 b6 d0 91 34 86 e9 97 34
       5.7551393e-08 2.7160212e-07 2.7160212e-07 2.8295852e-07
0001b0 43 22 c3 34 b0 bc 1b 34 0c a4 47 34 0c a4 47 34
       3.634651e-07 1.4504144e-07 1.8592999e-07 1.8592999e-07
0001c0 31 5c b7 33 87 6a 32 33 10 79 a8 33 fe 9c eb 2f
       8.538371e-08 4.154074e-08 7.845131e-08 4.28578e-10
0001d0 fe 9c eb 2f 93 65 5d 31 35 81 e0 30 54 c2 fd 30
       4.28578e-10 3.221747e-09 1.6334868e-09 1.8463404e-09
0001e0 9d 31 79 33 9d 31 79 33 86 75 86 32 31 0e c4 33
       5.8019953e-08 5.8019953e-08 1.5653097e-08 9.1295426e-08
0001f0 85 f9 27 33 9e cd 05 31 9e cd 05 31 a6 c6 8f 31
       3.9109654e-08 1.9470927e-09 1.9470927e-09 4.1844315e-09
000200 24 90 a8 31 a3 f7 2b 31 7c 5b 50 33 7c 5b 50 33
       4.9058304e-09 2.502454e-09 4.851198e-08 4.851198e-08
000210 0e 74 02 33 cb 98 4b 32 2a a9 dd 31 ea 29 6f 32
       3.0373535e-08 1.1850896e-08 6.4511783e-09 1.3921161e-08
000220 ea 29 6f 32 f5 91 9b 33 de 0f f2 33 46 be ac 33
       1.3921161e-08 7.2442994e-08 1.12718894e-07 8.043985e-08
000230 8d 6f 82 33 8d 6f 82 33 b2 c8 d7 32 8b 83 2e 33
       6.073888e-08 6.073888e-08 2.512056e-08 4.063217e-08
000240 66 74 87 33 3e 25 68 33 3e 25 68 33 6a a4 3a 34
       6.3076e-08 5.405058e-08 5.405058e-08 1.7382413e-07
000250 a5 a3 04 34 21 08 18 34 bb 12 a6 33 bb 12 a6 33
       1.2352992e-07 1.415906e-07 7.7333844e-08 7.7333844e-08
000260 48 b8 b7 33 a7 20 d0 32 54 6c 3a 32 9b 7e 91 31
       8.555122e-08 2.4229236e-08 1.0851256e-08 4.234449e-09
000270 9b 7e 91 31 f9 6d 6b 32 1b 59 1d 33 f3 29 e3 32
       4.234449e-09 1.3703805e-08 3.6635452e-08 2.6445354e-08
000280 f4 02 dd 32 f4 02 dd 32 ea 59 23 34 16 cf c6 33
       2.5729129e-08 2.5729129e-08 1.5213269e-07 9.257762e-08
000290 61 40 72 33 4c 51 b5 31 4c 51 b5 31 b1 83 f4 32
       5.6403568e-08 5.2770357e-09 5.2770357e-09 2.8465225e-08
0002a0 7e 8f 5f 32 a4 b7 03 32 2f b2 95 32 2f b2 95 32
       1.3012935e-08 7.666959e-09 1.7426911e-08 1.7426911e-08
0002b0 5d 3e ac 33 9e 15 c2 33 7c 65 80 33 fb f0 3f 33
       8.020718e-08 9.037761e-08 5.9789244e-08 4.4689823e-08
0002c0 fb f0 3f 33 ee 4e 21 34 d1 d6 90 33 77 ba 6d 33
       4.4689823e-08 1.5023008e-07 6.7445974e-08 5.535045e-08
0002d0 08 3d d7 33 08 3d d7 33 6f 0b 9d 34 d4 11 04 34
       1.0022819e-07 1.0022819e-07 2.9251848e-07 1.2299944e-07
0002e0 a7 25 69 33 5c 07 2d 33 5c 07 2d 33 b0 82 00 33
       5.4283785e-08 4.0286395e-08 4.0286395e-08 2.9921182e-08
0002f0 d9 26 c0 32 bb 5b 09 33 d9 e2 55 32 d9 e2 55 32
       2.2369408e-08 3.1981227e-08 1.2449811e-08 1.2449811e-08
000300 ea 78 1a 33 f7 f1 57 33 e2 f3 00 33 95 73 de 32
       3.596589e-08 5.0278654e-08 3.0024133e-08 2.5896762e-08
000310 95 73 de 32 6d 2c ac 33 53 f2 10 33 e0 a2 75 32
       2.5896762e-08 8.017455e-08 3.3748005e-08 1.429791e-08
000320 ee 8d e7 32 ee 8d e7 32 23 60 3e 34 64 8e 55 32
       2.6956481e-08 2.6956481e-08 1.7730103e-07 1.2430608e-08
000330 7e bc e1 31 00 53 80 33 00 53 80 33 1a ef fc 33
       6.569791e-09 5.975562e-08 5.975562e-08 1.1778157e-07
000340 ed b8 29 34 8e 07 b1 33 6b 5b b7 32 6b 5b b7 32
       1.5806627e-07 8.243579e-08 2.1345576e-08 2.1345576e-08
000350 ea d4 11 33 39 8d 5c 32 32 4e 9a 31 e3 a8 1f 33
       3.3954088e-08 1.2837796e-08 4.4908797e-09 3.7173674e-08
000360 e3 a8 1f 33 01 9e de 33 eb e7 32 33 8b 29 f2 32
       3.7173674e-08 1.0366421e-07 4.1654783e-08 2.81914e-08
000370 5b 0b 3a 33 5b 0b 3a 33 b3 26 81 34 67 49 a8 33
       4.3316827e-08 4.3316827e-08 2.405628e-07 7.8364614e-08
000380 d3 1d 88 33 87 a0 f6 32 87 a0 f6 32 ea 88 b0 33
       6.3384185e-08 2.8711169e-08 2.8711169e-08 8.220543e-08
000390 c3 73 47 33 11 91 b8 32 5b f0 0c 2f 5b f0 0c 2f
       4.6438583e-08 2.1486388e-08 1.2818317e-10 1.2818317e-10
0003a0 a4 a7 17 30 c0 4f c4 2e 0e 14 26 2e 93 8c b6 33
       5.517171e-10 8.9272145e-11 3.7761842e-11 8.500606e-08
0003b0 93 8c b6 33 5f 45 b9 33 a8 2a 87 33 b2 59 b0 32
       8.500606e-08 8.627352e-08 6.2941865e-08 2.0529885e-08
0003c0 95 96 6b 34 95 96 6b 34 a4 d7 01 35 5a 54 a4 34
       2.1940862e-07 2.1940862e-07 4.8370043e-07 3.0608754e-07
0003d0 7c 0f 07 34 0c 1e 24 32 0c 1e 24 32 da 4a 90 32
       1.2578488e-07 9.552888e-09 9.552888e-09 1.6797845e-08
0003e0 91 fb 8c 32 7b 4b 99 32 41 67 ad 33 41 67 ad 33
       1.6412544e-08 1.7845869e-08 8.074722e-08 8.074722e-08
0003f0 b6 f2 bd 34 ea 1c 9b 34 a8 8f 89 34 fc 2d 6e 31
       3.538059e-07 2.8892038e-07 2.5622762e-07 3.4659697e-09

exp_avg f4 [256, 64]
000000 00 00 00 00 00 00 00 00 00 00 00 00 00 00 00 00
       0.0 0.0 0.0 0.0
000010 00 00 00 00 00 00 00 00 00 00 00 00 00 00 00 00
       0.0 0.0 0.0 0.0
000020 00 00 00 00 00 00 00 00 00 00 00 00 00 00 00 00
       0.0 0.0 0.0 0.0
000030 00 00 00 00 00 00 00 00 00 00 00 00 00 00 00 00
       0.0 0.0 0.0 0.0
000040 00 00 00 00 00 00 00 00 00 00 00 00 00 00 00 00
       0.0 0.0 0.0 0.0
000050 00 00 00 00 00 00 00 00 00 00 00 00 00 00 00 00
       0.0 0.0 0.0 0.0
000060 00 00 00 00 00 00 00 00 00 00 00 00 00 00 00 00
       0.0 0.0 0.0 0.0
000070 00 00 00 00 00 00 00 00 00 00 00 00 00 00 00 00
       0.0 0.0 0.0 0.0
000080 00 00 00 00 00 00 00 00 00 00 00 00 00 00 00 00
       0.0 0.0 0.0 0.0
000090 00 00 00 00 00 00 00 00 00 00 00 00 00 00 00 00
       0.0 0.0 0.0 0.0
0000a0 00 00 00 00 00 00 00 00 00 00 00 00 00 00 00 00
       0.0 0.0 0.0 0.0
0000b0 00 00 00 00 00 00 00 00 00 00 00 00 00 00 00 00
       0.0 0.0 0.0 0.0
0000c0 00 00 00 00 00 00 00 00 00 00 00 00 00 00 00 00
       0.0 0.0 0.0 0.0
0000d0 00 00 00 00 00 00 00 00 00 00 00 00 00 00 00 00
       0.0 0.0 0.0 0.0
0000e0 00 00 00 00 00 00 00 00 00 00 00 00 00 00 00 00
       0.0 0.0 0.0 0.0
0000f0 00 00 00 00 00 00 00 00 00 00 00 00 00 00 00 00
       0.0 0.0 0.0 0.0
000100 00 00 00 00 00 00 00 00 00 00 00 00 00 00 00 00
       0.0 0.0 0.0 0.0
000110 00 00 00 00 00 00 00 00 00 00 00 00 00 00 00 00
       0.0 0.0 0.0 0.0
000120 00 00 00 00 00 00 00 00 00 00 00 00 00 00 00 00
       0.0 0.0 0.0 0.0
000130 00 00 00 00 00 00 00 00 00 00 00 00 00 00 00 00
       0.0 0.0 0.0 0.0
000140 00 00 00 00 00 00 00 00 00 00 00 00 00 00 00 00
       0.0 0.0 0.0 0.0
000150 00 00 00 00 00 00 00 00 00 00 00 00 00 00 00 00
       0.0 0.0 0.0 0.0
000160 00 00 00 00 00 00 00 00 00 00 00 00 00 00 00 00
       0.0 0.0 0.0 0.0
000170 00 00 00 00 00 00 00 00 00 00 00 00 00 00 00 00
       0.0 0.0 0.0 0.0
000180 00 00 00 00 00 00 00 00 00 00 00 00 00 00 00 00
       0.0 0.0 0.0 0.0
000190 00 00 00 00 00 00 00 00 00 00 00 00 00 00 00 00
       0.0 0.0 0.0 0.0
0001a0 00 00 00 00 00 00 00 00 00 00 00 00 00 00 00 00
       0.0 0.0 0.0 0.0
0001b0 00 00 00 00 00 00 00 00 00 00 00 00 00 00 00 00
       0.0 0.0 0.0 0.0
0001c0 00 00 00 00 00 00 00 00 00 00 00 00 00 00 00 00
       0.0 0.0 0.0 0.0
0001d0 00 00 00 00 00 00 00 00 00 00 00 00 00 00 00 00
       0.0 0.0 0.0 0.0
0001e0 00 00 00 00 00 00 00 00 00 00 00 00 00 00 00 00
       0.0 0.0 0.0 0.0
0001f0 00 00 00 00 00 00 00 00 00 00 00 00 00 00 00 00
       0.0 0.0 0.0 0.0
000200 00 00 00 00 00 00 00 00 00 00 00 00 00 00 00 00
       0.0 0.0 0.0 0.0
000210 00 00 00 00 00 00 00 00 00 00 00 00 00 00 00 00
       0.0 0.0 0.0 0.0
000220 00 00 00 00 00 00 00 00 00 00 00 00 00 00 00 00
       0.0 0.0 0.0 0.0
000230 00 00 00 00 00 00 00 00 00 00 00 00 00 00 00 00
       0.0 0.0 0.0 0.0
000240 00 00 00 00 00 00 00 00 00 00 00 00 00 00 00 00
       0.0 0.0 0.0 0.0
000250 00 00 00 00 00 00 00 00 00 00 00 00 00 00 00 00
       0.0 0.0 0.0 0.0
000260 00 00 00 00 00 00 00 00 00 00 00 00 00 00 00 00
       0.0 0.0 0.0 0.0
000270 00 00 00 00 00 00 00 00 00 00 00 00 00 00 00 00
       0.0 0.0 0.0 0.0
000280 00 00 00 00 00 00 00 00 00 00 00 00 00 00 00 00
       0.0 0.0 0.0 0.0
000290 00 00 00 00 00 00 00 00 00 00 00 00 00 00 00 00
       0.0 0.0 0.0 0.0
0002a0 00 00 00 00 00 00 00 00 00 00 00 00 00 00 00 00
       0.0 0.0 0.0 0.0
0002b0 00 00 00 00 00 00 00 00 00 00 00 00 00 00 00 00
       0.0 0.0 0.0 0.0
0002c0 00 00 00 00 00 00 00 00 00 00 00 00 00 00 00 00
       0.0 0.0 0.0 0.0
0002d0 00 00 00 00 00 00 00 00 00 00 00 00 00 00 00 00
       0.0 0.0 0.0 0.0
0002e0 00 00 00 00 00 00 00 00 00 00 00 00 00 00 00 00
       0.0 0.0 0.0 0.0
0002f0 00 00 00 00 00 00 00 00 00 00 00 00 00 00 00 00
       0.0 0.0 0.0 0.0
000300 00 00 00 00 00 00 00 00 00 00 00 00 00 00 00 00
       0.0 0.0 0.0 0.0
000310 00 00 00 00 00 00 00 00 00 00 00 00 00 00 00 00
       0.0 0.0 0.0 0.0
000320 00 00 00 00 00 00 00 00 00 00 00 00 00 00 00 00
       0.0 0.0 0.0 0.0
000330 00 00 00 00 00 00 00 00 00 00 00 00 00 00 00 00
       0.0 0.0 0.0 0.0
000340 00 00 00 00 00 00 00 00 00 00 00 00 00 00 00 00
       0.0 0.0 0.0 0.0
000350 00 00 00 00 00 00 00 00 00 00 00 00 00 00 00 00
       0.0 0.0 0.0 0.0
000360 00 00 00 00 00 00 00 00 00 00 00 00 00 00 00 00
       0.0 0.0 0.0 0.0
000370 00 00 00 00 00 00 00 00 00 00 00 00 00 00 00 00
       0.0 0.0 0.0 0.0
000380 00 00 00 00 00 00 00 00 00 00 00 00 00 00 00 00
       0.0 0.0 0.0 0.0
000390 00 00 00 00 00 00 00 00 00 00 00 00 00 00 00 00
       0.0 0.0 0.0 0.0
0003a0 00 00 00 00 00 00 00 00 00 00 00 00 00 00 00 00
       0.0 0.0 0.0 0.0
0003b0 00 00 00 00 00 00 00 00 00 00 00 00 00 00 00 00
       0.0 0.0 0.0 0.0
0003c0 00 00 00 00 00 00 00 00 00 00 00 00 00 00 00 00
       0.0 0.0 0.0 0.0
0003d0 00 00 00 00 00 00 00 00 00 00 00 00 00 00 00 00
       0.0 0.0 0.0 0.0
0003e0 00 00 00 00 00 00 00 00 00 00 00 00 00 00 00 00
       0.0 0.0 0.0 0.0
0003f0 00 00 00 00 00 00 00 00 00 00 00 00 00 00 00 00
       0.0 0.0 0.0 0.0
