lightning_logs/version_58/checkpoints/epoch=99-step=8100.ckpt (torch, 227860 bytes, 15 tensors)

lstm.weight_ih_l0 f4 [256, 5]
0	0x3f07e0a0	0.53077126
1	0xbebe4768	-0.37163854
2	0x3f994610	1.1974506
3	0x3ebef34e	0.37295002
4	0x3df1919d	0.11795352
5	0xbe9075cf	-0.2821488
6	0x3d80bc62	0.06285931
7	0xbfa186de	-1.2619283
8	0xbe9f1b04	-0.310753
9	0xbd29c5d1	-0.041448418
10	0x3ea1b664	0.31584466
11	0xbdc09ffb	-0.09405514
12	0x3fa40304	1.281342
13	0x3ea32cf8	0.31870246
14	0x3ee733c7	0.4515669
15	0xbee43c43	-0.44577226
16	0xbe9fb61a	-0.3119362
17	0xbfca4279	-1.5801536
18	0xbeb2aad2	-0.3489595
19	0x3ea9d86c	0.3317293
20	0xbf124b32	-0.5714599
21	0xbe4f5133	-0.20245819
22	0xbfe1d320	-1.7642555
23	0x3dade9eb	0.08491882
24	0x3e784e41	0.24248601
25	0x3ec6c558	0.38822436
26	0xbe968cf1	-0.29404405
27	0x3fd2eaee	1.6477945
28	0x3f085450	0.5325365
29	0x3e98802c	0.29785287
30	0x3e890bfb	0.26766953
31	0xbe69a532	-0.22816923
32	0x3fa7b86c	1.3103156
33	0x3efc65ac	0.4929632
34	0x3f27c669	0.65537125
35	0xbea65082	-0.32483298
36	0xbbf2e0fc	-0.007412074
37	0xbfac2f3a	-1.3451912
38	0xbe98e670	-0.2986331
39	0x3d9154ca	0.0709625
40	0x3e8fd592	0.2809263
41	0xbc3d31c3	-0.011547509
42	0x3f90f3f5	1.132445
43	0x3e9823ed	0.2971491
44	0xbe525fe3	-0.2054439
45	0x3e79a217	0.24378239
46	0xbd03d4ef	-0.03218549
47	0x3f9e3123	1.2358745
48	0x3e8cccb4	0.27499926
49	0xbe28f24e	-0.16498682
50	0x3e2df6b1	0.16988637
51	0xbe765f68	-0.24059832
52	0x3fc3f078	1.530776
53	0x3f176fee	0.59155166
54	0x3f1b840f	0.6074838
55	0x3e0a6d0a	0.13518158
56	0x3cb6f690	0.022334367
57	0x3f9d6de9	1.2299167
58	0x3ec22c48	0.3792441
59	0x3efd28de	0.49445242
60	0xbe8ca97f	-0.27473065
61	0x3e80275c	0.2503003
62	0xbf9b0f70	-1.2114086
63	0xbd3d1225	-0.046159882
64	0xbe0948a3	-0.13406615
65	0xbe3f941f	-0.18708847
66	0xbd58d5e4	-0.052938357
67	0xbf947109	-1.1596996
68	0xbea494c3	-0.32144746
69	0xbe287d3b	-0.16454022
70	0x3e90b088	0.28259683
71	0xbe84c33b	-0.259302
72	0x3fb73770	1.4313793
73	0x3ee58699	0.44829252
74	0xbe29aabc	-0.16569036
75	0x3f0d5869	0.5521303
76	0xbed24df1	-0.4107509
77	0x3f9e2015	1.2353541
78	0x3ed84053	0.42236575
79	0xbd9db8fb	-0.07701298
80	0xbeafe479	-0.34353998
81	0x3cae204e	0.021255638
82	0xbfbaf4c0	-1.4605942
83	0xbe7eca05	-0.24881752
84	0xbdd328fd	-0.10310552
85	0xbeb58819	-0.35455397
86	0xbee88407	-0.4541323
87	0xbfc513f4	-1.5396714
88	0xbec3429f	-0.38136765
89	0x3eebd2b7	0.460592
90	0xbe2eb725	-0.17062052
91	0xbede2544	-0.43387806
92	0xbfb41491	-1.4068776
93	0xbe46c0c3	-0.1940947
94	0x3e0e8026	0.13916072
95	0x3e364dc8	0.17803109
96	0x3d372c4a	0.04471997
97	0x3fa9cdc1	1.3265916
98	0x3e9234d7	0.2855594
99	0x3e25ede0	0.16204023
100	0x3e794043	0.2434092
101	0x3d3cd6ec	0.046103403
102	0x3f79d023	0.97583216
103	0x3e719705	0.23592766
104	0xbe0883b8	-0.13331497
105	0x3e169feb	0.14709441
106	0xbe108248	-0.14112198
107	0x3fd897e1	1.692135
108	0x3ed5c399	0.41750792
109	0x3f31f4c1	0.6951409
110	0x3f1386c0	0.5762749
111	0xbf2229c4	-0.6334498
112	0x3faec3b6	1.3653476
113	0x3eccc405	0.399933
114	0x3d80aa0b	0.06282433
115	0xbeafbe79	-0.34325007
116	0xbd8486a7	-0.064709954
117	0xbfa4fc9a	-1.2889588
118	0xbe643f54	-0.22289783
119	0x3cc91e37	0.02455054
120	0xbe749641	-0.23885442
121	0x3e3c8f5b	0.18414061
122	0xbf2041be	-0.62600315
123	0x3e336f11	0.17522837
124	0xbeb04988	-0.344311
125	0x3e554be3	0.2082973
126	0x3db198c5	0.086717166
127	0x3f924a6e	1.1428964
128	0x3f064799	0.52453
129	0xbe7a8a4b	-0.24466817
130	0x3ef7a224	0.4836589
131	0xbe7db08c	-0.24774379
132	0x3f88ce40	1.0687943
133	0x3edfadd0	0.43687296
134	0x3c12bc60	0.008956045
135	0x3e2e2634	0.17006761
136	0xbe8e583a	-0.27801687
137	0x3fc8f38c	1.5699325
138	0x3efeeb01	0.4978867
139	0x3f3e7844	0.7440226
140	0x3f452f83	0.7702562
141	0xbf13ac1d	-0.576845
142	0x3fa41ae2	1.2820704
143	0x3f0748f3	0.52845687
144	0x3e77222e	0.24134132
145	0x3dc62de7	0.09676724
146	0x3d35a914	0.0443507
147	0xbe7b9727	-0.24569379
148	0x3bff8fe6	0.0077991365
149	0xbe25ee60	-0.16204214
150	0x3d9cd9c6	0.076587245
151	0x3d6e0fd0	0.05812055
152	0x3f9deb31	1.23374
153	0x3f1a5348	0.6028333
154	0x3ea1e87a	0.31622678
155	0xbe88585c	-0.26629913
156	0xbdb086f8	-0.08619493
157	0xbf92f874	-1.1482072
158	0xbeca5e0b	-0.39524874
159	0x3daa4b05	0.0831509
160	0xbdad4c61	-0.08461834
161	0x3e1c0b93	0.1523879
162	0xbf8b1137	-1.0864629
163	0xbdc51728	-0.09623557
164	0xbe6e38a0	-0.23263788
165	0xbe6356eb	-0.22201125
166	0xbe31e35b	-0.17371885
167	0xbfae9aac	-1.3640952
168	0xbd1e66a8	-0.03867212
169	0xbe0befb9	-0.13665666
170	0x3e8e811e	0.27832884
171	0x3d892d11	0.06698049
172	0x3fb1a452	1.3878272
173	0x3e93ac5c	0.28842437
174	0x3db48d47	0.08816009
175	0x3f268c0a	0.6505743
176	0xbefd3d6f	-0.49460933
177	0x3f91f4e1	1.1402856
178	0x3e9a2d10	0.30112505
179	0xbd2dd708	-0.042441398
180	0xbeef75e1	-0.46769622
181	0xbe1641e4	-0.14673573
182	0xbfa06be7	-1.2532929
183	0xbf03b224	-0.51443696
184	0x3df27812	0.11839308
185	0x3f011079	0.5041576
186	0xbe4f22b2	-0.20228079
187	0x3f8e330e	1.1109331
188	0x3ee77637	0.45207378
189	0xbdc03e44	-0.09386876
190	0x3ed3ef8e	0.41393703
191	0xbe85a93d	-0.2610568
192	0x3f98b3c9	1.1929866
193	0x3f0ffb7a	0.562431
194	0xbd553a78	-0.052057713
195	0x3ece91f8	0.4034574
196	0xbe78c2bc	-0.24293035
197	0x3fc03d42	1.5018694
198	0x3f0e7400	0.5564575
199	0x3ee15c55	0.44015756
200	0x3e91ecf1	0.28501084
201	0xbe1de316	-0.15418658
202	0x3fa15f18	1.2607145
203	0x3f0247b8	0.50890684
204	0xbddc16a4	-0.10746506
205	0x3ed9d7b1	0.42547372
206	0xbe6177b7	-0.22018324
207	0x3fcebde4	1.61517
208	0x3f02bbd1	0.51067835
209	0x3f0842b3	0.53226775
210	0xbe679f5a	-0.22619382
211	0x3e7014f5	0.23445494
212	0xbf92011a	-1.1406586
213	0xbe9080e2	-0.2822333
214	0xbe28f829	-0.16500916
215	0x3eb13abd	0.34615126
216	0xbda3e19a	-0.080020145
217	0x3f97066d	1.1798836
218	0x3ead6b24	0.33870804
219	0x3cfa6f20	0.030570567
220	0x3e53ca9f	0.20682763
221	0xbc1ad87f	-0.009451031
222	0x3f94fb08	1.1639109
223	0x3dab679f	0.083693735
224	0xbda81e70	-0.082089305
225	0xbea5a0bf	-0.32349202
226	0xbd9079ac	-0.07054457
227	0xbf95076c	-1.164289
228	0xbebdeab4	-0.37093127
229	0x3e602014	0.21887237
230	0x3f35ba72	0.7098762
231	0xbf3876e6	-0.72056425
232	0x3fc2ab4b	1.5208524
233	0x3edfaf3c	0.4368838
234	0xbd85f6a9	-0.06541187
235	0x3f2e0c77	0.6798777
236	0xbeb37e6c	-0.3505739
237	0x3fb5d969	1.4206973
238	0x3e60d50e	0.21956274
239	0xbd4cf078	-0.050034016
240	0x3e9aaaf9	0.30208567
241	0xbd291956	-0.041283928
242	0x3f89a390	1.075304
243	0x3eaf5c7d	0.3425025
244	0xbe5ff320	-0.21870089
245	0xbed6f042	-0.41980177
246	0xbe8f260a	-0.2795871
247	0xbfb018af	-1.3757533
248	0xbea9833e	-0.33107942
249	0x3da5abcf	0.080894105
250	0xbf09f9b6	-0.53896654
251	0xbdcde085	-0.10052589
252	0xbfca1c9a	-1.5789979
253	0xbedbfdd9	-0.42967108
254	0x3e9dcf69	0.30822304
255	0xbeabfd4d	-0.3359169

lstm.weight_hh_l0 f4 [256, 64]
0	0x3da7ac3c	0.08187148
1	0xbb7cc680	-0.0038570464
2	0xbd7bcb9c	-0.061473474
3	0x3dacecd2	0.084436074
4	0x3d3ff748	0.046866685
5	0x3d1f153c	0.03883861
6	0xbd86b5a4	-0.06577614
7	0xbd4d7434	-0.050159648
8	0xbd68d0b0	-0.056839645
9	0xbb6da880	-0.0036263764
10	0xbd90f04c	-0.07077083
11	0x3d3c127c	0.045916066
12	0xbc8caa00	-0.017170906
13	0x398f6000	0.0002734661
14	0xbd81951e	-0.0632727
15	0x3db8f1cc	0.09030494
16	0xbd3cc7e8	-0.046089083
17	0xbc2f70f0	-0.010708079
18	0x3d3f859c	0.04675828
19	0x3bc95660	0.00614433
20	0xbdca6db8	-0.098842084
21	0xbcc8d770	-0.024516791
22	0x3dde3c1e	0.1085131
23	0xbdce6674	-0.10078135
24	0x3dc7ee74	0.09762278
25	0xbdf08d08	-0.117456496
26	0xbd901eae	-0.07037102
27	0xbaebf480	-0.0018001944
28	0x3be66060	0.0070305318
29	0xbd72cb80	-0.059276104
30	0xbdd1c348	-0.10242325
31	0xbdaead34	-0.085291296
32	0x3d666bf8	0.05625531
33	0xbdeedd2e	-0.116632804
34	0x3dba8844	0.09108022
35	0x3dc78020	0.09741235
36	0xbdce96de	-0.100873694
37	0xbbb81da0	-0.005618766
38	0xbdf6192c	-0.1201652
39	0xbc1ca680	-0.009561181
40	0x3dff95fa	0.12479778
41	0x3c743800	0.01490593
42	0x3cad0200	0.021119118
43	0x3ded65e8	0.11591703
44	0xbdc44cda	-0.09584971
45	0x3dfb2084	0.12262061
46	0xbddac74a	-0.106825426
47	0xbdc0604a	-0.09393366
48	0x3ded16f4	0.115766436
49	0x3cf50020	0.029907286
50	0xb9d45800	-0.00040501356
51	0x3d3923a4	0.045200005
52	0xbdc97252	-0.09836258
53	0xbdf1498c	-0.11781606
54	0xbddcf9a4	-0.10789803
55	0x3bf31540	0.0074183047
56	0x3c9258e8	0.01786466
57	0x3d75d9dc	0.06002222
58	0xbdb6b8de	-0.08921979
59	0xbd89cd7c	-0.06728646
60	0xbd213204	-0.03935434
61	0xbc6d1510	-0.014470354
62	0x3d12b434	0.035816386
63	0xbde5e7c4	-0.112258464
64	0xbca3bef0	-0.019988507
65	0xbde134e8	-0.10996419
66	0xbc5d3c30	-0.013503119
67	0xbd38b664	-0.045095816
68	0x3d305fc4	0.04306008
69	0x3d139a18	0.036035627
70	0xbdc052fa	-0.093908265
71	0xbdf31f36	-0.118711874
72	0xba245700	-0.00062690675
73	0xbdd5ebf8	-0.10445398
74	0xbd8e970e	-0.06962405
75	0x3ddbc478	0.10730833
76	0x3db4b31e	0.088232264
77	0xbda8d4ae	-0.082436904
78	0x3d49ce94	0.049269274
79	0xbdfd457c	-0.12366769
80	0xbd4d2b98	-0.050090402
81	0x3df89c24	0.121391565
82	0xbdb4ab64	-0.08821753
83	0xbd134000	-0.035949707
84	0xbc53cee0	-0.012927741
85	0x3cd59b68	0.02607508
86	0xbc987970	-0.018612593
87	0xbd13fba0	-0.03612864
88	0x3db3625a	0.087589934
89	0xbdedc83e	-0.11610459
90	0xbd7ecae4	-0.06220521
91	0xbdfe147e	-0.12406252
92	0x3dcc9524	0.09989384
93	0xbda72074	-0.08160487
94	0x3db0ef02	0.08639337
95	0xbd3bc1b0	-0.04583901
96	0x3df0c20a	0.1175576
97	0x3d46ef38	0.04856798
98	0x3d2c49b8	0.04206249
99	0x3dbc2e9a	0.09188576
100	0x3cba89f8	0.022770867
101	0xbd9440d4	-0.072389275
102	0x3da0a3f0	0.078437686
103	0xbda4d28c	-0.08047971
104	0xbd60eeb0	-0.05491513
105	0x3d4915b8	0.04909298
106	0xbde13392	-0.109961644
107	0x3cfda6f0	0.030963391
108	0x3d8e7534	0.069559485
109	0xbdcaf234	-0.09909478
110	0x3d70baf8	0.058772057
111	0xbd513884	-0.051079288
112	0x3dfaa7f8	0.12239069
113	0xbdb86d10	-0.09005177
114	0x3debecae	0.115197524
115	0xbd440068	-0.04785195
116	0xbd86cef2	-0.065824404
117	0x3dc3f022	0.09567286
118	0xbc429280	-0.011875749
119	0x3ddf61c6	0.10907321
120	0x3dcb69f0	0.09932315
121	0x3de27528	0.11057502
122	0x3dd11392	0.10208811
123	0x3d125738	0.03572771
124	0xbdf11110	-0.117708325
125	0x3d5176bc	0.051138625
126	0x3df3f4ac	0.11911902
127	0xbd13bb98	-0.036067575
128	0xbd99f2a6	-0.07516985
129	0x3dc56910	0.0963918
130	0x3de95e3c	0.11394927
131	0xbc851280	-0.016244173
132	0x3d9ecff8	0.07754511
133	0xbdb2204a	-0.08697565
134	0xbdf10726	-0.117689416
135	0xbd857b66	-0.06517677
136	0x3d8d9ec6	0.06915049
137	0x3d1c2494	0.03812082
138	0xbdc7905c	-0.09744331
139	0x3c8739f8	0.016507134
140	0xbcf4eb50	-0.029897362
141	0x3dd416b4	0.10355893
142	0x3dc309cc	0.09523353
143	0xbd006058	-0.03134188
144	0xbdd71866	-0.105027005
145	0xbd8bfe44	-0.06835607
146	0x3dfdf2bc	0.123998135
147	0xbdd647d0	-0.10462916
148	0xbd33634c	-0.04379587
149	0x3df2d0ee	0.118562564
150	0xbde42038	-0.11138958
151	0x3da5d9e6	0.080982015
152	0x3a8c4c80	0.0010703951
153	0xbd082c48	-0.033245355
154	0xbdc157dc	-0.09440586
155	0xbdb62f12	-0.08895697
156	0xbda3a85e	-0.07991098
157	0xbd4eadb8	-0.05045864
158	0x3de35878	0.111008584
159	0xbdaabdd4	-0.08336988
160	0x3dd803f0	0.10547626
161	0x3d9e2fbe	0.0772395
162	0x3d9d4cda	0.07680674
163	0xbdbd96a8	-0.09257251
164	0x3d8d859a	0.06910248
165	0xbc107730	-0.008817479
166	0xbd206678	-0.03916022
167	0x3dda7828	0.10667449
168	0x3d8843c6	0.06653552
169	0x3df901ce	0.12158547
170	0xbdbeeb62	-0.093222395
171	0x3a8b8600	0.0010644794
172	0xbcf9db58	-0.030500099
173	0x3b6c4640	0.0036052614
174	0xbd4433d8	-0.047901005
175	0xbda6706e	-0.08126913
176	0x3d7b78fc	0.061394677
177	0xbdfeb094	-0.12436023
178	0x3d8274e8	0.06369954
179	0x3dd46c36	0.10372202
180	0x3d1dca00	0.03852272
181	0xbd8e13ea	-0.06937392
182	0xbdb4d628	-0.088299096
183	0x3de96fb6	0.1139826
184	0xbd89c396	-0.06726758
185	0x3c2ff7f0	0.010740265
186	0x3b9b6980	0.004742801
187	0xbdd9ff94	-0.10644451
188	0x3d6169f4	0.055032685
189	0x3d5b7d68	0.053586394
190	0xbcab9668	-0.020945743
191	0xbd7da24c	-0.061922356
192	0x3df61d6c	0.120173305
193	0xbcdb2958	-0.026753113
194	0xbd2b4090	-0.04180962
195	0xbcad0258	-0.021119282
196	0xbdf98d7e	-0.121851906
197	0xbbf9b9c0	-0.00762102
198	0x3c75f290	0.015011445
199	0xbbf8b740	-0.0075902045
200	0xbdd2a888	-0.10286051
201	0xbd01b4f8	-0.031666726
202	0xbd6d653c	-0.057957873
203	0x3c22f7b0	0.009946749
204	0xbb815840	-0.003947288
205	0xbc414c00	-0.011797905
206	0xbdb9e61e	-0.090770945
207	0x3cc7cda0	0.024390042
208	0x3ccf94c8	0.0253395
209	0xbcd11a98	-0.025525376
210	0xbd0d7cb8	-0.03454277
211	0x3bdb7380	0.0066971183
212	0xbdcd536e	-0.100256786
213	0x3ded9f70	0.11602676
214	0xbce0cb78	-0.027440771
215	0x3aeb8e00	0.0017971396
216	0x3dc87a6c	0.09788975
217	0x3d0f5888	0.03499654
218	0x3d288728	0.04114452
219	0x3ca73f28	0.020415857
220	0xbcb2d2a0	-0.02182895
221	0xbc52b000	-0.0128593445
222	0xbbf910c0	-0.0076008737
223	0x3d40ba7c	0.047052845
224	0x3ce40758	0.027835533
225	0x3dd123e8	0.10211927
226	0xbd80fb24	-0.06297901
227	0xbdd8fe8e	-0.105954275
228	0xbdf99692	-0.12186922
229	0xbdd05ddc	-0.10174152
230	0xbdd03906	-0.10167126
231	0x3d8ddbc8	0.069266856
232	0x3dc6e4dc	0.0971162
233	0xbdc14e30	-0.09438741
234	0xbbff8aa0	-0.007798508
235	0x3d2cd918	0.042199224
236	0x3da52b60	0.08064914
237	0xbc856200	-0.016282082
238	0xbdbc7d92	-0.09203638
239	0x3d810d82	0.063014045
240	0xbb1aa8c0	-0.0023599118
241	0x3c98f5f0	0.01867196
242	0x3b3565c0	0.0027679056
243	0xbb8f3a80	-0.0043709874
244	0xbda8459e	-0.082164034
245	0x3da88f94	0.0823051
246	0x3dd1f3ac	0.10251555
247	0x3c0a8f90	0.0084570795
248	0xbda5808e	-0.080811605
249	0x3db713ee	0.08939348
250	0xbc36b480	-0.011151433
251	0xbc8a3618	-0.016871497
252	0xbd0d44f4	-0.034489587
253	0x3dac822a	0.08423264
254	0x3de8658e	0.11347495
255	0xbc2460b0	-0.010032818

lstm.bias_ih_l0 f4 [256]
0	0x3f25c08c	0.6474693
1	0x3f04a6da	0.51817095
2	0x3f293e22	0.6611043
3	0x3ef71235	0.48256078
4	0x3f25a145	0.646992
5	0x3f3c23cd	0.7349213
6	0x3f2692bb	0.6506764
7	0x3eecceb9	0.46251467
8	0x3ecd05af	0.400434
9	0x3ed0be32	0.40770108
10	0x3f24261d	0.64120656
11	0x3f036772	0.5132972
12	0x3ebc320f	0.36756942
13	0x3f04ecaa	0.5192362
14	0x3f2c77b4	0.6737015
15	0x3f06f4ee	0.52717483
16	0x3f221ae8	0.63322306
17	0x3f1e6b52	0.6188251
18	0x3f1f9c9a	0.6234833
19	0x3f0484d3	0.51765174
20	0x3edfa4b5	0.4368035
21	0x3f30205f	0.68799394
22	0x3f0c834c	0.54887843
23	0x3ee1d684	0.44108975
24	0x3e54dab1	0.20786549
25	0x3eb926fd	0.36162558
26	0x3f0cd178	0.55007124
27	0x3f3c8f7b	0.73656434
28	0x3f121698	0.57065725
29	0x3ec54a45	0.38533226
30	0x3f04b3cd	0.51836854
31	0x3f1eeb93	0.6207821
32	0x3e946865	0.28985897
33	0x3f05f0a1	0.52320296
34	0x3f2c30cc	0.6726196
35	0x3f09ce07	0.5383
36	0x3f103c85	0.56342345
37	0x3f105628	0.56381464
38	0x3f21df34	0.63231206
39	0x3f432e45	0.76242477
40	0x3f319907	0.69374126
41	0x3f38a2d1	0.7212344
42	0x3ef091cd	0.46986237
43	0x3f007bd4	0.50188947
44	0x3ec9b1e9	0.39393547
45	0x3f1ac89b	0.6046235
46	0x3f024879	0.50891834
47	0x3f066e26	0.52511823
48	0x3ef0b900	0.47016144
49	0x3f4ec172	0.80763924
50	0x3f09c708	0.5381932
51	0x3eb9e8fb	0.36310562
52	0x3f32fd8a	0.6991812
53	0x3f366512	0.7124797
54	0x3f33f336	0.70292985
55	0x3f33474e	0.7003068
56	0x3f1fa233	0.6235687
57	0x3f2c22c1	0.6724053
58	0x3f4c134d	0.7971695
59	0x3f03a082	0.5141679
60	0x3f4e917a	0.8069073
61	0x3f3ab76f	0.7293615
62	0x3f1d8979	0.6153789
63	0x3f03b066	0.5144104
64	0x3d410cb4	0.047131255
65	0x3acb8780	0.0015528053
66	0x3ddd9758	0.10819882
67	0xbdedf8ce	-0.11619721
68	0x3c0a4ca0	0.00844112
69	0x3d8399b8	0.06425804
70	0xbde6384a	-0.11241205
71	0xbcbe4490	-0.023226053
72	0xbdf2cdc6	-0.118556544
73	0xbd307fc8	-0.04309061
74	0xbdecc05e	-0.11560129
75	0xbd5b803c	-0.05358909
76	0x3b95b6c0	0.0045689046
77	0x3cc82db0	0.024435848
78	0xbdddd48c	-0.10831556
79	0x3d3d6b60	0.04624498
80	0xbbf29ac0	-0.0074037015
81	0x3d7891d0	0.060685933
82	0xbdeee17a	-0.116641
83	0x3dcd02d6	0.100103065
84	0x3dd4529e	0.103673205
85	0x3db0e5f0	0.08637607
86	0x3da354d2	0.079751626
87	0xbc9975f8	-0.01873301
88	0x3d944964	0.07240561
89	0xbd022728	-0.031775624
90	0x3d99f5e8	0.07517606
91	0x3db8f41e	0.09030937
92	0x3ddd7866	0.1081398
93	0x3df7d68e	0.1210147
94	0x3dbf5d1e	0.093439326
95	0x3da523b2	0.08063449
96	0xbc94d3c8	-0.018167391
97	0xbd93b714	-0.07212654
98	0xbdb38c80	-0.087670326
99	0x3dc8fdec	0.09814057
100	0xbda7235a	-0.0816104
101	0x3c980e80	0.018561602
102	0xbda0cb40	-0.07851267
103	0x3cccc5a0	0.024996579
104	0x3dd23438	0.10263866
105	0x3da94dfa	0.08266826
106	0x3d04def0	0.032439172
107	0x3d6e7ddc	0.058225498
108	0xbd4a6d0c	-0.0494204
109	0x3d496100	0.049164772
110	0x3d6d3ef0	0.05792135
111	0x3da96b58	0.08272427
112	0x3c4b60f0	0.012413248
113	0x3d843e30	0.06457174
114	0xbd7432a0	-0.059618592
115	0x3dff40e2	0.12463547
116	0xbd1a4b08	-0.03766921
117	0xbcaf2d60	-0.021383941
118	0xbd5ae4d0	-0.05344087
119	0x3d1dc24c	0.038515374
120	0x3d10c450	0.03534347
121	0x3d9f5cde	0.07781385
122	0xbde4212c	-0.111391395
123	0xbdc0dce8	-0.094171345
124	0xbcabf330	-0.020989984
125	0x39d8e200	0.00041367114
126	0x3d394ec0	0.045241117
127	0xbda5f074	-0.081025034
128	0xbd7833a2	-0.060596116
129	0x3de1be73	0.110226534
130	0x3d700889	0.05860189
131	0x3e5b3565	0.21407087
132	0x3e190fc8	0.14947426
133	0xbb2e2c32	-0.0026576635
134	0x3e1751ad	0.1477725
135	0x3d5a1f00	0.05325222
136	0x3e0f1196	0.13971552
137	0x3df794ff	0.120889656
138	0xbd35025d	-0.044191707
139	0x3bb71ec5	0.005588385
140	0x3dc78bc8	0.09743458
141	0x3dc8ef72	0.098112956
142	0x3d54526c	0.051836416
143	0x3e083048	0.13299668
144	0x3dc96273	0.09833231
145	0x3e6b7cbb	0.229968
146	0x3e21758a	0.15767494
147	0xbd86d37a	-0.06583305
148	0x3e435573	0.19075565
149	0x3e1dce3b	0.15410702
150	0x3dd8c936	0.10585253
151	0xbd65329c	-0.055956468
152	0xbdbb2750	-0.09138358
153	0x3e232e2a	0.15935579
154	0xbd2c672a	-0.042090572
155	0xbdc34a63	-0.095356725
156	0x3d30caa9	0.04316202
157	0xbea2ec90	-0.31821108
158	0xbdb37af6	-0.08763687
159	0x3c7bd9f8	0.015371792
160	0x3e17f89d	0.14840932
161	0xbd791d79	-0.060819123
162	0xbaa88111	-0.0012855848
163	0xbd347bdd	-0.044063438
164	0x3c6f5ca1	0.014609487
165	0x3d03e12f	0.032197174
166	0xbd01ddb7	-0.031705584
167	0x3e0a0a8f	0.1348059
168	0x3e1d95c3	0.15389161
169	0xbc9cd414	-0.019144095
170	0x3c960839	0.018314468
171	0x3d009082	0.031387813
172	0xbdca6745	-0.09882978
173	0x3e4193a7	0.18903981
174	0xbd109ee6	-0.035307787
175	0xbe2d879f	-0.16946267
176	0x3df5144f	0.11966764
177	0xbd174901	-0.036934856
178	0xbd943f74	-0.07238665
179	0x3d821733	0.06352081
180	0x3e5ed914	0.21762496
181	0xbe1bf469	-0.15229954
182	0xbda44ae0	-0.08022094
183	0x3db54290	0.088505864
184	0xbb66d7e1	-0.0035223889
185	0x3dafc26e	0.085820064
186	0xbd43439a	-0.04767189
187	0xbde38ce9	-0.11110861
188	0x3e16ce8c	0.14727229
189	0x3da278fe	0.07933234
190	0xbd5a223c	-0.053255305
191	0x3e7c9a3b	0.24668209
192	0x3f0a55c1	0.540371
193	0x3efbb8a0	0.49164295
194	0x3f1a4751	0.6026507
195	0x3f1acba0	0.6046696
196	0x3f5601ac	0.835963
197	0x3f6a2ac8	0.9147153
198	0x3f2a0c8c	0.66425395
199	0x3f04af99	0.5183044
200	0x3ee6ced7	0.4507968
201	0x3efc0285	0.49220672
202	0x3f40f4e0	0.7537365
203	0x3f1be3bc	0.6089437
204	0x3f0ea0bc	0.5571401
205	0x3ef52732	0.47881466
206	0x3f21b714	0.6316998
207	0x3ee647b3	0.44976577
208	0x3f27047a	0.65241206
209	0x3f0d1d65	0.5512298
210	0x3f115b15	0.56779605
211	0x3f008d7d	0.50215894
212	0x3eec7b12	0.46187645
213	0x3f41442b	0.7549464
214	0x3f070177	0.5273661
215	0x3f076b9d	0.5289858
216	0x3e9b5599	0.30338743
217	0x3ed2e192	0.41187721
218	0x3f1a484e	0.6026658
219	0x3f437a8d	0.7635887
220	0x3f2f3231	0.6843596
221	0x3f00fdb5	0.50387126
222	0x3f0d8c08	0.55291796
223	0x3efc8be1	0.4932547
224	0x3e9d17d2	0.30682236
225	0x3f1404ce	0.5781983
226	0x3f044d88	0.51680803
227	0x3f01f6e7	0.5076737
228	0x3f0ce572	0.55037606
229	0x3eefa2cd	0.46803895
230	0x3f23672a	0.6382929
231	0x3f508264	0.8144896
232	0x3f20968d	0.6272972
233	0x3f54a8c5	0.8307002
234	0x3f05ea53	0.52310675
235	0x3f18bf0e	0.59666526
236	0x3ee9ce38	0.45665145
237	0x3f1befeb	0.6091296
238	0x3f0b3180	0.54372406
239	0x3ed9d0ae	0.42542022
240	0x3ee21dbb	0.44163308
241	0x3f576d78	0.8415141
242	0x3f245858	0.641973
243	0x3f24c544	0.64363503
244	0x3f43a983	0.7643053
245	0x3f4d68a0	0.8023777
246	0x3f2dabc6	0.6784023
247	0x3f289124	0.65846467
248	0x3f1eccb0	0.6203108
249	0x3f44ef84	0.7692797
250	0x3f5e55d5	0.8684972
251	0x3f2fead8	0.6871772
252	0x3f496271	0.78665835
253	0x3f4d0f5c	0.8010156
254	0x3f2c1d8c	0.67232585
255	0x3f16447a	0.58698237

lstm.bias_hh_l0 f4 [256]
0	0x3f0168bf	0.50550455
1	0x3efd40f9	0.49463633
2	0x3f1d540d	0.61456376
3	0x3ec4b635	0.38420263
4	0x3f11d4d5	0.5696538
5	0x3f5c3381	0.8601609
6	0x3f427e32	0.7597381
7	0x3efba695	0.4915053
8	0x3eb8c8b7	0.36090633
9	0x3ea8b40d	0.32949868
10	0x3f4b062a	0.7930628
11	0x3edddcb1	0.43332437
12	0x3eff0ec7	0.49815962
13	0x3f0363f4	0.5132439
14	0x3f186d4e	0.59541786
15	0x3ebd208d	0.36938897
16	0x3f100b79	0.56267506
17	0x3efecee7	0.4976723
18	0x3f256c70	0.6461859
19	0x3f0f8531	0.5606261
20	0x3ee3361b	0.44377217
21	0x3f35e98e	0.710595
22	0x3f2d3b7e	0.676689
23	0x3efe69e6	0.4969017
24	0x3ebd25a4	0.3694278
25	0x3ea723f7	0.32644626
26	0x3f01dcd1	0.50727564
27	0x3f06dff2	0.52685463
28	0x3f3bf7e8	0.7342515
29	0x3ef34212	0.47511345
30	0x3f2a53e6	0.6653427
31	0x3f1d0242	0.6133157
32	0x3ede6c47	0.43441984
33	0x3ec96c55	0.39340463
34	0x3f148740	0.58018875
35	0x3f0fe42b	0.5620753
36	0x3f174a5e	0.5909785
37	0x3ed58a69	0.4170716
38	0x3f14e03d	0.5815466
39	0x3f413a5d	0.7547968
40	0x3f3963b6	0.7241777
41	0x3f684f7d	0.9074629
42	0x3ea2be64	0.31785882
43	0x3ef6bde7	0.4819176
44	0x3ed906ff	0.4238815
45	0x3f177797	0.59166855
46	0x3f14d9dc	0.5814493
47	0x3f05935f	0.52177995
48	0x3eea38ea	0.45746547
49	0x3f2ee874	0.68323445
50	0x3f1ad8eb	0.6048724
51	0x3ed275bc	0.4110545
52	0x3f571680	0.8401871
53	0x3f34a2a7	0.7056069
54	0x3f32db4c	0.6986587
55	0x3f2faca8	0.6862283
56	0x3f11d2b5	0.5696214
57	0x3f19a81d	0.60022146
58	0x3f5bc12a	0.8584162
59	0x3f2e7a1e	0.68155086
60	0x3f217b1e	0.63078487
61	0x3f2c5eef	0.6733236
62	0x3f1732de	0.5906199
63	0x3f0939ea	0.53603995
64	0xbd4e0ef4	-0.05030723
65	0xbc3da440	-0.011574805
66	0x3db3720c	0.08761987
67	0xbd8c1dc2	-0.06841613
68	0xbdac3516	-0.08408563
69	0xbccb92e0	-0.024850309
70	0x3da6d320	0.08145738
71	0xbd81d1a0	-0.06338811
72	0xbdb8aa22	-0.09016825
73	0xbccfe7a0	-0.025379002
74	0x3dfbd83e	0.12297104
75	0x3d393030	0.04521197
76	0x3d8b38d0	0.067979455
77	0xbbd3d360	-0.006464407
78	0xbd37b824	-0.044853345
79	0xbdb6cb10	-0.0892545
80	0xbd931e9a	-0.07183571
81	0x3d15311c	0.036423787
82	0x3cae1a60	0.021252811
83	0xbda2a584	-0.07941726
84	0x3d8c4b3e	0.06850289
85	0xbce3a898	-0.027790353
86	0xbb9f6420	-0.0048642308
87	0xbd991d8a	-0.07476337
88	0x3ce91560	0.028452575
89	0x3dcf3920	0.101183176
90	0x3d47d274	0.048784688
91	0x3d971530	0.07377088
92	0x3b974d80	0.004617393
93	0xbd551388	-0.05202058
94	0xbd6ddab8	-0.058069915
95	0xbb27f480	-0.002562791
96	0x3df71c64	0.12065962
97	0x3db88d70	0.09011352
98	0x3b8478c0	0.004042715
99	0xbdf015f8	-0.1172294
100	0xbc439600	-0.011937618
101	0x3dcbf75a	0.09959288
102	0x3dea1bf2	0.114311114
103	0x3d8535c6	0.06504397
104	0x3dd7e4ea	0.10541709
105	0x3d98335e	0.074316725
106	0x3df8a0dc	0.121400565
107	0xbdb23edc	-0.08703396
108	0x3c729ee0	0.014808387
109	0xbc0b5b40	-0.008505642
110	0xbbb5a0a0	-0.0055428296
111	0x3de162b8	0.11005157
112	0x3db0cfca	0.086333826
113	0x3dabceac	0.08389029
114	0xbd8383e4	-0.064216405
115	0x3d98c878	0.074601114
116	0xbdec4c90	-0.11538041
117	0x3d1f2ab8	0.0388591
118	0xbc1892a0	-0.009312302
119	0x3caf3038	0.021385297
120	0xbdbed6be	-0.093183026
121	0xbd27a1b4	-0.040925696
122	0xbd5147b4	-0.051093772
123	0xbd146b9c	-0.036235437
124	0xbbd8e740	-0.006619364
125	0x3d9934f4	0.07480803
126	0x3db24d1a	0.08706112
127	0x3dc4b440	0.096046925
128	0x3d078603	0.033086788
129	0xbcfdb6e7	-0.030971004
130	0x3e194c7c	0.14970583
131	0x3e05c09c	0.13061756
132	0x3d77d58d	0.060506392
133	0x3e05c18e	0.13062117
134	0x3d9decbe	0.077111706
135	0xbcfe6d80	-0.031058073
136	0x3db97b67	0.0905674
137	0x3d7d0345	0.061770696
138	0xbdbc77e8	-0.09202558
139	0xbd2cdc9a	-0.04220257
140	0x3e1a81c7	0.15088569
141	0xbd8e7b8d	-0.06957159
142	0x3d294363	0.04132403
143	0xbd2dd8ed	-0.042443205
144	0xbdba1a9f	-0.09087109
145	0x3e3bdb28	0.1834532
146	0x3db18ada	0.08669062
147	0x3cc07a52	0.023495827
148	0x3e107b25	0.14109476
149	0x3d97caa3	0.07411697
150	0x3e0728e2	0.1319919
151	0x3d8cf9db	0.06883594
152	0xbe4ba436	-0.1988686
153	0x3e34d809	0.17660536
154	0x3caefa40	0.021359563
155	0xbe39084c	-0.18069571
156	0x3e50b883	0.20382886
157	0xbea65688	-0.32487893
158	0x398863f1	0.00026014404
159	0x3d1ed009	0.038772617
160	0x3e1505c6	0.14552984
161	0x3e0af1a2	0.13568738
162	0x3d43fe90	0.04785019
163	0xbe4dc8e9	-0.20096172
164	0xbe273710	-0.16329598
165	0x3c8c17c3	0.017101174
166	0x3e01ff5f	0.12695073
167	0x3dbe3adb	0.092885695
168	0xbc7341f2	-0.014847266
169	0x3e55da8a	0.20884147
170	0xbe2e8691	-0.1704352
171	0x3d292366	0.041293524
172	0xbc5d32d9	-0.013500893
173	0xbd24ec73	-0.040264558
174	0xbe52aebd	-0.2057447
175	0xbdbc9956	-0.09208934
176	0x3e030946	0.12796506
177	0x3e0fdf89	0.14050116
178	0xbe487f9f	-0.19579934
179	0xbd866f30	-0.06564176
180	0x3e8ed53d	0.27897063
181	0xbc5db4fc	-0.01353192
182	0xbd447d17	-0.047970857
183	0xbd1705a3	-0.03687061
184	0xbe219249	-0.1577846
185	0x3d606018	0.054779142
186	0xbde658da	-0.11247416
187	0x3d1bae2c	0.0380079
188	0xbcb4606a	-0.02201863
189	0x3c36d7d5	0.011159857
190	0xbdd74dd5	-0.10512892
191	0x3e863e1d	0.26219264
192	0x3f3772d3	0.7165958
193	0x3f06438a	0.52446806
194	0x3f3e3233	0.7429535
195	0x3f2a02ad	0.6641033
196	0x3f47e52d	0.7808407
197	0x3f3dd765	0.7415679
198	0x3f31b9a4	0.6942389
199	0x3f17382e	0.590701
200	0x3ead659f	0.33866593
201	0x3eda0563	0.42582235
202	0x3f4bcbc7	0.79607815
203	0x3f20afc2	0.62768185
204	0x3f14b928	0.58095026
205	0x3f042c7e	0.5163039
206	0x3f2f8547	0.6856274
207	0x3f1dbde0	0.6161785
208	0x3f271bba	0.6527668
209	0x3f09e5f9	0.53866535
210	0x3f1d64fc	0.61482215
211	0x3f269141	0.6506539
212	0x3eac8d75	0.33701673
213	0x3f5ba9ab	0.8580577
214	0x3f2a2eac	0.66477466
215	0x3f28e8a0	0.6597996
216	0x3eeb33ef	0.4593806
217	0x3ef391cd	0.47572175
218	0x3ef8b7f0	0.48577833
219	0x3f3969c9	0.7242704
220	0x3f0ca82f	0.5494413
221	0x3f024c76	0.5089792
222	0x3f2d2600	0.6763611
223	0x3f322c3d	0.6959875
224	0x3eddcb20	0.43319035
225	0x3ef937a5	0.48675266
226	0x3f36f4d6	0.7146734
227	0x3ee8aba4	0.4544345
228	0x3f2108e0	0.6290417
229	0x3f2042d3	0.62601966
230	0x3f2282f2	0.63481057
231	0x3f22f005	0.6364749
232	0x3f39043d	0.7227209
233	0x3f3fadc9	0.7487455
234	0x3f06c1ac	0.5263927
235	0x3f1508a4	0.5821631
236	0x3f06f8ac	0.52723193
237	0x3f11aee2	0.56907475
238	0x3f1c0867	0.6095032
239	0x3eeb7a64	0.45991814
240	0x3f0f0b32	0.5587646
241	0x3f2a3fe8	0.66503763
242	0x3f409e71	0.7524176
243	0x3f055ac4	0.5209162
244	0x3f3614e1	0.7112561
245	0x3f7626bc	0.96152854
246	0x3f36b2ac	0.7136638
247	0x3f39f047	0.7263226
248	0x3f39d875	0.7259591
249	0x3f36964c	0.71323085
250	0x3f3ef764	0.7459624
251	0x3f32098a	0.69545805
252	0x3f20a9be	0.62759006
253	0x3f58bf27	0.84666675
254	0x3f329e15	0.69772464
255	0x3f053bab	0.5204417

fc.weight f4 [1, 64]
0	0xbf5288af	-0.8223981
1	0xbf4fc3bc	-0.8115804
2	0x3f8aff18	1.0859098
3	0x3f9ac796	1.2092159
4	0x3faa9a19	1.3328277
5	0x3fa120c4	1.2588124
6	0x3f99d238	1.2017279
7	0x3f825653	1.0182594
8	0xbf2b1403	-0.6682741
9	0xbf057c60	-0.52142906
10	0xbf88e383	-1.0694431
11	0x3f45096a	0.7696749
12	0xbf10f09b	-0.56617135
13	0xbf6defde	-0.92944133
14	0xbf666314	-0.8999493
15	0x3f671227	0.90262073
16	0xbf856662	-1.042187
17	0x3f9adb16	1.209811
18	0x3f87de19	1.0614654
19	0x3f72725e	0.9470576
20	0xbef1a432	-0.47195584
21	0x3f9e265e	1.2355459
22	0x3f765cab	0.9623515
23	0xbf6f8e78	-0.93576765
24	0x3ef41b39	0.4767702
25	0xbf03addf	-0.5143718
26	0xbf6dda8f	-0.9291162
27	0xbfabb145	-1.3413473
28	0x3f822f9e	1.0170782
29	0x3eaa32a0	0.3324175
30	0x3f41f045	0.7575725
31	0x3f66aaae	0.90104187
32	0xbf01ba01	-0.50674444
33	0xbf3ad9a6	-0.72988355
34	0xbf2f856c	-0.6856296
35	0xbf7353d8	-0.9504981
36	0xbf960aa5	-1.1721998
37	0x3f5af379	0.8552776
38	0xbf30f29b	-0.69120187
39	0x3fa5fc46	1.2967613
40	0xbf29d1d0	-0.66335773
41	0x3fb22236	1.391669
42	0x3f437157	0.7634482
43	0xbf3776fd	-0.71665937
44	0x3f277091	0.6540614
45	0x3f89d8ca	1.0769284
46	0xbf866414	-1.0499291
47	0xbf80f28b	-1.0074018
48	0xbf14f617	-0.58188003
49	0x3f8c0758	1.0939741
50	0xbf9a970d	-1.2077347
51	0xbf5b1b9e	-0.85589015
52	0x3fe170a9	1.7612506
53	0x3f91d1f4	1.1392198
54	0xbf8baf26	-1.0912826
55	0x3f7736da	0.9656807
56	0xbf6e3d24	-0.93062043
57	0x3f9abcdf	1.2088889
58	0xbf9ac2d0	-1.2090702
59	0xbf863912	-1.0486166
60	0x3f8b7c80	1.0897369
61	0x3f78d1d2	0.9719516
62	0xbf90cec0	-1.1313095
63	0xbee55422	-0.4479075

exp_avg f4 [256, 5]
0	0xb28bc577	-1.6271526e-08
1	0x3302851e	3.0389053e-08
2	0xb4d49496	-3.9596188e-07
3	0xb348a0ef	-4.6712497e-08
4	0xb4045826	-1.2325526e-07
5	0xb2772492	-1.4385607e-08
6	0x33c4c216	9.162265e-08
7	0x3497a28b	2.8244207e-07
8	0xb293e5e4	-1.7217594e-08
9	0xb3a9d8cc	-7.909111e-08
10	0xb2fa12fc	-2.9112464e-08
11	0x335c2f27	5.1265626e-08
12	0xb5162c2c	-5.5943633e-07
13	0xb3e3f544	-1.0615125e-07
14	0xb41c03ff	-1.4530086e-07
15	0xb31dadc0	-3.6712436e-08
16	0x3457cc2e	2.0097715e-07
17	0x3511482f	5.412175e-07
18	0xb390db58	-6.745421e-08
19	0xb4123654	-1.3617074e-07
20	0xb331b07d	-4.137154e-08
21	0x34591985	2.0218984e-07
22	0x3517f1cd	5.660375e-07
23	0xb2deffe6	-2.596057e-08
24	0xb442e54e	-1.8151079e-07
25	0xb27ffea1	-1.4900849e-08
26	0x3309fa9c	3.2125726e-08
27	0xb5142486	-5.5187445e-07
28	0xb208d4db	-7.96464e-09
29	0xb42e642a	-1.6241452e-07
30	0xb23f5d36	-1.1138857e-08
31	0x32fbdd99	2.9321017e-08
32	0xb516cdb4	-5.617869e-07
33	0xb3e8ccd4	-1.08406e-07
34	0xb40443a0	-1.231806e-07
35	0xb29613af	-1.747125e-08
36	0x34088856	1.2715586e-07
37	0x34cde71d	3.8352383e-07
38	0xb3204453	-3.7315043e-08
39	0xb3e01bbf	-1.043586e-07
40	0xb29b97b9	-1.811337e-08
41	0xb082106c	-9.463412e-10
42	0xb498e7ff	-2.8481006e-07
43	0xb2edc5c8	-2.7680372e-08
44	0xb21bcd64	-9.068888e-09
45	0xb2b2e45e	-2.0825777e-08
46	0x3217dbac	8.839304e-09
47	0xb4819941	-2.413963e-07
48	0x32b44b3e	2.0988974e-08
49	0xb334466d	-4.1973568e-08
50	0xb281842b	-1.507768e-08
51	0x33055a4b	3.1048597e-08
52	0xb50d61bc	-5.2668815e-07
53	0xb35e4f22	-5.1760374e-08
54	0xb40e605b	-1.3259834e-07
55	0xb3568664	-4.9947985e-08
56	0x3377af27	5.766847e-08
57	0xb4b412af	-3.3541207e-07
58	0xb28d2d39	-1.6435125e-08
59	0xb3f8b29b	-1.1580888e-07
60	0xb15f2105	-3.246954e-09
61	0x3341a0d3	4.5082583e-08
62	0x3460b7aa	2.0928442e-07
63	0xb327b489	-3.9046913e-08
64	0xb3231fb3	-3.7980225e-08
65	0xb291016a	-1.6880865e-08
66	0x33ddcd47	1.0328454e-07
67	0x34bb3de3	3.4876493e-07
68	0x31fc2b6b	7.3391013e-09
69	0xb3c89e3d	-9.342009e-08
70	0xb30b59b2	-3.2445037e-08
71	0x331b200c	3.6117896e-08
72	0xb4af14ab	-3.2611328e-07
73	0x327cb10a	1.4708585e-08
74	0xb3e3698b	-1.05897094e-07
75	0xb31aa018	-3.6001524e-08
76	0x33361ab1	4.2399453e-08
77	0xb4fc2912	-4.696854e-07
78	0xb33c6cfb	-4.3871278e-08
79	0xb3d28aaa	-9.80411e-08
80	0xb28b40ac	-1.6211139e-08
81	0x340421c8	1.2305748e-07
82	0x34b1ffbc	3.315489e-07
83	0xb3486f97	-4.666762e-08
84	0xb400f039	-1.2008321e-07
85	0xb274d0ee	-1.4250174e-08
86	0x340bc1db	1.3015908e-07
87	0x34eacd15	4.3735113e-07
88	0xb366983c	-5.3689504e-08
89	0xb39b002b	-7.2177805e-08
90	0xb29d4434	-1.830822e-08
91	0x33e562ab	1.0681591e-07
92	0x34bb9f6b	3.4947456e-07
93	0xb1197277	-2.2329496e-09
94	0xb3bcbd99	-8.78892e-08
95	0xb3622d22	-5.2660774e-08
96	0x335fc408	5.2099523e-08
97	0xb4cdbeb9	-3.8322995e-07
98	0x330b1fec	3.2392492e-08
99	0xb3fdc875	-1.18176935e-07
100	0xb263416d	-1.3228015e-08
101	0x2ff00a74	4.3663173e-10
102	0xb43e9fcc	-1.7753263e-07
103	0xb2d7dcf7	-2.5129777e-08
104	0xb1b40dce	-5.240259e-09
105	0xb2abba59	-1.9991761e-08
106	0x332bade7	3.9972203e-08
107	0xb522aa2c	-6.0597336e-07
108	0xb3d025a2	-9.6926e-08
109	0xb4006894	-1.1958974e-07
110	0x30ba68a6	1.3563024e-09
111	0x3294c1f4	1.7317667e-08
112	0xb5107ed2	-5.382873e-07
113	0xb409d9ee	-1.2838402e-07
114	0xb3e7cf76	-1.0794513e-07
115	0xb1ceefd3	-6.022654e-09
116	0x33e5e9ac	1.0706148e-07
117	0x34dd865c	4.1262217e-07
118	0xb2708f0b	-1.4002363e-08
119	0xb3c024c3	-8.9473836e-08
120	0xb32c695f	-4.0142705e-08
121	0x335d393b	5.1507623e-08
122	0x348c3b47	2.6120162e-07
123	0x34069127	1.2532529e-07
124	0xb32bbfe7	-3.9988574e-08
125	0xb2eb6e1a	-2.7407669e-08
126	0x324a8323	1.17877645e-08
127	0xb457845a	-2.0071585e-07
128	0xb27f2ffd	-1.4853865e-08
129	0xb2f56769	-2.856878e-08
130	0xb30e3783	-3.311244e-08
131	0x333a29fc	4.3344684e-08
132	0xb50147e9	-4.816089e-07
133	0xb35541e6	-4.965286e-08
134	0xb410ca7d	-1.348471e-07
135	0xb2cec153	-2.406947e-08
136	0x3349e7f3	4.7009916e-08
137	0xb53c0b1b	-7.005162e-07
138	0xb3ead681	-1.0935492e-07
139	0xb41a4cf5	-1.4370364e-07
140	0xb2350a45	-1.0537922e-08
141	0x32f21ab6	2.8184655e-08
142	0xb4f9ab6f	-4.6504599e-07
143	0xb3ac982f	-8.037056e-08
144	0xb3ec162a	-1.0993638e-07
145	0xb3753267	-5.708935e-08
146	0x33262c59	3.869022e-08
147	0x338a5acd	6.442642e-08
148	0x33afb4fe	8.181995e-08
149	0xb2e37491	-2.6479286e-08
150	0xb31a5440	-3.5932544e-08
151	0x3317ee22	3.5374008e-08
152	0xb49c8c36	-2.915928e-07
153	0x32079523	7.891944e-09
154	0xb3c970ad	-9.3802875e-08
155	0xb287df5c	-1.581764e-08
156	0x33d36e20	9.845485e-08
157	0x34b11470	3.298369e-07
158	0xb18fe09a	-4.187382e-09
159	0xb3acb9ca	-8.043169e-08
160	0xb23192cb	-1.0336133e-08
161	0x332ec990	4.0695852e-08
162	0x3448e2ff	1.8709032e-07
163	0xb0ab6533	-1.247065e-09
164	0xb319c647	-3.580342e-08
165	0xb28b55dc	-1.6220774e-08
166	0x33a6debd	7.770493e-08
167	0x3487ff74	2.5331576e-07
168	0xb1dfb3ca	-6.510594e-09
169	0xb39774b5	-7.052714e-08
170	0xb2ec5df1	-2.7516736e-08
171	0x3313afc5	3.4385966e-08
172	0xb4a6c2bc	-3.1061597e-07
173	0xb2263d6c	-9.676437e-09
174	0xb3c8bb97	-9.347348e-08
175	0xb2d4b460	-2.4762073e-08
176	0x3334b2cf	4.207214e-08
177	0xb50bf904	-5.21439e-07
178	0xb40061b8	-1.1956479e-07
179	0xb3f41b7c	-1.1367135e-07
180	0xb23bac72	-1.0924042e-08
181	0x340dd5c6	1.3209419e-07
182	0x34f8d09d	4.6345386e-07
183	0xb30f79a2	-3.3405406e-08
184	0xb3b97221	-8.635494e-08
185	0xb2825da8	-1.5176582e-08
186	0x32c8e9a8	2.3389319e-08
187	0xb5109252	-5.3857104e-07
188	0xb3c5280e	-9.180813e-08
189	0xb3eb65df	-1.09615705e-07
190	0xb2be5f07	-2.2162125e-08
191	0x32d23b07	2.447406e-08
192	0xb498759e	-2.8397784e-07
193	0xb31b1c6d	-3.6114603e-08
194	0xb3598dc5	-5.065319e-08
195	0xb272bcf0	-1.4129213e-08
196	0x330e479f	3.312709e-08
197	0xb51f5c04	-5.9366016e-07
198	0xb380d26f	-5.998742e-08
199	0xb41e849e	-1.4763143e-07
200	0xb2ef0aa9	-2.782811e-08
201	0x33097d03	3.2011496e-08
202	0xb484b5e8	-2.471927e-07
203	0xb178b8b1	-3.6193735e-09
204	0xb3a5a2e3	-7.71304e-08
205	0x2e9b53fc	7.0635026e-11
206	0x329cb8b9	1.8244792e-08
207	0xb51c54b1	-5.823777e-07
208	0xb38434c3	-6.156326e-08
209	0xb41a2913	-1.435731e-07
210	0xb1994f4c	-4.461901e-09
211	0x338e808f	6.635775e-08
212	0x34a14c7f	3.0044245e-07
213	0xb301bd52	-3.020734e-08
214	0xb34f8e3a	-4.8325298e-08
215	0xb2f91bbb	-2.9000025e-08
216	0x33197506	3.572952e-08
217	0xb4c60f41	-3.6891473e-07
218	0xb2aaae1a	-1.9869777e-08
219	0xb402b181	-1.2171769e-07
220	0xb238bc47	-1.0753019e-08
221	0x2ed60e9f	9.7341905e-11
222	0xb4b98138	-3.4552954e-07
223	0xb21abc3f	-9.006782e-09
224	0xb38603d9	-6.240561e-08
225	0xb3037321	-3.0605523e-08
226	0x340705f2	1.2575018e-07
227	0x34d5f937	3.985567e-07
228	0xb11d3ad8	-2.2879956e-09
229	0xb3aa468d	-7.929075e-08
230	0xb2ff7f8c	-2.9743909e-08
231	0x3343b06a	4.5562423e-08
232	0xb50879a8	-5.084098e-07
233	0xb308b1e6	-3.1826765e-08
234	0xb41071be	-1.3452424e-07
235	0xb305630b	-3.1056555e-08
236	0x333a338d	4.3353385e-08
237	0xb50656a5	-5.0044974e-07
238	0xb350e2e8	-4.8635144e-08
239	0xb3fd9dfe	-1.1809969e-07
240	0xb30da6ac	-3.2980708e-08
241	0x32e25927	2.6350405e-08
242	0xb47772f7	-2.3045492e-07
243	0xb0d2076a	-1.5281618e-09
244	0xb388ac5f	-6.3643476e-08
245	0x31856182	3.881895e-09
246	0x33c1c02c	9.022219e-08
247	0x34c9d0da	3.7591127e-07
248	0x2fa2268f	2.9495026e-10
249	0xb3be7c7e	-8.8702095e-08
250	0xb1d687c6	-6.2436554e-09
251	0x34330cbe	1.667531e-07
252	0x350e83ec	5.3091094e-07
253	0xb399d908	-7.1640955e-08
254	0xb408c083	-1.2736022e-07
255	0xb2740ba9	-1.42053205e-08

exp_avg_sq f4 [256, 5]
0	0x2e4a5963	4.6008874e-11
1	0x2e293a5f	3.8477995e-11
2	0x2f8446f2	2.406107e-10
3	0x2f2f5dbf	1.5949463e-10
4	0x2f09ffba	1.255093e-10
5	0x2dd3c54e	2.4075544e-11
6	0x2ddb614b	2.4940624e-11
7	0x2f02c873	1.1894645e-10
8	0x2e5c349e	5.0068942e-11
9	0x2d8aac6e	1.5765358e-11
10	0x2ecad1d3	9.223169e-11
11	0x2eb3d154	8.177162e-11
12	0x2fe05517	4.0805823e-10
13	0x2f6677ca	2.0960936e-10
14	0x2e9f705d	7.2504426e-11
15	0x2e7d9887	5.766101e-11
16	0x2eb014fe	8.007282e-11
17	0x2fea2954	4.2593717e-10
18	0x2e8e8838	6.48161e-11
19	0x2ea69e5b	7.5769356e-11
20	0x2e47264f	4.5281386e-11
21	0x2e8e34b8	6.466777e-11
22	0x2fa8b10f	3.068483e-10
23	0x2e8ec96e	6.4931935e-11
24	0x2e8a1211	6.278723e-11
25	0x2e20e814	3.6585915e-11
26	0x2e0d8a75	3.2182663e-11
27	0x2f77ce5e	2.2537835e-10
28	0x2f2c4a91	1.56698e-10
29	0x2e27b34b	3.8130648e-11
30	0x2eb83db9	8.3783154e-11
31	0x2ea4b6e1	7.4903424e-11
32	0x2fe91e3f	4.2403944e-10
33	0x2f7b938e	2.2880739e-10
34	0x2e9408c6	6.731819e-11
35	0x2eaedc00	7.951684e-11
36	0x2eb88b4a	8.392094e-11
37	0x2fc9919b	3.6665146e-10
38	0x2f031656	1.1922316e-10
39	0x2e40a057	4.3798156e-11
40	0x2dc32d75	2.218912e-11
41	0x2dd87829	2.4609719e-11
42	0x2f2f9de1	1.5972247e-10
43	0x2f210560	1.4644774e-10
44	0x2f209953	1.4606387e-10
45	0x2dd0b6f8	2.3728117e-11
46	0x2de306c7	2.5809922e-11
47	0x2f05046c	1.209785e-10
48	0x2e708703	5.4689597e-11
49	0x2e73fad2	5.5474576e-11
50	0x2ea23220	7.375811e-11
51	0x2e8fb323	6.534708e-11
52	0x2fc8386d	3.641988e-10
53	0x2f96addd	2.7408378e-10
54	0x2e9dd764	7.1777945e-11
55	0x2ec18d3f	8.801714e-11
56	0x2ec01ec5	8.736615e-11
57	0x2f60381e	2.0392618e-10
58	0x2e2b03b6	3.8884194e-11
59	0x2e2cf222	3.932333e-11
60	0x2db33809	2.0374829e-11
61	0x2dbc9be5	2.1442357e-11
62	0x2e990995	6.9593366e-11
63	0x2e560ba3	4.8668302e-11
64	0x2d92ef14	1.670445e-11
65	0x2e8947c5	6.2427875e-11
66	0x2e91d361	6.631385e-11
67	0x2fb9e4c0	3.381384e-10
68	0x2eae6134	7.9298706e-11
69	0x2e829ee9	5.939944e-11
70	0x2d900712	1.6374044e-11
71	0x2d85a179	1.5192058e-11
72	0x2ebe6b71	8.659285e-11
73	0x2e7189eb	5.491955e-11
74	0x2e436103	4.442403e-11
75	0x2e7c9f24	5.743951e-11
76	0x2e6dcad5	5.4067712e-11
77	0x2fb6d479	3.3256578e-10
78	0x2f822527	2.367326e-10
79	0x2f0efe36	1.3005139e-10
80	0x2e773d87	5.6215945e-11
81	0x2e7e4b42	5.7819756e-11
82	0x2f431275	1.7741704e-10
83	0x2e3e7ebd	4.3313565e-11
84	0x2e00b24e	2.9262197e-11
85	0x2e4142cf	4.3942457e-11
86	0x2e919b94	6.621473e-11
87	0x2fa0c58f	2.9244204e-10
88	0x2e085242	3.099588e-11
89	0x2e8862fc	6.202147e-11
90	0x2d964450	1.7083363e-11
91	0x2dd4eaab	2.4205823e-11
92	0x2f11ae7e	1.3249665e-10
93	0x2e364105	4.1439758e-11
94	0x2dc1a141	2.201317e-11
95	0x2e65350e	5.2115694e-11
96	0x2e579484	4.901725e-11
97	0x2f40ce16	1.7535515e-10
98	0x2e6d2b43	5.3925985e-11
99	0x2e6397ab	5.1748533e-11
100	0x2d8efb09	1.6255013e-11
101	0x2da40d08	1.8650428e-11
102	0x2ec984d4	9.164017e-11
103	0x2ee899c5	1.05774535e-10
104	0x2f2c68c2	1.5680526e-10
105	0x2e95ae10	6.806655e-11
106	0x2e840b06	6.004623e-11
107	0x2fe0709e	4.0825382e-10
108	0x2f8bd9c0	2.5438673e-10
109	0x2e86bd38	6.1272265e-11
110	0x2eb0c94c	8.039311e-11
111	0x2e981bd2	6.9171016e-11
112	0x2ff40c9e	4.4392306e-10
113	0x2fb90f6a	3.3662256e-10
114	0x2ecd59ac	9.3382496e-11
115	0x2ee93305	1.0604676e-10
116	0x2ef8cfe2	1.1314662e-10
117	0x2fc25d76	3.5354802e-10
118	0x2e43fe9f	4.4564016e-11
119	0x2e73c482	5.5426337e-11
120	0x2e70bbf9	5.4736635e-11
121	0x2e6bc6ba	5.360932e-11
122	0x2e6f610c	5.4428503e-11
123	0x2ed1249a	9.5107214e-11
124	0x2e9706e1	6.867907e-11
125	0x2dcc577e	2.323097e-11
126	0x2ddc559b	2.504912e-11
127	0x2e8cae20	6.397394e-11
128	0x2e14015f	3.3652522e-11
129	0x2e6b36a5	5.3481348e-11
130	0x2e7cf28f	5.75136e-11
131	0x2e5c24b1	5.0054797e-11
132	0x2fea1e66	4.2585951e-10
133	0x2f4b622d	1.8497621e-10
134	0x2f0103c4	1.173382e-10
135	0x2ea87939	7.661289e-11
136	0x2e9c50a4	7.108383e-11
137	0x300524d2	4.8437443e-10
138	0x2fbe06b2	3.4565556e-10
139	0x2ea0766a	7.296992e-11
140	0x2e850b85	6.050186e-11
141	0x2e66a651	5.2443664e-11
142	0x2fb7cd7e	3.3433517e-10
143	0x2f838f83	2.3930732e-10
144	0x2e941479	6.7338975e-11
145	0x2dbec2b5	2.1686966e-11
146	0x2dca66c1	2.3010373e-11
147	0x2e042f82	3.005552e-11
148	0x2e237b23	3.7171276e-11
149	0x2e73c8db	5.54302e-11
150	0x2dfbc5ad	2.8623182e-11
151	0x2e013d06	2.9385404e-11
152	0x2ead8a9c	7.891751e-11
153	0x2dd508f0	2.4219265e-11
154	0x2da5bb19	1.8841416e-11
155	0x2e753080	5.5749627e-11
156	0x2e99269d	6.9644936e-11
157	0x2fc5ad5a	3.5957265e-10
158	0x2e9ced5d	7.136223e-11
159	0x2e49c3f6	4.5876157e-11
160	0x2daab6f1	1.9408005e-11
161	0x2db49587	2.0530034e-11
162	0x2e93cfaa	6.7216746e-11
163	0x2e47d99b	4.5440634e-11
164	0x2e44f3a6	4.4781644e-11
165	0x2d3cef96	1.07397615e-11
166	0x2d4f6e95	1.1791142e-11
167	0x2ed66db7	9.7510826e-11
168	0x2e52b872	4.7912292e-11
169	0x2ebe44cb	8.65242e-11
170	0x2dcc566b	2.3230492e-11
171	0x2dcabeb9	2.3049439e-11
172	0x2edb48af	9.971878e-11
173	0x2e13d32a	3.361148e-11
174	0x2deb5e5e	2.6758314e-11
175	0x2e9eb834	7.217729e-11
176	0x2e8bfb29	6.365603e-11
177	0x2fd6229e	3.895097e-10
178	0x2f7e93c6	2.3153665e-10
179	0x2f0d75ab	1.286568e-10
180	0x2eb9ebe8	8.4547314e-11
181	0x2ee9b245	1.062728e-10
182	0x303ea20e	6.935189e-10
183	0x2efea4a9	1.1579832e-10
184	0x2eb15ba9	8.06531e-11
185	0x2eb972dd	8.43323e-11
186	0x2ea7cc01	7.630519e-11
187	0x302d5aeb	6.3066236e-10
188	0x2fe02f63	4.0779033e-10
189	0x2f26cdb8	1.5170698e-10
190	0x2d994411	1.7424314e-11
191	0x2d93c88d	1.6801028e-11
192	0x2ef661b4	1.12041404e-10
193	0x2ef910ef	1.1326217e-10
194	0x2eb3f01a	8.182628e-11
195	0x2e876dcb	6.1585924e-11
196	0x2e674ab1	5.258966e-11
197	0x2fd24ab4	3.8251857e-10
198	0x2f57d1ce	1.9628674e-10
199	0x2e7cdc65	5.7493916e-11
200	0x2d188610	8.6699675e-12
201	0x2d176cf2	8.607547e-12
202	0x2e28f5b4	3.8417006e-11
203	0x2e5b7e6b	4.9907117e-11
204	0x2e1df707	3.591707e-11
205	0x2e1238e9	3.3247103e-11
206	0x2e04453d	3.007482e-11
207	0x2f622591	2.0567927e-10
208	0x2f203aba	1.4572779e-10
209	0x2e165139	3.417819e-11
210	0x2ef76e22	1.1251823e-10
211	0x2efae99d	1.1410182e-10
212	0x2f3516fe	1.6470023e-10
213	0x2e12b0b1	3.335349e-11
214	0x2deec5f8	2.7145383e-11
215	0x2eb64295	8.288229e-11
216	0x2ea7a1b7	7.623007e-11
217	0x2fae60ba	3.1719144e-10
218	0x2f038481	1.1961455e-10
219	0x2ede68e0	1.0114021e-10
220	0x2ec04ea5	8.745119e-11
221	0x2ec6b13d	9.0354814e-11
222	0x2f9a800c	2.810342e-10
223	0x2f26b061	1.5160274e-10
224	0x2ea3cf2d	7.4491836e-11
225	0x2e5c4236	5.0081016e-11
226	0x2e83f791	6.001167e-11
227	0x2fd39664	3.8487535e-10
228	0x2f19347a	1.3933912e-10
229	0x2e405781	4.3733465e-11
230	0x2e3ce066	4.2945557e-11
231	0x2e1e3683	3.5973457e-11
232	0x2f899c7a	2.5031338e-10
233	0x2efdeb53	1.154691e-10
234	0x2e833cfe	5.968025e-11
235	0x2e4eead1	4.7047536e-11
236	0x2e39a9d6	4.2214975e-11
237	0x2f8de765	2.5812166e-10
238	0x2f14f311	1.3546876e-10
239	0x2e9764ae	6.884569e-11
240	0x2dc07cd0	2.18833e-11
241	0x2dc20099	2.2055512e-11
242	0x2eae27b6	7.919658e-11
243	0x2dcd8e51	2.3369003e-11
244	0x2e4208fc	4.4118473e-11
245	0x2e0120c5	2.936031e-11
246	0x2e3f996c	4.3564638e-11
247	0x2f8e4581	2.5879035e-10
248	0x2e385b1a	4.191767e-11
249	0x2e580111	4.911366e-11
250	0x2f12d1f3	1.3353212e-10
251	0x2f4babc8	1.8523771e-10
252	0x306b6e0b	8.564888e-10
253	0x2eb821ac	8.3733326e-11
254	0x2f3f5622	1.740195e-10
255	0x2f01e2fd	1.1813124e-10

exp_avg f4 [256, 64]
0	0x00000000	0.0
1	0x00000000	0.0
2	0x00000000	0.0
3	0x00000000	0.0
4	0x00000000	0.0
5	0x00000000	0.0
6	0x00000000	0.0
7	0x00000000	0.0
8	0x00000000	0.0
9	0x00000000	0.0
10	0x00000000	0.0
11	0x00000000	0.0
12	0x00000000	0.0
13	0x00000000	0.0
14	0x00000000	0.0
15	0x00000000	0.0
16	0x00000000	0.0
17	0x00000000	0.0
18	0x00000000	0.0
19	0x00000000	0.0
20	0x00000000	0.0
21	0x00000000	0.0
22	0x00000000	0.0
23	0x00000000	0.0
24	0x00000000	0.0
25	0x00000000	0.0
26	0x00000000	0.0
27	0x00000000	0.0
28	0x00000000	0.0
29	0x00000000	0.0
30	0x00000000	0.0
31	0x00000000	0.0
32	0x00000000	0.0
33	0x00000000	0.0
34	0x00000000	0.0
35	0x00000000	0.0
36	0x00000000	0.0
37	0x00000000	0.0
38	0x00000000	0.0
39	0x00000000	0.0
40	0x00000000	0.0
41	0x00000000	0.0
42	0x00000000	0.0
43	0x00000000	0.0
44	0x00000000	0.0
45	0x00000000	0.0
46	0x00000000	0.0
47	0x00000000	0.0
48	0x00000000	0.0
49	0x00000000	0.0
50	0x00000000	0.0
51	0x00000000	0.0
52	0x00000000	0.0
53	0x00000000	0.0
54	0x00000000	0.0
55	0x00000000	0.0
56	0x00000000	0.0
57	0x00000000	0.0
58	0x00000000	0.0
59	0x00000000	0.0
60	0x00000000	0.0
61	0x00000000	0.0
62	0x00000000	0.0
63	0x00000000	0.0
64	0x00000000	0.0
65	0x00000000	0.0
66	0x00000000	0.0
67	0x00000000	0.0
68	0x00000000	0.0
69	0x00000000	0.0
70	0x00000000	0.0
71	0x00000000	0.0
72	0x00000000	0.0
73	0x00000000	0.0
74	0x00000000	0.0
75	0x00000000	0.0
76	0x00000000	0.0
77	0x00000000	0.0
78	0x00000000	0.0
79	0x00000000	0.0
80	0x00000000	0.0
81	0x00000000	0.0
82	0x00000000	0.0
83	0x00000000	0.0
84	0x00000000	0.0
85	0x00000000	0.0
86	0x00000000	0.0
87	0x00000000	0.0
88	0x00000000	0.0
89	0x00000000	0.0
90	0x00000000	0.0
91	0x00000000	0.0
92	0x00000000	0.0
93	0x00000000	0.0
94	0x00000000	0.0
95	0x00000000	0.0
96	0x00000000	0.0
97	0x00000000	0.0
98	0x00000000	0.0
99	0x00000000	0.0
100	0x00000000	0.0
101	0x00000000	0.0
102	0x00000000	0.0
103	0x00000000	0.0
104	0x00000000	0.0
105	0x00000000	0.0
106	0x00000000	0.0
107	0x00000000	0.0
108	0x00000000	0.0
109	0x00000000	0.0
110	0x00000000	0.0
111	0x00000000	0.0
112	0x00000000	0.0
113	0x00000000	0.0
114	0x00000000	0.0
115	0x00000000	0.0
116	0x00000000	0.0
117	0x00000000	0.0
118	0x00000000	0.0
119	0x00000000	0.0
120	0x00000000	0.0
121	0x00000000	0.0
122	0x00000000	0.0
123	0x00000000	0.0
124	0x00000000	0.0
125	0x00000000	0.0
126	0x00000000	0.0
127	0x00000000	0.0
128	0x00000000	0.0
129	0x00000000	0.0
130	0x00000000	0.0
131	0x00000000	0.0
132	0x00000000	0.0
133	0x00000000	0.0
134	0x00000000	0.0
135	0x00000000	0.0
136	0x00000000	0.0
137	0x00000000	0.0
138	0x00000000	0.0
139	0x00000000	0.0
140	0x00000000	0.0
141	0x00000000	0.0
142	0x00000000	0.0
143	0x00000000	0.0
144	0x00000000	0.0
145	0x00000000	0.0
146	0x00000000	0.0
147	0x00000000	0.0
148	0x00000000	0.0
149	0x00000000	0.0
150	0x00000000	0.0
151	0x00000000	0.0
152	0x00000000	0.0
153	0x00000000	0.0
154	0x00000000	0.0
155	0x00000000	0.0
156	0x00000000	0.0
157	0x00000000	0.0
158	0x00000000	0.0
159	0x00000000	0.0
160	0x00000000	0.0
161	0x00000000	0.0
162	0x00000000	0.0
163	0x00000000	0.0
164	0x00000000	0.0
165	0x00000000	0.0
166	0x00000000	0.0
167	0x00000000	0.0
168	0x00000000	0.0
169	0x00000000	0.0
170	0x00000000	0.0
171	0x00000000	0.0
172	0x00000000	0.0
173	0x00000000	0.0
174	0x00000000	0.0
175	0x00000000	0.0
176	0x00000000	0.0
177	0x00000000	0.0
178	0x00000000	0.0
179	0x00000000	0.0
180	0x00000000	0.0
181	0x00000000	0.0
182	0x00000000	0.0
183	0x00000000	0.0
184	0x00000000	0.0
185	0x00000000	0.0
186	0x00000000	0.0
187	0x00000000	0.0
188	0x00000000	0.0
189	0x00000000	0.0
190	0x00000000	0.0
191	0x00000000	0.0
192	0x00000000	0.0
193	0x00000000	0.0
194	0x00000000	0.0
195	0x00000000	0.0
196	0x00000000	0.0
197	0x00000000	0.0
198	0x00000000	0.0
199	0x00000000	0.0
200	0x00000000	0.0
201	0x00000000	0.0
202	0x00000000	0.0
203	0x00000000	0.0
204	0x00000000	0.0
205	0x00000000	0.0
206	0x00000000	0.0
207	0x00000000	0.0
208	0x00000000	0.0
209	0x00000000	0.0
210	0x00000000	0.0
211	0x00000000	0.0
212	0x00000000	0.0
213	0x00000000	0.0
214	0x00000000	0.0
215	0x00000000	0.0
216	0x00000000	0.0
217	0x00000000	0.0
218	0x00000000	0.0
219	0x00000000	0.0
220	0x00000000	0.0
221	0x00000000	0.0
222	0x00000000	0.0
223	0x00000000	0.0
224	0x00000000	0.0
225	0x00000000	0.0
226	0x00000000	0.0
227	0x00000000	0.0
228	0x00000000	0.0
229	0x00000000	0.0
230	0x00000000	0.0
231	0x00000000	0.0
232	0x00000000	0.0
233	0x00000000	0.0
234	0x00000000	0.0
235	0x00000000	0.0
236	0x00000000	0.0
237	0x00000000	0.0
238	0x00000000	0.0
239	0x00000000	0.0
240	0x00000000	0.0
241	0x00000000	0.0
242	0x00000000	0.0
243	0x00000000	0.0
244	0x00000000	0.0
245	0x00000000	0.0
246	0x00000000	0.0
247	0x00000000	0.0
248	0x00000000	0.0
249	0x00000000	0.0
250	0x00000000	0.0
251	0x00000000	0.0
252	0x00000000	0.0
253	0x00000000	0.0
254	0x00000000	0.0
255	0x00000000	0.0
