lightning_logs/version_47/checkpoints/epoch=9-step=810.ckpt (torch, 227860 bytes, 15 tensors)

lstm.weight_ih_l0 f4 [256, 5]
00000000: 626f bfbc 5878 4fbe 7bc5 71bf 8833 db3d
00000010: 649f 44bd 07c4 5bbe 079a 923d beba 60bf
00000020: c365 4cbe 79bf c0be f3da bf3e 44bb 9ebe
00000030: 5876 203f a17c a73e 3af9 44be 0128 aabe
00000040: 9518 683d ed5d 3abf ce28 0dbe 8432 eb3c
00000050: 06fc 42be d1c9 113e 7bc4 f3be 0b48 99bd
00000060: 2dbe 97be 433e 3cbe 0dd2 943e 09fa 24bf
00000070: d6f4 903c 297d 28be 5614 bc3e 07ce 95be
00000080: 6d1c 6f3f c8ad c23e 9bd6 0d3e 2697 f03d
00000090: 23c6 1cbd 5b10 393f 980e 8c3e cedb 973e
000000a0: aaad 79be 32b5 2b3e 1f39 28bf 7255 a0bd
000000b0: 4f1a 77be c8b9 113f b022 1abf 8d02 803f
000000c0: f591 f33e c00d b93d 9eb1 a9be a356 213e
000000d0: 9324 53bf 9f0f 2bbe 0ff0 59be ae24 b63e
000000e0: 9ec6 c0be f686 1f3f 31db d83e 9505 3cbe
000000f0: b4bc 8cbe 02e9 113e fb16 66bf bf69 42be
00000100: d250 6dbe b71e a7bd e87a 9abe 3780 75bf
00000110: f428 abbe 7c97 69bd 5ccf 3bbe 5f3f 573e
00000120: 4ae3 1bbf 8df2 853d 7bb8 87be b0f4 0b3f
00000130: cd36 bebe 6229 503f bd1c b63e 4b7f 7c3d
00000140: b57e b7be 9406 423e 2972 5cbf 2b91 d2be
00000150: e81f a73d ed0d a6be 41a7 403e 9022 4ebf
00000160: 8cd2 67bd add3 79bd 705a 993e dbfe e2be
00000170: d500 623f 0485 903e e603 e93d 1f49 623d
00000180: bbc9 59bc 421b 3e3f 56b7 9b3e 3562 c53d
00000190: ada7 b1be c936 423e 2eb6 24bf 263a 99be
000001a0: 6855 c7bd f13a adbe 69c7 463b a3af 6cbf
000001b0: 6d24 8dbe 8b86 503e 29bb 9ebe 1345 9dbc
000001c0: 6067 6dbf 285d aabe 46c9 6abe c3d5 8f3e
000001d0: 98c0 f5bd 0020 483f 78a6 523e 6b15 8a3d
000001e0: 2596 5a3e 1c45 4bbe d810 423f ab19 7d3e
000001f0: 6150 a5bd 2531 7c3e 3438 57be 87c4 6a3f
00000200: d3ea 133f b97c 3ebd ff93 8abd 547c ed3d
00000210: 662b 113f 5b15 143e c879 d8bd 80b9 be3e
00000220: c9a3 8fbe c7c1 413f 128d 703e 36d4 bbbe
00000230: d119 403e 27bd 87bd c531 563f 0e00 833e
00000240: 8a3f b43e 6a70 883e 9653 84be 7960 463f
00000250: 90c2 9b3e ee0f 83be e921 b3be a630 123e
00000260: 2172 853e 8dbd 043f dd19 8dbe cfb4 713d
00000270: ad2d c63c 699a da3e f386 703e 997e 85be
00000280: fb9a 003f 1e22 fbbe e683 333f 81d0 c23e
00000290: 05df 4bbd b01f 71be 0090 ca3d 69a8 52bf
000002a0: 26ba 86be 5b04 d43d 44f4 e43e 4323 94be
000002b0: 036d 5b3f 8729 b33e 767c 9abd d7de 6c3e
000002c0: d639 dfbd f2e8 333f 9d00 383e 4ca1 82be
000002d0: 034c 933e 094b 3ebe 4e24 453f 3690 7d3e
000002e0: 2d3b 47be b5d2 30be ca75 9c3d eab4 e53e
000002f0: d313 013e 232f 0bbe 8432 4ebe 165a 843d
00000300: 65a8 74bf 3c04 3c3c f7e6 74be 5d11 49bd
00000310: dbf1 fd3d ed4a 2d3f bba8 253e 01ae 943e
00000320: eef7 833e 97a6 79bd 1462 433f 790f 8c3e
00000330: 5286 89bd b3a3 a83e 523b 4ebe f52c 503f
00000340: 9f22 e33e 5104 2e3e 349c b4be 65cc 4d3e
00000350: 74db 95be e53f e63e a163 b3be 6377 aebe
00000360: 04ab dd3d 0763 4dbf d299 abbe 4f93 a23e
00000370: d7c2 483e 2aea 1abe 5494 2c3f 0f23 783e
00000380: de84 03be 00f8 723e 6162 74be bfd1 813f
00000390: 8c6f 0f3e 5aa4 c93e d945 363e afa2 a6be
000003a0: e101 fabe 7d30 edbd 1d61 4c3e d873 99be
000003b0: 593c 853d f2f5 52bf ad7e b8be 0c4e a33e
000003c0: 1745 84be cf3f 003e 4c10 75bf cb5f b4be
000003d0: 1c85 ae3e 1f26 ac3e 9972 17be 7c77 233f
000003e0: bfa2 7e3e ce39 0dbe e221 503d 786c 5b3d
000003f0: edd9 533f e33e cb3e 8de4 a63d 4c6a c93e
-0.023368541 -0.20260751 -0.94441956 0.10703188 -0.04800357 -0.21461497 0.07158285 -0.87784946
-0.19960694 -0.37646082 0.37471732 -0.31002247 0.6268058 0.32712272 -0.19235697 -0.33233646
0.05666407 -0.7279957 -0.13785097 0.028710611 -0.19041452 0.14237143 -0.4761084 -0.07484444
-0.2963728 -0.18383126 0.29066506 -0.64444023 0.017694872 -0.16453995 0.36734265 -0.2925875
0.9340275 0.3802321 0.13851397 0.11747579 -0.038274895 0.7229058 0.27354884 0.29659885
-0.24382654 0.1676834 -0.6571216 -0.078287974 -0.2413113 0.56924105 -0.6020918 1.0000778
0.47572294 0.09035826 -0.33143324 0.15755706 -0.8247768 -0.16705178 -0.21282981 0.3557486
-0.37651533 0.6231531 0.4235473 -0.18361504 -0.2748772 0.14249042 -0.89878815 -0.18985651
-0.23175362 -0.08160155 -0.30171895 -0.95898765 -0.33429682 -0.057029232 -0.1834082 0.21020268
-0.6089369 0.065404035 -0.26507935 0.5467024 -0.37151185 0.81313145 0.355688 0.061644834
-0.35838857 0.18947822 -0.86111695 -0.4112638 0.081603825 -0.324325 0.18813802 -0.8052149
-0.056597278 -0.060992885 0.2995181 -0.44335064 0.8828252 0.28226483 0.11377697 0.055245515
-0.013292725 0.7426034 0.30413312 0.09637872 -0.3469824 0.18966211 -0.64340484 -0.29927176
-0.09733087 -0.3383403 0.003033126 -0.924555 -0.27566853 0.20363824 -0.31002167 -0.019197976
-0.9273586 -0.33274198 -0.22928342 0.28092775 -0.11999625 0.7817383 0.20571315 0.067423664
0.21346338 -0.19850582 0.7580695 0.24716823 -0.08071972 0.24628122 -0.21017534 0.91706127
0.5778019 -0.046505664 -0.06766509 0.11595979 0.56706846 0.14461271 -0.10570103 0.372509
-0.28054646 0.75686306 0.23491314 -0.36685342 0.18759848 -0.06627875 0.8366969 0.2558598
0.35204726 0.26648265 -0.2584502 0.77490956 0.30421877 -0.2559809 -0.3498681 0.1427637
0.26063636 0.5185173 -0.27558795 0.059010323 0.024191702 0.4269593 0.23488979 -0.2607315
0.5023648 -0.49049467 0.70123136 0.380497 -0.049773235 -0.23547244 0.09890747 -0.82288224
-0.26313895 0.10352393 0.4471761 -0.28933153 0.85713214 0.3499262 -0.0754327 0.23131882
-0.10899703 0.7027732 0.17968984 -0.25513685 0.2876893 -0.18583311 0.7700852 0.24762043
-0.19456168 -0.17267878 0.07639654 0.4486459 0.12605219 -0.135922 -0.20136458 0.06462495
-0.9556945 0.011475619 -0.23916231 -0.049088825 0.12399646 0.6769245 0.16177647 0.29039004
0.25775093 -0.060949888 0.7632153 0.27355555 -0.06715073 0.32937393 -0.20139816 0.813186
0.4436235 0.16993834 -0.35275424 0.20097502 -0.29268992 0.44970623 -0.35036948 -0.3407546
0.10823634 -0.8022923 -0.33515793 0.31753013 0.19605576 -0.15128389 0.6741383 0.24232124
-0.12843654 0.23727417 -0.23865654 1.0142134 0.14007396 0.39383203 0.17800082 -0.32545993
-0.48829558 -0.11581514 0.19958921 -0.29971194 0.06505651 -0.8240653 -0.36034146 0.31895483
-0.2583396 0.12524341 -0.9572799 -0.35229334 0.3408593 0.33622834 -0.1478981 0.63854194
0.2486677 -0.13791582 0.050813563 0.05357024 0.82754403 0.39696416 0.08149061 0.3933891

lstm.weight_hh_l0 f4 [256, 64]
00000000: 3013 63bd 7c15 b33d 90e6 f73d f03c c53d
00000010: 58cc a63d 20a5 ca3b 982e c13c 003a 123a
00000020: 6834 883d 527c d03d 56cb 973d 40f1 bf3c
00000030: b42b bfbd 9255 fe3d 04ec b23d 08fb b93d
00000040: 4073 2b3d 60a1 95bd c0d0 f5bd a887 c4bc
00000050: c054 cb3c 204b 67bd 3026 f03d 482a 94bc
00000060: 4008 8b3c c073 a83b 4a69 cc3d 4092 72bc
00000070: 5c36 5c3d de08 bdbd b2fb 94bd 30c0 33bc
00000080: 82d5 efbd f8fd 80bc 501f 713d 28e8 963d
00000090: aedc e13d 74e6 413d 68db 323d 06ed ddbd
000000a0: 8035 cfbb 401b 323c e028 b2bb 989b 5cbd
000000b0: 78dd 67bd 3cbd a8bd 6862 6d3d 14bb 303d
000000c0: 387b e13c 4242 c0bd 1092 46bc 587c a13d
000000d0: 2011 2abd 960e 8cbd 4895 afbc c4d4 6a3d
000000e0: 0ccd 7fbd 0024 d43d 0cea 193d 003e e0ba
000000f0: 9ede 85bd c0f7 8c3c 6c89 dcbd 48e0 4cbd
00000100: f8f7 71bd 20f2 3a3c 92da f63d f852 a73c
00000110: 4e37 b53d 844b 81bd 90df e9bc 220c d6bd
00000120: 3c3d e93d 2e38 fb3d b069 44bc ca12 aebd
00000130: 0686 803d fc57 43bd d0b8 cbbc 708b 403d
00000140: 08af c73c a072 723c 0acd f13d de30 b7bd
00000150: 20d3 a33c 30e4 45bc f094 b73c 7027 76bc
00000160: 341d d13d 360c ec3d e84e e53c 7853 d5bd
00000170: ae80 a63d c0b5 d03d c076 e93d 582e 1d3d
00000180: 44fd 01bd f87f bf3c bc04 f2bd 2280 e83d
00000190: 04ad 253d 7a51 d2bd 14d6 643d 80e6 2fbd
000001a0: beeb e9bd 807e d03b cceb 32bd f017 34bd
000001b0: 684b 5bbd 4066 babc 90db 77bd 90be 1ebd
000001c0: 38b2 493d 2056 67bc 740a 00bd fe3c 833d
000001d0: 8e9e a5bd fc7f cebd c4aa 45bd 38f7 02bd
000001e0: 1002 eebd 123d 94bd 229b abbd 483c e43c
000001f0: 1475 58bd 8827 e5bd e06c 55bc ca0e a33d
00000200: 7616 ccbd 82ef 84bd faa6 ac3d 0825 debd
00000210: d27d cfbd e467 1cbd 006b 33bb 3891 453d
00000220: acb2 25bd 74aa 873d 94e7 673d 582a e2bc
00000230: 608e 9abc 6c63 5abd 7a6d c9bd 9026 d0bc
00000240: 7c98 7ebd 1845 a93d f48d 103d ec5d c33d
00000250: e027 dfbc 5485 e23d 8013 623b 3e2c 9dbd
00000260: b0f3 213c ca06 f23d 50cd 813d 9201 d93d
00000270: d43c 923d 2073 dbbc 60d6 b5bb 9411 653d
00000280: e04b c73d d0c6 9a3c 80fa 4d3d faaa b6bd
00000290: 0e10 a8bd a0d7 13bd c801 9c3d 0084 53ba
000002a0: 5041 21bd a42d 5bbd 004c 59bd 68a4 fdbc
000002b0: aa74 9dbd ece1 4f3d f819 fc3d d814 ab3d
000002c0: fcd7 9b3d 0cf0 1c3d 848b 403d 38bd b0bd
000002d0: 60fe 19bc 8044 da3a 58ce 41bd 90ae 5e3d
000002e0: a49b 1fbd 88ca b13d 286d eb3d a016 053c
000002f0: 0045 1cbd 10da 22bc d42f ba3d d807 aebd
00000300: c896 9bbd 00a0 963c 5ad4 bfbd 8628 80bd
00000310: 1817 b93c f0ca c2bd 042d 5cbd a262 fd3d
00000320: 38df 253d 54b6 cdbd 907e 85bc a08d 203c
00000330: e0d8 013d 0428 e33d 68bf 183d 80a9 1d3b
00000340: 7614 84bd 74fb c03d c0d9 b6bd c2fb d1bd
00000350: 32eb 93bd 720d 893d 405b 9bbd cc7f ff3d
00000360: 003d 5f3d 3068 fcbc 503a 94bd d0aa 313c
00000370: cc3c b23d ee81 dc3d a0ee b7bb 200f 293d
00000380: 38d1 2fbd 94d4 6d3d 006c 463b 3c34 203d
00000390: 5829 31bd 7e04 f9bd 4ea5 ad3d ca65 ba3d
000003a0: 7af2 aebd 2843 afbd 3087 ddbd a0b6 afbc
000003b0: a80b 4abd 70c5 f4bd c033 acbd fc4b 393d
000003c0: d82d 643d 9ec5 acbd 6447 eabd a63a f23d
000003d0: c4a1 a23d d065 30bd 80b4 f1bb b095 c7bd
000003e0: 4ca6 3c3d a6cd c13d 9824 c8bd eaec b7bd
000003f0: 40bf ef3c 1846 35bd 84ad 47bd 80bc a8bc
-0.05543822 0.08744332 0.12104523 0.096307635 0.08144444 0.006184235 0.023581788 0.00055781007
0.06650621 0.10179962 0.0741183 0.023430467 -0.093345076 0.12418665 0.08736423 0.090810835
0.041857958 -0.073061705 -0.120027065 -0.023990467 0.024820685 -0.05646813 0.11726034 -0.018086568
0.016971707 0.0051407516 0.0998102 -0.0148053765 0.05376278 -0.09230207 -0.072745696 -0.010971114
-0.11710645 -0.015746102 0.058867753 0.07368499 0.110284194 0.047338918 0.043666273 -0.10836224
-0.0063235164 0.010870755 -0.0054370016 -0.053859323 -0.056607693 -0.082392186 0.057955176 0.04314716
0.027524576 -0.09387638 -0.012119785 0.07885045 -0.041520238 -0.068387195 -0.021433488 0.057331815
-0.062451407 0.10358429 0.03757672 -0.0017108321 -0.065366015 0.01720798 -0.10768399 -0.05001858
-0.059074372 0.011410266 0.12053408 0.020425305 0.08848439 -0.063132316 -0.028548986 -0.10451533
0.11388633 0.12266575 -0.0119880885 -0.084996775 0.06275563 -0.04769133 -0.024868399 0.047007978
0.024375454 0.014797837 0.11806686 -0.089448676 0.019998133 -0.01207833 0.022409886 -0.015024051
0.10210648 0.115257666 0.027991727 -0.10416311 0.081300125 0.10190916 0.11399603 0.038374275
-0.031735674 0.02337645 -0.11817309 0.113525644 0.040448204 -0.10269447 0.055868223 -0.04294443
-0.114219174 0.006362736 -0.043681905 -0.04396814 -0.05353871 -0.022753835 -0.060512125 -0.038755953
0.04924223 -0.014119655 -0.03125997 0.06408118 -0.080868825 -0.10083005 -0.048258558 -0.031974047
-0.11621487 -0.07238211 -0.083791986 0.027860776 -0.05284603 -0.111891806 -0.013026446 0.07961805
-0.099652216 -0.06490995 0.08430286 -0.10846907 -0.1013142 -0.038185015 -0.002737701 0.048234195
-0.040453598 0.06624308 0.056617334 -0.027608082 -0.018866718 -0.053317472 -0.09835334 -0.025409013
-0.06215714 0.08265132 0.035291627 0.095393986 -0.027240694 0.110605866 0.0034496486 -0.07674454
0.00988476 0.11817701 0.063379884 0.10596003 0.07140508 -0.026788294 -0.005549237 0.055924967
0.09731269 0.01889363 0.050287724 -0.0891933 -0.08206187 -0.036094308 0.07617527 -0.0008068681
-0.039368927 -0.053510323 -0.053050995 -0.030962184 -0.076882675 0.050752565 0.12309641 0.08353585
0.07609555 0.038314864 0.047008052 -0.086298406 -0.009399027 0.0016652495 -0.047315925 0.054365695
-0.03896679 0.08681208 0.11495429 0.00812307 -0.03815174 -0.009939685 0.09091154 -0.0849759
-0.075971186 0.01838684 -0.09366675 -0.06257729 0.02259402 -0.095113635 -0.053753868 0.12372328
0.04049608 -0.10044542 -0.016295701 0.009799391 0.03170097 0.11091617 0.037291914 0.0024057329
-0.06449215 0.09422961 -0.08928251 -0.10253097 -0.07222594 0.066920176 -0.07585764 0.12475547
0.054501534 -0.0308114 -0.07237685 0.0108439475 0.08703002 0.107669696 -0.005613163 0.04127419
-0.042924136 0.05806406 0.0030276775 0.039112315 -0.04325232 -0.1215906 0.08478795 0.09101446
-0.085423425 -0.08557731 -0.108168006 -0.021449387 -0.049327523 -0.11951721 -0.08408308 0.04523848
0.055707783 -0.0843613 -0.11439398 0.118275926 0.079410106 -0.043065846 -0.0073762536 -0.097453475
0.04605703 0.094630525 -0.09772605 -0.08980735 0.029266 -0.0442563 -0.04874946 -0.020597696

lstm.bias_ih_l0 f4 [256]
00000000: 2a33 ab3e 0fa6 6b3e da50 e83e 419d e43e
00000010: e336 4d3e ac72 913e db6b 113f 25b2 f03e
00000020: a2d7 8f3e 81dc d33e c3c6 553e 0564 003f
00000030: 49a1 af3e c348 203f b437 873e ec4c e23e
00000040: 8e36 8e3e beb6 f13e a77a e53e f8e8 c93e
00000050: 8525 693e 36f0 123f 04ca 0c3f 3cf6 d93e
00000060: 744a 903e 488c 343f 4af1 773e ac15 7d3e
00000070: fcb6 103f 5807 ab3e 1a8f 6a3e 6f83 983e
00000080: 913e e73e 7f6c c13e 705c 013f 09cc b43e
00000090: 138c 123f 0642 963e ebd0 d83e 5c44 ed3e
000000a0: 977d a73e d9eb fb3e e9a9 c53e 5806 f73e
000000b0: a81c ab3e ff23 063f ed01 b73e a969 a43e
000000c0: 27b0 063f e1d0 1c3e 1fcb f93e 76f0 cd3e
000000d0: ae74 713e f531 c93e dc12 e33e 8fd7 003f
000000e0: b591 8e3e 0117 e63e 8a63 a93e b4ff d83e
000000f0: 8fa2 ae3e cfe9 813e 5777 ec3e fe0f ce3e
00000100: 7814 34bd 7c96 153d 32ed 923d 1040 113d
00000110: a0f2 dabd 5431 993d a0b2 66bc 28d5 eb3d
00000120: c0e9 3a3c ac68 0cbd 72ef f23d 7c73 27bd
00000130: 7861 d8bd 461a bfbd b0e8 423d 3295 b63d
00000140: b2db 8e3d 001b 5ebb 645c f0bd 005a 0e3a
00000150: 20fa 9a3d 70d3 3dbc f08c 7f3c 446c 003d
00000160: f019 b1bd 3050 0bbc 9847 713d 782b ae3d
00000170: 5068 093c 00cc 0e3a fa98 fbbd c00b 263c
00000180: 9630 dc3d c02d 0bbd 18af 96bd 3003 8f3d
00000190: b033 3ebd 8875 d1bd 50f2 3bbd 1ec9 a2bd
000001a0: 40b6 e63b 1623 f13d 629d 96bd d088 3fbc
000001b0: 4c43 a5bd b440 92bd 9eb2 ba3d 6af9 da3d
000001c0: d0dd f93d 0cbd 36bd 1af7 863d 6286 cdbd
000001d0: ce81 93bd 6cf2 433d 60d1 fd3b 0035 adbc
000001e0: 5ea1 bd3d 7086 24bd 3c91 cb3d 5c15 9bbd
000001f0: 7647 e3bd 802c fa3c 8a2e 8b3d ee18 d83d
00000200: 060a 083c d1d2 00be 6a70 f0bd 01c8 d13d
00000210: 6089 7e3e c0c7 3e3e 3314 65bd eaae 2a3d
00000220: 5d99 3f3e 9bde dbbd 0841 11be 7bc9 d83c
00000230: 552e 84bd 3966 963c e1e0 bd3d 1bf9 b43d
00000240: 138f 463c 661c 1bbe 70b5 a63d cc0e 0d3e
00000250: 79c7 b73d 3224 3e3c ce41 cbbc 4a60 a4bc
00000260: c9c2 97bd 1230 ed3c 01e6 23be c6fd 6abc
00000270: 6ed8 0c3d 574a e1bc ce93 30be d76d aabd
00000280: c90e 89bd 1d44 f93d 9b2f d63c 3ddc ca3d
00000290: 9723 0bbe f4c4 5f3e d81a 3a3d cf78 133e
000002a0: 8b62 45bd d391 bcbd 7b59 a8bd cdd3 e73d
000002b0: 8dd9 823c f36b 82bd 10ff 3c3c 1841 9f3d
000002c0: 5074 8a3d 7aff 90bc 5eaa d7bd 75f7 3c3d
000002d0: 956b 133e 905c 19bc 03e8 f83d 1a2f d73c
000002e0: c42f 893c d5f3 15be a52b 80bd 26e6 b7bd
000002f0: d1ff 9abb b8c4 fbbd 4c08 6b3d e3a2 15bd
00000300: 766c a73e 2d44 d83e 05ed d63e 5d77 bd3e
00000310: 7045 d63d 08ff 8c3e da59 1b3f adda c93e
00000320: c4f1 8b3e 28c2 0e3f 0792 ea3e fe37 fe3e
00000330: 705c e83e 4c20 c13e 76f7 c83e 1849 163f
00000340: 0d74 b63e c177 e43e 57a9 ca3e 91cc b73e
00000350: 43db ca3e d561 0d3f ee2c e23e ce9f ab3e
00000360: 4e5a cd3e 417d 343f f5cf ba3e ab9e 923e
00000370: 37e5 023f 2c16 e43e 0dee 593e 7b07 c73e
00000380: bcf3 163f a57b bf3e 09bb 183f 6f49 b53e
00000390: 4841 cf3e d002 a23e 8739 1b3f 6f1e 003f
000003a0: aca4 f03e 876c dd3e c440 a03e 31dd a93e
000003b0: ca11 9a3e 2124 213f 7cd6 623e d021 0f3f
000003c0: e1b8 ef3e fb12 333e 5958 f73e 2f53 b43e
000003d0: 5be6 c73e 90c7 eb3e 2a44 d93e 7e66 b03e
000003e0: 9443 da3e 5df0 d03e eaaa bc3e c5b4 d53e
000003f0: 2dac d33e 67f0 9e3e 2bbb a53e a6af f73e
0.33437473 0.23012565 0.45374185 0.44651225 0.20040469 0.284078 0.568052 0.47010913
0.28094202 0.4137917 0.20876603 0.5015262 0.34302738 0.62611026 0.26409686 0.44199312
0.27775997 0.47209734 0.4482014 0.39435554 0.22768219 0.5739778 0.5499575 0.42570674
0.28181803 0.7052655 0.24213138 0.24715298 0.5652921 0.3340404 0.22906151 0.29787776
0.45164922 0.37778088 0.50531673 0.35311916 0.57244986 0.29347247 0.42346892 0.46341217
0.32713005 0.49203375 0.38606194 0.48247027 0.334203 0.52398676 0.35743657 0.32111862
0.5261254 0.15314056 0.48787782 0.4022252 0.23579666 0.39295927 0.44350326 0.50328916
0.2784554 0.44939426 0.33083755 0.42382586 0.34108397 0.25373694 0.461848 0.40246576
-0.043964833 0.036520466 0.07174148 0.035461485 -0.10690808 0.07480112 -0.014080673 0.11515266
0.011408269 -0.03427951 0.11862077 -0.04088162 -0.10565466 -0.09331183 0.04758519 0.089151755
0.06975497 -0.0033890605 -0.11736372 0.0005430281 0.07567239 -0.011586055 0.015597567 0.03135325
-0.08647525 -0.008503005 0.058906168 0.08504385 0.008386686 0.00054472685 -0.12285037 0.010134637
0.107514545 -0.033979177 -0.07357615 0.0698303 -0.04643601 -0.102274954 -0.045885384 -0.07948516
0.007040769 0.1177427 -0.07354237 -0.0116903335 -0.080694765 -0.071412474 0.091161 0.10692103
0.122005105 -0.044613883 0.065901 -0.10035397 -0.07202493 0.047838613 0.0077459067 -0.021143436
0.09259294 -0.040167272 0.09939811 -0.07572433 -0.110976145 0.030538797 0.06795986 0.1055163
0.008303171 -0.1258042 -0.11740191 0.10243226 0.24857092 0.18630886 -0.055927467 0.041670717
0.18710847 -0.10735818 -0.14184964 0.02646326 -0.0645415 0.01835929 0.09271408 0.088365756
0.0121190725 -0.15147552 0.08140075 0.13775176 0.08973593 0.011605309 -0.024811652 -0.020065445
-0.07410199 0.028953586 -0.16005708 -0.014342731 0.03438609 -0.027501268 -0.17243883 -0.083217315
-0.06692273 0.12171195 0.026145747 0.09905288 -0.13587795 0.21852475 0.045435756 0.14401554
-0.04818968 -0.09207501 -0.08220192 0.11319695 0.015972877 -0.06368246 0.011535421 0.077760875
0.06760466 -0.017699946 -0.10530542 0.04613443 0.14396508 -0.0093604475 0.12153628 0.026267577
0.01674641 -0.14643796 -0.062583245 -0.08979444 -0.0047302027 -0.122933805 0.05738096 -0.036532294
0.32699937 0.42239514 0.41977707 0.3700513 0.10462463 0.27538323 0.6068398 0.3942465
0.2733289 0.5576501 0.45814535 0.49652094 0.45383024 0.37719953 0.39251298 0.5870528
0.35635415 0.44622615 0.3958232 0.3589826 0.39620408 0.55227405 0.44174904 0.3352036
0.4010796 0.7050362 0.36486784 0.2863668 0.51131004 0.44548166 0.21282215 0.38872895
0.5896566 0.3739902 0.59660393 0.35407588 0.40479493 0.3164277 0.60634655 0.5004644
0.47000635 0.43246862 0.31299412 0.33176568 0.30091697 0.62945753 0.22152132 0.5591097
0.4682074 0.17487709 0.4830959 0.35219714 0.39042935 0.46050692 0.42434818 0.34453195
0.42629683 0.40808383 0.36849147 0.4173948 0.41342297 0.31042787 0.3236936 0.48376197

lstm.bias_hh_l0 f4 [256]
00000000: fa1c 293e 0ee7 773e 17f1 d03e 6b66 c73e
00000010: d4e4 2e3e 885f 9b3e 2d82 d53e 03ae e03e
00000020: 5281 eb3e 9c42 283f 0bdb aa3e 7a31 f93e
00000030: a808 e73e 50e1 f13e 3918 c33e 719c db3e
00000040: 9037 693e 443b d23e d6e5 f13e 34c2 b13e
00000050: bcf5 ce3e 487c e53e cb8d e43e ed59 083f
00000060: bbf4 db3e 4284 1a3f 2ea7 ac3e 2b9c 3a3e
00000070: 6014 043f 15da f73e 604f bc3e 8e3c 703e
00000080: 81df ed3e 4d4a b33e 4ed1 c93e cbc1 1b3e
00000090: cf60 173f 9f98 903e bd6b d93e cee2 0b3f
000000a0: 70ce f63e e465 ee3e 5c17 923e 0116 b53e
000000b0: df90 de3e 20b8 123f e4cd 7c3e 26ff ac3e
000000c0: 43fd fd3e a194 4a3e bf51 f33e 0474 023f
000000d0: 2704 7e3e fbf4 f73e cde1 9b3e 106c ed3e
000000e0: 4742 043f 160a bb3e ec81 e53e 73e1 953e
000000f0: d100 f23e af2d d53e dda3 0b3f ae2c ed3e
00000100: 08fc 803d be17 b8bd c289 b6bd d423 40bd
00000110: d0a3 92bc 08a2 123d 48fe 033d 340d e53d
00000120: 40f5 2cbc c057 563c 7eac 90bd b002 a13d
00000130: cc0e 513d 20be 8cbd a809 edbd 1e7a dfbd
00000140: 5654 c5bd 7206 f1bd 00ed 963d 9840 ccbd
00000150: b0b0 5e3d 10e1 813c 385b cfbc 30b9 a23d
00000160: 806a 86bd ec52 0b3d 20a5 20bd 10fb dbbd
00000170: 4e99 e93d 0ce9 8b3d 0895 d03d e0bc 0d3c
00000180: 0efa f63d f0e2 d5bc 6451 79bd 34ce d3bd
00000190: b015 d8bc 1450 32bd c6ee dfbd 6022 c43d
000001a0: d007 8d3c 407d b03c ac49 42bd e835 f43d
000001b0: 78e5 ce3d 8a9d acbd 480a 283d a0ed 373d
000001c0: 58bc 4bbd 0e7e a0bd d0c2 3fbc 5ca6 3d3d
000001d0: 06ac 8f3d 127f b6bd d0b5 693c b892 1a3d
000001e0: f040 bd3d befc 813d d059 a7bd fed7 e7bd
000001f0: 6c2e c33d 861b 99bd 6205 99bd f4d5 2cbd
00000200: 23f3 9ebd be63 dabd 799b b1bc 62f1 77bc
00000210: 8095 463e 70dd 363e 12c8 913d 8343 0ebe
00000220: 7cc5 a73d 2574 9fbd 6e77 05be 0cdc 09be
00000230: ef0d e9bd 3c6f 2c3e e49b d83d 5471 e1bd
00000240: df96 cabc f11e 8abc c448 c63d 2135 593d
00000250: 5cdc bb3d 736e bbbd f3ba bd3d bce2 0a3e
00000260: 4b7a 8bbd 6218 29be 1aa3 9abd a60f 4c3e
00000270: e6ff cbbd 3fe6 e33d f7fe dbbc caf5 4ebe
00000280: d201 c6bc 22dc 52bd aab4 e23c 28b1 543e
00000290: ddee 5dbd 98b4 4d3e 4793 d73d 86fc 7f3c
000002a0: 6689 26be 0182 cb3d 7747 5ebe f172 9abd
000002b0: 80cc 4f3e 4051 52bc 6a1a e63d 21e5 623c
000002c0: 3e1b 723d eb3a 043d 26c8 4abd 2fc4 003e
000002d0: f126 523e 26d9 19be efc0 ba3d 790e 83bd
000002e0: 3e35 66bd 7f86 66bd fd2c 41be 5ed0 3a3d
000002f0: d489 b43d 90f6 19be 51bd e13b 9057 92bb
00000300: 8dbf e63e e3f9 9c3e 6319 933e ad9f 8c3e
00000310: 2f19 893e 8761 3e3e be9f 0e3f 3a60 053f
00000320: a977 e23e 7862 2f3f ce13 983e 29a0 f13e
00000330: 60d3 093f 3b45 0c3f 32d6 833e 9fca 0d3f
00000340: aaae c43e 50db a73e 0805 ed3e 400d c03e
00000350: e45f b23e b081 e93e 1359 123f b729 c73e
00000360: ddd5 ab3e 6f0a 133f 133f ab3e 3647 dd3e
00000370: 0225 1c3f fa8e bf3e 36d0 dc3e bcac d03e
00000380: 70e1 b93e bab6 a03e f643 f23e 577e 933e
00000390: 85b9 e23e f6da 043e cd20 0b3f 5086 d13e
000003a0: f9ef ba3e 7cc2 f33e 0c6a c23e 4a32 cd3e
000003b0: 0030 cc3e cbda ec3e 0fe6 6f3e 3cd8 b63e
000003c0: e33c fe3e 0d67 f33d 1ed5 123f 14da f73e
000003d0: 3b02 663e e360 c03e 97ba ff3e 23f3 983e
000003e0: 8abf d53e 8f04 f83e e0f0 b03e 7acb aa3e
000003f0: 3629 c43e 214a 8d3e feff d03e 3601 1e3f
0.1651496 0.24209234 0.40808937 0.38945326 0.17079479 0.30346322 0.4170088 0.4388276
0.459971 0.6572664 0.33370242 0.4867056 0.45123792 0.47242212 0.38104418 0.42892793
0.22775102 0.4106084 0.47245663 0.34718478 0.40421855 0.44821382 0.4463943 0.53262216
0.42960152 0.6035806 0.33721298 0.18223636 0.5159359 0.4840857 0.36779308 0.234606
0.46459582 0.35017624 0.394175 0.15210645 0.59132093 0.2824144 0.4246501 0.5464295
0.48204374 0.4656211 0.28533447 0.3536835 0.43469903 0.573122 0.24687916 0.33788413
0.49607286 0.1978326 0.47523305 0.50958276 0.24806271 0.48429093 0.3044571 0.46371508
0.5166363 0.36531132 0.44825685 0.29273567 0.47266248 0.41636416 0.5454691 0.4632315
0.06298071 -0.089889035 -0.08912994 -0.04690917 -0.017900378 0.035799056 0.032224923 0.11184159
-0.010556519 0.013082445 -0.0706415 0.07861841 0.051039502 -0.06872201 -0.115741074 -0.10911964
-0.096352264 -0.117688075 0.07369423 -0.09973258 0.05436772 0.015854388 -0.025312051 0.07945478
-0.06563282 0.034014627 -0.039219975 -0.10741246 0.11406194 0.068315595 0.101846755 0.008650988
0.12059413 -0.026109189 -0.060868636 -0.103420645 -0.026377529 -0.0435334 -0.10934214 0.09576869
0.01721564 0.021544099 -0.04743354 0.11924344 0.101023614 -0.08428486 0.04102543 0.04490435
-0.049740165 -0.07836543 -0.011704162 0.04630123 0.07015233 -0.089109555 0.014264539 0.03773758
0.092409015 0.06347035 -0.08171427 -0.11320494 0.09530339 -0.07475953 -0.0747173 -0.04219623
-0.077612184 -0.106635556 -0.02168058 -0.015133234 0.19392967 0.17857909 0.071182385 -0.13892941
0.08191964 -0.07785825 -0.1303384 -0.13462847 -0.11379611 0.16839308 0.10576609 -0.11007944
-0.024730144 -0.016860457 0.09681848 0.053029183 0.091728896 -0.09151926 0.09264173 0.13563055
-0.06810435 -0.16513208 -0.075506404 0.19927844 -0.09960918 0.111279 -0.026854975 -0.20210949
-0.02417079 -0.051479466 0.027674038 0.20770705 -0.054182876 0.20088422 0.10526138 0.015624171
-0.16263351 0.09936906 -0.21706949 -0.075414546 0.20292854 -0.012836754 0.11235507 0.013848574
0.05910801 0.03228275 -0.049507283 0.12574838 0.20522667 -0.15024242 0.091188304 -0.06399245
-0.05620312 -0.05628061 -0.18864818 0.04560887 0.08815351 -0.15035462 0.0068890234 -0.0044660047
0.45068017 0.30659398 0.28730306 0.27465573 0.26777026 0.18591891 0.557125 0.52099955
0.44231918 0.68509626 0.2970261 0.47192505 0.5383816 0.5479314 0.25749356 0.553873
0.38414508 0.3278451 0.462929 0.3751011 0.34838784 0.45606756 0.57167166 0.38899013
0.33561602 0.57437795 0.3344656 0.43218392 0.6099397 0.3741377 0.43127602 0.40756786
0.36304808 0.3138941 0.47317475 0.28807327 0.44282165 0.12974152 0.54346925 0.40922785
0.3651121 0.47609317 0.37971532 0.4007743 0.3988037 0.46260676 0.23427604 0.3571185
0.49655828 0.1188489 0.5735644 0.48408568 0.22461788 0.3757392 0.49947044 0.29873
0.41747695 0.48440978 0.34558773 0.33358365 0.3831269 0.27595618 0.40820307 0.617206

fc.weight f4 [1, 64]
00000000: 6c63 f6be 7a74 ee3e 1b4f eb3e 3746 10bf
00000010: bb25 9abe ed3a b8be 1403 183f 2281 193f
00000020: db7a a9be fa35 31bf 3b0d b53e 8e68 013f
00000030: 5439 e43e dfea 403f 072d c4be 92cb 10bf
00000040: e86e 263f 6add 033f a63c 233f 9f18 02bf
00000050: 6a17 eabe 884a 2dbf 60c6 3c3f dbae 09bf
00000060: 1283 de3e 8aef 1c3f 8a9b df3e 6268 e6be
00000070: 394d 193f 8868 0dbf 5384 b83e 5e62 bd3e
00000080: fbce 2abf 393c 08bf a249 1c3f dd14 d3be
00000090: 5d5e d83e ca45 a8be c92c 03bf 9379 e0be
000000a0: d383 d83e 233e 2cbf a0bd 943e 28ec 113f
000000b0: cf83 05bf 8a94 32bf ba8e 98be 7baa 203f
000000c0: 9310 153f 6c37 94be 474e f23e 595b fdbe
000000d0: e8ba c3be 7c88 fd3e 1d2e 2b3f cb55 24bf
000000e0: 3667 18bf c52d 073f 26fb d73e 63b7 14bf
000000f0: 0c44 323f 7d16 ff3e 2090 253f de0f 3abf
-0.48122728 0.4657324 0.4595879 -0.5635714 -0.3010691 -0.35982457 0.59379697 0.59962666
-0.33101544 -0.69222987 0.35361657 0.5055016 0.44574988 0.75358385 -0.38315603 -0.56560624
0.6501298 0.51509726 0.6376442 -0.5081882 -0.4572099 -0.6769185 0.73740196 -0.53782433
0.43459374 0.6130301 0.43673354 -0.45001513 0.5988346 -0.5523763 0.36038455 0.3698911
-0.6672208 -0.5321689 0.61049855 -0.41226855 0.42259493 -0.32865745 -0.5124021 -0.43842754
0.42288074 -0.67282313 0.29050922 0.5700097 -0.5215425 -0.697579 -0.29796392 0.6276013
0.58228415 -0.28948534 0.47325346 -0.49483755 -0.38228536 0.49518192 0.6686724 -0.6419341
-0.5953249 0.52804214 0.421838 -0.58092326 0.6963508 0.49821845 0.6467304 -0.7268046

exp_avg f4 [256, 5]
00000000: ee0f a837 4483 9038 2236 8d39 34cd 88b8
00000010: 4266 24b8 2f5c 2b37 8409 3d38 da26 7d39
00000020: 3437 8137 c5ce feb7 f7a9 79b8 9dae 3838
00000030: 5e34 80b9 0a39 6eb7 b16c 43b8 a508 0138
00000040: 58b9 3838 3834 8b39 9056 3bb8 c259 c2b7
00000050: 9172 b9b5 7c3f e1b6 23f3 f938 f501 5038
00000060: 178e a937 ecb1 f236 d831 8237 4821 3b39
00000070: 5dce a437 b9d7 51b4 c52c 64b8 9c61 5738
00000080: 86d3 deb9 1848 f1b7 03ae e6b8 c868 98b8
00000090: 3882 6a38 3832 aeb9 7175 b136 5c91 c8b8
000000a0: 6e53 52b5 625c 4538 b524 4739 990f de37
000000b0: 19e6 15b8 9ad1 95b8 ffaf 9e38 b1a4 dcb9
000000c0: 01f7 0db8 a4b8 efb8 4247 d337 0609 9e37
000000d0: 9dc1 3939 e39b 07b8 bc20 3fb7 7260 70b8
000000e0: efed 3d38 21d4 94b9 3783 e6b7 df70 7bb8
000000f0: 04dd 8937 9d1e 8f38 f177 8439 fb06 13b7
00000100: 4ae5 6cb8 5794 8737 c244 f138 79a4 a539
00000110: 40e5 1db8 8a18 b6b8 6058 4a36 d54b 3638
00000120: 6739 5539 a989 0f38 6b75 0ab8 21a2 84b8
00000130: e302 7938 19bf c7b9 93e1 bab7 25d4 d6b8
00000140: 167c f637 65e7 aa38 748e c239 2da0 d0b6
00000150: 6cd3 39b8 152b 0b38 d8d8 f037 3566 7239
00000160: d8bd 54b8 b3fa 64b7 bba4 bbb8 cb8d b538
00000170: 708a beb9 3f14 08b8 47f0 fcb8 30f1 b1b8
00000180: 3e15 8138 f732 92b9 149d ce37 3fd1 c2b8
00000190: 1150 c337 51ec 1b38 56cd 8e39 8dac 3837
000001a0: 702d 05b7 61b2 3138 17e1 ca38 b643 c839
000001b0: 486d 31b8 337c 79b8 9a9e 0d38 8b12 0139
000001c0: ca81 d939 56fc b6b7 661d cfb8 5e89 78b8
000001d0: b4f6 4338 affb a6b9 67d0 19b7 6a76 aab8
000001e0: 6d63 4cb8 e058 c937 167c 8db9 3203 4937
000001f0: 1489 33b8 205a 6db8 859c 5938 d4de acb9
00000200: ea82 17b8 67d6 aeb8 a137 50b8 3822 a037
00000210: 55c2 64b9 0601 9a37 babf feb7 8d82 7bb8
00000220: 6660 8137 523f 65b9 17eb 2738 19aa 00b7
00000230: 50db 8ab8 cf1e 8638 9885 bab9 9c01 e0b7
00000240: 2239 eeb8 e749 89b8 56f3 2738 b591 a6b9
00000250: 8988 2037 cfaf 61b8 3dc1 4cb7 1da1 aa37
00000260: b9ad 87b8 a7a7 01b8 7df3 5cb7 d0d5 6eb8
00000270: 7c8f 0d38 125b 43b9 b526 a537 259f 1db8
00000280: a4e3 e3b8 221a dc38 1ebf c9b9 89af 9fb7
00000290: 6e73 0cb9 1292 1a38 2ea4 7138 7ea9 8d39
000002a0: e510 7fb8 deea 1ab8 5983 afb8 10ea 9a38
000002b0: b35d dbb9 1cf1 8f36 b413 f4b8 4bbf 3eb8
000002c0: 66f1 9a36 70b9 46b9 e421 e4b6 cbdc 8cb6
000002d0: a579 47b8 86f4 2138 d006 6cb9 fe09 5ab7
000002e0: 896a 5ab8 0df1 e0b7 1830 9036 8819 c5b8
000002f0: 2c57 87b7 d821 0037 0ca9 bb37 d058 a738
00000300: 3a59 9439 bdf4 17b8 1b80 9cb8 6692 55b8
00000310: 7021 0d38 d81f 64b9 2992 3537 2ca1 75b8
00000320: d4f4 85b8 99fb 3c38 e7d5 78b9 af0b a937
00000330: 3578 88b8 3146 8fb8 8a0f 7338 479d ceb9
00000340: d017 d5b7 c957 f8b8 422f 1137 7cca f736
00000350: 9ae4 2238 d4fa beb7 6718 b4b5 6acc 0038
00000360: f5c2 9f38 a1d3 9639 8f94 5cb8 c574 50b8
00000370: f12d 8fb8 5f19 2f38 8c6d 8bb9 2a73 c836
00000380: 0c7f 5ab8 a5be 61b8 8e6f 6f38 ef5d dbb9
00000390: b26e 69b8 41d4 feb8 c571 8cb7 4d3f ac37
000003a0: 4de4 2c38 0ce2 a8b7 74fd 2fb7 99ec 5538
000003b0: 4530 d838 cbe3 e139 053f 5bb8 ad5d 81b8
000003c0: cea5 7c38 0ae0 9a38 d319 bd39 e288 7eb8
000003d0: 4a0c 34b8 e5b1 43b8 67c2 9d37 ac44 18b9
000003e0: 6274 e137 89d3 c8b7 0b8f 6eb8 d438 1f38
000003f0: 5965 8fb9 e7b9 5c37 141f 8eb8 4f8c 73b8
2.0034578e-05 6.890905e-05 0.00026933948 -6.5232074e-05 -3.9195882e-05 1.0213857e-05 4.5069974e-05 0.00024142434
1.5403704e-05 -3.0375444e-05 -5.952452e-05 4.403164e-05 -0.0002445308 -1.4199186e-05 -4.659285e-05 3.0764048e-05
4.4041633e-05 0.00026551052 -4.4664892e-05 -2.3168399e-05 -1.3816917e-06 -6.712913e-06 0.00011918533 4.9592887e-05
2.0212536e-05 7.232875e-06 1.5520418e-05 0.00017846108 1.9646419e-05 -1.9543121e-07 -5.440113e-05 5.13509e-05
-0.00042500737 -2.876301e-05 -0.00010999667 -7.267442e-05 5.5911223e-05 -0.00033225282 5.288683e-06 -9.5638185e-05
-7.83525e-07 4.70545e-05 0.00018991793 2.6471726e-05 -3.5738663e-05 -7.143915e-05 7.566809e-05 -0.00042084375
-3.384706e-05 -0.000114308 2.5186342e-05 1.883927e-05 0.00017715101 -3.233169e-05 -1.1392109e-05 -5.731028e-05
4.5282704e-05 -0.00028386808 -2.7479238e-05 -5.9948183e-05 1.6434591e-05 6.8244735e-05 0.00025266365 -8.763508e-06
-5.6480327e-05 1.616233e-05 0.00011504583 0.00031593794 -3.7645223e-05 -8.683007e-05 3.0151787e-06 4.3462805e-05
0.00020334647 3.4222063e-05 -3.3011118e-05 -6.324449e-05 5.9368915e-05 -0.00038098617 -2.2277969e-05 -0.0001024383
2.9383267e-05 8.149332e-05 0.000371087 -6.21753e-06 -4.430434e-05 3.3180306e-05 2.8711205e-05 0.00023116994
-5.0721545e-05 -1.36482295e-05 -8.947538e-05 8.6571636e-05 -0.00036342768 -3.2443782e-05 -0.000120610515 -8.4849424e-05
6.155156e-05 -0.00027885262 2.4630259e-05 -9.289616e-05 2.3283095e-05 3.7174967e-05 0.00027237338 1.100743e-05
-7.937997e-06 4.2366217e-05 9.674037e-05 0.0003819742 -4.2301865e-05 -5.9481896e-05 3.376473e-05 0.00012309306
0.00041486166 -2.1813594e-05 -9.876005e-05 -5.925574e-05 4.6721383e-05 -0.00031849506 -9.168033e-06 -8.128288e-05
-4.8729988e-05 2.4002453e-05 -0.00026986067 1.1981278e-05 -4.280459e-05 -5.658914e-05 5.1882602e-05 -0.00032972416
-3.612313e-05 -8.336902e-05 -4.9642873e-05 1.908942e-05 -0.00021816169 1.8358707e-05 -3.036844e-05 -5.996465e-05
1.5422887e-05 -0.0002186273 4.0034847e-05 -7.6689985e-06 -6.621203e-05 6.3953565e-05 -0.0003557622 -2.670363e-05
-0.00011359366 -6.5464345e-05 4.0042527e-05 -0.00031770548 9.568533e-06 -5.3807915e-05 -1.2204339e-05 2.0340603e-05
-6.46966e-05 -3.0912135e-05 -1.3169713e-05 -5.694275e-05 3.375065e-05 -0.00018630576 1.9687557e-05 -3.757993e-05
-0.00010866605 0.00010495285 -0.000384801 -1.9036017e-05 -0.00013394441 3.68525e-05 5.761178e-05 0.00027019897
-6.0812472e-05 -3.69352e-05 -8.369116e-05 7.38689e-05 -0.00041840746 4.289801e-06 -0.00011638497 -4.5477685e-05
4.61766e-06 -0.00018951832 -6.798875e-06 -4.198029e-06 -4.7558588e-05 3.861312e-05 -0.00022509252 -1.2996139e-05
-5.207447e-05 -2.6815129e-05 4.2971333e-06 -9.3984476e-05 -1.6133847e-05 7.637274e-06 2.2370856e-05 7.979723e-05
0.0002829524 -3.6229136e-05 -7.462521e-05 -5.09195e-05 3.364816e-05 -0.00021755637 1.0822471e-05 -5.8562655e-05
-6.387537e-05 4.505701e-05 -0.00023730808 2.015181e-05 -6.507376e-05 -6.8318455e-05 5.7950187e-05 -0.00039408563
-2.5402667e-05 -0.00011841913 8.653677e-06 7.384746e-06 3.883671e-05 -2.2766566e-05 -1.3418147e-06 3.0707954e-05
7.6180244e-05 0.00028767905 -5.2590443e-05 -4.9699815e-05 -6.8273286e-05 4.174688e-05 -0.00026593765 5.9738713e-06
-5.2093572e-05 -5.3821732e-05 5.7085934e-05 -0.0004184092 -5.5654622e-05 -0.00012151199 -1.6742279e-05 2.0533475e-05
4.1220617e-05 -2.0132422e-05 -1.04898245e-05 5.1003506e-05 0.000103086735 0.00043085063 -5.227236e-05 -6.168648e-05
6.02359e-05 7.385023e-05 0.0003606813 -6.06858e-05 -4.292679e-05 -4.66573e-05 1.8806384e-05 -0.00014521432
2.6876285e-05 -2.3940362e-05 -5.687684e-05 3.796148e-05 -0.00027350595 1.3156306e-05 -6.7768764e-05 -5.8066387e-05

exp_avg_sq f4 [256, 5]
00000000: a9c2 3b33 57a5 5633 7681 0634 5f9a 0033
00000010: 9a3f 3233 040d bb32 13c7 c332 e43f 7534
00000020: 43fc c533 5dae 9d33 0feb 3633 ec7a 2333
00000030: 494e 8a34 824e 3e34 7b76 f533 4c79 4533
00000040: ad51 4c33 4062 7234 8a41 8633 3b52 1633
00000050: a649 1733 6bcf 2733 f861 4b33 0c9d 6133
00000060: 4770 9d33 4123 3933 cf5a 4033 cde1 1334
00000070: a23e 9d33 b675 c833 191a ab33 1431 9233
00000080: 225b 1b35 0440 cf34 291d b033 860e 9e33
00000090: 7a97 8f33 5cf2 bc34 4f38 5134 6abf 6733
000000a0: f5d5 f332 ab84 0333 f34d f033 10a3 0333
000000b0: 7dcc 4f33 94c2 c233 e51e a433 134f 0635
000000c0: f8c7 aa34 e9a5 a133 d57a 0933 e05d 0a33
000000d0: 8a56 0034 482a 8e33 d55f 9232 c6d6 3033
000000e0: da9a 1933 28d4 b534 687d 5834 7e7e ac33
000000f0: f76b be32 ad89 e132 e792 6234 1812 3a33
00000100: ed75 2633 e5ac 5633 2ef2 9733 fe8f bd34
00000110: 24a2 1e33 2203 9433 d681 5433 0240 4e33
00000120: 0b38 c433 a33a 4333 46e7 1c33 8266 b033
00000130: 2981 9433 6055 1535 ddae c234 cd32 d333
00000140: b3e0 b133 da8a b133 195b 0c35 733b e633
00000150: 0827 5b33 8c61 2733 0afb 2c33 3d41 0d34
00000160: 9c9c 1133 2962 bc32 57a9 7f33 dfd1 6233
00000170: f1bb 5134 d6e4 8133 d634 0d33 c818 a733
00000180: 39c4 9733 2f73 7734 4554 ad33 7703 5233
00000190: 3665 c233 d916 bd33 8960 b134 54a1 3533
000001a0: 5321 3033 11ce dc33 fa0a 0234 8ad8 5135
000001b0: efdc 9333 18b5 f433 71f4 ac33 faa6 d033
000001c0: 71c3 2f35 f47c a433 c005 d433 fe30 7933
000001d0: 2e1f 5533 57d2 d734 32af 8a34 5a17 be33
000001e0: 5f65 4733 5834 3833 6e2b cc34 18df 8534
000001f0: 9e4e de33 b9b9 0c33 c0c2 e832 1581 7034
00000200: 8c24 f033 ea90 fe32 a4a2 5933 cb87 6633
00000210: 5a44 8934 8699 6b34 d616 cf33 4550 1133
00000220: c3bb 0c33 c78a 4c34 c1c3 f733 2d9b c533
00000230: f1aa 7a33 fb0c 5533 dd23 b934 ad8c 3734
00000240: 7f25 5c33 8731 8933 b229 7433 21b2 db34
00000250: 5494 bb34 5c7b e533 6ae9 9a32 276a a232
00000260: 84ae e232 a81d 8433 abb3 1e33 cc8a 9f33
00000270: 4732 a433 211a 2134 f8de 6134 86fd f733
00000280: fa01 c433 f33d 9c33 06cb df34 7831 0734
00000290: 1245 af33 bb56 0534 0229 0834 2c66 c834
000002a0: 7118 b333 240e 8a33 85cc e633 59c7 bb33
000002b0: 46ab 2f35 675e cb34 587f e433 f061 0e33
000002c0: 41c0 0a33 5ea1 2634 0359 6633 8195 d633
000002d0: 0239 e632 d10f c332 7395 3834 638f ea33
000002e0: 4b5d 2833 406d 2233 cec5 3633 5417 3f33
000002f0: 658b a733 dd79 2a34 c2d6 0e33 bd11 3233
00000300: fbd6 6f34 821b 1233 d9af 6433 6934 5833
00000310: 0d8f 5233 c991 3134 068c 9e33 b5e3 ea32
00000320: 3d64 2c33 5582 0f33 c0c8 7234 d548 e333
00000330: 27c5 8d33 5584 2f33 f297 0833 722c c934
00000340: bb80 d133 37a5 3f33 4100 8632 99e4 8e32
00000350: cd4b f031 b68b 0b32 68de 8132 1f20 6633
00000360: bf79 7f33 3ce7 b034 79ce 4c33 26e8 6033
00000370: 891b 4c33 453f 3a33 582a 8e34 41d7 6834
00000380: 1b8f 0e34 ce54 8c33 7bfe 6633 d20a f534
00000390: f6c7 8434 dfa9 9133 0312 9130 bd3e b030
000003a0: 7a77 9331 19de bd31 a11d f930 929c 2e34
000003b0: 46cb 4134 5e19 7f35 73d5 a933 d26d 2034
000003c0: 19d5 d333 4226 ea33 a268 1935 39ff 1833
000003d0: 060e e733 c762 9d32 05bf 9432 cf13 0e33
000003e0: 2421 fc31 fc7b d731 b6db 3533 1b71 2e33
000003f0: 756c 6a34 3a1e f133 5e75 0833 63b4 a932
4.3716373e-08 4.9976133e-08 1.252682e-07 2.9942722e-08 4.15017e-08 2.1775584e-08 2.2791516e-08 2.2840646e-07
9.2194135e-08 7.342599e-08 4.258896e-08 3.806319e-08 2.5761463e-07 1.772369e-07 1.1430253e-07 4.5977956e-08
4.7571735e-08 2.257375e-07 6.251783e-08 3.4999385e-08 3.522441e-08 3.9071363e-08 4.7353723e-08 5.2529728e-08
7.331305e-08 4.3105732e-08 4.4786074e-08 1.3772588e-07 7.322275e-08 9.334637e-08 7.967555e-08 6.807582e-08
5.7874615e-07 3.8603332e-07 8.200943e-08 7.36009e-08 6.68651e-08 3.5194068e-07 1.9485127e-07 5.395797e-08
2.838622e-08 3.0621475e-08 1.119005e-07 3.064912e-08 4.8381924e-08 9.0692225e-08 7.642465e-08 5.003396e-07
3.1810464e-07 7.5273256e-08 3.2009513e-08 3.2216008e-08 1.1952412e-07 6.620081e-08 1.7040216e-08 4.117353e-08
3.5763925e-08 3.386824e-07 2.016219e-07 8.032383e-08 2.2168008e-08 2.6256055e-08 2.1101333e-07 4.3322956e-08
3.875714e-08 4.9983004e-08 7.075538e-08 3.5308761e-07 3.6934708e-08 6.892357e-08 4.947818e-08 4.8021327e-08
9.1371554e-08 4.5455305e-08 3.6531922e-08 8.214285e-08 6.915281e-08 5.563106e-07 3.6262546e-07 9.834694e-08
8.283077e-08 8.267462e-08 5.228663e-07 1.07210234e-07 5.102541e-08 3.8971436e-08 4.027519e-08 1.3155382e-07
3.390288e-08 2.1930719e-08 5.9525828e-08 5.2810602e-08 1.9533014e-07 6.0486556e-08 3.2877175e-08 7.781051e-08
7.067178e-08 2.3045571e-07 8.071269e-08 4.8897586e-08 9.052239e-08 8.805154e-08 3.3039058e-07 4.2289074e-08
4.10085e-08 1.02820316e-07 1.2111187e-07 7.8173673e-07 6.8854085e-08 1.1395076e-07 8.053838e-08 9.7161276e-08
6.5476985e-07 7.659574e-08 9.873065e-08 5.801939e-08 4.9621285e-08 4.0199913e-07 2.5831974e-07 8.851812e-08
4.6425495e-08 4.2888445e-08 3.802956e-07 2.4935503e-07 1.0351981e-07 3.2765204e-08 2.7096917e-08 2.2398702e-07
1.1182519e-07 2.9635391e-08 5.067217e-08 5.367455e-08 2.556797e-07 2.1941932e-07 9.6433425e-08 3.3833448e-08
3.276706e-08 1.9049467e-07 1.1537441e-07 9.201754e-08 5.836313e-08 4.9604733e-08 3.448503e-07 1.709438e-07
5.1256844e-08 6.3885686e-08 5.68486e-08 4.0921535e-07 3.4939387e-07 1.06860824e-07 1.8034104e-08 1.8907555e-08
2.6389223e-08 6.1521234e-08 3.695065e-08 7.4292615e-08 7.6459905e-08 1.5003799e-07 2.1035873e-07 1.15479494e-07
9.127321e-08 7.2755846e-08 4.1684706e-07 1.2590851e-07 8.161636e-08 1.2418143e-07 1.2680906e-07 3.7327243e-07
8.339783e-08 6.428698e-08 1.07474115e-07 8.744127e-08 6.5441816e-07 3.7880383e-07 1.0640241e-07 3.3151025e-08
3.2305483e-08 1.551866e-07 5.3632004e-08 9.992346e-08 2.6801448e-08 2.270818e-08 1.7190705e-07 1.0922556e-07
3.9200398e-08 3.7817927e-08 4.255508e-08 4.449187e-08 7.801899e-08 1.5876817e-07 3.3257272e-08 4.1459987e-08
2.2336819e-07 3.4018292e-08 5.324532e-08 5.0339086e-08 4.902454e-08 1.6537446e-07 7.3829185e-08 2.7344734e-08
4.0138037e-08 3.341332e-08 2.2611039e-07 1.0583759e-07 6.601686e-08 4.0865718e-08 3.180316e-08 3.7471506e-07
9.755737e-08 4.4620915e-08 1.5599769e-08 1.663493e-08 6.993537e-09 8.1226315e-09 1.5118715e-08 5.3580262e-08
5.948254e-08 3.29508e-07 4.7685237e-08 5.2365202e-08 4.7522494e-08 4.3364043e-08 2.648037e-07 2.1684993e-07
1.3276842e-07 6.534684e-08 5.3782497e-08 4.564268e-07 2.4732407e-07 6.782988e-08 1.0555258e-09 1.2823517e-09
4.291846e-09 5.5258735e-09 1.8125556e-09 1.6261973e-07 1.8048476e-07 9.5031817e-07 7.908502e-08 1.4941114e-07
9.8642154e-08 1.0903433e-07 5.71492e-07 3.562238e-08 1.07593266e-07 1.8322124e-08 1.7316333e-08 3.3079967e-08
7.337933e-09 6.271419e-09 4.2342172e-08 4.06154e-08 2.1832405e-07 1.1227935e-07 3.1771712e-08 1.975622e-08

exp_avg f4 [256, 64]
00000000: 0000 0000 0000 0000 0000 0000 0000 0000
00000010: 0000 0000 0000 0000 0000 0000 0000 0000
00000020: 0000 0000 0000 0000 0000 0000 0000 0000
00000030: 0000 0000 0000 0000 0000 0000 0000 0000
00000040: 0000 0000 0000 0000 0000 0000 0000 0000
00000050: 0000 0000 0000 0000 0000 0000 0000 0000
00000060: 0000 0000 0000 0000 0000 0000 0000 0000
00000070: 0000 0000 0000 0000 0000 0000 0000 0000
00000080: 0000 0000 0000 0000 0000 0000 0000 0000
00000090: 0000 0000 0000 0000 0000 0000 0000 0000
000000a0: 0000 0000 0000 0000 0000 0000 0000 0000
000000b0: 0000 0000 0000 0000 0000 0000 0000 0000
000000c0: 0000 0000 0000 0000 0000 0000 0000 0000
000000d0: 0000 0000 0000 0000 0000 0000 0000 0000
000000e0: 0000 0000 0000 0000 0000 0000 0000 0000
000000f0: 0000 0000 0000 0000 0000 0000 0000 0000
00000100: 0000 0000 0000 0000 0000 0000 0000 0000
00000110: 0000 0000 0000 0000 0000 0000 0000 0000
00000120: 0000 0000 0000 0000 0000 0000 0000 0000
00000130: 0000 0000 0000 0000 0000 0000 0000 0000
00000140: 0000 0000 0000 0000 0000 0000 0000 0000
00000150: 0000 0000 0000 0000 0000 0000 0000 0000
00000160: 0000 0000 0000 0000 0000 0000 0000 0000
00000170: 0000 0000 0000 0000 0000 0000 0000 0000
00000180: 0000 0000 0000 0000 0000 0000 0000 0000
00000190: 0000 0000 0000 0000 0000 0000 0000 0000
000001a0: 0000 0000 0000 0000 0000 0000 0000 0000
000001b0: 0000 0000 0000 0000 0000 0000 0000 0000
000001c0: 0000 0000 0000 0000 0000 0000 0000 0000
000001d0: 0000 0000 0000 0000 0000 0000 0000 0000
000001e0: 0000 0000 0000 0000 0000 0000 0000 0000
000001f0: 0000 0000 0000 0000 0000 0000 0000 0000
00000200: 0000 0000 0000 0000 0000 0000 0000 0000
00000210: 0000 0000 0000 0000 0000 0000 0000 0000
00000220: 0000 0000 0000 0000 0000 0000 0000 0000
00000230: 0000 0000 0000 0000 0000 0000 0000 0000
00000240: 0000 0000 0000 0000 0000 0000 0000 0000
00000250: 0000 0000 0000 0000 0000 0000 0000 0000
00000260: 0000 0000 0000 0000 0000 0000 0000 0000
00000270: 0000 0000 0000 0000 0000 0000 0000 0000
00000280: 0000 0000 0000 0000 0000 0000 0000 0000
00000290: 0000 0000 0000 0000 0000 0000 0000 0000
000002a0: 0000 0000 0000 0000 0000 0000 0000 0000
000002b0: 0000 0000 0000 0000 0000 0000 0000 0000
000002c0: 0000 0000 0000 0000 0000 0000 0000 0000
000002d0: 0000 0000 0000 0000 0000 0000 0000 0000
000002e0: 0000 0000 0000 0000 0000 0000 0000 0000
000002f0: 0000 0000 0000 0000 0000 0000 0000 0000
00000300: 0000 0000 0000 0000 0000 0000 0000 0000
00000310: 0000 0000 0000 0000 0000 0000 0000 0000
00000320: 0000 0000 0000 0000 0000 0000 0000 0000
00000330: 0000 0000 0000 0000 0000 0000 0000 0000
00000340: 0000 0000 0000 0000 0000 0000 0000 0000
00000350: 0000 0000 0000 0000 0000 0000 0000 0000
00000360: 0000 0000 0000 0000 0000 0000 0000 0000
00000370: 0000 0000 0000 0000 0000 0000 0000 0000
00000380: 0000 0000 0000 0000 0000 0000 0000 0000
00000390: 0000 0000 0000 0000 0000 0000 0000 0000
000003a0: 0000 0000 0000 0000 0000 0000 0000 0000
000003b0: 0000 0000 0000 0000 0000 0000 0000 0000
000003c0: 0000 0000 0000 0000 0000 0000 0000 0000
000003d0: 0000 0000 0000 0000 0000 0000 0000 0000
000003e0: 0000 0000 0000 0000 0000 0000 0000 0000
000003f0: 0000 0000 0000 0000 0000 0000 0000 0000
0.0 0.0 0.0 0.0 0.0 0.0 0.0 0.0
0.0 0.0 0.0 0.0 0.0 0.0 0.0 0.0
0.0 0.0 0.0 0.0 0.0 0.0 0.0 0.0
0.0 0.0 0.0 0.0 0.0 0.0 0.0 0.0
0.0 0.0 0.0 0.0 0.0 0.0 0.0 0.0
0.0 0.0 0.0 0.0 0.0 0.0 0.0 0.0
0.0 0.0 0.0 0.0 0.0 0.0 0.0 0.0
0.0 0.0 0.0 0.0 0.0 0.0 0.0 0.0
0.0 0.0 0.0 0.0 0.0 0.0 0.0 0.0
0.0 0.0 0.0 0.0 0.0 0.0 0.0 0.0
0.0 0.0 0.0 0.0 0.0 0.0 0.0 0.0
0.0 0.0 0.0 0.0 0.0 0.0 0.0 0.0
0.0 0.0 0.0 0.0 0.0 0.0 0.0 0.0
0.0 0.0 0.0 0.0 0.0 0.0 0.0 0.0
0.0 0.0 0.0 0.0 0.0 0.0 0.0 0.0
0.0 0.0 0.0 0.0 0.0 0.0 0.0 0.0
0.0 0.0 0.0 0.0 0.0 0.0 0.0 0.0
0.0 0.0 0.0 0.0 0.0 0.0 0.0 0.0
0.0 0.0 0.0 0.0 0.0 0.0 0.0 0.0
0.0 0.0 0.0 0.0 0.0 0.0 0.0 0.0
0.0 0.0 0.0 0.0 0.0 0.0 0.0 0.0
0.0 0.0 0.0 0.0 0.0 0.0 0.0 0.0
0.0 0.0 0.0 0.0 0.0 0.0 0.0 0.0
0.0 0.0 0.0 0.0 0.0 0.0 0.0 0.0
0.0 0.0 0.0 0.0 0.0 0.0 0.0 0.0
0.0 0.0 0.0 0.0 0.0 0.0 0.0 0.0
0.0 0.0 0.0 0.0 0.0 0.0 0.0 0.0
0.0 0.0 0.0 0.0 0.0 0.0 0.0 0.0
0.0 0.0 0.0 0.0 0.0 0.0 0.0 0.0
0.0 0.0 0.0 0.0 0.0 0.0 0.0 0.0
0.0 0.0 0.0 0.0 0.0 0.0 0.0 0.0
0.0 0.0 0.0 0.0 0.0 0.0 0.0 0.0

exp_avg_sq f4 [256, 64]
00000000: 0000 0000 0000 0000 0000 0000 0000 0000
00000010: 0000 0000 0000 0000 0000 0000 0000 0000
00000020: 0000 0000 0000 0000 0000 0000 0000 0000
00000030: 0000 0000 0000 0000 0000 0000 0000 0000
00000040: 0000 0000 0000 0000 0000 0000 0000 0000
00000050: 0000 0000 0000 0000 0000 0000 0000 0000
00000060: 0000 0000 0000 0000 0000 0000 0000 0000
00000070: 0000 0000 0000 0000 0000 0000 0000 0000
00000080: 0000 0000 0000 0000 0000 0000 0000 0000
00000090: 0000 0000 0000 0000 0000 0000 0000 0000
000000a0: 0000 0000 0000 0000 0000 0000 0000 0000
000000b0: 0000 0000 0000 0000 0000 0000 0000 0000
000000c0: 0000 0000 0000 0000 0000 0000 0000 0000
000000d0: 0000 0000 0000 0000 0000 0000 0000 0000
000000e0: 0000 0000 0000 0000 0000 0000 0000 0000
000000f0: 0000 0000 0000 0000 0000 0000 0000 0000
00000100: 0000 0000 0000 0000 0000 0000 0000 0000
00000110: 0000 0000 0000 0000 0000 0000 0000 0000
00000120: 0000 0000 0000 0000 0000 0000 0000 0000
00000130: 0000 0000 0000 0000 0000 0000 0000 0000
00000140: 0000 0000 0000 0000 0000 0000 0000 0000
00000150: 0000 0000 0000 0000 0000 0000 0000 0000
00000160: 0000 0000 0000 0000 0000 0000 0000 0000
00000170: 0000 0000 0000 0000 0000 0000 0000 0000
00000180: 0000 0000 0000 0000 0000 0000 0000 0000
00000190: 0000 0000 0000 0000 0000 0000 0000 0000
000001a0: 0000 0000 0000 0000 0000 0000 0000 0000
000001b0: 0000 0000 0000 0000 0000 0000 0000 0000
000001c0: 0000 0000 0000 0000 0000 0000 0000 0000
000001d0: 0000 0000 0000 0000 0000 0000 0000 0000
000001e0: 0000 0000 0000 0000 0000 0000 0000 0000
000001f0: 0000 0000 0000 0000 0000 0000 0000 0000
00000200: 0000 0000 0000 0000 0000 0000 0000 0000
00000210: 0000 0000 0000 0000 0000 0000 0000 0000
00000220: 0000 0000 0000 0000 0000 0000 0000 0000
00000230: 0000 0000 0000 0000 0000 0000 0000 0000
00000240: 0000 0000 0000 0000 0000 0000 0000 0000
00000250: 0000 0000 0000 0000 0000 0000 0000 0000
00000260: 0000 0000 0000 0000 0000 0000 0000 0000
00000270: 0000 0000 0000 0000 0000 0000 0000 0000
00000280: 0000 0000 0000 0000 0000 0000 0000 0000
00000290: 0000 0000 0000 0000 0000 0000 0000 0000
000002a0: 0000 0000 0000 0000 0000 0000 0000 0000
000002b0: 0000 0000 0000 0000 0000 0000 0000 0000
000002c0: 0000 0000 0000 0000 0000 0000 0000 0000
000002d0: 0000 0000 0000 0000 0000 0000 0000 0000
000002e0: 0000 0000 0000 0000 0000 0000 0000 0000
000002f0: 0000 0000 0000 0000 0000 0000 0000 0000
00000300: 0000 0000 0000 0000 0000 0000 0000 0000
00000310: 0000 0000 0000 0000 0000 0000 0000 0000
00000320: 0000 0000 0000 0000 0000 0000 0000 0000
00000330: 0000 0000 0000 0000 0000 0000 0000 0000
00000340: 0000 0000 0000 0000 0000 0000 0000 0000
00000350: 0000 0000 0000 0000 0000 0000 0000 0000
00000360: 0000 0000 0000 0000 0000 0000 0000 0000
00000370: 0000 0000 0000 0000 0000 0000 0000 0000
00000380: 0000 0000 0000 0000 0000 0000 0000 0000
00000390: 0000 0000 0000 0000 0000 0000 0000 0000
000003a0: 0000 0000 0000 0000 0000 0000 0000 0000
000003b0: 0000 0000 0000 0000 0000 0000 0000 0000
000003c0: 0000 0000 0000 0000 0000 0000 0000 0000
000003d0: 0000 0000 0000 0000 0000 0000 0000 0000
000003e0: 0000 0000 0000 0000 0000 0000 0000 0000
000003f0: 0000 0000 0000 0000 0000 0000 0000 0000
0.0 0.0 0.0 0.0 0.0 0.0 0.0 0.0
0.0 0.0 0.0 0.0 0.0 0.0 0.0 0.0
0.0 0.0 0.0 0.0 0.0 0.0 0.0 0.0
0.0 0.0 0.0 0.0 0.0 0.0 0.0 0.0
0.0 0.0 0.0 0.0 0.0 0.0 0.0 0.0
0.0 0.0 0.0 0.0 0.0 0.0 0.0 0.0
0.0 0.0 0.0 0.0 0.0 0.0 0.0 0.0
0.0 0.0 0.0 0.0 0.0 0.0 0.0 0.0
0.0 0.0 0.0 0.0 0.0 0.0 0.0 0.0
0.0 0.0 0.0 0.0 0.0 0.0 0.0 0.0
0.0 0.0 0.0 0.0 0.0 0.0 0.0 0.0
0.0 0.0 0.0 0.0 0.0 0.0 0.0 0.0
0.0 0.0 0.0 0.0 0.0 0.0 0.0 0.0
0.0 0.0 0.0 0.0 0.0 0.0 0.0 0.0
0.0 0.0 0.0 0.0 0.0 0.0 0.0 0.0
0.0 0.0 0.0 0.0 0.0 0.0 0.0 0.0
0.0 0.0 0.0 0.0 0.0 0.0 0.0 0.0
0.0 0.0 0.0 0.0 0.0 0.0 0.0 0.0
0.0 0.0 0.0 0.0 0.0 0.0 0.0 0.0
0.0 0.0 0.0 0.0 0.0 0.0 0.0 0.0
0.0 0.0 0.0 0.0 0.0 0.0 0.0 0.0
0.0 0.0 0.0 0.0 0.0 0.0 0.0 0.0
0.0 0.0 0.0 0.0 0.0 0.0 0.0 0.0
0.0 0.0 0.0 0.0 0.0 0.0 0.0 0.0
0.0 0.0 0.0 0.0 0.0 0.0 0.0 0.0
0.0 0.0 0.0 0.0 0.0 0.0 0.0 0.0
0.0 0.0 0.0 0.0 0.0 0.0 0.0 0.0
0.0 0.0 0.0 0.0 0.0 0.0 0.0 0.0
0.0 0.0 0.0 0.0 0.0 0.0 0.0 0.0
0.0 0.0 0.0 0.0 0.0 0.0 0.0 0.0
0.0 0.0 0.0 0.0 0.0 0.0 0.0 0.0
0.0 0.0 0.0 0.0 0.0 0.0 0.0 0.0
